model_epoch_89.pt (torch, 431970 bytes, 28 tensors)

pos_encoder.pe f4 [5000, 1, 20]
0.0 1.0 0.0 1.0 0.0 1.0 0.0 1.0
0.0 1.0 0.0 1.0 0.0 1.0 0.0 1.0
0.0 1.0 0.0 1.0 0.841471 0.54030234 0.38767424 0.92179644
0.15782663 0.9874668 0.06305388 0.9980101 0.025116224 0.9996845 0.009999833 0.99995
0.0039810613 0.9999921 0.0015848922 0.99999875 0.0006309573 0.9999998 0.00025118855 0.99999994
0.9092974 -0.41614684 0.71471345 0.69941735 0.31169716 0.9501815 0.12585683 0.99204844
0.0502166 0.99873835 0.019998666 0.9998 0.00796206 0.9999683 0.0031697804 0.999995
0.0012619144 0.9999992 0.0005023771 0.9999999 0.14112 -0.9899925 0.92996645 0.36764446
0.45775455 0.8890786 0.18815888 0.9821386 0.07528529 0.99716204 0.0299955 0.99955004
0.011942931 0.99992865 0.0047546607 0.9999887 0.001892871 0.9999982 0.00075356563 0.9999997
-0.7568025 -0.6536436 0.99976605 -0.02163067 0.5923377 0.8056898 0.24971214 0.96832013
0.10030649 0.9949566 0.039989334 0.9992001 0.015923616 0.9998732 0.006339529 0.9999799
0.0025238267 0.99999684 0.0010047541 0.9999995 -0.9589243 0.2836622 0.91319513 -0.40752262
0.7120732 0.7021053 0.3102716 0.95064795 0.12526439 0.9921234 0.049979165 0.99875027
0.019904045 0.9998019 0.007924382 0.9999686 0.0031547816 0.99999505 0.0012559424 0.9999992
-0.2794155 0.96017027 0.683794 -0.7296751 0.81395954 0.5809216 0.3695962 0.9291925
0.15014328 0.98866427 0.059964005 0.99820054 0.02388416 0.99971473 0.009509213 0.99995476
0.0037857352 0.99999285 0.0015071308 0.99999887 0.6569866 0.75390226 0.34744254 -0.9377013
0.89544296 0.4451763 0.42744997 0.904039 0.17492743 0.98458135 0.06994285 0.997551
0.027863897 0.99961174 0.011094023 0.9999385 0.004416687 0.9999902 0.001758319 0.99999845
0.98935825 -0.14550003 -0.04325122 -0.9990642 0.9544809 0.29827204 0.48360258 0.8752877
0.1996012 0.97987723 0.07991469 0.99680173 0.031843193 0.9994929 0.012678803 0.9999196
0.0050476375 0.99998724 0.002009507 0.999998 0.4121185 -0.91113025 -0.42718017 -0.9041665
0.9895935 0.14389123 0.53783053 0.843053 0.22414905 0.9745549 0.089878544 0.9959527
0.03582198 0.9993582 0.014263553 0.99989825 0.0056785857 0.99998385 0.0022606952 0.99999744
-0.5440211 -0.8390715 -0.7442953 -0.6678507 0.99990064 -0.014096433 0.58991814 0.80746305
0.24855547 0.9686177 0.099833414 0.9950042 0.039800204 0.9992077 0.015848266 0.9998744
0.0063095316 0.9999801 0.002511883 0.99999684 -0.9999902 0.004425698 -0.9449973 -0.32707813
0.98514396 -0.17173062 0.6396579 0.7686597 0.2728051 0.96206933 0.1097783 0.9939561
0.043777797 0.9990413 0.01743294 0.999848 0.006940475 0.9999759 0.0027630706 0.9999962
-0.53657293 0.84385395 -0.99789494 0.06485153 0.9456933 -0.32506028 0.68685204 0.7267973
0.29688257 0.954914 0.119712204 0.99280864 0.047754694 0.9988591 0.019017566 0.99981916
00000000: 0000 0000 0000 803f 0000 0000 0000 803f
00000010: 0000 0000 0000 803f 0000 0000 0000 803f
00000020: 0000 0000 0000 803f 0000 0000 0000 803f
00000030: 0000 0000 0000 803f 0000 0000 0000 803f
00000040: 0000 0000 0000 803f 0000 0000 0000 803f
00000050: a56a 573f 4151 0a3f 3d7d c63e dafa 6b3f
00000060: 4e9d 213e a0ca 7c3f 6522 813d 977d 7f3f
00000070: 8ac0 cd3c 53eb 7f3f 57d6 233c b9fc 7f3f
00000080: 9073 823b 7bff 7f3f 28bc cf3a ebff 7f3f
00000090: d466 253a fdff 7f3f f5b1 8339 ffff 7f3f
000000a0: b7c7 683f 3311 d5be 76f7 363f 040d 333f
000000b0: c596 9f3e 183f 733f 9de0 003e e3f6 7d3f
000000c0: ecaf 4d3d 51ad 7f3f 3ed4 a33c e5f2 7f3f
000000d0: 4d73 023c ecfd 7f3f 17bc 4f3b acff 7f3f
000000e0: d266 a53a f3ff 7f3f f5b1 033a feff 7f3f
000000f0: c381 103e 2670 7dbf 4812 6e3f e53b bc3e
00000100: ce5e ea3e a89a 633f b9ac 403e 6f6d 7b3f
00000110: 2d2f 9a3d 0346 7f3f 1fb9 f53c 83e2 7f3f
00000120: 49ac 433c 53fb 7f3f fccc 9b3b 42ff 7f3f
00000130: 361a f83a e2ff 7f3f ef8a 453a fbff 7f3f
00000140: cfbd 41bf 3055 27bf abf0 7f3f ce32 b1bc
00000150: 72a3 173f b041 4e3f 8ab4 7f3e d4e3 773f
00000160: 7d6d cd3d 7ab5 7e3f dbcb 233d 94cb 7f3f
00000170: 3e72 823c b1f7 7f3f d3bb cf3b affe 7f3f
00000180: c966 253b cbff 7f3f f4b1 833a f8ff 7f3f
00000190: 107c 75bf 2c3c 913e 28c7 693f cea6 d0be
000001a0: 6e4a 363f 2cbd 333f ebdb 9e3e aa5d 733f
000001b0: 4f45 003e cdfb 7d3f f4b6 4c3d 19ae 7f3f
000001c0: cf0d a33c 04f3 7f3f 44d5 013c f1fd 7f3f
000001d0: 74c0 4e3b adff 7f3f 6f9e a43a f3ff 7f3f
000001e0: 8c0f 8fbe b8cd 753f 200d 2f3f fdcb 3abf
000001f0: a75f 503f 47b7 143f b73b bd3e 8fdf 6d3f
00000200: 29bf 193e 1a19 7d3f d19c 753d 128a 7f3f
00000210: b7a8 c33c 4eed 7f3f 88cc 1b3c 09fd 7f3f
00000220: 191a 783b 88ff 7f3f eb8a c53a edff 7f3f
00000230: 4630 283f bdff 403f fde3 b13e 310d 70bf
00000240: c03b 653f 26ee e33e b9da da3e 1a6f 673f
00000250: 2d20 333e 860d 7c3f 323e 8f3d 815f 7f3f
00000260: d442 e43c 8ee6 7f3f b4c3 353c f8fb 7f3f
00000270: dbb9 903b 5cff 7f3f 6577 e63a e6ff 7f3f
00000280: 9546 7d3f f6fd 14be 3128 31bd acc2 7fbf
00000290: dc58 743f 1db7 983e c29a f73e db12 603f
000002a0: 4264 4c3e 3cd9 7a3f 50aa a33d 662e 7f3f
000002b0: 026e 023d c4de 7f3f c1ba 4f3c bbfa 7f3f
000002c0: a766 a53b 2aff 7f3f efb1 033b deff 7f3f
000002d0: 3201 d33e d53f 69bf 5cb7 dabe 7577 67bf
000002e0: 0056 7d3f 3958 133e 43af 093f 52d2 573f
000002f0: 5487 653e 6e7c 793f 3e12 b83d c2f6 7e3f
00000300: 12ba 123d f0d5 7f3f adb1 693c 55f9 7f3f
00000310: 6e13 ba3b f1fe 7f3f 2c28 143b d5ff 7f3f
00000320: f844 0bbf 64cd 56bf 238a 3ebf 43f8 2abf
00000330: 7df9 7f3f baf4 66bc e004 173f e6b5 4e3f
00000340: 5385 7e3e 54f7 773f 7675 cc3d 98b8 7e3f
00000350: 8a05 233d 13cc 7f3f 39d4 813c c5f7 7f3f
00000360: 30c0 ce3b b2fe 7f3f 679e 243b cbff 7f3f
00000370: 5cff 7fbf 7205 913b 58eb 71bf c976 a7be
00000380: 6532 7c3f 27da 2fbe 9fc0 233f e2c6 443f
00000390: 1cad 8b3e 2d4a 763f 72d3 e03d e873 7e3f
000003a0: 5950 333d 2cc1 7f3f 86cf 8e3c 0af6 7f3f
000003b0: ed6c e33b 6cfe 7f3f a214 353b c0ff 7f3f
000003c0: d85c 09bf d006 583f 0b76 7fbf e1d0 843d
000003d0: f518 723f 4d6e a6be 89d5 2f3f 630f 3a3f
000003e0: fe00 983e 3e75 743f ac2b f53d b528 7e3f
000003f0: 6d9a 433d 3bb5 7f3f baca 9b3c 26f4 7f3f

transformer_encoder.layers.0.self_attn.in_proj_weight f4 [60, 20]
-0.15022212 -0.23809272 0.21508148 0.061538707 0.18519318 0.07904847 -0.1808549 0.12429671
0.0111046955 0.04500622 -0.20300898 0.23727898 -0.27089724 0.18199885 0.26272327 0.26255947
0.07565263 -0.10866356 -0.010899704 -0.011628283 0.24275507 -0.06273648 -0.26159942 0.1009406
0.059241552 0.10781865 0.16228348 -0.08571329 0.23223102 -0.042962532 0.0009385285 -0.094074145
0.10119018 -0.1027896 0.22902405 0.15930854 0.26329964 0.020575663 0.03660469 -0.1225852
0.1457705 -0.14374314 0.0148168355 -0.06730492 0.24172504 -0.20491265 0.1754187 -0.228942
-0.0047562267 -0.083093025 -0.05989901 -0.046497557 0.047738582 -0.15398742 0.10663758 -0.17768422
-0.06367029 -0.28214505 -0.08812214 -0.02808262 0.10293582 -0.014184025 -0.14164957 0.0870103
0.214454 0.15590602 -0.11125071 0.105294846 0.030395899 -0.011287155 0.06167272 0.12446314
-0.24108797 -0.13020337 0.029161481 0.18940113 -0.18335569 -0.12472632 -0.016463352 0.12886661
-0.23859231 0.110326365 -0.178123 0.25254038 -0.07150063 -0.07316487 -0.013238311 -0.019950738
0.23361517 0.13142613 -0.22731742 0.13722116 0.16380993 -0.10823645 -0.20000422 -0.089310795
-0.055267733 0.037876505 0.020216074 0.25252137 -0.07026248 -0.05044977 0.2046778 -0.22261477
0.036256146 0.034882545 0.065232396 0.18123996 -0.19704314 -0.1174129 0.062886536 0.21250145
-0.040634986 -0.08027092 -0.2348363 0.17412743 -0.15081134 -0.16223745 -0.112910636 -0.017562063
-0.10396896 0.09725861 0.24234919 0.020418178 -0.18577677 -0.14175285 -0.03234276 -0.13568032
-0.05813667 0.13598089 -0.08504505 0.12035039 -0.033823088 0.14721224 -0.12554625 0.24266976
0.21982276 -0.1331414 0.0033923094 -0.10996484 0.2247581 -0.5763398 0.052820418 0.018443232
0.2892806 -0.030115368 -0.18997292 -0.055387307 -0.11202302 -0.06285358 0.05617909 -0.17886768
0.16705504 -0.02534643 -0.21314229 -0.13979866 0.10719577 0.0065562115 -0.032460824 -0.105861515
0.118741386 0.1149055 -0.007977116 0.20170718 0.113752015 -0.08532947 -0.2754063 0.19397707
-0.0016501255 0.12873766 -0.032318078 0.065004945 0.22351807 -0.074902765 0.14603546 0.19054817
0.15219857 -0.22975692 0.2511099 0.15202773 -0.0763993 -0.19487748 0.06202234 0.10344608
0.18348543 -0.16073693 -0.085765116 0.1360278 -0.16594681 -0.106536105 -0.20478664 -0.123491496
0.16320056 -0.06927269 -0.021652287 -0.013411767 -0.20906171 -0.044972558 -0.0658483 0.010938007
-0.16951208 -0.25996122 0.046600014 -0.19694035 -0.007860564 0.14334549 0.020879705 -0.19820201
0.21534377 0.14528783 0.123131126 0.035515334 -0.033462323 0.014693455 -0.048580617 0.022991385
0.057281766 0.23189452 0.11778297 0.13197726 0.021001587 -0.29581696 -0.19690003 -0.23068053
0.18887542 -0.098691985 -0.15164989 0.04846292 0.026827596 0.15231268 -0.10094971 0.049287383
-0.20009546 -0.07245586 -0.17617254 0.12510662 0.103560254 -0.022098059 0.017670352 -0.2717329
0.30242014 0.1298325 0.22094472 -0.23101263 -0.18990892 -0.14538312 -0.23420727 0.09136319
-0.0819176 -0.16577348 0.12017847 -0.0121941315 0.27362907 0.20416287 0.26318476 -0.050810367
00000000: d4d3 19be 94ce 73be 523e 5c3e 0310 7c3d
00000010: 48a3 3d3e 2ae4 a13d 0732 39be 468f fe3d
00000020: 78f0 353c 7158 383d 96e1 4fbe 43f9 723e
00000030: 0bb3 8abe e85d 3a3e aa83 863e 326e 863e
00000040: c4ef 9a3d 008b debd ac94 32bc 8e84 3ebc
00000050: c994 783e fc7b 80bd 5cf0 85be f2b9 ce3d
00000060: 45a7 723d 06d0 dc3d a42d 263e 738a afbd
00000070: f8cd 6d3e 7bf9 2fbd 9507 763a f2a9 c0bd
00000080: cc3c cf3d 5b83 d2bd 4885 6a3e c721 233e
00000090: 36cf 863e 4b8e a83c cdee 153d f30d fbbd
000000a0: dd44 153e 6731 13be 50c2 723c 29d7 89bd
000000b0: c586 773e 9fd4 51be f6a0 333e c66f 6abe
000000c0: 1fda 9bbb ad2c aabd aa58 75bd 3974 3ebd
000000d0: 8889 433d e1ae 1dbe ce64 da3d daf2 35be
000000e0: 9265 82bd 5175 90be 6179 b4bd 860d e6bc
000000f0: 04d0 d23d 1d64 68bc 960c 11be 7532 b23d
00000100: d499 5b3e d4a5 1f3e 6ad7 e3bd d3a4 d73d
00000110: d200 f93c c2ed 38bc 899c 7c3d 88e6 fe3d
00000120: c4df 76be 0854 05be 0fe4 ee3c 5ff2 413e
00000130: 98c1 3bbe 8370 ffbd 27de 86bc 9cf5 033e
00000140: 8b51 74be caf2 e13d e065 36be f94c 813e
00000150: ec6e 92bd 77d7 95bd 80e5 58bc bb6f a3bc
00000160: d138 6f3e 9294 063e e6c5 68be b483 0c3e
00000170: cabd 273e 12ab ddbd e8cd 4cbe 94e8 b6bd
00000180: 6b60 62bd 6524 1b3d 2e9c a53c 7b4a 813e
00000190: c6e5 8fbd 6ba4 4ebd 0f97 513e 20f5 63be
000001a0: 5381 143d 00e1 0e3d 9098 853d f896 393e
000001b0: adc5 49be 2d76 f0bd a8ca 803d fb99 593e
000001c0: df70 26bd 1565 a4bd ed78 70be 764e 323e
000001d0: 4a6e 1abe 9321 26be b13d e7bd 51de 8fbc
000001e0: aeed d4bd 862f c73d 632a 783e 0644 a73c
000001f0: 443c 3ebe a927 11be d879 04bd c8ef 0abe
00000200: b820 6ebd 933e 0b3e 192c aebd 447a f63d
00000210: 148a 0abd cebe 163e 328f 00be 6c7e 783e
00000220: 3819 613e 3856 08be 8251 5e3b 3f35 e1bd
00000230: fd26 663e 018b 13bf 395a 583d 4316 973c
00000240: 961c 943e 81b4 f6bc 4388 42be cddd 62bd
00000250: 536c e5bd 61b9 80bd 0c1c 663d 1729 37be
00000260: 7a10 2b3e 51a3 cfbc f941 5abe 6127 0fbe
00000270: 7589 db3d 7dd5 d63b a4f5 04bd eccd d8bd
00000280: af2e f33d 9353 eb3d 73b2 02bc 548c 4e3e
00000290: d1f6 e83d 38c1 aebd 0e02 8dbe eda1 463e
000002a0: 0649 d8ba ced3 033e f65f 04bd 5021 853d
000002b0: ece1 643e 9f66 99bd 528a 153e 0f1f 433e
000002c0: f1d9 1b3e 6645 6bbe 7a91 803e 28ad 1b3e
000002d0: 3c77 9cbd f68d 47be 230b 7e3d 8adb d33d
000002e0: 9be3 3b3e 3998 24be 9fa5 afbd df4a 0b3e
000002f0: f6ed 29be 9a2f dabd 97b3 51be 1ce9 fcbd
00000300: 0c1e 273e d7de 8dbd 2360 b1bc 07bd 5bbc
00000310: 4614 56be 2535 38bd 79db 86bd 5435 333c
00000320: 9394 2dbe a319 85be a8df 3e3d bbaa 49be
00000330: 98c9 00bc 29c9 123e ea0b ab3c 78f5 4abe
00000340: 1483 5c3e 55c6 143e 2c2c fc3d 8778 113d
00000350: ca0f 09bd d1bc 703c 78fc 46bd 6e58 bc3c
00000360: 49a0 6a3d c275 6d3e 3338 f13d 0c25 073e
00000370: 850b ac3c 5275 97be 29a0 49be 8437 6cbe
00000380: 8f68 413e 061f cabd 1c4a 1bbe 0e81 463d
00000390: 8cc5 db3c dbf7 1b3e b9be cebd 91e1 493d
000003a0: d3e5 4cbe bd63 94bd 9366 34be f31b 003e
000003b0: 6617 d43d fd06 b5bc 6ac1 903c 9320 8bbe
000003c0: d0d6 9a3e d0f2 043e 553f 623e 938e 6cbe
000003d0: 7c77 42be 50df 14be 08d4 6fbe a01c bb3d
000003e0: 6ac4 a7bd 86c0 29be 2120 f63d e5c9 47bc
000003f0: 1c19 8c3e 1210 513e 27c0 863e 881e 50bd

transformer_encoder.layers.0.self_attn.in_proj_bias f4 [60]
-0.017221222 0.003239994 -0.0044875 0.0010028773 -0.009579689 0.017607018 0.039912757 0.04280046
0.031809602 -0.0094006825 0.021717764 -0.013550835 -0.019339405 -0.024801383 0.018157668 0.010212759
-0.010819542 -0.04298449 0.00552913 0.050399277 -2.7497487e-09 7.977966e-10 -1.8888125e-11 -2.2701e-09
1.936603e-09 1.6413193e-08 5.6435887e-09 3.9521004e-09 7.793644e-09 4.65293e-09 1.553274e-10 3.8225142e-10
2.0841617e-10 -8.566879e-10 -3.7802352e-09 3.49666e-09 -5.707058e-09 3.7918872e-09 2.9918619e-09 2.4495286e-09
-0.04773143 0.051079556 -0.024981458 -0.016027067 0.057554197 0.08558312 0.0070565646 0.06422346
0.055531785 0.008995966 -0.018037468 0.013223077 -0.06671159 0.07193838 0.017800268 0.07089779
0.043062713 0.04248684 0.010953152 -0.014916217
00000000: 8513 8dbc 1456 543b e10b 93bb fa72 833a
00000010: 21f4 1cbc 983c 903c 8f7b 233d 894f 2f3d
00000020: c94a 023d 5205 1abc 74e9 b13c 5204 5ebc
00000030: ac6d 9ebc 452c cbbc 64bf 943c 6a53 273c
00000040: 7344 31bc 8110 30bd b42d b53b 796f 4e3d
00000050: 17f6 3cb1 f24b 5b30 4724 a6ad 0600 1cb1
00000060: 1515 0531 fefc 8c32 88e9 c131 0bcb 8731
00000070: cfe4 0532 9bdf 9f31 c7c8 2a2f 1b25 d22f
00000080: f027 652f 0d7c 6bb0 4de3 81b1 e549 7031
00000090: d017 c4b1 cb49 8231 6499 4d31 9054 2831
000000a0: 0882 43bd cc38 513d eaa5 ccbc 324b 83bc
000000b0: f3bd 6b3d 3446 af3d c13a e73b 9787 833d
000000c0: 4c75 633d d163 133c 50c3 93bc 9ba5 583c
000000d0: 16a0 88bd 6e54 933d ded1 913c dc32 913d
000000e0: 8762 303d ae06 2e3d d974 333c 2663 74bc

transformer_encoder.layers.0.self_attn.out_proj.weight f4 [20, 20]
0.13268435 -0.11287353 -0.08821071 0.15179743 0.26610154 0.057855673 0.42566273 0.11952569
-0.06443335 0.07182638 -0.18684332 0.053531867 -0.0121606495 -0.018763721 0.08193988 -0.36958116
0.12544876 0.08870679 0.36626375 0.09366675 0.14812545 -0.08374968 0.07043982 -0.05571542
0.09416141 -0.056853067 -0.27292302 -0.17201994 -0.15273571 -0.07293274 -0.0412286 0.068160765
0.12710242 -0.19911876 -0.10161248 0.06862839 -0.075665906 0.054068245 0.043595463 -0.09458026
-0.15572059 -0.035730995 -0.09438153 -0.14656168 0.17318165 -0.15534054 -0.18788503 0.019847766
-0.21644014 -0.036897376 -0.13480487 -0.15309317 0.016676309 0.07960572 0.029333938 -0.18243402
0.14785862 -0.10794441 0.10066102 -0.22349387 0.054694373 -0.043243244 0.016195102 0.007609397
0.19999418 -0.263296 0.113086514 -0.02024757 0.12667878 0.07359586 0.004275353 -0.11344375
0.12185335 0.06389602 0.31886438 -0.1486795 -0.10016234 0.08787307 -0.00057225255 0.27649257
-0.044873986 0.10422272 -0.21922234 -0.19205584 -0.030284744 0.0010762356 0.19674328 -0.039042354
0.17656112 0.049737226 -0.018128045 0.05201586 -0.207113 0.21523759 -0.090691514 -0.15606694
0.06185497 0.049757365 0.10565855 -0.12965854 0.26122272 0.08180325 -0.20595244 -0.016412808
-0.082040906 -0.08367909 -0.36161503 -0.17184664 -0.027977493 0.22587302 -0.21884984 -0.010964378
0.0052398955 0.01588756 0.04975286 0.17175484 -0.043159112 -0.044826746 0.16978195 -0.15975687
0.062135797 -0.101646855 -0.12223009 0.08986997 0.20892632 -0.21094568 0.17402029 0.05317385
0.220537 0.14830151 0.07783683 0.041958213 0.20233183 -0.13208555 -0.16501085 0.18816335
0.01938877 0.067574926 -0.15040287 -0.10099658 0.08186216 -0.13190538 0.14278942 -0.07205257
0.114843205 -0.060371686 -0.082703285 0.112246506 0.12456783 -0.10775543 -0.16897187 -0.1828534
0.13257578 -0.05734703 -0.07606046 -0.0693416 0.08296073 0.14828476 -0.040693406 -0.075989485
0.024428995 0.19649227 0.1930785 0.013542951 -0.09388301 0.054202616 -0.054279547 0.22129679
0.0034147652 -0.03441541 -0.1758575 -0.108251005 -0.072933495 0.1470746 0.03523038 0.19771323
-0.022607831 0.073799685 0.10590049 -0.2717698 0.15706384 -0.16313756 0.22296153 -0.12448102
0.23551536 -0.1088915 0.059945874 0.056297377 0.23124072 -0.14726931 0.00040132084 0.06901683
-0.17573982 -0.10232463 -0.025986867 0.17821974 -0.14981432 0.12993869 -0.19965145 -0.15681809
0.23707202 -0.17801511 0.11044699 -0.05008547 0.10643065 -0.0046348344 0.17653474 0.035061777
-0.16287613 -0.022376722 0.00094520696 -0.091757424 0.010761654 0.04257545 -0.0060812626 0.20130059
0.008932473 0.18905146 -0.020248512 0.08643281 0.15309688 0.08716529 -0.007711818 -0.18874343
0.065208845 -0.24337628 -0.26539028 0.05702878 0.23330873 -0.022100078 -0.037949648 -0.005540556
-0.10190604 0.01878641 -0.036572874 0.20123373 -0.31798378 -0.17187357 0.01454046 0.023939041
-0.167969 -0.098669715 0.30919605 -0.17219585 -0.10348407 0.03726842 0.06352718 0.10137449
-0.28663883 0.16218218 0.14196964 -0.032915 -0.0333133 0.21274687 -0.007410663 0.25322816
00000000: 68de 073e 3d2a e7bd d1a7 b4bd c970 1b3e
00000010: 763e 883e 12fa 6c3d 77f0 d93e e3c9 f43d
00000020: a2f5 83bd b619 933d db53 3fbe 3b44 5b3d
00000030: 763d 47bc 60b6 99bc 19d0 a73d be39 bdbe
00000040: a475 003e e8ab b53d ec86 bb3e 5ad4 bf3d
00000050: 33ae 173e f484 abbd c142 903d da35 64bd
00000060: b3d7 c03d c3de 68bd 91bc 8bbe ff25 30be
00000070: c066 1cbe c35d 95bd 52df 28bd df97 8b3d
00000080: 2327 023e cae5 4bbe 341a d0bd 0b8d 8c3d
00000090: baf6 9abd aa76 5d3d 2891 323d 4cb3 c1bd
000000a0: 3875 1fbe aa5a 12bd 1b4b c1bd 4414 16be
000000b0: 8856 313e 9711 1fbe ef64 40be c897 a23c
000000c0: 7ca2 5dbe b421 17bd 4a0a 0abe 75c4 1cbe
000000d0: c19c 883c 5308 a33d ba4d f03c fccf 3abe
000000e0: 4068 173e f511 ddbd 5d27 ce3d 94db 64be
000000f0: 3507 603d d41f 31bd 97ab 843c 4058 f93b
00000100: 46cb 4c3e bcce 86be e799 e73d 3bde a5bc
00000110: 15b8 013e 6db9 963d 4318 8c3b 3255 e8bd
00000120: 408e f93d ebdb 823d 3142 a33e 703f 18be
00000130: ea21 cdbd ccf6 b33d 3803 16ba 6f90 8d3e
00000140: c9cd 37bd b972 d53d d27b 60be 49aa 44be
00000150: b617 f8bc 7910 8d3a 1277 493e e0ea 1fbd
00000160: 70cc 343e 43b9 4b3d 4481 94bc 950e 553d
00000170: 6e15 54be 3e67 5c3e 79bc b9bd 03d0 1fbe
00000180: a35b 7d3d 61ce 4b3d 8363 d83d 35c5 04be
00000190: fcbe 853e 7688 a73d 32e5 52be 2774 86bc
000001a0: 1005 a8bd f15f abbd 9b25 b9be 91f8 2fbe
000001b0: 0e31 e5bc 424b 673e 2c1a 60be efa3 33bc
000001c0: 6eb3 ab3b a126 823c a8c9 4b3d 80e0 2f3e
000001d0: 9cc7 30bd 409c 37bd 52db 2d3e 4e97 23be
000001e0: 1b82 7e3d 3a2c d0bd c553 fabd bf0d b83d
000001f0: c8f0 553e 2502 58be 6032 323e d3cc 593d
00000200: 74d4 613e 5adc 173e ea68 9f3d 60dc 2b3d
00000210: 1330 4f3e 6f41 07be 9bf8 28be e5ad 403e
00000220: 33d5 9e3c b964 8a3d 3603 1abe 4cd7 cebd
00000230: 59a7 a73d 3412 07be 6437 123e 4c90 93bd
00000240: ea32 eb3d 4d48 77bd 5760 a9bd 7fe1 e53d
00000250: 6b1d ff3d e1ae dcbd f606 2dbe ec3d 3bbe
00000260: f2c1 073e b8e4 6abd 96c5 9bbd f802 8ebd
00000270: 51e7 a93d f6d7 173e 21ae 26bd 60a0 9bbd
00000280: 511f c83c 4535 493e 5fb6 453e 41e3 5d3c
00000290: bc45 c0bd 9003 5e3d 3b54 5ebd a09b 623e
000002a0: 41ca 5f3b 2cf7 0cbd fd13 34be b4b2 ddbd
000002b0: 285e 95bd b99a 163e bb4d 103d 5675 4a3e
000002c0: 0f34 b9bc 4a24 973d 5be2 d83d 6925 8bbe
000002d0: 58d5 203e 880d 27be 0750 643e e8ef febd
000002e0: f02a 713e 8202 dfbd ce89 753d 1498 663d
000002f0: 5eca 6c3e c4cd 16be 5f68 d239 b258 8d3d
00000300: 24f5 33be 938f d1bd 69e2 d4bc 3c7f 363e
00000310: ed68 19be a60e 053e 6e71 4cbe ec94 20be
00000320: 02c3 723e 9849 36be 0832 e23d 6c26 4dbd
00000330: 50f8 d93d cfdf 97bb 86c5 343e f09c 0f3d
00000340: 00c9 26be 634f b7bc c4c7 773a 51eb bbbd
00000350: a651 303c 9863 2e3d 5445 c7bb be21 4e3e
00000360: 8259 123c b596 413e 35e0 a5bc af03 b13d
00000370: 6ec5 1c3e b783 b23d 6bb3 fcbb f545 41be
00000380: 378c 853d a237 79be 3ce1 87be 0397 693d
00000390: 7ce8 6e3e 390b b5bc 1771 1bbd 8d8d b5bb
000003a0: 1db4 d0bd f5e5 993c 70cd 15bd 3710 4e3e
000003b0: c5ce a2be a0ff 2fbe 1c3b 6e3c cf1b c43c
000003c0: 1100 2cbe 5913 cabd f24e 9e3e 1c54 30be
000003d0: 75ef d3bd c5a6 183d 8a1a 823d 6e9d cf3d
000003e0: 53c2 92be 1613 263e 7d60 113e e1d1 06bd
000003f0: 8773 08bd 51da 593e 26d5 f2bb 1fa7 813e

transformer_encoder.layers.0.self_attn.out_proj.bias f4 [20]
-0.02077368 0.049170908 0.034191474 0.03773776 0.021564376 0.024729202 -0.019918943 0.02845831
-0.014573072 -0.01861498 0.0051243035 -0.043400012 0.03700494 -0.08627998 0.03546869 -0.021688165
-0.0028152005 -0.038349222 0.014136017 -0.021172563
00000000: 912d aabc 6f67 493d 5c0c 0c3d e992 1a3d
00000010: c6a7 b03c e594 ca3c 0d2d a3bc 6721 e93c
00000020: e5c3 6ebc 717e 98bc c6e9 a73b 36c4 31bd
00000030: 7e92 173d 8fb3 b0bd 9e47 113d 61ab b1bc
00000040: 3a7f 38bb 1314 1dbd c19a 673c 1572 adbc

transformer_encoder.layers.0.linear1.weight f4 [20, 20]
-0.09222776 0.14416 0.060910042 0.19516365 -0.091371104 -0.02232667 -0.15771751 0.18335299
-0.033106346 -0.0036214998 -0.11841627 0.03920016 0.06838133 0.044994887 0.030231738 0.0874248
0.19562013 -0.14635657 -0.057957657 -0.11254247 -0.25300258 0.1867954 -0.22270627 0.043497037
0.061320636 -0.021992492 0.030401036 -0.17696567 0.16682671 -0.034538727 -0.035386033 0.094339006
-0.058012445 -0.14311726 0.1537959 0.19552524 0.13766594 -0.05527932 -0.11910322 0.07474593
0.17134286 0.21162726 0.23286068 0.19390394 0.002885653 0.18105039 0.21856971 -0.054678086
-0.08314002 0.044620827 -0.3064985 0.008847756 0.007450316 0.102910355 -0.1813015 -0.04923426
-0.08834704 0.20159961 0.04368156 -0.022811448 -0.06667509 -0.15173565 0.05467229 0.25100845
-0.037631795 -0.015773144 -0.0720003 0.142336 -0.1595907 -0.07226467 0.1358204 -0.17037195
0.15113069 0.04439533 -0.060302403 0.108814895 -0.10346394 -0.19509211 0.03162526 0.1811182
0.06538847 -0.20447408 -0.09350779 -0.31957528 0.13494341 0.3613568 0.011327579 -0.19667199
0.0035878958 -0.13072592 0.033541363 -0.096878566 -0.121714465 0.14686368 0.07127666 -0.23893513
-0.17909947 0.032014698 0.08861133 -0.06870626 -0.026045257 -0.46497405 -0.0010958088 -0.076234065
0.10336475 -0.3120366 0.0243271 -0.08007734 -0.11109918 -0.049003966 -0.031860877 -0.04292003
-0.0029631706 0.010482733 0.18603276 0.32318377 -0.06174861 0.077040784 0.23031032 0.12359638
-0.020088188 0.11987046 -0.105108894 -0.2012137 0.14809617 0.35593733 -0.09602501 -0.2282303
-0.06495987 0.14537375 -0.14492905 -0.2379516 -0.21152228 -0.12997285 0.057278942 -0.05855131
-0.034112655 0.0630157 0.023961322 -0.2392534 0.2119996 0.16652597 -0.06858097 -0.02468868
-0.09182459 0.22217543 -0.23019098 0.08362127 -0.06555463 -0.22137462 -0.17815301 -0.18109165
0.11266675 -0.23018503 0.13072126 -0.1787892 0.03176324 -0.24169524 -0.16973187 -0.09397936
-0.1471602 0.19609442 0.18685775 -0.12434444 0.073941514 -0.0014677716 0.07121495 0.27081206
-0.1308988 -0.1274272 0.14186113 0.24741943 -0.06961469 0.10766111 -0.056534365 -0.22995241
0.13901359 -0.07281295 0.10113842 0.12125658 0.013796574 -0.27241313 -0.014799788 0.24205525
0.24104227 0.0742931 -0.085521445 0.12063222 0.043167207 -0.06989972 0.12478287 0.14840515
0.14276524 -0.15877764 -0.09794212 -0.010029594 -0.14803736 0.17437741 -0.08296472 -0.026540034
-0.004346395 0.17786948 -0.06337559 0.19463672 0.19481732 -0.040520426 -0.008756711 -0.02131556
0.23051727 -0.1771057 -0.18022655 -0.18409547 0.094878376 0.09898164 -0.024209226 0.1278698
-0.13233249 -0.19151762 0.074453525 -0.16739762 0.075790435 -0.25364307 0.057308797 -0.18116778
-0.013689083 -0.23981927 0.12459229 -0.14519694 -0.10558309 0.11341945 -0.024443986 -0.04188634
-0.18425745 0.0052802805 0.16744688 0.15911412 -0.17553394 -0.1733214 0.13230482 0.09894936
0.05309988 0.19738925 -0.023239918 0.17500591 0.06098423 -0.031480167 0.17248131 0.19347875
0.15307915 0.10303092 0.01533921 -0.17156436 -0.16628358 0.094752185 -0.10272531 -0.11412491
00000000: e8e1 bcbd ae9e 133e cf7c 793d fbd8 473e
00000010: c620 bbbd 6ce6 b6bc b380 21be e3c0 3b3e
00000020: 859a 07bd af56 6dbb 3b84 f2bd 5990 203d
00000030: 830b 8c3d 8f4c 383d 8da8 f73c c60b b33d
00000040: a550 483e 7fde 15be 0265 6dbd ab7c e6bd
00000050: 8e89 81be 4b47 3f3e 1d0d 64be f329 323d
00000060: 592b 7b3d 9929 b4bc 980b f93c 7d36 35be
00000070: 9fd4 2a3e 7b78 0dbd f2f0 10bd cf34 c13d
00000080: 759e 6dbd 558d 12be ac7c 1d3e c537 483e
00000090: 4df8 0c3e 916c 62bd 64ec f3bd 6514 993d
000000a0: 8174 2f3e d1b4 583e 0873 6e3e c18e 463e
000000b0: 391d 3d3b 4665 393e bdd0 5f3e 21f6 5fbd
000000c0: 5145 aabd 54c4 363d 5fed 9cbe 2ef6 103c
000000d0: c821 f43b aac2 d23d 1aa7 39be dda9 49bd
000000e0: 4bef b4bd 2170 4e3e 6feb 323d 13df babc
000000f0: f38c 88bd 9760 1bbe 0df0 5f3d 2e84 803e
00000100: cc23 1abd ae36 81bc e574 93bd 87c0 113e
00000110: bf6b 23be 80ff 93bd 8114 0b3e fc75 2ebe
00000120: 01c2 1a3e e1d7 353d a7ff 76bd 58da de3d
00000130: e7e4 d3bd 3ac6 47be 7d89 013d 0d77 393e
00000140: 64ea 853d a761 51be 0381 bfbd 5f9f a3be
00000150: 9b2e 0a3e c203 b93e 4f97 393c 6264 49be
00000160: e722 6b3b 04dd 05be ab62 093d 4568 c6bd
00000170: 6f45 f9bd 6f63 163e 7ff9 913d 69ab 74be
00000180: da65 37be d821 033d db79 b53d deb5 8cbd
00000190: dd5c d5bc 1411 eebe 3ea1 8fba 9b20 9cbd
000001a0: e6b0 d33d 43c3 9fbe a049 c73c 97ff a3bd
000001b0: f887 e3bd 62b8 48bd 8d80 02bd eacc 2fbd
000001c0: c131 42bb c5bf 2b3c 5f7f 3e3e 5878 a53e
000001d0: 1cec 7cbd 8fc7 9d3d 78d6 6b3e 1920 fd3d
000001e0: fc8f a4bc a57e f53d 5543 d7bd f70a 4ebe
000001f0: 86a6 173e 6b3d b63e c3a8 c4bd 34b5 69be
00000200: ae09 85bd dbdc 143e 4868 14be 96a9 73be
00000210: 4c99 58be 9a17 05be 539d 6a3d 80d3 6fbd
00000220: b6b9 0bbd 600e 813d 894a c43c d8fe 74be
00000230: 6c16 593e c985 2a3e 2e74 8cbd ea3f cabc
00000240: 880e bcbd f581 633e 2fb7 6bbe a141 ab3d
00000250: 8141 86bd 07b0 62be be6d 36be 1770 39be
00000260: d3bd e63d a0b5 6bbe cbdb 053e 8414 37be
00000270: 2c1a 023d f57e 77be 31ce 2dbe 4078 c0bd
00000280: 2ab1 16be facc 483e a357 3f3e 4ca8 febd
00000290: a66e 973d 3e62 c0ba 25d9 913d e1a7 8a3e
000002a0: 560a 06be 477c 02be 0b44 113e 855b 7d3e
000002b0: 2692 8ebd 6e7d dc3d 9490 67bd a578 6bbe
000002c0: 9459 0e3e f51e 95bd a921 cf3d 5f55 f83d
000002d0: 070b 623c bc79 8bbe cf7a 72bc 55dd 773e
000002e0: c9d3 763e fb26 983d de25 afbd 060e f73d
000002f0: 19d0 303d 9627 8fbd 298e ff3d 85f7 173e
00000300: 0d31 123e 9b96 22be e195 c8bd 2b53 24bc
00000310: 1b97 17be fe8f 323e 68e9 a9bd 7c6a d9bc
00000320: 346c 8ebb 6b23 363e 10cb 81bd d94e 473e
00000330: 317e 473e bff8 25bd 4f78 0fbc f89d aebc
00000340: b80c 6c3e 325b 35be 4f8d 38be 8683 3cbe
00000350: 984f c23d e3b6 ca3d 6d52 c6bc 4df0 023e
00000360: 2b82 07be 321d 44be 177b 983d 486a 2bbe
00000370: 0438 9b3d 81dd 81be a1bc 6a3d 0c84 39be
00000380: 2d48 60bc 2f93 75be 3e2a ff3d 82ae 14be
00000390: f23b d8bd 7548 e83d c13e c8bc 0391 2bbd
000003a0: fcad 3cbe 3406 ad3b 3277 2b3e d0ee 223e
000003b0: 2bbf 33be 2a7b 31be ea7a 073e f6a5 ca3d
000003c0: 437f 593d 6820 4a3e a461 bebc c034 333e
000003d0: 9aca 793d 59f1 00bd f19e 303e 4b1f 463e
000003e0: c8c0 1c3e e001 d33d 4f51 7b3c 91ae 2fbe
000003f0: 3e46 2abe 6f0d c23d a661 d2bd 52ba e9bd

transformer_encoder.layers.0.linear1.bias f4 [20]
-0.08262426 0.10305518 -0.18258661 -0.06096776 0.16688593 0.0010685377 -0.22626488 -0.23159869
0.02705873 0.07806103 0.110804036 -0.01791658 0.053784348 -0.048057094 -0.11822682 -0.09157198
-0.18982057 -0.15578413 -0.14307103 -0.21082038
00000000: e836 a9bd 980e d33d fcf7 3abe 54b9 79bd
00000010: 25e4 2a3e 2d0e 8c3a fbb1 67be 3528 6dbe
00000020: 45aa dd3c 76de 9f3d 3aed e23d cbc5 92bc
00000030: fa4c 5c3d 84d7 44bd e720 f2bd 178a bbbd
00000040: 5360 42be e085 1fbe 3681 12be 4ce1 57be

transformer_encoder.layers.0.linear2.weight f4 [20, 20]
0.038195074 -0.21133669 -0.0966048 0.21616769 -0.20423537 0.4253394 0.07012277 0.17031118
-0.14946458 0.25338998 0.09646291 0.315636 -0.11888045 0.01506738 0.19381325 0.19133288
0.27403724 -0.093146056 -0.04918114 0.10235893 0.13627265 0.05628231 -0.043330617 0.047986258
-0.034850016 0.25972143 0.11956395 -0.15798545 0.12496376 0.00824265 -0.10576332 -0.023803437
0.13523707 -0.05073005 0.112199545 -0.10069177 0.007514004 -0.0025443116 0.006406668 -0.009227357
0.04773354 -0.05171629 0.19683918 -0.11631631 -0.12935537 0.25663206 -0.12584084 0.2643627
0.17423877 0.15880074 0.010513453 -0.025694799 0.0015606591 -0.050671063 0.08964282 -0.16119106
-0.07567395 0.03536547 0.04176777 0.05323465 0.15272564 -0.008398821 -0.0033806753 -0.090235695
0.028216766 0.038432445 0.119666696 0.14567977 0.0032069166 -0.14794159 0.040514477 -0.016278153
0.04752895 -0.00076331204 0.14680846 0.15648481 -0.100075826 0.012352429 0.050401956 -0.104077764
-0.04817175 0.0020379731 -0.16871426 0.05773181 0.08473568 0.18036872 0.08652808 0.09955719
0.16942658 0.11819137 -0.12605724 -0.10251508 0.10741774 0.20309167 -0.09605358 0.26078326
0.11120092 -0.20008455 0.054690015 0.054699097 0.19503047 0.07057838 -0.13488683 -0.037110228
0.040236928 0.18484068 -0.19173476 -0.11709369 -0.07411639 -0.016874991 0.009552505 0.02033508
0.09701909 -0.090622865 -0.17123331 -0.19259113 0.054522395 0.049142066 -0.04521581 0.14844798
-0.13354611 0.08821517 -0.11514426 0.17415497 -0.01901046 0.104486644 -0.06642617 0.0020617787
-0.32848376 0.14032732 0.030505951 -0.11656709 0.0933204 -0.2084049 0.03929155 0.26276222
0.10979276 0.027209427 0.014040199 0.015452092 0.16026177 0.1733597 0.113790855 -0.15760864
0.20180629 -0.18070614 0.21223877 0.007233274 0.20556866 0.022580117 0.1580148 0.02678144
0.052919492 0.10586821 0.14641619 -0.17640649 -0.08999061 0.0795829 0.092624985 0.10359275
0.058479704 0.111947395 -0.1704622 0.20202325 -0.07777858 0.10609117 -0.28943127 0.0649902
-0.014018093 0.18084839 -0.14098935 -0.16618875 0.1094177 -0.09439809 0.027441278 -0.13754435
0.24628514 0.175011 0.11388635 0.038070325 0.11949979 0.17533101 0.12796894 0.006843989
-0.1838741 -0.27652022 -0.06122549 -0.09174229 -0.06491718 -0.06929369 -0.05781374 -0.028928796
0.16146116 -0.061219648 -0.07082148 -0.0511375 0.059195276 -0.09388668 0.1269101 -0.2427665
-0.1293081 -0.24262121 0.095436744 0.1604419 0.2553283 -0.14630194 0.21277635 0.2194832
-0.09470279 0.077590935 0.2028843 -0.08143568 0.001688028 -0.047157377 -0.15482041 -0.010981289
-0.2738898 0.12452666 -0.06546082 -0.27151632 0.19455358 0.15309815 0.00079823384 -0.20471822
0.15952088 -0.0021771458 0.24632466 -0.102846205 0.14606738 0.0902843 0.07809074 -0.35080114
-0.28837395 0.04930114 0.009869501 0.12528548 0.08085996 -0.13475873 0.033430044 -0.13897955
-0.04147814 -0.17750867 0.117880814 -0.15974519 0.030211963 -0.1645758 -0.103623725 -0.060155336
-0.14196196 -0.2362006 -0.15815184 -0.21510434 0.18360731 0.13827507 0.029281367 0.16817704
00000000: 7072 1c3d a568 58be bdd8 c5bd 105b 5d3e
00000010: 1423 51be 16c6 d93e 879c 8f3d 0e66 2e3e
00000020: 3e0d 19be 55bc 813e 598e c53d 0b9b a13e
00000030: 9877 f3bd 2cdd 763c fb76 463e c4ec 433e
00000040: 9c4e 8c3e 5cc3 bebd 2a72 49bd 8fa1 d13d
00000050: 0f8b 0b3e 4888 663d 727b 31bd 3d8d 443d
00000060: e4be 0ebd 35fa 843e f2dd f43d f0c6 21be
00000070: 00ed ff3d 2e0c 073c 719a d8bd 6dff c2bc
00000080: 967b 0a3e 50ca 4fbd e0c8 e53d 7d37 cebd
00000090: 0938 f63b 77be 26bb 07ef d13b 572e 17bc
000000a0: 3f84 433d 76d4 53bd 3690 493e 3f37 eebd
000000b0: bc75 04be 4765 833e 6cdc 00be 8c5a 873e
000000c0: a66b 323e a99c 223e 9e40 2c3c e67d d2bc
000000d0: 088f cc3a 768c 4fbd a896 b73d 450f 25be
000000e0: f2fa 9abd 62db 103d ae14 2b3d 940c 5a3d
000000f0: 1c64 1c3e 359b 09bc 528e 5dbb 7ecd b8bd
00000100: d926 e73c 576b 1d3d d013 f53d 142d 153e
00000110: 222b 523b 007e 17be 82f2 253d c359 85bc
00000120: b7ad 423d 0119 48ba f554 163e 8e3d 203e
00000130: 8ef4 ccbd d861 4a3c 4872 4e3d b926 d5bd
00000140: be4f 45bd 848f 053b 6ec3 2cbe 3178 6c3d
00000150: e689 ad3d 94b2 383e a235 b13d a4e4 cb3d
00000160: 297e 2d3e 510e f23d 2615 01be 6df3 d1bd
00000170: d5fd db3d 43f7 4f3e bdb7 c4bd 6285 853e
00000180: 4fbd e33d f7e2 4cbe a302 603d 290c 603d
00000190: 11b6 473e 668b 903d c61f 0abe e500 18bd
000001a0: 7acf 243d e046 3d3e 1e56 44be d1ce efbd
000001b0: 55ca 97bd 6c3d 8abc 1c82 1c3c c195 a63c
000001c0: f2b1 c63d 7b98 b9bd c957 2fbe 9c36 45be
000001d0: e052 5f3d 3149 493d 3734 39bd bf02 183e
000001e0: 50c0 08be 28aa b43d c1d0 ebbd ae55 323e
000001f0: d3bb 9bbc 18fd d53d 720a 88bd e81e 073b
00000200: 062f a8be f7b1 0f3e 9ee7 f93c baba eebd
00000210: c41e bf3d 1868 55be 2df0 203d c588 863e
00000220: 07db e03d 4ee6 de3c dd08 663c c52a 7d3c
00000230: a91b 243e 3585 313e 2e0b e93d 2964 21be
00000240: 4fa6 4e3e 080b 39be 1f55 593e 1a05 ed3b
00000250: 9780 523e f0f9 b83c a2ce 213e c064 db3c
00000260: 1cc2 583d 6fd1 d83d 20ee 153e e7a3 34be
00000270: ff4c b8bd 5cfc a23d 2bb2 bd3d 7028 d43d
00000280: 6a88 6f3d ad44 e53d a58d 2ebe 2fdf 4e3e
00000290: 604a 9fbd 5446 d93d 5630 94be 9519 853d
000002a0: 25ac 65bc 5230 393e 835f 10be 622d 2abe
000002b0: 6316 e03d c953 c1bd 88cc e03c 6dd8 0cbe
000002c0: 2c32 7c3e 1536 333e 3f3d e93d a1ef 1b3d
000002d0: 4ebc f43d f989 333e 4a0a 033e 8a43 e03b
000002e0: 7e49 3cbe 0f94 8dbe 94c7 7abd 62e3 bbbd
000002f0: 4cf3 84bd dae9 8dbd 1ace 6cbd 15fc ecbc
00000300: 1356 253e 74c1 7abd da0a 91bd 8e75 51bd
00000310: bf76 723d a947 c0bd b9f4 013e c897 78be
00000320: 5869 04be b271 78be 5774 c33d e24a 243e
00000330: 64ba 823e 2dd0 15be 0be2 593e 34c0 603e
00000340: 89f3 c1bd ffe7 9e3d e7c0 4f3e c0c7 a6bd
00000350: d240 dd3a 1828 41bd 3e89 1ebe ddea 33bc
00000360: 493b 8cbe d507 ff3d 5310 86bd 3004 8bbe
00000370: 0e39 473e c3c5 1c3e 9140 513a a7a1 51be
00000380: 7159 233e 72ae 0ebb 883c 7c3e 08a1 d2bd
00000390: b092 153e fae6 b83d 0aee 9f3d 359c b3be
000003a0: c0a5 93be feef 493d b0b3 213c d64a 003e
000003b0: e899 a53d 31fe 09be f1ed 083d a850 0ebe
000003c0: fbe4 29bd d5c4 35be 7f6b f13d 3e94 23be
000003d0: 147f f73c 8f86 28be ad38 d4bd 7165 76bd
000003e0: 7a5e 11be 92de 71be 8ef2 21be 5044 5cbe
000003f0: 8e03 3c3e fb97 0d3e 7adf ef3c 9a36 2c3e

transformer_encoder.layers.0.linear2.bias f4 [20]
0.11021286 0.012798667 0.20992225 0.0043737628 0.1394122 0.03031868 -0.02676382 -0.1299575
0.001697773 -0.046456575 0.20541632 -0.0350906 0.047218774 0.06803123 -0.009748317 -0.055028256
0.15171257 -0.054204956 0.18896973 -0.1113888
00000000: 48b7 e13d 80b1 513c dcf5 563e c851 8f3b
00000010: 12c2 0e3e e15e f83c cc3f dbbc 9413 05be
00000020: cf87 de3a 4049 3ebd a858 523e 29bb 0fbd
00000030: 7968 413d f553 8b3d 68b7 1fbc 4f65 61bd
00000040: 8a5a 1b3e 0406 5ebd 4881 413e d01f e4bd

transformer_encoder.layers.0.norm1.weight f4 [20]
1.3407843 1.2163361 1.0931029 1.173193 1.0081475 1.2090389 1.0712914 0.92595226
1.030043 0.9875587 0.9951684 1.0488377 0.89860994 0.9327852 0.9802874 0.7820867
0.9442313 1.0688813 0.98008597 0.9859862
00000000: d29e ab3f e7b0 9b3f ccea 8b3f 302b 963f
00000010: fa0a 813f c9c1 9a3f 1420 893f 350b 6d3f
00000020: 73d8 833f a6d0 7c3f 5bc3 7e3f 5040 863f
00000030: 4d0b 663f 03cb 6e3f 1df4 7a3f d536 483f
00000040: 24b9 713f 1ad1 883f eae6 7a3f 9769 7c3f

transformer_encoder.layers.0.norm1.bias f4 [20]
-0.029074289 0.05720185 0.045497965 0.015957529 0.026142998 0.041996673 -0.065226406 0.056015994
0.009376751 -0.057794202 0.04339111 -0.033028692 0.06171739 -0.04590878 0.048724983 -0.04359721
0.015993562 -0.05938994 0.048242573 -0.05092498
00000000: 342d eebc 7d4c 6a3d 135c 3a3d 5db9 823c
00000010: d729 d63c b404 2c3d 6c95 85bd 0771 653d
00000020: f2a0 193c 9db9 6cbd e0ba 313d 1849 07bd
00000030: 60cb 7c3d d80a 3cbd d993 473d fd92 32bd
00000040: ee04 833c de42 73bd 019a 453d b696 50bd

transformer_encoder.layers.0.norm2.weight f4 [20]
1.3987638 0.9110342 1.1357974 1.0134681 1.0742664 1.0024093 1.1339581 0.9385051
1.0838393 1.0606647 0.96404433 1.0934294 0.8956724 0.9712718 0.9826363 0.81525946
0.95626014 1.1202136 1.004793 1.0755883
00000000: b10a b33f 8a39 693f cf61 913f 53b9 813f
00000010: 9081 893f f34e 803f 8a25 913f df41 703f
00000020: 3fbb 8a3f dcc3 873f 9ccb 763f 7ff5 8b3f
00000030: c94a 653f 45a5 783f 0d8e 7b3f d8b4 503f
00000040: 77cd 743f 2963 8f3f 0f9d 803f e1ac 893f

transformer_encoder.layers.0.norm2.bias f4 [20]
0.010648582 0.07002238 0.07547469 0.07863462 0.0048141987 -0.004392247 -0.05630308 0.089337915
0.009735684 -0.059825934 0.036649626 -0.026391108 0.029291594 -0.0029362454 0.08030359 0.025194502
-0.022285013 -0.059939504 0.049624063 -0.041389845
00000000: 6477 2e3c e567 8f3d 7992 9a3d 300b a13d
00000010: 6dc0 9d3b d7ec 8fbb 0f9e 66bd ccf6 b63d
00000020: 6b82 1f3c 0a0c 75bd eb1d 163d 2a32 d8bc
00000030: edf4 ef3c 066e 40bb 3576 a43d b364 ce3c
00000040: 0f8f b6bc 2083 75bd 9a42 4b3d 6688 29bd

transformer_encoder.layers.1.self_attn.in_proj_weight f4 [60, 20]
-0.1403384 -0.26919782 0.2146943 0.05257431 0.17525475 0.060475223 -0.15975088 0.115713224
0.035284553 0.050671056 -0.19791527 0.24398501 -0.27982947 0.17934251 0.2541513 0.2710663
0.082496375 -0.10239822 -0.007523223 0.015300763 0.226677 -0.01765103 -0.24906717 0.09777114
0.07561668 0.1096135 0.1650563 -0.06938116 0.21036342 -0.03499867 -0.004145914 -0.07246836
0.09991158 -0.07462064 0.22163524 0.15631118 0.26187536 0.020750837 0.041806746 -0.14416613
0.20840262 -0.24508792 0.025387982 -0.06833747 0.23827237 -0.2299229 0.16704468 -0.25682434
0.023089796 -0.105894126 -0.047947343 -0.048683133 0.033306032 -0.19350041 0.09917004 -0.16520555
-0.058840174 -0.30438444 -0.08555988 0.021738492 0.052239567 0.05254294 -0.16734748 0.069014214
0.24848324 0.1723843 -0.09119585 0.14132576 0.01512965 0.010113333 0.055856276 0.122604616
-0.22994758 -0.08573617 0.016509773 0.16950499 -0.19949156 -0.112561926 -0.011549709 0.086628616
-0.26197475 0.14784425 -0.17831793 0.2316722 -0.058918037 -0.048843816 0.0063291187 -0.0024079627
0.22473599 0.1573617 -0.22919044 0.15727046 0.17799248 -0.075049676 -0.19978394 -0.08590506
-0.056008667 0.048952244 0.026930436 0.22340569 -0.06288303 -0.04915457 0.20320684 -0.24679203
0.095823824 0.039925046 0.023387343 0.19710709 -0.18135372 -0.15546027 0.099372655 0.20276827
-0.04257779 -0.05015754 -0.24141832 0.14467986 -0.14432295 -0.21309446 -0.069505125 -0.046979833
-0.07649096 0.10840554 0.11722091 0.04570478 -0.17058578 -0.12349693 -0.0450941 -0.12931444
-0.17556736 0.13851544 -0.11871013 0.08473783 -0.06393719 0.12853844 -0.17041434 0.19412449
0.17150205 -0.12746246 -0.0039545144 -0.13017973 0.06307163 -0.20075007 0.038239904 0.08604213
0.3160838 -0.029464077 -0.2492643 -0.03371603 -0.16079754 -0.1279565 0.059184525 -0.2170859
0.1612497 0.028588945 -0.18013279 -0.16884366 0.096271366 -0.02580516 -0.06945411 -0.1238315
0.1649907 -0.061718833 -0.05366129 0.17262256 0.12364445 -0.09307037 -0.24579379 0.18803573
-0.0043512494 0.15817508 -0.04340789 0.04227964 0.2191114 -0.1368389 0.110966206 0.1601398
0.14093837 -0.21467023 0.25524858 0.14413396 -0.14961874 -0.0651016 0.12353291 0.123956256
0.19473657 -0.20238028 -0.09889077 0.15402947 -0.10017455 -0.13643795 -0.15021552 -0.1069596
0.181684 -0.03024105 0.023066659 0.004624547 -0.17863683 -0.066590816 -0.076898925 0.024315504
-0.1375479 -0.22884661 -0.0044797896 -0.14526601 0.021099396 0.091041945 0.06417547 -0.16786067
0.18384326 0.17027569 0.10195129 -0.0106346905 -0.012358474 0.019522943 -0.07152329 -0.0030242184
0.026176354 0.25098768 0.111660756 0.11281074 -0.028935218 -0.23904474 -0.26797193 -0.21518126
0.18604082 -0.09075633 -0.08041442 0.04089477 0.011166485 0.20401512 -0.12899062 0.023578241
-0.1562805 -0.061971847 -0.17635366 0.13897744 0.079073355 0.03394325 0.0036459255 -0.27407116
0.30046463 0.117845476 0.23395745 -0.26105562 -0.1824161 -0.11568894 -0.25286567 0.08288082
-0.07165194 -0.17500769 0.13773848 0.012311612 0.2716541 0.21779743 0.27021572 -0.03223877
00000000: dfb4 0fbe 4cd4 89be d3d8 5b3e 2958 573d
00000010: fb75 333e deb4 773d bc95 23be 0efb ec3d
00000020: 8986 103d 748c 4f3d 4daa 4abe 35d7 793e
00000030: cf45 8fbe 90a5 373e 1f20 823e 34c9 8a3e
00000040: dcf3 a83d 28b6 d1bd 5e85 f6bb 0db0 7a3c
00000050: 041e 683e e598 90bc 770b 7fbe 3c3c c83d
00000060: ebdc 9a3d 0b7d e03d 8504 293e b617 8ebd
00000070: 8269 573e c45a 0fbd 73da 87bb 4b6a 94bd
00000080: 719e cc3d b5d2 98bd 59f4 623e 0a10 203e
00000090: 8714 863e a9fd a93c 8d3d 2b3d 49a0 13be
000000a0: 7f67 553e 54f8 7abe 75fa cf3c 84f4 8bbd
000000b0: acfd 733e e970 6bbe c30d 2b3e 7b7e 83be
000000c0: d026 bd3c 05df d8bd 6f64 44bd f767 47bd
000000d0: e86b 083d f924 46be a919 cb3d a52b 29be
000000e0: 6502 71bd 47d8 9bbe 053a afbd ec14 b23c
000000f0: 28f9 553d 4437 573d 235d 2bbe 5357 8d3d
00000100: 6472 7e3e 8385 303e e4c4 babd b3b7 103e
00000110: 5ae2 773c 65b2 253c 8dc9 643d 2118 fb3d
00000120: 6177 6bbe 7296 afbd 813f 873c b792 2d3e
00000130: 8447 4cbe de86 e6bd fe3a 3dbc 586a b13d
00000140: 8e21 86be 7c64 173e fa98 36be 7a3b 6d3e
00000150: 0a54 71bd 7410 48bd 7f64 cf3b e9ce 1dbb
00000160: 3121 663e 6d23 213e e6b0 6abe 820b 213e
00000170: a943 363e a5b3 99bd 2994 4cbe feee afbd
00000180: 5869 65bd 2682 483d 389d dc3c 76c4 643e
00000190: d1c8 80bd 4d56 49bd 7415 503e 0db7 7cbe
000001a0: 483f c43d 7288 233d d096 bf3c 71d6 493e
000001b0: cab4 39be fa30 1fbe e483 cb3d 7ca2 4f3e
000001c0: 0c66 2ebd fe71 4dbd 5d36 77be f526 143e
000001d0: 65c9 13be 6f35 5abe b458 8ebd ed6d 40bd
000001e0: 4ba7 9cbd b903 de3d 8411 f03d ef34 3b3d
000001f0: 0aae 2ebe f5eb fcbd 97b4 38bd 016b 04be
00000200: eec7 33be fed6 0d3e 4c1e f3bd 078b ad3d
00000210: 80f1 82bd 959f 033e 1981 2ebe 92c8 463e
00000220: 3c9e 2f3e 8585 02be df94 81bb d64d 05be
00000230: b32b 813d 6d91 4dbe 72a1 1c3d db36 b03d
00000240: bcd5 a13e a65e f1bc 243f 7fbe d219 0abd
00000250: 1ca8 24be 0707 03be 796b 723d c44b 5ebe
00000260: a41e 253e 5d33 ea3c bb74 38be 5ae5 2cbe
00000270: ec29 c53d 5865 d3bc f53d 8ebd 5f9b fdbd
00000280: 52f3 283e e3cc 7cbd f1cb 5bbd f8c3 303e
00000290: 4d39 fd3d ae9b bebd 5eb1 7bbe 708c 403e
000002a0: ed94 8ebb a6f8 213e 79cc 31bd 6a2d 2d3d
000002b0: bd5e 603e 7f1f 0cbe 4042 e33d b0fb 233e
000002c0: 2652 103e 83d2 5bbe f1af 823e da97 133e
000002d0: a835 19be fd53 85bd d3fe fc3d c7dc fd3d
000002e0: 0669 473e c73c 4fbe 3e87 cabd e7b9 1d3e
000002f0: 5128 cdbd 64b6 0bbe 19d2 19be a20d dbbd
00000300: 5f0b 3a3e 14bc f7bc 4af6 bc3c 8389 973b
00000310: 93ec 36be c460 88bd 2f7d 9dbd 4f31 c73c
00000320: 5bd9 0cbe c456 6abe 33cb 92bb 9dc0 14be
00000330: a4d8 ac3c 3374 ba3d 6e6e 833d abe3 2bbe
00000340: 6841 3c3e c05c 2e3e d7cb d03d 203d 2ebc
00000350: 327b 4abc 94ee 9f3c cd7a 92bd f731 46bb
00000360: cb6f d63c 7581 803e 65ae e43d 5109 e73d
00000370: 8d09 edbc 25c8 74be 9e33 89be 7a58 5cbe
00000380: 7c81 3e3e 74de b9bd 51b0 a4bd 4681 273d
00000390: a2f3 363c 57e9 503e 1e16 04be 2827 c13c
000003a0: ff07 20be 31d6 7dbd 0e96 34be 1a50 0e3e
000003b0: 36f1 a13d 1408 0b3d 7bf0 6e3b 0e53 8cbe
000003c0: 80d6 993e f858 f13d 8b92 6f3e 15a9 85be
000003d0: 49cb 3abe 53ee ecbd 9c77 81be 6bbd a93d
000003e0: 41be 92bd 3735 33be 510b 0d3e a5b6 493c
000003f0: 3f16 8b3e 4a06 5f3e b759 8a3e cd0c 04bd

transformer_encoder.layers.1.self_attn.in_proj_bias f4 [60]
0.012094898 0.007964204 0.029126896 -0.01754347 -0.018667707 0.053902905 -0.0020635999 0.018261328
0.03551082 -0.001619284 -0.0110841775 -0.036353588 0.0053117243 -0.0022357767 0.0016962935 -0.0020973454
-0.0095772995 -0.06948979 -0.003910027 0.048871897 -7.2993617e-10 -1.5424788e-09 1.2437515e-09 -1.2568381e-09
-1.7333576e-09 3.6797518e-09 9.508333e-10 7.1472064e-09 6.106139e-11 3.144977e-10 -1.8005784e-09 -3.3471803e-09
6.146633e-10 -5.3144694e-10 -3.9482373e-09 -2.5734552e-09 2.2433801e-09 -3.2854777e-09 -7.4501316e-10 -1.805017e-09
0.0005566848 -0.05211577 0.023339057 -0.0102020595 0.068493865 -0.012103939 0.007572397 0.025789978
0.052945103 -0.010918997 0.013873802 0.0093979295 -0.019122269 -0.023101052 -0.05860636 -0.020668589
0.04091456 0.0082980255 -0.031401943 0.013501171
00000000: ae29 463c 4b7c 023c 879b ee3c 53b7 8fbc
00000010: 05ed 98bc 4bc9 5c3d 763d 07bb c898 953c
00000020: cb73 113d 283e d4ba 699a 35bc 80e7 14bd
00000030: f90d ae3b 1c86 12bb 2a56 de3a 9e73 09bb
00000040: 1bea 1cbc aa50 8ebd af1f 80bb e62d 483d
00000050: b1a4 48b0 26ff d3b0 9ef0 aa30 0fbd acb0
00000060: 193b eeb0 e1de 7c31 79ae 8230 7e93 f531
00000070: 8246 862e 9ee5 ac2f 3878 f7b0 3804 66b1
00000080: 16f5 2830 4115 12b0 10a9 87b1 b4d8 30b1
00000090: f629 1a31 bcc6 61b1 a4c9 4cb0 6414 f8b0
000000a0: 7cee 113a 5877 55bd 8d31 bf3c 8a26 27bc
000000b0: 8346 8c3d 9a4f 46bc df21 f83b 8145 d33c
000000c0: f7dc 583d 98e5 32bc f14e 633c c6f9 193c
000000d0: 4ea6 9cbc 6b3e bdbc 390d 70bd 2c51 a9bc
000000e0: 0796 273d 71f4 073c 539f 00bd 0434 5d3c

transformer_encoder.layers.1.self_attn.out_proj.weight f4 [20, 20]
0.10639181 -0.01314746 -0.049968496 0.12516162 0.39613932 -0.13450418 0.18255486 0.053502947
-0.17422454 0.1296116 -0.21659209 0.01109194 -0.09396752 0.0036731658 0.052325103 -0.2793283
0.022348389 0.05260038 0.27676862 0.05145077 0.09831317 -0.14040437 0.074129775 0.0822191
0.12050602 -0.047531493 -0.30100814 -0.22253513 -0.28739366 -0.055267088 -0.04497588 0.104089655
0.12253662 -0.3166166 -0.10255815 -0.027778856 -0.052878797 0.015031049 0.067874104 -0.08381164
-0.13128836 0.036860052 -0.08673618 -0.21854673 0.15243833 -0.08307804 -0.16544642 0.028370159
-0.27515137 -0.1292435 -0.20096216 -0.18191244 0.08798585 -0.03464695 0.039290052 -0.06778188
0.14973389 0.00886466 0.055046532 -0.09749639 0.030360267 0.007434967 0.023691963 0.0261761
0.16827087 -0.21791977 0.10755317 0.04010576 0.11284 0.06979332 0.03737115 -0.13137025
0.074126534 0.1308492 0.36913225 -0.1478102 -0.10035904 0.04835539 -0.028263573 0.19171467
-0.0060070697 0.019315543 -0.21641515 -0.15825008 0.017221829 -0.11322444 0.13498545 -0.13004121
0.14995459 0.053172626 -0.064142235 0.10150362 -0.16746458 0.17983617 -0.116910085 -0.14902674
0.06946196 0.120322324 0.1435381 -0.04203356 0.19963564 0.028812287 -0.18903443 0.043999057
0.0823695 -0.12880717 -0.3015233 -0.17105454 -0.06924808 0.2953968 -0.28108606 0.050617974
-0.13017057 -0.0052730655 0.17740427 0.13685897 -0.022230918 -0.12341762 0.11966538 -0.1404552
0.09671276 -0.090846956 -0.16015409 0.036022604 0.17187427 -0.18752925 0.18733364 0.096992895
0.39745522 0.21419542 0.09461054 0.053400386 0.13994865 0.120741226 -0.32829747 0.12368204
0.020739218 0.0039925384 -0.13484967 -0.18755673 0.068666585 -0.14088096 0.15779631 -0.020790929
0.109829515 -0.07706307 -0.086393066 0.12377625 0.08008332 -0.13924024 -0.17739889 -0.16208284
0.17717648 -0.14797933 -0.024318881 -0.027779179 0.07058642 0.16159613 -0.019075496 -0.09118243
0.08826141 0.12235775 0.25942647 -0.018983679 -0.07322997 0.11997816 -0.028672513 0.20116723
0.0389695 -0.13402101 -0.1957096 -0.13449246 -0.06765112 0.14620921 -0.0032400265 0.14916427
-0.0047977515 0.16075082 0.10650326 -0.1590555 0.14988956 -0.15445144 0.25222936 -0.20456861
0.10571125 0.055040106 0.1416198 0.09721527 0.21908586 -0.16178568 0.11908733 0.0304536
-0.1538494 0.019604847 -0.059022065 0.070552476 -0.12401438 0.090495445 -0.16270341 -0.21769363
0.21837868 -0.14407328 0.024842052 0.039039332 0.07593815 -0.037431806 0.19221276 0.07705373
-0.07415697 0.0024453965 0.010201629 -0.17691404 0.04104174 -0.015487782 0.059398863 0.22451125
0.02692979 0.16869612 0.014257039 0.013139349 0.16916388 0.08945228 -0.01254192 -0.26298046
-0.04471549 -0.09478448 -0.11873248 0.08121495 0.27923474 -0.079390116 -0.013156077 0.0033760066
-0.023221921 0.030712565 -0.0036195891 0.12580802 -0.23328045 -0.19462624 0.0819961 0.030217009
-0.15752599 -0.075464636 0.23045003 -0.1563415 -0.22566378 0.10144025 0.13184081 0.17423588
-0.1395813 0.20079683 0.22471456 -0.03631143 0.038327258 0.2597736 -0.011888029 0.2717713
00000000: f3e3 d93d 7268 57bc c4ab 4cbd 5e2a 003e
00000010: c6d2 ca3e 77bb 09be a9ef 3a3e e825 5b3d
00000020: eb67 32be e7b8 043e 51ca 5dbe f8ba 353c
00000030: 0b72 c0bd 7fb9 703b d952 563d 1e04 8fbe
00000040: f813 b73c 7f73 573d 9eb4 8d3e 0bbe 523d
00000050: 6a58 c93d 2ac6 0fbe 5ad1 973d 7d62 a83d
00000060: dccb f63d 62b0 42bd bd1d 9abe 40e0 63be
00000070: 4325 93be be5f 62bd a138 38bd f52c d53d
00000080: 7bf4 fa3d 921b a2be 020a d2bd 7c90 e3bc
00000090: 7097 58bd ca44 763c 9401 8b3d 70a5 abbd
000000a0: 7570 06be 91fa 163d bda2 b1bd b7ca 5fbe
000000b0: cb18 1c3e d224 aabd c96a 29be 8968 e83c
000000c0: a4e0 8cbe 6858 04be 06c9 4dbe 4147 3abe
000000d0: ed31 b43d f6e9 0dbd 9bee 203d 3ad1 8abd
000000e0: d753 193e 143d 113c 7978 613d 30ac c7bd
000000f0: 18b6 f83c 06a1 f33b a615 c23c 436f d63c
00000100: 334f 2c3e 5c26 5fbe d644 dc3d f045 243d
00000110: a818 e73d cdef 8e3d 7e12 193d ec85 06be
00000120: a7cf 973d 55fd 053e e7fe bc3e 8f5b 17be
00000130: 0a89 cdbd 4d10 463d 0289 e7bc da50 443e
00000140: f4d6 c4bb a13b 9e3c ef9b 5dbe 4f0c 22be
00000150: cb14 8d3c 37e2 e7bd a039 0a3e 8629 05be
00000160: b28d 193e 8acb 593d 015d 83bd 21e1 cf3d
00000170: d67b 2bbe f926 383e 8e6e efbd 779a 18be
00000180: 1242 8e3d 8d6b f63d a7fb 123e 622b 2cbd
00000190: 496d 4c3e bf07 ec3c 3e92 41be 5b38 343d
000001a0: 57b1 a83d 07e6 03be 4361 9abe ec28 2fbe
000001b0: f0d1 8dbd 403e 973e 83ea 8fbe cb54 4f3d
000001c0: 6f4b 05be aec9 acbb 77a9 353e c224 0c3e
000001d0: 9d1d b6bc 61c2 fcbd 1f13 f53d 7dd3 0fbe
000001e0: 5711 c63d f80d babd 6fff 23be 708c 133d
000001f0: cfff 2f3e ab07 40be 64d4 3f3e 36a4 c63d
00000200: 407f cb3e 0b56 5b3e 2cc3 c13d 5dba 5a3d
00000210: b34e 0f3e 2d47 f73d 9b16 a8be 024d fd3d
00000220: 4be5 a93c d7d3 823b 0816 0abe df0e 40be
00000230: 11a1 8c3d 1943 10be 5b95 213e bd51 aabc
00000240: 4cee e03d 3ed3 9dbd d9ee b0bd 677e fd3d
00000250: b902 a43d fe94 0ebe 0ea8 35be 0bf9 25be
00000260: c06d 353e e587 17be 6438 c7bc 2991 e3bc
00000270: 9d8f 903d 7579 253e 3744 9cbc dbbd babd
00000280: 66c2 b43d b396 fa3d 8cd3 843e a983 9bbc
00000290: 98f9 95bd 1cb7 f53d 9ee2 eabc c8fe 4d3e
000002a0: 7c9e 1f3d ce3c 09be 1968 48be 64b8 09be
000002b0: ac8c 8abd deb7 153e a056 54bb 85be 183e
000002c0: 7536 9dbb dd9b 243e 621e da3d 72df 22be
000002d0: a67c 193e 8528 1ebe 3524 813e 6f7a 51be
000002e0: 247f d83d bc71 613d c804 113e cd18 c73d
000002f0: 0b58 603e 25ab 25be 0fe4 f33d d479 f93c
00000300: b28a 1dbe 589a a03c 1fc1 71bd d17d 903d
00000310: 40fb fdbd ad55 b93d b99b 26be 14eb 5ebe
00000320: a99e 5f3e f287 13be 8f81 cb3c b5e7 1f3d
00000330: 7685 9b3d 1852 19bd 6cd3 443e 59ce 9d3d
00000340: 9cdf 97bd f242 203b bc24 273c f428 35be
00000350: 621b 283d 77c0 7dbc 394c 733d 47e6 653e
00000360: dd9b dc3c adbe 2c3e 5b96 693c 6d46 573c
00000370: 4c39 2d3e c232 b73d a07c 4dbc 60a5 86be
00000380: 9727 37bd 5e1e c2bd 042a f3bd 0654 a63d
00000390: dbf7 8e3e 4997 a2bd 968c 57bc fe3f 5d3b
000003a0: e63b bebc eb98 fb3c a136 6dbb d1d3 003e
000003b0: 12e1 6ebe 1a4c 47be 92ed a73d a989 f73c
000003c0: 7e4e 21be 348d 9abd 18fb 6b3e fc17 20be
000003d0: 6814 67be e8bf cf3d 4701 073e e46a 323e
000003e0: 66ee 0ebe af9d 4d3e 931b 663e 4bbb 14bd
000003f0: 0bfd 1c3d 0c01 853e 02c6 42bc 9c25 8b3e

transformer_encoder.layers.1.self_attn.out_proj.bias f4 [20]
0.06012002 0.039456647 -0.030105092 0.047900032 -0.051254414 -0.04930781 -0.022558257 0.04709067
0.013475185 0.054531127 0.006280695 -0.03775928 -0.03774287 -0.050616175 0.046271462 -0.013225649
-0.04417114 0.0073971017 -0.011808338 0.026026111
00000000: 6940 763d 4b9d 213d f49e f6bc d332 443d
00000010: 26f0 51bd fcf6 49bd 18cc b8bc 25e2 403d
00000020: 06c7 5c3c 085c 5f3d 4ace cd3b 7aa9 1abd
00000030: 4598 1abd e852 4fbd 2587 3d3d 64b0 58bc
00000040: ccec 34bd 6363 f23b c277 41bc b634 d53c
