model_epoch_94.pt (torch, 431970 bytes, 28 tensors)

pos_encoder.pe f4 [5000, 1, 20]
00000000: 0000 0000 0000 803f 0000 0000 0000 803f
00000010: 0000 0000 0000 803f 0000 0000 0000 803f
00000020: 0000 0000 0000 803f 0000 0000 0000 803f
00000030: 0000 0000 0000 803f 0000 0000 0000 803f
00000040: 0000 0000 0000 803f 0000 0000 0000 803f
00000050: a56a 573f 4151 0a3f 3d7d c63e dafa 6b3f
00000060: 4e9d 213e a0ca 7c3f 6522 813d 977d 7f3f
00000070: 8ac0 cd3c 53eb 7f3f 57d6 233c b9fc 7f3f
00000080: 9073 823b 7bff 7f3f 28bc cf3a ebff 7f3f
00000090: d466 253a fdff 7f3f f5b1 8339 ffff 7f3f
000000a0: b7c7 683f 3311 d5be 76f7 363f 040d 333f
000000b0: c596 9f3e 183f 733f 9de0 003e e3f6 7d3f
000000c0: ecaf 4d3d 51ad 7f3f 3ed4 a33c e5f2 7f3f
000000d0: 4d73 023c ecfd 7f3f 17bc 4f3b acff 7f3f
000000e0: d266 a53a f3ff 7f3f f5b1 033a feff 7f3f
000000f0: c381 103e 2670 7dbf 4812 6e3f e53b bc3e
00000100: ce5e ea3e a89a 633f b9ac 403e 6f6d 7b3f
00000110: 2d2f 9a3d 0346 7f3f 1fb9 f53c 83e2 7f3f
00000120: 49ac 433c 53fb 7f3f fccc 9b3b 42ff 7f3f
00000130: 361a f83a e2ff 7f3f ef8a 453a fbff 7f3f
00000140: cfbd 41bf 3055 27bf abf0 7f3f ce32 b1bc
00000150: 72a3 173f b041 4e3f 8ab4 7f3e d4e3 773f
00000160: 7d6d cd3d 7ab5 7e3f dbcb 233d 94cb 7f3f
00000170: 3e72 823c b1f7 7f3f d3bb cf3b affe 7f3f
00000180: c966 253b cbff 7f3f f4b1 833a f8ff 7f3f
00000190: 107c 75bf 2c3c 913e 28c7 693f cea6 d0be
000001a0: 6e4a 363f 2cbd 333f ebdb 9e3e aa5d 733f
000001b0: 4f45 003e cdfb 7d3f f4b6 4c3d 19ae 7f3f
000001c0: cf0d a33c 04f3 7f3f 44d5 013c f1fd 7f3f
000001d0: 74c0 4e3b adff 7f3f 6f9e a43a f3ff 7f3f
000001e0: 8c0f 8fbe b8cd 753f 200d 2f3f fdcb 3abf
000001f0: a75f 503f 47b7 143f b73b bd3e 8fdf 6d3f
00000200: 29bf 193e 1a19 7d3f d19c 753d 128a 7f3f
00000210: b7a8 c33c 4eed 7f3f 88cc 1b3c 09fd 7f3f
00000220: 191a 783b 88ff 7f3f eb8a c53a edff 7f3f
00000230: 4630 283f bdff 403f fde3 b13e 310d 70bf
00000240: c03b 653f 26ee e33e b9da da3e 1a6f 673f
00000250: 2d20 333e 860d 7c3f 323e 8f3d 815f 7f3f
00000260: d442 e43c 8ee6 7f3f b4c3 353c f8fb 7f3f
00000270: dbb9 903b 5cff 7f3f 6577 e63a e6ff 7f3f
00000280: 9546 7d3f f6fd 14be 3128 31bd acc2 7fbf
00000290: dc58 743f 1db7 983e c29a f73e db12 603f
000002a0: 4264 4c3e 3cd9 7a3f 50aa a33d 662e 7f3f
000002b0: 026e 023d c4de 7f3f c1ba 4f3c bbfa 7f3f
000002c0: a766 a53b 2aff 7f3f efb1 033b deff 7f3f
000002d0: 3201 d33e d53f 69bf 5cb7 dabe 7577 67bf
000002e0: 0056 7d3f 3958 133e 43af 093f 52d2 573f
000002f0: 5487 653e 6e7c 793f 3e12 b83d c2f6 7e3f
00000300: 12ba 123d f0d5 7f3f adb1 693c 55f9 7f3f
00000310: 6e13 ba3b f1fe 7f3f 2c28 143b d5ff 7f3f
00000320: f844 0bbf 64cd 56bf 238a 3ebf 43f8 2abf
00000330: 7df9 7f3f baf4 66bc e004 173f e6b5 4e3f
00000340: 5385 7e3e 54f7 773f 7675 cc3d 98b8 7e3f
00000350: 8a05 233d 13cc 7f3f 39d4 813c c5f7 7f3f
00000360: 30c0 ce3b b2fe 7f3f 679e 243b cbff 7f3f
00000370: 5cff 7fbf 7205 913b 58eb 71bf c976 a7be
00000380: 6532 7c3f 27da 2fbe 9fc0 233f e2c6 443f
00000390: 1cad 8b3e 2d4a 763f 72d3 e03d e873 7e3f
000003a0: 5950 333d 2cc1 7f3f 86cf 8e3c 0af6 7f3f
000003b0: ed6c e33b 6cfe 7f3f a214 353b c0ff 7f3f
000003c0: d85c 09bf d006 583f 0b76 7fbf e1d0 843d
000003d0: f518 723f 4d6e a6be 89d5 2f3f 630f 3a3f
000003e0: fe00 983e 3e75 743f ac2b f53d b528 7e3f
000003f0: 6d9a 433d 3bb5 7f3f baca 9b3c 26f4 7f3f
0.0 1.0 0.0 1.0 0.0 1.0 0.0 1.0
0.0 1.0 0.0 1.0 0.0 1.0 0.0 1.0
0.0 1.0 0.0 1.0 0.841471 0.54030234 0.38767424 0.92179644
0.15782663 0.9874668 0.06305388 0.9980101 0.025116224 0.9996845 0.009999833 0.99995
0.0039810613 0.9999921 0.0015848922 0.99999875 0.0006309573 0.9999998 0.00025118855 0.99999994
0.9092974 -0.41614684 0.71471345 0.69941735 0.31169716 0.9501815 0.12585683 0.99204844
0.0502166 0.99873835 0.019998666 0.9998 0.00796206 0.9999683 0.0031697804 0.999995
0.0012619144 0.9999992 0.0005023771 0.9999999 0.14112 -0.9899925 0.92996645 0.36764446
0.45775455 0.8890786 0.18815888 0.9821386 0.07528529 0.99716204 0.0299955 0.99955004
0.011942931 0.99992865 0.0047546607 0.9999887 0.001892871 0.9999982 0.00075356563 0.9999997
-0.7568025 -0.6536436 0.99976605 -0.02163067 0.5923377 0.8056898 0.24971214 0.96832013
0.10030649 0.9949566 0.039989334 0.9992001 0.015923616 0.9998732 0.006339529 0.9999799
0.0025238267 0.99999684 0.0010047541 0.9999995 -0.9589243 0.2836622 0.91319513 -0.40752262
0.7120732 0.7021053 0.3102716 0.95064795 0.12526439 0.9921234 0.049979165 0.99875027
0.019904045 0.9998019 0.007924382 0.9999686 0.0031547816 0.99999505 0.0012559424 0.9999992
-0.2794155 0.96017027 0.683794 -0.7296751 0.81395954 0.5809216 0.3695962 0.9291925
0.15014328 0.98866427 0.059964005 0.99820054 0.02388416 0.99971473 0.009509213 0.99995476
0.0037857352 0.99999285 0.0015071308 0.99999887 0.6569866 0.75390226 0.34744254 -0.9377013
0.89544296 0.4451763 0.42744997 0.904039 0.17492743 0.98458135 0.06994285 0.997551
0.027863897 0.99961174 0.011094023 0.9999385 0.004416687 0.9999902 0.001758319 0.99999845
0.98935825 -0.14550003 -0.04325122 -0.9990642 0.9544809 0.29827204 0.48360258 0.8752877
0.1996012 0.97987723 0.07991469 0.99680173 0.031843193 0.9994929 0.012678803 0.9999196
0.0050476375 0.99998724 0.002009507 0.999998 0.4121185 -0.91113025 -0.42718017 -0.9041665
0.9895935 0.14389123 0.53783053 0.843053 0.22414905 0.9745549 0.089878544 0.9959527
0.03582198 0.9993582 0.014263553 0.99989825 0.0056785857 0.99998385 0.0022606952 0.99999744
-0.5440211 -0.8390715 -0.7442953 -0.6678507 0.99990064 -0.014096433 0.58991814 0.80746305
0.24855547 0.9686177 0.099833414 0.9950042 0.039800204 0.9992077 0.015848266 0.9998744
0.0063095316 0.9999801 0.002511883 0.99999684 -0.9999902 0.004425698 -0.9449973 -0.32707813
0.98514396 -0.17173062 0.6396579 0.7686597 0.2728051 0.96206933 0.1097783 0.9939561
0.043777797 0.9990413 0.01743294 0.999848 0.006940475 0.9999759 0.0027630706 0.9999962
-0.53657293 0.84385395 -0.99789494 0.06485153 0.9456933 -0.32506028 0.68685204 0.7267973
0.29688257 0.954914 0.119712204 0.99280864 0.047754694 0.9988591 0.019017566 0.99981916

transformer_encoder.layers.0.self_attn.in_proj_weight f4 [60, 20]
00000000: bc88 19be 88ac 73be e574 5c3e 112e 7a3d
00000010: fc23 3e3e 15ae a33d 58ea 39be f637 fe3d
00000020: d4fe 323c 054e 373d 6e7a 4fbe 9f81 733e
00000030: 4bb0 8abe 22e9 3a3e cf7e 863e b760 863e
00000040: 25fb 9a3d 189e dfbd 3153 31bc 1942 44bc
00000050: 01e2 783e 697b 81bd 8bf3 85be 0a10 cf3d
00000060: 974d 713d 89b9 db3d 0e87 263e 5594 afbd
00000070: 3bf6 6d3e 4291 2fbd fb93 483a 9ef9 c0bd
00000080: e008 cf3d f971 d3bd af90 6a3e f14c 233e
00000090: a0db 863e 9ba2 aa3c 5fd7 153d ad8f fabd
000000a0: 667f 153e a4c8 12be dad5 763c cc4c 8bbd
000000b0: 1619 783e 59ad 50be 54ba 323e 37b7 6abe
000000c0: f875 a2bb fbe0 aabd d91f 73bd b4cc 3bbd
000000d0: fac3 433d 49e2 1cbe e932 da3d 1822 36be
000000e0: 1f76 82bd 52d4 90be f030 b4bd 3eec e9bc
000000f0: 20cc d33d 2733 73bc 80f0 10be e241 b23d
00000100: 0b53 5b3e f440 1f3e fc27 e3bd 9f77 d73d
00000110: de58 f93c 58e6 36bc aa04 7c3d 33db fe3d
00000120: c3e7 76be 51c2 05be eb71 ef3c 083c 423e
00000130: 7198 3bbe f3f7 febd 7079 86bc 4431 043e
00000140: 1f4e 74be 4cfc e03d b681 36be af88 813e
00000150: af8e 93bd 198b 97bd be58 4dbc d785 a3bc
00000160: 9d64 6f3e 86c9 063e 1427 69be da0c 0c3e
00000170: deb8 273e e0f6 debd 68b6 4cbe 277c b6bd
00000180: 6e1a 62bd 4841 1d3d 2141 a53c 5f78 813e
00000190: 97c3 8ebd 5371 50bd 59bb 533e e350 64be
000001a0: ab15 133d 32a3 0f3d 3176 823d 616d 393e
000001b0: ff1a 48be 1041 f3bd e7d2 813d 026b 593e
000001c0: 0878 2abd 82db a4bd 98c4 6fbe d65c 323e
000001d0: 3baa 19be 9b89 26be af13 e8bd e1a7 8bbc
000001e0: b377 d6bd f70d c73d 1875 793e c97a a13c
000001f0: 5d49 3ebe 9834 10be c856 0bbd c3a1 0bbe
00000200: 97b1 69bd 14cf 093e 9037 acbd 09e0 f63d
00000210: 4578 0bbd 8c17 183e c2f2 ffbd 3332 783e
00000220: eb7e 613e 2332 09be 7e5f 4d3b 3a97 e1bd
00000230: 2d2c 683e 0915 14bf 70c4 5b3d 8f71 883c
00000240: f282 943e 721f ebbc f593 44be ea71 63bd
00000250: 4ea0 e2bd 3a5a 83bd ca9b 683d 87ae 36be
00000260: f37e 293e 64da d8bc d81f 5abe b6f4 0ebe
00000270: 56fd dc3d 3dd3 b63b f1c5 04bd 5dde d7bd
00000280: 6a9e f23d 7480 eb3d c0d6 c0bb c928 4e3e
00000290: 36d2 e93d 26ad adbd cfd3 8dbe e31d 463e
000002a0: 7df8 12ba 4097 023e 8e3c 00bd 6d4a 863d
000002b0: b09e 643e 7bdf 96bd 0600 163e b85d 433e
000002c0: 1e71 1c3e fd3a 6cbe 62ab 803e 87e7 1b3e
000002d0: 1875 99bd efc7 48be f958 7d3d f352 d33d
000002e0: b9df 3b3e e1e2 24be c8db adbd bd6d 0b3e
000002f0: 5308 2abe 212b d9bd 0b5a 52be e5fb fdbd
00000300: 46f6 263e 7884 90bd 1a33 b3bc ae90 57bc
00000310: fb2c 56be 6ec6 35bd 978d 86bd 8bee 393c
00000320: 00a4 2dbe 4d83 85be 41dc 3d3d d9fb 49be
00000330: b623 03bc 7594 123e fd4c ac3c 67e4 4abe
00000340: ae9e 5c3e 7fc5 143e 0500 fc3d 489b 103d
00000350: 83f9 08bd c937 703c e7ce 46bd add2 bc3c
00000360: eaa9 6a3d fc91 6d3e 0d4e f13d 8249 073e
00000370: 8596 ad3c abb1 97be 59a0 49be 3c65 6cbe
00000380: 2e4d 413e a663 cabd 948f 1bbe d1f1 463d
00000390: f9bc dd3c 66b7 1b3e 0198 cebd 364d 493d
000003a0: 8118 4dbe a057 94bd d963 34be 5feb ff3d
000003b0: 6f10 d43d 7c68 b6bc 7a85 903c e91f 8bbe
000003c0: fed2 9a3e 5941 053e 5351 623e 0c65 6cbe
000003d0: 6d6c 42be 4edb 14be cce5 6fbe ee22 bb3d
000003e0: 9bc6 a7bd 8ec1 29be 1131 f63d 69af 46bc
000003f0: 5c14 8c3e 4711 513e 04bd 863e 2244 50bd
-0.14993566 -0.23796284 0.21528967 0.06107909 0.18568414 0.07992188 -0.18155801 0.124130175
0.010925014 0.04475214 -0.20261547 0.23779915 -0.27087626 0.18252996 0.26268622 0.26245663
0.07567433 -0.10918826 -0.010823057 -0.0119786495 0.24304964 -0.06322367 -0.2616237 0.10110481
0.058911886 0.107287474 0.16262457 -0.08573214 0.2323846 -0.042863138 0.00076514453 -0.09422611
0.10109115 -0.10324473 0.22906755 0.1594732 0.26339436 0.02082949 0.036582347 -0.12234435
0.1459938 -0.14334351 0.015065635 -0.06801757 0.2422832 -0.20378627 0.17453891 -0.22921453
-0.0049579106 -0.08343693 -0.059356544 -0.045849517 0.04779432 -0.15320696 0.106542416 -0.17786443
-0.06370186 -0.28286988 -0.087983966 -0.028555032 0.10341668 -0.014843739 -0.14154243 0.087039724
0.21418397 0.15552121 -0.11091611 0.10520863 0.030437883 -0.011163317 0.061527885 0.12444153
-0.24111848 -0.13062407 0.029229125 0.18968213 -0.1831987 -0.12449636 -0.016415328 0.12909418
-0.23857926 0.10985622 -0.17822918 0.25299594 -0.07204949 -0.07399578 -0.012533365 -0.01996128
0.23378225 0.13162813 -0.22768813 0.13676777 0.16379115 -0.108869314 -0.19991457 -0.08910399
-0.055200987 0.038392335 0.020172657 0.25287148 -0.069708996 -0.050889324 0.20676936 -0.22296481
0.035909336 0.035067745 0.063701995 0.18108131 -0.19541548 -0.11877644 0.063390546 0.21232226
-0.041618377 -0.0804968 -0.23414838 0.17418227 -0.15006344 -0.1626343 -0.11331879 -0.017047824
-0.104720496 0.097194605 0.24361074 0.019711869 -0.18582673 -0.14082563 -0.034018308 -0.13635926
-0.05705413 0.134579 -0.08409035 0.1205445 -0.034050245 0.14852732 -0.12497474 0.242379
0.22021072 -0.13398032 0.0031337435 -0.11015172 0.22673102 -0.578446 0.053654134 0.016655711
0.29006153 -0.028701518 -0.19197066 -0.05552856 -0.11065732 -0.06413694 0.056789197 -0.17840014
0.16552334 -0.026471324 -0.2130121 -0.13960537 0.107905075 0.005579381 -0.032415334 -0.10540459
0.11846621 0.1149911 -0.005884975 0.20132746 0.11417048 -0.08480291 -0.2770066 0.19347338
-0.00056064856 0.1275301 -0.03130775 0.06557164 0.2232616 -0.07366844 0.14648446 0.1907872
0.15277526 -0.23069377 0.25130755 0.1522504 -0.07493037 -0.19607519 0.06185243 0.10318556
0.18347062 -0.16102172 -0.084891856 0.1361608 -0.16604738 -0.10603929 -0.20542161 -0.12401561
0.16304883 -0.070565164 -0.021874953 -0.013157053 -0.20915596 -0.04437869 -0.06569975 0.011348377
-0.16957092 -0.26076737 0.04635263 -0.19724979 -0.00800412 0.14314444 0.021032805 -0.19813691
0.21544906 0.14528464 0.12304691 0.035304338 -0.033441078 0.014661738 -0.04853716 0.023049677
0.05729095 0.2320022 0.11782465 0.13211635 0.021189937 -0.29627737 -0.19690074 -0.23085493
0.18877098 -0.09882288 -0.1519149 0.048570458 0.027067648 0.1520668 -0.10087586 0.0491459
-0.20028879 -0.07243276 -0.17616214 0.12496065 0.10354697 -0.022266619 0.017641772 -0.27172783
0.302391 0.1301321 0.22101335 -0.23085421 -0.18986674 -0.14536783 -0.23427504 0.09137522
-0.08192178 -0.16577742 0.120210774 -0.012126782 0.27359283 0.20416747 0.26316082 -0.050846227

transformer_encoder.layers.0.self_attn.in_proj_bias f4 [60]
00000000: 9af4 8dbc 12d8 573b d328 96bb 3f7a 8e3a
00000010: 81f7 1bbc b764 903c 2698 233d b9f4 2e3d
00000020: 122a 053d b004 1abc ebec b23c 37b7 5ebc
00000030: 6baf 9ebc 4ca1 cabc e09f 963c 625c 263c
00000040: a752 2ebc c2de 2ebd 6633 ba3b 6f5b 4f3d
00000050: 248a 48b1 d1d7 8830 2625 9c2b 0c73 22b1
00000060: f8d7 0a31 e795 8d32 cc2f ca31 6044 7d31
00000070: 0eff 0a32 0bcd 9b31 a453 0e2f 058f de2f
00000080: b73c 872f 9102 69b0 d7ca 83b1 a6df 6d31
00000090: 15d5 c3b1 5ba2 7c31 d308 4e31 741c 2a31
000000a0: 3acb 43bd 75a1 513d 573a ccbc 7495 83bc
000000b0: 2c2f 6c3d 5677 af3d 7cfa ed3b c1b0 833d
000000c0: a084 633d d8ee 123c 7b55 92bc 7f76 5b3c
000000d0: 5edf 88bd e843 933d 96c5 913c 85db 903d
000000e0: 5bad 2f3d 9bdd 2d3d 56d8 343c 2fc2 73bc
-0.01732855 0.0032935184 -0.0045825033 0.0010870172 -0.009519459 0.01762615 0.039940022 0.042713854
0.032510825 -0.009400532 0.021841487 -0.0135934865 -0.019370755 -0.024735115 0.018386781 0.010153862
-0.010639823 -0.042692907 0.0056823967 0.050624307 -2.9182354e-09 9.956641e-10 1.1094777e-12 -2.36395e-09
2.0204407e-09 1.6482728e-08 5.8844076e-09 3.6855212e-09 8.09065e-09 4.5344044e-09 1.294454e-10 4.0483186e-10
2.4599497e-10 -8.4768553e-10 -3.835662e-09 3.4615169e-09 -5.6994716e-09 3.6763115e-09 2.9981961e-09 2.475443e-09
-0.047801234 0.051179368 -0.024930162 -0.016062476 0.057662174 0.085676834 0.007262526 0.064301975
0.055546403 0.008968078 -0.017863026 0.013394951 -0.06683229 0.071906865 0.017794412 0.0707312
0.042889934 0.042447668 0.011037907 -0.01487784

transformer_encoder.layers.0.self_attn.out_proj.weight f4 [20, 20]
00000000: 824f 073e b128 e9bd a4f1 b6bd f58d 1d3e
00000010: a5f3 883e 77a8 773d 4439 dd3e 8d12 f83d
00000020: 24fa 81bd 983d 963d f44a 3fbe a706 593d
00000030: 09ce 3bbc 6232 a2bc b958 a73d 03d7 bdbe
00000040: 7896 033e 6bd3 b83d 37cb bc3e ae67 c43d
00000050: 1dc7 173e 37b6 aabd 9038 913d 8536 67bd
00000060: bb97 bf3d 5542 6ebd d9ec 8cbe 31d1 30be
00000070: 8af0 1bbe f874 96bd 0d28 29bd eb9a 8b3d
00000080: 254f 023e 1378 4cbe f1e3 cebd 5db4 8e3d
00000090: 0a04 9dbd a938 5d3d 5a60 2e3d 0981 c2bd
000000a0: b67d 1fbe 00ea 10bd 8c04 c0bd dfb4 16be
000000b0: d2c1 303e 9aad 1fbe e718 42be 78f9 9d3c
000000c0: 9d55 5ebe b408 1abd 7e1c 0abe cc65 1cbe
000000d0: 35c1 863c b6f8 a23d 7b81 f33c b882 3abe
000000e0: 56fb 163e 4fa7 debd f722 ce3d e600 66be
000000f0: 694f 5f3d 8afd 31bd cd42 843c 5290 023c
00000100: 720e 4d3e f2e5 86be 38d6 e83d e620 a3bc
00000110: 79d1 023e 9e0c 973d 3c83 7f3b 70fa e8bd
00000120: b14d fa3d cf0e 813d 7e79 a33e 665c 18be
00000130: 3519 ccbd 9d41 b33d f21a deb9 e96a 8d3e
00000140: 4728 38bd 9212 d63d de8d 60be 77cd 44be
00000150: 9efa fabc 69c0 ab3a 4b7c 493e f930 20bd
00000160: 6345 343e e96b 4b3d 7fed 92bc 8472 553d
00000170: a5ad 54be 5c09 5d3e a9d6 babd 5adf 1fbe
00000180: 6bec 7b3d 5397 4b3d 5e17 d83d eeb0 04be
00000190: cdd4 853e 266a a73d 28e1 52be d4d3 87bc
000001a0: 0dde a7bd 8859 acbd 9ea5 b9be ec31 30be
000001b0: c739 e5bc 233b 673e 1a3a 60be f892 2fbc
000001c0: 3b2d b43b 14aa 823c cf08 4d3d 66cf 2f3e
000001d0: 0ff4 31bd f02b 38bd fedb 2d3e 81fb 23be
000001e0: 6c2b 7e3d 4303 d1bd 0eb4 fabd 4bed b83d
000001f0: 2760 563e d107 58be a49f 333e a891 5b3d
00000200: 010f 633e 2236 183e cc66 9f3d 0b46 293d
00000210: 4951 4f3e f6ec 07be a2f4 28be fd5d 403e
00000220: 1322 a43c f5db 8a3d bff0 19be 5ba7 cdbd
00000230: 80e6 a73d cbeb 06be 8590 123e 835f 94bd
00000240: ae91 ea3d c5ad 78bd 7ad6 abbd 2a1c e53d
00000250: a639 fe3d e97a ddbd 0e05 2dbe a747 3bbe
00000260: ca7f 073e 3669 6abd cace 9bbd c490 8ebd
00000270: e238 a93d 0184 173e 2c46 28bd fc31 9cbd
00000280: f0bc c73c 9a23 493e f3c1 453e 07ab 603c
00000290: d523 c0bd 6a72 5f3d f027 5ebd c599 623e
000002a0: 29c8 453b a9f2 0cbd 0550 34be f932 ddbd
000002b0: a7b3 94bd 3aab 163e 11db 113d 02c8 493e
000002c0: a5e0 b4bc 407e 963d 6ee2 da3d b672 8bbe
000002d0: f2e1 203e 0450 27be 0e4e 643e d5f5 febd
000002e0: 746b 713e 0051 e0bd 4dab 753d 6c4b 673d
000002f0: 32ff 6d3e 6ab8 16be ad1e dd39 7bdb 8c3d
00000300: 9fb9 33be 74a9 d2bd 02a5 d3bc 4eb3 373e
00000310: 66c9 19be f966 053e 0c69 4dbe cb31 20be
00000320: b5df 723e b140 36be 565c e23d ebe8 4dbd
00000330: b1c4 d93d c5f8 89bb 7911 343e 7953 0e3d
00000340: f821 28be 7dd1 b8bc ce5f 8a3a 6f3f bbbd
00000350: 9f19 313c 60bc 2f3d a27b cabb f817 4e3e
00000360: e01b 0d3c ccf1 413e 35cf a6bc 4bae b13d
00000370: 14c8 1c3e f82b b33d 8c2c f1bb 18ed 41be
00000380: 31ae 843d 3843 79be f6fd 88be 586a 663d
00000390: 877c 6d3e b4c3 b9bc 813c 19bd 882e a3bb
000003a0: 5e26 d2bd 89ef a23c 6180 17bd 3e17 4f3e
000003b0: 41a8 a3be 4309 30be e3d1 543c 9d63 c23c
000003c0: 78dd 2bbe e593 cabd 3145 9e3e ab1f 30be
000003d0: 984f d3bd 8d10 183d 09f0 823d 401b d03d
000003e0: fe68 92be a847 263e 6049 113e 9470 07bd
000003f0: f412 08bd 779d 593e 983f f1bb e98c 813e
0.13213924 -0.113847144 -0.08932808 0.15386184 0.26748386 0.060463395 0.43207753 0.12112913
-0.06346539 0.07335967 -0.18680936 0.05298486 -0.011462697 -0.019799415 0.081712194 -0.37078103
0.12850368 0.090247 0.3687379 0.09590088 0.1482205 -0.08335536 0.070908666 -0.05644848
0.09355112 -0.058168728 -0.2752445 -0.172673 -0.15228477 -0.07346529 -0.04129796 0.06816658
0.12725504 -0.1996768 -0.1010207 0.06967995 -0.07666786 0.054009113 0.042572357 -0.09497268
-0.15575299 -0.03537941 -0.09375867 -0.14717434 0.17261437 -0.15593567 -0.18954812 0.019283995
-0.21712346 -0.037605956 -0.13487431 -0.15273207 0.01644955 0.07957594 0.029724827 -0.18213928
0.14744315 -0.10871755 0.10065263 -0.2246128 0.05451909 -0.043454684 0.016145134 0.007968979
0.20025042 -0.2634731 0.11368984 -0.019913148 0.1277522 0.073754534 0.0038988134 -0.11375892
0.1222185 0.06301653 0.3192863 -0.14878997 -0.09965745 0.08752749 -0.00042363215 0.27620628
-0.044960286 0.10452761 -0.21929118 -0.19219004 -0.030637082 0.0013103607 0.1967632 -0.039109204
0.17604594 0.049663458 -0.017935513 0.052111164 -0.20769365 0.21585602 -0.091229744 -0.15612546
0.061504763 0.04970486 0.10551332 -0.12958118 0.26138917 0.08174543 -0.20593703 -0.0165805
-0.0819665 -0.08415514 -0.36259168 -0.17206544 -0.027981652 0.22581153 -0.21897164 -0.010716192
0.005498556 0.01595024 0.05005723 0.1716896 -0.043445643 -0.044963777 0.16978452 -0.1601391
0.06205313 -0.102057 -0.12241374 0.09029635 0.20935117 -0.21096732 0.17541367 0.053605705
0.22173692 0.148644 0.07783279 0.041326564 0.20245852 -0.13273987 -0.1649957 0.18785854
0.02003578 0.06780235 -0.15033244 -0.10041686 0.08198261 -0.13175885 0.14312942 -0.0724478
0.114535674 -0.060712595 -0.083905175 0.111870125 0.12413339 -0.10814459 -0.1689646 -0.18289052
0.13232341 -0.057229243 -0.07607801 -0.069612056 0.08262803 0.14796449 -0.041082546 -0.07626721
0.024382085 0.19642487 0.19312267 0.013712651 -0.093818344 0.054552473 -0.054237306 0.22128971
0.003017912 -0.034411106 -0.1760865 -0.10800738 -0.072608285 0.14713755 0.03560931 0.19705203
-0.022079775 0.07348299 0.10687719 -0.27235955 0.15711191 -0.16339117 0.222954 -0.124492325
0.23576146 -0.109529495 0.05997782 0.056468412 0.2324188 -0.14718786 0.0004217526 0.068778
-0.17551278 -0.10286227 -0.025835518 0.17939493 -0.15018234 0.13027562 -0.20059603 -0.15643995
0.2371815 -0.17798115 0.11052768 -0.050270956 0.10633219 -0.004210564 0.1758479 0.034747574
-0.16419208 -0.02256083 0.0010557116 -0.091429584 0.010809331 0.042904258 -0.006179289 0.20126331
0.008612603 0.18939894 -0.020362476 0.08675822 0.15310699 0.08748621 -0.0073600467 -0.189381
0.06478537 -0.24342048 -0.26756257 0.05625376 0.23192035 -0.022676326 -0.037411217 -0.004979912
-0.10261224 0.01988961 -0.036987666 0.2022371 -0.31964305 -0.17191033 0.012989494 0.02372914
-0.16783702 -0.0989149 0.30912164 -0.1719958 -0.10317916 0.03712516 0.06393439 0.101614475
-0.28595728 0.16238272 0.14188147 -0.033066347 -0.0332212 0.21251474 -0.0073623173 0.25302818

transformer_encoder.layers.0.self_attn.out_proj.bias f4 [20]
00000000: 847a a7bc b8e2 473d f93b 0b3d e37c 1a3d
00000010: 0243 af3c 2a0e ca3c 2db8 a2bc 3d45 e83c
00000020: d86e 70bc b672 95bc 5b3e 993b 1e35 32bd
00000030: a518 183d c461 b0bd 0ba2 123d 43fc b1bc
00000040: 5e10 1fbb 9cc6 1cbd b1aa 673c e22d afbc
-0.020444162 0.0488002 0.03399274 0.037716758 0.021394257 0.024664957 -0.019863212 0.028353328
-0.014674865 -0.018243175 0.004676623 -0.043507688 0.037132878 -0.08612397 0.035799067 -0.021726733
-0.002427123 -0.038275346 0.014139817 -0.021384183

transformer_encoder.layers.0.linear1.weight f4 [20, 20]
00000000: bc99 bebd c154 133e cc85 763d 5784 473e
00000010: af1a b9bd a54b b7bc 94de 21be be49 3c3e
00000020: 2559 0abd 2de8 4cbb cef2 f1bd 8734 253d
00000030: 7657 8c3d 108c 3a3d 29ba f43c fa16 b33d
00000040: fb49 483e f9ce 16be f383 6bbd 9398 e7bd
00000050: c209 82be 5c14 403e a0c1 63be 3139 363d
00000060: 557f 783d 134b bcbc afd0 fe3c cf0e 35be
00000070: 76ec 2a3e a12e 0bbd 0c40 12bd 842e c23d
00000080: aad4 6dbd 240b 13be 6432 1d3e 681b 483e
00000090: 6a0a 0d3e 33ae 60bd e3b4 f4bd e59b 983d
000000a0: 105f 2f3e b7b7 583e 1db1 6f3e 07c2 463e
000000b0: 1825 da3a 4e7b 3a3e 164c 603e 3d7f 64bd
000000c0: cb1a a8bd 651c 373d cdff 9cbe 48ba 173c
000000d0: 8e17 ea3b 64d3 d03d dce7 39be 2ffa 49bd
000000e0: a4c0 b4bd 2fe2 4e3e 70e2 313d ae01 bbbc
000000f0: 6a50 87bd 29f4 1bbe ef4a 603d e46e 803e
00000100: 2941 1bbd 0dbe 87bc bba7 92bd 6aa7 113e
00000110: 184d 23be 0e92 94bd af01 0b3e 7113 2fbe
00000120: d58b 1a3e fb7a 343d de68 75bd 3ecd df3d
00000130: 34ce d3bd 8b63 47be 3455 013d 3741 3a3e
00000140: 0e9a 8d3d 0ecc 52be 250a bdbd 432a a4be
00000150: a471 083e 1daf b83e e4a9 413c fbe0 49be
00000160: b358 ad3b ee4e 06be 2a3e 063d d259 c9bd
00000170: 7e97 f9bd eae3 143e f548 933d 87b9 74be
00000180: c49a 36be 73f1 063d 1894 b53d 2631 8bbd
00000190: 33ad d2bc 8cd0 eebe 99b7 10bb cb73 9dbd
000001a0: 4452 d43d af6d 9fbe 6f99 cb3c 49ae a5bd
000001b0: 1891 e3bd a870 48bd f095 02bd 12c9 30bd
000001c0: 51eb 25bb c23b 293c 6d85 3e3e 26b4 a53e
000001d0: bd52 7cbd 98f2 9d3d 487a 6c3e 7920 fe3d
000001e0: 6d91 a3bc 3144 f63d cef0 d6bd 021d 4fbe
000001f0: 3785 173e 6e8d b63e e356 c4bd 79f5 69be
00000200: 89e1 84bd 57fb 143e ff8b 14be 3775 73be
00000210: 0a94 58be 44fa 04be 68f7 693d 3dd9 6fbd
00000220: 7cf3 0bbd d300 813d 4e7d c43c 6310 75be
00000230: b799 593e 0094 2a3e 1607 8abd fd50 ccbc
00000240: a797 bbbd cf44 633e e253 6cbe a087 ab3d
00000250: 1ab6 87bd eaf9 62be ba4a 36be 78ce 38be
00000260: ac8e e53d ac15 6cbe 0cf7 053e 6da9 36be
00000270: e6c4 023d 570b 78be a4c4 2dbe 226a c0bd
00000280: 07b3 18be f9f9 463e 12f3 3e3e ba4b 00be
00000290: 9eb8 963d ee78 4eba a76c 923d 11c6 8a3e
000002a0: 2ab3 05be 9da5 01be 1417 113e daa9 7d3e
000002b0: c466 8cbd 21cf dc3d f6ca 65bd 16ee 6bbe
000002c0: fe3c 0f3e 3e4c 94bd 9ecf cf3d e9b3 f63d
000002d0: ca71 623c efd2 8bbe a5e2 7abc 4cb1 773e
000002e0: 7d00 773e f6ec 983d 7805 afbd 8079 f73d
000002f0: a565 2f3d 5ced 8ebd 3597 ff3d 7138 173e
00000300: 07c2 123e 7527 22be 8213 c8bd 06d3 27bc
00000310: 079a 17be 14f4 323e 7115 aabd 35e2 d9bc
00000320: 365c 80bb e60f 363e 628b 81bd dd68 473e
00000330: ee3d 473e 87c4 24bd dd3a 0cbc 9070 b0bc
00000340: c967 6c3e fe84 35be 03c7 38be 9b48 3dbe
00000350: 8272 c23d 222a ca3d e6c1 c4bc f1d0 023e
00000360: 8685 07be 009a 43be ed23 983d 422d 2bbe
00000370: 0daa 9e3d 96f5 82be f628 6d3d 80c7 3abe
00000380: 43d5 6bbc 3cd4 74be e851 ff3d b5d8 15be
00000390: d0a5 d6bd 09b4 e63d 7c9c c6bc a353 32bd
000003a0: d214 3cbe 9664 b73b 9b69 2c3e 5e18 233e
000003b0: e17f 33be ae61 30be 6513 073e 9ef9 cb3d
000003c0: 046b 5a3d 3ac7 4a3e 4823 bdbc 1bd1 333e
000003d0: 0f0f 7a3d 0346 03bd eac1 303e 7a09 463e
000003e0: 067d 1c3e a1d1 d23d ae20 783c 0a95 2fbe
000003f0: 709b 2abe 8c1d c13d 1188 d2bd 2f35 e9bd
-0.09306666 0.143878 0.060186192 0.19484077 -0.090382926 -0.022374937 -0.15807563 0.18387505
-0.03377642 -0.0031266317 -0.118138894 0.040333297 0.06852619 0.04554373 0.029873924 0.08744617
0.19559471 -0.14727391 -0.057498883 -0.11308398 -0.2539807 0.18757766 -0.22241831 0.044488136
0.06066831 -0.022985017 0.031105367 -0.1768143 0.16691765 -0.033980016 -0.03570561 0.094815284
-0.05806414 -0.14359719 0.15351254 0.19541705 0.13773504 -0.05485363 -0.11948564 0.074516095
0.17126107 0.21163832 0.23407407 0.19409953 0.0016643135 0.182111 0.21904024 -0.055785406
-0.08208235 0.044704814 -0.3066391 0.0092607215 0.007143921 0.101965696 -0.18154854 -0.04931086
-0.08825806 0.2020347 0.04342884 -0.02282795 -0.06607135 -0.15229858 0.054758962 0.25084603
-0.03790394 -0.016570115 -0.07160898 0.1422402 -0.15947378 -0.0725442 0.13574861 -0.1709726
0.15092404 0.044062596 -0.059914462 0.10927819 -0.103420645 -0.19471566 0.031575397 0.1818894
0.06914149 -0.20585653 -0.092304505 -0.32063493 0.133246 0.360711 0.01182029 -0.1971473
0.005290115 -0.13116047 0.032774128 -0.09831585 -0.12187098 0.14540067 0.0719165 -0.23898898
-0.17832476 0.032945108 0.08866137 -0.06796484 -0.025717353 -0.46643484 -0.002208209 -0.076881014
0.103672534 -0.3113837 0.024853436 -0.08089883 -0.11111659 -0.048935562 -0.031881273 -0.043160506
-0.0025317261 0.010329189 0.18605585 0.32364005 -0.061602343 0.07712287 0.23093522 0.124085374
-0.019966805 0.12024725 -0.104951486 -0.2022591 0.14796911 0.35654777 -0.09586885 -0.22847547
-0.0648833 0.14549004 -0.1450653 -0.23775183 -0.21150222 -0.12986094 0.05712071 -0.058556784
-0.03416775 0.06298985 0.023985531 -0.23932032 0.21250044 0.1665802 -0.06739633 -0.024940962
-0.09159785 0.22194217 -0.23078874 0.08375478 -0.0662653 -0.22165647 -0.17801943 -0.18047512
0.11208853 -0.23055142 0.13082522 -0.17838068 0.03192606 -0.24223076 -0.16969544 -0.09395243
-0.14912044 0.19431295 0.18647411 -0.12528887 0.07359432 -0.00078762963 0.0714963 0.27104238
-0.13056627 -0.12660833 0.1416896 0.24771824 -0.068555385 0.10781694 -0.05610176 -0.23040041
0.1398811 -0.072411045 0.10147022 0.12046034 0.013821075 -0.27309367 -0.015312825 0.24188727
0.2412128 0.07467072 -0.08545965 0.12083721 0.042821545 -0.069788665 0.12480012 0.14767624
0.14331828 -0.15835364 -0.09769346 -0.010243183 -0.1480485 0.17475921 -0.08304871 -0.026597122
-0.0039172424 0.17779502 -0.06325413 0.19473596 0.19457218 -0.040226486 -0.008558956 -0.021538049
0.23086466 -0.17726514 -0.18044667 -0.18484728 0.09494497 0.098713174 -0.02401824 0.12775017
-0.13234529 -0.19101715 0.07428727 -0.16716483 0.07747278 -0.25577992 0.05790039 -0.18240166
-0.014394107 -0.23909086 0.12466794 -0.14633448 -0.10480845 0.11264808 -0.02424454 -0.043536793
-0.18367317 0.0055967076 0.1683716 0.15927264 -0.1752925 -0.17224762 0.13190992 0.0995972
0.053324714 0.19802561 -0.023088112 0.17560236 0.061049517 -0.03204919 0.17261472 0.19339553
0.15282068 0.1029389 0.01514451 -0.17146698 -0.16660857 0.09429464 -0.10279859 -0.11387097

transformer_encoder.layers.0.linear1.bias f4 [20]
00000000: ea61 a8bd ca55 d33d 66ab 3abe e2fd 7abd
00000010: 16cb 2a3e 1765 a53a 4c99 67be 0e72 6dbe
00000020: ecd0 d83c 93c2 9e3d 548b e23d 1fce 94bc
00000030: db50 5d3d 4a96 45bd 8d36 f2bd 829b bcbd
00000040: 254b 42be 4e80 1fbe 0bae 12be 8c8c 57be
-0.082218006 0.10319097 -0.18229446 -0.061277278 0.16679034 0.0012618628 -0.22617072 -0.2318804
0.02646681 0.07751956 0.11061731 -0.018164692 0.054032188 -0.04823903 -0.11826811 -0.09209348
-0.18973978 -0.15576288 -0.14324205 -0.21049708

transformer_encoder.layers.0.linear2.weight f4 [20, 20]
00000000: aefc 153d b0c6 59be 26de c7bd 3ab2 5d3e
00000010: a9de 4fbe c2c3 da3e 1eaa 903d 4ac3 2e3e
00000020: a943 1abe 2fe0 813e 124b c73d 9975 a23e
00000030: e8da f1bd f0d6 703c eecb 463e fd35 463e
00000040: 9ad1 8c3e d02f bfbd 49bd 48bd 186e d33d
00000050: d6d2 0b3e fc3b 673d 7163 30bd f5ff 433d
00000060: 6e53 10bd 8bf4 843e d9df f43d 33c5 21be
00000070: a5a3 ff3d 367b 073c f858 d9bd a26f c5bc
00000080: effe 093e 6b31 50bd 2059 e53d 341c cfbd
00000090: 82cb f33b 33d5 26bb b123 d33b cebe 15bc
000000a0: 4801 443d deff 52bd d3ff 4a3e a556 efbd
000000b0: 6373 04be 3127 833e 3423 00be e2b5 873e
000000c0: e30b 333e 9008 233e 3ae2 323c 8d8a dbbc
000000d0: 91b4 b93a 53c8 4dbd 7f81 b73d b83f 26be
000000e0: 6d4d 9cbd eed0 123d 55a1 2a3d 2005 583d
000000f0: ca7e 1c3e 2000 07bc d7c0 5dbb 3632 b9bd
00000100: e22c e83c 2398 1b3d 0d42 f53d 5f59 153e
00000110: 9dc0 6c3b 5492 17be b463 263d 73f4 85bc
00000120: 365c 433d aec5 1bba ad5a 163e 5d3e 203e
00000130: 118a ccbd e196 4b3c eeaa 4e3d c99b d5bd
00000140: a165 47bd 239f d63a 14a0 2cbe 432d 6c3d
00000150: 4044 ae3d c122 393e a380 b13d 8d5b cb3d
00000160: b8bb 2c3e fdfe f13d 66ad 01be a1ce d1bd
00000170: 4dfa da3d 71cf 4f3e df42 c5bd bbdc 853e
00000180: dfe4 e23d 59fe 4cbe 83e4 5f3d 5118 613d
00000190: f7ed 473e d9db 8f3d 5e35 0abe 1fe8 16bd
000001a0: 2c54 253d 3564 3d3e f66c 44be d349 f0bd
000001b0: 9a6e 97bd ba87 8abc ea33 1f3c 598b a73c
000001c0: da9f c63d e39f b9bd 804e 2fbe b6d5 45be
000001d0: a3ed 5e3d 8b17 493d 9399 39bd 2ffa 173e
000001e0: e9eb 08be 5c1c b53d 16c0 ecbd 6e92 323e
000001f0: 3191 a2bc 8227 d63d c3ba 88bd 0488 0f3b
00000200: b346 a8be 4a90 0f3e a898 fb3c 6de5 edbd
00000210: 78e1 bf3d 7f8b 55be b18b 223d 5b32 873e
00000220: 8934 e23d 9127 de3c e0f6 683c ac3d 7d3c
00000230: 5b9b 243e fbff 313e eba6 e93d cd8e 21be
00000240: fc7e 4e3e 386f 39be 6a58 593e 49b7 eb3b
00000250: 9dbe 523e 3a75 b83c 8a8b 213e d4f3 d73c
00000260: 03d2 573d 78ff d83d 03cf 153e 4d21 35be
00000270: 62c2 b8bd 1608 a33d 4bb6 bd3d c533 d43d
00000280: a766 703d 6f45 e53d c952 2fbe 06b9 4e3e
00000290: babb 9fbd bf17 d93d 856d 94be 79b6 843d
000002a0: 7239 57bc c979 393e d043 10be d601 2abe
000002b0: 9c45 e03d 0f98 c0bd c056 de3c 991e 0ebe
000002c0: 4b47 7c3e 0d16 333e e40b e93d d311 1c3d
000002d0: 105c f53d 314e 343e 2d11 033e 83f1 e13b
000002e0: e7ca 3cbe 31fb 8dbe 693c 7bbd 2b03 bcbd
000002f0: 5491 84bd 7c4c 8ebd 80a2 6cbd 1eb0 efbc
00000300: 9ba6 253e fbf5 7abd c65c 90bd 93a5 4ebd
00000310: 4dd2 733d 9915 c0bd ba17 023e c923 79be
00000320: 263e 04be 3682 78be b140 c33d e83b 243e
00000330: 55bf 823e 85f8 15be 7ed7 593e 93a5 603e
00000340: 0168 c2bd 2a82 9e3d ed8b 4f3e 483d a7bd
00000350: ad7f c23a 41a1 41bd d0b7 1ebe 707a 3cbc
00000360: f34a 8cbe bfd2 fe3d 5a12 86bd 510f 8bbe
00000370: 7c31 473e e218 1d3e 4db5 d23a a4ce 51be
00000380: 5034 243e 6b62 12bb d71c 7d3e 40d8 d2bd
00000390: e2c2 143e 2388 b83d 2e32 9f3d 3505 b4be
000003a0: 9ff4 93be 3d8e 483d bf29 1f3c a7d3 ff3d
000003b0: 91b0 a43d c5d8 09be 2cd4 083d 51d1 0ebe
000003c0: ae41 29bd 209e 35be e702 f13d 9f71 23be
000003d0: 9458 f83c b57d 28be d49d d4bd b662 76bd
000003e0: 6ada 10be 12ea 71be 83cb 21be b401 5cbe
000003f0: 6733 3c3e 2fbb 0d3e 350d f13c b075 2c3e
0.036617927 -0.212672 -0.09759168 0.2165002 -0.20299782 0.42727476 0.07063697 0.17066684
-0.15064873 0.2536635 0.097311154 0.31730345 -0.11809331 0.014699683 0.1941373 0.19356532
0.27503663 -0.093352914 -0.04900864 0.10323733 0.13654646 0.05645369 -0.043063585 0.04785152
-0.035235815 0.2596782 0.11956758 -0.15797882 0.124823846 0.008269122 -0.106126726 -0.024101082
0.13476156 -0.05082838 0.1119864 -0.10112801 0.0074400315 -0.0025456666 0.0064434637 -0.00913973
0.047852784 -0.051513545 0.19824152 -0.11686448 -0.12934642 0.25615838 -0.12513429 0.26505953
0.17485003 0.15921235 0.010918194 -0.026799465 0.0014168193 -0.050239872 0.08960246 -0.16235244
-0.07631955 0.035843782 0.041657764 0.052739263 0.15282741 -0.008239776 -0.0033836865 -0.0904278
0.028341714 0.037986886 0.11975489 0.14584874 0.0036125549 -0.14801913 0.040622428 -0.016351914
0.04769536 -0.00059422373 0.14683028 0.1564879 -0.099872716 0.012426109 0.05045598 -0.10430104
-0.048680905 0.0016374331 -0.1685794 0.057660352 0.085091114 0.18079664 0.08667114 0.09929571
0.16868484 0.11816213 -0.12663803 -0.102444895 0.10692272 0.20293976 -0.09631895 0.26144966
0.1107881 -0.20018901 0.054661285 0.05495483 0.1952437 0.070243545 -0.1349692 -0.03684246
0.040363476 0.18495257 -0.1918219 -0.11732831 -0.073941424 -0.016910423 0.009716967 0.020452188
0.09698458 -0.09063699 -0.17119789 -0.19319806 0.054425847 0.049094718 -0.045312475 0.14841531
-0.13371243 0.088433 -0.11560075 0.17438671 -0.019844623 0.10456754 -0.06676247 0.002190114
-0.3286644 0.14019886 0.03071244 -0.11616025 0.093691766 -0.20853995 0.039684 0.26405606
0.110451765 0.027118476 0.014219016 0.015456598 0.16074888 0.17382805 0.1140879 -0.1577713
0.20165628 -0.18108833 0.21225134 0.00719348 0.20580526 0.022516835 0.15775886 0.026361383
0.052690517 0.10595602 0.1462975 -0.17688484 -0.090214506 0.07960527 0.09263285 0.10361437
0.058691647 0.11194884 -0.17121424 0.20187768 -0.07799478 0.10600232 -0.28989807 0.064801164
-0.013136255 0.18112864 -0.14088368 -0.16602263 0.10950777 -0.09404003 0.027140975 -0.1387886
0.24636571 0.1748888 0.11379221 0.038102936 0.1198045 0.17607953 0.12799521 0.0068952455
-0.18436776 -0.27730706 -0.06133691 -0.09180292 -0.06473032 -0.06948182 -0.05777216 -0.029258784
0.16176836 -0.06126974 -0.07048945 -0.050450873 0.05952673 -0.093791194 0.12704363 -0.24330057
-0.12914333 -0.24268422 0.09533823 0.16038477 0.255366 -0.14645584 0.2127361 0.21938162
-0.094924934 0.077396706 0.20268221 -0.08165985 0.0014839076 -0.047272924 -0.15499806 -0.011503801
-0.27400932 0.124425404 -0.06546469 -0.27160123 0.1945247 0.15341523 0.001607576 -0.20488983
0.1603558 -0.0022336494 0.24718033 -0.10295153 0.14527467 0.09010341 0.07773243 -0.35160223
-0.2889757 0.048963774 0.009714543 0.12491541 0.0804149 -0.13461597 0.033405468 -0.13947035
-0.041322403 -0.17736101 0.11768132 -0.15961312 0.030315675 -0.16454203 -0.10381666 -0.06015273
-0.14145818 -0.23624447 -0.1580029 -0.21485025 0.18378983 0.13840936 0.029425243 0.16841769

transformer_encoder.layers.0.linear2.bias f4 [20]
00000000: 98d1 e23d c807 4c3c b599 563e a77a 903b
00000010: 1838 0e3e 9224 f93c dfef dabc 2514 05be
00000020: 4ec7 d83a 003b 3dbd b80d 523e 8600 11bd
00000030: 77b2 433d a57b 8b3d 9833 18bc 942d 62bd
00000040: b5d0 1b3e dcd4 5dbd 4f4e 413e 0abf e4bd
0.11075133 0.012453027 0.20957072 0.0044091525 0.13888586 0.030412946 -0.026725708 -0.12995966
0.001653889 -0.046198845 0.20513046 -0.03540089 0.04777762 0.06810693 -0.009289645 -0.055219248
0.15216334 -0.054158077 0.18877529 -0.1116925

transformer_encoder.layers.0.norm1.weight f4 [20]
00000000: bc18 ac3f bee4 9b3f b1d1 8b3f 3936 963f
00000010: 61e2 803f 39a1 9a3f 6420 893f 4e38 6d3f
00000020: 5084 833f 64ee 7c3f fcc0 7e3f c025 863f
00000030: a6cf 653f c887 6e3f 9df3 7a3f 3e47 483f
00000040: c0bc 713f 44c1 883f a6f1 7a3f 4a8b 7c3f
1.3445048 1.2179182 1.0923368 1.1735297 1.0069085 1.2080451 1.071301 0.9266404
1.0274754 0.98801255 0.9951322 1.048027 0.8976997 0.93175936 0.98027974 0.78233707
0.94428635 1.068398 0.98024976 0.9865004

transformer_encoder.layers.0.norm1.bias f4 [20]
00000000: 446d ebbc d7de 683d bf42 383d 6d85 833c
00000010: 3ee5 d13c 77e3 2b3d 1506 85bd daed 643d
00000020: 0cd1 1b3c d8e1 6abd 9e20 2f3d 4e71 09bd
00000030: da6a 7e3d 10ad 3bbd e1fa 493d 854b 32bd
00000040: 11f2 883c 613f 72bd 023f 453d 0f5b 51bd
-0.028738625 0.05685314 0.04498553 0.016054833 0.025622007 0.041964974 -0.06495301 0.055890895
0.00951029 -0.057344288 0.042755716 -0.03355532 0.06211362 -0.045819342 0.049311522 -0.043529052
0.016716989 -0.059142474 0.048155792 -0.05111223

transformer_encoder.layers.0.norm2.weight f4 [20]
00000000: 5a9e b33f f356 693f 2370 913f d1aa 813f
00000010: 3b7c 893f 5a32 803f 0238 913f 3169 703f
00000020: 8086 8a3f 46e4 873f 79c5 763f 63fe 8b3f
00000030: f81b 653f 359f 783f 42a0 7b3f 4db1 503f
00000040: aee2 743f f26d 8f3f bb98 803f 7ac8 893f
1.40327 0.911483 1.1362346 1.0130254 1.0741037 1.0015366 1.1345217 0.9391051
1.0822296 1.0616539 0.9639507 1.0937008 0.894958 0.9711793 0.9829141 0.8152054
0.95658386 1.1205428 1.004661 1.0764306

transformer_encoder.layers.0.norm2.bias f4 [20]
00000000: f32b 343c af7b 8e3d 5d2e 9a3d 3772 a13d
00000010: fe80 883b d6c8 8bbb dbbc 66bd 7bb6 b63d
00000020: 37f4 1f3c f950 74bd fa92 143d 1071 dbbc
00000030: edcc f53c f28e 49bb 370c a53d c96c cb3c
00000040: a159 b3bc 3b71 75bd bcfa 493d 5072 2abd
0.010996806 0.069571845 0.07528374 0.07883113 0.0041657677 -0.004265885 -0.05633245 0.08921524
0.009762815 -0.059647534 0.03627298 -0.02678731 0.030004943 -0.0030755368 0.080589704 0.024832146
-0.021893324 -0.059922438 0.049311385 -0.041612923

transformer_encoder.layers.1.self_attn.in_proj_weight f4 [60, 20]
00000000: 3ef8 0ebe 3a07 8abe 7995 5b3e 010c 573d
00000010: ccca 333e 29e0 773d 1e9d 23be 1837 ec3d
00000020: c2f4 0f3d 8518 4f3d e657 4abe c79e 7a3e
00000030: ea61 8fbe 30a5 373e a5fa 813e 6ce1 8a3e
00000040: cae3 a83d 2daa d2bd c84a eebb 3259 7c3c
00000050: b5ea 673e 9d9d 8fbc 8ce0 7ebe 400a c83d
00000060: 04b0 9b3d 3bed df3d 86a4 283e 4289 8dbd
00000070: 0039 573e 16b7 0fbd 2f05 83bb 63a8 93bd
00000080: 504c cc3d 434a 98bd c0da 623e 782e 203e
00000090: d214 863e ebe8 a53c 62c7 2b3d 31b8 13be
000000a0: 0df4 573e 6fe5 7bbe 60cf cb3c 4537 8cbd
000000b0: 29d7 743e 9757 6bbe c0f3 2a3e fce4 83be
000000c0: f002 bb3c 9d6d dabd c6c2 41bd 64ef 45bd
000000d0: addd 063d a830 46be 5181 ca3d 01f0 28be
000000e0: fbdf 71bd de1d 9cbe e09e aebd 70e9 b83c
000000f0: 5f71 553d 244d 573d ab42 2bbe 9c22 8d3d
00000100: a451 7e3e 9485 303e 0fac babd dfcb 103e
00000110: 573e 793c 18dc 253c 3785 643d 81a7 fa3d
00000120: c057 6bbe 6787 afbd b5f3 873c 937d 2d3e
00000130: d035 4cbe d748 e6bd b300 3dbc 4d37 b13d
00000140: cb31 87be 1de6 173e da50 36be 6b1e 6d3e
00000150: 31dc 72bd c502 48bd b471 cd3b ae21 00bb
00000160: 8e3d 663e 26b5 213e dfec 6abe 9f89 213e
00000170: 4a74 363e 5b3e 99bd 0988 4cbe 62fe afbd
00000180: 0e95 64bd 973f 483d ef04 dd3c 7bf0 633e
00000190: d512 81bd 9fcb 49bd 1856 503e cfff 7cbe
000001a0: 7407 c53d c5c8 233d fcc0 b93c 1e07 4a3e
000001b0: 52ae 39be 8089 1fbe 111f cc3d ed0f 503e
000001c0: cdfd 2ebd 8334 4cbd c91c 77be 6842 143e
000001d0: 61ab 13be a0e5 5abe b4c4 8dbd 4893 41bd
000001e0: ac11 9abd e2e9 dd3d 432e ef3d 12a7 3b3d
000001f0: 3c0d 2ebe 02df fdbd 4aed 39bd e189 04be
00000200: bb05 34be 2b6c 0d3e e3ec f1bd ce8a ad3d
00000210: ac8b 83bd fdd7 033e 3bc5 2ebe 8504 473e
00000220: 385f 2f3e 53cf 02be d308 86bb 81d0 04be
00000230: 0e8b 823d 34cb 4dbe b0a0 1b3d 86f2 ae3d
00000240: 729e a23e f6bc eebc 7610 80be c11c 0abd
00000250: 047c 25be 18af 03be 9b65 753d c4a5 5dbe
00000260: faf3 243e 06af f03c 7cbb 38be 75b5 2cbe
00000270: a00c c53d 3a81 debc 18e5 8cbd b424 febd
00000280: 06e1 2a3e dc8b 7ebd b275 5bbd 3621 313e
00000290: 0281 fd3d 19ca bfbd ebb7 7bbe f53d 403e
000002a0: a697 86bb 7b66 213e 26e0 30bd edb0 2a3d
000002b0: 460a 603e 0b7c 0cbe 7062 e33d 5812 243e
000002c0: 0730 103e a47a 5bbe 8a85 823e db7f 143e
000002d0: cb9a 19be cf50 85bd 05a6 fc3d 4649 fd3d
000002e0: dce4 473e 5beb 4ebe f3f9 cabd 03b3 1d3e
000002f0: dc15 cebd 50c4 0bbe c68d 19be cc35 dabd
00000300: a821 3a3e e7a0 f4bc d3a8 bb3c 911f 9a3b
00000310: 8cee 36be 1f3c 89bd 210f 9dbd e347 c53c
00000320: 27be 0dbe 3908 6abe 1062 9cbb dbd4 14be
00000330: 0281 af3c 34cc ba3d 6e37 833d 5db3 2bbe
00000340: e7db 3b3e 5386 2e3e 50fc d03d 08cf 2bbc
00000350: 8173 48bc b2e0 a23c 5bac 92bd 81f9 44bb
00000360: 5daf d53c 046a 803e 70cf e43d 2d93 e63d
00000370: a88b eebc 4dd0 74be d923 89be 986c 5cbe
00000380: ed53 3e3e 21ed b9bd 368b a4bd aa46 273d
00000390: d7ed 363c 8509 513e 542d 04be 7448 c33c
000003a0: e707 20be 963d 7ebd 6e8c 34be ed5b 0e3e
000003b0: 6d28 a23d 7f64 0b3d be9f 6c3b 565a 8cbe
000003c0: 173d 9a3e e107 f13d ebc0 6f3e 2d9b 85be
000003d0: d8f0 3abe a14f edbd 0575 81be 3181 a93d
000003e0: 4a1c 92bd 796a 33be 7001 0d3e 96e4 463c
000003f0: db03 8b3e 48c2 5e3e 8c5f 8a3e 9c10 04bd
-0.13961884 -0.26958638 0.21443738 0.052501682 0.1755783 0.06051651 -0.15977904 0.11533946
0.03514553 0.050560493 -0.19760093 0.24474631 -0.2800439 0.17934108 0.2538654 0.27125108
0.08246572 -0.10286365 -0.007272098 0.015402125 0.22648127 -0.01753121 -0.24890345 0.0976758
0.07601932 0.1093392 0.1646901 -0.069109455 0.21017838 -0.035086714 -0.0039984207 -0.072098516
0.09975493 -0.07436039 0.22153759 0.15642726 0.2618776 0.020252666 0.041938193 -0.14425732
0.21089192 -0.2459924 0.024879158 -0.06846479 0.23910202 -0.22982632 0.16694546 -0.2576064
0.02282855 -0.10665438 -0.04730489 -0.048324004 0.03292625 -0.19354498 0.098879464 -0.16497804
-0.059051495 -0.30491537 -0.08526397 0.02257225 0.052110072 0.0525638 -0.1672465 0.06891367
0.24835831 0.17238456 -0.09114849 0.1414027 0.015212617 0.010123275 0.055791106 0.1223898
-0.22982693 -0.08570748 0.0165957 0.16942434 -0.19942403 -0.11244362 -0.011535811 0.08653126
-0.26405177 0.14833875 -0.1780428 0.23156135 -0.059292022 -0.048830766 0.006269658 -0.0019551325
0.22484419 0.15791759 -0.22941922 0.15775155 0.17817798 -0.074825965 -0.19973768 -0.085934415
-0.055806212 0.04888877 0.026979892 0.22259705 -0.0630242 -0.049266454 0.20345342 -0.24706958
0.09620562 0.03998639 0.02267503 0.19729277 -0.18132904 -0.15579796 0.09966863 0.20318575
-0.042722512 -0.049854767 -0.24132074 0.14478457 -0.14420845 -0.21376657 -0.06922284 -0.0472596
-0.07522902 0.10835625 0.116787456 0.045813628 -0.16997236 -0.12396051 -0.045392312 -0.12943222
-0.17580311 0.13810794 -0.11812761 0.084737405 -0.06423125 0.12875362 -0.17067425 0.19435318
0.17126167 -0.127744 -0.0040904074 -0.12970163 0.06374179 -0.20097047 0.03799504 0.085423514
0.3176151 -0.029142838 -0.2501256 -0.033718828 -0.1616059 -0.12859762 0.05991135 -0.21645266
0.16108695 0.029380333 -0.1804027 -0.16866095 0.09621549 -0.02716123 -0.06879634 -0.12409344
0.16687402 -0.0621451 -0.05357904 0.17297825 0.12378122 -0.09364719 -0.24581878 0.18773635
-0.0041074334 0.1576175 -0.043182515 0.041672636 0.21878919 -0.13719194 0.1110276 0.16022623
0.14080821 -0.21433502 0.25492507 0.14501898 -0.15000455 -0.06509554 0.12336353 0.123674914
0.19520897 -0.20206968 -0.09910955 0.15400319 -0.10062763 -0.13649106 -0.14995489 -0.10654792
0.18176901 -0.02986188 0.02290765 0.00470347 -0.17864436 -0.0670092 -0.07668901 0.02408213
-0.13842069 -0.22854699 -0.004772432 -0.14534323 0.02142382 0.0912098 0.06407057 -0.1676764
0.18345605 0.17043428 0.10204375 -0.010486372 -0.0122345695 0.019882534 -0.071617804 -0.0030055942
0.026084596 0.25080884 0.11172378 0.1125854 -0.029119328 -0.23907585 -0.26785162 -0.215258
0.18586703 -0.09078432 -0.08034365 0.040838875 0.011165104 0.20413788 -0.12907916 0.02383826
-0.15628015 -0.06207045 -0.17631695 0.13902254 0.07917867 0.034031387 0.0036105956 -0.2741267
0.30124733 0.11769081 0.23413436 -0.26094952 -0.18255937 -0.11587454 -0.2528459 0.082765944
-0.07134302 -0.17521085 0.1377008 0.01213946 0.2715138 0.217538 0.2702602 -0.032242402

transformer_encoder.layers.1.self_attn.in_proj_bias f4 [60]
00000000: 98d2 4a3c d6f7 063c cec9 f03c 10aa 8fbc
00000010: de89 98bc 6304 5d3d 6a0a 05bb 1f3b 983c
00000020: bf6d 113d 8c87 c2ba af83 35bc d67e 14bd
00000030: 1e68 b03b 97c2 14bb 5a71 e73a 9956 0abb
00000040: 7bb0 1dbc 7338 8ebd 05c2 80bb 47a3 473d
00000050: d9b4 53b0 1096 d7b0 b901 9a30 bed2 b0b0
00000060: b3ff deb0 03fd 8531 964f 8a30 e06c f831
00000070: f2a1 182f 1cf5 c62f ecd2 f0b0 b211 68b1
00000080: 71bf 2b30 59ba 0fb0 e61a 87b1 f804 2fb1
00000090: 7968 1831 986a 62b1 99dc 4eb0 172d f4b0
000000a0: cd80 d839 f4e7 54bd 1144 c13c c9de 2bbc
000000b0: dc14 8c3d 8211 41bc 2b8d 003c fda6 d63c
000000c0: c90e 5a3d f2df 31bc f080 693c e331 173c
000000d0: 2478 9dbc d3c3 babc 2906 70bd d4bb a6bc
000000e0: d4ac 263d cfd6 093c 2411 02bd fb8b 593c
0.012379311 0.0082378 0.029393103 -0.017537147 -0.018620428 0.05395926 -0.0020300397 0.018582879
0.035505053 -0.0014841422 -0.011078759 -0.036253773 0.0053835055 -0.0022698992 0.0017657683 -0.0021108745
-0.009624596 -0.069443606 -0.003929379 0.048739698 -7.7018353e-10 -1.5685959e-09 1.1205464e-09 -1.2865582e-09
-1.62253e-09 3.8995736e-09 1.0063441e-09 7.2301276e-09 1.3881854e-10 3.619015e-10 -1.7522246e-09 -3.3770502e-09
6.248149e-10 -5.2287913e-10 -3.932075e-09 -2.5468676e-09 2.2178297e-09 -3.294792e-09 -7.525585e-10 -1.7766152e-09
0.00041294695 -0.05197902 0.023592027 -0.010490128 0.06839916 -0.011783959 0.007846157 0.026202673
0.053236756 -0.010856615 0.0142519325 0.0092282025 -0.019222327 -0.022798454 -0.058599625 -0.020353235
0.040692165 0.008413031 -0.031754628 0.013278003

transformer_encoder.layers.1.self_attn.out_proj.weight f4 [20, 20]
00000000: ea1b d93d 279a 56bc ec9d 53bd b530 023e
00000010: 65b2 cb3e 11aa 09be 020f 3c3e 6793 5b3d
00000020: 4775 32be 38ad 053e dfe5 5dbe e089 2a3c
00000030: 887d bfbd a7e5 483b 3533 593d dc51 8fbe
00000040: 1307 bc3c 9c3d 573d 3e1f 8e3e b308 563d
00000050: 0f42 c93d 68ba 0fbe 7f1e 983d b7d4 a73d
00000060: 7155 f63d 1129 42bd 2b48 9abe 62fc 63be
00000070: 3740 93be 1603 64bd 954e 38bd 666a d53d
00000080: 9bcf fa3d d116 a2be 9754 d2bd a7ef e4bc
00000090: ffa8 58bd 048c 743c d209 8b3d 12c1 abbd
000000a0: 5d5c 06be ecd2 1c3d 9078 adbd 61d8 61be
000000b0: 147b 193e a1f1 a8bd ea6c 2bbe a833 e53c
000000c0: aa85 8dbe ca53 06be 48ed 4dbe 024a 3abe
000000d0: f764 b43d b45c 11bd 6b8d 253d 90b4 89bd
000000e0: ed90 183e dd86 0d3c ec54 603d 167a c9bd
000000f0: e918 f83c 26df ff3b f9cc c63c a813 d13c
00000100: e5b2 2b3e 95fa 5ebe 6bab db3d 60d9 233d
00000110: 54c2 e63d 2e61 8e3d 189c 183d 018e 06be
00000120: 0fd0 973d 3bbf 053e 3131 bd3e f34e 17be
00000130: 6a8b cdbd 6384 453d 299f e8bc 232c 443e
00000140: b811 c6bb 7cba 9c3c 570e 5ebe 12b0 21be
00000150: f1fb 8e3c 2924 e8bd 1631 0a3e 0819 05be
00000160: d863 193e 8f89 583d 9d72 83bd acd3 cf3d
00000170: d2ba 2bbe a479 383e 9976 f0bd 8de1 18be
00000180: d88a 8e3d 414f f63d a708 133e 83c4 2bbd
00000190: 6a6e 4c3e 05bc e73c bb2e 42be 063f 373d
000001a0: edb5 aa3d 30f4 03be 653c 9abe e119 2fbe
000001b0: 8b88 8dbd 757a 973e 82e8 8fbe f00b 503d
000001c0: e82c 05be ea25 abbb 0553 353e c9e5 0b3e
000001d0: ac07 b5bc 3860 fcbd 6991 f53d fd86 0fbe
000001e0: cdf0 c53d f5fc babd 6f89 24be c927 163d
000001f0: 5ddf 303e 3555 40be a1c1 403e b910 c73d
00000200: d9ea cb3e 8287 5c3e 9fea c13d ce47 593d
00000210: 4f3b 0f3e 4f59 f73d 1434 a8be 4e1c fd3d
00000220: 0941 ab3c e7e5 803b fe0c 0abe 29f2 3fbe
00000230: 6ec9 8c3d abe4 0fbe 1e29 223e 59f0 b0bc
00000240: b3f3 de3d 0098 9dbd 02ef b1bd 0542 fd3d
00000250: 436d a33d 264d 0fbe 28b0 35be 11e0 25be
00000260: b051 353e 586b 17be 581f c7bc e35d e2bc
00000270: 7352 903d 7d6e 253e 89f6 9dbc 392c bbbd
00000280: 40c5 b43d ea93 fa3d 2de4 843e 8185 9abc
00000290: aea4 95bd ef23 f63d c40d ecbc ffe4 4d3e
000002a0: b0f3 1e3d c22a 09be 3881 48be e87d 09be
000002b0: c6da 89bd 554d 153e d167 29bb 83ce 183e
000002c0: b2d5 9dbb 0fb6 243e 237c da3d 12cc 22be
000002d0: 5c88 193e f82a 1ebe ec63 813e 4e0d 52be
000002e0: 3dab d73d 4baf 603d 2e44 113e 0746 c73d
000002f0: f7d4 603e c666 25be 2914 f43d 2667 f73c
00000300: ebc9 1dbe 7f0a a33c 3a4a 72bd 08e6 903d
00000310: c8da fdbd 253f b93d 91f6 26be 8419 5fbe
00000320: 3a93 5f3e 339a 13be 6d09 cb3c 9290 1f3d
00000330: 9691 9b3d 7820 19bd 16c4 443e 1eb7 9d3d
00000340: 32f8 97bd ff2a 183b 91c5 263c 6000 35be
00000350: eeca 273d 97c3 79bc 7ded 713d 8aa7 653e
00000360: f1a5 dd3c d8c1 2c3e cae5 693c c21c 593c
00000370: f63c 2d3e ff89 b73d 20c9 45bc 0e01 87be
00000380: 518e 39bd 6fb6 c1bd 288f f4bd 2b3d a63d
00000390: f0d2 8e3e e54d a4bd f095 54bc 6fd9 6b3b
000003a0: c2cb bfbc f705 ff3c d7d0 87bb 3f89 003e
000003b0: b0f5 6ebe 5d62 47be 03a4 a73d 2611 f63c
000003c0: b129 21be ed18 9bbd 0024 6c3e 592d 20be
000003d0: 57fa 66be 5176 cf3d 4b37 073e 8f77 323e
000003e0: 6890 0ebe f801 4e3e f11d 663e 72d3 14bd
000003f0: 1ed6 1c3d 81fc 843e a0bb 42bc ad3b 8b3e
0.10601027 -0.013098276 -0.051664278 0.12713893 0.39784542 -0.13443781 0.183651 0.05360737
-0.1742755 0.13054359 -0.2166972 0.0104088485 -0.09350115 0.0030654462 0.05302735 -0.2799214
0.022952592 0.05254899 0.2775821 0.05225439 0.09827053 -0.14035952 0.07427692 0.08194869
0.120280154 -0.047402445 -0.30133185 -0.22264245 -0.2875993 -0.055667005 -0.044996817 0.104206845
0.12246629 -0.31658033 -0.102700405 -0.027946306 -0.052895542 0.01492596 0.067889825 -0.083864346
-0.13121171 0.03828709 -0.08470261 -0.22055198 0.14988357 -0.08249212 -0.16740766 0.027978733
-0.2764104 -0.131179 -0.20110047 -0.18192294 0.0880832 -0.0354888 0.04041807 -0.06723893
0.14899035 0.008638111 0.054768488 -0.09837739 0.030285316 0.007808584 0.02426766 0.025522068
0.16767462 -0.21775277 0.10726055 0.040002227 0.11267534 0.06952129 0.037258238 -0.13140108
0.07412731 0.1306123 0.36951593 -0.1477621 -0.10036357 0.048221957 -0.028396206 0.19157462
-0.0060445927 0.019131891 -0.21685158 -0.15789822 0.01745412 -0.11335022 0.13495287 -0.1299783
0.14979494 0.05286556 -0.06418345 0.10147795 -0.16770485 0.18015152 -0.11741371 -0.14929791
0.06960076 0.12026835 0.1435877 -0.041935455 0.19963995 0.028287897 -0.18963139 0.04473784
0.08335481 -0.12886119 -0.30124202 -0.17099716 -0.06910809 0.29585615 -0.28107077 0.050792634
-0.13005412 -0.0052230256 0.1770745 0.13661875 -0.022098385 -0.1232304 0.119906254 -0.14016338
0.0966507 -0.09130279 -0.16068052 0.036659036 0.17272706 -0.18782504 0.18823864 0.097199865
0.39827612 0.21536067 0.094685785 0.053046994 0.13987468 0.12077581 -0.32852232 0.12358914
0.020905035 0.0039336565 -0.13481519 -0.1874472 0.06874357 -0.14052074 0.15835997 -0.021598982
0.10886326 -0.07695007 -0.08688165 0.12366108 0.079798244 -0.13994274 -0.1774298 -0.16198756
0.17706943 -0.14787042 -0.024306938 -0.02763266 0.07046976 0.16155429 -0.019282596 -0.09139294
0.08826685 0.122352436 0.25955334 -0.018862488 -0.07306801 0.120185725 -0.028815158 0.20106886
0.038806617 -0.13395217 -0.19580543 -0.13426936 -0.06731181 0.14580281 -0.0025849233 0.14922528
-0.004816734 0.16085075 0.106682085 -0.15898159 0.14993423 -0.15446079 0.25271547 -0.20512888
0.10530708 0.054854672 0.14186165 0.097301535 0.2195624 -0.16152486 0.11917908 0.030200552
-0.15409057 0.019902466 -0.05915282 0.07075125 -0.12395245 0.09045247 -0.16304995 -0.21787077
0.21833506 -0.14414291 0.024784768 0.038956232 0.07596128 -0.03738448 0.19215426 0.077009425
-0.074203864 0.0023218987 0.010178939 -0.17675924 0.040965013 -0.015244386 0.059064377 0.22427192
0.027056666 0.1687082 0.014275977 0.013251485 0.16917786 0.089618675 -0.012071878 -0.26367992
-0.04530174 -0.094586246 -0.119413674 0.081171356 0.27895308 -0.0802267 -0.012975201 0.0035987755
-0.023412589 0.031130774 -0.0041447687 0.12552355 -0.2333591 -0.19471116 0.0818558 0.030037474
-0.1573856 -0.075731136 0.23060608 -0.15642299 -0.22556435 0.10129989 0.13204686 0.1742842
-0.13922274 0.20117939 0.22472359 -0.036334462 0.038290136 0.25973895 -0.011885554 0.27193967

transformer_encoder.layers.1.self_attn.out_proj.bias f4 [20]
00000000: a312 763d 8f69 1f3d 0361 f6bc 0281 443d
00000010: e729 55bd a6c0 49bd 0bc6 b5bc 59a3 3f3d
00000020: 0105 5f3c 43d1 613d 0ab5 c03b b2fc 1abd
00000030: d1e3 17bd e4a4 50bd 9355 3e3d c22a 55bc
00000040: 5be9 33bd 6f8f 003c c66b 49bc b69e d43c
0.060076367 0.038919028 -0.030075556 0.047974594 -0.052041914 -0.04925599 -0.02218916 0.04678664
0.013612033 0.05513121 0.0058809565 -0.037838645 -0.037082497 -0.050938502 0.04646833 -0.013010683
-0.043923717 0.007846697 -0.012293762 0.025954586
