model_epoch_70.pt (torch, 431970 bytes, 28 tensors)

pos_encoder.pe f4 [5000, 1, 20]
0.0 1.0 0.0 1.0 0.0 1.0 0.0 1.0
0.0 1.0 0.0 1.0 0.0 1.0 0.0 1.0
0.0 1.0 0.0 1.0 0.841471 0.54030234 0.38767424 0.92179644
0.15782663 0.9874668 0.06305388 0.9980101 0.025116224 0.9996845 0.009999833 0.99995
0.0039810613 0.9999921 0.0015848922 0.99999875 0.0006309573 0.9999998 0.00025118855 0.99999994
0.9092974 -0.41614684 0.71471345 0.69941735 0.31169716 0.9501815 0.12585683 0.99204844
0.0502166 0.99873835 0.019998666 0.9998 0.00796206 0.9999683 0.0031697804 0.999995
0.0012619144 0.9999992 0.0005023771 0.9999999 0.14112 -0.9899925 0.92996645 0.36764446
0.45775455 0.8890786 0.18815888 0.9821386 0.07528529 0.99716204 0.0299955 0.99955004
0.011942931 0.99992865 0.0047546607 0.9999887 0.001892871 0.9999982 0.00075356563 0.9999997
-0.7568025 -0.6536436 0.99976605 -0.02163067 0.5923377 0.8056898 0.24971214 0.96832013
0.10030649 0.9949566 0.039989334 0.9992001 0.015923616 0.9998732 0.006339529 0.9999799
0.0025238267 0.99999684 0.0010047541 0.9999995 -0.9589243 0.2836622 0.91319513 -0.40752262
0.7120732 0.7021053 0.3102716 0.95064795 0.12526439 0.9921234 0.049979165 0.99875027
0.019904045 0.9998019 0.007924382 0.9999686 0.0031547816 0.99999505 0.0012559424 0.9999992
-0.2794155 0.96017027 0.683794 -0.7296751 0.81395954 0.5809216 0.3695962 0.9291925
0.15014328 0.98866427 0.059964005 0.99820054 0.02388416 0.99971473 0.009509213 0.99995476
0.0037857352 0.99999285 0.0015071308 0.99999887 0.6569866 0.75390226 0.34744254 -0.9377013
0.89544296 0.4451763 0.42744997 0.904039 0.17492743 0.98458135 0.06994285 0.997551
0.027863897 0.99961174 0.011094023 0.9999385 0.004416687 0.9999902 0.001758319 0.99999845
0.98935825 -0.14550003 -0.04325122 -0.9990642 0.9544809 0.29827204 0.48360258 0.8752877
0.1996012 0.97987723 0.07991469 0.99680173 0.031843193 0.9994929 0.012678803 0.9999196
0.0050476375 0.99998724 0.002009507 0.999998 0.4121185 -0.91113025 -0.42718017 -0.9041665
0.9895935 0.14389123 0.53783053 0.843053 0.22414905 0.9745549 0.089878544 0.9959527
0.03582198 0.9993582 0.014263553 0.99989825 0.0056785857 0.99998385 0.0022606952 0.99999744
-0.5440211 -0.8390715 -0.7442953 -0.6678507 0.99990064 -0.014096433 0.58991814 0.80746305
0.24855547 0.9686177 0.099833414 0.9950042 0.039800204 0.9992077 0.015848266 0.9998744
0.0063095316 0.9999801 0.002511883 0.99999684 -0.9999902 0.004425698 -0.9449973 -0.32707813
0.98514396 -0.17173062 0.6396579 0.7686597 0.2728051 0.96206933 0.1097783 0.9939561
0.043777797 0.9990413 0.01743294 0.999848 0.006940475 0.9999759 0.0027630706 0.9999962
-0.53657293 0.84385395 -0.99789494 0.06485153 0.9456933 -0.32506028 0.68685204 0.7267973
0.29688257 0.954914 0.119712204 0.99280864 0.047754694 0.9988591 0.019017566 0.99981916
00000000: 0000 0000 0000 803f 0000 0000 0000 803f
00000010: 0000 0000 0000 803f 0000 0000 0000 803f
00000020: 0000 0000 0000 803f 0000 0000 0000 803f
00000030: 0000 0000 0000 803f 0000 0000 0000 803f
00000040: 0000 0000 0000 803f 0000 0000 0000 803f
00000050: a56a 573f 4151 0a3f 3d7d c63e dafa 6b3f
00000060: 4e9d 213e a0ca 7c3f 6522 813d 977d 7f3f
00000070: 8ac0 cd3c 53eb 7f3f 57d6 233c b9fc 7f3f
00000080: 9073 823b 7bff 7f3f 28bc cf3a ebff 7f3f
00000090: d466 253a fdff 7f3f f5b1 8339 ffff 7f3f
000000a0: b7c7 683f 3311 d5be 76f7 363f 040d 333f
000000b0: c596 9f3e 183f 733f 9de0 003e e3f6 7d3f
000000c0: ecaf 4d3d 51ad 7f3f 3ed4 a33c e5f2 7f3f
000000d0: 4d73 023c ecfd 7f3f 17bc 4f3b acff 7f3f
000000e0: d266 a53a f3ff 7f3f f5b1 033a feff 7f3f
000000f0: c381 103e 2670 7dbf 4812 6e3f e53b bc3e
00000100: ce5e ea3e a89a 633f b9ac 403e 6f6d 7b3f
00000110: 2d2f 9a3d 0346 7f3f 1fb9 f53c 83e2 7f3f
00000120: 49ac 433c 53fb 7f3f fccc 9b3b 42ff 7f3f
00000130: 361a f83a e2ff 7f3f ef8a 453a fbff 7f3f
00000140: cfbd 41bf 3055 27bf abf0 7f3f ce32 b1bc
00000150: 72a3 173f b041 4e3f 8ab4 7f3e d4e3 773f
00000160: 7d6d cd3d 7ab5 7e3f dbcb 233d 94cb 7f3f
00000170: 3e72 823c b1f7 7f3f d3bb cf3b affe 7f3f
00000180: c966 253b cbff 7f3f f4b1 833a f8ff 7f3f
00000190: 107c 75bf 2c3c 913e 28c7 693f cea6 d0be
000001a0: 6e4a 363f 2cbd 333f ebdb 9e3e aa5d 733f
000001b0: 4f45 003e cdfb 7d3f f4b6 4c3d 19ae 7f3f
000001c0: cf0d a33c 04f3 7f3f 44d5 013c f1fd 7f3f
000001d0: 74c0 4e3b adff 7f3f 6f9e a43a f3ff 7f3f
000001e0: 8c0f 8fbe b8cd 753f 200d 2f3f fdcb 3abf
000001f0: a75f 503f 47b7 143f b73b bd3e 8fdf 6d3f
00000200: 29bf 193e 1a19 7d3f d19c 753d 128a 7f3f
00000210: b7a8 c33c 4eed 7f3f 88cc 1b3c 09fd 7f3f
00000220: 191a 783b 88ff 7f3f eb8a c53a edff 7f3f
00000230: 4630 283f bdff 403f fde3 b13e 310d 70bf
00000240: c03b 653f 26ee e33e b9da da3e 1a6f 673f
00000250: 2d20 333e 860d 7c3f 323e 8f3d 815f 7f3f
00000260: d442 e43c 8ee6 7f3f b4c3 353c f8fb 7f3f
00000270: dbb9 903b 5cff 7f3f 6577 e63a e6ff 7f3f
00000280: 9546 7d3f f6fd 14be 3128 31bd acc2 7fbf
00000290: dc58 743f 1db7 983e c29a f73e db12 603f
000002a0: 4264 4c3e 3cd9 7a3f 50aa a33d 662e 7f3f
000002b0: 026e 023d c4de 7f3f c1ba 4f3c bbfa 7f3f
000002c0: a766 a53b 2aff 7f3f efb1 033b deff 7f3f
000002d0: 3201 d33e d53f 69bf 5cb7 dabe 7577 67bf
000002e0: 0056 7d3f 3958 133e 43af 093f 52d2 573f
000002f0: 5487 653e 6e7c 793f 3e12 b83d c2f6 7e3f
00000300: 12ba 123d f0d5 7f3f adb1 693c 55f9 7f3f
00000310: 6e13 ba3b f1fe 7f3f 2c28 143b d5ff 7f3f
00000320: f844 0bbf 64cd 56bf 238a 3ebf 43f8 2abf
00000330: 7df9 7f3f baf4 66bc e004 173f e6b5 4e3f
00000340: 5385 7e3e 54f7 773f 7675 cc3d 98b8 7e3f
00000350: 8a05 233d 13cc 7f3f 39d4 813c c5f7 7f3f
00000360: 30c0 ce3b b2fe 7f3f 679e 243b cbff 7f3f
00000370: 5cff 7fbf 7205 913b 58eb 71bf c976 a7be
00000380: 6532 7c3f 27da 2fbe 9fc0 233f e2c6 443f
00000390: 1cad 8b3e 2d4a 763f 72d3 e03d e873 7e3f
000003a0: 5950 333d 2cc1 7f3f 86cf 8e3c 0af6 7f3f
000003b0: ed6c e33b 6cfe 7f3f a214 353b c0ff 7f3f
000003c0: d85c 09bf d006 583f 0b76 7fbf e1d0 843d
000003d0: f518 723f 4d6e a6be 89d5 2f3f 630f 3a3f
000003e0: fe00 983e 3e75 743f ac2b f53d b528 7e3f
000003f0: 6d9a 433d 3bb5 7f3f baca 9b3c 26f4 7f3f

transformer_encoder.layers.0.self_attn.in_proj_weight f4 [60, 20]
-0.15274796 -0.23754418 0.21394268 0.06509105 0.18404818 0.07450997 -0.17747647 0.12601346
0.011701665 0.046551157 -0.20504715 0.23467954 -0.2709394 0.17975003 0.26274052 0.26290837
0.075343356 -0.10610656 -0.011313339 -0.00993651 0.24112348 -0.060352094 -0.26165253 0.09972503
0.060688175 0.11090703 0.16072892 -0.086013466 0.23144087 -0.04342018 0.001769266 -0.09330462
0.10176361 -0.10071121 0.22879523 0.15858838 0.26283887 0.019423744 0.036766652 -0.12377879
0.1432538 -0.14494155 0.013554252 -0.061615523 0.2400606 -0.21124583 0.17990956 -0.2265979
-0.003741483 -0.08110652 -0.06293169 -0.050082635 0.04736788 -0.15801409 0.107156135 -0.17680573
-0.063512266 -0.27821666 -0.08902959 -0.025464833 0.10022021 -0.01033086 -0.14338307 0.08573299
0.21630985 0.15884224 -0.11243737 0.10554557 0.02958938 -0.011403095 0.062243346 0.124504335
-0.24028371 -0.12760915 0.028592775 0.18788777 -0.18453681 -0.12561217 -0.016579418 0.12746957
-0.23813635 0.11237677 -0.17851493 0.24854249 -0.06914845 -0.06836087 -0.016061597 -0.020450076
0.23238198 0.1308551 -0.2256198 0.1394972 0.16445982 -0.10493988 -0.2005368 -0.0902168
-0.05577764 0.03568758 0.02056465 0.25069267 -0.07375709 -0.04510972 0.19260512 -0.21936208
0.04164966 0.03554695 0.07182957 0.18348302 -0.20844728 -0.10990637 0.06061324 0.21434425
-0.03511176 -0.07753777 -0.23949537 0.17250013 -0.15593478 -0.16186753 -0.11051216 -0.022503776
-0.10094844 0.09860003 0.2312449 0.025031302 -0.18392618 -0.14401957 -0.022078142 -0.13297932
-0.066854194 0.14510822 -0.0906077 0.119675234 -0.031475432 0.13996284 -0.13046263 0.24329825
0.21603802 -0.12914187 0.00556495 -0.11080264 0.21266034 -0.5541242 0.056031294 0.03601589
0.2927446 -0.040427074 -0.18577158 -0.04840332 -0.119612895 -0.0587363 0.054446492 -0.180651
0.1732267 -0.015677154 -0.21223898 -0.14247176 0.104190715 0.008953591 -0.034490235 -0.10962252
0.11965319 0.112621546 -0.026458493 0.20171642 0.11232289 -0.08366657 -0.26292664 0.19472042
-0.011850946 0.13909163 -0.03907933 0.062708564 0.22754064 -0.08220348 0.14115043 0.1889359
0.146923 -0.22366601 0.25110123 0.14911993 -0.08457629 -0.18603778 0.06579676 0.105328456
0.18560351 -0.16150182 -0.09185248 0.13802457 -0.16522245 -0.10978093 -0.20101698 -0.1204216
0.16391833 -0.060313754 -0.019205343 -0.014470063 -0.20775905 -0.04827367 -0.06717683 0.009143758
-0.16871709 -0.255197 0.048161022 -0.1948623 -0.007510224 0.1437637 0.02032786 -0.19862927
0.21529645 0.14515336 0.123353064 0.036047053 -0.033730045 0.014436271 -0.048586495 0.022639168
0.057316795 0.2317203 0.117312446 0.13153641 0.01960946 -0.2927975 -0.1973351 -0.229507
0.18987356 -0.098089024 -0.15004279 0.048155714 0.025257535 0.15383619 -0.10148846 0.049879972
-0.19884433 -0.07236916 -0.17625678 0.125784 0.10348776 -0.021063156 0.017786333 -0.27185383
0.30240777 0.12803687 0.22048068 -0.23202296 -0.18995722 -0.14518854 -0.23392215 0.09131308
-0.08213386 -0.16569202 0.12007133 -0.012363346 0.2739147 0.20430338 0.26323768 -0.050610524
00000000: f669 1cbe c83e 73be ca13 5b3e 754e 853d
00000010: 2077 3c3e af98 983d 64bc 35be ac09 013e
00000020: 57b8 3f3c 6dac 3e3d e1f7 51be d54f 703e
00000030: 92b8 8abe 6410 383e ed85 863e ed9b 863e
00000040: 9e4d 9a3d 654e d9bd 955b 39bc becc 22bc
00000050: 13e9 763e c233 77bd 52f7 85be a33c cc3d
00000060: 2a94 783d 3a23 e33d 1f96 243e d427 b0bd
00000070: d6fe 6c3e 5cd9 31bd b7e6 e73a 7e16 bfbd
00000080: 7169 d03d ae41 cebd 4c49 6a3e fe64 223e
00000090: d192 863e 8b1e 9f3c a198 163d bc7f fdbd
000000a0: 20b1 123e 8f6b 14be a712 5e3c 8f60 7cbd
000000b0: 72d2 753e d450 58be 363a 383e 4809 68be
000000c0: ab33 75bb 2d1b a6bd 54e2 80bd 7323 4dbd
000000d0: d204 423d 72ce 21be ad74 db3d 900c 35be
000000e0: b812 82bd 6a72 8ebe 2555 b6bd a09b d0bc
000000f0: 4140 cd3d c442 29bc 03d3 12be c794 af3d
00000100: 5480 5d3e 8aa7 223e 9045 e6bd 4728 d83d
00000110: 6d65 f23c 0cd4 3abc e1f2 7e3d 21fc fe3d
00000120: ef0c 76be f9ab 02be 653b ea3c a765 403e
00000130: 38f7 3cbe 7aa0 00be 8fd1 87bc 6287 023e
00000140: 04da 73be cb25 e63d 9ecc 36be ec81 7e3e
00000150: b49d 8dbd c900 8cbd 9c93 83bc eb86 a7bc
00000160: 8bf5 6d3e e1fe 053e e008 67be 5bd8 0e3e
00000170: 2868 283e b8ea d6bd 8559 4dbe 96c3 b8bd
00000180: 1877 64bd 242d 123d 3277 a83c ca5a 803e
00000190: f50d 97bd f8c4 38bd 473a 453e 74a0 60be
000001a0: d598 2a3d ae99 113d 621b 933d f9e2 3b3e
000001b0: 3473 55be 9716 e1bd 9745 783d 0f7d 5b3e
000001c0: 59d1 0fbd 1fcc 9ebd 463e 75be e0a3 303e
000001d0: 5ead 1fbe 9ac0 25be 3354 e2bd d759 b8bc
000001e0: 0ebe cebd d0ee c93d 77cb 6c3e 720e cd3c
000001f0: 2557 3cbe de79 13be 38dd b4bc bb2b 08be
00000200: daea 88bd 4097 143e 8890 b9bd 4a18 f53d
00000210: 62ec 00bd 6b52 0f3e ff97 05be 2d23 793e
00000220: 1239 5d3e c43d 04be 2f5a b63b 7fec e2bd
00000230: a2c3 593e 15db 0dbf 1281 653d 6685 133d
00000240: 9fe2 953e dc96 25bd e83a 3ebe 8f42 46bd
00000250: 9bf7 f4bd 7995 70bd 4903 5f3d 93fc 38be
00000260: 5762 313e 606d 80bc 2d55 59be 1ee4 11be
00000270: f161 d53d 15b2 123c a245 0dbd c681 e0bd
00000280: bb0c f53d 20a6 e63d 7bbf d8bc c08e 4e3e
00000290: 8b09 e63d 6159 abbd 529e 86be ca64 473e
000002a0: 782a 42bc 096e 0e3e a611 20bd 596d 803d
000002b0: 6a00 693e 4c5a a8bd bd89 103e 6a78 413e
000002c0: fc72 163e b408 65be 5790 803e e5b2 183e
000002d0: 5536 adbd b080 3ebe 74c0 863d 72b6 d73d
000002e0: d90e 3e3e bc60 25be 271d bcbd 5056 0d3e
000002f0: 1330 29be d3d4 e0bd 65d7 4dbe 9a9f f6bd
00000300: 35da 273e 8e0b 77bd 8654 9dbc d813 6dbc
00000310: cabe 54be 9dba 45bd 0194 89bd b3cf 153c
00000320: 2cc4 2cbe 2ea9 82be 7e44 453d fc89 47be
00000330: 5318 f6bb cb36 133e 9d86 a63c 7965 4bbe
00000340: ac76 5c3e 15a3 143e 88a0 fc3d 13a6 133d
00000350: 8428 0abd 1c86 6c3c a202 47bd c775 b93c
00000360: 04c5 6a3d 1648 6d3e 8241 f03d 7bb1 063e
00000370: 05a4 a03c 8ee9 95be 3612 4abe e203 6bbe
00000380: 376e 423e e6e2 c8bd d1a4 19be ed3e 453d
00000390: e4e8 ce3c 3c87 1d3e 2fd9 cfbd f14e 4c3d
000003a0: d99d 4bbe 4836 94bd a87c 34be 85cd 003e
000003b0: 64f1 d33d a48c acbc a5b4 913c 6d30 8bbe
000003c0: 31d5 9a3e 191c 033e b0c5 613e 6d97 6dbe
000003d0: 2584 42be 4eac 14be 4a89 6fbe 5a02 bb3d
000003e0: cc35 a8bd 2bab 29be f5e7 f53d a28f 4abc
000003f0: 8c3e 8c3e e834 513e 17c7 863e fb4c 4fbd

transformer_encoder.layers.0.self_attn.in_proj_bias f4 [60]
-0.016540801 0.0029448515 -0.0038954637 0.00068502163 -0.009756969 0.015933942 0.03854293 0.041595094
0.027406424 -0.008748577 0.021005929 -0.013348798 -0.019189736 -0.025091596 0.016693989 0.012368722
-0.012071285 -0.044214677 0.004196707 0.049393952 -2.9519747e-09 9.701868e-10 2.5503322e-11 -2.647142e-09
1.8781667e-09 1.7408857e-08 5.885783e-09 4.0664543e-09 7.731103e-09 5.095444e-09 4.8027183e-11 4.1284443e-10
1.2664292e-10 -8.370711e-10 -3.6199732e-09 3.8439403e-09 -5.8387197e-09 3.896278e-09 2.789326e-09 2.655719e-09
-0.04772079 0.05147896 -0.02499782 -0.016901735 0.056467786 0.08402893 0.0036126052 0.063734725
0.054999188 0.008820426 -0.019096365 0.011804968 -0.06600727 0.07232842 0.018002521 0.0726251
0.042962003 0.042029005 0.01001883 -0.015484322
00000000: 9380 87bc 69fe 403b 094b 7fbb 0693 333a
00000010: b2db 1fbc e687 823c 31df 1d3d 9e5f 2a3d
00000020: 7083 e03c 3156 0fbc a014 ac3c ebb4 5abc
00000030: cb33 9dbc e48c cdbc d5c1 883c 2ea6 4a3c
00000040: a4c6 45bc 731a 35bd 8884 893b 5051 4a3d
00000050: b0db 4ab1 6a57 8530 6054 e02d 04e9 35b1
00000060: 0f11 0131 7b8a 9532 e53b ca31 e9b8 8b31
00000070: c0d1 0432 0014 af31 cd39 532e b0f6 e22f
00000080: d03e 0b2f a417 66b0 3ec3 78b1 a813 8431
00000090: ec9d c8b1 06e0 8531 58ae 3f31 e77f 3631
000000a0: e076 43bd 9adb 523d 3ac8 ccbc 8275 8abc
000000b0: c44a 673d 5c17 ac3d 75c1 6c3b 5a87 823d
000000c0: d446 613d 8c83 103c fb6f 9cbc a069 413c
000000d0: d22e 87bd ec20 943d 067a 933c 78bc 943d
000000e0: edf8 2f3d 9b26 2c3d 0526 243c f4b1 7dbc

transformer_encoder.layers.0.self_attn.out_proj.weight f4 [20, 20]
0.13736486 -0.10737966 -0.081082955 0.13948591 0.25837663 0.041779913 0.38630328 0.110379554
-0.07018392 0.06306682 -0.18727876 0.058419317 -0.014936134 -0.013344529 0.085043214 -0.35646287
0.10501473 0.080820784 0.351497 0.079253666 0.14703448 -0.08594587 0.06748449 -0.051361565
0.09761382 -0.0480865 -0.25845855 -0.16823791 -0.15634522 -0.07001816 -0.04064672 0.0681851
0.12541625 -0.19507632 -0.10623324 0.06059844 -0.06842508 0.0547586 0.050712347 -0.09106543
-0.15546545 -0.03872689 -0.09852773 -0.1422338 0.17727019 -0.15199165 -0.17862801 0.023433758
-0.21122491 -0.032594413 -0.13391747 -0.15623999 0.017011963 0.080625474 0.026074586 -0.18509421
0.15091948 -0.10342588 0.100144 -0.21644472 0.056083053 -0.042753305 0.016438058 0.0058441595
0.1991734 -0.26196128 0.110233225 -0.021876713 0.12110858 0.07298818 0.0064410414 -0.1109317
0.11961925 0.069465324 0.31619892 -0.14846851 -0.10299201 0.089512415 -0.00038808442 0.27744573
-0.044402357 0.10228396 -0.21902534 -0.19107641 -0.027979806 -0.0005395758 0.19678073 -0.038350638
0.18020841 0.050363805 -0.019553198 0.05120959 -0.20326424 0.21111447 -0.086980954 -0.15471208
0.06362196 0.049761258 0.106046155 -0.13050742 0.25998956 0.0818967 -0.20581089 -0.015561
-0.082379475 -0.08036098 -0.35543847 -0.17093444 -0.028724862 0.22597021 -0.21810678 -0.0128620025
0.0032803214 0.015775558 0.047434088 0.16807678 -0.039227236 -0.044649538 0.17126094 -0.15702026
0.062858246 -0.09821184 -0.120813094 0.08659224 0.20537098 -0.21094455 0.16547486 0.0502498
0.2123575 0.1460513 0.07798605 0.046466034 0.20220083 -0.12855862 -0.1643407 0.19246913
0.014166698 0.067328 -0.1514468 -0.10413692 0.08113501 -0.13316974 0.14070335 -0.069547646
0.11700611 -0.058371145 -0.07535783 0.11462247 0.12733552 -0.1053983 -0.1690932 -0.18228997
0.13431902 -0.058370132 -0.07574322 -0.06675007 0.084473774 0.15038697 -0.03859005 -0.07430183
0.025425816 0.1956558 0.19311395 0.012288103 -0.093383774 0.051219024 -0.054594226 0.22120886
0.006332924 -0.034475736 -0.17456076 -0.10981045 -0.0742711 0.14582159 0.033530746 0.20031115
-0.025401497 0.07588544 0.10010158 -0.2678283 0.15634622 -0.16065818 0.22304367 -0.12454111
0.2331477 -0.10379392 0.059985403 0.05508034 0.22260547 -0.14793564 0.00040432572 0.07085209
-0.17743613 -0.098530866 -0.027413273 0.1711676 -0.14772809 0.12810743 -0.19351342 -0.15893868
0.23613428 -0.17821828 0.10987875 -0.048818298 0.107029244 -0.006661276 0.18051288 0.03682616
-0.1560498 -0.021424916 9.153427e-05 -0.094045386 0.01057742 0.040393308 -0.005496333 0.20092353
0.01108728 0.18676025 -0.019617688 0.08469113 0.15254413 0.08486745 -0.010087828 -0.18450339
0.06829652 -0.24237788 -0.25079584 0.062032085 0.24210465 -0.018412061 -0.041436616 -0.009241349
-0.09814533 0.012869479 -0.035028227 0.19269785 -0.306705 -0.17260058 0.024319148 0.025144776
-0.1687578 -0.09709861 0.30968136 -0.17347999 -0.10542525 0.038275033 0.061335817 0.09988086
-0.290815 0.16099551 0.14267634 -0.03178345 -0.03391464 0.21441792 -0.0077876924 0.25412804
00000000: 60a9 0c3e dee9 dbbd d20e a6bd 65d5 0e3e
00000010: f149 843e 6a21 2b3d 8bc9 c53e ad0e e23d
00000020: 96bc 8fbd 2d29 813d 01c6 3fbe 1849 6f3d
00000030: b0b6 74bc 03a3 5abc 232b ae3d 4d82 b6be
00000040: f611 d73d 5e85 a53d 6af7 b33e bf4f a23d
00000050: 3590 163e 6304 b0bd 4f35 8a3d 8160 52bd
00000060: c1e9 c73d 5af6 44bd ae54 84be 8f46 2cbe
00000070: f618 20be ae65 8fbd 2d7d 26bd a1a4 8b3d
00000080: 1e6d 003e 16c2 47be d090 d9bd 1236 783d
00000090: 7322 8cbd 8e4a 603d c0b7 4f3d 8380 babd
000000a0: 5632 1fbe 16a0 1ebd e8c8 c9bd bda5 11be
000000b0: 5186 353e b3a3 1bbe 43ea 36be 27f8 bf3c
000000c0: 584b 58be b881 05bd a921 09be 60fd 1fbe
000000d0: ac5c 8b3c f81e a53d 5f9a d53c 5689 3dbe
000000e0: a38a 1a3e f3d0 d3bd 4c18 cd3d afa3 5dbe
000000f0: 58b7 653d 171e 2fbd 1ba9 863c 5d80 bf3b
00000100: 1df4 4b3e ca1f 86be f5c1 e13d cb36 b3bc
00000110: c607 f83d d47a 953d 5f0f d33b 2930 e3bd
00000120: f0fa f43d d643 8e3d d3e4 a13e 2108 18be
00000130: 7aed d2bd 4952 b73d cf77 cbb9 5e0d 8e3e
00000140: 3fdf 35bd 417a d13d 2e48 60be 89a9 43be
00000150: e835 e5bc 5272 0dba e380 493e 8f15 1dbd
00000160: 8e88 383e 474a 4e3d 072e a0bc 26c1 513d
00000170: 8024 50be 642e 583e 1223 b2bd d86c 1ebe
00000180: 3b4c 823d 76d2 4b3d ba2e d93d bda3 05be
00000190: 5a1d 853e 75b9 a73d 17c0 52be 91f3 7ebc
000001a0: 92b6 a8bd 4c94 a4bd 08fc b5be 7009 2fbe
000001b0: 6750 ebbc bc64 673e 6257 5fbe 26bb 52bc
000001c0: a9fa 563b be3b 813c 3f4a 423d 521c 2c3e
000001d0: bdac 20bd 6fe2 36bd 075f 2f3e ebc9 20be
000001e0: d3bb 803d 4a23 c9bd db6c f7bd 4657 b13d
000001f0: c54c 523e d901 58be 3e72 293e bcd2 4d3d
00000200: 3f74 593e 798e 153e 26b7 9f3d 2b53 3e3d
00000210: bc0d 4f3e dfa4 03be ee48 28be a116 453e
00000220: 701b 683c 43e3 893d df14 1bbe bd45 d5bd
00000230: 1d2a a63d a65d 08be 8a14 103e ff6e 8ebd
00000240: e6a0 ef3d 9516 6fbd 3555 9abd 30bf ea3d
00000250: 3e64 023e 10db d7bd c526 2dbe 39aa 3abe
00000260: ed8a 093e 8515 6fbd 431f 9bbd 43b4 88bd
00000270: 9600 ad3d 0bff 193e 9a10 1ebd 8f2b 98bd
00000280: cd49 d03c fe59 483e aabf 453e 0a54 493c
00000290: fe3f bfbd 0acb 513d 329e 5fbd 9384 623e
000002a0: 6b84 cf3b 6e36 0dbd 0ec0 32be 4de4 e0bd
000002b0: 721b 98bd 4152 153e 8957 093d 5e1e 4d3e
000002c0: cd16 d0bc d369 9b3d 0f02 cd3d ca20 89be
000002d0: 3919 203e 9483 24be 8f65 643e 690f ffbd
000002e0: 45be 6e3e e891 d4bd 41b3 753d ec9b 613d
000002f0: b0f2 633e 717c 17be aefb d339 e71a 913d
00000300: d1b1 35be 8dca c9bd cd91 e0bc 8f46 2f3e
00000310: 0846 17be 982e 033e 6228 46be d2c0 22be
00000320: 2fcd 713e da7e 36be 1c08 e13d b2f5 47bd
00000330: 2632 db3d d546 dabb 5ed8 383e 07d7 163d
00000340: 85cb 1fbe 4e83 afbc 16f6 bf38 de9a c0bd
00000350: ea4c 2d3c 7473 253d 951a b4bb e6be 4d3e
00000360: 6ca7 353c 143e 3f3e 46b5 a0bc 8b72 ad3d
00000370: 8734 1c3e fcce ad3d 6b47 25bc 75ee 3cbe
00000380: 0cdf 8b3d e831 78be 5068 80be 5b15 7e3d
00000390: 48ea 773e e4d4 96bc 71b9 29bd 0769 17bc
000003a0: 6b00 c9bd 82da 523c c279 0fbd 9652 453e
000003b0: 7008 9dbe 35be 30be f338 c73c 6bfc cd3c
000003c0: d8ce 2cbe a3db c6bd 8e8e 9e3e bda4 31be
000003d0: 32e9 d7bd 48c6 1c3d 443b 7b3d 568e cc3d
000003e0: b4e5 94be 02dc 243e bf19 123e 5d2f 02bd
000003f0: 14ea 0abd 5f90 5b3e e62f ffbb 121d 823e

transformer_encoder.layers.0.self_attn.out_proj.bias f4 [20]
-0.02428667 0.05219063 0.036775295 0.03831435 0.021765418 0.025869273 -0.020865262 0.028721647
-0.013355286 -0.021289418 0.006777971 -0.041374628 0.03659642 -0.08722301 0.03319529 -0.021683995
-0.0044402895 -0.03806097 0.013544586 -0.021171223
00000000: d7f4 c6bc d8c5 553d b1a1 163d 82ef 1c3d
00000010: 644d b23c cceb d33c a0ed aabc a949 eb3c
00000020: 21d0 5abc 2567 aebc be19 de3b 7178 29bd
00000030: 21e6 153d faa1 b2bd c9f7 073d a2a2 b1bc
00000040: d97f 91bb d2e5 1bbd 1cea 5d3c 466f adbc

transformer_encoder.layers.0.linear1.weight f4 [20, 20]
-0.087368585 0.14491783 0.06303675 0.19499698 -0.09416321 -0.021236083 -0.1564357 0.1806999
-0.03150209 -0.0055622174 -0.1190149 0.03539439 0.06770086 0.043407667 0.031023458 0.08790951
0.19506249 -0.14369689 -0.059251346 -0.1101228 -0.24459352 0.17936611 -0.22524843 0.036620896
0.0631148 -0.01637403 0.028710062 -0.17949146 0.16773127 -0.03798 -0.035099175 0.0887123
-0.057001255 -0.142365 0.15706101 0.19673607 0.13845353 -0.054857485 -0.1167423 0.077712946
0.17036124 0.210096 0.2253968 0.19306463 0.009511697 0.17452352 0.21614996 -0.048497126
-0.08883899 0.044234034 -0.30557385 0.0073157917 0.008998629 0.10806616 -0.17949104 -0.04827557
-0.088306636 0.19920388 0.04535351 -0.022406515 -0.07011232 -0.14995168 0.054846466 0.25349855
-0.03664085 -0.012106054 -0.074398816 0.14305419 -0.1589479 -0.07114885 0.1356477 -0.16823632
0.15221168 0.044911988 -0.06138139 0.10612981 -0.102597654 -0.19618583 0.03141732 0.17706454
0.045890253 -0.19725971 -0.09819794 -0.31408843 0.14443016 0.36226842 0.009054932 -0.19472498
-0.0056734625 -0.12952192 0.03717821 -0.08972693 -0.12190662 0.15313095 0.06902277 -0.23747975
-0.18271197 0.027156236 0.089266986 -0.071558736 -0.030271512 -0.45267412 0.0073565305 -0.06757208
0.10046809 -0.31719494 0.022081306 -0.07658889 -0.1094748 -0.048997693 -0.032622445 -0.038862053
-0.0070772395 0.009016895 0.1845522 0.32047218 -0.062794104 0.07661433 0.22532889 0.120114565
-0.021162203 0.11718839 -0.10718446 -0.19531472 0.15042208 0.3520121 -0.09747098 -0.22619207
-0.06632518 0.14503975 -0.14378887 -0.23844574 -0.2113551 -0.1299562 0.05793282 -0.058372702
-0.033922788 0.062124018 0.02436014 -0.23917823 0.20907713 0.16508232 -0.075412184 -0.023383752
-0.093328185 0.22360103 -0.2266421 0.0826612 -0.061526276 -0.21965167 -0.17868993 -0.18408385
0.116006106 -0.22803347 0.13020268 -0.1808717 0.030968867 -0.23875406 -0.16976652 -0.09426018
-0.13509277 0.20740937 0.1894678 -0.11926404 0.07530374 -0.0063303094 0.07008471 0.26920766
-0.13263978 -0.13259551 0.14266293 0.24497977 -0.07577089 0.106762536 -0.05886618 -0.22732775
0.13370675 -0.07430361 0.0989989 0.12619054 0.013229653 -0.26683268 -0.010470949 0.24375455
0.2410355 0.070342705 -0.08717015 0.12058907 0.045566954 -0.07132703 0.12509194 0.15290864
0.13857114 -0.16082968 -0.099615894 -0.008982374 -0.14834036 0.17098002 -0.08237556 -0.02635981
-0.0076995203 0.17788419 -0.06403665 0.19424064 0.19661969 -0.042252287 -0.010330845 -0.019903924
0.22873516 -0.176408 -0.17874297 -0.17936131 0.0943665 0.10079044 -0.025235694 0.12863468
-0.13218267 -0.19486953 0.0756243 -0.16873302 0.06778611 -0.23907244 0.054209154 -0.17145778
-0.00868357 -0.24495414 0.122569606 -0.13599278 -0.11117306 0.11777906 -0.024856329 -0.03472895
-0.18718526 0.004764964 0.16224295 0.15591192 -0.17763892 -0.17908728 0.13292067 0.09336556
0.051974066 0.19317026 -0.02388874 0.17153545 0.060067534 -0.027214015 0.17167875 0.19367008
0.15489008 0.103668444 0.016509129 -0.17193949 -0.16443712 0.097133964 -0.10231249 -0.11571893
00000000: 4dee b2bd 5765 143e 6919 813d 4aad 473e
00000010: a4d8 c0bd 4bf7 adbc ae30 20be 6509 393e
00000020: 5608 01bd 4343 b6bb 15be f3bd b5f9 103d
00000030: c0a6 8a3d 3dcc 313d e824 fe3c e709 b43d
00000040: 76be 473e 4725 13be 8ab1 72bd 1088 e1bd
00000050: b976 7abe c0ab 373e 86a7 66be cbff 153d
00000060: 5542 813d d422 86bc 5d31 eb3c 9ccc 37be
00000070: bfc1 2b3e eb90 1bbd 27c4 0fbd cbae b53d
00000080: 267a 69bd 21c8 11be 9ad4 203e 2e75 493e
00000090: c3c6 0d3e 3eb2 60bd 9616 efbd f727 9f3d
000000a0: 2d73 2e3e 6823 573e 6bce 663e bcb2 453e
000000b0: f3d6 1b3c 4bb6 323e 6a56 5d3e eca4 46bd
000000c0: 37f1 b5bd bf2e 353d 2d74 9cbe 4fb9 ef3b
000000d0: fc6e 133c ca51 dd3d 80cc 37be 9bbc 45bd
000000e0: 1cda b4bd 1afc 4b3e 9ac4 393d de8d b7bc
000000f0: 0c97 8fbd ef8c 19be b0a6 603d 90ca 813e
00000100: b714 16bd 7958 46bc 685e 98bd cc7c 123e
00000110: 3dc3 22be 7db6 91bd 3be7 0a3e 2446 2cbe
00000120: 61dd 1b3e a2f5 373d 0d6b 7bbd 965a d93d
00000130: b81e d2bd f0e4 48be 73af 003d 6850 353e
00000140: 6bf7 3b3d 73fe 49be 001c c9bd 33d0 a0be
00000150: 80e5 133e 3f7b b93e 235b 143c fc65 47be
00000160: 74e8 b9bb 65a1 04be 2e48 183d c1c2 b7bd
00000170: 2eaa f9bd 5cce 1c3e cf5b 8d3d e42d 73be
00000180: d918 3bbe c176 de3c 9cd1 b63d 638d 92bd
00000190: f6fb f7bc e7c4 e7be 0d0f f13b 3b63 8abd
000001a0: 37c2 cd3d 6067 a2be dbe3 b43c a3da 9cbd
000001b0: 5334 e0bd ceb1 48bd 1d9f 05bd d12d 1fbd
000001c0: 30e8 e7bb 99bb 133c 40fb 3c3e ee14 a43e
000001d0: 329a 80bd f9e7 9c3d 9ebc 663e a0fe f53d
000001e0: 5b5c adbc 7700 f03d 8783 dbbd 9500 48be
000001f0: 3f08 1a3e ee3a b43e dd9e c7bd e59e 67be
00000200: 7fd5 87bd 4d85 143e 643d 13be 1f2b 74be
00000210: 796d 58be 3d13 05be f74a 6d3d 3718 6fbd
00000220: 9ff2 0abd c175 7e3d eb8e c73c 23eb 74be
00000230: 5118 563e 570b 293e b471 9abd 488f bfbc
00000240: d922 bfbd abf7 643e de14 68be 464a a93d
00000250: fa02 7cbd 5eec 60be 7efa 36be 7a80 3cbe
00000260: 9c94 ed3d 9b81 69be da53 053e 6e36 39be
00000270: 6cb2 fd3c f27b 74be 46d7 2dbe 7b0b c1bd
00000280: c255 0abe 1f63 543e d903 423e b440 f4bd
00000290: d938 9a3d 7c6e cfbb 9388 8f3d 96d5 893e
000002a0: b9d2 07be 1ec7 07be 3b16 123e fadb 7a3e
000002b0: c52d 9bbd 51a6 da3d aa1d 71bd 9bc8 68be
000002c0: 6cea 083e 7e2c 98bd efbf ca3d 1838 013e
000002d0: 30c1 583c 4b9e 88be 588e 2bbc cb9a 793e
000002e0: 03d2 763e d60f 903d 4386 b2bd 67f7 f63d
000002f0: 6aa4 3a3d e813 92bd 1a18 003e 1594 1c3e
00000300: 98e5 0d3e 89b0 24be 6b03 ccbd cf2a 13bc
00000310: 89e6 17be 6315 2f3e 85b4 a8bd 87f0 d7bc
00000320: 424c fcbb 4627 363e a625 83bd 05e7 463e
00000330: ac56 493e bc10 2dbd b442 29bc 8e0d a3bc
00000340: 8d39 6a3e 4ca4 34be 6608 37be 7eaa 37be
00000350: 3943 c13d 386b ce3d 16bb cebc cfb8 033e
00000360: e55a 07be e18b 47be eae0 9a3d 59c8 2cbe
00000370: 72d3 8a3d 68cf 74be 6b0a 5e3d a192 2fbe
00000380: 8845 0ebc 42d5 7abe c605 fb3d b141 0bbe
00000390: b4ae e3bd 2636 f13d 809f cbbc f23f 0ebd
000003a0: 7ead 3fbe 6a23 9c3b 0423 263e 60a7 1f3e
000003b0: fae6 35be a862 37be 5b1c 083e 7136 bf3d
000003c0: c2e2 543d 6dce 453e 52b2 c3bc fda6 2f3e
000003d0: 6009 763d edef debc 8ecc 2f3e 7351 463e
000003e0: 819b 1e3e 1f50 d43d 273e 873c e810 30be
000003f0: 3462 28be 2cee c63d 3689 d1bd 0cfe ecbd

transformer_encoder.layers.0.linear1.bias f4 [20]
-0.083775796 0.10146211 -0.1843598 -0.05972228 0.16718969 0.0020156938 -0.2261796 -0.23041588
0.030779803 0.08175681 0.11218456 -0.020190017 0.051980447 -0.04698074 -0.11726989 -0.08975857
-0.19300136 -0.15612489 -0.14174224 -0.21382594
00000000: a592 abbd 5ecb cf3d d1c8 3cbe 599f 74bd
00000010: c633 2b3e bb19 043b a09b 67be 24f2 6bbe
00000020: ed25 fc3c 1d70 a73d 05c1 e53d 8965 a5bc
00000030: 73e9 543d e06e 40bd 322b f0bd 57d3 b7bd
00000040: 26a2 45be 34df 1fbe e124 11be 30f5 5abe

transformer_encoder.layers.0.linear2.weight f4 [20, 20]
0.0487821 -0.20341781 -0.089146234 0.21534708 -0.21082394 0.40953824 0.06632137 0.16829804
-0.14046414 0.25247413 0.0933567 0.30369714 -0.122080214 0.017671 0.19438015 0.17756875
0.2677213 -0.09076729 -0.05132904 0.09451545 0.13449237 0.055615894 -0.04525046 0.04867548
-0.032771327 0.26071993 0.1197295 -0.15801941 0.12552494 0.008056472 -0.103937365 -0.021644685
0.13783582 -0.050277773 0.11301453 -0.0980018 0.007885659 -0.002793053 0.006372236 -0.00913794
0.04876762 -0.051535945 0.18732446 -0.11183795 -0.12894854 0.26093033 -0.13012083 0.25961807
0.17248668 0.15689038 0.008552055 -0.019070035 0.0020356674 -0.053378567 0.09081851 -0.15307367
-0.071206585 0.031976867 0.042800285 0.05683937 0.15180846 -0.0097611 -0.0035353897 -0.089124724
0.027892197 0.041637436 0.1194969 0.14474322 0.0007603397 -0.14740327 0.039566644 -0.015303595
0.045902874 -0.0017285089 0.14623661 0.15650365 -0.10111757 0.011734436 0.05002834 -0.10265742
-0.04505535 0.003673883 -0.16930819 0.058082085 0.08216712 0.17658246 0.085211515 0.10087963
0.17428695 0.11772397 -0.12270371 -0.10345256 0.11059216 0.20415604 -0.09437801 0.25625777
0.11312587 -0.19904037 0.05490597 0.052121174 0.19325179 0.073102735 -0.1349555 -0.039339222
0.03905787 0.18488044 -0.19111586 -0.11552836 -0.07578626 -0.016900405 0.008443095 0.019884573
0.09743439 -0.09043049 -0.17194286 -0.18873432 0.0556697 0.048934147 -0.044434432 0.149799
-0.13216156 0.086773105 -0.111224875 0.17307204 -0.013803514 0.10302545 -0.064397015 0.0017293638
-0.32689285 0.14178534 0.029576086 -0.119629234 0.091185145 -0.2074042 0.03745408 0.25441986
0.1055032 0.028323423 0.012612128 0.014727721 0.15697454 0.17027922 0.11171385 -0.15720376
0.20241527 -0.17856555 0.21251857 0.007190524 0.20349652 0.02221469 0.1588928 0.029342363
0.053714257 0.10517328 0.14610632 -0.17350577 -0.08870585 0.07931299 0.09276053 0.103550635
0.057596818 0.11102526 -0.16556717 0.20299545 -0.07671009 0.10617441 -0.28615472 0.066377304
-0.019423727 0.17888318 -0.14128841 -0.16713966 0.10909443 -0.096719414 0.029552177 -0.12902105
0.24598256 0.17585365 0.114345856 0.037626006 0.11685733 0.17114007 0.12774889 0.0061618593
-0.18067583 -0.2704694 -0.060440823 -0.091211274 -0.06702196 -0.06761502 -0.058723923 -0.02628345
0.15905267 -0.060951833 -0.07359785 -0.05567151 0.057246737 -0.09467284 0.12616809 -0.23878816
-0.13086118 -0.24295281 0.09591327 0.16050816 0.25489563 -0.14502367 0.21284546 0.22003078
-0.094066195 0.078364424 0.2039241 -0.07971501 0.0031892485 -0.046594605 -0.15405345 -0.007876033
-0.27320445 0.12513863 -0.065388754 -0.27092236 0.19379596 0.15144679 -0.005157282 -0.20413688
0.15508108 0.00042369065 0.24138607 -0.10255911 0.15144676 0.09124141 0.07986163 -0.34448475
-0.285319 0.051781747 0.009705786 0.12743682 0.08386236 -0.13625415 0.034321435 -0.13459678
-0.042838264 -0.17840216 0.11893999 -0.16072944 0.029600674 -0.1643878 -0.10237097 -0.059980188
-0.14564252 -0.2358432 -0.15930109 -0.21646945 0.1824467 0.1373951 0.028153809 0.16658577
00000000: bdcf 473d c24c 50be 4d92 b6bd f283 5c3e
00000010: 3be2 57be ffae d13e 80d3 873d 5256 2c3e
00000020: d5d5 0fbe 4a44 813e cc31 bf3d 317e 9b3e
00000030: 3105 fabd c6c2 903c 970b 473e 95d4 353e
00000040: c412 893e 33e4 b9bd 663e 52bd 5191 c13d
00000050: 5eb8 093e 7ecd 633d 8c58 39bd f15f 473d
00000060: 3a3b 06bd 157d 853e bd34 f53d d7cf 21be
00000070: 9c89 003e 4bff 033c 1ddd d4bd 3250 b1bc
00000080: d524 0d3e 11f0 4dbd 2974 e73d 2bb5 c8bd
00000090: da32 013c a70b 37bb 31ce d03b 4cb7 15bc
000000a0: 8ec0 473d 5b17 53bd fcd1 3f3e 4c0b e5bd
000000b0: 160b 04be a998 853e 653e 05be a9ec 843e
000000c0: 59a0 303e dfa7 203e eb1d 0c3c c338 9cbc
000000d0: d568 053b 7ca3 5abd 0eff b93d 58bf 1cbe
000000e0: c2d4 91bd 2dfa 023d 5a4f 2f3d 66d0 683d
000000f0: ad73 1b3e 05ed 1fbc ffb1 67bb 0687 b6bd
00000100: 2d7e e43c 048c 2a3d caba f43d 9137 143e
00000110: 8951 473a e2f0 16be a210 223d eebb 7abc
00000120: a704 3c3d 228f e2ba 0dbf 153e 7e42 203e
00000130: bb16 cfbd cb41 403c 84ea 4c3d 0e3e d2bd
00000140: f58b 38bd 87c5 703b 205f 2dbe 7be7 6d3d
00000150: 3c47 a83d 08d2 343e 6083 ae3d fb99 ce3d
00000160: 4778 323e 4419 f13d 154c fbbd f0de d3bd
00000170: 247e e23d 480e 513e 4249 c1bd 3834 833e
00000180: 89ae e73d 3dd1 4bbe 15e5 603d 037d 553d
00000190: cce3 453e e3b6 953d c631 0abe 2a22 21bd
000001a0: 25fb 1f3d 4c51 3d3e e0b3 43be 229a ecbd
000001b0: d435 9bbd b872 8abc e854 0a3c f9e4 a23c
000001c0: ae8b c73d 9f33 b9bd ca11 30be 9243 41be
000001d0: e905 643d 2c6f 483d e100 36bd e964 193e
000001e0: 5c55 07be 19b6 b13d dec9 e3bd cc39 313e
000001f0: 2228 62bc 02ff d23d 95e2 83bd d2ab e23a
00000200: 805e a7be 2d30 113e 8c49 f23c 2c00 f5bd
00000210: 47bf ba3d c461 54be 7369 193d 5243 823e
00000220: 1012 d83d 8606 e83c 19a3 4e3c 8a4c 713c
00000230: efbd 203e ad5d 2e3e 3bca e43d 06fa 20be
00000240: f345 4f3e e3d9 36be 789e 593e 7d9e eb3b
00000250: 6461 503e 95fb b53c cbb4 223e 655f f03c
00000260: 7b03 5c3d 1765 d73d e59c 153e 7fab 31be
00000270: 6aab b5bd d96e a23d 3cf9 bd3d 5b12 d43d
00000280: a4ea 6b3d 3661 e33d 718a 29be 0ade 4f3e
00000290: 2e1a 9dbd f871 d93d df82 92be d3f0 873d
000002a0: 821e 9fbc 272d 373e e9ad 10be a926 2bbe
000002b0: e76c df3d d414 c6bd 6817 f23c 181e 04be
000002c0: dae2 7b3e fb12 343e 292e ea3d ba1d 1a3d
000002d0: e552 ef3d 583f 2f3e 9bd0 023e 6ce9 c93b
000002e0: 1603 39be f77a 8abe cc90 77bd facc babd
000002f0: cf42 89bd be79 8abd 7f88 70bd 6450 d7bc
00000300: b4de 223e a1a8 79bd 78ba 96bd cf07 64bd
00000310: 8e7b 6a3d d5e3 c1bd 3532 013e e284 74be
00000320: 7900 06be 9fc8 78be 2d6e c43d 405c 243e
00000330: ae81 823e 1681 14be 29f4 593e c04f 613e
00000340: c7a5 c0bd 877d a03d 7bd1 503e a041 a3bd
00000350: b602 513b fcd9 3ebd 30c0 1dbe 7a0a 01bc
00000360: 74e1 8bbe 5724 003e 8aea 85bd 56b6 8abe
00000370: 7372 463e de14 1b3e 6bfe a8bb 4209 51be
00000380: 93cd 1e3e cc22 de39 e92d 773e 830a d2bd
00000390: dc14 1b3e c7dc ba3d 7f8e a33d 4e60 b0be
000003a0: 5515 92be 1919 543d 0405 1f3c cc7e 023e
000003b0: 07c0 ab3d 3586 0bbe a294 0c3d bdd3 09be
000003c0: 2d77 2fbd 0eaf 36be cf96 f33d 4296 24be
000003d0: 1d7d f23c 4755 28be dfa7 d1bd c9ad 75bd
000003e0: 5023 15be e180 71be d31f 23be 2baa 5dbe
000003f0: 4fd3 3a3e 4db1 0c3e d1a2 e63c 7695 2a3e

transformer_encoder.layers.0.linear2.bias f4 [20]
0.10780826 0.015052841 0.21414596 0.0040322416 0.14159922 0.02950488 -0.026058812 -0.1311352
0.001438196 -0.047599517 0.20611645 -0.03259117 0.043562524 0.067498736 -0.012739897 -0.05355542
0.14892146 -0.053762108 0.1893409 -0.11013361
00000000: 94ca dc3d 31a0 763c 1449 5b3e e520 843b
00000010: 63ff 103e 38b4 f13c 4a79 d5bc 4e48 06be
00000020: da81 bc3a b6f7 42bd 3110 533e 527e 05bd
00000030: 9e6e 323d c73c 8a3d 00bb 50bc ee5c 5bbd
00000040: de7e 183e a835 5cbd 95e2 413e bb8d e1bd

transformer_encoder.layers.0.norm1.weight f4 [20]
1.317583 1.2022146 1.1014143 1.1697351 1.0161115 1.2146201 1.0720888 0.9221901
1.0463833 0.98693615 0.99509937 1.0538433 0.90466166 0.9382096 0.9803092 0.77983
0.944079 1.0716202 0.97925544 0.981896
00000000: 8fa6 a83f 2be2 993f 25fb 8c3f e1b9 953f
00000010: f10f 823f ac78 9b3f 353a 893f a714 6c3f
00000020: e3ef 853f d9a7 7c3f d5be 7e3f 56e4 863f
00000030: e897 673f 812e 703f 8bf5 7a3f f0a2 473f
00000040: 29af 713f da2a 893f 7cb0 7a3f 895d 7b3f

transformer_encoder.layers.0.norm1.bias f4 [20]
-0.031623233 0.059663277 0.050074 0.01601548 0.028751353 0.042699993 -0.067146726 0.056001753
0.009203303 -0.060822446 0.045998964 -0.02874687 0.059987515 -0.046150263 0.04485582 -0.044035465
0.012125746 -0.059664894 0.048372485 -0.051058214
00000000: 5d87 01bd 7b61 743d 651a 4d3d e532 833c
00000010: f587 eb3c 30e6 2e3d 3984 89bd 1862 653d
00000020: 73c9 163c f520 79bd 6969 3c3d 8e7e ebbc
00000030: 78b5 753d 0f08 3dbd bcba 373d 885e 34bd
00000040: 11ab 463c 2d63 74bd 3a22 463d 6b22 51bd

transformer_encoder.layers.0.norm2.weight f4 [20]
1.3692043 0.907483 1.1391256 1.0147052 1.0757184 1.0089345 1.1303245 0.9347236
1.0936863 1.055756 0.96477777 1.0924621 0.9010019 0.97166646 0.9811961 0.8159328
0.95423394 1.1179686 1.0060244 1.0691203
00000000: 1642 af3f ce50 683f dece 913f dce1 813f
00000010: 24b1 893f c424 813f 79ae 903f 0c4a 6f3f
00000020: eafd 8b3f 0323 873f adfb 763f ccd5 8b3f
00000030: 0fa8 663f 22bf 783f ab2f 7b3f f9e0 503f
00000040: ad48 743f 9819 8f3f 68c5 803f efd8 883f

transformer_encoder.layers.0.norm2.bias f4 [20]
0.009679654 0.07263798 0.07891243 0.07716375 0.0080307145 -0.0054697134 -0.055247117 0.088610165
0.00912811 -0.060803536 0.03773951 -0.023418589 0.024425862 -0.002267793 0.078270905 0.027897868
-0.024757337 -0.05931141 0.05077174 -0.04038651
00000000: 6997 1e3c 39c3 943d d79c a13d 0708 9e3d
00000010: 4293 033c 483b b3bb cd4a 62bd 3f79 b53d
00000020: 118e 153c 210d 79bd bf94 1a3d 57d8 bfbc
00000030: bf18 c83c 419f 14bb 7f4c a03d 128a e43c
00000040: e6cf cabc 85f0 72bd 07f6 4f3d 536c 25bd

transformer_encoder.layers.1.self_attn.in_proj_weight f4 [60, 20]
-0.14466876 -0.26659605 0.21569613 0.05265188 0.17438795 0.06037098 -0.16033651 0.118184395
0.03521428 0.051556237 -0.19913031 0.24029957 -0.27854285 0.18006848 0.25525486 0.27016386
0.08258437 -0.100802846 -0.008730412 0.014125501 0.22804642 -0.018326275 -0.2506176 0.09824638
0.07366087 0.11147104 0.1672969 -0.071025155 0.21116798 -0.034427136 -0.004951702 -0.07456939
0.100888185 -0.076129235 0.22206578 0.15564576 0.26168177 0.023454113 0.041215826 -0.14359379
0.19433783 -0.23895447 0.027939105 -0.06709829 0.234508 -0.23066263 0.16633907 -0.25185233
0.02346781 -0.10124137 -0.05054734 -0.05031283 0.035562657 -0.19210885 0.09983231 -0.16626038
-0.057809062 -0.30270946 -0.08764425 0.015978897 0.052768663 0.052497927 -0.16820928 0.06939485
0.24946178 0.1725146 -0.091332085 0.14086783 0.01439122 0.010005344 0.056069784 0.123835646
-0.23058814 -0.085920475 0.016141556 0.16997726 -0.19996518 -0.11313267 -0.011538926 0.08739832
-0.25056592 0.14458607 -0.18025397 0.23176095 -0.056766663 -0.048675284 0.0075838156 -0.00527772
0.2243899 0.15415883 -0.22861288 0.15442464 0.17698614 -0.0770141 -0.19952393 -0.0858597
-0.057176527 0.04995859 0.027197175 0.22864255 -0.06294948 -0.047813844 0.20007326 -0.24549192
0.09354779 0.04008031 0.028436981 0.1959706 -0.18242659 -0.15239528 0.097312406 0.20030217
-0.040704936 -0.051413875 -0.24225801 0.14390916 -0.14521556 -0.20880911 -0.07131667 -0.04601197
-0.08443837 0.10861565 0.11833402 0.044757262 -0.17369817 -0.11990066 -0.043181974 -0.12851965
-0.17505495 0.14187232 -0.12164897 0.0853856 -0.061604135 0.12815227 -0.16955677 0.19273317
0.17281485 -0.12637754 -0.0031261626 -0.13397838 0.059566904 -0.19961786 0.03894222 0.08980685
0.3076338 -0.031558942 -0.24380891 -0.03394449 -0.15596075 -0.124140784 0.054884613 -0.2204446
0.16199903 0.02372544 -0.17872667 -0.16981573 0.09631935 -0.018142514 -0.073101014 -0.12178929
0.1539501 -0.059130542 -0.056360666 0.16986015 0.123365946 -0.08874963 -0.24531758 0.18976288
-0.007106296 0.16247252 -0.044191644 0.046278343 0.22190495 -0.1336462 0.10996864 0.15963319
0.14154014 -0.2169566 0.2570786 0.1379838 -0.14743064 -0.06528994 0.124745324 0.12550305
0.1925541 -0.20435405 -0.09795386 0.15428226 -0.0974351 -0.13643739 -0.15158865 -0.10892868
0.18082011 -0.032483865 0.023979114 0.004296054 -0.17862634 -0.064754345 -0.07772575 0.025822286
-0.1324341 -0.23059486 -0.002438469 -0.1448029 0.019357828 0.08992814 0.06445363 -0.16876711
0.18603487 0.1692169 0.1014975 -0.011396728 -0.013171304 0.01754279 -0.07096035 -0.0030949174
0.026747728 0.25178406 0.11123651 0.114046365 -0.0275592 -0.23905313 -0.26909012 -0.21498948
0.1872757 -0.09022607 -0.08064567 0.041018087 0.01101164 0.20327587 -0.12844725 0.022063782
-0.156189 -0.061444815 -0.17659503 0.13867255 0.078382045 0.03338607 0.004131131 -0.27367216
0.2960083 0.11867499 0.23296821 -0.26165783 -0.18171923 -0.11470394 -0.2528984 0.083490536
-0.0733879 -0.17377016 0.1378855 0.013367334 0.2724093 0.21917656 0.27001166 -0.032179583
00000000: 0c24 14be 477f 88be 72df 5c3e 7fa9 573d
00000010: c192 323e 9047 773d 412f 24be a90a f23d
00000020: d93c 103d a22c 533d d1e8 4bbe 1711 763e
00000030: 2b9d 8ebe df63 383e c4b0 823e eb52 8a3e
00000040: ff21 a93d b971 cebd 010a 0fbc a56e 673c
00000050: 0085 693e fc20 96bc f350 80be 6635 c93d
00000060: 83db 963d ee4a e43d e14f 2b3e a375 91bd
00000070: 6b3c 583e 7803 0dbd e341 a2bb d6b7 98bd
00000080: 779e ce3d a5e9 9bbd 3665 633e 9a61 1f3e
00000090: 27fb 853e d722 c03c edd1 283d 400a 13be
000000a0: 7f00 473e 7bb0 74be 8de0 e43c d46a 89bd
000000b0: dd22 703e d332 6cbe ca54 2a3e caf2 80be
000000c0: 913f c03c a357 cfbd ba0a 4fbd d314 4ebd
000000d0: 26aa 113d 2fb8 44be e274 cc3d 2940 2abe
000000e0: 32c9 6cbd bcfc 9abe d47e b3bd 2de6 823c
000000f0: f423 583d 1108 573d 0e3f 2cbe e31e 8e3d
00000100: e972 7f3e aba7 303e 510c bbbd a83f 103e
00000110: 27c9 6b3c 74ed 233c 6ea9 653d 8b9d fd3d
00000120: 4c1f 6cbe 13f7 afbd 4c3b 843c 850e 2e3e
00000130: acc3 4cbe 1ab2 e7bd c30d 3dbc e4fd b23d
00000140: 2d4a 80be 5f0e 143e 7f94 38be be52 6d3e
00000150: 2984 68bd bc5f 47bd a881 f83b b9f0 acbb
00000160: 77c6 653e d0db 1d3e 7f19 6abe 7e21 1e3e
00000170: db3b 353e 92b9 9dbd 0050 4cbe 36d7 afbd
00000180: ef31 6abd 61a1 4c3d 9ccc de3c 4621 6a3e
00000190: a8eb 80bd 73d8 43bd 01e0 4c3e 3c62 7bbe
000001a0: fc95 bf3d 402b 243d acf4 e83c 84ac 483e
000001b0: 09ce 3abe 820d 1cbe ba4b c73d 031c 4d3e
000001c0: 38ba 26bd 5b97 52bd 7c12 78be ec5c 133e
000001d0: 63b3 14be 0ed2 55be 790e 92bd 0c77 3cbd
000001e0: 06ee acbd e271 de3d 1b59 f23d 6453 373d
000001f0: efdd 31be 7a8e f5bd 95df 30bd a89a 03be
00000200: 9b41 33be fa46 113e 1823 f9bd a5de ae3d
00000210: 9e54 7cbd 593a 033e 4aa0 2dbe d85b 453e
00000220: 60f6 303e 1d69 01be 4ee0 4cbb a131 09be
00000230: 6dfc 733d a068 4cbe e181 1f3d a7ec b73d
00000240: 2d82 9d3e f343 01bd 0ba9 79be 6109 0bbd
00000250: 2db4 1fbe 863d febd b0ce 603d 3bbc 61be
00000260: 13e3 253e db5b c23c 2004 37be 2de4 2dbe
00000270: 1443 c53d 9c9f 94bc fcb5 95bd aa6c f9bd
00000280: 18a5 1d3e de32 72bd 71da 66bd d2ef 2d3e
00000290: 49a7 fc3d 5ec2 b5bd 8834 7bbe 3351 423e
000002a0: eedb e8bb 325f 263e 4c02 35bd 5c8e 3d3d
000002b0: 0d3b 633e 8dda 08be 3d37 e13d e276 233e
000002c0: e6ef 103e df29 5ebe ce9f 833e a04b 0d3e
000002d0: 0ff8 16be bbb6 85bd 7a7a ff3d df83 003e
000002e0: e72c 453e 3042 51be 099c c8bd 2bfc 1d3e
000002f0: 0e8c c7bd 3eb6 0bbe 0e3a 1bbe 0016 dfbd
00000300: e828 393e cd0d 05bd d96f c43c eac5 8c3b
00000310: d3e9 36be ed9d 84bd ae2e 9fbd 4289 d33c
00000320: ce9c 07be 0f21 6cbe b9ce 1fbb 3647 14be
00000330: 4f94 9e3c 3f2c b83d 4400 843d 49d1 2cbe
00000340: ed7f 3e3e 3247 2d3e ecdd cf3d 58b9 3abc
00000350: 74cc 57bc e6b5 8f3c a953 91bd 19d4 4abb
00000360: 0d1e db3c d7e9 803e f8cf e33d 2491 e93d
00000370: d5c3 e1bc 58ca 74be 2ec6 89be 3426 5cbe
00000380: 33c5 3f3e 72c8 b8bd 8f29 a5bd 9502 283d
00000390: 2a6a 343c 8d27 503e ad87 03be 1bbf b43c
000003a0: 02f0 1fbe 8fad 7bbd 54d5 34be 2d00 0e3e
000003b0: c486 a03d d5bf 083d 705e 873b c21e 8cbe
000003c0: 668e 973e e00b f33d 388f 6e3e 04f8 85be
000003d0: 9b14 3abe e6e9 eabd e67b 81be 16fd aa3d
000003e0: 654c 96bd cef0 31be db31 0d3e aa02 5b3c
000003f0: 3b79 8b3e d26f 603e f83e 8a3e bdce 03bd

transformer_encoder.layers.1.self_attn.in_proj_bias f4 [60]
0.01040012 0.0062042736 0.027614998 -0.017636087 -0.018965859 0.05309238 -0.002283193 0.016462764
0.03513813 -0.0020925466 -0.011069339 -0.03702078 0.004908146 -0.00206548 0.0013131271 -0.0021736233
-0.009382655 -0.070002876 -0.0039167935 0.049830023 -4.1423015e-10 -1.7800673e-09 1.0509145e-09 -1.1553274e-09
-1.7097007e-09 3.5710976e-09 1.0194123e-09 7.1989223e-09 7.0581374e-11 3.0370262e-10 -1.8477804e-09 -3.2959626e-09
7.808562e-10 -4.1574105e-10 -3.9675045e-09 -2.4898317e-09 2.2645419e-09 -3.3502727e-09 -7.894305e-10 -1.7305037e-09
0.0011748741 -0.052732553 0.021391373 -0.008804786 0.07012619 -0.014609889 0.005817951 0.023628658
0.0506044 -0.01127632 0.011022654 0.010122036 -0.018400349 -0.024969207 -0.058508173 -0.023224127
0.042237267 0.007352524 -0.029346753 0.015127899
00000000: 4465 2a3c 384d cb3b d938 e23c 8e79 90bc
00000010: 4a5e 9bbc 6577 593d 9fa1 15bb ebdc 863c
00000020: 00ed 0f3d 1b23 09bb 2c5c 35bc 1aa3 17bd
00000030: 83d4 a03b 015d 07bb 3c1d ac3a 5973 0ebb
00000040: b5b9 19bc ab5d 8fbd 7258 80bb 911a 4c3d
00000050: b6b9 e3af 8da6 f4b0 c46f 9030 78c9 9eb0
00000060: bffa eab0 6a67 7531 621b 8c30 645a f731
00000070: c835 9b2e 58f6 a62f fef4 fdb0 307f 62b1
00000080: dfa3 5630 5a8e e4af 8a52 88b1 9519 2bb1
00000090: 3e9e 1b31 9f3a 66b1 3cff 58b0 b0d6 edb0
000000a0: 3cfe 993a 17fe 57bd f63c af3c f341 10bc
000000b0: 529e 8f3d 515e 6fbc 83a4 be3b e390 c13c
000000c0: 8f46 4f3d 50c0 38bc 5d98 343c e5d6 253c
000000d0: 54bc 96bc 398c ccbc 44a6 6fbd 8640 bebc
000000e0: fc00 2d3d 71ed f03b 9a68 f0bc 02db 773c

transformer_encoder.layers.1.self_attn.out_proj.weight f4 [20, 20]
0.109432705 -0.013777125 -0.03876766 0.112439424 0.38528377 -0.13518344 0.17574424 0.053373154
-0.17328417 0.124586456 -0.21564445 0.016086029 -0.09603749 0.006692046 0.049336217 -0.2751211
0.017721267 0.053049956 0.27151686 0.046213437 0.09842505 -0.14068973 0.072947994 0.08400551
0.1221744 -0.048612032 -0.29869485 -0.22198308 -0.28602028 -0.05253902 -0.045065057 0.103128895
0.12258599 -0.31648102 -0.102085404 -0.02669771 -0.052484583 0.015626842 0.067604735 -0.08332257
-0.13157274 0.02755504 -0.09775247 -0.20716345 0.16774955 -0.08655913 -0.15385629 0.03073341
-0.26730448 -0.117699206 -0.20018086 -0.18325587 0.08669635 -0.029828921 0.031963546 -0.07134792
0.15481351 0.010252176 0.05650599 -0.09227851 0.030764716 0.004843281 0.02023611 0.030151065
0.17239875 -0.21884638 0.10931463 0.04069832 0.113863364 0.071674146 0.038051736 -0.13095868
0.074084826 0.13203418 0.36657152 -0.14811307 -0.10054847 0.04906282 -0.027434729 0.19247335
-0.006114253 0.020588242 -0.21408495 -0.16040972 0.016033389 -0.11281504 0.1354794 -0.1305412
0.15094231 0.05543847 -0.06411754 0.10196103 -0.16624935 0.17821188 -0.11415973 -0.14744483
0.06886875 0.12045303 0.14313745 -0.04237885 0.19965482 0.03252936 -0.18577324 0.039780434
0.07582755 -0.12853116 -0.3029607 -0.17142802 -0.06998066 0.29270637 -0.28100938 0.049488973
-0.130427 -0.005364639 0.17996505 0.13841225 -0.022900788 -0.124381915 0.11849282 -0.14212033
0.09730912 -0.08801923 -0.15657854 0.031811967 0.16620882 -0.18560295 0.18113594 0.09576594
0.3918461 0.20618312 0.09431094 0.056350965 0.14084491 0.12030865 -0.32638484 0.12455708
0.019106017 0.0042080367 -0.13512228 -0.18852675 0.067804046 -0.14312759 0.1540382 -0.015880968
0.11630446 -0.07792655 -0.08298254 0.12433496 0.0820032 -0.1343175 -0.17743666 -0.16276224
0.17724581 -0.1483727 -0.025190182 -0.028755885 0.07159148 0.16172819 -0.017974727 -0.08971855
0.08824079 0.122153394 0.25845978 -0.019681014 -0.073847994 0.11885101 -0.027628262 0.20187889
0.040243622 -0.1339378 -0.19501908 -0.13574442 -0.069751024 0.14847755 -0.007743045 0.1488478
-0.004843415 0.1602933 0.10539142 -0.15962207 0.14964844 -0.15419629 0.24952665 -0.20122871
0.107851446 0.056419004 0.1396061 0.09666117 0.21554606 -0.16442075 0.118563116 0.032187913
-0.15228485 0.017724812 -0.05793579 0.06943187 -0.12473571 0.09058808 -0.1605559 -0.21683818
0.21850385 -0.14371087 0.024657412 0.040105056 0.07640068 -0.037683494 0.19266097 0.07730741
-0.07389838 0.003350271 0.010145842 -0.17778425 0.041373003 -0.0170437 0.061165437 0.22584523
0.026125215 0.16855395 0.0142098265 0.012544558 0.16903749 0.08820255 -0.015900856 -0.25775295
-0.04055713 -0.096268184 -0.11437768 0.081440166 0.28101712 -0.0741793 -0.014452397 0.001714807
-0.022223147 0.028184576 -0.00049597526 0.12774195 -0.23270322 -0.19417368 0.08295001 0.031298384
-0.15846892 -0.073580936 0.22941867 -0.15573466 -0.22646451 0.10248555 0.13037284 0.1738665
-0.14211588 0.1980536 0.22476432 -0.035976063 0.038742967 0.2599614 -0.011593409 0.2708274
00000000: 411e e03d 73b9 61bc d6ca 1ebd a446 e63d
00000010: ea43 c53e 876d 0abe 4cf6 333e cf9d 5a3d
00000020: 6871 31be 2f27 ff3d e6d1 5cbe d9c6 833c
00000030: 4eaf c4bd f348 db3b c614 4a3d acdc 8cbe
00000040: 312c 913c e94a 593d 4204 8b3e 4d4a 3d3d
00000050: 1393 c93d f810 10be c265 953d 150b ac3d
00000060: 9236 fa3d 691d 47bd 88ee 98be 884f 63be
00000070: 4071 92be 2833 57bd 2396 38bd 3e35 d33d
00000080: 5d0e fb3d cd09 a2be 2712 d1bd 28b5 dabc
00000090: 13fa 56bd dd03 803c 5a74 8a3d 06a5 aabd
000000a0: 01bb 06be 1bbb e13c 7232 c8bd a822 54be
000000b0: 8ac6 2b3e ea45 b1bd 818c 1dbe a2c4 fb3c
000000c0: 22dc 88be 480c f1bd 36fc 4cbe 6da7 3bbe
000000d0: db8d b13d c85b f4bc 35ec 023d dc1e 92bd
000000e0: 6f87 1e3e bef8 273c d372 673d 84fc bcbd
000000f0: 4906 fc3c 63b4 9e3b 33c6 a53c 5eff f63c
00000100: 4c89 303e 4419 60be 59e0 df3d 48b3 263d
00000110: 3231 e93d e5c9 923d 23dc 1b3d 081a 06be
00000120: c9b9 973d f833 073e 43af bb3e f4aa 17be
00000130: 5bec cdbd 18f6 483d ccbe e0bc bc17 453e
00000140: 125a c8bb aca8 a83c 1639 5bbe 7242 24be
00000150: 7458 833c 920b e7bd 1dbb 0a3e 98ac 05be
00000160: 9f90 1a3e 7313 633d 0f50 83bd f2d0 d03d
00000170: 453d 2abe 2d7d 363e 94cc e9bd c7fb 16be
00000180: 0f0b 8d3d 14b0 f63d a092 123e 7295 2dbd
00000190: 5072 4c3e 823d 053d 573b 3ebe cff0 223d
000001a0: 794b 9b3d ac9d 03be aa1d 9bbe d48a 2fbe
000001b0: 0552 8fbd 9cdd 953e 76e0 8fbe f3b4 4a3d
000001c0: a88e 05be dbc9 afbb c248 383e f1bb 0d3e
000001d0: 6f9a bbbc f2bb febd 5dac f23d fe87 11be
000001e0: 014a c73d 6d43 b4bd 2056 20be 444d 023d
000001f0: a532 2a3e b30e 3ebe b37b 393e ef20 c43d
00000200: 0da0 c83e ab21 533e 1826 c13d 45d0 663d
00000210: a639 103e 6264 f63d ea1b a7be c817 ff3d
00000220: 3984 9c3c 92e3 893b 7f5d 0abe 280d 41be
00000230: d9dc 8a3d 0a90 12be 31bc 1d3e ce18 82bc
00000240: 0831 ee3d f497 9fbd c0f2 a9bd 54a3 fe3d
00000250: 4bf1 a73d 878a 09be f5b1 35be 25ab 26be
00000260: ed7f 353e 03ef 17be a45b cebc 7691 ebbc
00000270: 8e9e 923d 139c 253e bc3f 93bc 5cbe b7bd
00000280: 96b7 b43d 8f2b fa3d d754 843e 143a a1bc
00000290: 9e3d 97bd 2968 f33d aa54 e2bc 57b9 4e3e
000002a0: 7fd6 243d fe26 09be 15b3 47be 9600 0bbe
000002b0: a0d9 8ebd 800a 183e 5fb9 fdbb 8f6b 183e
000002c0: 83b5 9ebb ed23 243e 75d7 d73d f873 23be
000002d0: 713d 193e a2e5 1dbe ea83 7f3e e60e 4ebe
000002e0: 38e1 dc3d 9d17 673d e7f4 0e3e 4bf6 c53d
000002f0: 1bb8 5c3e ea5d 28be 38d1 f23d 79d7 033d
00000300: 8ff0 1bbe a033 913c 144e 6dbd 4c32 8e3d
00000310: 7075 ffbd 3e86 b93d c468 24be d40a 5ebe
00000320: 79bf 5f3e f128 13be 57fe c93c 3345 243d
00000330: f677 9c3d 025a 1abd eb48 453e 5953 9e3d
00000340: 0958 97bd 3890 5b3b bf3a 263c 130d 36be
00000350: bd76 293d 3b9f 8bbc 9c88 7a3d f943 673e
00000360: 8c04 d63c 6899 2c3e 55d0 683c b187 4d3c
00000370: 2a18 2d3e 8aa3 b43d 8342 82bc 32f8 83be
00000380: 3c1f 26bd 4128 c5bd d83e eabd 1aca a63d
00000390: 7ae1 8f3e 51eb 97bd bfc9 6cbc 60c3 e03a
000003a0: 510d b6bc 57e3 e63c 5604 02ba c9ce 023e
000003b0: c149 6ebe 77d5 46be b2e1 a93d bc32 003d
000003c0: ad45 22be 9ab1 96bd baec 6a3e e878 1fbe
000003d0: 50e6 67be f2e3 d13d 7580 053e 0f0a 323e
000003e0: d386 11be 90ce 4a3e 9e28 663e a35b 13bd
000003f0: f2b0 1e3d a919 853e 48f2 3dbc e4a9 8a3e

transformer_encoder.layers.1.self_attn.out_proj.bias f4 [20]
0.062110297 0.04257642 -0.028088681 0.047540113 -0.04737951 -0.04987584 -0.024435263 0.048120055
0.011993011 0.050961256 0.007969614 -0.036962245 -0.042044953 -0.04864649 0.04461096 -0.014362331
-0.04596354 0.0053835167 -0.009491221 0.025984876
00000000: 5e67 7e3d 9d64 2e3d 3c1a e6bc 6cb9 423d
00000010: 0411 42bd 9c4a 4cbd 762c c8bc 8919 453d
00000020: 567e 443c c0bc 503d fc92 023c b965 17bd
00000030: 5437 2cbd 8b41 47bd fbb9 363d fb4f 6bbc
00000040: 4444 3cbd 3668 b03b 1181 1bbc 3cde d43c
