model_epoch_105.pt (torch, 432002 bytes, 28 tensors)

pos_encoder.pe f4 [5000, 1, 20]
000000 00 00 00 00 00 00 80 3f 00 00 00 00 00 00 80 3f
       0.0 1.0 0.0 1.0
000010 00 00 00 00 00 00 80 3f 00 00 00 00 00 00 80 3f
       0.0 1.0 0.0 1.0
000020 00 00 00 00 00 00 80 3f 00 00 00 00 00 00 80 3f
       0.0 1.0 0.0 1.0
000030 00 00 00 00 00 00 80 3f 00 00 00 00 00 00 80 3f
       0.0 1.0 0.0 1.0
000040 00 00 00 00 00 00 80 3f 00 00 00 00 00 00 80 3f
       0.0 1.0 0.0 1.0
000050 a5 6a 57 3f 41 51 0a 3f 3d 7d c6 3e da fa 6b 3f
       0.841471 0.54030234 0.38767424 0.92179644
000060 4e 9d 21 3e a0 ca 7c 3f 65 22 81 3d 97 7d 7f 3f
       0.15782663 0.9874668 0.06305388 0.9980101
000070 8a c0 cd 3c 53 eb 7f 3f 57 d6 23 3c b9 fc 7f 3f
       0.025116224 0.9996845 0.009999833 0.99995
000080 90 73 82 3b 7b ff 7f 3f 28 bc cf 3a eb ff 7f 3f
       0.0039810613 0.9999921 0.0015848922 0.99999875
000090 d4 66 25 3a fd ff 7f 3f f5 b1 83 39 ff ff 7f 3f
       0.0006309573 0.9999998 0.00025118855 0.99999994
0000a0 b7 c7 68 3f 33 11 d5 be 76 f7 36 3f 04 0d 33 3f
       0.9092974 -0.41614684 0.71471345 0.69941735
0000b0 c5 96 9f 3e 18 3f 73 3f 9d e0 00 3e e3 f6 7d 3f
       0.31169716 0.9501815 0.12585683 0.99204844
0000c0 ec af 4d 3d 51 ad 7f 3f 3e d4 a3 3c e5 f2 7f 3f
       0.0502166 0.99873835 0.019998666 0.9998
0000d0 4d 73 02 3c ec fd 7f 3f 17 bc 4f 3b ac ff 7f 3f
       0.00796206 0.9999683 0.0031697804 0.999995
0000e0 d2 66 a5 3a f3 ff 7f 3f f5 b1 03 3a fe ff 7f 3f
       0.0012619144 0.9999992 0.0005023771 0.9999999
0000f0 c3 81 10 3e 26 70 7d bf 48 12 6e 3f e5 3b bc 3e
       0.14112 -0.9899925 0.92996645 0.36764446
000100 ce 5e ea 3e a8 9a 63 3f b9 ac 40 3e 6f 6d 7b 3f
       0.45775455 0.8890786 0.18815888 0.9821386
000110 2d 2f 9a 3d 03 46 7f 3f 1f b9 f5 3c 83 e2 7f 3f
       0.07528529 0.99716204 0.0299955 0.99955004
000120 49 ac 43 3c 53 fb 7f 3f fc cc 9b 3b 42 ff 7f 3f
       0.011942931 0.99992865 0.0047546607 0.9999887
000130 36 1a f8 3a e2 ff 7f 3f ef 8a 45 3a fb ff 7f 3f
       0.001892871 0.9999982 0.00075356563 0.9999997
000140 cf bd 41 bf 30 55 27 bf ab f0 7f 3f ce 32 b1 bc
       -0.7568025 -0.6536436 0.99976605 -0.02163067
000150 72 a3 17 3f b0 41 4e 3f 8a b4 7f 3e d4 e3 77 3f
       0.5923377 0.8056898 0.24971214 0.96832013
000160 7d 6d cd 3d 7a b5 7e 3f db cb 23 3d 94 cb 7f 3f
       0.10030649 0.9949566 0.039989334 0.9992001
000170 3e 72 82 3c b1 f7 7f 3f d3 bb cf 3b af fe 7f 3f
       0.015923616 0.9998732 0.006339529 0.9999799
000180 c9 66 25 3b cb ff 7f 3f f4 b1 83 3a f8 ff 7f 3f
       0.0025238267 0.99999684 0.0010047541 0.9999995
000190 10 7c 75 bf 2c 3c 91 3e 28 c7 69 3f ce a6 d0 be
       -0.9589243 0.2836622 0.91319513 -0.40752262
0001a0 6e 4a 36 3f 2c bd 33 3f eb db 9e 3e aa 5d 73 3f
       0.7120732 0.7021053 0.3102716 0.95064795
0001b0 4f 45 00 3e cd fb 7d 3f f4 b6 4c 3d 19 ae 7f 3f
       0.12526439 0.9921234 0.049979165 0.99875027
0001c0 cf 0d a3 3c 04 f3 7f 3f 44 d5 01 3c f1 fd 7f 3f
       0.019904045 0.9998019 0.007924382 0.9999686
0001d0 74 c0 4e 3b ad ff 7f 3f 6f 9e a4 3a f3 ff 7f 3f
       0.0031547816 0.99999505 0.0012559424 0.9999992
0001e0 8c 0f 8f be b8 cd 75 3f 20 0d 2f 3f fd cb 3a bf
       -0.2794155 0.96017027 0.683794 -0.7296751
0001f0 a7 5f 50 3f 47 b7 14 3f b7 3b bd 3e 8f df 6d 3f
       0.81395954 0.5809216 0.3695962 0.9291925
000200 29 bf 19 3e 1a 19 7d 3f d1 9c 75 3d 12 8a 7f 3f
       0.15014328 0.98866427 0.059964005 0.99820054
000210 b7 a8 c3 3c 4e ed 7f 3f 88 cc 1b 3c 09 fd 7f 3f
       0.02388416 0.99971473 0.009509213 0.99995476
000220 19 1a 78 3b 88 ff 7f 3f eb 8a c5 3a ed ff 7f 3f
       0.0037857352 0.99999285 0.0015071308 0.99999887
000230 46 30 28 3f bd ff 40 3f fd e3 b1 3e 31 0d 70 bf
       0.6569866 0.75390226 0.34744254 -0.9377013
000240 c0 3b 65 3f 26 ee e3 3e b9 da da 3e 1a 6f 67 3f
       0.89544296 0.4451763 0.42744997 0.904039
000250 2d 20 33 3e 86 0d 7c 3f 32 3e 8f 3d 81 5f 7f 3f
       0.17492743 0.98458135 0.06994285 0.997551
000260 d4 42 e4 3c 8e e6 7f 3f b4 c3 35 3c f8 fb 7f 3f
       0.027863897 0.99961174 0.011094023 0.9999385
000270 db b9 90 3b 5c ff 7f 3f 65 77 e6 3a e6 ff 7f 3f
       0.004416687 0.9999902 0.001758319 0.99999845
000280 95 46 7d 3f f6 fd 14 be 31 28 31 bd ac c2 7f bf
       0.98935825 -0.14550003 -0.04325122 -0.9990642
000290 dc 58 74 3f 1d b7 98 3e c2 9a f7 3e db 12 60 3f
       0.9544809 0.29827204 0.48360258 0.8752877
0002a0 42 64 4c 3e 3c d9 7a 3f 50 aa a3 3d 66 2e 7f 3f
       0.1996012 0.97987723 0.07991469 0.99680173
0002b0 02 6e 02 3d c4 de 7f 3f c1 ba 4f 3c bb fa 7f 3f
       0.031843193 0.9994929 0.012678803 0.9999196
0002c0 a7 66 a5 3b 2a ff 7f 3f ef b1 03 3b de ff 7f 3f
       0.0050476375 0.99998724 0.002009507 0.999998
0002d0 32 01 d3 3e d5 3f 69 bf 5c b7 da be 75 77 67 bf
       0.4121185 -0.91113025 -0.42718017 -0.9041665
0002e0 00 56 7d 3f 39 58 13 3e 43 af 09 3f 52 d2 57 3f
       0.9895935 0.14389123 0.53783053 0.843053
0002f0 54 87 65 3e 6e 7c 79 3f 3e 12 b8 3d c2 f6 7e 3f
       0.22414905 0.9745549 0.089878544 0.9959527
000300 12 ba 12 3d f0 d5 7f 3f ad b1 69 3c 55 f9 7f 3f
       0.03582198 0.9993582 0.014263553 0.99989825
000310 6e 13 ba 3b f1 fe 7f 3f 2c 28 14 3b d5 ff 7f 3f
       0.0056785857 0.99998385 0.0022606952 0.99999744
000320 f8 44 0b bf 64 cd 56 bf 23 8a 3e bf 43 f8 2a bf
       -0.5440211 -0.8390715 -0.7442953 -0.6678507
000330 7d f9 7f 3f ba f4 66 bc e0 04 17 3f e6 b5 4e 3f
       0.99990064 -0.014096433 0.58991814 0.80746305
000340 53 85 7e 3e 54 f7 77 3f 76 75 cc 3d 98 b8 7e 3f
       0.24855547 0.9686177 0.099833414 0.9950042
000350 8a 05 23 3d 13 cc 7f 3f 39 d4 81 3c c5 f7 7f 3f
       0.039800204 0.9992077 0.015848266 0.9998744
000360 30 c0 ce 3b b2 fe 7f 3f 67 9e 24 3b cb ff 7f 3f
       0.0063095316 0.9999801 0.002511883 0.99999684
000370 5c ff 7f bf 72 05 91 3b 58 eb 71 bf c9 76 a7 be
       -0.9999902 0.004425698 -0.9449973 -0.32707813
000380 65 32 7c 3f 27 da 2f be 9f c0 23 3f e2 c6 44 3f
       0.98514396 -0.17173062 0.6396579 0.7686597
000390 1c ad 8b 3e 2d 4a 76 3f 72 d3 e0 3d e8 73 7e 3f
       0.2728051 0.96206933 0.1097783 0.9939561
0003a0 59 50 33 3d 2c c1 7f 3f 86 cf 8e 3c 0a f6 7f 3f
       0.043777797 0.9990413 0.01743294 0.999848
0003b0 ed 6c e3 3b 6c fe 7f 3f a2 14 35 3b c0 ff 7f 3f
       0.006940475 0.9999759 0.0027630706 0.9999962
0003c0 d8 5c 09 bf d0 06 58 3f 0b 76 7f bf e1 d0 84 3d
       -0.53657293 0.84385395 -0.99789494 0.06485153
0003d0 f5 18 72 3f 4d 6e a6 be 89 d5 2f 3f 63 0f 3a 3f
       0.9456933 -0.32506028 0.68685204 0.7267973
0003e0 fe 00 98 3e 3e 75 74 3f ac 2b f5 3d b5 28 7e 3f
       0.29688257 0.954914 0.119712204 0.99280864
0003f0 6d 9a 43 3d 3b b5 7f 3f ba ca 9b 3c 26 f4 7f 3f
       0.047754694 0.9988591 0.019017566 0.99981916

transformer_encoder.layers.0.self_attn.in_proj_weight f4 [60, 20]
000000 2f 29 19 be 0e 69 73 be 34 a1 5c 3e 19 5d 77 3d
       -0.14957117 -0.23770544 0.21545869 0.06039152
000010 12 fb 3e 3e c3 78 a6 3d 6b f5 3a be 5a b5 fd 3d
       0.18650463 0.08128502 -0.18257682 0.12388106
000020 0b 1c 2d 3c 9b 0d 36 3d 85 dc 4e be 22 65 74 3e
       0.010565768 0.04444657 -0.20201309 0.23866704
000030 b2 a5 8a be 7a c6 3b 3e a5 6f 86 3e de 4c 86 3e
       -0.2707954 0.18337432 0.26257053 0.2623052
000040 9c fa 9a 3d cf 48 e1 bd ab d0 2e bc 95 82 4d bc
       0.07567331 -0.11000215 -0.0106698675 -0.01254334
000050 20 5a 79 3e f5 fd 82 bd f6 f4 85 be 25 8f cf 3d
       0.24350786 -0.06396095 -0.26163453 0.101347245
000060 d4 37 6f 3d f2 19 da 3d 95 0b 27 3e 93 a8 af bd
       0.05840285 0.1064948 0.16313012 -0.08577075
000070 a0 39 6e 3e 1c 0b 2f bd 26 ff 01 3a 07 86 c1 bd
       0.2326417 -0.042735204 0.00049589796 -0.09449392
000080 67 b3 ce 3d 7f e5 d4 bd ae a4 6a 3e fc 8c 23 3e
       0.10092812 -0.103953354 0.22914383 0.1597175
000090 6d ee 86 3e dc db ad 3c b2 ad 15 3d 57 cb f9 bd
       0.2635378 0.021223001 0.036542602 -0.12196987
0000a0 d3 c0 15 3e 90 21 12 be 8c 4b 7a 3c c8 6c 8d bd
       0.14624338 -0.14270616 0.015276801 -0.06905514
0000b0 45 08 79 3e c8 eb 4e be 8d 6f 31 3e 3f 20 6b be
       0.24319561 -0.20207131 0.1732771 -0.2296152
0000c0 c0 50 af bb 83 c2 ab bd 2f ce 6f bd 21 83 37 bd
       -0.0053502023 -0.083867095 -0.05854624 -0.04480279
0000d0 13 4e 44 3d 78 a9 1b be d7 c9 d9 3d b7 67 36 be
       0.04792602 -0.15201366 0.10634201 -0.17813002
0000e0 5b 9f 82 bd 08 64 91 be dc b3 b3 bd f3 fe ef bc
       -0.06378051 -0.2839663 -0.0877454 -0.029296374
0000f0 12 52 d5 3d 45 68 81 bc c3 c8 10 be 7e 44 b2 3d
       0.10416044 -0.01579679 -0.14139085 0.0870447
000100 7b ef 5a 3e c1 b4 1e 3e 02 24 e2 bd 1f 31 d7 3d
       0.21380417 0.1549864 -0.11042024 0.10507416
000110 91 e6 f9 3c a3 0e 34 bc bf 17 7b 3d c0 b2 fe 3d
       0.03050545 -0.010989818 0.061301943 0.124364376
000120 ed f1 76 be 40 65 06 be 7c 42 f0 3c f2 a5 42 3e
       -0.24115725 -0.13124561 0.029328577 0.19008616
000130 fa 5f 3b be 4a 40 fe bd a9 da 85 bc da 89 04 3e
       -0.18298331 -0.12414606 -0.016339617 0.12943211
000140 d0 38 74 be c3 80 df 3d 10 94 36 be 17 df 81 3e
       -0.23849797 0.10913231 -0.17829919 0.25365517
000150 04 55 95 bd d3 29 9a bd 38 2b 3c bc ab 99 a3 bc
       -0.07291606 -0.075275086 -0.0114849135 -0.019970736
000160 5d b7 6f 3e b1 0b 07 3e 3f bf 69 be f0 3f 0b 3e
       0.23409791 0.13188054 -0.22826861 0.13598609
000170 08 ab 27 3e be f8 e0 bd b2 87 4c be ec dd b5 bd
       0.16373837 -0.10984944 -0.19973639 -0.08880219
000180 d9 a6 61 bd 60 94 20 3d 16 82 a4 3c b4 c1 81 3e
       -0.05509076 0.039204 0.020081561 0.25343096
000190 fc 08 8d bd 8a ad 52 bd ef 7f 56 3e 0e dc 64 be
       -0.06886479 -0.05143503 0.2094724 -0.22349569
0001a0 2a 24 11 3d bd c4 11 3d de 44 7c 3d 0c 0e 39 3e
       0.03543488 0.035588015 0.061589114 0.18071765
0001b0 1a de 45 be 88 0d f7 bd 8c 47 83 3d 5b 35 59 3e
       -0.19323006 -0.12063128 0.06410131 0.2121176
0001c0 41 fb 2f bd de 98 a5 bd 20 dc 6e be 9e 62 32 3e
       -0.042964224 -0.08085798 -0.23326159 0.17420432
0001d0 89 a8 18 be dc 1d 27 be c6 45 e9 bd 47 87 86 bc
       -0.14908041 -0.16319984 -0.11390261 -0.016421927
0001e0 6d ef d8 bd 11 0e c7 3d 55 dd 7a 3e b0 d7 97 3c
       -0.10592542 0.0971948 0.24498494 0.018535465
0001f0 63 45 3e be 76 64 0e be ca c9 14 bd ab d2 0c be
       -0.18581156 -0.1390551 -0.036325254 -0.13752238
000200 ed 83 64 bd a5 dd 07 3e fd 6e a9 bd 06 81 f7 3d
       -0.055789877 0.13268144 -0.082731225 0.12085156
000210 63 0c 0c bd a5 23 1a 3e d5 8c fe bd 3a 9f 77 3e
       -0.0341915 0.1505266 -0.12429205 0.24181834
000220 bd e1 61 3e 86 77 0a be 72 d3 36 3b 66 a5 e2 bd
       0.22058769 -0.13522157 0.0027897027 -0.110667035
000230 b3 2c 6b 3e 21 cb 14 bf 40 a6 5e 3d 8d 06 69 3c
       0.2296627 -0.5812245 0.054357767 0.014222753
000240 99 2b 95 3e b2 90 d9 bc c9 6c 47 be a6 72 64 bd
       0.29134825 -0.026558254 -0.19475092 -0.0557734
000250 72 e9 de bd b7 c7 86 bd 26 38 6c 3d e7 ce 35 be
       -0.1088437 -0.06581061 0.057670735 -0.17754708
000260 44 41 27 3e 57 cf e6 bc e1 13 5a be 74 b0 0e be
       0.1633349 -0.02817504 -0.21296646 -0.13934499
000270 ed f0 de 3d d9 53 88 3b 28 77 04 bd c5 ad d6 bd
       0.10885797 0.004160386 -0.0323402 -0.10482363
000280 c4 c3 f1 3d cd a0 eb 3d 3f 1f 53 bb 9d 65 4d 3e
       0.118049175 0.1150528 -0.003221467 0.20058294
000290 55 36 eb 3d 9f 61 ab bd de ec 8e be 71 31 45 3e
       0.114849724 -0.08368229 -0.2791509 0.19257142
0002a0 94 c3 4c 3a cd f5 00 3e f4 fe f4 bc 53 f9 87 3d
       0.0007811126 0.12593766 -0.029906727 0.06639352
0002b0 94 67 64 3e a8 3c 93 bd 4e 89 16 3e ef ab 43 3e
       0.22305137 -0.07189304 0.14700815 0.19108556
0002c0 19 29 1d 3e 55 95 6d be 42 d9 80 3e 55 1a 1c 3e
       0.15347709 -0.23201497 0.25165755 0.1524442
0002d0 1e cb 94 bd e5 a0 4a be 0c d6 7c 3d bd bd d2 3d
       -0.07265304 -0.19787939 0.06172757 0.10290096
0002e0 84 ce 3b 3e 3a a3 25 be ca 1c ab bd 42 bb 0b 3e
       0.18340498 -0.16175547 -0.083551005 0.13645652
0002f0 f2 08 2a be d0 b0 d7 bd d7 58 53 be 3c b1 ff bd
       -0.16604975 -0.10531771 -0.20639358 -0.12484977
000300 9f a8 26 3e ee 9c 94 bd ec 57 b5 bc 35 d9 4f bc
       0.16275261 -0.072564945 -0.022136651 -0.012686064
000310 81 3c 56 be 2a da 31 bd a7 1d 86 bd 99 8a 46 3c
       -0.20921518 -0.043420948 -0.065486245 0.012118005
000320 cf ad 2d be c0 1c 86 be 91 7b 3c 3d ab 74 4a be
       -0.16960834 -0.2619381 0.04601628 -0.19771068
000330 09 38 07 bc 6f 3a 12 3e 80 2d ae 3c 9a cc 4a be
       -0.008253106 0.14280103 0.02126193 -0.19804612
000340 07 d1 5c 3e e5 be 14 3e b7 bb fb 3d 2d 31 0f 3d
       0.21564113 0.14525945 0.12291663 0.034959007
000350 ff e7 08 bd 4e 2b 6f 3c 13 7b 46 bd 12 82 bd 3c
       -0.033424374 0.014597727 -0.048457216 0.023133311
000360 f8 bf 6a 3d c8 be 6d 3e 17 69 f1 3d 24 84 07 3e
       0.057311982 0.23217309 0.117876224 0.13234001
000370 35 f6 af 3c 59 0a 98 be 8f a6 49 be b1 a3 6c be
       0.021479705 -0.29695395 -0.19692443 -0.23109318
000380 a2 1e 41 3e c9 d6 ca bd 2b f0 1b be 21 9f 47 3d
       0.18859342 -0.09904248 -0.15228336 0.04873574
000390 fb cb e0 3c ad 57 1b 3e d9 6a ce bd 78 37 48 3d
       0.027441015 0.15170164 -0.10078973 0.048881024
0003a0 ae 63 4d be 59 4f 94 bd bd 5d 34 be 18 71 ff 3d
       -0.20057556 -0.07241697 -0.17613883 0.12472743
0003b0 76 01 d4 3d 98 33 b8 bc 4e 03 90 3c ae 1d 8b be
       0.10351841 -0.02248554 0.0175797 -0.2717108
0003c0 20 cb 9a 3e 0f b3 05 3e fa 68 62 3e 32 27 6c be
       0.30233097 0.13056587 0.22110358 -0.23061827
0003d0 b9 59 42 be 69 d1 14 be 00 00 70 be 84 2c bb 3d
       -0.18979539 -0.14533009 -0.234375 0.0913935
0003e0 d1 cf a7 bd 76 c1 29 be 90 4a f6 3d 12 eb 44 bc
       -0.08193935 -0.16577706 0.120259404 -0.012018936
0003f0 f4 0d 8c 3e 06 14 51 3e c1 b7 86 3e 86 7b 50 bd
       0.27354395 0.20417795 0.26312068 -0.05089905

transformer_encoder.layers.0.self_attn.in_proj_bias f4 [60]
000000 52 11 8f bc 2a 87 5c 3b 40 37 9a bb b1 60 9e 3a
       -0.017464314 0.00336499 -0.0047062933 0.001208326
000010 3c b5 1a bc 44 d6 8f 3c 39 13 23 3d 71 46 2e 3d
       -0.009442624 0.017558224 0.039813254 0.042547647
000020 44 05 09 3d 29 20 18 bc 44 6b b4 3c db ef 5f bc
       0.033452287 -0.009285011 0.022023804 -0.013668026
000030 64 13 9f bc 5f cf c9 bc 17 49 99 3c c7 71 25 3c
       -0.019418426 -0.024635015 0.01871161 0.010097927
000040 9b 82 29 bc f7 a0 2c bd 36 8b c2 3b ab 6b 50 3d
       -0.01034608 -0.042145696 0.0059370054 0.05088393
000050 ea cc 42 b1 42 b2 82 30 dd 7e d2 2c ad 41 20 b1
       -2.8347196e-09 9.509409e-10 5.9826436e-12 -2.3320397e-09
000060 48 ff 05 31 db e4 8f 32 b5 eb c8 31 83 63 84 31
       1.9499158e-09 1.6751462e-08 5.847563e-09 3.853019e-09
000070 c8 45 0d 32 1e 07 9f 31 b3 b4 0c 2f 4c 47 df 2f
       8.223147e-09 4.628318e-09 1.2797123e-10 4.0614123e-10
000080 ab e4 91 2f 04 5e 67 b0 cc 33 84 b1 a6 fd 75 31
       2.6537825e-10 -8.4170915e-10 -3.8475942e-09 3.5796375e-09
000090 71 c6 c4 b1 ca 6a 82 31 59 dc 4a 31 ba 92 2f 31
       -5.726911e-09 3.7956385e-09 2.9520122e-09 2.5549256e-09
0000a0 eb 18 44 bd b5 3d 52 3d 06 c9 cb bc 02 d0 83 bc
       -0.047875326 0.05132838 -0.024876129 -0.016090397
0000b0 0e e8 6c 3d 8f ca af 3d 13 00 f6 3b b0 e5 83 3d
       0.057838492 0.08583557 0.007507333 0.06440294
0000c0 16 33 63 3d 0b 29 12 3c 31 a7 90 bc 50 05 5f 3c
       0.05546864 0.008920918 -0.017657848 0.013612106
0000d0 8d 48 89 bd 00 23 93 3d 49 db 91 3c 23 65 90 3d
       -0.06703291 0.0718441 0.017804759 0.0705054
0000e0 f7 c3 2e 3d 4e 7b 2d 3d 44 71 37 3c 71 40 73 bc
       0.042667355 0.04235392 0.011196438 -0.014846907

transformer_encoder.layers.0.self_attn.out_proj.weight f4 [20, 20]
000000 a6 75 06 3e ba cb eb bd 78 4d ba bd 65 ad 20 3e
       0.13130817 -0.11513467 -0.09096807 0.15691145
000010 bc f4 89 3e f5 67 83 3d b8 e9 e1 3e b8 d3 fc 3d
       0.2694453 0.064163126 0.44123626 0.1234507
000020 84 25 7e bd 7d c7 9a 3d 0c 3b 3f be ad eb 55 3d
       -0.062047496 0.075575806 -0.18674868 0.05222671
000030 7d 2e 2c bc 3f 71 ad bc 70 89 a6 3d 0f 96 be be
       -0.010509131 -0.021172164 0.08131683 -0.3722386
000040 96 2f 08 3e 5a 8b bd 3d 1b b8 be 3e 08 de ca 3d
       0.13299403 0.09255095 0.37249836 0.0990563
000050 1d f1 17 3e 34 aa a9 bd 56 a6 92 3d da 83 6b bd
       0.14838071 -0.08284417 0.07160632 -0.05749879
000060 38 dd bd 3d 4c e5 75 bd 76 99 8e be 36 c8 31 be
       0.0927071 -0.060033128 -0.27851456 -0.1736153
000070 9e 50 1b be fd 0b 98 bd b0 7f 29 bd 98 7a 8b 3d
       -0.15167472 -0.074241616 -0.041381538 0.06810492
000080 d7 7e 02 3e 7a 4f 4d be 93 2b cd bd e8 7d 91 3d
       0.12743698 -0.20049849 -0.10018077 0.07104093
000090 6c e5 9f bd 5e f8 5c 3d a6 1c 28 3d d0 79 c3 bd
       -0.078074306 0.0539478 0.041042946 -0.09544718
0000a0 ae 76 1f be 33 72 0f bd fc 2b be bd 40 8f 17 be
       -0.15572616 -0.03502102 -0.09285733 -0.1480074
0000b0 f0 08 30 3e 5b ad 20 be 08 9a 44 be fe c7 97 3c
       0.1719091 -0.1569113 -0.19199383 0.01852798
0000c0 38 13 5f be 4f 23 1e bd 73 32 0a be 4c e1 1b be
       -0.21784675 -0.03860789 -0.13495807 -0.15222663
0000d0 e6 8a 83 3c 97 f3 a2 3d 7b 40 f8 3c 73 16 3a be
       0.016057443 0.07956617 0.030304184 -0.18172626
0000e0 c4 56 16 3e 9f 18 e1 bd 12 13 ce 3d 86 c3 67 be
       0.14681536 -0.10991024 0.10062231 -0.2263318
0000f0 a1 0c 5e 3d 5f 12 33 bd 7d 98 83 3c 06 63 0b 3c
       0.054211263 -0.043718692 0.016063923 0.008507496
000100 b6 63 4d 3e e6 f8 86 be 35 95 ea 3d 7d 92 9f bc
       0.20057568 -0.2636177 0.1145424 -0.01947903
000110 1c 41 04 3e e8 74 97 3d 35 e7 5d 3b c7 f8 e9 bd
       0.12915462 0.07395345 0.0033859734 -0.11424404
000120 f9 67 fb 3d f9 c1 7c 3d 01 ca a3 3e 9f a2 18 be
       0.122756906 0.061708424 0.31990054 -0.14905785
000130 66 68 ca bd c4 70 b2 3d 37 4e 27 b9 4c 46 8d 3e
       -0.09883194 0.087129146 -0.00015955498 0.27592695
000140 72 b3 38 bd c2 0c d7 3d 48 ab 60 be 75 00 45 be
       -0.045093007 0.1050048 -0.21940339 -0.19238456
000150 3e 54 ff bc 60 71 d0 3a 2f 79 49 3e 0d 91 20 bd
       -0.0311681 0.0015902929 0.19675134 -0.03920083
000160 6d 87 33 3e 3e f8 4a 3d 62 a7 90 bc 02 dc 55 3d
       0.1753213 0.04955315 -0.01765794 0.05221177
000170 a0 94 55 be fa fb 5d 3e fb 7e bc bd c1 e0 1f be
       -0.20857477 0.21678153 -0.09203907 -0.1561308
000180 55 93 79 3d 0f 2d 4b 3d a9 77 d7 3d be 97 04 be
       0.060931522 0.049603518 0.1052087 -0.1294851
000190 73 f1 85 3e 13 3b a7 3d 7e d6 52 be 95 92 89 bc
       0.26160774 0.081655644 -0.20589635 -0.016793529
0001a0 02 a2 a7 bd ce 7f ad bd be 55 ba be b6 8e 30 be
       -0.081851974 -0.084716424 -0.3639354 -0.1724194
0001b0 ec 15 e7 bc db 1f 67 3e 73 5f 60 be 0c 1e 2a bc
       -0.028208695 0.22570746 -0.21911411 -0.01038314
0001c0 7b 77 bf 3b ee cf 83 3c dc c0 4e 3d 9f 7c 2f 3e
       0.0058431006 0.01609036 0.050476894 0.17137383
0001d0 d2 51 33 bd 03 07 39 bd d4 e9 2d 3e 4c 85 24 be
       -0.0437792 -0.045172703 0.1698373 -0.16066474
0001e0 63 be 7d 3d ad 37 d2 bd 0c 39 fb bd 03 24 ba 3d
       0.061949145 -0.102645256 -0.1226674 0.090889
0001f0 83 ff 56 3e 4f 23 58 be 44 b7 35 3e 7e 3b 5e 3d
       0.20995907 -0.21107219 0.17745692 0.054255955
000200 72 01 65 3e 2a bc 18 3e 6e 50 9f 3d 36 a7 25 3d
       0.22363833 0.14915529 0.077790126 0.040442668
000210 da 89 4f 3e 89 f3 08 be d1 e6 28 be 09 fa 3f 3e
       0.2026743 -0.13374151 -0.164943 0.18747725
000220 44 ea ab 3c c6 72 8b 3d e3 bb 19 be 96 1b cc bd
       0.02098573 0.06809001 -0.1501308 -0.09966199
000230 3c 30 a8 3d 17 ae 06 be 89 0f 13 3e bc 8a 95 bd
       0.08212325 -0.13152348 0.14361395 -0.07301852
000240 a6 98 e9 3d 35 87 7a bd d8 60 af bd 72 fe e3 3d
       0.114060685 -0.0611641 -0.08563393 0.11132516
000250 77 d8 fc 3d 86 a6 de bd a7 03 2d be 51 58 3b be
       0.12345975 -0.108716056 -0.16895925 -0.18295409
000260 15 1b 07 3e b4 bb 69 bd e2 e4 9b bd 07 50 8f bd
       0.13193925 -0.057063773 -0.07612015 -0.06997686
000270 30 2e a8 3d 48 09 17 3e 85 a9 2a bd f4 00 9d bd
       0.082119346 0.14749634 -0.041665573 -0.076661974
000280 5a 4e c7 3c a1 fb 48 3e 71 cf 45 3e 00 e6 64 3c
       0.024329353 0.19627239 0.19317414 0.013970852
000290 5b d4 bf bd db 4a 61 3d 80 dd 5d bd 30 9e 62 3e
       -0.093666755 0.05500303 -0.054166317 0.22130656
0002a0 91 92 27 3b 49 d5 0c bd d1 ad 34 be 38 93 dc bd
       0.0025569538 -0.034383092 -0.1764443 -0.10770267
0002b0 ef c7 93 bd 7e bf 16 3e 7f fb 13 3d 94 96 48 3e
       -0.07215869 0.14721486 0.036128517 0.19588691
0002c0 e4 ff ad bc a7 68 95 3d 6d cc dd 3d be e3 8b be
       -0.021240182 0.072953515 0.10830007 -0.2732219
0002d0 b5 fb 20 3e 8b ad 27 be b7 54 64 3e 7a 17 ff bd
       0.15721019 -0.16374795 0.22297941 -0.1245565
0002e0 cf c2 71 3e 94 28 e2 bd 8b d9 75 3d 2c 39 68 3d
       0.2360947 -0.11042896 0.06002192 0.05669515
0002f0 d4 b2 6f 3e 23 9d 16 be 00 19 ef 39 15 40 8c 3d
       0.23408061 -0.1470838 0.0004560426 0.0684816
000300 7b 56 33 be e1 5a d4 bd 45 80 d1 bc db 7d 39 3e
       -0.17513458 -0.10368896 -0.025573859 0.18114416
000310 de 59 1a be 38 f9 05 3e ae cc 4e be 5a 94 1f be
       -0.15073344 0.1308335 -0.20195267 -0.15583935
000320 bc 07 73 3e 14 34 36 be 68 9c e2 3d 39 08 4f bd
       0.23733419 -0.17793304 0.110649884 -0.05054495
000330 ba 7f d9 3d d9 e3 6a bb f8 12 33 3e 6f 76 0c 3d
       0.10620065 -0.0035841374 0.17487705 0.034292635
000340 a0 11 2a be 9a df ba bc de 56 9f 3a 04 33 ba bd
       -0.16608286 -0.0228117 0.0012156626 -0.09091762
000350 7d ee 32 3c e6 9d 31 3d 84 20 ce bb 34 0c 4e 3e
       0.010921118 0.043363474 -0.0062904973 0.20121843
000360 a1 75 05 3c 03 7b 42 3e 85 14 a8 bc 1e a5 b2 3d
       0.008145721 0.18992238 -0.020517597 0.087229
000370 fa d6 1c 3e c3 01 b4 3d 01 c1 df bb 01 e3 42 be
       0.15316382 0.087893985 -0.006828428 -0.19031908
000380 9d 7d 83 3d 5d 4c 79 be b7 8d 8a be a5 f0 61 3d
       0.06420443 -0.24345537 -0.27061245 0.055161137
000390 bc 6a 6b 3e 4f 7c c0 bc 5e 20 16 bd 0d c6 87 bb
       0.22989935 -0.023496775 -0.03665196 -0.0041434825
0003a0 c7 43 d4 bd ad 02 b0 3c 84 f6 19 bd 88 9c 50 3e
       -0.1036449 0.02148565 -0.03758861 0.20372212
0003b0 0c ee a4 be f3 1c 30 be 53 fa 2e 3c de d8 bf 3c
       -0.32212865 -0.17198543 0.010679799 0.02341884
0003c0 28 b0 2b be 6c 4a cb bd e3 36 9e 3e 8b cf 2f be
       -0.16766417 -0.09926304 0.3090125 -0.17169015
0003d0 a1 72 d2 bd a6 98 17 3d 0e 38 84 3d b5 c2 d0 3d
       -0.1027577 0.03701081 0.06456004 0.101933874
0003e0 c9 f9 91 be 41 90 26 3e 3e 30 11 3e d6 5e 08 bd
       -0.28510883 0.16265966 0.14178559 -0.033293568
0003f0 c3 6a 07 bd 0f 3f 59 3e fa fe ed bb 77 64 81 3e
       -0.0330608 0.21215461 -0.0072630616 0.2527196

transformer_encoder.layers.0.self_attn.out_proj.bias f4 [20]
000000 76 73 a3 bc e2 d8 45 3d 26 ae 0a 3d 6c 08 1a 3d
       -0.019952517 0.04830254 0.033857487 0.037605688
000010 41 bc ac 3c 7e 8c c9 3c aa 8c a2 bc 8c 45 e6 3c
       0.02108586 0.024603125 -0.019842464 0.028109334
000020 c4 9d 71 bc cb e7 90 bc ec d0 86 3b f1 08 33 bd
       -0.014747087 -0.017688653 0.004114261 -0.0437097
000030 0b 91 18 3d de cf af bd cf dc 14 3d cb 02 b3 bc
       0.0372477 -0.085845694 0.036343392 -0.021851918
000040 68 21 fe ba 3b 3b 1c bd 4f 8f 67 3c e5 a0 b1 bc
       -0.0019388618 -0.038142424 0.0141332885 -0.021683166

transformer_encoder.layers.0.linear1.weight f4 [20, 20]
000000 54 d6 c0 bd 90 f1 12 3e 82 da 72 3d 40 25 47 3e
       -0.0941588 0.14349961 0.059290417 0.19447803
000010 e6 d9 b6 bd d5 fd b7 bc f5 43 22 be 8c f9 3c 3e
       -0.089282796 -0.022459904 -0.15846236 0.1845457
000020 e7 7d 0d bd 96 f1 20 bb 9a 53 f1 bd 30 ea 2a 3d
       -0.034543898 -0.002455806 -0.11783524 0.041727245
000030 1e d1 8c 3d 33 32 3d 3d e8 54 f1 3c b2 03 b3 3d
       0.068758234 0.04619045 0.029459432 0.08740939
000040 b9 4f 48 3e 56 e1 17 be 21 48 69 bd f6 1c e9 bd
       0.19561662 -0.14832053 -0.056953553 -0.11382477
000050 54 ba 82 be d7 5d 41 3e 2d 5b 63 be 07 7d 3b 3d
       -0.25532782 0.18883453 -0.2220275 0.045773532
000060 8c 99 74 3d be 1b c7 bc 7d 9f 03 3d 55 df 34 be
       0.059716746 -0.02430522 0.03213452 -0.1766332
000070 8b 17 2b 3e e9 1c 08 bd 43 35 14 bd 42 4b c3 3d
       0.167082 -0.033230696 -0.036183607 0.09535839
000080 99 f8 6d bd e1 b6 13 be 9a cf 1c 3e a2 ea 47 3e
       -0.05809841 -0.14425232 0.15313569 0.19523099
000090 ea 21 0d 3e ef 07 5e bd cb c6 f5 bd 40 e5 97 3d
       0.13782468 -0.054206785 -0.120008074 0.07416773
0000a0 c3 43 2f 3e 71 a5 58 3e df 82 71 3e 16 e8 46 3e
       0.17115693 0.21156861 0.2358508 0.19424471
0000b0 89 d3 d6 b8 62 32 3c 3e 44 f6 60 3e 0d 63 6b bd
       -0.00010243717 0.18378595 0.21968943 -0.05746751
0000c0 30 fa a4 bd 7a 96 37 3d 9a 12 9d be 07 b3 21 3c
       -0.08055532 0.04482124 -0.30678254 0.009869344
0000d0 1a b4 dd 3b 26 30 ce 3d e1 46 3a be 99 7c 4a bd
       0.0067658545 0.10067777 -0.181911 -0.04943523
0000e0 d2 7b b4 bd 8e 84 4f 3e 25 6e 30 3d a2 9b bb bc
       -0.08812679 0.2026541 0.043073792 -0.02290136
0000f0 3b a8 85 bd 38 c6 1c be 0e c1 60 3d b5 57 80 3e
       -0.06526228 -0.1530999 0.05487161 0.25066915
000100 de e2 1c bd 59 11 91 bc b9 6c 91 bd 69 80 11 3e
       -0.038302295 -0.017708467 -0.07100815 0.14209141
000110 8b 19 23 be fb 6b 95 bd 9f dc 0a 3e 21 04 30 be
       -0.15927713 -0.07295986 0.13560723 -0.17189075
000120 b9 3e 1a 3e 31 5a 32 3d 71 02 73 bd 9f 2b e1 3d
       0.1506299 0.043543044 -0.0593285 0.10994648
000130 ff a8 d3 bd f0 c8 46 be 27 fe 00 3d 62 69 3b 3e
       -0.10334968 -0.19412589 0.03149238 0.18301919
000140 0f 65 99 3d ee f1 54 be ce 25 b9 bd 1a 0b a5 be
       0.074899785 -0.20795414 -0.09040414 -0.32235032
000150 0f eb 05 3e 33 1c b8 3e 52 34 4e 3c dc ac 4a be
       0.13077949 0.35959014 0.012585716 -0.19792503
000160 fe 20 00 3c d5 06 07 be 58 6c 01 3d f9 b3 cd bd
       0.007820366 -0.131862 0.031597465 -0.10044093
000170 46 32 fa bd ea 8f 12 3e d2 4f 95 3d dc b7 74 be
       -0.1221662 0.14312711 0.07290615 -0.23898262
000180 e5 65 35 be 0d 65 0c 3d 73 f7 b5 3d 93 cb 88 bd
       -0.17714651 0.034276057 0.08885088 -0.06679454
000190 f8 e8 d0 bc a9 d1 ef be a5 eb 74 bb cb 1e 9f bd
       -0.025501713 -0.46839646 -0.00373719 -0.07769545
0001a0 b2 71 d5 3d f8 f6 9e be 67 c6 d0 3c 77 e5 a7 bd
       0.10422076 -0.31047797 0.02548523 -0.08198064
0001b0 13 97 e3 bd 6d 2c 48 bd 17 7d 02 bd 9f d6 31 bd
       -0.111127995 -0.048870493 -0.031857576 -0.04341757
0001c0 89 ee fe ba 3f b1 27 3c ba 89 3e 3e e9 01 a6 3e
       -0.0019449751 0.01023513 0.18607226 0.32423332
0001d0 63 99 7b bd 4e fd 9d 3d 15 5e 6d 3e 2c 53 ff 3d
       -0.061425578 0.0771433 0.2318042 0.12467036
0001e0 59 35 a2 bc 3c 47 f7 3d 7c a9 d6 bd cf b3 50 be
       -0.019800829 0.12074134 -0.10481545 -0.20381092
0001f0 7d 72 17 3e 94 fd b6 3e 7f fb c3 bd a4 3c 6a be
       0.14789768 0.3574034 -0.095694534 -0.22874695
000200 93 bf 84 bd 34 33 15 3e 67 b9 14 be 9f 1c 73 be
       -0.064818524 0.14570314 -0.1452385 -0.23741387
000210 8f 87 58 be 6a c3 04 be f0 ed 68 3d 5e e9 6f bd
       -0.21145461 -0.1296517 0.05686754 -0.058572166
000220 26 4a 0c bd 93 c2 80 3d a8 12 c5 3c c2 30 75 be
       -0.0342504 0.06287112 0.024056748 -0.23944381
000230 dc 64 5a 3e 68 a2 2a 3e c0 18 87 bd 33 de ce bc
       0.21327537 0.16663516 -0.065965176 -0.025252437
000240 8a 03 bb bd 34 02 63 3e 43 03 6d be 07 ca ab 3d
       -0.091315344 0.22168809 -0.23145775 0.08388143
000250 52 74 89 bd 57 56 63 be a7 2b 36 be 82 24 38 be
       -0.067116395 -0.22200905 -0.1779009 -0.17982677
000260 ca 30 e4 3d d7 8c 6c be 29 12 06 3e db 28 36 be
       0.11142118 -0.23100601 0.13092865 -0.17789023
000270 f5 5f 03 3d 54 b2 78 be 58 b8 2d be 62 47 c0 bd
       0.032073934 -0.24286777 -0.16964853 -0.09388615
000280 19 b3 1b be 89 49 44 3e 82 6d 3e 3e 8e ca 01 be
       -0.15205039 0.19168676 0.18596461 -0.12674925
000290 90 be 95 3d 14 38 25 39 1e 28 93 3d ae f3 8a 3e
       0.073117375 0.00015756517 0.07185386 0.27139038
0002a0 44 37 05 be 0e 69 00 be 97 e7 10 3e 44 3f 7e 3e
       -0.13009363 -0.12540075 0.14150845 0.24828821
0002b0 bb 45 89 bd 7e 66 dd 3d 5e 56 63 bd f6 96 6c be
       -0.06702753 0.108105645 -0.055502288 -0.23104462
0002c0 bb 86 10 3e dc 3d 93 bd ac d7 d0 3d 00 40 f4 3d
       0.14113896 -0.07189533 0.10197386 0.119262695
0002d0 1e af 61 3c 5f 4e 8c be 0e c1 82 bc ec 8a 77 3e
       0.013774661 -0.27403542 -0.015961196 0.24174088
0002e0 12 36 77 3e e2 fa 99 3d d6 ec ae bd 60 1d f8 3d
       0.2414172 0.07518555 -0.085412666 0.12114978
0002f0 b8 d0 2d 3d 5c af 8e bd c0 ad ff 3d 03 30 16 3e
       0.042435378 -0.06967041 0.12484312 0.14666753
000300 4b 81 13 3e a2 94 21 be 1c 5c c7 bd 3f 20 2d bc
       0.1440479 -0.15779355 -0.09734365 -0.01056677
000310 77 99 17 be 0d 7c 33 3e 8c 4d aa bd 63 be da bc
       -0.14804636 0.1752779 -0.08315572 -0.026702112
000320 32 dd 59 bb 3a ef 35 3e 82 3a 81 bd 5d 8f 47 3e
       -0.0033243415 0.17767039 -0.063099876 0.19488283
000330 0e e2 46 3e a4 f0 22 bd 5c 28 07 bc 64 49 b3 bc
       0.1942217 -0.039780274 -0.0082493685 -0.021885581
000340 33 ed 6c 3e 89 c2 35 be 3b 1d 39 be 23 69 3e be
       0.2313736 -0.1774999 -0.18077557 -0.18594794
000350 53 ae c2 3d 45 60 c9 3d 2b 73 c2 bc 30 a4 02 3e
       0.09505906 0.09832815 -0.023736557 0.12757945
000360 43 8b 07 be 7e d8 42 be 59 aa 97 3d 52 d3 2a be
       -0.13236718 -0.19027898 0.07405538 -0.16682175
000370 d2 9e a2 3d 4c 3e 84 be 47 30 6f 3d c5 ee 3c be
       0.07940449 -0.2582878 0.05839565 -0.18450458
000380 92 0c 78 bc 9c 9c 73 be e9 55 ff 3d 50 81 17 be
       -0.015139716 -0.2379021 0.12467558 -0.14795423
000390 e6 18 d5 bd 0a ea e4 3d 1e 2d c2 bc 45 b9 37 bd
       -0.104051396 0.11177452 -0.023703154 -0.04485442
0003a0 dd 4d 3b be ba 4d d3 3b 61 55 2d 3e a0 69 23 3e
       -0.18291421 0.0064484747 0.169271 0.15958261
0003b0 62 55 33 be 77 7c 2f be 2a b5 06 3e 9a 39 cd 3d
       -0.1751304 -0.17137323 0.13155046 0.10020752
0003c0 68 04 5b 3d 35 d4 4b 3e c0 36 bd bc db 83 34 3e
       0.053471 0.1990517 -0.023097396 0.17628424
0003d0 2e b7 7b 3d d5 81 06 bd 8b ff 30 3e 79 ee 45 3e
       0.06145399 -0.03283866 0.17284982 0.19329251
0003e0 03 e6 1b 3e 76 8d d2 3d 54 ba 71 3c 70 95 2f be
       0.15224461 0.10280888 0.014753897 -0.1714685
0003f0 26 f3 2a be e3 02 c0 3d 1e b5 d2 bd 70 53 e8 bd
       -0.16694316 0.093755506 -0.102884516 -0.113440394

transformer_encoder.layers.0.linear1.bias f4 [20]
000000 e7 7c a7 bd e5 8b d3 3d d3 40 3a be 68 f1 7c bd
       -0.0817812 0.10329417 -0.18188791 -0.06175366
000010 b7 b7 2a 3e 71 a0 c9 3a 83 67 67 be ab c6 6d be
       0.16671644 0.0015382898 -0.2259808 -0.23220317
000020 16 37 d2 3c 25 22 9d 3d bd fb e1 3d c0 e2 94 bc
       0.025661033 0.07672528 0.110343434 -0.01817453
000030 88 60 5f 3d 58 d4 46 bd 15 56 f2 bd b3 91 bd bd
       0.05453542 -0.04854235 -0.11832825 -0.092563055
000040 9e 2f 42 be 2a 92 1f be 5c ee 12 be e0 5c 57 be
       -0.18963477 -0.15583101 -0.1434874 -0.21031523

transformer_encoder.layers.0.linear2.weight f4 [20, 20]
000000 a2 51 0c 3d 0b ad 5b be ac c8 ca bd a9 32 5e 3e
       0.03425754 -0.2145273 -0.099015564 0.21699013
000010 eb 1d 4e be 9a 16 dc 3e 54 14 92 3d 8f 46 2f 3e
       -0.201286 0.42985994 0.071327835 0.1711676
000020 08 4d 1c be f0 16 82 3e 39 e8 c9 3d 41 9b a3 3e
       -0.1526376 0.25408125 0.09858746 0.31954387
000030 4b 56 ef bd 1d 50 66 3c d8 5c 47 3e 2d 7b 49 3e
       -0.11686381 0.014057186 0.19469011 0.19675894
000040 bf 91 8d 3e 38 bd bf bd d5 ff 47 bd c0 b7 d5 3d
       0.27650258 -0.093622625 -0.048827965 0.10435438
000050 c8 3f 0c 3e 25 3d 68 3d cb d6 2e bd e5 3f 43 3d
       0.13696206 0.056698937 -0.04268531 0.047668356
000060 1f d5 12 bd 8b f0 84 3e 59 d1 f4 3d fb c2 21 be
       -0.03584778 0.2596477 0.119539924 -0.15797035
000070 17 54 ff 3d ec 0e 08 3c 4c 80 da bd c2 b2 c8 bc
       0.12467211 0.008304339 -0.10669002 -0.0244993
000080 5a 40 09 3e 7a b7 50 bd b8 ac e4 3d cd 68 d0 bd
       0.13403454 -0.050956227 0.11165756 -0.10176239
000090 7f 56 ef 3b e2 24 27 bb 5c f2 d4 3b 6b dd 12 bc
       0.0073040123 -0.0025504162 0.006498618 -0.008963923
0000a0 69 f1 44 3d 2c 93 51 bd ea 0c 4d 3e 6e e5 f0 bd
       0.04808179 -0.051165745 0.20024458 -0.1176251
0000b0 c7 60 04 be 40 d4 82 3e 9f 35 fe bd 72 34 88 3e
       -0.12927543 0.2555256 -0.12412571 0.26602513
0000c0 7e 13 34 3e bc b5 23 3e f2 27 3c 3c 21 e9 e8 bc
       0.1758556 0.15987295 0.011484133 -0.028431477
0000d0 64 2e 96 3a a3 2f 4b bd af 68 b7 3d e6 e7 27 be
       0.0011457917 -0.049605977 0.08955514 -0.16397056
0000e0 e9 4a 9e bd 24 99 15 3d ef 06 2a 3d 41 2e 55 3d
       -0.07729132 0.036523 0.04151052 0.052046064
0000f0 4a a6 1c 3e 1f 57 03 bc 9e 69 5e bb 1b c3 b9 bd
       0.15297809 -0.008016377 -0.0033937464 -0.090704165
000100 36 6c e9 3c 28 4d 19 3d 40 86 f5 3d a3 9e 15 3e
       0.028493982 0.037427098 0.11988497 0.14611296
000110 20 b3 87 3b 67 ae 17 be 5d e7 26 3d 8e 93 86 bc
       0.0041412264 -0.14812623 0.04074799 -0.016427781
000120 e3 41 44 3d 1b 81 c8 b9 4f 63 16 3e 59 3d 20 3e
       0.047914397 -0.00038243164 0.1468632 0.15648402
000130 1d d9 cb bd 28 5f 4d 3c f0 11 4f 3d eb 3a d6 bd
       -0.099535204 0.012534894 0.050554216 -0.104604565
000140 05 89 4a bd d8 23 8b 3a 97 69 2c be bf bd 6b 3d
       -0.04944708 0.0010615541 -0.16837154 0.057554003
000150 3f 3b af 3d 7b b5 39 3e a2 d6 b1 3d 5f 81 ca 3d
       0.08556222 0.18135636 0.08683516 0.09887957
000160 cd 9d 2b 3e 33 e2 f1 3d 23 8c 02 be 4e aa d1 bd
       0.16759415 0.11810722 -0.1274877 -0.10237561
000170 f7 90 d9 3d 00 95 4f 3e 57 0b c6 bd 62 58 86 3e
       0.10623353 0.20271683 -0.09670132 0.26239306
000180 55 90 e1 3d 07 22 4d be c1 b4 5f 3d e7 6b 62 3d
       0.11013857 -0.20032512 0.05461574 0.055278685
000190 67 38 48 3e 2a d6 8e 3d fb 57 0a be 91 66 15 bd
       0.19552766 0.06974442 -0.13510124 -0.036474768
0001a0 24 20 26 3d 82 93 3d 3e cd 8e 44 be 9f 02 f1 bd
       0.040557995 0.18513301 -0.19195099 -0.11768078
0001b0 17 09 97 bd 63 11 8b bc ab 10 23 3c ca f3 a8 3c
       -0.073747806 -0.016976064 0.009952704 0.02062406
0001c0 3c 8b c6 3d 66 af b9 bd f4 46 2f be e0 c6 46 be
       0.096945256 -0.09066658 -0.1711691 -0.19411802
0001d0 7e 6e 5e 3d a8 bf 48 3d bc 29 3a bd 7c f7 17 3e
       0.054304592 0.049010903 -0.045449957 0.14840502
0001e0 31 2c 09 be 33 e0 b5 3d fd 18 ee bd 14 e7 32 3e
       -0.13395764 0.08880653 -0.1162586 0.17470962
0001f0 e7 ea ad bc 26 31 d6 3d 52 dd 89 bd 15 d5 1d 3b
       -0.021230174 0.10458593 -0.067316666 0.0024083306
000200 53 65 a8 be 7a 61 0f 3e 12 08 fe 3c 54 d0 ec bd
       -0.32889804 0.14002028 0.031009708 -0.11563173
000210 e0 f1 c0 3d 11 ba 55 be fb db 24 3d 43 26 88 3e
       0.09421134 -0.2087176 0.040248852 0.2659169
000220 ff 31 e4 3d 8f 3b dd 3c 18 d7 6c 3c ba 67 7c 3c
       0.111423485 0.027005939 0.014455579 0.01540559
000230 5f 59 25 3e 86 ae 32 3e 09 80 ea 3d 5a cd 21 be
       0.16147374 0.17449388 0.11450202 -0.15800992
000240 e2 41 4e 3e 5a 01 3a be 23 5a 59 3e 5f 15 e9 3b
       0.2014232 -0.18164578 0.2122579 0.0071131433
000250 9a 2b 53 3e f7 7f b7 3c 1b 20 21 3e 09 1b d3 3c
       0.20622101 0.022399886 0.15734904 0.025769727
000260 cc 51 56 3d c3 4f d9 3d e8 97 15 3e 40 d8 35 be
       0.0523241 0.106109165 0.14608729 -0.17758274
000270 b2 7a b9 bd 8a 17 a3 3d 27 c2 bd 3d 4a 44 d4 3d
       -0.090566054 0.07963474 0.09265547 0.103645876
000280 51 ff 71 3d 06 4c e5 3d 84 6f 30 be 4c 8e 4e 3e
       0.05908138 0.11196141 -0.1723004 0.2017147
000290 a0 25 a0 bd 9a ce d8 3d f4 bd 94 be 93 30 84 3d
       -0.078196764 0.10586281 -0.29051173 0.06454577
0002a0 bc 2d 40 bc eb e9 39 3e e8 0d 10 be ed bb 29 be
       -0.011729654 0.18155639 -0.14067805 -0.16575594
0002b0 0c 87 e0 3d fe 7b bf bd 69 3f db 3c 3c eb 0f be
       0.10963258 -0.093498215 0.026763635 -0.14054579
0002c0 0b 61 7c 3e 15 e9 32 3e 87 b8 e8 3d a5 38 1c 3d
       0.24646394 0.17471726 0.11363321 0.038139958
0002d0 e2 27 f6 3d ab 63 35 3e e5 1b 03 3e 95 8a e2 3b
       0.12019326 0.17713802 0.1280361 0.006913493
0002e0 64 9f 3d be 3c 8d 8e be 7f e2 7b bd b8 27 bc bd
       -0.18517834 -0.27842128 -0.0614953 -0.09187263
0002f0 16 43 84 bd 4e e1 8e bd 05 aa 6c bd a8 66 f3 bc
       -0.06458108 -0.06976567 -0.05777933 -0.029712036
000300 9a 12 26 3e 88 56 7b bd a5 82 8f bd e1 74 4a bd
       0.16218033 -0.06136182 -0.0700734 -0.04942787
000310 ca ee 75 3d d0 ce bf bd da 4b 02 3e 56 e0 79 be
       0.06004218 -0.09365618 0.12724248 -0.24401984
000320 2e 02 04 be a0 9f 78 be 00 fc c2 3d 6a 26 24 3e
       -0.12891456 -0.24279642 0.095207214 0.16030279
000330 e1 ce 82 3e 05 26 16 be 3a d4 59 3e aa 7e 60 3e
       0.2554846 -0.14662941 0.21272364 0.21923319
000340 2d 10 c3 bd f6 eb 9d 3d c6 45 4f 3e ae cf a7 bd
       -0.0952457 0.077110216 0.2024146 -0.08193909
000350 94 38 9d 3a cb 49 42 bd a1 fd 1e be 47 7d 48 bc
       0.0011995011 -0.047433656 -0.15526439 -0.0122369
000360 fb 5d 8c be 86 83 fe 3d c1 0c 86 bd 2d 1c 8b be
       -0.2741545 0.1242743 -0.06545401 -0.27169934
000370 ff 1e 47 3e 62 84 1d 3e 31 df 34 3b e8 16 52 be
       0.19445418 0.15382531 0.0027598853 -0.2051655
000380 65 6e 25 3e 29 f4 14 bb e9 66 7e 3e 5d 37 d3 bd
       0.16155393 -0.0022728539 0.24843945 -0.10313294
000390 55 9f 13 3e 45 eb b7 3d 14 1b 9e 3d 0e 98 b4 be
       0.14416249 0.08980421 0.077200085 -0.3527226
0003a0 97 6b 94 be 6b aa 46 3d 47 af 1a 3c d7 bc fe 3d
       -0.28988335 0.048502367 0.009441203 0.12438362
0003b0 bd 4c a3 3d 8e a8 09 be df c5 08 3d 29 7b 0f be
       0.07973621 -0.13443205 0.03339183 -0.14011826
0003c0 57 63 28 bd 5c 6d 35 be 87 64 f0 3d 61 40 23 be
       -0.041110363 -0.17717499 0.11737924 -0.15942527
0003d0 f3 2d f9 3c 96 5e 28 be 3a 40 d5 bd 92 51 76 bd
       0.030417418 -0.16442332 -0.10412641 -0.060136385
0003e0 03 2d 10 be a5 f9 71 be 5e 97 21 be a2 9a 5b be
       -0.1407967 -0.23630388 -0.15780398 -0.21445706
0003f0 ac 7a 3c 3e 6c e8 0d 3e 9d b8 f2 3c dd ca 2c 3e
       0.1840617 0.13858193 0.029629046 0.16874261

transformer_encoder.layers.0.linear2.bias f4 [20]
000000 a4 27 e4 3d 06 a4 43 3c 3a 20 56 3e e4 37 92 3b
       0.11140373 0.011940962 0.20910731 0.004462229
000010 fc 60 0d 3e 39 da f9 3c b3 97 da bc 20 20 05 be
       0.13806528 0.030499564 -0.026683664 -0.13000536
000020 30 7e e0 3a 98 ef 3b bd 0f af 51 3e 9c 17 13 bd
       0.001712745 -0.04588279 0.20476936 -0.035911188
000030 b2 ea 46 3d 12 b7 8b 3d e5 21 0c bc 72 5f 63 bd
       0.048563667 0.06822027 -0.008553003 -0.055510946
000040 36 7c 1c 3e 78 43 5d bd a7 02 41 3e a8 73 e5 bd
       0.15281758 -0.05401942 0.18848668 -0.112037

transformer_encoder.layers.0.norm1.weight f4 [20]
000000 50 c5 ac 3f c9 29 9c 3f eb b7 8b 3f 4f 49 96 3f
       1.3497715 1.2200252 1.0915502 1.1741122
000010 3e a5 80 3f f9 6b 9a 3f 64 22 89 3f 59 7a 6d 3f
       1.0050428 1.2064201 1.071362 0.9276481
000020 bf 0b 83 3f d6 1e 7d 3f 15 bc 7e 3f 6e 00 86 3f
       1.023796 0.98875177 0.9950574 1.0468881
000030 4a 7b 65 3f ea 27 6e 3f 48 ef 7a 3f a0 59 48 3f
       0.8964125 0.93029654 0.98021364 0.78261757
000040 5f c2 71 3f 17 ab 88 3f 17 03 7b 3f 27 b8 7c 3f
       0.9443721 1.0677212 0.9805159 0.98718494

transformer_encoder.layers.0.norm1.bias f4 [20]
000000 2c 34 e7 bc 22 e9 66 3d 0f da 35 3d 52 c8 83 3c
       -0.02822312 0.056374677 0.04439741 0.016086731
000010 12 f7 ca 3c b1 b2 2b 3d 75 44 84 bd 91 88 63 3d
       0.024776015 0.04191846 -0.0645837 0.05555016
000020 31 b0 1f 3c 21 18 68 bd 3d 9b 2b 3d 45 f5 0c bd
       0.009746597 -0.056663636 0.041896094 -0.034413595
000030 da 37 80 3d 85 e0 3a bd cc b8 4d 3d ed 4e 32 bd
       0.06260653 -0.045624275 0.050225064 -0.0435323
000040 33 3e 90 3c 4c bd 70 bd 39 98 44 3d cb 7c 52 bd
       0.017607784 -0.058774278 0.047996733 -0.051388543

transformer_encoder.layers.0.norm2.weight f4 [20]
000000 95 6e b4 3f c7 84 69 3f 19 8f 91 3f 36 96 81 3f
       1.4096247 0.9121823 1.1371795 1.0123966
000010 2d 74 89 3f fe 09 80 3f fa 53 91 3f 0e ac 70 3f
       1.0738579 1.0003049 1.1353753 0.94012535
000020 8c 38 8a 3f e3 15 88 3f 5c bc 76 3f a1 08 8c 3f
       1.0798507 1.0631679 0.96381164 1.0940133
000030 cb de 64 3f e8 97 78 3f b0 b6 7b 3f bd ac 50 3f
       0.89402455 0.9710679 0.98325634 0.8151358
000040 43 00 75 3f 2c 7a 8f 3f 37 93 80 3f b9 ed 89 3f
       0.95703524 1.1209159 1.0044926 1.0775672

transformer_encoder.layers.0.norm2.bias f4 [20]
000000 97 78 3a 3c 9b 15 8d 3d b4 b1 99 3d da 09 a2 3d
       0.01138129 0.068888865 0.07504597 0.07912035
000010 3e 7a 4b 3b 07 ef 87 bb 9a d3 66 bd 74 2e b6 3d
       0.0031048204 -0.0041483673 -0.056354143 0.08895579
000020 7b 20 23 3c 0f 84 73 bd 19 75 12 3d 51 07 e1 bc
       0.009956474 -0.059452113 0.035756204 -0.027469309
000030 9f 0b fe 3c 8f a9 59 bb 4b 14 a6 3d eb cb c6 3c
       0.0310114 -0.0033212637 0.08109339 0.024267158
000040 a2 a8 ae bc 52 d4 74 bd c8 02 48 3d 76 49 2b bd
       -0.021320645 -0.059772797 0.048830777 -0.041818105

transformer_encoder.layers.1.self_attn.in_proj_weight f4 [60, 20]
000000 74 e4 0d be e3 54 8a be 29 1e 5b 3e ab 87 56 3d
       -0.13856679 -0.27017888 0.21398224 0.052375477
000010 66 46 34 3e ce 47 78 3d 91 9b 23 be 9f 03 eb 3d
       0.1760498 0.060615353 -0.15977313 0.114753
000020 e8 16 0f 3d a5 99 4e 3d 79 dc 49 be 6a c8 7b 3e
       0.034933954 0.050439496 -0.1971301 0.2458817
000030 0c 87 8f be 62 a6 37 3e 15 c1 81 3e 6e 04 8b 3e
       -0.2803272 0.17934564 0.25342622 0.27151817
000040 29 cb a8 3d 9e 06 d4 bd 6e 0b e2 bb 4a 70 7e 3c
       0.08241875 -0.10352825 -0.006898335 0.0155297015
000050 b3 aa 67 3e d7 20 8e bc ed ac 7e be 0d bb c7 3d
       0.2262371 -0.017349644 -0.24870653 0.09752474
000060 60 fd 9c 3d bf 22 df 3d 9f 15 28 3e 25 b9 8c bd
       0.07665515 0.10895299 0.16414498 -0.06871251
000070 1c e8 56 3e d9 41 10 bd d5 1d 77 bb 34 87 92 bd
       0.2098698 -0.035219047 -0.003770699 -0.07154694
000080 be d5 cb 3d 5d 7c 97 bd 37 b1 62 3e 66 5c 20 3e
       0.099528775 -0.07396767 0.22137915 0.15660247
000090 f5 13 86 3e 28 ab 9f 3c c5 9e 2c 3d fa da 13 be
       0.261871 0.019490793 0.042143602 -0.14439002
0000a0 62 b3 5b 3e a0 51 7d be ce c5 c4 3c b8 7f 8c bd
       0.21455148 -0.24738169 0.024020102 -0.06860298
0000b0 4a f5 75 3e bb 22 6b be aa f4 2a 3e ed 88 84 be
       0.24019352 -0.22962467 0.16694894 -0.25885716
0000c0 ca 8f b8 3c 3d 95 dc bd d2 f6 3d bd 3a 0c 44 bd
       0.022529501 -0.107706524 -0.046377964 -0.047863223
0000d0 e5 d0 04 3d f8 4f 46 be 4c a3 c9 3d 02 9d 28 be
       0.03242578 -0.19366443 0.098455995 -0.16466144
0000e0 7a 1f 73 bd 33 70 9c be cc d4 ad bd 19 ef c2 3c
       -0.05935619 -0.3055435 -0.084878534 0.023795651
0000f0 dc a4 54 3d bc 86 57 3d 4a 1c 2b be 41 cc 8c 3d
       0.051915035 0.052618727 -0.1671001 0.06874896
000100 a7 31 7e 3e bd 84 30 3e 83 9f ba bd d3 ef 10 3e
       0.24823628 0.17238136 -0.09112456 0.14153986
000110 45 8c 7a 3c a2 ca 25 3c b5 2f 64 3d bc 11 fa 3d
       0.015292232 0.010119112 0.05570956 0.12210414
000120 88 2c 6b be cb 63 af bd ea ea 88 3c b9 60 2d 3e
       -0.22966206 -0.08563956 0.016713578 0.16931428
000130 51 1d 4c be 03 0a e6 bd 6f 5b 3c bc 53 ea b0 3d
       -0.19933058 -0.11232378 -0.011496409 0.08638444
000140 d1 c3 88 be b5 af 18 3e 20 e2 35 be 51 e4 6c 3e
       -0.26711896 0.14910777 -0.17762041 0.23133971
000150 2c 96 74 bd b4 02 48 bd ab 7f c7 3b b0 14 a1 ba
       -0.059713528 -0.048830703 0.0060882173 -0.001228949
000160 58 4f 66 3e d4 84 22 3e cb 3e 6b be 20 55 22 3e
       0.22491205 0.15870982 -0.22973172 0.15852785
000170 b4 b6 36 3e de 74 98 bd 77 7b 4c be aa 0e b0 bd
       0.17843133 -0.07444166 -0.19968973 -0.08596547
000180 9e 67 63 bd 37 5b 47 3d 95 0d de 3c 3f b4 62 3e
       -0.05551874 0.048670974 0.027106086 0.22139071
000190 23 a6 81 bd aa 56 4a bd be 9e 50 3e 8a 74 7d be
       -0.06330516 -0.049399056 0.20373055 -0.24751487
0001a0 d2 31 c6 3d 84 4a 24 3d 09 63 b1 3c 52 51 4a 3e
       0.09677471 0.040110126 0.021653669 0.19757584
0001b0 84 ac 39 be f9 fa 1f be 73 f8 cc 3d a7 b8 50 3e
       -0.18132216 -0.15623082 0.100083254 0.2038294
0001c0 5a a7 2f bd 9b 45 4a bd e3 f9 76 be 61 68 14 3e
       -0.04288421 -0.049382787 -0.24118762 0.14492942
0001d0 0c 80 13 be c7 ec 5b be 6c df 8c bd 9f 87 43 bd
       -0.14404315 -0.21477042 -0.06878552 -0.04773676
0001e0 81 51 96 bd be bd dd 3d 5a 9d ed 3d a8 42 3c 3d
       -0.073397644 0.10827206 0.11602278 0.045962006
0001f0 b6 37 2d be 38 22 ff bd e0 3c 3b bd 6a bf 04 be
       -0.16915783 -0.124576986 -0.04571235 -0.12963644
000200 b2 5d 34 be 74 e7 0c 3e 87 3c f0 bd 76 60 ad 3d
       -0.17613867 0.13760167 -0.11730295 0.08465664
000210 bd 41 84 bd 9d 2a 04 3e d3 28 2f be d5 55 47 3e
       -0.06457851 0.1290688 -0.17105417 0.19466336
000220 37 01 2f 3e 2e 1d 03 be 29 f8 8d bb ee 1f 04 be
       0.17090307 -0.128041 -0.0043325615 -0.12902805
000230 97 cc 84 3d 9a 28 4e be 8a d9 19 3d 76 21 ad 3d
       0.06484335 -0.20132676 0.037560977 0.08453648
000240 28 c3 a3 3e 3c eb ea bc a3 ae 80 be 0f 4a 0a bd
       0.3198483 -0.028676622 -0.25133237 -0.033762034
000250 2e a7 26 be ae a9 04 be b4 c0 79 3d f8 c5 5c be
       -0.16274711 -0.12955353 0.06097479 -0.21559894
000260 95 b8 24 3e 22 f3 f9 3c 84 20 39 be 43 72 2c be
       0.16086037 0.030511443 -0.1807881 -0.16840462
000270 43 dd c4 3d 84 8b ee bc e7 e8 8a bd 00 da fe bd
       0.09612515 -0.02911926 -0.06782704 -0.12443924
000280 0f b7 2d 3e fd 94 80 bd 09 95 5b bd 71 a7 31 3e
       0.16964363 -0.06278417 -0.053608928 0.1734903
000290 8e c1 fd 3d 86 6c c1 bd fa a2 7b be f1 c1 3f 3e
       0.12390433 -0.09444527 -0.2457389 0.18726327
0002a0 f0 a5 75 bb a9 a9 20 3e f6 a0 2f bd 01 c4 26 3d
       -0.003748294 0.1568972 -0.042878114 0.040714268
0002b0 9d a3 5f 3e ce 03 0d be dc 8f e3 3d b1 2e 24 3e
       0.21839757 -0.13770983 0.111114234 0.16033436
0002c0 39 fb 0f 3e 05 db 5a be 3b 41 82 3e 60 ce 15 3e
       0.14060678 -0.21372612 0.25440392 0.14629507
0002d0 7b 31 1a be c3 57 85 bd eb 27 fc 3d 7d 6d fc 3d
       -0.15057938 -0.0651088 0.12312301 0.12325571
0002e0 fc 9d 48 3e 3e 73 4e be f0 a4 cb bd 78 a8 1d 3e
       0.19591516 -0.20161149 -0.09943569 0.15396297
0002f0 41 6d cf bd 05 de 0b be b2 27 19 be 8e fc d8 bd
       -0.101282604 -0.13658912 -0.14956549 -0.10595046
000300 61 41 3a 3e e3 0f f0 bc 97 d8 b9 3c 28 f3 9d 3b
       0.18189003 -0.02930445 0.022686286 0.0048202462
000310 e0 ef 36 be e6 83 8a bd bf 65 9c bd fb 86 c2 3c
       -0.17864943 -0.06763439 -0.07636594 0.023746004
000320 d6 18 0f be 60 96 69 be 6d 54 a9 bb b1 ee 14 be
       -0.13974318 -0.2281127 -0.005167535 -0.14544179
000330 38 42 b3 3c 35 4d bb 3d 88 e6 82 3d 7b 6d 2b be
       0.021882161 0.091455854 0.063916266 -0.16740982
000340 37 4a 3b 3e 93 c0 2e 3e 5e 3f d1 3d 12 39 28 bc
       0.1829003 0.17065649 0.102171645 -0.010267513
000350 42 9b 45 bc 9f 1e a7 3c ad ed 92 bd f5 e7 42 bb
       -0.012060942 0.020400343 -0.07174239 -0.0029740308
000360 3e aa d4 3c 6d 49 80 3e f7 fa e4 3d 0a e8 e5 3d
       0.025960084 0.2505602 0.1118068 0.112258986
000370 98 76 f0 bc 86 df 74 be 80 0c 89 be 7b 8f 5c be
       -0.029353425 -0.23913392 -0.2676735 -0.21539108
000380 b0 13 3e 3e f5 fb b9 bd 6e 59 a4 bd 6c ed 26 3d
       0.18562198 -0.0908126 -0.0802487 0.040753767
000390 f4 b2 36 3c c7 35 51 3e 6c 4e 04 be 14 42 c6 3c
       0.011151064 0.2043067 -0.1292054 0.02420143
0003a0 1b 06 20 be fe d3 7e bd 2c 7c 34 be 40 6c 0e 3e
       -0.15627329 -0.06221389 -0.17625493 0.13908482
0003b0 1a 7b a2 3d 02 f1 0b 3d 39 25 69 3b 6a 63 8c be
       0.07933636 0.03416539 0.0035575165 -0.27419597
0003c0 08 da 9a 3e 0e 91 f0 3d 0d 03 70 3e 5c 87 85 be
       0.3024447 0.11746417 0.23438664 -0.26079834
0003d0 5d 28 3b be fd e7 ed bd 71 71 81 be d1 2b a9 3d
       -0.18277116 -0.11616514 -0.2528186 0.082603104
0003e0 a7 2d 91 bd be b7 33 be 5b f2 0c 3e 82 87 42 3c
       -0.070887856 -0.17550561 0.13764326 0.011873128
0003f0 e8 e8 8a 3e 9a 5d 5e 3e 51 68 8a 3e b5 17 04 bd
       0.27130818 0.21715394 0.27032712 -0.03224917

transformer_encoder.layers.1.self_attn.in_proj_bias f4 [60]
000000 fa 61 51 3c 34 a3 0d 3c b7 97 f3 3c 49 71 8f bc
       0.012779707 0.008644868 0.02973543 -0.017510073
000010 b3 bd 97 bc 62 43 5d 3d ba b4 05 bb 41 bd 9b 3c
       -0.018523073 0.05401934 -0.002040191 0.019011142
000020 5a 19 11 3d b9 b9 a8 ba 00 35 35 bc 02 e8 13 bd
       0.035424568 -0.0012872732 -0.0110599995 -0.03610993
000030 d9 8d b3 3b bf 29 19 bb 69 45 f4 3a 42 90 0b bb
       0.005479556 -0.002337083 0.0018636408 -0.00212957
000040 1d dd 1e bc e5 0e 8e bd 87 76 81 bb 85 c9 46 3d
       -0.009696272 -0.06936435 -0.003950897 0.048532028
000050 5f 0c 7b b0 cf cc d2 b0 51 80 96 30 d1 58 b8 b0
       -9.133085e-10 -1.5337721e-09 1.0950406e-09 -1.3413005e-09
000060 68 ce d2 b0 1f 61 69 31 10 66 5c 30 24 e1 f1 31
       -1.5338175e-09 3.396117e-09 8.0180573e-10 7.0396187e-09
000070 fc cc bb ad 2d d2 98 2f a3 7d f0 b0 cd 44 67 b1
       -2.135047e-11 2.7797978e-10 -1.7498006e-09 -3.3654033e-09
000080 f9 1c 24 30 d0 e1 13 b0 38 38 85 b1 e8 36 2e b1
       5.9704025e-10 -5.379919e-10 -3.877201e-09 -2.5351543e-09
000090 fd 24 19 31 7a c9 61 b1 d3 ca 49 b0 d5 22 ee b0
       2.2285456e-09 -3.2856335e-09 -7.3411605e-10 -1.7326679e-09
0000a0 0a c2 2f 39 60 f3 53 bd 1e 81 c4 3c 45 b4 32 bc
       0.00016761586 -0.051745772 0.02398735 -0.010907237
0000b0 5b ae 8b 3d cf d3 37 bc da da 06 3c 9e ac db 3c
       0.06820365 -0.011219933 0.008230889 0.026815709
0000c0 9e cc 5b 3d b8 3c 31 bc 77 6a 72 3c 91 b9 11 3c
       0.053661935 -0.010817699 0.014795891 0.00889434
0000d0 09 82 9e bc ea 2e b7 bc b3 dc 6f bd af ac a2 bc
       -0.019349115 -0.022361238 -0.058560085 -0.019857733
0000e0 97 72 25 3d 85 0b 0d 3c 89 1d 04 bd c8 17 54 3c
       0.040392485 0.0086087035 -0.03225473 0.012945123
