model_epoch_120.pt (torch, 432002 bytes, 28 tensors)

pos_encoder.pe f4 [5000, 1, 20]
0.0 1.0 0.0 1.0 0.0 1.0 0.0 1.0
0.0 1.0 0.0 1.0 0.0 1.0 0.0 1.0
0.0 1.0 0.0 1.0 0.841471 0.54030234 0.38767424 0.92179644
0.15782663 0.9874668 0.06305388 0.9980101 0.025116224 0.9996845 0.009999833 0.99995
0.0039810613 0.9999921 0.0015848922 0.99999875 0.0006309573 0.9999998 0.00025118855 0.99999994
0.9092974 -0.41614684 0.71471345 0.69941735 0.31169716 0.9501815 0.12585683 0.99204844
0.0502166 0.99873835 0.019998666 0.9998 0.00796206 0.9999683 0.0031697804 0.999995
0.0012619144 0.9999992 0.0005023771 0.9999999 0.14112 -0.9899925 0.92996645 0.36764446
0.45775455 0.8890786 0.18815888 0.9821386 0.07528529 0.99716204 0.0299955 0.99955004
0.011942931 0.99992865 0.0047546607 0.9999887 0.001892871 0.9999982 0.00075356563 0.9999997
-0.7568025 -0.6536436 0.99976605 -0.02163067 0.5923377 0.8056898 0.24971214 0.96832013
0.10030649 0.9949566 0.039989334 0.9992001 0.015923616 0.9998732 0.006339529 0.9999799
0.0025238267 0.99999684 0.0010047541 0.9999995 -0.9589243 0.2836622 0.91319513 -0.40752262
0.7120732 0.7021053 0.3102716 0.95064795 0.12526439 0.9921234 0.049979165 0.99875027
0.019904045 0.9998019 0.007924382 0.9999686 0.0031547816 0.99999505 0.0012559424 0.9999992
-0.2794155 0.96017027 0.683794 -0.7296751 0.81395954 0.5809216 0.3695962 0.9291925
0.15014328 0.98866427 0.059964005 0.99820054 0.02388416 0.99971473 0.009509213 0.99995476
0.0037857352 0.99999285 0.0015071308 0.99999887 0.6569866 0.75390226 0.34744254 -0.9377013
0.89544296 0.4451763 0.42744997 0.904039 0.17492743 0.98458135 0.06994285 0.997551
0.027863897 0.99961174 0.011094023 0.9999385 0.004416687 0.9999902 0.001758319 0.99999845
0.98935825 -0.14550003 -0.04325122 -0.9990642 0.9544809 0.29827204 0.48360258 0.8752877
0.1996012 0.97987723 0.07991469 0.99680173 0.031843193 0.9994929 0.012678803 0.9999196
0.0050476375 0.99998724 0.002009507 0.999998 0.4121185 -0.91113025 -0.42718017 -0.9041665
0.9895935 0.14389123 0.53783053 0.843053 0.22414905 0.9745549 0.089878544 0.9959527
0.03582198 0.9993582 0.014263553 0.99989825 0.0056785857 0.99998385 0.0022606952 0.99999744
-0.5440211 -0.8390715 -0.7442953 -0.6678507 0.99990064 -0.014096433 0.58991814 0.80746305
0.24855547 0.9686177 0.099833414 0.9950042 0.039800204 0.9992077 0.015848266 0.9998744
0.0063095316 0.9999801 0.002511883 0.99999684 -0.9999902 0.004425698 -0.9449973 -0.32707813
0.98514396 -0.17173062 0.6396579 0.7686597 0.2728051 0.96206933 0.1097783 0.9939561
0.043777797 0.9990413 0.01743294 0.999848 0.006940475 0.9999759 0.0027630706 0.9999962
-0.53657293 0.84385395 -0.99789494 0.06485153 0.9456933 -0.32506028 0.68685204 0.7267973
0.29688257 0.954914 0.119712204 0.99280864 0.047754694 0.9988591 0.019017566 0.99981916
00000000: 0000 0000 0000 803f 0000 0000 0000 803f
00000010: 0000 0000 0000 803f 0000 0000 0000 803f
00000020: 0000 0000 0000 803f 0000 0000 0000 803f
00000030: 0000 0000 0000 803f 0000 0000 0000 803f
00000040: 0000 0000 0000 803f 0000 0000 0000 803f
00000050: a56a 573f 4151 0a3f 3d7d c63e dafa 6b3f
00000060: 4e9d 213e a0ca 7c3f 6522 813d 977d 7f3f
00000070: 8ac0 cd3c 53eb 7f3f 57d6 233c b9fc 7f3f
00000080: 9073 823b 7bff 7f3f 28bc cf3a ebff 7f3f
00000090: d466 253a fdff 7f3f f5b1 8339 ffff 7f3f
000000a0: b7c7 683f 3311 d5be 76f7 363f 040d 333f
000000b0: c596 9f3e 183f 733f 9de0 003e e3f6 7d3f
000000c0: ecaf 4d3d 51ad 7f3f 3ed4 a33c e5f2 7f3f
000000d0: 4d73 023c ecfd 7f3f 17bc 4f3b acff 7f3f
000000e0: d266 a53a f3ff 7f3f f5b1 033a feff 7f3f
000000f0: c381 103e 2670 7dbf 4812 6e3f e53b bc3e
00000100: ce5e ea3e a89a 633f b9ac 403e 6f6d 7b3f
00000110: 2d2f 9a3d 0346 7f3f 1fb9 f53c 83e2 7f3f
00000120: 49ac 433c 53fb 7f3f fccc 9b3b 42ff 7f3f
00000130: 361a f83a e2ff 7f3f ef8a 453a fbff 7f3f
00000140: cfbd 41bf 3055 27bf abf0 7f3f ce32 b1bc
00000150: 72a3 173f b041 4e3f 8ab4 7f3e d4e3 773f
00000160: 7d6d cd3d 7ab5 7e3f dbcb 233d 94cb 7f3f
00000170: 3e72 823c b1f7 7f3f d3bb cf3b affe 7f3f
00000180: c966 253b cbff 7f3f f4b1 833a f8ff 7f3f
00000190: 107c 75bf 2c3c 913e 28c7 693f cea6 d0be
000001a0: 6e4a 363f 2cbd 333f ebdb 9e3e aa5d 733f
000001b0: 4f45 003e cdfb 7d3f f4b6 4c3d 19ae 7f3f
000001c0: cf0d a33c 04f3 7f3f 44d5 013c f1fd 7f3f
000001d0: 74c0 4e3b adff 7f3f 6f9e a43a f3ff 7f3f
000001e0: 8c0f 8fbe b8cd 753f 200d 2f3f fdcb 3abf
000001f0: a75f 503f 47b7 143f b73b bd3e 8fdf 6d3f
00000200: 29bf 193e 1a19 7d3f d19c 753d 128a 7f3f
00000210: b7a8 c33c 4eed 7f3f 88cc 1b3c 09fd 7f3f
00000220: 191a 783b 88ff 7f3f eb8a c53a edff 7f3f
00000230: 4630 283f bdff 403f fde3 b13e 310d 70bf
00000240: c03b 653f 26ee e33e b9da da3e 1a6f 673f
00000250: 2d20 333e 860d 7c3f 323e 8f3d 815f 7f3f
00000260: d442 e43c 8ee6 7f3f b4c3 353c f8fb 7f3f
00000270: dbb9 903b 5cff 7f3f 6577 e63a e6ff 7f3f
00000280: 9546 7d3f f6fd 14be 3128 31bd acc2 7fbf
00000290: dc58 743f 1db7 983e c29a f73e db12 603f
000002a0: 4264 4c3e 3cd9 7a3f 50aa a33d 662e 7f3f
000002b0: 026e 023d c4de 7f3f c1ba 4f3c bbfa 7f3f
000002c0: a766 a53b 2aff 7f3f efb1 033b deff 7f3f
000002d0: 3201 d33e d53f 69bf 5cb7 dabe 7577 67bf
000002e0: 0056 7d3f 3958 133e 43af 093f 52d2 573f
000002f0: 5487 653e 6e7c 793f 3e12 b83d c2f6 7e3f
00000300: 12ba 123d f0d5 7f3f adb1 693c 55f9 7f3f
00000310: 6e13 ba3b f1fe 7f3f 2c28 143b d5ff 7f3f
00000320: f844 0bbf 64cd 56bf 238a 3ebf 43f8 2abf
00000330: 7df9 7f3f baf4 66bc e004 173f e6b5 4e3f
00000340: 5385 7e3e 54f7 773f 7675 cc3d 98b8 7e3f
00000350: 8a05 233d 13cc 7f3f 39d4 813c c5f7 7f3f
00000360: 30c0 ce3b b2fe 7f3f 679e 243b cbff 7f3f
00000370: 5cff 7fbf 7205 913b 58eb 71bf c976 a7be
00000380: 6532 7c3f 27da 2fbe 9fc0 233f e2c6 443f
00000390: 1cad 8b3e 2d4a 763f 72d3 e03d e873 7e3f
000003a0: 5950 333d 2cc1 7f3f 86cf 8e3c 0af6 7f3f
000003b0: ed6c e33b 6cfe 7f3f a214 353b c0ff 7f3f
000003c0: d85c 09bf d006 583f 0b76 7fbf e1d0 843d
000003d0: f518 723f 4d6e a6be 89d5 2f3f 630f 3a3f
000003e0: fe00 983e 3e75 743f ac2b f53d b528 7e3f
000003f0: 6d9a 433d 3bb5 7f3f baca 9b3c 26f4 7f3f

transformer_encoder.layers.0.self_attn.in_proj_weight f4 [60, 20]
-0.14929588 -0.23754075 0.21554375 0.05989831 0.18705732 0.08224253 -0.18323758 0.12365607
0.010341164 0.044252384 -0.20160736 0.23925872 -0.27073014 0.18392378 0.26248354 0.26221573
0.075673796 -0.1105335 -0.010563043 -0.012911307 0.24380472 -0.064454034 -0.26165128 0.101527184
0.05807537 0.10595755 0.16345982 -0.08577851 0.23279324 -0.042650297 0.00031436502 -0.09467235
0.10081454 -0.1044303 0.22918935 0.15987523 0.26362717 0.021474225 0.036521867 -0.12173219
0.14644244 -0.1423061 0.0154050095 -0.0697798 0.24378404 -0.20089863 0.17246372 -0.22994943
-0.0055702105 -0.08415132 -0.05800955 -0.04411031 0.04801627 -0.15125477 0.10620972 -0.17829017
-0.06382145 -0.28466913 -0.08759149 -0.029764598 0.104661755 -0.016417522 -0.1413429 0.087024055
0.21359827 0.15466443 -0.11007244 0.104986876 0.030498965 -0.010850718 0.06114614 0.12431922
-0.24115446 -0.13163789 0.029374752 0.19035332 -0.18286344 -0.1239199 -0.016264435 0.12963507
-0.23845856 0.108662255 -0.17836784 0.25410596 -0.07347867 -0.076157175 -0.010760457 -0.019939473
0.234275 0.1320628 -0.22867644 0.13543338 0.16372119 -0.11049002 -0.1996148 -0.08860421
-0.055032294 0.03975906 0.020028435 0.25379863 -0.06829338 -0.051774327 0.21122056 -0.22384982
0.035141107 0.036055997 0.060151022 0.18042655 -0.19177288 -0.12188816 0.06457502 0.21195701
-0.04387345 -0.0811338 -0.23267111 0.17418411 -0.14843428 -0.16357376 -0.114328295 -0.016037002
-0.10681455 0.09720718 0.24573287 0.017628174 -0.18577716 -0.13757677 -0.03787342 -0.13845451
-0.055034667 0.13141233 -0.08179456 0.12105013 -0.03419556 0.15197323 -0.12389713 0.24133
0.2207398 -0.13609807 0.0025552923 -0.11115346 0.23155251 -0.58305323 0.05471551 0.012748534
0.29240245 -0.025199346 -0.19669974 -0.055793412 -0.107601725 -0.06696154 0.0582426 -0.17697972
0.16177148 -0.02943063 -0.21288486 -0.13916463 0.10956197 0.0032219084 -0.032365903 -0.10441634
0.11782714 0.11497358 -0.0015637141 0.19992955 0.11527561 -0.08269394 -0.28047475 0.1917653
0.0016340454 0.12493666 -0.028991023 0.06692827 0.22299138 -0.07073808 0.14728817 0.1912739
0.15388075 -0.23286098 0.25193205 0.15254618 -0.07101982 -0.1991845 0.061684646 0.10277792
0.18333659 -0.1625029 -0.082529604 0.13675441 -0.16599289 -0.10478769 -0.20713265 -0.12549603
0.16251232 -0.07406142 -0.022266002 -0.012281198 -0.20920308 -0.042655308 -0.06534914 0.012766452
-0.1696718 -0.26272023 0.045749016 -0.19802012 -0.008370217 0.1425443 0.021403192 -0.19793841
0.21574421 0.14524817 0.122837864 0.034738954 -0.033399712 0.014609474 -0.048410274 0.023182472
0.05731581 0.23226324 0.11792735 0.13247846 0.021674817 -0.29743597 -0.19697279 -0.23125446
0.18847468 -0.09921768 -0.15251568 0.04885919 0.02769844 0.15146236 -0.100739054 0.048682734
-0.20076379 -0.072398126 -0.17612568 0.1245617 0.10349019 -0.022623036 0.017534552 -0.2716934
0.3023011 0.13085802 0.22117704 -0.23045757 -0.18976273 -0.14529863 -0.23443966 0.091391675
-0.08194213 -0.16577904 0.1202908 -0.011948639 0.27350613 0.20416927 0.26309475 -0.05093272
00000000: 05e1 18be e23d 73be 80b7 5c3e ee57 753d
00000010: f48b 3f3e c66e a83d a2a2 3bbe 653f fd3d
00000020: fc6d 293c fd41 353d 2972 4ebe 3d00 753e
00000030: 249d 8abe 8456 3c3e 3e64 863e 2441 863e
00000040: ddfa 9a3d 635f e2bd 9d10 2dbc f289 53bc
00000050: f2a7 793e 7a00 84bd 28f7 85be 7ced cf3d
00000060: 70e0 6d3d 4600 d93d 0362 273e a5ac afbd
00000070: 5a61 6e3e 14b2 2ebd 5cd1 a439 94e3 c1bd
00000080: db77 ce3d 8edf d5bd 9db0 6a3e 55b6 233e
00000090: 24fa 863e b7ea af3c f497 153d ba4e f9bd
000000a0: 02f5 153e b1b8 11be 4b65 7c3c b6e8 8ebd
000000b0: 86a2 793e 5fb8 4dbe 549a 303e dd77 6bbe
000000c0: 5086 b6bb 8757 acbd 6c9b 6dbd 03ad 34bd
000000d0: b5ac 443d 88e2 1abe 7b84 d93d b391 36be
000000e0: d2b4 82bd 27c0 91be 2b63 b3bd e3d4 f3bc
000000f0: e758 d63d 0a7e 86bc 31bc 10be ab39 b23d
00000100: 81b9 5a3e 5a60 1e3e a96d e1bd 5c03 d73d
00000110: f7d8 f93c 36c7 31bc 6074 7a3d 139b fe3d
00000120: 32f1 76be 15cc 06be 52a3 f03c fbeb 423e
00000130: 8e40 3bbe b7c9 fdbd fe3c 85bc 0ebf 043e
00000140: 7b2e 74be 518a de3d 0fa6 36be 2d1a 823e
00000150: fc7b 96bd 4bf8 9bbd a14c 30bc 1b58 a3bc
00000160: c9e5 6f3e 783b 073e 282a 6abe 0caf 0a3e
00000170: 87a6 273e 9748 e2bd d267 4cbe 2076 b5bd
00000180: 8b69 61bd 65da 223d ac12 a43c e5f1 813e
00000190: 66dd 8bbd 5111 54bd 344a 583e e338 65be
000001a0: 1ff0 0f3d 74af 133d eb60 763d bdc1 383e
000001b0: 1c60 44be 80a0 f9bd e83f 843d 420b 593e
000001c0: a6b4 33bd 7a29 a6bd 5641 6ebe 525d 323e
000001d0: 28ff 17be e17f 27be f424 eabd 0860 83bc
000001e0: 96c1 dabd 8f14 c73d 66a1 7b3e f668 903c
000001f0: 5e3c 3ebe ede0 0cbe 2921 1bbd 05c7 0dbe
00000200: 086c 61bd f490 063e e883 a7bd 21e9 f73d
00000210: a510 0cbd df9e 1b3e c7bd fdbd 361f 773e
00000220: 9d09 623e 4b5d 0bbe b176 273b 6da4 e3bd
00000230: 1a1c 6d3e fa42 15bf 5f1d 603d 3adf 503c
00000240: c6b5 953e dc6e cebc a86b 49be a287 64bd
00000250: 4b5e dcbd 2223 89bd cb8f 6e3d 2c3a 35be
00000260: 6ca7 253e 8118 f1bc 7dfe 59be 2c81 0ebe
00000270: 0762 e03d a726 533b 1c92 04bd 3cd8 d5bd
00000280: 5b4f f13d 4577 eb3d 8af5 ccba 55ba 4c3e
00000290: 9e15 ec3d 715b a9bd 639a 8fbe 1f5e 443e
000002a0: 772d d63a cbde ff3d 957e edbc b011 893d
000002b0: da57 643e 20df 90bd b6d2 163e 4edd 433e
000002c0: ea92 1d3e 1c73 6ebe 3dfd 803e 1135 1c3e
000002d0: d772 91bd 06f7 4bbe 0aa9 7c3d 3b7d d23d
000002e0: 96bc 3b3e 2967 26be 4805 a9bd 5909 0c3e
000002f0: 0afa 29be ee9a d6bd 951a 54be 0882 00be
00000300: a169 263e 84ad 97bd 3167 b6bc 1437 49bc
00000310: 5539 56be 55b7 2ebd c5d5 85bd 612a 513c
00000320: 72be 2dbe 4483 86be 5263 3b3d c9c5 4abe
00000330: 3c23 09bc 22f7 113e bf55 af3c 5eb0 4abe
00000340: 0dec 5c3e f0bb 143e 6b92 fb3d 6f4a 0e3d
00000350: 23ce 08bd 935c 6f3c da49 46bd 2be9 bd3c
00000360: fcc3 6a3d 6ad6 6d3e e583 f13d 6fa8 073e
00000370: 638f b13c 8749 98be 3cb3 49be f8cd 6cbe
00000380: 82ff 403e a432 cbbd 122d 1cbe 9320 483d
00000390: d7e7 e23c f318 1b3e 4750 cebd 8c67 473d
000003a0: 0695 4dbe 7845 94bd 4a5a 34be 341a ff3d
000003b0: aaf2 d33d f253 b9bc 9fa4 8f3c 661b 8bbe
000003c0: 36c7 9a3e a5ff 053e 3c7c 623e 12fd 6bbe
000003d0: 2951 42be 2ac9 14be f310 70be 8f2b bb3d
000003e0: 47d1 a7bd fbc1 29be 065b f63d 39c4 43bc
000003f0: ff08 8c3e c011 513e 5bb4 863e d49e 50bd

transformer_encoder.layers.0.self_attn.in_proj_bias f4 [60]
-0.017539361 0.0033976014 -0.004771357 0.0012882415 -0.009396067 0.01744637 0.039636277 0.042359155
0.034084253 -0.009148526 0.022163415 -0.0137091875 -0.01945451 -0.024570752 0.018952051 0.010057087
-0.010118338 -0.04166935 0.0061252234 0.05100036 -2.7209717e-09 8.9934044e-10 7.936048e-12 -2.3126039e-09
1.8997852e-09 1.6921229e-08 5.837982e-09 3.911058e-09 8.336772e-09 4.567703e-09 1.345041e-10 3.876056e-10
2.692919e-10 -8.464429e-10 -3.8410533e-09 3.471878e-09 -5.761887e-09 3.594746e-09 2.9061928e-09 2.601959e-09
-0.047980998 0.051415566 -0.024808671 -0.016155897 0.05799512 0.08595037 0.0076567233 0.064493194
0.055371832 0.008839992 -0.017491855 0.013738257 -0.06717181 0.07178569 0.017806856 0.07034847
0.042494368 0.04227425 0.011293054 -0.014826912
00000000: b5ae 8fbc 4baa 5e3b 0b59 9cbb 36da a83a
00000010: f6f1 19bc b1eb 8e3c a659 223d cb80 2d3d
00000020: ee9b 0b3d b3e3 15bc 0d90 b53c 809c 60bc
00000030: 115f 9fbc 9a48 c9bc 5541 9b3c 7bc6 243c
00000040: 63c7 25bc 7bad 2abd 19b6 c83b c1e5 503d
00000050: d7fb 3ab1 7535 7730 c89c 0b2d c2eb 1eb1
00000060: 608d 0231 2d5a 9132 6f97 c831 0862 8631
00000070: 8339 0f32 f1f1 9c31 8ae3 132f a316 d52f
00000080: 770b 942f 20ab 68b0 43fa 83b1 ec95 6e31
00000090: 18fa c5b1 7107 7731 49b6 4731 26ce 3231
000000a0: b987 44bd 2199 523d 8e3b cbbc 5f59 84bc
000000b0: 4a8c 6d3d bf06 b03d 40e5 fa3b 0215 843d
000000c0: 93cd 623d 9dd5 103c 144b 8fbc 6d16 613c
000000d0: 6091 89bd 6004 933d afdf 913c dc12 903d
000000e0: 930e 2e3d c427 2d3d 8006 393c 94ec 72bc

transformer_encoder.layers.0.self_attn.out_proj.weight f4 [20, 20]
0.13067023 -0.1159412 -0.09213396 0.15908211 0.27077103 0.06674328 0.44745627 0.12501973
-0.061184846 0.07707969 -0.18668646 0.05164574 -0.009895407 -0.022054061 0.080988124 -0.37334397
0.13628133 0.09421242 0.37521395 0.101315044 0.14849517 -0.08251044 0.07210996 -0.058239512
0.09213475 -0.061311487 -0.28075147 -0.17427702 -0.15127283 -0.07478977 -0.041429866 0.0680188
0.12754108 -0.20108718 -0.09961465 0.07181432 -0.07897681 0.053913206 0.03995455 -0.09569169
-0.15569988 -0.034822244 -0.092244714 -0.14855316 0.17146344 -0.15764017 -0.19374217 0.018017152
-0.21823326 -0.039300922 -0.13498911 -0.15193637 0.015715724 0.07961528 0.030681057 -0.18163075
0.14643475 -0.11079491 0.100551896 -0.22752862 0.0539979 -0.043891165 0.015988104 0.008874692
0.20078547 -0.26366994 0.11514336 -0.019171957 0.13009061 0.07408788 0.003030069 -0.1146347
0.12306933 0.060833164 0.32025135 -0.14939933 -0.09817505 0.086823426 3.3343018e-05 0.27579558
-0.04516678 0.10532246 -0.21948591 -0.19251883 -0.03153669 0.001754642 0.19673996 -0.039247327
0.1748747 0.04948383 -0.017473266 0.05229846 -0.20915815 0.21738984 -0.092565045 -0.15593709
0.060423497 0.049537692 0.10495788 -0.12946881 0.2617529 0.08157979 -0.20585759 -0.016914217
-0.081778996 -0.085024424 -0.3648096 -0.17268108 -0.028485468 0.22562905 -0.21919473 -0.010128355
0.0060942043 0.016168803 0.050803557 0.17118038 -0.044039983 -0.04528354 0.16993305 -0.16103087
0.061911773 -0.10304328 -0.122828215 0.09124858 0.21035399 -0.21118106 0.17887062 0.054716878
0.22502075 0.14950871 0.07773248 0.039869003 0.20288253 -0.13450293 -0.16487046 0.18736698
0.021598073 0.06830233 -0.14997143 -0.09916878 0.082222424 -0.13134861 0.14394556 -0.07342668
0.11370702 -0.06145916 -0.08683274 0.11095739 0.12298206 -0.10911184 -0.16896345 -0.18301012
0.13164921 -0.05695442 -0.07616061 -0.070228636 0.0817315 0.14714973 -0.0420981 -0.076930024
0.024301615 0.19615243 0.19319336 0.014151674 -0.0935568 0.055323 -0.054105338 0.22133331
0.0022543578 -0.034354493 -0.17668691 -0.10748682 -0.0718702 0.14728089 0.036459733 0.19511011
-0.020690404 0.07259235 0.10926603 -0.2738002 0.15728246 -0.16397184 0.22302176 -0.12463694
0.23630331 -0.111040965 0.06004959 0.056833006 0.23518698 -0.14702636 0.00047085067 0.06827167
-0.1748482 -0.10429416 -0.025382131 0.18229082 -0.15107949 0.13123412 -0.20288748 -0.15538605
0.23740804 -0.17785975 0.11073848 -0.050728742 0.10609351 -0.003154406 0.17417671 0.033958424
-0.16744417 -0.022992104 0.0013240956 -0.09057138 0.010995834 0.043690927 -0.006368866 0.20114432
0.007844698 0.19029267 -0.020610781 0.08756228 0.15317596 0.08818309 -0.006454909 -0.1909679
0.06380241 -0.24342366 -0.2726447 0.05440083 0.22845542 -0.024060993 -0.036108214 -0.0035452084
-0.10439167 0.022649905 -0.038030338 0.20472425 -0.32385325 -0.17204818 0.009074313 0.023201572
-0.1675543 -0.09951278 0.30893603 -0.17145884 -0.102449454 0.036959466 0.065012015 0.10214545
-0.2845672 0.1628512 0.14173202 -0.033462007 -0.03296478 0.21193297 -0.0072102095 0.2524104
00000000: 6bce 053e 9472 edbd bbb0 bcbd 6ce6 223e
00000010: 80a2 8a3e b3b0 883d fd18 e53e 2c05 003e
00000020: f69c 7abd f5db 9d3d bc2a 3fbe 7c8a 533d
00000030: 5820 22bc b8aa b4bc 1add a53d f126 bfbe
00000040: 558d 0b3e 71f2 c03d 0b1c c03e 437e cf3d
00000050: 1e0f 183e 3cfb a8bd 63ae 933d 8e8c 6ebd
00000060: 25b1 bc3d c121 7bbd a8be 8fbe ad75 32be
00000070: 44e7 1abe 612b 99bd 5db2 29bd 714d 8b3d
00000080: 219a 023e cce9 4dbe c402 ccbd 6313 933d
00000090: 98be a1bd 18d4 5c3d 62a7 233d 01fa c3bd
000000a0: ca6f 1fbe c5a1 0ebd ccea bcbd 521e 18be
000000b0: 1d94 2f3e 6d6c 21be 5964 46be b598 933c
000000c0: 8a78 5fbe 01fa 20bd 963a 0abe 3595 1bbe
000000d0: 43be 803c 560d a33d d756 fb3c 69fd 39be
000000e0: fef2 153e 71e8 e2bd 27ee cd3d 43fd 68be
000000f0: e72c 5d3d 39c7 33bd 7cf9 823c 2867 113c
00000100: b59a 4d3e bfff 86be 48d0 eb3d 820e 9dbc
00000110: 7936 053e 63bb 973d 1f94 463b 99c5 eabd
00000120: c60b fc3d 322c 793d fcf7 a33e 23fc 18be
00000130: 0010 c9bd 7bd0 b13d cbd9 0b38 1435 8d3e
00000140: cd00 39bd 4db3 d73d eac0 60be a823 45be
00000150: 9e2c 01bd 04fc e53a 3376 493e cec1 20bd
00000160: 5a12 333e 8eaf 4a3d 1824 8fbc e936 563d
00000170: 8e2d 56be 719b 5e3e be92 bdbd f9ad 1fbe
00000180: a17e 773d 09e8 4a3d 28f4 d63d 7993 04be
00000190: 7a04 863e 4e13 a73d 55cc 52be af8f 8abc
000001a0: bf7b a7bd 4921 aebd 53c8 babe 4fd3 30be
000001b0: 5b5a e9bc 4d0b 673e 9574 60be 66f1 25bc
000001c0: e4b1 c73b 7074 843c 6417 503d e949 2f3e
000001d0: 4563 34bd 3c7b 39bd ee02 2e3e 47e5 24be
000001e0: 3397 7d3d 5b08 d3bd 5c8d fbbd 89e0 ba3d
000001f0: 0967 573e d93f 58be dc29 373e ce1e 603d
00000200: d76b 663e d018 193e 3532 9f3d ae4d 233d
00000210: 70c0 4f3e 23bb 09be cdd3 28be 21dd 3f3e
00000220: 71ee b03c 18e2 8b3d 1c92 19be 0019 cbbd
00000230: 3b64 a83d 4080 06be 7766 133e ba60 96bd
00000240: 3adf e83d 9abc 7bbd 5dd5 b1bd a13d e33d
00000250: 05de fb3d 0776 dfbd c104 2dbe 0167 3bbe
00000260: 0dcf 063e 0a49 69bd 18fa 9bbd 08d4 8fbd
00000270: d862 a73d 6bae 163e 0f6f 2cbd 7d8d 9dbd
00000280: 2e14 c73c 2fdc 483e 7bd4 453e 6cdc 673c
00000290: b59a bfbd 5f9a 623d 8f9d 5dbd 33a5 623e
000002a0: d9bd 133b 4cb7 0cbd 6aed 34be 0d22 dcbd
000002b0: af30 93bd cdd0 163e cd56 153d f2ca 473e
000002c0: ec7e a9bc 4cab 943d dec6 df3d 8a2f 8cbe
000002d0: a70e 213e 3ce8 27be d15f 643e a741 ffbd
000002e0: 7ff9 713e 7269 e3bd 8ff6 753d bac9 683d
000002f0: dbd4 703e 148e 16be 82dc f639 04d2 8b3d
00000300: 680b 33be 2d98 d5bd 30ee cfbc 72aa 3a3e
00000310: 95b4 1abe 3d62 063e bcc1 4fbe 851d 1fbe
00000320: 181b 733e de20 36be dbca e23d f1c8 4fbd
00000330: 8e47 d93d 27ba 4ebb 615b 323e fd17 0b3d
00000340: 7c76 2bbe f059 bcbc 478d ad3a 7d7d b9bd
00000350: df27 343c 42f5 323d ecb1 d0bb c7f8 4d3e
00000360: 0c87 003c 15dc 423e f1d7 a8bc da53 b33d
00000370: 29da 1c3e 5699 b43d b483 d3bb 178d 43be
00000380: d7aa 823d 0d44 79be 1698 8bbe 68d3 5e3d
00000390: 38f0 693e 8f1b c5bc 35e6 13bd ba56 68bb
000003a0: 4dcb d5bd 4b8c b93c b3c5 1bbd 3ca3 513e
000003b0: 18d0 a5be 662d 30be 6dac 143c 3911 be3c
000003c0: 5b93 2bbe 5bcd cbbd dd2c 9e3e e892 2fbe
000003d0: 05d1 d1bd cf62 173d 0525 853d a231 d13d
000003e0: cbb2 91be 77c2 263e 3322 113e 750f 09bd
000003f0: 1406 07bd f504 593e 9f43 ecbb f03b 813e

transformer_encoder.layers.0.self_attn.out_proj.bias f4 [20]
-0.019646548 0.04800923 0.033917 0.03749792 0.020782249 0.02442874 -0.019870974 0.027867362
-0.014818694 -0.01728065 0.0037378878 -0.043798625 0.037357483 -0.08566311 0.03674482 -0.021908259
-0.0015673946 -0.0379935 0.014075679 -0.021870404
00000000: ccf1 a0bc 54a5 443d 8dec 0a3d 6b97 193d
00000010: 893f aa3c c81e c83c 74c8 a2bc 184a e43c
00000020: 1cca 72bc 2690 8dbc 5af7 743b 3066 33bd
00000030: 2904 193d 2470 afbd bd81 163d f378 b3bc
00000040: 0971 cdba 129f 1bbd ad9d 663c 9029 b3bc

transformer_encoder.layers.0.linear1.weight f4 [20, 20]
-0.094863355 0.14323866 0.05869579 0.19424227 -0.08864319 -0.022506265 -0.15867145 0.18497017
-0.03500825 -0.0019911432 -0.11765702 0.042623714 0.06893851 0.046592392 0.029202148 0.08735622
0.19565298 -0.14894396 -0.056612182 -0.114336684 -0.25645846 0.18997526 -0.22186545 0.046339963
0.059056584 -0.02483516 0.032836348 -0.17653035 0.16707775 -0.03269541 -0.03648504 0.0956751
-0.057956506 -0.14446117 0.15286066 0.19502781 0.13781217 -0.05373048 -0.12039168 0.073800094
0.17107685 0.2115199 0.23707321 0.19425648 -0.0012780481 0.18502739 0.22010425 -0.058640685
-0.07953513 0.044901613 -0.30683944 0.01028221 0.0065525775 0.099886276 -0.18217182 -0.04955083
-0.08806145 0.20306216 0.042825427 -0.023004934 -0.06475083 -0.15364973 0.054963488 0.2505867
-0.03856626 -0.018498732 -0.070597336 0.1419948 -0.15912591 -0.073267736 0.1354958 -0.1725462
0.15041521 0.043167643 -0.058906723 0.110414736 -0.103295065 -0.19371335 0.03143151 0.1838148
0.07828501 -0.20902729 -0.08931176 -0.32351893 0.129257 0.35904115 0.012934825 -0.19820923
0.009383013 -0.13230546 0.030857004 -0.10174995 -0.1222957 0.14190267 0.07356684 -0.23911671
-0.17638594 0.035073686 0.08891361 -0.06624531 -0.025543286 -0.46971634 -0.0047109053 -0.07819639
0.1046496 -0.30990565 0.02584811 -0.08266942 -0.111141525 -0.04884223 -0.031818245 -0.043542165
-0.0015541383 0.010247873 0.18609512 0.324625 -0.061309416 0.07712525 0.23236175 0.12503254
-0.019689912 0.121047385 -0.10475267 -0.20485872 0.14785539 0.35794097 -0.09557584 -0.22887954
-0.06475218 0.14586985 -0.14536539 -0.23720887 -0.21141677 -0.12951837 0.056704905 -0.058599032
-0.034295365 0.06280138 0.024101857 -0.23952267 0.21384124 0.16659011 -0.064898156 -0.02552224
-0.09111445 0.22152683 -0.2319433 0.08393511 -0.06779553 -0.22225553 -0.17778516 -0.17927234
0.11093154 -0.23134388 0.13100792 -0.17748809 0.032198213 -0.24335565 -0.16959538 -0.093855605
-0.15415399 0.18985356 0.1855933 -0.12783267 0.07278585 0.0008234073 0.07210711 0.2716144
-0.12977278 -0.124526 0.14141868 0.24877903 -0.06594904 0.10834588 -0.05511569 -0.23149562
0.14200862 -0.07155575 0.10233473 0.118388906 0.013659873 -0.2746921 -0.016346727 0.24170132
0.24152283 0.07549185 -0.08538346 0.12138217 0.042211216 -0.06959859 0.12486632 0.14597641
0.14453112 -0.15742855 -0.09708984 -0.010792511 -0.1480298 0.17566167 -0.08325431 -0.026764292
-0.0029378159 0.17757513 -0.06299838 0.1950027 0.19397023 -0.039465163 -0.008015026 -0.022141773
0.23174112 -0.17767166 -0.18101685 -0.18674284 0.0951516 0.09805699 -0.023530055 0.12745991
-0.13238245 -0.18974245 0.073893555 -0.16657136 0.0806006 -0.25978622 0.05877404 -0.18598926
-0.015695604 -0.23704737 0.12455578 -0.14905423 -0.10355586 0.11124516 -0.02312799 -0.045191135
-0.18254106 0.0071572363 0.16968542 0.15979451 -0.17508681 -0.1711042 0.13133392 0.10045659
0.053717222 0.19970192 -0.02287774 0.17685136 0.06157163 -0.03342151 0.1729072 0.1932411
0.15195857 0.10266436 0.014547155 -0.17138733 -0.16730784 0.093291014 -0.10292487 -0.11315793
00000000: b847 c2bd 28ad 123e ff6a 703d 72e7 463e
00000010: 908a b5bd 0f5f b8bc c57a 22be d268 3d3e
00000020: d064 0fbd d77d 02bb 2af6 f0bd 3496 2e3d
00000030: a22f 8d3d aad7 3e3d 5839 ef3c d1e7 b23d
00000040: 4159 483e c484 18be 2de2 67bd 5a29 eabd
00000050: 864e 83be e088 423e b230 63be f9ce 3d3d
00000060: 51e5 713d 1b73 cbbc 687f 063d 5fc4 34be
00000070: 6e16 2b3e 9feb 05bd 5671 15bd 4ff1 c33d
00000080: cd63 6dbd a1ed 13be 8187 1c3e 5fb5 473e
00000090: a21e 0d3e 7e14 5cbd ea8f f6bd 8124 973d
000000a0: c52e 2f3e ac98 583e 52c3 723e 2ceb 463e
000000b0: 2e84 a7ba d277 3d3e 0263 613e 3731 70bd
000000c0: 50e3 a2bd c1ea 373d 0f1a 9dbe b776 283c
000000d0: 01b7 d63b 2d91 cc3d 408b 3abe d0f5 4abd
000000e0: 9059 b4bd 87ef 4f3e b769 2f3d d874 bcbc
000000f0: 159c 84bd 5b56 1dbe 6521 613d e64c 803e
00000100: a8f7 1dbd a78a 97bc 5695 90bd 1667 113e
00000110: e7f1 22be 650d 96bd 69bf 0a3e f3af 30be
00000120: 7206 1a3e 8ed0 303d 2d48 71bd 1f21 e23d
00000130: 5d8c d3bd cb5c 46be 54be 003d f239 3c3e
00000140: e453 a03d 400b 56be 16e9 b6bd 46a4 a5be
00000150: f25b 043e 3ed4 b73e 97ec 533c 5cf7 4abe
00000160: 35bb 193c 157b 07be d4c7 fc3c 4762 d0bd
00000170: 2b76 fabd ef4e 113e 36aa 963d 03db 74be
00000180: 849e 34be 6da9 0f3d 5718 b63d 9fab 87bd
00000190: 2740 d1bc a97e f0be f05d 9abb 6e25 a0bd
000001a0: 8852 d63d f4ab 9ebe 6abf d33c 964e a9bd
000001b0: 2b9e e3bd ca0e 48bd d953 02bd 4559 32bd
000001c0: 3ab4 cbba b2e6 273c b88f 3e3e 3f35 a63e
000001d0: 951f 7bbd d8f3 9d3d 3df0 6d3e 8808 003e
000001e0: bd4c a1bc b1e7 f73d 9188 d6bd 7cc6 51be
000001f0: 6767 173e 0a44 b73e 44bd c3bd 665f 6abe
00000200: ca9c 84bd e85e 153e aada 14be e2e6 72be
00000210: a37d 58be 77a0 04be 6743 683d 8a05 70bd
00000220: 4c79 0cbd 039e 803d 4271 c53c 6e45 75be
00000230: 33f9 5a3e 9996 2a3e 53e9 84bd 0414 d1bc
00000240: 369a babd eed7 623e 8b82 6dbe 2ce6 ab3d
00000250: 62d8 8abd f496 63be 500d 36be 2b93 37be
00000260: 1330 e33d 69e5 6cbe f126 063e 70bf 35be
00000270: 46e2 033d 3932 79be 69aa 2dbe 5e37 c0bd
00000280: 8bda 1dbe f968 423e 2c0c 3e3e 91e6 02be
00000290: bf10 953d eed9 573a e4ac 933d 0b11 8b3e
000002a0: 28e3 04be 7d07 ffbd 0fd0 103e eebf 7e3e
000002b0: 4a10 87bd 72e4 dd3d fdc0 61bd 300d 6dbe
000002c0: b56a 113e d28b 92bd df94 d13d e275 f23d
000002d0: a9cd 5f3c 71a4 8cbe 92e9 85bc 8d80 773e
000002e0: c351 773e 799b 9a3d 86dd aebd 3797 f83d
000002f0: abe5 2c3d b589 8ebd eab9 ff3d d77a 153e
00000300: f7ff 133e f334 21be 0ad7 c6bd 12d3 30bc
00000310: 2095 17be a7e0 333e 3c81 aabd ca40 dbbc
00000320: 5f88 40bb 41d6 353e 4b05 81bd caae 473e
00000330: 22a0 463e 39a6 21bd 7551 03bc aa62 b5bc
00000340: 8b4d 6d3e 8fef 35be 7b5c 39be 8439 3fbe
00000350: d8de c23d 1ad2 c83d 1ac2 c0bc da84 023e
00000360: 448f 07be d84b 42be 8155 973d af91 2abe
00000370: ed11 a53d b302 85be 0cbd 703d f873 3ebe
00000380: 1194 80bc 8cbc 72be 1a17 ff3d aca1 18be
00000390: 1815 d4bd 81d4 e33d e976 bdbc 571a 39bd
000003a0: 0bec 3abe 4087 ea3b 04c2 2d3e 2ca1 233e
000003b0: f549 33be f035 2fbe 667c 063e 2fbc cd3d
000003c0: 9706 5c3d a97e 4c3e 196a bbbc 8618 353e
000003d0: 8932 7c3d fee4 08bd 960e 313e ffe0 453e
000003e0: 079b 1b3e b141 d23d 3157 6e3c 2980 2fbe
000003f0: bf52 2bbe 5c0f bf3d 46ca d2bd 58bf e7bd

transformer_encoder.layers.0.linear1.bias f4 [20]
-0.081539124 0.10326729 -0.18163538 -0.062082384 0.16644347 0.001773217 -0.22585167 -0.23248821
0.025118502 0.07619785 0.11014862 -0.018102998 0.054809734 -0.048767705 -0.118363634 -0.092815414
-0.18944235 -0.15586631 -0.14351426 -0.21034154
00000000: fcfd a6bd cd7d d33d a0fe 39be 194a 7ebd
00000010: 2870 2a3e 4a6b e83a a945 67be 6411 6ebe
00000020: 51c5 cd3c 9e0d 9c3d 9a95 e13d bd4c 94bc
00000030: 2c80 603d a5c0 47bd a268 f2bd 0216 bebd
00000040: 2dfd 41be 6b9b 1fbe 67f5 12be c663 57be

transformer_encoder.layers.0.linear2.weight f4 [20, 20]
0.03260511 -0.21577582 -0.09998756 0.21737613 -0.20010741 0.431537 0.07180294 0.17153084
-0.15415461 0.25439805 0.09954395 0.32098946 -0.11593633 0.0135389995 0.19516158 0.19893484
0.27756172 -0.0937912 -0.048733287 0.10500676 0.13724695 0.056877766 -0.042415626 0.047536235
-0.03631064 0.2596551 0.119502425 -0.15796553 0.12457722 0.008325901 -0.10710179 -0.024754792
0.13351691 -0.051036786 0.1114123 -0.102196686 0.007202583 -0.0025530688 0.0065451544 -0.008805781
0.04826657 -0.05087951 0.20162523 -0.11813092 -0.12918645 0.25516087 -0.12342231 0.26667136
0.17660774 0.1603753 0.011863918 -0.02955357 0.0009291916 -0.049168613 0.08953699 -0.16503644
-0.0779851 0.03698912 0.041424323 0.051600333 0.15308456 -0.007878909 -0.0033953933 -0.09089148
0.028615193 0.03704817 0.1199877 0.14631388 0.004501861 -0.14820264 0.040817518 -0.016460866
0.048055526 -0.00023820167 0.1468896 0.1564912 -0.09930981 0.012613614 0.05061638 -0.10480553
-0.049985953 0.00066039525 -0.16823475 0.05747899 0.085855454 0.18172717 0.086912215 0.09855975
0.1668409 0.118064635 -0.12810399 -0.10234438 0.105747074 0.20256257 -0.09697485 0.26302013
0.109657004 -0.20041394 0.05458528 0.05548374 0.19571428 0.06939257 -0.13519743 -0.036224443
0.04066807 0.18528692 -0.19206701 -0.11792785 -0.07362278 -0.017018372 0.010124599 0.02076488
0.096934795 -0.09068183 -0.1711538 -0.1947713 0.05423811 0.048945658 -0.045543537 0.14843808
-0.13412641 0.089081116 -0.1166952 0.17493007 -0.022245701 0.10453779 -0.067700945 0.0025955464
-0.32905814 0.13990432 0.03121412 -0.11530431 0.094557784 -0.20883667 0.04064081 0.26721647
0.11211342 0.026939686 0.0146119455 0.01533259 0.16197379 0.17494588 0.11478404 -0.15819685
0.20123677 -0.18204997 0.21225162 0.007041041 0.2065239 0.022290502 0.15702163 0.025362324
0.05204623 0.10622832 0.14590417 -0.17806001 -0.090836555 0.07965447 0.09267441 0.10368022
0.059383877 0.11197481 -0.17304964 0.20161884 -0.07825522 0.105799384 -0.29089344 0.06437454
-0.010723423 0.18187082 -0.14052324 -0.16553447 0.10971806 -0.09312212 0.026532937 -0.14172962
0.24652788 0.17460184 0.11351483 0.038187057 0.12043186 0.17785455 0.12807636 0.0068903742
-0.18579882 -0.27920446 -0.06159673 -0.09190108 -0.064543165 -0.06998135 -0.057804935 -0.030023728
0.16246255 -0.06143318 -0.06981846 -0.0487056 0.06042472 -0.09356156 0.12738287 -0.2445078
-0.12876208 -0.2428851 0.09511509 0.16024098 0.2555502 -0.14675616 0.21271001 0.21912837
-0.09548405 0.076895475 0.20225032 -0.08213611 0.0010218029 -0.0475508 -0.15545273 -0.012759947
-0.27424827 0.12416762 -0.06544951 -0.27176866 0.19438805 0.15410249 0.0035505502 -0.20537905
0.16234681 -0.002231926 0.2493044 -0.10327911 0.14344071 0.08958325 0.07683635 -0.3534593
-0.29051775 0.04821443 0.00922326 0.12401668 0.07926808 -0.134315 0.03340943 -0.14051348
-0.04096829 -0.17706957 0.11717052 -0.15929501 0.030502936 -0.16433872 -0.10433389 -0.060108114
-0.14036065 -0.23634739 -0.15766497 -0.21418284 0.1842549 0.13869713 0.029768437 0.16895346
00000000: f08c 053d 56f4 5cbe 47c6 ccbd d997 5e3e
00000010: f5e8 4cbe 6bf2 dc3e 6b0d 933d c8a5 2f3e
00000020: b5da 1dbe 7640 823e b3dd cb3d bb58 a43e
00000030: 0770 edbd aed2 5d3c 70d8 473e 93b5 4b3e
00000040: 921c 8e3e 9a15 c0bd 8e9c 47bd c90d d73d
00000050: 778a 0c3e a9f8 683d 02bc 2dbd 5bb5 423d
00000060: 77ba 14bd 83f1 843e b0bd f43d b7c1 21be
00000070: 5722 ff3d 5c69 083c 2f58 dbbd 90ca cabc
00000080: a8b8 083e f30b 51bd 222c e43d 7f4c d1bd
00000090: a503 ec3b 6351 27bb bc78 d63b 1f46 10bc
000000a0: 2bb3 453d 0867 50bd d876 4e3e a0ee f1bd
000000b0: 7449 04be 72a4 823e d6c4 fcbd 2689 883e
000000c0: a9d8 343e 6c39 243e e160 423c 541a f2bc
000000d0: fe94 733a 0765 49bd 2b5f b73d 50ff 28be
000000e0: a7b6 9fbd e781 173d 8dac 293d df5a 533d
000000f0: 33c2 1c3e 8a16 01bc 3f85 5ebb 5025 babd
00000100: 696a ea3c d2bf 173d 1cbc f53d 4ed3 153e
00000110: 5984 933b 6fc2 17be 4530 273d f0d8 86bc
00000120: dfd5 443d c6c5 79b9 3a6a 163e 3b3f 203e
00000130: f162 cbbd 55a9 4e3c 1f53 4f3d 48a4 d6bd
00000140: 12be 4cbd 601e 2d3a bb45 2cbe 176f 6b3d
00000150: fcd4 af3d b016 3a3e 08ff b13d b2d9 c93d
00000160: 57d8 2a3e dfcb f13d b12d 03be ee99 d1bd
00000170: ec91 d83d 906c 4f3e c09a c6bd 93aa 863e
00000180: da93 e03d 5039 4dbe d194 5f3d eb42 633d
00000190: 5369 483e b11d 8e3d 3271 0abe 1560 14bd
000001a0: 9093 263d dbbb 3d3e 37ad 44be 2884 f1bd
000001b0: 8ac7 96bd 1d6a 8bbc a5e1 253c 1c1b aa3c
000001c0: c085 c63d 65b7 b9bd f142 2fbe 2172 47be
000001d0: c828 5e3d 3e7b 483d dc8b 3abd 2700 183e
000001e0: 6f58 09be 2970 b63d e5fd eebd de20 333e
000001f0: 9e3c b6bc e917 d63d cba6 8abd 0b1a 2a3b
00000200: 4f7a a8be 1443 0f3e c1b4 ff3c ab24 ecbd
00000210: 83a7 c13d 48d9 55be fa76 263d 99d0 883e
00000220: b99b e53d 9eb0 dc3c f166 6f3c 8b35 7b3c
00000230: 75dc 253e 0325 333e e513 eb3d 5bfe 21be
00000240: 0311 4e3e 4f6b 3abe 7d58 593e 88b8 e63b
00000250: 007b 533e 929a b63c 47ca 203e a6c4 cf3c
00000260: 6d2e 553d 3c8e d93d e767 153e 5d55 36be
00000270: 8408 babd e221 a33d 15cc bd3d 4c56 d43d
00000280: 823c 733d 0d53 e53d ed33 31be 2b75 4e3e
00000290: 4644 a0bd 59ad d83d fcef 94be ccd6 833d
000002a0: 4cb1 2fbc 583c 3a3e 53e5 0fbe de81 29be
000002b0: ddb3 e03d cfb6 bebd 9a5b d93c 9221 11be
000002c0: ce71 7c3e d3ca 323e 777a e83d 086a 1c3d
000002d0: fba4 f63d 811f 363e 7326 033e a6c8 e13b
000002e0: 0c42 3ebe e3f3 8ebe da4c 7cbd a236 bcbd
000002f0: 352f 84bd 6252 8fbd dec4 6cbd 52f4 f5bc
00000300: 955c 263e 5ca1 7bbd fbfc 8ebd 867f 47bd
00000310: e97f 773d 349d bfbd a870 023e 4160 7abe
00000320: 35da 03be dfb6 78be b3cb c23d 3616 243e
00000330: 7ad7 823e 3f47 16be a7d0 593e 3063 603e
00000340: 248d c3bd 607b 9d3d b51a 4f3e fa36 a8bd
00000350: 04ee 853a a1c4 42bd 002f 1fbe 190f 51bc
00000360: 456a 8cbe 984b fe3d 650a 86bd 4325 8bbe
00000370: a90d 473e 0bcd 1d3e 59b0 683b e34e 52be
00000380: 3e3e 263e 8145 12bb a749 7f3e ff83 d3bd
00000390: 1fe2 123e 6c77 b73d 605c 9d3d 9ef8 b4be
000003a0: bebe 94be 7f7c 453d 281d 173c 75fc fd3d
000003b0: 4e57 a23d df89 09be 54d8 083d c4e2 0fbe
000003c0: 5ece 27bd ba51 35be 19f7 ef3d 3b1e 23be
000003d0: 4be1 f93c 6948 28be 02ad d5bd ed33 76bd
000003e0: b4ba 0fbe 0d05 72be ed72 21be bf52 5bbe
000003f0: 51ad 3c3e 9f06 0e3e f0dc f33c 2302 2d3e

transformer_encoder.layers.0.linear2.bias f4 [20]
0.11183786 0.011586712 0.20883177 0.0044947485 0.13745177 0.030558908 -0.02664067 -0.13009636
0.0018325393 -0.04570801 0.20449027 -0.036259875 0.04909539 0.068279445 -0.00803203 -0.055719662
0.15328836 -0.05385187 0.18826452 -0.11225787
00000000: 3f0b e53d 31d6 3d3c ffd7 553e af48 933b
00000010: 28c0 0c3e ad56 fa3c 893d dabc fb37 05be
00000020: d131 f03a 5338 3bbd e665 513e 3c85 14bd
00000030: 3f18 493d 18d6 8b3d c798 03bc 4d3a 64bd
00000040: a0f7 1c3e c793 5cbd 6ac8 403e 74e7 e5bd

transformer_encoder.layers.0.norm1.weight f4 [20]
1.3535856 1.221381 1.0913217 1.174506 1.003777 1.2052702 1.0713618 0.9282608
1.0212988 0.98926115 0.99492055 1.0460194 0.89556473 0.9293139 0.9800842 0.782796
0.94440985 1.0672615 0.9807061 0.9875231
00000000: 4b42 ad3f 3656 9c3f 6eb0 8b3f 3656 963f
00000010: c47b 803f 4b46 9a3f 6222 893f 80a2 6d3f
00000020: ebb9 823f 3840 7d3f 1db3 7e3f f7e3 853f
00000030: bb43 653f 84e7 6d3f cce6 7a3f 5265 483f
00000040: d8c4 713f 069c 883f 8e0f 7b3f 50ce 7c3f

transformer_encoder.layers.0.norm1.bias f4 [20]
-0.027865091 0.056086417 0.044152815 0.01610274 0.024102729 0.04174847 -0.06432614 0.05523399
0.0098737255 -0.056139994 0.0412882 -0.03498911 0.06298363 -0.04550395 0.05086878 -0.043468647
0.018234672 -0.058448534 0.047840144 -0.051549442
00000000: 5545 e4bc dfba 653d 95d9 343d e5e9 833c
00000010: 1673 c53c 7200 2b3d 6cbd 83bd 093d 623d
00000020: 68c5 213c 0df3 65bd d11d 293d be50 0fbd
00000030: 90fd 803d 5a62 3abd c85b 503d 2e0c 32bd
00000040: e160 953c bb67 6fbd 07f4 433d 8225 53bd

transformer_encoder.layers.0.norm2.weight f4 [20]
1.4139525 0.91266376 1.1380645 1.0119627 1.0736864 0.9994251 1.1359987 0.94086933
1.0782374 1.0642761 0.9636978 1.0942155 0.8934192 0.97102404 0.9835075 0.81509084
0.9573497 1.1210923 1.0043889 1.0782715
00000000: 65fc b43f 55a4 693f 19ac 913f fe87 813f
00000010: 8e6e 893f 53da 7f3f 6868 913f d0dc 703f
00000020: af03 8a3f 333a 883f e6b4 763f 410f 8c3f
00000030: 1fb7 643f 0895 783f 26c7 7b3f cba9 503f
00000040: df14 753f f47f 8f3f d18f 803f cd04 8a3f

transformer_encoder.layers.0.norm2.bias f4 [20]
0.011625707 0.06840411 0.07492397 0.07931913 0.0023093047 -0.004079033 -0.056346085 0.088696525
0.010176188 -0.059367657 0.035350934 -0.027952718 0.031686373 -0.0035307268 0.08145007 0.023864016
-0.020908022 -0.059584513 0.04847066 -0.041933287
00000000: c079 3e3c 7417 8c3d bd71 993d 1172 a23d
00000010: b457 173b 69a9 85bb 27cb 66bd 86a6 b53d
00000020: 07ba 263c 802b 73bd 24cc 103d 19fd e4bc
00000030: 92c9 013d c463 67bb 4bcf a63d 787e c33c
00000040: 4d47 abbc e40e 74bd 2c89 463d 3dc2 2bbd

transformer_encoder.layers.1.self_attn.in_proj_weight f4 [60, 20]
-0.13783865 -0.2706055 0.2136062 0.052269 0.17639132 0.060709 -0.1597388 0.11431919
0.034772668 0.050379787 -0.19678625 0.24668548 -0.2805019 0.17936456 0.25310278 0.2717026
0.08238163 -0.10398801 -0.00662867 0.015599999 0.22610222 -0.017220872 -0.24859546 0.09741312
0.07712895 0.10869379 0.16375479 -0.06843772 0.20963408 -0.03531716 -0.0036016176 -0.071152836
0.09936932 -0.07368616 0.22125797 0.15672824 0.2618606 0.018933177 0.04229766 -0.14448221
0.2171055 -0.24839178 0.023364546 -0.06867287 0.2409076 -0.22946645 0.16702932 -0.25978583
0.022358524 -0.10841654 -0.04571894 -0.0475902 0.03210848 -0.19375825 0.09816058 -0.16444412
-0.05956916 -0.30590773 -0.08463549 0.0246454 0.05177647 0.052670784 -0.16700168 0.068626605
0.2481833 0.17237873 -0.09113105 0.14164832 0.015326621 0.010107541 0.055656444 0.12192183
-0.22955397 -0.08558098 0.016791414 0.16924037 -0.19926828 -0.112266384 -0.011459378 0.08628216
-0.26927292 0.14967196 -0.17733984 0.23114464 -0.05994461 -0.048821557 0.0059231683 -0.00069468434
0.22490858 0.15926202 -0.22994989 0.15911527 0.1786059 -0.07415012 -0.19966927 -0.08598709
-0.05532281 0.048460543 0.027226845 0.22053844 -0.06357511 -0.049477212 0.20387445 -0.24785829
0.097161025 0.04022065 0.020978926 0.19777277 -0.18133739 -0.15648563 0.100346126 0.20428762
-0.04295048 -0.049037382 -0.24108918 0.14502083 -0.1439248 -0.21545157 -0.06847435 -0.048108663
-0.072142355 0.108216815 0.11540952 0.046031035 -0.16859354 -0.12497005 -0.04589722 -0.12978289
-0.17640243 0.13729541 -0.1167187 0.0845874 -0.064772464 0.1293254 -0.17133132 0.19487536
0.17064655 -0.12823263 -0.004508627 -0.12859806 0.06568747 -0.20161611 0.03720915 0.0839141
0.3214138 -0.02834832 -0.25212458 -0.033827774 -0.16353126 -0.13023064 0.061712045 -0.21504281
0.16071768 0.031285968 -0.18104716 -0.16823238 0.096061565 -0.030461019 -0.067144565 -0.124649934
0.17158696 -0.06322843 -0.053716708 0.17381898 0.12397764 -0.09497767 -0.24563688 0.18692197
-0.0035229705 0.15644652 -0.042659443 0.04003126 0.21817127 -0.13804471 0.11115987 0.16040684
0.14045592 -0.21327426 0.25402662 0.14715368 -0.15099001 -0.06513266 0.122957274 0.12295604
0.1964223 -0.20128492 -0.099668376 0.15393467 -0.10173234 -0.1366732 -0.14928855 -0.105538204
0.18197265 -0.02891275 0.022539904 0.0049011703 -0.17864782 -0.0680837 -0.076124065 0.023512116
-0.14068927 -0.22780967 -0.005416889 -0.14549805 0.022192791 0.09162624 0.063797414 -0.16722272
0.18252435 0.17080124 0.10226026 -0.010107725 -0.011952314 0.020755704 -0.071823366 -0.002948123
0.02587911 0.25038293 0.11186296 0.112031385 -0.029489793 -0.23917426 -0.2675534 -0.21549387
0.18546076 -0.09082618 -0.080195874 0.040694427 0.011136164 0.20441699 -0.12928481 0.024455747
-0.15627034 -0.062311515 -0.17621428 0.13912754 0.079445645 0.034245554 0.0035278264 -0.27424467
0.3033174 0.11730418 0.23455833 -0.26070157 -0.18291783 -0.11638061 -0.252798 0.08249193
-0.07057358 -0.17570952 0.13760005 0.011676528 0.27116817 0.2168838 0.27037692 -0.03225455
00000000: 9325 0dbe ce8c 8abe 95bb 5a3e 0518 563d
00000010: ed9f 343e 00aa 783d 9192 23be 2e20 ea3d
00000020: c96d 0e3d 095b 4e3d 5682 49be 1e9b 7c3e
00000030: f29d 8fbe 58ab 373e b096 813e 9a1c 8b3e
00000040: b3b7 a83d aaf7 d4bd 5035 d9bb 2397 7f3c
00000050: 5787 673e c912 8dbc cf8f 7ebe 8880 c73d
00000060: c8f5 9d3d da9a de3d 56af 273e 1329 8cbd
00000070: 51aa 563e baa8 10bd 1e09 6cbb 94b8 91bd
00000080: 2482 cb3d c5e8 96bd 7391 623e 5e7d 203e
00000090: 9812 863e c019 9b3c 5040 2d3d 25f3 13be
000000a0: e750 5e3e 6a5a 7ebe 0167 bf3c 5da4 8cbd
000000b0: 7bb0 763e 41f9 6abe bc09 2b3e a602 85be
000000c0: 3929 b73c 7e09 debd c943 3bbd f1ed 42bd
000000d0: 2e84 033d 9068 46be 6a08 c93d 0a64 28be
000000e0: cbfe 73bd f09f 9cbe 5f55 adbd 26e5 c93c
000000f0: 9013 543d 52bd 573d 7d02 2bbe 1b8c 8c3d
00000100: c323 7e3e 0d84 303e eaa2 babd 420c 113e
00000110: 821c 7b3c 1a9a 253c 03f8 633d 27b2 f93d
00000120: 3210 6bbe 1545 afbd 268e 893c 594d 2d3e
00000130: fc0c 4cbe ebeb e5bd 1dc0 3bbc b3b4 b03d
00000140: 24de 89be 9b43 193e 9398 35be 2eb1 6c3e
00000150: 7b88 75bd 1df9 47bd 2317 c23b 7a1b 36ba
00000160: 6f4e 663e 9515 233e fc77 6bbe 1def 223e
00000170: 77e4 363e 05dc 97bd 1a76 4cbe 001a b0bd
00000180: 2c9a 62bd 907e 463d d50a df3c d4d4 613e
00000190: ab33 82bd 9ea8 4abd 77c4 503e 90ce 7dbe
000001a0: 5cfc c63d 69be 243d ffdb ab3c f284 4a3e
000001b0: 82b0 39be c53d 20be 4582 cd3d c630 513e
000001c0: d8ec 2fbd 6cdb 48bd 15e0 76be 5780 143e
000001d0: 0661 13be 569f 5cbe 483c 8cbd 970d 45bd
000001e0: 5fbf 93bd c7a0 dd3d d45b ec3d 0a8b 3c3d
000001f0: c9a3 2cbe 4cf0 ffbd b9fe 3bbd cee5 04be
00000200: d7a2 34be 2b97 0c3e 370a efbd 293c ad3d
00000210: 6da7 84bd e16d 043e 7a71 2fbe 688d 473e
00000220: f8bd 2e3e 6a4f 03be 1bbd 93bb 36af 03be
00000230: 2787 863d 7474 4ebe 9f68 183d 28db ab3d
00000240: 5990 a43e bc3a e8bc 7916 81be fe8e 0abd
00000250: bd74 27be 2e5b 05be c5c5 7c3d 2f34 5cbe
00000260: 2d93 243e b725 003d 6d64 39be 1c45 2cbe
00000270: edbb c43d 6389 f9bc 1783 89bd 7748 ffbd
00000280: 7eb4 2f3e e87d 81bd 0d06 5cbd 9afd 313e
00000290: fde7 fd3d a783 c2bd 3c88 7bbe 7968 3f3e
000002a0: a3e1 66bb 8433 203e abbb 2ebd d2f7 233d
000002b0: 4a68 5f3e 985b 0dbe c9a7 e33d b141 243e
000002c0: add3 0f3e 9164 5abe c70f 823e 74af 163e
000002d0: 209d 1abe 4664 85bd 06d1 fb3d 60d0 fb3d
000002e0: ed22 493e a21d 4ebe ef1e ccbd 0da1 1d3e
000002f0: 0c59 d0bd 0ff4 0bbe 19df 18be 6a24 d8bd
00000300: 0a57 3a3e 6eda ecbc 9ba5 b83c ff99 a03b
00000310: 74ef 36be 786f 8bbd efe6 9bbd 7b9c c03c
00000320: d910 10be f046 69be 2980 b1bb 71fd 14be
00000330: a8cd b53c 8aa6 bb3d 38a8 823d 6f3c 2bbe
00000340: aae7 3a3e 85e6 2e3e d46d d13d df9a 25bc
00000350: a3d3 43bc de07 aa3c 2118 93bd 4c35 41bb
00000360: 6d00 d43c 3132 803e 6818 e53d b670 e53d
00000370: 9494 f1bc 19ea 74be c2fc 88be 6daa 5cbe
00000380: 6de9 3d3e 1403 babd bc3d a4bd 33af 263d
00000390: 7574 363c b052 513e 3d63 04be 6b57 c83c
000003a0: 5505 20be 5c3a 7fbd 8471 34be 7377 0e3e
000003b0: 66b4 a23d 1145 0c3d 1b33 673b cc69 8cbe
000003c0: 6b4c 9b3e 2d3d f03d 0f30 703e ad7a 85be
000003d0: d04e 3bbe f558 eebd bd6e 81be 87f1 a83d
000003e0: e288 90bd 32ed 33be 07e7 0c3e e84e 3f3c
000003f0: 8ed6 8a3e c916 5e3e d86e 8a3e 591d 04bd

transformer_encoder.layers.1.self_attn.in_proj_bias f4 [60]
0.013050746 0.008933488 0.029953113 -0.01747976 -0.018440697 0.05404587 -0.0020642723 0.019304087
0.035341464 -0.0011458385 -0.011041524 -0.03601332 0.005546313 -0.0023864217 0.0019314612 -0.002144991
-0.009747976 -0.069304034 -0.003964963 0.04838177 -9.45692e-10 -1.5207479e-09 1.0948139e-09 -1.3598733e-09
-1.5273036e-09 3.3744247e-09 7.217899e-10 7.006223e-09 -5.163518e-11 2.5711033e-10 -1.7600122e-09 -3.381846e-09
6.3766986e-10 -5.1378507e-10 -3.8808845e-09 -2.5335725e-09 2.2333058e-09 -3.2729572e-09 -7.3726936e-10 -1.7353488e-09
-3.330995e-05 -0.0515488 0.024257833 -0.0112096295 0.06806542 -0.01080901 0.008474954 0.027252313
0.05395175 -0.010796825 0.015156896 0.008626466 -0.019434746 -0.022054544 -0.058518715 -0.019510701
0.04017627 0.008739699 -0.032599423 0.012722438
00000000: ccd2 553c c45d 123c 3b60 f53c b731 8fbc
00000010: f210 97bc 345f 5d3d be48 07bb 9b23 9e3c
00000020: 36c2 103d f62f 96ba 82e7 34bc b482 13bd
00000030: d8bd b53b 8365 1cbb 1529 fd3a fa92 0cbb
00000040: fab5 1fbc 46ef 8dbd 85ec 81bb f62b 463d
00000050: 94f9 81b0 8f02 d1b0 5778 9630 4ae6 bab0
00000060: 38e9 d1b0 82e3 6731 7367 4630 64bb f031
00000070: 0b18 63ae 1059 8d2f ede4 f1b0 1066 68b1
00000080: 0748 2f30 693a 0db0 9f58 85b1 141b 2eb1
00000090: bb78 1931 79ea 60b1 b8a8 4ab0 2881 eeb0
000000a0: 49b6 0bb8 d624 53bd 5db8 c63c 98a8 37bc
000000b0: e265 8b3d 4618 31bc 89da 0a3c 3e40 df3c
000000c0: 83fc 5c3d 2be5 30bc a154 783c 0556 0d3c
000000d0: 9e35 9fbc bbab b4bc 52b1 6fbd e8d4 9fbc
000000e0: df8f 243d f430 0f3c f986 05bd c671 503c

transformer_encoder.layers.1.self_attn.out_proj.weight f4 [20, 20]
0.10501447 -0.01275308 -0.055856206 0.13203011 0.40187973 -0.13429986 0.18641445 0.05391953
-0.1744796 0.13274106 -0.21699259 0.008529004 -0.09236914 0.0016841504 0.054980673 -0.2814573
0.024538547 0.052404165 0.27955687 0.054305643 0.09817683 -0.14033595 0.07461701 0.08131717
0.11981809 -0.04716853 -0.30209443 -0.22290869 -0.28804854 -0.0565653 -0.04508513 0.10450625
0.12221029 -0.31645158 -0.10313687 -0.02828428 -0.05296801 0.014654171 0.06785979 -0.08401785
-0.13101827 0.04180246 -0.079405144 -0.22571477 0.14346084 -0.08103372 -0.17230256 0.027035188
-0.27948996 -0.13590933 -0.20143475 -0.1821226 0.08820295 -0.037670683 0.043227646 -0.06582986
0.1471113 0.008038431 0.054018233 -0.10063661 0.030076891 0.008725899 0.025748856 0.02383074
0.1662029 -0.21728171 0.106480755 0.03971682 0.1121881 0.06873409 0.036957778 -0.13152818
0.074124224 0.12997831 0.37047547 -0.1477728 -0.10030163 0.04784242 -0.028673131 0.1912695
-0.0061528594 0.018731708 -0.21794699 -0.15706922 0.017979993 -0.113702424 0.13490923 -0.12984556
0.14942841 0.052140504 -0.06432092 0.10139174 -0.16833499 0.18097864 -0.118703865 -0.14996846
0.06995052 0.1201132 0.14368063 -0.04168295 0.19964978 0.027065946 -0.19120905 0.046666306
0.08576504 -0.1289452 -0.30052766 -0.17085746 -0.06877348 0.2969777 -0.28100792 0.051209636
-0.12968951 -0.005084632 0.176295 0.13594574 -0.021732556 -0.122725025 0.120579295 -0.13939269
0.09652224 -0.09234027 -0.16191192 0.03813493 0.17465039 -0.18853213 0.19038445 0.09771223
0.40024102 0.2180679 0.09488 0.052216016 0.13974768 0.1208532 -0.32900113 0.12341585
0.02123684 0.0037612948 -0.1347513 -0.18724439 0.06888136 -0.1396251 0.15971813 -0.023609012
0.106536984 -0.0767134 -0.08799901 0.123344734 0.079137616 -0.14153711 -0.17754161 -0.16177596
0.17673136 -0.14759657 -0.024329683 -0.027261507 0.0701967 0.16141123 -0.019812992 -0.09189352
0.08837838 0.12215211 0.25996473 -0.018599834 -0.0725852 0.12064325 -0.029178059 0.20087151
0.0385111 -0.13366313 -0.19602643 -0.1336811 -0.066507034 0.14474843 -0.0010119174 0.14951204
-0.0049417648 0.16114174 0.10702337 -0.15887259 0.15001193 -0.15446146 0.25390413 -0.20652652
0.10430923 0.054434117 0.14238478 0.09751062 0.22062963 -0.16105847 0.11939377 0.029645361
-0.15468365 0.020646293 -0.059492327 0.071211874 -0.12379845 0.09030798 -0.1638816 -0.21830799
0.21819697 -0.14430754 0.024538686 0.038840543 0.07611486 -0.037272263 0.1920828 0.076884165
-0.07428276 0.0021046114 0.010131368 -0.17635424 0.040800467 -0.014623819 0.05819282 0.22362669
0.027408248 0.16875818 0.014365215 0.013580134 0.16922589 0.089986406 -0.010956586 -0.26534823
-0.046690486 -0.09415586 -0.12105988 0.081089415 0.27831036 -0.082227394 -0.0125196725 0.0041558305
-0.023929726 0.03222377 -0.0055498355 0.124907285 -0.23359841 -0.19490194 0.08148029 0.029559081
-0.15706713 -0.0763652 0.23095937 -0.15656587 -0.22531155 0.101027735 0.1325017 0.17438072
-0.13842708 0.20200545 0.22477035 -0.03638303 0.038261235 0.25962275 -0.011831 0.27226773
00000000: d411 d73d 4bf2 50bc 7ac9 64bd e732 073e
00000010: 2ec3 cd3e e785 09be 6ee3 3e3e bada 5c3d
00000020: c8aa 32be 46ed 073e 4e33 5ebe 3cbd 0b3c
00000030: 082c bdbd b6be dc3a 6a33 613d 2c1b 90be
00000040: 1005 c93c c0a5 563d 1422 8f3e 986f 5e3d
00000050: ef10 c93d 3ab4 0fbe ced0 983d 9e89 a63d
00000060: 3063 f53d ca33 41bd 1fac 9abe 2d42 64be
00000070: 197b 93be 04b1 67bd 2fab 38bd 5f07 d63d
00000080: 6349 fa3d f105 a2be 6c39 d3bd 6fb4 e7bc
00000090: fcf4 58bd 0c18 703c 13fa 8a3d 8d11 acbd
000000a0: a729 06be 0e39 2b3d 2a9f a2bd c621 67be
000000b0: 66e7 123e 02f5 a5bd 1570 30be e678 dd3c
000000c0: 4f19 8fbe d12b 0bbe e944 4ebe 597e 3abe
000000d0: c0a3 b43d 934c 1abd 790f 313d ced1 86bd
000000e0: 58a4 163e a0b3 033c 3942 5d3d 911a cebd
000000f0: d063 f63c 13f7 0e3c 44ef d23c af38 c33c
00000100: 1831 2a3e 197f 5ebe 9512 da3d 1bae 223d
00000110: e0c2 e53d 75c4 8c3d 0a61 173d 53af 06be
00000120: 71ce 973d 0919 053e f6ae bd3e c151 17be
00000130: f16a cdbd 6af6 433d eae3 eabc 27dc 433e
00000140: ed9d c9bb 3d73 993c 7f2d 5fbe c1d6 20be
00000150: c74a 933c d1dc e8bd a525 0a3e 3cf6 04be
00000160: c303 193e 4891 553d b0ba 83bd 79a6 cf3d
00000170: 0260 2cbe 7752 393e 031b f3bd 5591 19be
00000180: 3842 8f3d e9fd f53d 0421 133e bebb 2abd
00000190: fe70 4c3e 67b9 dd3c 4ecc 43be 2b25 3f3d
000001a0: 95a5 af3d 360a 04be c3de 99be 42f5 2ebe
000001b0: 1cd9 8cbd 760d 983e 45e0 8fbe 32c1 513d
000001c0: 54cd 04be fc9c a6bb ad86 343e 5c35 0b3e
000001d0: 7908 b2bc 4257 fbbd 47f2 f63d f5bc 0ebe
000001e0: 74ad c53d e51c bdbd 3dcc 25be 5f33 1c3d
000001f0: 8dd7 323e 910e 41be 24f4 423e 5a1d c83d
00000200: 64ec cc3e 314d 5f3e 7250 c23d 76e0 553d
00000210: 041a 0f3e e281 f73d d672 a8be 73c1 fc3d
00000220: e2f8 ad3c 0e80 763b 3ffc 09be febc 3fbe
00000230: ac11 8d3d e2f9 0ebe 268d 233e b067 c1bc
00000240: 1030 da3d ea1b 9dbd d338 b4bd 2a9c fc3d
00000250: e712 a23d 1bef 10be 78cd 35be 99a8 25be
00000260: 11f9 343e 8e23 17be 0b4f c7bc 8653 dfbc
00000270: 4ac3 8f3d fc48 253e db4e a2bc ab32 bcbd
00000280: b9ff b43d e32a fa3d 191a 853e ae5e 98bc
00000290: 8da7 94bd cf13 f73d d306 efbc 43b1 4d3e
000002a0: d1bd 1d3d fdde 08be 27bb 48be b3e3 08be
000002b0: d734 88bd ef38 143e 50a2 84ba af19 193e
000002c0: 87ee a1bb 5702 253e 122f db3d 7faf 22be
000002d0: ba9c 193e 252b 1ebe b9ff 813e b07b 53be
000002e0: 14a0 d53d 4ff6 5e3d 51cd 113e a6b3 c73d
000002f0: bcec 613e 83ec 24be b984 f43d d4da f23c
00000300: 6465 1ebe 6a22 a93c 3aae 73bd 88d7 913d
00000310: 0b8a fdbd 64f3 b83d 94d0 27be 218c 5fbe
00000320: 076f 5f3e 5bc5 13be 5b05 c93c 4317 1f3d
00000330: 1ce2 9b3d cdaa 18bd 5bb1 443e 7275 9d3d
00000340: 8f21 98bd 85ed 093b 0afe 253c 3596 34be
00000350: 641e 273d be98 6fbc 985b 6e3d 65fe 643e
00000360: 4387 e03c f2ce 2c3e 145c 6b3c 367f 5e3c
00000370: 8d49 2d3e cb4a b83d 4183 33bc b9db 87be
00000380: 863e 3fbd cad4 c0bd 3eee f7bd 3512 a63d
00000390: b27e 8e3e d666 a8bd 501f 4dbc a22d 883b
000003a0: 4608 c4bc 12fd 033d 65db b5bb 64cf ff3d
000003b0: 6c34 6fbe 6094 47be 23df a63d e325 f23c
000003c0: 35d6 20be 5c65 9cbd 9d80 6c3e ce52 20be
000003d0: 12b8 66be a1e7 ce3d 87ae 073e dc90 323e
000003e0: d4bf 0dbe 84da 4e3e 332a 663e 5f06 15bd
000003f0: d0b7 1c3d 46ed 843e d0d6 41bc ad66 8b3e

transformer_encoder.layers.1.self_attn.out_proj.bias f4 [20]
0.05970728 0.03756975 -0.029796856 0.04823038 -0.054141976 -0.049258556 -0.02133627 0.045951482
0.014351371 0.056470335 0.004882814 -0.038104508 -0.035478327 -0.051880457 0.04707719 -0.012442019
-0.04324663 0.0090502575 -0.013590041 0.0259848
00000000: 9f8f 743d bde2 193d 8918 f4bc 388d 453d
00000010: fac3 5dbd 57c3 49bd 67c9 aebc 9f37 3c3d
00000020: 0322 6b3c 704d 673d 0300 a03b 7913 1cbd
00000030: b951 11bd 9a80 54bd 03d4 403d 9cd9 4bbc
00000040: 6123 31bd 8847 143c c3a8 5ebc 13de d43c
