model_epoch_18.pt (torch, 431970 bytes, 28 tensors)

pos_encoder.pe f4 [5000, 1, 20]
0	0x00000000	0.0
1	0x3f800000	1.0
2	0x00000000	0.0
3	0x3f800000	1.0
4	0x00000000	0.0
5	0x3f800000	1.0
6	0x00000000	0.0
7	0x3f800000	1.0
8	0x00000000	0.0
9	0x3f800000	1.0
10	0x00000000	0.0
11	0x3f800000	1.0
12	0x00000000	0.0
13	0x3f800000	1.0
14	0x00000000	0.0
15	0x3f800000	1.0
16	0x00000000	0.0
17	0x3f800000	1.0
18	0x00000000	0.0
19	0x3f800000	1.0
20	0x3f576aa5	0.841471
21	0x3f0a5141	0.54030234
22	0x3ec67d3d	0.38767424
23	0x3f6bfada	0.92179644
24	0x3e219d4e	0.15782663
25	0x3f7ccaa0	0.9874668
26	0x3d812265	0.06305388
27	0x3f7f7d97	0.9980101
28	0x3ccdc08a	0.025116224
29	0x3f7feb53	0.9996845
30	0x3c23d657	0.009999833
31	0x3f7ffcb9	0.99995
32	0x3b827390	0.0039810613
33	0x3f7fff7b	0.9999921
34	0x3acfbc28	0.0015848922
35	0x3f7fffeb	0.99999875
36	0x3a2566d4	0.0006309573
37	0x3f7ffffd	0.9999998
38	0x3983b1f5	0.00025118855
39	0x3f7fffff	0.99999994
40	0x3f68c7b7	0.9092974
41	0xbed51133	-0.41614684
42	0x3f36f776	0.71471345
43	0x3f330d04	0.69941735
44	0x3e9f96c5	0.31169716
45	0x3f733f18	0.9501815
46	0x3e00e09d	0.12585683
47	0x3f7df6e3	0.99204844
48	0x3d4dafec	0.0502166
49	0x3f7fad51	0.99873835
50	0x3ca3d43e	0.019998666
51	0x3f7ff2e5	0.9998
52	0x3c02734d	0.00796206
53	0x3f7ffdec	0.9999683
54	0x3b4fbc17	0.0031697804
55	0x3f7fffac	0.999995
56	0x3aa566d2	0.0012619144
57	0x3f7ffff3	0.9999992
58	0x3a03b1f5	0.0005023771
59	0x3f7ffffe	0.9999999
60	0x3e1081c3	0.14112
61	0xbf7d7026	-0.9899925
62	0x3f6e1248	0.92996645
63	0x3ebc3be5	0.36764446
64	0x3eea5ece	0.45775455
65	0x3f639aa8	0.8890786
66	0x3e40acb9	0.18815888
67	0x3f7b6d6f	0.9821386
68	0x3d9a2f2d	0.07528529
69	0x3f7f4603	0.99716204
70	0x3cf5b91f	0.0299955
71	0x3f7fe283	0.99955004
72	0x3c43ac49	0.011942931
73	0x3f7ffb53	0.99992865
74	0x3b9bccfc	0.0047546607
75	0x3f7fff42	0.9999887
76	0x3af81a36	0.001892871
77	0x3f7fffe2	0.9999982
78	0x3a458aef	0.00075356563
79	0x3f7ffffb	0.9999997
80	0xbf41bdcf	-0.7568025
81	0xbf275530	-0.6536436
82	0x3f7ff0ab	0.99976605
83	0xbcb132ce	-0.02163067
84	0x3f17a372	0.5923377
85	0x3f4e41b0	0.8056898
86	0x3e7fb48a	0.24971214
87	0x3f77e3d4	0.96832013
88	0x3dcd6d7d	0.10030649
89	0x3f7eb57a	0.9949566
90	0x3d23cbdb	0.039989334
91	0x3f7fcb94	0.9992001
92	0x3c82723e	0.015923616
93	0x3f7ff7b1	0.9998732
94	0x3bcfbbd3	0.006339529
95	0x3f7ffeaf	0.9999799
96	0x3b2566c9	0.0025238267
97	0x3f7fffcb	0.99999684
98	0x3a83b1f4	0.0010047541
99	0x3f7ffff8	0.9999995
100	0xbf757c10	-0.9589243
101	0x3e913c2c	0.2836622
102	0x3f69c728	0.91319513
103	0xbed0a6ce	-0.40752262
104	0x3f364a6e	0.7120732
105	0x3f33bd2c	0.7021053
106	0x3e9edbeb	0.3102716
107	0x3f735daa	0.95064795
108	0x3e00454f	0.12526439
109	0x3f7dfbcd	0.9921234
110	0x3d4cb6f4	0.049979165
111	0x3f7fae19	0.99875027
112	0x3ca30dcf	0.019904045
113	0x3f7ff304	0.9998019
114	0x3c01d544	0.007924382
115	0x3f7ffdf1	0.9999686
116	0x3b4ec074	0.0031547816
117	0x3f7fffad	0.99999505
118	0x3aa49e6f	0.0012559424
119	0x3f7ffff3	0.9999992
120	0xbe8f0f8c	-0.2794155
121	0x3f75cdb8	0.96017027
122	0x3f2f0d20	0.683794
123	0xbf3acbfd	-0.7296751
124	0x3f505fa7	0.81395954
125	0x3f14b747	0.5809216
126	0x3ebd3bb7	0.3695962
127	0x3f6ddf8f	0.9291925
128	0x3e19bf29	0.15014328
129	0x3f7d191a	0.98866427
130	0x3d759cd1	0.059964005
131	0x3f7f8a12	0.99820054
132	0x3cc3a8b7	0.02388416
133	0x3f7fed4e	0.99971473
134	0x3c1bcc88	0.009509213
135	0x3f7ffd09	0.99995476
136	0x3b781a19	0.0037857352
137	0x3f7fff88	0.99999285
138	0x3ac58aeb	0.0015071308
139	0x3f7fffed	0.99999887
140	0x3f283046	0.6569866
141	0x3f40ffbd	0.75390226
142	0x3eb1e3fd	0.34744254
143	0xbf700d31	-0.9377013
144	0x3f653bc0	0.89544296
145	0x3ee3ee26	0.4451763
146	0x3edadab9	0.42744997
147	0x3f676f1a	0.904039
148	0x3e33202d	0.17492743
149	0x3f7c0d86	0.98458135
150	0x3d8f3e32	0.06994285
151	0x3f7f5f81	0.997551
152	0x3ce442d4	0.027863897
153	0x3f7fe68e	0.99961174
154	0x3c35c3b4	0.011094023
155	0x3f7ffbf8	0.9999385
156	0x3b90b9db	0.004416687
157	0x3f7fff5c	0.9999902
158	0x3ae67765	0.001758319
159	0x3f7fffe6	0.99999845
160	0x3f7d4695	0.98935825
161	0xbe14fdf6	-0.14550003
162	0xbd312831	-0.04325122
163	0xbf7fc2ac	-0.9990642
164	0x3f7458dc	0.9544809
165	0x3e98b71d	0.29827204
166	0x3ef79ac2	0.48360258
167	0x3f6012db	0.8752877
168	0x3e4c6442	0.1996012
169	0x3f7ad93c	0.97987723
170	0x3da3aa50	0.07991469
171	0x3f7f2e66	0.99680173
172	0x3d026e02	0.031843193
173	0x3f7fdec4	0.9994929
174	0x3c4fbac1	0.012678803
175	0x3f7ffabb	0.9999196
176	0x3ba566a7	0.0050476375
177	0x3f7fff2a	0.99998724
178	0x3b03b1ef	0.002009507
179	0x3f7fffde	0.999998
180	0x3ed30132	0.4121185
181	0xbf693fd5	-0.91113025
182	0xbedab75c	-0.42718017
183	0xbf677775	-0.9041665
184	0x3f7d5600	0.9895935
185	0x3e135839	0.14389123
186	0x3f09af43	0.53783053
187	0x3f57d252	0.843053
188	0x3e658754	0.22414905
189	0x3f797c6e	0.9745549
190	0x3db8123e	0.089878544
191	0x3f7ef6c2	0.9959527
192	0x3d12ba12	0.03582198
193	0x3f7fd5f0	0.9993582
194	0x3c69b1ad	0.014263553
195	0x3f7ff955	0.99989825
196	0x3bba136e	0.0056785857
197	0x3f7ffef1	0.99998385
198	0x3b14282c	0.0022606952
199	0x3f7fffd5	0.99999744
200	0xbf0b44f8	-0.5440211
201	0xbf56cd64	-0.8390715
202	0xbf3e8a23	-0.7442953
203	0xbf2af843	-0.6678507
204	0x3f7ff97d	0.99990064
205	0xbc66f4ba	-0.014096433
206	0x3f1704e0	0.58991814
207	0x3f4eb5e6	0.80746305
208	0x3e7e8553	0.24855547
209	0x3f77f754	0.9686177
210	0x3dcc7576	0.099833414
211	0x3f7eb898	0.9950042
212	0x3d23058a	0.039800204
213	0x3f7fcc13	0.9992077
214	0x3c81d439	0.015848266
215	0x3f7ff7c5	0.9998744
216	0x3bcec030	0.0063095316
217	0x3f7ffeb2	0.9999801
218	0x3b249e67	0.002511883
219	0x3f7fffcb	0.99999684
220	0xbf7fff5c	-0.9999902
221	0x3b910572	0.004425698
222	0xbf71eb58	-0.9449973
223	0xbea776c9	-0.32707813
224	0x3f7c3265	0.98514396
225	0xbe2fda27	-0.17173062
226	0x3f23c09f	0.6396579
227	0x3f44c6e2	0.7686597
228	0x3e8bad1c	0.2728051
229	0x3f764a2d	0.96206933
230	0x3de0d372	0.1097783
231	0x3f7e73e8	0.9939561
232	0x3d335059	0.043777797
233	0x3f7fc12c	0.9990413
234	0x3c8ecf86	0.01743294
235	0x3f7ff60a	0.999848
236	0x3be36ced	0.006940475
237	0x3f7ffe6c	0.9999759
238	0x3b3514a2	0.0027630706
239	0x3f7fffc0	0.9999962
240	0xbf095cd8	-0.53657293
241	0x3f5806d0	0.84385395
242	0xbf7f760b	-0.99789494
243	0x3d84d0e1	0.06485153
244	0x3f7218f5	0.9456933
245	0xbea66e4d	-0.32506028
246	0x3f2fd589	0.68685204
247	0x3f3a0f63	0.7267973
248	0x3e9800fe	0.29688257
249	0x3f74753e	0.954914
250	0x3df52bac	0.119712204
251	0x3f7e28b5	0.99280864
252	0x3d439a6d	0.047754694
253	0x3f7fb53b	0.9988591
254	0x3c9bcaba	0.019017566
255	0x3f7ff426	0.99981916

transformer_encoder.layers.0.self_attn.in_proj_weight f4 [60, 20]
0	0xbe6fd680	-0.23421669
1	0xbe461192	-0.1934264
2	0x3e3ba26d	0.1832368
3	0x3d7ea9a2	0.062173493
4	0x3e48588f	0.19565032
5	0x3da9326f	0.082615726
6	0xbe2fce03	-0.17168431
7	0x3e09b24e	0.13446924
8	0x3c90ec49	0.017690795
9	0x3d701fe4	0.058624163
10	0xbe549453	-0.20759706
11	0x3e6806b3	0.22658806
12	0xbe87c11d	-0.2651452
13	0x3e449e5f	0.19201039
14	0x3e87861d	0.26469508
15	0x3e8841de	0.26612753
16	0x3d95c3f8	0.07312769
17	0xbdbd8992	-0.09254755
18	0xbcbfba5d	-0.023404295
19	0x3a556d05	0.00081415504
20	0x3e75957f	0.2398281
21	0xbd808d02	-0.06276895
22	0xbe7c8e72	-0.24663714
23	0x3dc21d5e	0.094782576
24	0x3d95d7df	0.07316565
25	0x3de0146e	0.10941397
26	0x3e26b5e2	0.1628032
27	0xbda0e8a1	-0.078568704
28	0x3e5fab8d	0.21842785
29	0xbd1a6df6	-0.037702523
30	0x3b5d9ff4	0.0033817263
31	0xbda8704b	-0.08224543
32	0x3ddfaf20	0.10922074
33	0xbdb7042d	-0.08936343
34	0x3e68a65a	0.22719708
35	0x3e21166f	0.15731214
36	0x3e8571ad	0.2606329
37	0x3c89139f	0.016732989
38	0x3d23bddd	0.03997599
39	0xbe08b838	-0.13351524
40	0x3dac9ec1	0.084287174
41	0xbdc9906c	-0.098419994
42	0xbd837791	-0.0641929
43	0xbd67d32c	-0.056597874
44	0x3e68c4bd	0.227313
45	0xbe38f5e5	-0.18062551
46	0x3e588814	0.2114566
47	0xbe802058	-0.25024676
48	0xbb46b0da	-0.0030317814
49	0xbd84d2d9	-0.064855285
50	0xbda4ac1b	-0.08040639
51	0xbdab7886	-0.083725974
52	0x3d76a31d	0.06021415
53	0xbe2dcd4b	-0.16972844
54	0x3ddb1eff	0.106992714
55	0xbe3041d3	-0.1721261
56	0xbd8ffef6	-0.07031052
57	0xbe7cdb0b	-0.24692933
58	0xbdca8ccb	-0.098901354
59	0xbc1cf96a	-0.009580949
60	0x3d8a927d	0.06766222
61	0xbc1520f8	-0.009102099
62	0xbdfac74f	-0.12245046
63	0x3d9510ab	0.0727857
64	0x3e8277dd	0.25482073
65	0x3e14af67	0.14520036
66	0xbdf652c7	-0.12027507
67	0x3e12217b	0.14270584
68	0x3cbe554c	0.023234032
69	0xba5158f8	-0.00079859747
70	0x3d874b49	0.066061564
71	0x3e08f4f0	0.13374686
72	0xbe70c6b1	-0.23513295
73	0xbdd1681d	-0.10224936
74	0x3cb1e056	0.021713417
75	0x3e31ff1b	0.17382471
76	0xbe465941	-0.19369985
77	0xbe0758d3	-0.13217478
78	0xbca0a2c3	-0.01960886
79	0x3de2f1ce	0.11081277
80	0xbe6cafa2	-0.23113874
81	0x3dc7508b	0.09732159
82	0xbe147329	-0.14497055
83	0x3e70acb7	0.23503385
84	0xbd41cf91	-0.04731709
85	0xbd966639	-0.07343716
86	0xbc94e1fd	-0.018174166
87	0x3a825503	0.0009943548
88	0x3e6ae167	0.22937547
89	0x3e152945	0.14566524
90	0xbe64be0c	-0.22338122
91	0x3e231d9a	0.15929261
92	0x3e2de63b	0.16982357
93	0xbdba560c	-0.090984434
94	0xbe4d5be9	-0.20054592
95	0xbdba30db	-0.0909135
96	0xbd5ab7a9	-0.05339781
97	0x3d223659	0.03960261
98	0x3c808332	0.015687559
99	0x3e7cc335	0.2468384
100	0xbdf4f8b5	-0.119614996
101	0x3d1da5dd	0.038488258
102	0x3e2e42be	0.17017648
103	0xbe5d1194	-0.21588737
104	0x3dd40c2e	0.103538856
105	0x3c8e239c	0.017350964
106	0x3c7d5ed1	0.0154645005
107	0x3e743639	0.2384881
108	0xbe6bb8d7	-0.2301973
109	0xbe14aaf8	-0.14518344
110	0x3d9faab1	0.07796229
111	0x3e569141	0.20953847
112	0xbd461441	-0.04835916
113	0xbd177799	-0.03697929
114	0xbe803f85	-0.25048462
115	0x3e1d9805	0.15390022
116	0xbe33358f	-0.175009
117	0xbe5fc6ce	-0.21853182
118	0xbdc2567b	-0.09489151
119	0xbd4dd08e	-0.05024772
120	0xbe12919a	-0.14313355
121	0x3d8d0384	0.06885436
122	0x3e048aa0	0.12943506
123	0x3ce25d82	0.027632479
124	0xbe280fc4	-0.16412264
125	0xbdcdb3cd	-0.1004406
126	0x3c8498da	0.016186167
127	0xbe0f9747	-0.14022551
128	0xbdf822d4	-0.12116018
129	0x3e438112	0.19092205
130	0xbdd8c7c3	-0.105849765
131	0x3dfe1a1d	0.124073245
132	0xbb930557	-0.0044867205
133	0x3e134ee1	0.14385559
134	0xbe1da9af	-0.1539676
135	0x3e78cab6	0.24296078
136	0x3e477964	0.194799
137	0xbdeb98f4	-0.11503783
138	0x3c10d468	0.008839704
139	0xbdf9fd2d	-0.122064926
140	0x3dcd05d7	0.100108795
141	0xbe78c453	-0.24293642
142	0x3cc359a5	0.023846457
143	0x3dbb891e	0.091570124
144	0x3e92b751	0.28655484
145	0xbd5e19c3	-0.054223787
146	0xbe33d09b	-0.17560045
147	0xbd2b2f4a	-0.041793145
148	0xbdfd6803	-0.12373354
149	0xbda2d943	-0.07951596
150	0x3d3945c0	0.045232534
151	0xbe7a2278	-0.24427211
152	0x3e474dad	0.19463225
153	0x3ccc0f36	0.024909597
154	0xbe3f5a4d	-0.18686791
155	0xbe16d8c7	-0.14731131
156	0x3db5801a	0.08862324
157	0x3d063f96	0.032775484
158	0xbd8daea3	-0.06918075
159	0xbdce661b	-0.10078069
160	0x3db57e4e	0.08861981
161	0x3c237ea1	0.009978921
162	0xbd8db288	-0.06918818
163	0x3e35d4f3	0.17757015
164	0x3e067286	0.13129625
165	0xbd97ca7e	-0.07411669
166	0xbe85f076	-0.2616002
167	0x3e5e544d	0.21711846
168	0xbd33e561	-0.043919925
169	0x3e28f881	0.16501047
170	0xbd53a6de	-0.05167281
171	0x3d953ed1	0.07287372
172	0x3e61bdf8	0.22045124
173	0xbddf9c4c	-0.10918483
174	0x3dec7830	0.115463614
175	0x3e2fc1a0	0.17163706
176	0x3e083748	0.13302338
177	0xbe6f89f9	-0.23392476
178	0x3e84ae9a	0.2591446
179	0x3e006197	0.12537228
180	0xbdfe77e4	-0.12425211
181	0xbd2df990	-0.04247433
182	0x3e106a74	0.14103109
183	0x3e06fc77	0.13182245
184	0x3e3de68d	0.1854498
185	0xbe5e5794	-0.21713096
186	0xbe187918	-0.14889944
187	0x3e33936d	0.17536707
188	0xbdfd6151	-0.12372077
189	0xbe236fb9	-0.15960588
190	0xbe394009	-0.18090834
191	0xbe01eaf2	-0.12687281
192	0x3e096b2e	0.13419792
193	0xbd2adcbd	-0.04171442
194	0x3b616491	0.0034392218
195	0xbcb1186e	-0.021618094
196	0xbe48fca8	-0.1962763
197	0xbd9988cc	-0.07496795
198	0xbdaa71fc	-0.08322522
199	0x3c8d79c6	0.01726998
200	0xbe0b86a0	-0.13625574
201	0xbe7931d3	-0.24335413
202	0x3d5a39b6	0.053277694
203	0xbe271423	-0.16316275
204	0xbc7ac983	-0.015306833
205	0x3df37b30	0.118887305
206	0x3d06cd41	0.03291059
207	0xbe40cbae	-0.18827698
208	0x3e63d0ce	0.22247621
209	0x3e1a70d7	0.15082107
210	0x3ded8f93	0.1159965
211	0x3cb898dd	0.022533828
212	0xbd0d659d	-0.034520734
213	0x3c0c2fed	0.008556348
214	0xbd4e0eb0	-0.050306976
215	0x3c2ed41c	0.010670688
216	0x3d5059bf	0.05086684
217	0x3e7996cf	0.24373935
218	0x3de09fe0	0.10967994
219	0x3e06a8b2	0.1315029
220	0x3c84ba96	0.016202252
221	0xbe88c95a	-0.2671612
222	0xbe6835dd	-0.22676797
223	0xbe674e8c	-0.22588557
224	0x3e49bc2c	0.19700688
225	0xbdb68463	-0.089119695
226	0xbde23b6c	-0.1104649
227	0x3d1bd87c	0.038048252
228	0x3c074bba	0.008257801
229	0x3e38e5d8	0.18056428
230	0xbdf53682	-0.11973287
231	0x3d0295e4	0.031881228
232	0xbe338966	-0.17532882
233	0xbd922095	-0.07135121
234	0xbe37e795	-0.17959435
235	0x3e0218bc	0.12704748
236	0x3dc26c5e	0.09493326
237	0x3c203185	0.009777431
238	0x3c932702	0.017962936
239	0xbe8a9110	-0.270638
240	0x3e94fa23	0.2909709
241	0x3e001eca	0.12511745
242	0x3e657295	0.22406991
243	0xbe7de505	-0.24794395
244	0xbe3bf637	-0.18355642
245	0xbe0a4c2a	-0.13505617
246	0xbe7840d8	-0.24243486
247	0x3db43dc9	0.08800847
248	0xbdaef75d	-0.085432746
249	0xbe2f8ea1	-0.17144252
250	0x3dfeb7c2	0.12437393
251	0xbbe25978	-0.006907638
252	0x3e8c7382	0.27431875
253	0x3e56737d	0.20942493
254	0x3e880d0a	0.26572448
255	0xbd370287	-0.044680145

transformer_encoder.layers.0.self_attn.in_proj_bias f4 [60]
0	0xbb8273a6	-0.0039810715
1	0x3aa66bcd	0.0012696922
2	0x3abf3af2	0.0014589711
3	0xb9fc8d2a	-0.0004817036
4	0xbb19491d	-0.0023389526
5	0xba257011	-0.00063109497
6	0x3d0e940e	0.034809165
7	0x3ce50693	0.027957236
8	0x3b593f20	0.0033149198
9	0xbc4bccb6	-0.012438944
10	0x3c809f0e	0.015700843
11	0xbc0ce783	-0.008600119
12	0xbc8f5cc5	-0.01750029
13	0xbc944f60	-0.018104255
14	0x3c7646e9	0.015031555
15	0x3cd9005c	0.02648943
16	0xbaa8e12b	-0.0012884488
17	0xbcf401d6	-0.029786032
18	0x3b84cd72	0.0040528113
19	0x3cf2c881	0.029636623
20	0xb0bb0759	-1.3608129e-09
21	0x3099caf8	1.1189902e-09
22	0x30364a2d	6.6316624e-10
23	0xb111d971	-2.1223878e-09
24	0x3053fac5	7.711772e-10
25	0x31ce2ac0	6.000249e-09
26	0x30e91783	1.6959664e-09
27	0x310c2a0b	2.039658e-09
28	0x31911007	4.2218775e-09
29	0x302df82d	6.328971e-10
30	0x301aee40	5.636345e-10
31	0x2fb0ea72	3.2180797e-10
32	0x2fa8b80a	3.068979e-10
33	0xb0b59bbd	-1.3213747e-09
34	0xb16ed400	-3.4754066e-09
35	0x319fb161	4.6476747e-09
36	0xb14c6b4f	-2.9746905e-09
37	0x31f76642	7.2002715e-09
38	0x30e7b7b0	1.6859669e-09
39	0xafbb5441	-3.4074968e-10
40	0xbd320362	-0.043460257
41	0x3d6f6664	0.058447257
42	0xbce349d1	-0.02774516
43	0xbc801052	-0.015632782
44	0x3d7e004f	0.062012013
45	0x3d96c2b0	0.073613524
46	0x3a4a87e2	0.00077259366
47	0x3d72a5b7	0.05924007
48	0x3d7d3e96	0.061827265
49	0x3c43a017	0.011940024
50	0xbce0bc87	-0.027433647
51	0x3c84d08b	0.016212722
52	0xbd873334	-0.06601563
53	0x3d8ddbcd	0.06926689
54	0x3c06e30e	0.008232845
55	0x3d800a3b	0.06251951
56	0x3d31020d	0.043214846
57	0x3d4b8ed5	0.049696762
58	0x3af0b456	0.0018364291
59	0xbcb54cdf	-0.022131382

transformer_encoder.layers.0.self_attn.out_proj.weight f4 [20, 20]
0	0x3e225ed7	0.15856491
1	0xbcd9c596	-0.026583474
2	0xbcfba907	-0.030720247
3	0x3d4e3caa	0.050350823
4	0x3e550a32	0.2080467
5	0xbdb456f4	-0.088056475
6	0x3dc2e074	0.09515467
7	0x3d69f366	0.05711689
8	0xbd9fea3a	-0.07808347
9	0x3ce4689b	0.027881911
10	0xbe6297ad	-0.22128172
11	0x3da25cfb	0.07927891
12	0xbd59438c	-0.053042933
13	0xba3bce21	-0.00071641995
14	0x3d4b8734	0.049689487
15	0xbe922daa	-0.28550464
16	0x3caca3f6	0.021074276
17	0x3d2c0991	0.04200131
18	0x3e892d4a	0.26792365
19	0xbc0f0861	-0.008730025
20	0x3e0cb53b	0.13741009
21	0xbdca99b2	-0.09892596
22	0x3d26c6c1	0.04071689
23	0xbcb3de56	-0.021956604
24	0x3ddac2bd	0.10681675
25	0xbc9eacf9	-0.01936959
26	0xbe2f73e6	-0.17134055
27	0xbe0facb0	-0.14030719
28	0xbe1ced0a	-0.15324798
29	0xbd5cd053	-0.05390961
30	0xbd014153	-0.03155644
31	0x3d90f515	0.07077996
32	0x3dda43db	0.10657474
33	0xbe18821a	-0.1489338
34	0xbe0d5eb6	-0.1380566
35	0x3d40eae7	0.04709902
36	0xbd511d2b	-0.051053207
37	0x3d54db53	0.051966976
38	0x3d636915	0.055520136
39	0xbda0d1f9	-0.07852549
40	0xbde62190	-0.1123687
41	0xbd0be670	-0.03415531
42	0xbde31663	-0.11088254
43	0xbe2d2265	-0.16907652
44	0x3e411272	0.18854693
45	0xbe25a060	-0.1617446
46	0xbdc3eb0c	-0.09566316
47	0x3d56474a	0.05231408
48	0xbe37b7d7	-0.17941223
49	0xbc5512bf	-0.013004958
50	0xbdcb83b1	-0.099372275
51	0xbe1fd054	-0.15606815
52	0x3d0e4c54	0.03474076
53	0x3da7f197	0.082003765
54	0x3baefb1f	0.0053399946
55	0xbda558c8	-0.08073574
56	0x3ddeb104	0.10873607
57	0x3b2cb1f4	0.0026351186
58	0x3d96b484	0.073586494
59	0xbddfd8ed	-0.10930047
60	0x3d8602a1	0.0654347
61	0xbd2f2a26	-0.042764805
62	0x3c23b9a8	0.009992994
63	0xbba7c082	-0.0051193843
64	0x3e4c95fb	0.19979088
65	0xbe69bb6c	-0.22825402
66	0x3e03a137	0.12854467
67	0xbc902bed	-0.01759907
68	0x3dc762ee	0.09735666
69	0x3da0e4c6	0.07856135
70	0x3c7af870	0.015318021
71	0xbda79c21	-0.08184076
72	0x3dea7fb6	0.1145014
73	0x3dd4661c	0.10371038
74	0x3e955aaa	0.29170734
75	0xbe2bddcd	-0.16783829
76	0xbdf77c5d	-0.12084267
77	0x3da22037	0.07916301
78	0x3c8d3785	0.017238388
79	0x3e8984f3	0.26859245
80	0xbd5a7602	-0.053335197
81	0x3dd295b1	0.102824576
82	0xbe658923	-0.22415595
83	0xbe38155c	-0.17976898
84	0xbcc05d69	-0.023482041
85	0xbd29f27e	-0.041491024
86	0x3e19e426	0.15028438
87	0xbcf4db28	-0.029889658
88	0x3e566c5e	0.20939776
89	0x3d480ff8	0.048843354
90	0xbd25db43	-0.040492307
91	0x3d35a368	0.04434529
92	0xbe3c7c9f	-0.18406914
93	0x3e4748b7	0.19461332
94	0xbd9f759c	-0.07786104
95	0xbdd94b4b	-0.10610064
96	0x3db74f7f	0.089507096
97	0x3d533e10	0.05157286
98	0x3dce54d4	0.100747734
99	0xbe146a5a	-0.14493695
100	0x3e79415c	0.24341339
101	0x3cae3b4d	0.021268511
102	0xbe58db88	-0.21177495
103	0x3d0ebde6	0.03484907
104	0xbd4ce9b6	-0.05002757
105	0xbd33e73c	-0.043921694
106	0xbe8ac4e2	-0.27103335
107	0xbe368800	-0.17825317
108	0xbbf585d1	-0.007492759
109	0x3e755db8	0.23961532
110	0xbe62a552	-0.22133377
111	0xbd40b812	-0.047050543
112	0x3c38397f	0.011244177
113	0xbc50c2eb	-0.012741785
114	0x3dafe0b4	0.085877806
115	0x3d97cff6	0.07412712
116	0x3cf8fff1	0.03039548
117	0xbd85c089	-0.06530864
118	0x3e4b3bf4	0.19847089
119	0xbe137399	-0.14399566
120	0x3d897f9a	0.06713791
121	0xbd9d3e1d	-0.07677863
122	0xbdefd05b	-0.117096625
123	0x3d7d8f3d	0.06190418
124	0x3e42faa6	0.19040927
125	0xbe4ebdcc	-0.2018959
126	0x3deb1c97	0.114800625
127	0x3d050b80	0.03248167
128	0x3e2b33c8	0.16718972
129	0x3e0cf3a4	0.13764817
130	0x3d8cc389	0.06873233
131	0x3da08237	0.078373365
132	0x3e40a14f	0.18811534
133	0xbdaadf46	-0.08343367
134	0xbe3d801b	-0.185059
135	0x3e2cbce4	0.16868931
136	0x3ad26228	0.0016050981
137	0x3d0760a9	0.033051167
138	0xbe1dd1ef	-0.15412115
139	0xbe17753f	-0.1479082
140	0x3d92826e	0.07153784
141	0xbe134500	-0.1438179
142	0x3e00f2cd	0.12592621
143	0xbd4b0a94	-0.049570635
144	0x3e069330	0.13142085
145	0xbd69108b	-0.056900542
146	0xbd7f0b07	-0.062266376
147	0x3e0bcd56	0.13652548
148	0x3e1ae98f	0.15128158
149	0xbdcbe3eb	-0.09955581
150	0xbe2dbc27	-0.16966306
151	0xbe33bdcd	-0.17552872
152	0x3e10b8f9	0.14133061
153	0xbd805e9f	-0.062680475
154	0xbdac92e8	-0.08426458
155	0xbd285d62	-0.04110468
156	0x3dacce36	0.08437769
157	0x3e196b8b	0.1498243
158	0xbcd9cbdf	-0.026586471
159	0xbd9ac191	-0.07556451
160	0x3d5712ab	0.052508038
161	0x3e182efa	0.1486167
162	0x3e530ee1	0.20611145
163	0x3bbacf42	0.0057009766
164	0xbd6bdb09	-0.057581935
165	0x3d3a755e	0.045522086
166	0xbd513285	-0.05107357
167	0x3e6395e1	0.22225143
168	0x3c4a8ad3	0.0123622
169	0xbd21fd63	-0.03954829
170	0xbe2854aa	-0.16438547
171	0xbdffb316	-0.1248533
172	0xbd95a1b9	-0.07306237
173	0x3ddfb545	0.10923246
174	0x3d4798a5	0.048729558
175	0x3e49f854	0.19723636
176	0xbd6b4be5	-0.057445426
177	0x3dbc654b	0.091990076
178	0x3da4acfa	0.08040805
179	0xbe7d7fdd	-0.24755807
180	0x3e13b9f5	0.14426406
181	0xbe078be5	-0.1323696
182	0x3e5cf622	0.21578267
183	0xbe03e3f1	-0.12879921
184	0x3e534934	0.20633394
185	0xbd03aedc	-0.03214918
186	0x3dc2283c	0.0948033
187	0x3d23064e	0.039800934
188	0x3e1b4f07	0.15166865
189	0xbe178a7c	-0.14798921
190	0x3c4571e8	0.012051083
191	0x3db5f118	0.088838756
192	0xbe409466	-0.1880661
193	0xbd4d5ff0	-0.05014032
194	0xbd132aa3	-0.035929333
195	0x3dc20e10	0.094753385
196	0xbe041906	-0.1290017
197	0x3dd54b04	0.10414699
198	0xbe1e8a1c	-0.15482372
199	0xbe322aed	-0.17399187
200	0x3e579bc6	0.21055517
201	0xbe33b755	-0.17550404
202	0x3dd482bb	0.10376497
203	0xbcb5f306	-0.02221061
204	0x3dd5eca0	0.10445523
205	0xbc855690	-0.016276628
206	0x3e366cdd	0.17814966
207	0x3d4a3f1f	0.049376603
208	0xbdec3b4f	-0.1153475
209	0xbca085d5	-0.019595066
210	0xbc115821	-0.008871109
211	0xbe05acfb	-0.13054268
212	0xbbe88d7d	-0.007096945
213	0x3c8ac280	0.016938448
214	0xbc2445e5	-0.01002643
215	0x3e35a24b	0.17737691
216	0x3d05bd0c	0.032650992
217	0x3e1f487e	0.15554997
218	0xbc483ac9	-0.012221047
219	0x3d84cc94	0.06484333
220	0x3e0c2979	0.13687696
221	0x3d8b737b	0.068091355
222	0xbd340ca6	-0.043957375
223	0xbe0934aa	-0.13398996
224	0x3d9a300e	0.07528697
225	0xbe2b6c80	-0.16740608
226	0xbdb0c329	-0.08630974
227	0x3dafd050	0.08584654
228	0x3e80eacc	0.25179136
229	0x3b20aec4	0.002451823
230	0xbd163b40	-0.0366776
231	0xbd000e49	-0.031263623
232	0xbd8af291	-0.06784547
233	0xbacf0980	-0.0015795678
234	0xbc031d70	-0.008002624
235	0x3e0aed50	0.1356709
236	0xbe6f297b	-0.23355667
237	0xbe2d1f55	-0.16906483
238	0x3dbc3977	0.09190648
239	0x3d86c646	0.065807864
240	0xbe2dc22f	-0.16968606
241	0xbdd10835	-0.102066435
242	0x3ea038e9	0.3129342
243	0xbe314efb	-0.17315285
244	0xbde1fedb	-0.11034938
245	0x3d753503	0.05986501
246	0x3d853e2d	0.06506
247	0x3dba2b99	0.09090347
248	0xbea48a72	-0.32136875
249	0x3e200c45	0.1562968
250	0x3e19c603	0.15016942
251	0xbca98e23	-0.020697659
252	0xbd0b99fd	-0.0340824
253	0x3e62e714	0.22158462
254	0x3bc3bf06	0.0059736995
255	0x3e7728bb	0.24136631

transformer_encoder.layers.0.self_attn.out_proj.bias f4 [20]
0	0x3ca83098	0.020530984
1	0x3d860b73	0.065451525
2	0x3cd28e55	0.025702635
3	0x3d05e0e0	0.03268516
4	0xba990445	-0.0011674246
5	0x3d10c4e1	0.03534401
6	0x3c0b5a58	0.008505426
7	0x3be4088d	0.006959027
8	0x380622f8	3.1980657e-05
9	0xbbe64d18	-0.0070282333
10	0xbc588fc5	-0.013217871
11	0xbd965a46	-0.07341437
12	0x3cd484c8	0.025942221
13	0xbdccf2ea	-0.1000727
14	0x3ccc9e60	0.024977863
15	0xbc7f27b9	-0.015573435
16	0xbb360510	-0.0027774014
17	0xbc547e4e	-0.0129695665
18	0xbb9dab47	-0.0048116776
19	0xbc775dd7	-0.015098057

transformer_encoder.layers.0.linear1.weight f4 [20, 20]
0	0xbd806ac0	-0.06270361
1	0x3e1e0bc4	0.15434176
2	0x3da84375	0.082159914
3	0x3e5940d8	0.21216142
4	0xbdd8e53b	-0.10590597
5	0xbd080356	-0.033206306
6	0xbe24da34	-0.16098863
7	0x3e329336	0.17438969
8	0xbc7ce7bf	-0.015436112
9	0xbca738c9	-0.02041282
10	0xbde5bc7a	-0.1121759
11	0x3d03bf89	0.032165084
12	0x3d5de8f1	0.05417723
13	0x3d1ee609	0.038793597
14	0x3ce8493b	0.028355232
15	0x3db5b16b	0.088717304
16	0x3e41651a	0.18886223
17	0xbe14f52b	-0.14546649
18	0xbd8a4c07	-0.06752782
19	0xbdd557f1	-0.10417164
20	0xbe4d1b8b	-0.20030038
21	0x3d8ace29	0.06777603
22	0xbe6dec1c	-0.232346
23	0x3cef3ca3	0.029203719
24	0x3dc75013	0.0973207
25	0xbc6f112c	-0.014591496
26	0x3cd42a25	0.025899002
27	0xbe26a8ac	-0.1627528
28	0x3e184604	0.14870459
29	0xbba35aa7	-0.004985172
30	0xbd165c64	-0.036709204
31	0x3dad4a0e	0.084613904
32	0xbd32f360	-0.04368913
33	0xbe15a217	-0.14612614
34	0x3e1ea0d0	0.15491033
35	0x3e3ea5e1	0.18617965
36	0x3e17996a	0.14804617
37	0xbd2db13b	-0.04240535
38	0xbdf47bda	-0.11937685
39	0x3da873bc	0.082251996
40	0x3e187658	0.14888895
41	0x3e2b96fd	0.16756816
42	0x3e496ef7	0.19671236
43	0x3e3d2b71	0.18473603
44	0x3d4f4c56	0.05060991
45	0x3e35ee28	0.1776663
46	0x3e1d4b67	0.15360795
47	0x3b3934b1	0.0028260166
48	0xbe05a2ac	-0.13050336
49	0x3d202a76	0.039102994
50	0xbe8bee44	-0.2733022
51	0x3c91ef8a	0.017814416
52	0x3c9b1c51	0.0189344
53	0x3e1ede4a	0.15514484
54	0xbe2afde4	-0.16698414
55	0xbd4d1f9c	-0.050078973
56	0xbd980126	-0.07422094
57	0x3e2a90ab	0.16656749
58	0x3d41a444	0.047275797
59	0xbceeda2c	-0.029156767
60	0xbd8ddc3b	-0.06926771
61	0xbe2a5cc8	-0.16636956
62	0x3d50882d	0.050911117
63	0x3e676e84	0.22600752
64	0xbd29ba4d	-0.041437436
65	0x3d393cde	0.045224063
66	0xbd93755a	-0.072001174
67	0x3dfce922	0.12349154
68	0xbe2f9d1c	-0.17149776
69	0xbd4c14b7	-0.049824443
70	0x3de449ce	0.111468896
71	0xbe3724ca	-0.17885128
72	0x3e35c396	0.17750391
73	0x3d0c15c9	0.034200463
74	0xbd46723b	-0.048448782
75	0x3dcf48d0	0.1012131
76	0xbdb2153e	-0.08695458
77	0xbe2d8786	-0.1694623
78	0x3c8b6a06	0.01701833
79	0x3e306b35	0.17228396
80	0x3bc1ab3f	0.0059103067
81	0xbe269d1e	-0.16270873
82	0xbae97365	-0.001781088
83	0xbe89544e	-0.26822132
84	0x3e1db7a1	0.1540208
85	0x3e8d0122	0.27539927
86	0x3bb74629	0.0055930805
87	0xbe3a35b1	-0.18184544
88	0xbe03ff9a	-0.12890473
89	0xbe0d9d70	-0.13829589
90	0x3d36ebd8	0.044658512
91	0x3af5da8d	0.001875715
92	0xbe2039be	-0.15647027
93	0x3e1e623f	0.15467165
94	0x3d88fd41	0.06688929
95	0xbe54c464	-0.20778042
96	0xbe48f22c	-0.19623631
97	0xbc813a1f	-0.015774785
98	0x3dd8f879	0.105942674
99	0xbdaafd01	-0.08349038
100	0xbcc1a318	-0.02363734
101	0xbe8ba0c2	-0.27271086
102	0x3cf88e0d	0.030341173
103	0xbbb657d7	-0.0055646705
104	0x3b64d38f	0.0034916138
105	0xbe8fc055	-0.28076425
106	0xbaf7be54	-0.0018901327
107	0xbdd5fe35	-0.10448877
108	0xbd289bd9	-0.041164253
109	0xbda1a1fc	-0.07892224
110	0xbd65cd76	-0.056104146
111	0xbdb1cb6b	-0.08681377
112	0xbc94582e	-0.018108454
113	0xbd3e6f8d	-0.046493102
114	0x3e40479c	0.18777317
115	0x3e9c411f	0.30518433
116	0xbd69958e	-0.057027392
117	0x3de58e83	0.112088226
118	0x3e2d68bc	0.16934484
119	0x3e0be5d2	0.13661888
120	0x3c9cf33e	0.019158956
121	0x3de8bb91	0.113639005
122	0xbe0c54ea	-0.13704267
123	0xbe05472d	-0.13015433
124	0x3e267b77	0.16258036
125	0x3e8a194a	0.2697242
126	0xbd9a5c86	-0.07537179
127	0xbe581975	-0.21103461
128	0xbdbee066	-0.09320144
129	0x3e0ecac2	0.13944533
130	0xbe158848	-0.14602768
131	0xbe7831c2	-0.24237731
132	0xbe565b42	-0.2093325
133	0xbdffe11c	-0.12494108
134	0x3d4d2dac	0.050092384
135	0xbd6c1220	-0.057634473
136	0xbd449e97	-0.048002806
137	0x3d6cf3d5	0.057849724
138	0x3d0c9a41	0.034326795
139	0xbe729648	-0.2369014
140	0x3e3e9dfa	0.18614951
141	0x3e065546	0.13118467
142	0xbd7bbb2d	-0.0614578
143	0xbcc512a5	-0.024056742
144	0xbde0ac8e	-0.10970412
145	0x3e61155a	0.21980801
146	0xbe69e8ba	-0.22842684
147	0x3d986979	0.07441992
148	0xbd159869	-0.036522303
149	0xbe672137	-0.22571264
150	0xbe2cdcb6	-0.1688107
151	0xbe28d93e	-0.16489121
152	0x3de7d3a9	0.11319668
153	0xbe653847	-0.2238475
154	0x3e0e5e02	0.13903049
155	0xbe335dac	-0.17516202
156	0x3d21219a	0.039338686
157	0xbe789bb9	-0.24278153
158	0xbe2a89d9	-0.16654147
159	0xbdc77bb5	-0.09740392
160	0xbd9572b0	-0.072972655
161	0x3e5324a1	0.20619442
162	0x3e4d0066	0.20019683
163	0xbdb18bdd	-0.08669255
164	0x3d9b0e17	0.07571047
165	0xbd40fba9	-0.047115
166	0x3daeec32	0.085411444
167	0x3e7f7d4a	0.24950138
168	0xbe12f15d	-0.14349885
169	0xbe1dcade	-0.15409419
170	0x3e1d1ad2	0.15342262
171	0x3e7bf85c	0.2460646
172	0xbdb791d2	-0.0896336
173	0x3de85283	0.11343863
174	0xbd930212	-0.07178129
175	0xbe5d9793	-0.21639852
176	0x3de5bf09	0.11218078
177	0xbd9e884d	-0.07740841
178	0x3dc49401	0.09598542
179	0x3e0ae1b4	0.13562661
180	0x3c9e2385	0.019304046
181	0xbe384a77	-0.17997156
182	0xbb93146e	-0.0044885194
183	0x3e679cfe	0.22618482
184	0x3e72ab81	0.23698236
185	0x3d8ac977	0.067767076
186	0xbdcf4cb0	-0.10122049
187	0x3e0197fa	0.1265563
188	0x3d507af7	0.05089852
189	0xbdbcb8f4	-0.092149645
190	0x3e034c0a	0.12821975
191	0x3e1e9d40	0.15489674
192	0x3dee300d	0.11630259
193	0xbe386f27	-0.18011151
194	0xbdd22d7a	-0.1026258
195	0xbbc4f979	-0.006011185
196	0xbe1b87db	-0.15188543
197	0x3e1b8b47	0.15189849
198	0xbd8677ec	-0.06565842
199	0xbcdce7b7	-0.026965959
200	0xbc1c9646	-0.009557312
201	0x3e2bc2b3	0.1677349
202	0xbda60e06	-0.081081435
203	0x3e3a1ed1	0.18175818
204	0x3e4eff46	0.20214567
205	0xbd40be26	-0.04705634
206	0xbc841155	-0.016121546
207	0xbcb5296d	-0.02211448
208	0x3e649ae1	0.22324707
209	0xbe3bebd6	-0.18351683
210	0xbe2d0ff6	-0.1690062
211	0xbe2273c3	-0.15864472
212	0x3dc15e4c	0.09441814
213	0x3def883d	0.11695907
214	0xbccb8a1e	-0.024846133
215	0x3e0ee53b	0.13954632
216	0xbe032d56	-0.12810263
217	0xbe5a357a	-0.21309462
218	0x3db23eda	0.08703394
219	0xbe30693e	-0.17227647
220	0x3d98bb73	0.07457628
221	0xbd8d1331	-0.06888426
222	0xbcb48498	-0.022035882
223	0xbe043c87	-0.12913714
224	0xbd4d9982	-0.050195225
225	0xbe4ddf18	-0.20104635
226	0x3e0d70a7	0.13812505
227	0xbe297e01	-0.16551973
228	0xbdb4ccf8	-0.08828157
229	0x3ddd21c1	0.10797454
230	0xbd59a57e	-0.05313634
231	0xbd968ff6	-0.07351677
232	0xbe482095	-0.19543679
233	0xbd1dd8bc	-0.038536772
234	0x3e21cd07	0.15800868
235	0x3e165c53	0.14683656
236	0xbe33d373	-0.1756113
237	0xbe24d7ff	-0.16098021
238	0x3e011bcf	0.12608264
239	0x3dbda250	0.09259474
240	0x3be5bfb6	0.007011379
241	0x3e1d2f19	0.15349998
242	0xbd185e43	-0.03719927
243	0x3e0504d0	0.12990117
244	0x3dd1f80a	0.10252388
245	0xbbccf683	-0.0062549724
246	0x3e2fe1ff	0.17176054
247	0x3e4e5492	0.20149449
248	0x3e38dffa	0.1805419
249	0x3dd0b030	0.10189855
250	0x3ca96959	0.020680116
251	0xbe50c506	-0.20387658
252	0xbe184e64	-0.14873654
253	0x3e0b964e	0.13631555
254	0xbdc1b913	-0.09459128
255	0xbdf2853d	-0.118418194

transformer_encoder.layers.0.linear1.bias f4 [20]
0	0xbda346e6	-0.07972507
1	0x3db2ca6a	0.08730014
2	0xbe5d03b8	-0.2158345
3	0xbd59b649	-0.053152356
4	0x3e18786f	0.14889692
5	0x3d2374de	0.039906375
6	0xbe6241d8	-0.2209543
7	0xbe6a0f98	-0.22857511
8	0x3d35b70e	0.044364028
9	0x3d821ceb	0.06353172
10	0x3e01af66	0.12664565
11	0xbc52991c	-0.012853887
12	0x3d75b848	0.059990197
13	0xbd0937b9	-0.033500407
14	0xbdbd1470	-0.09232414
15	0xbd5b0066	-0.053467177
16	0xbe16fbe3	-0.14744525
17	0xbe0c363f	-0.13692568
18	0xbe09276b	-0.13393943
19	0xbe6f4f7a	-0.23370162

transformer_encoder.layers.0.linear2.weight f4 [20, 20]
0	0x3d88ced2	0.06680073
1	0xbe065658	-0.13118875
2	0xbd937f61	-0.0720203
3	0x3e53033c	0.20606703
4	0xbe42677b	-0.18984787
5	0x3ea61011	0.32434133
6	0x3d569d2d	0.05239599
7	0x3e2edfde	0.17077586
8	0xbe054256	-0.13013586
9	0x3e6671d7	0.22504364
10	0x3d997e05	0.074947394
11	0x3e845e6a	0.25853282
12	0xbe0fca96	-0.14042124
13	0x3cec5a25	0.028851578
14	0x3e36a77e	0.1783733
15	0x3d9f1d76	0.07769291
16	0x3e62f9ef	0.22165655
17	0xbd826573	-0.06367006
18	0xbd819be6	-0.063285634
19	0x3d65bd48	0.056088716
20	0x3e08364f	0.13301967
21	0x3d471056	0.048599564
22	0xbd58b14c	-0.05290346
23	0x3d4dbc5f	0.050228473
24	0xbcdbb0f6	-0.02681778
25	0x3e857f74	0.26073802
26	0x3df88183	0.121340774
27	0xbe23e80e	-0.1600649
28	0x3e0593ab	0.13044612
29	0x3c7e2563	0.015511843
30	0xbdc54eb9	-0.09634156
31	0xbc7ee1de	-0.015556781
32	0x3e183d2a	0.14867082
33	0xbd44af68	-0.048018843
34	0x3debe56d	0.11518369
35	0xbda3737d	-0.07981012
36	0x3b7e9ce5	0.003885084
37	0xbba40269	-0.00500517
38	0x3b86e640	0.0041168034
39	0xbbfe7e19	-0.007766497
40	0x3d61b231	0.055101577
41	0xbcd2c1ab	-0.025727114
42	0x3da32726	0.07966451
43	0xbdc74a78	-0.09731001
44	0xbe4712b4	-0.19440728
45	0x3e6c31ed	0.2306592
46	0xbe3a8543	-0.18214898
47	0x3e591b10	0.2120173
48	0x3e22bacd	0.15891571
49	0x3deac5cf	0.1146351
50	0xbd5603af	-0.052249607
51	0xbc8b03e9	-0.016969638
52	0xbd27d68f	-0.040976103
53	0xbd5f3345	-0.054492254
54	0x3d890063	0.06689527
55	0xbcfd201a	-0.030899096
56	0xbd969317	-0.07352274
57	0x3c847313	0.016168153
58	0x3d967a7f	0.07347583
59	0x3db24531	0.087046035
60	0x3e215648	0.1575557
61	0xbc926367	-0.017869664
62	0xbc95b9ae	-0.018277016
63	0xbda87170	-0.082247615
64	0x3d43dea6	0.047819756
65	0x3d6edc03	0.05831529
66	0x3e1b2259	0.15149821
67	0x3e1309b6	0.14359173
68	0x3bd15bf0	0.0063891336
69	0xbe0f6125	-0.14001901
70	0x3d04d447	0.032429006
71	0xbc285797	-0.010274789
72	0x3cddd44b	0.027078768
73	0x3b42fe2d	0.0029753551
74	0x3e0b7ab7	0.13621031
75	0x3e2e8577	0.170431
76	0xbdf04332	-0.117315665
77	0xbb410008	-0.0029449482
78	0x3cf99529	0.030466633
79	0xbda635eb	-0.08115753
80	0xbd3397d8	-0.04384598
81	0x3c11f716	0.008909008
82	0xbe1b9468	-0.15193331
83	0x3d7db3e9	0.061939154
84	0x3d9afed5	0.075681366
85	0x3e115aae	0.14194748
86	0x3d4b456d	0.049626756
87	0x3da4e861	0.08052135
88	0x3e39a048	0.18127549
89	0x3e0170b6	0.12640652
90	0xbdddd981	-0.10832501
91	0xbdeef7f7	-0.11668389
92	0x3dfe9230	0.12430227
93	0x3e4b08d9	0.19827594
94	0xbdadf68b	-0.0849429
95	0x3e3709dd	0.17874856
96	0x3df2fae8	0.11864263
97	0xbe42904d	-0.19000359
98	0x3d85849a	0.06519432
99	0xbb5cf9ec	-0.00337183
100	0x3e3eb0a7	0.18622075
101	0x3d98cdef	0.07461154
102	0xbdd6466b	-0.1046265
103	0xbd541ebf	-0.051787134
104	0x3cb5a48d	0.02217319
105	0x3e619fc6	0.22033605
106	0xbe51006d	-0.20410319
107	0xbdbda3eb	-0.092597805
108	0xbda0ae73	-0.078457735
109	0xbcc78155	-0.024353663
110	0x3d08666a	0.033300795
111	0x3d343027	0.043991234
112	0x3e0237da	0.12716618
113	0xbdb4fbb4	-0.08837071
114	0xbe170b45	-0.14750393
115	0xbe1e71f2	-0.15473154
116	0x3dea4574	0.114390284
117	0x3d6438cd	0.055718232
118	0xbc9efb15	-0.019406835
119	0x3e26a899	0.16275252
120	0xbdefe89e	-0.1171429
121	0x3d99c25a	0.07507773
122	0xbdb51179	-0.08841223
123	0x3e37b662	0.17940667
124	0x3da48e9e	0.080350146
125	0x3df0aef0	0.11752117
126	0xbc908263	-0.017640298
127	0x3c8315ec	0.016001664
128	0xbe94b594	-0.29044783
129	0x3e29208f	0.16516326
130	0x3d1406da	0.036139347
131	0xbe050b45	-0.1299258
132	0x3db5496d	0.088518955
133	0xbe4d9807	-0.20077525
134	0x3ccd8211	0.025086435
135	0x3e2d2b77	0.16911112
136	0x3d8ab84f	0.06773435
137	0x3d04f680	0.032461643
138	0xbca76a1b	-0.020436337
139	0x3cd2267e	0.02565312
140	0x3e175a03	0.1478043
141	0x3e2568e4	0.16153294
142	0x3dd5c7eb	0.10438522
143	0xbe260b32	-0.16215208
144	0x3e3c1cdd	0.18370385
145	0xbe48e52e	-0.19618675
146	0x3e52ddb3	0.20592384
147	0xbc02d63b	-0.007985647
148	0x3e458e2d	0.19292517
149	0x3c9a9640	0.018870473
150	0x3e21b3b1	0.15791203
151	0x3cdb380c	0.026760124
152	0x3d2fa1bf	0.042878862
153	0x3dd10663	0.10206296
154	0x3e145edd	0.14489312
155	0xbe2c9609	-0.16854109
156	0xbdb849e7	-0.08998471
157	0x3d927014	0.071502835
158	0x3dc4913d	0.095980145
159	0x3dac1e14	0.084041744
160	0x3d97abc7	0.07405811
161	0x3daeb547	0.0853067
162	0xbe0c0128	-0.13672316
163	0x3e4d5b39	0.2005433
164	0xbdb3b10f	-0.087740056
165	0x3dbf5c8d	0.093438245
166	0xbe73c17c	-0.23804277
167	0x3db63f40	0.08898783
168	0xbc9e4c80	-0.019323587
169	0x3e250883	0.16116528
170	0xbdeec736	-0.1165909
171	0xbe2c8445	-0.16847332
172	0x3de42130	0.111391425
173	0xbdbfb09e	-0.09359859
174	0x3d495f2a	0.04916302
175	0xbd32e982	-0.04367972
176	0x3e7d47f8	0.24734485
177	0x3e3b5b1c	0.18296474
178	0x3deda3f9	0.11603541
179	0x3d005b5d	0.03133713
180	0x3df2c5d1	0.11854137
181	0x3e2746b6	0.16335568
182	0x3de72454	0.11286226
183	0x3c6f8b26	0.014620578
184	0xbe0218e8	-0.12704813
185	0xbe51c7c1	-0.20486356
186	0xbc74825e	-0.01492366
187	0xbd97b4ac	-0.07407507
188	0xbd894086	-0.0670176
189	0xbd247f88	-0.040160686
190	0xbd80e20a	-0.062931135
191	0xbc9db70b	-0.01925232
192	0x3e1b7cd5	0.15184338
193	0xbd83bb0f	-0.06432163
194	0xbdb98537	-0.09058612
195	0xbdb3f417	-0.08786791
196	0x3d3f7bbd	0.046748865
197	0xbde7b9e1	-0.113147505
198	0x3dd20d93	0.10256495
199	0xbe45ba40	-0.1930933
200	0xbe1697df	-0.14706372
201	0xbe7a81e2	-0.24463609
202	0x3de2ff28	0.110838234
203	0x3e1dd37f	0.1541271
204	0x3e62f64c	0.22164267
205	0xbe18074f	-0.14846538
206	0x3e585aa9	0.21128334
207	0x3e5f532e	0.21809074
208	0xbdf096f0	-0.11747539
209	0x3d997563	0.07493093
210	0x3e52791d	0.20554014
211	0xbd988130	-0.074465156
212	0x3c5c4dac	0.013446253
213	0xbd58e64a	-0.052953996
214	0xbe19557d	-0.14974017
215	0x3c093f59	0.00837692
216	0xbe866282	-0.2624703
217	0x3e05c495	0.13063271
218	0xbd803e28	-0.06261855
219	0xbe92c4c4	-0.28665745
220	0x3e40d991	0.18832995
221	0x3e08e825	0.13369806
222	0xbd390a4a	-0.045175828
223	0xbe4de981	-0.20108606
224	0x3da76409	0.08173377
225	0x3d2b94d4	0.04188998
226	0x3e2f1636	0.17098317
227	0xbde531f6	-0.1119117
228	0x3e25a64d	0.1617672
229	0x3dc3fed1	0.09570087
230	0x3d8a13c4	0.06742051
231	0xbe9c2167	-0.30494234
232	0xbe8aa51d	-0.27079096
233	0x3d4fe837	0.050758567
234	0x3bda915d	0.0066701607
235	0x3e20cd17	0.15703236
236	0x3e066d70	0.13127685
237	0xbe1c2bf4	-0.15251142
238	0x3d6ffd72	0.058591314
239	0xbdacd740	-0.08439493
240	0xbd3b50c9	-0.04573134
241	0xbe48870f	-0.19582771
242	0x3e0289af	0.12747835
243	0xbe234fa0	-0.15948343
244	0x3d0cc1c0	0.034364462
245	0xbe0ef802	-0.13961795
246	0xbdb2e0cf	-0.08734285
247	0xbd4c04ba	-0.049809195
248	0xbe200b2f	-0.15629266
249	0xbe624eb6	-0.22100338
250	0xbe221556	-0.15828452
251	0xbe5fa566	-0.21840438
252	0x3e3807f8	0.1797179
253	0x3e0801f3	0.13281994
254	0x3d03ce50	0.032179177
255	0x3e25c029	0.16186585

transformer_encoder.layers.0.linear2.bias f4 [20]
0	0x3e1a972f	0.15096734
1	0x3cad1f45	0.021133075
2	0x3e4005be	0.1875219
3	0x3c71644e	0.014733387
4	0x3dee013b	0.116213284
5	0x3d43396e	0.04766219
6	0x3cdfc4e5	0.027315566
7	0xbe380090	-0.17968965
8	0x3c0d5a92	0.008627551
9	0xba555f91	-0.00081395457
10	0x3e2ddbe7	0.16978417
11	0xbd70ae75	-0.058760125
12	0x3d284127	0.04107776
13	0x3d4600c1	0.048340563
14	0xbd0d30ef	-0.034470495
15	0xbd8000d5	-0.06250159
16	0x3e120dec	0.14263123
17	0xbb17d451	-0.0023167322
18	0x3e1c8c1b	0.15287821
19	0xbdb60abc	-0.08888766

transformer_encoder.layers.0.norm1.weight f4 [20]
0	0x3f934875	1.1506487
1	0x3f7ca39f	0.98687166
2	0x3f99a47e	1.2003324
3	0x3f89d22f	1.0767268
4	0x3f8cad1e	1.0990331
5	0x3f8d3b9d	1.1033818
6	0x3f8a6681	1.0812532
7	0x3f734c57	0.9503836
8	0x3f919eec	1.1376624
9	0x3f85326d	1.0406014
10	0x3f777e87	0.9667744
11	0x3f8e6b0d	1.1126419
12	0x3f70b528	0.9402642
13	0x3f7cb59d	0.9871462
14	0x3f74e407	0.9566044
15	0x3f450713	0.7696392
16	0x3f72f2e7	0.9490189
17	0x3f8df3f8	1.1090078
18	0x3f81b712	1.0133994
19	0x3f76d03e	0.964115

transformer_encoder.layers.0.norm1.bias f4 [20]
0	0x3c737d66	0.01486144
1	0x3d9a8a0f	0.07545864
2	0x3d308545	0.043095846
3	0x3ce48af4	0.02789829
4	0xbbb1d405	-0.005426886
5	0x3cf632ca	0.030053515
6	0xbc984420	-0.018587172
7	0x3c61636b	0.013756613
8	0x3bd46477	0.006481703
9	0xbc3dc59c	-0.011582758
10	0x3b7e4a7c	0.003880172
11	0xbd8ecf99	-0.0697319
12	0x3d606b87	0.054790046
13	0xbd8aa20a	-0.06769188
14	0x3cd07569	0.02544661
15	0xbd003be5	-0.03130712
16	0x3a8729be	0.0010312123
17	0xbc9b5840	-0.01896298
18	0x3bf0cfb1	0.0073489775
19	0xbd096545	-0.033543844

transformer_encoder.layers.0.norm2.weight f4 [20]
0	0x3f97685e	1.1828725
1	0x3f5d613d	0.864765
2	0x3f9bb0b9	1.2163306
3	0x3f7bf36b	0.984183
4	0x3f8f33d2	1.1187689
5	0x3f74078c	0.95324016
6	0x3f8c17b5	1.0944735
7	0x3f7770a9	0.9665628
8	0x3f944b7d	1.1585537
9	0x3f855bdc	1.0418658
10	0x3f723fc4	0.9462855
11	0x3f8ea605	1.1144415
12	0x3f6adc93	0.9174282
13	0x3f7d8909	0.99037224
14	0x3f72941b	0.9475724
15	0x3f58fed2	0.84763825
16	0x3f7415c6	0.95345724
17	0x3f8c4d5b	1.0961107
18	0x3f8102b5	1.0078951
19	0x3f807711	1.0036336

transformer_encoder.layers.0.norm2.bias f4 [20]
0	0x3d6a54e6	0.05720987
1	0x3d9cee6e	0.07662664
2	0x3d437e2e	0.047727756
3	0x3da52e7b	0.08065506
4	0xbc8efc50	-0.017454296
5	0x3cbe6269	0.023240285
6	0xbc5445a6	-0.012956059
7	0x3d05f657	0.03270563
8	0x3cb4bf0c	0.022063754
9	0xbcd5a162	-0.02607793
10	0xbb53212d	-0.003221582
11	0xbd378223	-0.044801842
12	0x3c54cf64	0.012988899
13	0xbcab59fc	-0.020916931
14	0x3d5940ed	0.053040434
15	0x3c7638d1	0.0150281945
16	0xbcd8a280	-0.026444674
17	0xbcbe15d3	-0.023203766
18	0x3cd37940	0.025814652
19	0xbcfafeef	-0.03063914

transformer_encoder.layers.1.self_attn.in_proj_weight f4 [60, 20]
0	0xbe5af8fb	-0.21384041
1	0xbe643476	-0.22285637
2	0x3e50625a	0.20350018
3	0x3d4d03ef	0.05005258
4	0x3e3797de	0.17929026
5	0x3d906051	0.07049621
6	0xbe2934e7	-0.16524087
7	0x3dfffa3a	0.12498899
8	0x3ce2577e	0.02762961
9	0x3d73e0dc	0.059540614
10	0xbe543dd2	-0.20726708
11	0x3e6dcc37	0.23222433
12	0xbe8cc98a	-0.27497512
13	0x3e3fb66c	0.18721932
14	0x3e864f0a	0.26232177
15	0x3e8b4b45	0.27205864
16	0x3dac25d0	0.0840565
17	0xbdbbce8e	-0.091702566
18	0xbc998c9f	-0.018743811
19	0x3c76b3ab	0.015057485
20	0x3e62db7b	0.22154038
21	0xbcb68f60	-0.022285163
22	0xbe7292c1	-0.23688795
23	0x3dcbcc2e	0.099510536
24	0x3da65708	0.08122069
25	0x3ddf5ee7	0.10906773
26	0x3e1d2b71	0.15348603
27	0xbd7831ef	-0.060594495
28	0x3e55e1ed	0.20886965
29	0xbd0eee42	-0.03489519
30	0xbb55fd5e	-0.003265224
31	0xbd903d0d	-0.070428945
32	0x3dca00b7	0.098634176
33	0xbd9a0541	-0.07520533
34	0x3e62ae94	0.22136909
35	0x3e1eb0d8	0.15497148
36	0x3e856b37	0.2605836
37	0x3c8e2063	0.017349428
38	0x3d1cc560	0.03827417
39	0xbe11c095	-0.1423362
40	0x3ded446b	0.11585315
41	0xbe27cab3	-0.16385917
42	0xbd0b6a89	-0.034037147
43	0xbd8d11dc	-0.06888172
44	0x3e573836	0.21017537
45	0xbe496593	-0.19667654
46	0x3e53e712	0.20693615
47	0xbe8b7648	-0.2723868
48	0x3c5f38d3	0.013624388
49	0xbd9e6542	-0.07734157
50	0xbd92c007	-0.071655326
51	0xbda59940	-0.08085871
52	0x3d5ee81d	0.05442058
53	0xbe43830d	-0.1909296
54	0x3dda4d8e	0.10659324
55	0xbe2b70b5	-0.16742213
56	0xbd720f00	-0.059096336
57	0xbe874498	-0.2641952
58	0xbdc478ba	-0.09593339
59	0x3c16fce9	0.009215572
60	0x3d1dd469	0.03853265
61	0x3d23308a	0.039841212
62	0xbe121a40	-0.14267826
63	0x3d8f2dab	0.06991132
64	0x3e8ae3e8	0.27127004
65	0x3e2266b2	0.15859488
66	0xbdec7ddd	-0.11547444
67	0x3e274036	0.16333088
68	0x3bd987ba	0.0066384943
69	0x3c30c0a7	0.010788119
70	0x3d678ac4	0.05652882
71	0x3e0bc851	0.13650633
72	0xbe71089a	-0.23538437
73	0xbda46d15	-0.08028618
74	0x3c85023e	0.01623642
75	0x3e2eaab4	0.17057306
76	0xbe4e417b	-0.20142166
77	0xbdfda2ef	-0.12384593
78	0xbca48b0a	-0.02008583
79	0x3dc1a9a6	0.09456186
80	0xbe723b51	-0.2365544
81	0x3df5fe40	0.12011385
82	0xbe175410	-0.14778161
83	0x3e709915	0.23495896
84	0xbd1f986f	-0.03896373
85	0xbd89d8a3	-0.06730773
86	0xbc6dccfc	-0.014514204
87	0x3c27ac29	0.010233917
88	0x3e683ada	0.226787
89	0x3e17c1eb	0.14820068
90	0xbe673218	-0.22577703
91	0x3e272733	0.16323547
92	0x3e2d17f7	0.16903673
93	0xbda7baed	-0.0818995
94	0xbe4cb411	-0.19990565
95	0xbdb1370f	-0.0865308
96	0xbd660276	-0.05615469
97	0x3d2edcc2	0.042691
98	0x3c9f4a55	0.019444624
99	0x3e796520	0.24354982
100	0xbda2228c	-0.079167455
101	0xbc0595dd	-0.008153406
102	0x3e2cde33	0.16881637
103	0xbe6cce3d	-0.23125549
104	0x3dc59550	0.0964762
105	0x3cb52a15	0.022114793
106	0x3d01f920	0.031731725
107	0x3e5c2c11	0.21501185
108	0xbe51fad7	-0.20505844
109	0xbe1091ac	-0.1411807
110	0x3dc5697d	0.09639261
111	0x3e3c2c80	0.1837635
112	0xbd049d80	-0.032376766
113	0xbd1a02d8	-0.03760037
114	0xbe7c87a6	-0.24661121
115	0x3e13fb8a	0.14451423
116	0xbe24a0f7	-0.16077028
117	0xbe519f70	-0.20470977
118	0xbdab3feb	-0.08361801
119	0xbd47a786	-0.048743747
120	0xbe021fc5	-0.12707432
121	0x3da86f47	0.082243495
122	0x3de8ec81	0.113732345
123	0x3d094972	0.03351731
124	0xbe3c97de	-0.18417308
125	0xbdb0e251	-0.086369164
126	0xbc833a45	-0.016018996
127	0xbe144252	-0.14478424
128	0xbe238fa5	-0.15972765
129	0x3e26337c	0.16230577
130	0xbe09cb28	-0.13456404
131	0x3d8bd603	0.06827929
132	0xbd382b8d	-0.04496341
133	0x3dfa3cfd	0.12218664
134	0xbe23aa6f	-0.15982984
135	0x3e3a8077	0.18213068
136	0x3e3fe3fe	0.18739316
137	0xbdc97352	-0.09836449
138	0xbb3d2667	-0.0028862
139	0xbe0c901f	-0.13726853
140	0x3d89b5b6	0.06724112
141	0xbe3c7ad0	-0.18406224
142	0x3cdbf0c5	0.026848206
143	0x3ded832d	0.115972854
144	0x3e891429	0.26773193
145	0xbd3d1f6a	-0.046172537
146	0xbe66090e	-0.22464392
147	0xbd1270e6	-0.0357522
148	0xbdf7401b	-0.12072774
149	0xbde9e5d4	-0.11420789
150	0x3d3447e6	0.04401388
151	0xbe83d3e7	-0.25747606
152	0x3e286efa	0.16448584
153	0xb913ec2e	-0.00014106996
154	0xbe336f83	-0.17523007
155	0xbe35c5d2	-0.17751244
156	0x3db7ba98	0.08971137
157	0x3c7b8548	0.015351601
158	0xbdb5c9a5	-0.08876351
159	0xbddb6019	-0.107116885
160	0x3dd7755d	0.10520432
161	0xbd4c500d	-0.04988103
162	0xbdadc10d	-0.08484087
163	0x3e1e25d3	0.15444116
164	0x3e074f30	0.13213801
165	0xbd96d7ab	-0.07365354
166	0xbe79de96	-0.24401316
167	0x3e4e9036	0.201722
168	0xbd087733	-0.033316802
169	0x3e383e1f	0.17992447
170	0xbd2c1341	-0.04201055
171	0x3d46b6ea	0.048514284
172	0x3e7432ce	0.23847505
173	0xbde45ec1	-0.111508854
174	0x3de7b16a	0.11313136
175	0x3e249602	0.16072848
176	0x3e123c44	0.14280802
177	0xbe61e591	-0.22060229
178	0x3e8627c2	0.26202208
179	0x3df07e09	0.11742789
180	0xbe073daf	-0.13207124
181	0xbd54e078	-0.051971883
182	0x3e0b4949	0.13602175
183	0x3e0d2246	0.13782606
184	0x3e4c450b	0.19948213
185	0xbe670cde	-0.22563502
186	0xbdf58ecd	-0.11990128
187	0x3e30a459	0.17250194
188	0xbdbd9cd3	-0.092584275
189	0xbe14eb38	-0.14542854
190	0xbe14f534	-0.14546663
191	0xbdd04a7c	-0.10170457
192	0x3e2b2596	0.16713557
193	0xbd01b77d	-0.03166913
194	0x3c920d48	0.017828599
195	0x3be3b4bb	0.006949035
196	0xbe3fbbbb	-0.18723957
197	0xbdb01850	-0.08598387
198	0xbd9ddaa6	-0.077077195
199	0x3cd64646	0.026156556
200	0xbdf85ac3	-0.121266864
201	0xbe70ca42	-0.23514655
202	0x3cb121c0	0.021622539
203	0xbe1ca800	-0.15298462
204	0x3b806703	0.00391853
205	0x3dc560c6	0.09637599
206	0x3d6d81b1	0.05798501
207	0xbe361a65	-0.17783506
208	0x3e5a8b5d	0.21342225
209	0x3e20befc	0.15697855
210	0x3dcadb63	0.09905126
211	0xbc80565f	-0.015666185
212	0xbcacd682	-0.021098379
213	0x3bacf872	0.0052786404
214	0xbd7f37c0	-0.062309027
215	0xbae3ca17	-0.0017378953
216	0x3d0b160b	0.03395657
217	0x3e81193b	0.25214562
218	0x3de53068	0.111908734
219	0x3df56666	0.119824216
220	0xbbb3c9fd	-0.0054867254
221	0xbe86566f	-0.2623782
222	0xbe8d034d	-0.2754158
223	0xbe5f4112	-0.21802166
224	0x3e5060ab	0.20349376
225	0xbd9e2756	-0.077223465
226	0xbdabf87b	-0.08397003
227	0x3d20a67f	0.039221283
228	0x3b9baffa	0.0047512027
229	0x3e4db18e	0.20087263
230	0xbdfa7a37	-0.12230342
231	0x3cc82b78	0.02443479
232	0xbe1e6c52	-0.15471008
233	0xbd783396	-0.06059607
234	0xbe3bc62f	-0.1833732
235	0x3e09c93b	0.1345567
236	0x3da73176	0.08163731
237	0x3cb6465a	0.022250343
238	0x3c8dc0b3	0.0173038
239	0xbe8dcd4e	-0.27695698
240	0x3e8fc59e	0.28080457
241	0x3df8cbd0	0.12148249
242	0x3e6b1b24	0.22959572
243	0xbe84a59a	-0.25907594
244	0xbe3811c0	-0.17975521
245	0xbdf78efb	-0.12087818
246	0xbe7f1728	-0.24911177
247	0x3db489f5	0.08815376
248	0xbdb31016	-0.087433025
249	0xbe29e835	-0.16592486
250	0x3e0c4d5c	0.13701385
251	0x3c9a79ee	0.018856969
252	0x3e8d256b	0.2756761
253	0x3e671795	0.2256759
254	0x3e89d0c6	0.26917094
255	0xbcfbb112	-0.030724082

transformer_encoder.layers.1.self_attn.in_proj_bias f4 [60]
0	0x3cdbe283	0.026841408
1	0x39f7394c	0.000471542
2	0x3d133fd3	0.03594954
3	0xbc943bc2	-0.018094901
4	0xbc15ac63	-0.0091353385
5	0x3cc91c78	0.024549708
6	0x3c93c14e	0.01803651
7	0xbb9b6f03	-0.0047434582
8	0x3c9a89ca	0.018864531
9	0xbc27aad4	-0.0102336
10	0xbbcbb7a8	-0.006216962
11	0xbcec79df	-0.028866706
12	0xbaf0fa6e	-0.0018385181
13	0x3c13e96e	0.009027822
14	0x3b95a85b	0.0045671887
15	0x3b85657e	0.0040709367
16	0xbaea1810	-0.0017859954
17	0xbd213f46	-0.039366983
18	0xbc4be2cb	-0.012444208
19	0x3cf4a231	0.029862495
20	0xb0761bc4	-8.9533736e-10
21	0xaf03532a	-1.1943926e-10
22	0x31231283	2.3730145e-09
23	0x2fa1078e	2.9291097e-10
24	0xb0a7c955	-1.2208071e-09
25	0x314d54d9	2.9879657e-09
26	0x3115ead3	2.1815836e-09
27	0x31c9fd5d	5.878674e-09
28	0x2cdf2f3b	6.343285e-12
29	0x30a2bee3	1.1841305e-09
30	0xb09e5b2f	-1.1521929e-09
31	0xb12cb1a7	-2.5130278e-09
32	0x30babc2d	1.3586764e-09
33	0x2feb80e2	4.2837828e-10
34	0xb197415b	-4.4021085e-09
35	0xb04157f6	-7.033799e-10
36	0x3149a3a9	2.934238e-09
37	0xb0ae8647	-1.269833e-09
38	0xb085b4d0	-9.728414e-10
39	0xb0a9841a	-1.2333914e-09
40	0x3c988f27	0.018622948
41	0xbd5e3a10	-0.05425459
42	0x3c850cfa	0.01624154
43	0xbbb3aa12	-0.0054829204
44	0x3dab343b	0.083595715
45	0xbcbfc613	-0.023409879
46	0x3ca662c0	0.02031076
47	0x3c9f4af0	0.019444913
48	0x3d4e390b	0.05034737
49	0x3c8e1917	0.017345948
50	0x3bf5f075	0.0075054714
51	0x3c364706	0.011125332
52	0xbc6d70e0	-0.0144922435
53	0xbcaaaf87	-0.020835651
54	0xbd7f2b6d	-0.062297273
55	0xbcb906b4	-0.022586204
56	0x3d18d3fd	0.037311543
57	0x3c12aeb9	0.00895279
58	0xbd001639	-0.031271193
59	0x3c7fd259	0.015614116
