model_epoch_26.pt (torch, 431970 bytes, 28 tensors)

pos_encoder.pe f4 [5000, 1, 20]
0	0x00000000	0.0
1	0x3f800000	1.0
2	0x00000000	0.0
3	0x3f800000	1.0
4	0x00000000	0.0
5	0x3f800000	1.0
6	0x00000000	0.0
7	0x3f800000	1.0
8	0x00000000	0.0
9	0x3f800000	1.0
10	0x00000000	0.0
11	0x3f800000	1.0
12	0x00000000	0.0
13	0x3f800000	1.0
14	0x00000000	0.0
15	0x3f800000	1.0
16	0x00000000	0.0
17	0x3f800000	1.0
18	0x00000000	0.0
19	0x3f800000	1.0
20	0x3f576aa5	0.841471
21	0x3f0a5141	0.54030234
22	0x3ec67d3d	0.38767424
23	0x3f6bfada	0.92179644
24	0x3e219d4e	0.15782663
25	0x3f7ccaa0	0.9874668
26	0x3d812265	0.06305388
27	0x3f7f7d97	0.9980101
28	0x3ccdc08a	0.025116224
29	0x3f7feb53	0.9996845
30	0x3c23d657	0.009999833
31	0x3f7ffcb9	0.99995
32	0x3b827390	0.0039810613
33	0x3f7fff7b	0.9999921
34	0x3acfbc28	0.0015848922
35	0x3f7fffeb	0.99999875
36	0x3a2566d4	0.0006309573
37	0x3f7ffffd	0.9999998
38	0x3983b1f5	0.00025118855
39	0x3f7fffff	0.99999994
40	0x3f68c7b7	0.9092974
41	0xbed51133	-0.41614684
42	0x3f36f776	0.71471345
43	0x3f330d04	0.69941735
44	0x3e9f96c5	0.31169716
45	0x3f733f18	0.9501815
46	0x3e00e09d	0.12585683
47	0x3f7df6e3	0.99204844
48	0x3d4dafec	0.0502166
49	0x3f7fad51	0.99873835
50	0x3ca3d43e	0.019998666
51	0x3f7ff2e5	0.9998
52	0x3c02734d	0.00796206
53	0x3f7ffdec	0.9999683
54	0x3b4fbc17	0.0031697804
55	0x3f7fffac	0.999995
56	0x3aa566d2	0.0012619144
57	0x3f7ffff3	0.9999992
58	0x3a03b1f5	0.0005023771
59	0x3f7ffffe	0.9999999
60	0x3e1081c3	0.14112
61	0xbf7d7026	-0.9899925
62	0x3f6e1248	0.92996645
63	0x3ebc3be5	0.36764446
64	0x3eea5ece	0.45775455
65	0x3f639aa8	0.8890786
66	0x3e40acb9	0.18815888
67	0x3f7b6d6f	0.9821386
68	0x3d9a2f2d	0.07528529
69	0x3f7f4603	0.99716204
70	0x3cf5b91f	0.0299955
71	0x3f7fe283	0.99955004
72	0x3c43ac49	0.011942931
73	0x3f7ffb53	0.99992865
74	0x3b9bccfc	0.0047546607
75	0x3f7fff42	0.9999887
76	0x3af81a36	0.001892871
77	0x3f7fffe2	0.9999982
78	0x3a458aef	0.00075356563
79	0x3f7ffffb	0.9999997
80	0xbf41bdcf	-0.7568025
81	0xbf275530	-0.6536436
82	0x3f7ff0ab	0.99976605
83	0xbcb132ce	-0.02163067
84	0x3f17a372	0.5923377
85	0x3f4e41b0	0.8056898
86	0x3e7fb48a	0.24971214
87	0x3f77e3d4	0.96832013
88	0x3dcd6d7d	0.10030649
89	0x3f7eb57a	0.9949566
90	0x3d23cbdb	0.039989334
91	0x3f7fcb94	0.9992001
92	0x3c82723e	0.015923616
93	0x3f7ff7b1	0.9998732
94	0x3bcfbbd3	0.006339529
95	0x3f7ffeaf	0.9999799
96	0x3b2566c9	0.0025238267
97	0x3f7fffcb	0.99999684
98	0x3a83b1f4	0.0010047541
99	0x3f7ffff8	0.9999995
100	0xbf757c10	-0.9589243
101	0x3e913c2c	0.2836622
102	0x3f69c728	0.91319513
103	0xbed0a6ce	-0.40752262
104	0x3f364a6e	0.7120732
105	0x3f33bd2c	0.7021053
106	0x3e9edbeb	0.3102716
107	0x3f735daa	0.95064795
108	0x3e00454f	0.12526439
109	0x3f7dfbcd	0.9921234
110	0x3d4cb6f4	0.049979165
111	0x3f7fae19	0.99875027
112	0x3ca30dcf	0.019904045
113	0x3f7ff304	0.9998019
114	0x3c01d544	0.007924382
115	0x3f7ffdf1	0.9999686
116	0x3b4ec074	0.0031547816
117	0x3f7fffad	0.99999505
118	0x3aa49e6f	0.0012559424
119	0x3f7ffff3	0.9999992
120	0xbe8f0f8c	-0.2794155
121	0x3f75cdb8	0.96017027
122	0x3f2f0d20	0.683794
123	0xbf3acbfd	-0.7296751
124	0x3f505fa7	0.81395954
125	0x3f14b747	0.5809216
126	0x3ebd3bb7	0.3695962
127	0x3f6ddf8f	0.9291925
128	0x3e19bf29	0.15014328
129	0x3f7d191a	0.98866427
130	0x3d759cd1	0.059964005
131	0x3f7f8a12	0.99820054
132	0x3cc3a8b7	0.02388416
133	0x3f7fed4e	0.99971473
134	0x3c1bcc88	0.009509213
135	0x3f7ffd09	0.99995476
136	0x3b781a19	0.0037857352
137	0x3f7fff88	0.99999285
138	0x3ac58aeb	0.0015071308
139	0x3f7fffed	0.99999887
140	0x3f283046	0.6569866
141	0x3f40ffbd	0.75390226
142	0x3eb1e3fd	0.34744254
143	0xbf700d31	-0.9377013
144	0x3f653bc0	0.89544296
145	0x3ee3ee26	0.4451763
146	0x3edadab9	0.42744997
147	0x3f676f1a	0.904039
148	0x3e33202d	0.17492743
149	0x3f7c0d86	0.98458135
150	0x3d8f3e32	0.06994285
151	0x3f7f5f81	0.997551
152	0x3ce442d4	0.027863897
153	0x3f7fe68e	0.99961174
154	0x3c35c3b4	0.011094023
155	0x3f7ffbf8	0.9999385
156	0x3b90b9db	0.004416687
157	0x3f7fff5c	0.9999902
158	0x3ae67765	0.001758319
159	0x3f7fffe6	0.99999845
160	0x3f7d4695	0.98935825
161	0xbe14fdf6	-0.14550003
162	0xbd312831	-0.04325122
163	0xbf7fc2ac	-0.9990642
164	0x3f7458dc	0.9544809
165	0x3e98b71d	0.29827204
166	0x3ef79ac2	0.48360258
167	0x3f6012db	0.8752877
168	0x3e4c6442	0.1996012
169	0x3f7ad93c	0.97987723
170	0x3da3aa50	0.07991469
171	0x3f7f2e66	0.99680173
172	0x3d026e02	0.031843193
173	0x3f7fdec4	0.9994929
174	0x3c4fbac1	0.012678803
175	0x3f7ffabb	0.9999196
176	0x3ba566a7	0.0050476375
177	0x3f7fff2a	0.99998724
178	0x3b03b1ef	0.002009507
179	0x3f7fffde	0.999998
180	0x3ed30132	0.4121185
181	0xbf693fd5	-0.91113025
182	0xbedab75c	-0.42718017
183	0xbf677775	-0.9041665
184	0x3f7d5600	0.9895935
185	0x3e135839	0.14389123
186	0x3f09af43	0.53783053
187	0x3f57d252	0.843053
188	0x3e658754	0.22414905
189	0x3f797c6e	0.9745549
190	0x3db8123e	0.089878544
191	0x3f7ef6c2	0.9959527
192	0x3d12ba12	0.03582198
193	0x3f7fd5f0	0.9993582
194	0x3c69b1ad	0.014263553
195	0x3f7ff955	0.99989825
196	0x3bba136e	0.0056785857
197	0x3f7ffef1	0.99998385
198	0x3b14282c	0.0022606952
199	0x3f7fffd5	0.99999744
200	0xbf0b44f8	-0.5440211
201	0xbf56cd64	-0.8390715
202	0xbf3e8a23	-0.7442953
203	0xbf2af843	-0.6678507
204	0x3f7ff97d	0.99990064
205	0xbc66f4ba	-0.014096433
206	0x3f1704e0	0.58991814
207	0x3f4eb5e6	0.80746305
208	0x3e7e8553	0.24855547
209	0x3f77f754	0.9686177
210	0x3dcc7576	0.099833414
211	0x3f7eb898	0.9950042
212	0x3d23058a	0.039800204
213	0x3f7fcc13	0.9992077
214	0x3c81d439	0.015848266
215	0x3f7ff7c5	0.9998744
216	0x3bcec030	0.0063095316
217	0x3f7ffeb2	0.9999801
218	0x3b249e67	0.002511883
219	0x3f7fffcb	0.99999684
220	0xbf7fff5c	-0.9999902
221	0x3b910572	0.004425698
222	0xbf71eb58	-0.9449973
223	0xbea776c9	-0.32707813
224	0x3f7c3265	0.98514396
225	0xbe2fda27	-0.17173062
226	0x3f23c09f	0.6396579
227	0x3f44c6e2	0.7686597
228	0x3e8bad1c	0.2728051
229	0x3f764a2d	0.96206933
230	0x3de0d372	0.1097783
231	0x3f7e73e8	0.9939561
232	0x3d335059	0.043777797
233	0x3f7fc12c	0.9990413
234	0x3c8ecf86	0.01743294
235	0x3f7ff60a	0.999848
236	0x3be36ced	0.006940475
237	0x3f7ffe6c	0.9999759
238	0x3b3514a2	0.0027630706
239	0x3f7fffc0	0.9999962
240	0xbf095cd8	-0.53657293
241	0x3f5806d0	0.84385395
242	0xbf7f760b	-0.99789494
243	0x3d84d0e1	0.06485153
244	0x3f7218f5	0.9456933
245	0xbea66e4d	-0.32506028
246	0x3f2fd589	0.68685204
247	0x3f3a0f63	0.7267973
248	0x3e9800fe	0.29688257
249	0x3f74753e	0.954914
250	0x3df52bac	0.119712204
251	0x3f7e28b5	0.99280864
252	0x3d439a6d	0.047754694
253	0x3f7fb53b	0.9988591
254	0x3c9bcaba	0.019017566
255	0x3f7ff426	0.99981916

transformer_encoder.layers.0.self_attn.in_proj_weight f4 [60, 20]
0	0xbe57e014	-0.21081573
1	0xbe4e08f3	-0.20120601
2	0x3e54323c	0.20722288
3	0x3d9a6d0d	0.07540331
4	0x3e41d98d	0.18930645
5	0x3d823c83	0.06359198
6	0xbe3bdb0f	-0.18345283
7	0x3e10dcfd	0.141468
8	0x3cc4a03e	0.02400219
9	0x3d3bd620	0.045858502
10	0xbe535ed2	-0.2064164
11	0x3e64896b	0.22318046
12	0xbe8df14b	-0.27723154
13	0x3e3933a0	0.180861
14	0x3e8707da	0.26373178
15	0x3e854f52	0.2603708
16	0x3d956fb8	0.07296699
17	0xbdd42da3	-0.10360267
18	0xbcad9ef5	-0.02119396
19	0xbad8e6fe	-0.0016548333
20	0x3e7751b8	0.24152267
21	0xbd71737b	-0.05894802
22	0xbe8521d6	-0.26002377
23	0x3db8473a	0.089979604
24	0x3d930a31	0.07179678
25	0x3df6abec	0.1204451
26	0x3e28608d	0.16443081
27	0xbdb32132	-0.08746566
28	0x3e611532	0.21980742
29	0xbd203c44	-0.039119974
30	0x3b4d9402	0.0031368737
31	0xbdb06786	-0.086134955
32	0x3de27172	0.11056794
33	0xbdb8022d	-0.0898479
34	0x3e67d4d9	0.22639789
35	0x3e223c6a	0.15843359
36	0x3e853056	0.2601344
37	0x3c916d46	0.017752301
38	0x3d2f8cd8	0.04285893
39	0xbe072bdb	-0.13200323
40	0x3dc94447	0.09827476
41	0xbdf2f4f3	-0.118631266
42	0xbca01432	-0.01954088
43	0xbd2a6e84	-0.041609302
44	0x3e694668	0.22780764
45	0xbe594f37	-0.21221624
46	0x3e4c5b8a	0.19956794
47	0xbe694568	-0.22780383
48	0x39f50cf1	0.00046739684
49	0xbd8aa898	-0.06770438
50	0xbda0e542	-0.078562275
51	0xbd992707	-0.07478147
52	0x3d4ad5c6	0.049520276
53	0xbe336573	-0.17519169
54	0x3dddd963	0.10832479
55	0xbe35a9e2	-0.17740586
56	0xbd8b5fd4	-0.06805387
57	0xbe821bf1	-0.25411943
58	0xbdd86c51	-0.10567535
59	0xbc4d702f	-0.012538954
60	0x3da2264b	0.0791746
61	0x3bc914ba	0.006136504
62	0xbe102e88	-0.1408025
63	0x3d91f61b	0.07127019
64	0x3e7ca572	0.24672487
65	0x3e2234fa	0.15840521
66	0xbdfdbded	-0.12389741
67	0x3dfff184	0.12497237
68	0x3cdaf6eb	0.026729068
69	0xbc7348c5	-0.014848893
70	0x3d8a64ab	0.06757482
71	0x3dfdce21	0.123928316
72	0xbe742d84	-0.23845488
73	0xbddbfae2	-0.107412115
74	0x3cab73dc	0.02092927
75	0x3e3473e0	0.17622328
76	0xbe46a26c	-0.19397897
77	0xbe0ed437	-0.13948141
78	0xbc01f64c	-0.007932257
79	0x3de75a25	0.112964906
80	0xbe6a9aa2	-0.2291055
81	0x3ddd6846	0.10810904
82	0xbe28600c	-0.16442889
83	0x3e6f3174	0.23358709
84	0xbd598004	-0.0531006
85	0xbd826e2c	-0.0636867
86	0xbc9e9f38	-0.01936303
87	0xbc418cdb	-0.011813368
88	0x3e6b7c28	0.2299658
89	0x3e0b3729	0.1359526
90	0xbe638e0a	-0.22222152
91	0x3e1ad41d	0.15119977
92	0x3e2cc70f	0.1687281
93	0xbdbf2086	-0.09332375
94	0xbe4f07bb	-0.20217793
95	0xbdba01cd	-0.09082375
96	0xbd62286c	-0.05521433
97	0x3d0a4303	0.033755314
98	0x3cc4c70a	0.02402069
99	0x3e7c2164	0.24622113
100	0xbdf1369b	-0.11777993
101	0x3cb31408	0.021860138
102	0x3e34161e	0.17586562
103	0xbe615135	-0.22003634
104	0x3dc2a95b	0.09504958
105	0x3cbbc55d	0.022921259
106	0x3cbdc8e7	0.023167087
107	0x3e6aaa3c	0.22916502
108	0xbe68b5b4	-0.22725564
109	0xbe0dd255	-0.13849767
110	0x3d99c590	0.07508385
111	0x3e585847	0.21127425
112	0xbd3eb3c5	-0.04655816
113	0xbd31f1a9	-0.043443356
114	0xbe7f39e9	-0.24924435
115	0x3e200feb	0.15631072
116	0xbe3058a5	-0.17221315
117	0xbe565b2c	-0.20933217
118	0xbdc772b0	-0.09738672
119	0xbd3cc9e6	-0.046090983
120	0xbdf3f4e2	-0.11911942
121	0x3d9dd6cd	0.077069856
122	0x3e2ed36a	0.17072836
123	0x3d2090e5	0.039200682
124	0xbe3edf58	-0.18639886
125	0xbdfdad6b	-0.123865925
126	0x3c56fdd3	0.01312204
127	0xbe0fde00	-0.1404953
128	0xbdd56aca	-0.10420759
129	0x3e3e9f51	0.18615462
130	0xbdd7da2b	-0.10539659
131	0x3e011d88	0.12608922
132	0xbc6d12a7	-0.014469779
133	0x3e0389d6	0.12845549
134	0xbe181a1b	-0.14853708
135	0x3e78a3e7	0.24281274
136	0x3e4de907	0.20108424
137	0xbde70bc3	-0.1128154
138	0x3b08366f	0.0020784398
139	0xbdede97c	-0.11616799
140	0x3dfe0574	0.12403384
141	0xbe9fcb59	-0.3120983
142	0x3d5ca1e5	0.053865332
143	0x3dbcce89	0.09219081
144	0x3e91e718	0.28496623
145	0xbd89e196	-0.0673248
146	0xbe3051da	-0.17218724
147	0xbd119663	-0.03554381
148	0xbe02602c	-0.12731999
149	0xbd8068f7	-0.062700205
150	0x3d36f1df	0.04466426
151	0xbe60ea35	-0.21964343
152	0x3e45ca17	0.19315372
153	0x3ca240e3	0.019806331
154	0xbe417bc2	-0.18894866
155	0xbe171c24	-0.14756829
156	0x3dbfa019	0.09356708
157	0x3d1aef4f	0.03782588
158	0xbd9d676a	-0.0768574
159	0xbdd0884f	-0.10182249
160	0x3dbe765c	0.09299919
161	0x3d3cbb1a	0.04607687
162	0xbd877212	-0.06613554
163	0x3e365a2e	0.17807838
164	0x3e07eb86	0.13273439
165	0xbd96b097	-0.073579006
166	0xbe88e9d1	-0.26740888
167	0x3e5c2838	0.21499717
168	0xbd16ba85	-0.036798973
169	0x3e1b2d2f	0.15153955
170	0xbd463033	-0.04838581
171	0x3d81ed60	0.06344104
172	0x3e5f0f27	0.21783124
173	0xbdd8cd61	-0.10586048
174	0x3df1e331	0.118109114
175	0x3e33f1d9	0.17572726
176	0x3e082a9f	0.13297509
177	0xbe7581db	-0.23975317
178	0x3e887196	0.2664916
179	0x3e053efa	0.13012305
180	0xbe0593f2	-0.13044718
181	0xbda5d0d9	-0.08096475
182	0x3def09d2	0.11671795
183	0x3dec5f31	0.11541594
184	0x3e52ef59	0.20599116
185	0xbe4cd2b0	-0.20002246
186	0xbe12a31b	-0.14320032
187	0x3e337695	0.17525704
188	0xbe1073a4	-0.14106613
189	0xbe1af130	-0.15131068
190	0xbe3a48c7	-0.18191825
191	0xbdfa0bf0	-0.12209308
192	0x3e12fc3a	0.1435403
193	0xbcf4aaf6	-0.029866677
194	0xbabd91b8	-0.0014462983
195	0xbca43bf1	-0.020048114
196	0xbe4cc2fc	-0.19996256
197	0xbd9aa972	-0.075518504
198	0xbd9c2f9a	-0.07626267
199	0x3c32e893	0.010919708
200	0xbe187d99	-0.14891662
201	0xbe79c76f	-0.24392484
202	0x3d47de12	0.048795767
203	0xbe35009a	-0.1767601
204	0xbc1efd6d	-0.009703976
205	0x3e08a89e	0.13345572
206	0x3ce271fa	0.027642239
207	0xbe48a710	-0.1959498
208	0x3e5d83dd	0.21632333
209	0x3e16efac	0.14739865
210	0x3df52719	0.11970348
211	0x3cf50c84	0.029913194
212	0xbd07e345	-0.033175725
213	0x3c531df9	0.012885564
214	0xbd49672b	-0.049170654
215	0x3c80a558	0.015703842
216	0x3d5ba2e6	0.05362215
217	0x3e732a49	0.237466
218	0x3dea81bd	0.11450527
219	0x3e04dafc	0.12974161
220	0x3c581667	0.013188935
221	0xbe893d5d	-0.2680463
222	0xbe6458dc	-0.22299522
223	0xbe67021d	-0.225594
224	0x3e4bd8d1	0.19906928
225	0xbdba9a03	-0.09111407
226	0xbdfcdaa9	-0.123463936
227	0x3d3279c1	0.043573145
228	0x3bf94598	0.007607173
229	0x3e31f8a4	0.17380005
230	0xbde6f424	-0.11277035
231	0x3d275601	0.040853504
232	0xbe38fd5c	-0.18065399
233	0xbd8a2f7d	-0.06747339
234	0xbe38586d	-0.18002482
235	0x3e00ee01	0.12590791
236	0x3dc328b5	0.095292486
237	0xbb248798	-0.0025105234
238	0x3c93c133	0.01803646
239	0xbe8c5cc9	-0.2741454
240	0x3e978ece	0.2960114
241	0x3dfff601	0.124980934
242	0x3e65e83b	0.2245187
243	0xbe773d20	-0.24144411
244	0xbe400f2f	-0.18755792
245	0xbe0fbad4	-0.14036113
246	0xbe74a92d	-0.2389266
247	0x3db8332c	0.08994135
248	0xbdaa147d	-0.08304689
249	0xbe2cb71b	-0.16866724
250	0x3dfa9ec2	0.12237312
251	0xbc1a9d86	-0.009436971
252	0x3e8c4501	0.27396396
253	0x3e537544	0.20650202
254	0x3e87a105	0.26490036
255	0xbd3fdd0f	-0.046841677

transformer_encoder.layers.0.self_attn.in_proj_bias f4 [60]
0	0xbc55e2dd	-0.013054577
1	0x3b74e0e7	0.0037365498
2	0xbbe27ab7	-0.0069116014
3	0x3a83c679	0.0010053656
4	0xbb4e9779	-0.003152339
5	0x3b0e7620	0.0021737888
6	0x3d038f9c	0.03211938
7	0x3ced560c	0.028971694
8	0x3c13b1ea	0.009014586
9	0xbc10da54	-0.008841116
10	0x3c905c67	0.017622186
11	0xbc431c9f	-0.011908679
12	0xbc953b2a	-0.018216688
13	0xbca6b72d	-0.020351017
14	0x3c4fc204	0.012680534
15	0x3cbad91c	0.022808604
16	0xbbc00236	-0.0058596386
17	0xbd36fd25	-0.04467501
18	0x3b1fcef4	0.0024384828
19	0x3d23d91c	0.040001974
20	0xaf524b87	-1.9126221e-10
21	0xad8f300e	-1.6278558e-11
22	0x30761568	8.95247e-10
23	0xb0901316	-1.0482804e-09
24	0x30272b20	6.081553e-10
25	0x3215207f	8.68033e-09
26	0x31a7b0e5	4.8804503e-09
27	0x3030e7ab	6.4357647e-10
28	0x3196a615	4.384456e-09
29	0x312ceebd	2.5165001e-09
30	0xac8547a4	-3.788041e-12
31	0x3093f441	1.0765079e-09
32	0xb011b23c	-5.300398e-10
33	0xb056c65d	-7.813464e-10
34	0xb14ff60e	-3.026233e-09
35	0x31ae0a66	5.0652487e-09
36	0xb150b17c	-3.0368872e-09
37	0x3115ee40	2.1817783e-09
38	0x30cbb94f	1.4822862e-09
39	0x2f92015b	2.6558208e-10
40	0xbd35d27d	-0.04439019
41	0x3d6befc9	0.057601724
42	0xbce2d953	-0.027691519
43	0xbca77983	-0.020443683
44	0x3d4f6c6b	0.050640505
45	0x3d9ac0e7	0.075563245
46	0xbbdae69a	-0.006680322
47	0x3d68acb4	0.056805328
48	0x3d74214f	0.059602078
49	0x3c320205	0.010864739
50	0xbcb4b8a6	-0.022060703
51	0x3c444746	0.011979884
52	0xbd892f7a	-0.066985086
53	0x3d8e21da	0.069400504
54	0x3c182c51	0.00928791
55	0x3d9bb8c0	0.07603598
56	0x3d228fb0	0.039687812
57	0x3d370eb8	0.04469177
58	0x3b73b984	0.0037189433
59	0xbc5ae609	-0.013360509

transformer_encoder.layers.0.self_attn.out_proj.weight f4 [20, 20]
0	0x3e29f6ba	0.16598025
1	0xbd708e09	-0.058729205
2	0xbd0d8d6d	-0.034558702
3	0x3d96ecf6	0.073694155
4	0x3e66e82e	0.22549507
5	0xbd470478	-0.048588246
6	0x3e2313a5	0.15925463
7	0x3d8ad8d0	0.06779635
8	0xbdaac07b	-0.08337494
9	0x3cf0066d	0.029299939
10	0xbe526191	-0.20545031
11	0x3d9875a8	0.07444316
12	0xbd07df99	-0.033172224
13	0xbc8bd97e	-0.017071482
14	0x3db28b76	0.08718006
15	0xbe996ed5	-0.2996737
16	0x3cc9c37e	0.02462935
17	0x3d65a083	0.05606128
18	0x3e94b32a	0.2904294
19	0x3c864942	0.016392354
20	0x3e0f9348	0.14021027
21	0xbdb79fb7	-0.0896601
22	0x3d4212e1	0.047381286
23	0xbd05ec76	-0.03269621
24	0x3dcfee5a	0.10152884
25	0xbcbe1af4	-0.023206212
26	0xbe3f1026	-0.18658504
27	0xbe1850bc	-0.14874548
28	0xbe283639	-0.16426934
29	0xbd6e1295	-0.05812319
30	0xbcf15528	-0.029459551
31	0x3d948897	0.07252615
32	0x3ddf2420	0.10895562
33	0xbe1ea06a	-0.1549088
34	0xbe07a3bb	-0.13246052
35	0x3d66a6e6	0.05631151
36	0xbd72cb65	-0.059276003
37	0x3d79bba6	0.06096997
38	0x3d53a6e6	0.05167284
39	0xbd9c7814	-0.076400906
40	0xbe0927d3	-0.13394098
41	0xbd5c8343	-0.05383612
42	0xbdf6dce3	-0.120538495
43	0xbe0b680e	-0.13613912
44	0x3e4da65e	0.20082995
45	0xbe1184b6	-0.14210781
46	0xbdfdeaa4	-0.1239827
47	0x3d2ec130	0.042664707
48	0xbe42a396	-0.19007716
49	0xbc886ec8	-0.016654387
50	0xbdf511b3	-0.119662665
51	0xbe2185df	-0.15773724
52	0x3d0a637a	0.033786274
53	0x3dae6230	0.085148215
54	0x3bf4ac95	0.0074668624
55	0xbe0f6153	-0.1400197
56	0x3e1d85d4	0.15383083
57	0xbd22e9e5	-0.03977384
58	0x3dd17c13	0.102287434
59	0xbe1738f7	-0.14767824
60	0x3d959a9f	0.07304882
61	0xbd3b31db	-0.045701843
62	0x3c845614	0.016154326
63	0xbaf0e8f9	-0.0018379978
64	0x3e4abf27	0.19799481
65	0xbe735091	-0.23761202
66	0x3e043891	0.12912203
67	0xbca2cfa5	-0.019874403
68	0x3dc3ddd9	0.095637985
69	0x3d9fa61e	0.07795356
70	0x3c9f654b	0.01945748
71	0xbdb07021	-0.08615137
72	0x3dead3c0	0.11466169
73	0x3dbb9a5c	0.09160301
74	0x3e9af2f0	0.30263472
75	0xbe16dd8c	-0.14732951
76	0xbe071e75	-0.13195212
77	0x3dc29871	0.09501732
78	0x3bc9ca45	0.0061581456
79	0x3e8d1654	0.27556098
80	0xbd52f989	-0.051507507
81	0x3dcd3e6a	0.1002167
82	0xbe6477d6	-0.22311339
83	0xbe3b11ac	-0.1826846
84	0xbc8f6b77	-0.017507298
85	0xbbd599c1	-0.006518573
86	0x3e3769e3	0.17911486
87	0xbd1667fc	-0.03672026
88	0x3e405b59	0.18784846
89	0x3d476a30	0.048685253
90	0xbcf48f4f	-0.029853491
91	0x3d4d6bf6	0.050151788
92	0xbe3360f2	-0.1751745
93	0x3e4a2886	0.19742021
94	0xbd7cd1a6	-0.061723374
95	0xbe0cab55	-0.13737233
96	0x3dbe2449	0.092842646
97	0x3d5b9a12	0.05361373
98	0x3df027af	0.11726319
99	0xbe076fc3	-0.13226227
100	0x3e7b35cd	0.24532242
101	0x3d61a2bd	0.05508684
102	0xbe532334	-0.20618898
103	0x3bec35b8	0.007208552
104	0xbd8c6c5a	-0.06856604
105	0xbd8f8f2e	-0.07009731
106	0xbe9ea88c	-0.30987966
107	0xbe3083ec	-0.17237824
108	0xbc02c218	-0.007980846
109	0x3e6e4fc2	0.23272613
110	0xbe62c026	-0.22143611
111	0xbd057230	-0.0325796
112	0x3a0e7669	0.00054345146
113	0x3b55c0bf	0.0032616106
114	0x3d61725c	0.055040702
115	0x3df10417	0.11768358
116	0x39aa4ed4	0.00032483658
117	0xbd6c2e68	-0.057661444
118	0x3e386175	0.18005927
119	0xbe171d3b	-0.14757244
120	0x3d8dbc27	0.06920653
121	0xbda95205	-0.08267597
122	0xbdec785f	-0.115463965
123	0x3d8c6fa1	0.06857229
124	0x3e42079b	0.18948214
125	0xbe51c9b0	-0.20487094
126	0x3e04c5e8	0.1296612
127	0x3d1dc4c6	0.038517736
128	0x3e34624a	0.1761562
129	0x3e0df178	0.13861644
130	0x3da187a3	0.07887199
131	0x3d7f7d49	0.06237534
132	0x3e3f3972	0.18674257
133	0xbdc66917	-0.09688013
134	0xbe350782	-0.17678645
135	0x3e37d886	0.17953691
136	0xbb533502	-0.003222764
137	0x3d3da77a	0.046302296
138	0xbe219af7	-0.1578177
139	0xbe053bd1	-0.130111
140	0x3d996b73	0.074911974
141	0xbe0c74a4	-0.1371637
142	0x3e03e1c1	0.12879087
143	0xbd6d2114	-0.057892874
144	0x3e01245f	0.1261153
145	0xbd57349e	-0.052540414
146	0xbd6270f5	-0.055283505
147	0x3e02c0e9	0.12768902
148	0x3e0bc4cd	0.13649292
149	0xbdcb8f14	-0.09939399
150	0xbe2ce104	-0.16882712
151	0xbe331c10	-0.17491174
152	0x3e12a3fc	0.14320368
153	0xbd7918a2	-0.060814507
154	0xbd99d5c1	-0.075114734
155	0xbd25781e	-0.040397756
156	0x3da6727b	0.08127304
157	0x3e22072e	0.15823051
158	0xbd00eca2	-0.03147567
159	0xbd9440c5	-0.07238916
160	0x3d33b004	0.043869033
161	0x3e27a01e	0.16369674
162	0x3e501f95	0.20324548
163	0x3b8cc444	0.0042958576
164	0xbd94aff3	-0.07260122
165	0x3d20c8a5	0.03925385
166	0xbd2ba601	-0.04190636
167	0x3e644133	0.22290497
168	0x3c9a1b3f	0.01881182
169	0xbd092406	-0.03348162
170	0xbe2b4c23	-0.16728263
171	0xbdd8ceea	-0.10586341
172	0xbd7df889	-0.0620046
173	0x3de6fb82	0.1127844
174	0x3d47b18d	0.04875331
175	0x3e5a6d2b	0.21330707
176	0xbd66abbf	-0.056316134
177	0x3db83436	0.089943334
178	0x3dae389f	0.08506893
179	0xbe82e5df	-0.25566003
180	0x3e1bcf34	0.1521576
181	0xbe0fcc3b	-0.14042751
182	0x3e5f8adc	0.21830314
183	0xbe0040dd	-0.12524743
184	0x3e57fb8e	0.21092054
185	0xbd7e0ca1	-0.062023763
186	0x3da9128f	0.08255493
187	0x3d4d7047	0.050155904
188	0x3e34a7d3	0.17642145
189	0xbe15ece5	-0.1464115
190	0x3bfb4dc4	0.0076691825
191	0x3d9c988d	0.07646284
192	0xbe4bb869	-0.19894566
193	0xbd7f46d0	-0.06232339
194	0xbd46c656	-0.04852899
195	0x3dfe05e7	0.124034695
196	0xbe126751	-0.14297225
197	0x3de2dca2	0.110772386
198	0xbe3483f3	-0.1762846
199	0xbe2e4340	-0.17017841
200	0x3e5c8f39	0.2153901
201	0xbe31177b	-0.17294113
202	0x3dd4b0c6	0.10385279
203	0xbd0fc92f	-0.035103973
204	0x3dd7ae71	0.10531319
205	0xbc95c718	-0.018283412
206	0x3e3af407	0.18257152
207	0x3d394416	0.045230947
208	0xbdffce95	-0.12490574
209	0xbca4e3fe	-0.020128246
210	0xbc5e6ed5	-0.013576229
211	0xbe006cc0	-0.12541485
212	0xbb731609	-0.0037091991
213	0x3cbc12e8	0.022958234
214	0xbc390599	-0.0112928385
215	0x3e3bff93	0.18359213
216	0x3cee3599	0.029078292
217	0x3e249b71	0.16074921
218	0xbca73e08	-0.020415321
219	0x3d8ccf10	0.068754315
220	0x3e0951c2	0.13410094
221	0x3da6c1f2	0.08142461
222	0xbd17bc6f	-0.03704494
223	0xbe1d1150	-0.15338635
224	0x3d94f417	0.07273119
225	0xbe59c7ee	-0.21267673
226	0xbe17dea2	-0.14831021
227	0x3dab9e29	0.08379776
228	0x3e8929de	0.26789755
229	0xb9a4ca11	-0.0003143107
230	0xbd5b0b40	-0.053477526
231	0xbcd6a145	-0.026199946
232	0xbdb95be8	-0.09050733
233	0x3c5fca37	0.013659052
234	0xbd395683	-0.04524852
235	0x3e1f31e8	0.15546381
236	0xbe7da2ca	-0.2476913
237	0xbe3293e1	-0.17439224
238	0x3d7747f2	0.060371347
239	0x3d3e2540	0.046422243
240	0xbe2c167f	-0.16805457
241	0xbdbffdd6	-0.09374587
242	0x3ea16061	0.31518844
243	0xbe36b493	-0.17842321
244	0xbdec82df	-0.11548399
245	0x3d3ec411	0.046573702
246	0x3d686959	0.056741092
247	0x3dbd06fc	0.09229848
248	0xbea02262	-0.31276232
249	0x3e20556e	0.15657589
250	0x3e1b3776	0.15157875
251	0xbcb2b666	-0.02181549
252	0xbd184775	-0.03717752
253	0x3e62b0ea	0.221378
254	0xbb9a425f	-0.004707619
255	0x3e80ebae	0.2517981

transformer_encoder.layers.0.self_attn.out_proj.bias f4 [20]
0	0xbc53f7eb	-0.012937526
1	0x3d97b7c3	0.07408097
2	0x3cb6c08c	0.02230861
3	0x3cdf4528	0.027254656
4	0x3c979154	0.018501915
5	0x3d0f5b5c	0.034999236
6	0xbc2a6fd8	-0.010402642
7	0x3cb7823c	0.022400968
8	0xbc7a0fcd	-0.015262556
9	0xbcd310ff	-0.02576494
10	0x3b8acc95	0.004235814
11	0xbd210ad2	-0.03931696
12	0x3d0e1cbd	0.034695376
13	0xbdb79323	-0.08963611
14	0x3cbe2961	0.02321309
15	0xbccacd10	-0.024755985
16	0xbb22acc2	-0.002482221
17	0xbcc2c85a	-0.023777176
18	0x3a9022dc	0.0010996717
19	0xbc972d03	-0.01845408

transformer_encoder.layers.0.linear1.weight f4 [20, 20]
0	0xbd91359d	-0.07090304
1	0x3e1d2277	0.15345179
2	0x3d9a1d10	0.075250745
3	0x3e505807	0.2034608
4	0xbdcf8e76	-0.10134594
5	0xbcd79ab2	-0.026318882
6	0xbe217829	-0.15768494
7	0x3e30a8c6	0.17251882
8	0xbcbecd97	-0.023291392
9	0xbc7f3388	-0.015576251
10	0xbde9ffcc	-0.114257425
11	0x3d1584b3	0.036503505
12	0x3d6ca8a4	0.057778016
13	0x3d2731fa	0.040819146
14	0x3ce3bbd3	0.027799523
15	0x3db7e589	0.08979327
16	0x3e42d186	0.1902524
17	0xbe15db7a	-0.14634505
18	0xbd81fb8c	-0.06346807
19	0xbdd7d576	-0.10538761
20	0xbe4ad3fb	-0.19807427
21	0x3de607d5	0.112319626
22	0xbe7d1531	-0.24715115
23	0x3c6d9b94	0.014502425
24	0x3dbd2d21	0.09237123
25	0xbc324814	-0.010881443
26	0x3cd9f7da	0.026607443
27	0xbe337888	-0.17526448
28	0x3e246e54	0.16057712
29	0xbcf2bb0f	-0.029630212
30	0xbd07feec	-0.033202097
31	0x3d9317bb	0.071822606
32	0xbd3a2a7c	-0.045450673
33	0xbe0fd7bc	-0.1404714
34	0x3e1f4c67	0.15556489
35	0x3e46bda3	0.19408278
36	0x3e147bfd	0.14500423
37	0xbd623fbc	-0.055236563
38	0xbdcf3215	-0.10116974
39	0x3da4127f	0.0801134
40	0x3e274d98	0.16338193
41	0x3e3bddff	0.18346404
42	0x3e406852	0.18789795
43	0x3e3d26dd	0.18471856
44	0x3d31a12e	0.043366604
45	0x3e287071	0.16449143
46	0x3e322700	0.1739769
47	0xbb5affc5	-0.003341661
48	0xbdfd7c6a	-0.12377246
49	0x3d2bacbe	0.041912787
50	0xbe8fe78c	-0.28106344
51	0x3920ea59	0.0001534609
52	0x3ca943bf	0.020662187
53	0x3e182a47	0.14859878
54	0xbe2d373d	-0.16915603
55	0xbd4c0b2d	-0.049815346
56	0xbda755d6	-0.08170669
57	0x3e362af9	0.1778983
58	0x3d4c4a18	0.04987535
59	0xbcdf9aa4	-0.027295418
60	0xbd691f1b	-0.05691443
61	0xbe21dcb4	-0.15806848
62	0x3d7566a3	0.059912335
63	0x3e6fd2e0	0.23420286
64	0xbd0a116a	-0.033708014
65	0x3c9399dd	0.018017704
66	0xbda359b7	-0.07976096
67	0x3e0ba8e9	0.13638653
68	0xbe230d20	-0.15922976
69	0xbd8d807e	-0.069092736
70	0x3df74e93	0.12075534
71	0xbe32db62	-0.174665
72	0x3e22b1c5	0.15888126
73	0x3d12de6c	0.03585665
74	0xbd4f0a4b	-0.050546926
75	0x3dd2e730	0.10298002
76	0xbdbccf8c	-0.09219274
77	0xbe43055e	-0.19045016
78	0x3cfc617b	0.030808201
79	0x3e2fb0e4	0.17157322
80	0xbc90efaa	-0.017692406
81	0xbe2bcc38	-0.16777122
82	0xbd2f1bca	-0.04275111
83	0xbe99186b	-0.29901442
84	0x3e2cf333	0.16889648
85	0x3eac52cd	0.33656922
86	0xbb1063a9	-0.0022032058
87	0xbe4fd46d	-0.20295878
88	0xbdcea695	-0.10090367
89	0xbe0f36f5	-0.13985808
90	0x3d372387	0.044711616
91	0xbc247933	-0.010038662
92	0xbe156831	-0.14590527
93	0x3e22bd35	0.15892489
94	0x3d931250	0.07181227
95	0xbe5462dc	-0.20740837
96	0xbe3ee1c6	-0.18640813
97	0xbc04c56f	-0.008103712
98	0x3dd4fc60	0.10399699
99	0xbda2be81	-0.07946492
100	0xbc9d8560	-0.019228637
101	0xbeacca3e	-0.3374805
102	0x3cbeb874	0.023281313
103	0xbcd3dc02	-0.025861744
104	0x3d6bb2bb	0.057543498
105	0xbe97fbbd	-0.2968425
106	0x3c9e706d	0.019340718
107	0xbdb01a37	-0.0859875
108	0xbdeba552	-0.11506142
109	0xbd46471e	-0.048407666
110	0xbd56d342	-0.052447565
111	0xbd6ef729	-0.05834118
112	0xbbd6b38a	-0.0065521644
113	0xbc635512	-0.013875263
114	0x3e3a8214	0.18213683
115	0x3e9dab2b	0.30794653
116	0xbd91b171	-0.071139224
117	0x3dd609bb	0.10451075
118	0x3e361b36	0.17783818
119	0x3df740bc	0.12072894
120	0xbb1f9564	-0.0024350518
121	0x3de43597	0.11143034
122	0xbe0a58d4	-0.13510448
123	0xbe11f1b8	-0.14252365
124	0x3e1fa04d	0.15588494
125	0x3e9c4393	0.30520305
126	0xbdac1a83	-0.08403494
127	0xbe5fd2c5	-0.21857746
128	0xbd94fff2	-0.0727538
129	0x3e11bbbe	0.14231774
130	0xbe151eb1	-0.14562489
131	0xbe826d5d	-0.25474063
132	0xbe5357ab	-0.20638911
133	0xbe06cfd0	-0.13165212
134	0x3d65baba	0.05608628
135	0xbd78810d	-0.060669947
136	0xbd297678	-0.041372746
137	0x3d8fc244	0.07019475
138	0x3cd75d28	0.026289538
139	0xbe6f99e9	-0.23398556
140	0x3e3f421e	0.18677565
141	0x3e0abfce	0.1354973
142	0xbd929771	-0.071577914
143	0xbcbd8937	-0.023136718
144	0xbdd4825f	-0.10376429
145	0x3e690983	0.22757535
146	0xbe6c1a6a	-0.23056951
147	0x3da7d7d2	0.08195461
148	0xbd4e0b98	-0.050304025
149	0xbe60dafd	-0.21958537
150	0xbe2d5587	-0.16927157
151	0xbe2eb9e1	-0.17063095
152	0x3df22fbd	0.118255116
153	0xbe61807e	-0.22021672
154	0x3e0ab0fc	0.13544077
155	0xbe38b9cf	-0.1803963
156	0x3d1a3f22	0.037657864
157	0xbe75dabc	-0.24009222
158	0xbe2bad06	-0.16765222
159	0xbdcb771f	-0.0993483
160	0xbdba48b9	-0.09095902
161	0x3e605cf7	0.21910463
162	0x3e4d51df	0.20050763
163	0xbdca74f5	-0.09885589
164	0x3da2df8e	0.07952796
165	0xbd21faa0	-0.039545655
166	0x3da3db0c	0.08000764
167	0x3e811157	0.25208542
168	0xbe0cdd5e	-0.1375632
169	0xbe1d5a51	-0.15366484
170	0x3e177420	0.14790392
171	0x3e6dade6	0.23210868
172	0xbdac2b7c	-0.084067315
173	0x3de56763	0.1120136
174	0xbd8b1a16	-0.06792085
175	0xbe5f5676	-0.21810326
176	0x3def3109	0.116792746
177	0xbd940631	-0.072277434
178	0x3dbff981	0.09373761
179	0x3e0e7ada	0.13914052
180	0x3cb0598f	0.02152708
181	0xbe54b8bb	-0.20773594
182	0x3bde1dca	0.0067784535
183	0x3e744ef4	0.23858243
184	0x3e6247d1	0.22097708
185	0x3d789b84	0.060695186
186	0xbdad7ab7	-0.084706716
187	0x3de37dcd	0.11107979
188	0x3d4711bd	0.0486009
189	0xbda33ec6	-0.079709575
190	0x3df33c8d	0.118767835
191	0x3e2c6c1e	0.16838118
192	0x3df06360	0.11737704
193	0xbe4312d8	-0.19050157
194	0xbdcd3876	-0.10020535
195	0xb9fa266e	-0.00047712348
196	0xbe15e0a7	-0.1463648
197	0x3e2ad2c5	0.16681965
198	0xbda07afd	-0.07835958
199	0xbc9dc428	-0.019258574
200	0xbc5bb6fc	-0.013410326
201	0x3e2fbc94	0.1716178
202	0xbd7ef99e	-0.062249772
203	0x3e42d208	0.19025433
204	0x3e4a6d1a	0.19768181
205	0xbd409943	-0.04702116
206	0xbcaa83fb	-0.020814886
207	0xbc9962f6	-0.018723946
208	0x3e64de5f	0.22350453
209	0xbe3930ab	-0.18084972
210	0xbe2ec4f7	-0.17067324
211	0xbe2113a2	-0.15730146
212	0x3db6b9bf	0.08922147
213	0x3ddc37d1	0.10752834
214	0xbcc9d6a7	-0.024638487
215	0x3e0ae6b7	0.13564573
216	0xbe0326a4	-0.12807709
217	0xbe581069	-0.2110001
218	0x3da75e39	0.081722684
219	0xbe2f7094	-0.17132789
220	0x3d8183b9	0.06323952
221	0xbe04321c	-0.1290974
222	0x3d23fab9	0.04003403
223	0xbde83bc0	-0.113395214
224	0xbce3bfe6	-0.027801465
225	0xbe7ff4be	-0.24995705
226	0x3deb44ca	0.1148773
227	0xbe018581	-0.12648584
228	0xbdbda9c3	-0.09260895
229	0x3dde1670	0.10844123
230	0xbd1639ac	-0.036676094
231	0xbd4dfb95	-0.050288755
232	0xbe50d195	-0.20392449
233	0xbc950e2d	-0.018195236
234	0x3e278ef1	0.16363122
235	0x3e131831	0.14364697
236	0xbe3b7127	-0.18304883
237	0xbe33d153	-0.1756032
238	0x3dde1d8a	0.10845478
239	0x3db3870e	0.08765994
240	0x3d0ccaff	0.03437328
241	0x3e1ed188	0.15509617
242	0xbc25cfd7	-0.010120354
243	0x3e27266e	0.16323254
244	0x3d873ea3	0.06603744
245	0xbc9dcc91	-0.019262584
246	0x3e28ed78	0.16496837
247	0x3e4de975	0.20108588
248	0x3e3b0554	0.18263751
249	0x3dd0ebaf	0.10201203
250	0x3cbf178a	0.023326654
251	0xbe3e6b53	-0.18595628
252	0xbe267006	-0.16253671
253	0x3de75ab9	0.11296601
254	0xbdc59c4f	-0.09648954
255	0xbdfd2713	-0.123609684

transformer_encoder.layers.0.linear1.bias f4 [20]
0	0xbda70580	-0.08155346
1	0x3dccd843	0.10002186
2	0xbe55f34a	-0.20893589
3	0xbd827060	-0.0636909
4	0x3e237de7	0.15965997
5	0x3c398033	0.011322069
6	0xbe646c7c	-0.22307009
7	0xbe6ebb67	-0.23313676
8	0x3d477a13	0.048700403
9	0x3d9ad58a	0.075602606
10	0x3dede122	0.11615206
11	0xbce0820b	-0.02740576
12	0x3d30e938	0.043191165
13	0xbd216d35	-0.03941079
14	0xbddc605b	-0.10760566
15	0xbd872bc8	-0.066001475
16	0xbe201ed1	-0.15636756
17	0xbe1261d1	-0.14295126
18	0xbe10794d	-0.14108773
19	0xbe75e00d	-0.2401125

transformer_encoder.layers.0.linear2.weight f4 [20, 20]
0	0x3d864f17	0.06558054
1	0xbe211f75	-0.15734656
2	0xbd857dc1	-0.06518126
3	0x3e5223e2	0.205215
4	0xbe6829c9	-0.2267219
5	0x3eaeb296	0.34120625
6	0x3d18ba13	0.03728683
7	0x3e2a3f4c	0.16625708
8	0xbe00f220	-0.12592363
9	0x3e70d389	0.23518194
10	0x3d92d73f	0.07169961
11	0x3e86bec8	0.2631743
12	0xbe0efdb3	-0.13963966
13	0x3cedac69	0.029012876
14	0x3e3a7c50	0.18211484
15	0x3dd6604a	0.104675844
16	0x3e78caa0	0.24296045
17	0xbd960e01	-0.0732689
18	0xbd62c9d6	-0.055368267
19	0x3d8592c9	0.06522138
20	0x3e07d984	0.1326657
21	0x3d5d5dcd	0.054044534
22	0xbd589d03	-0.052884113
23	0x3d4d2bba	0.05009053
24	0xbcc82220	-0.024430335
25	0x3e847726	0.25872153
26	0x3e0089f1	0.1255262
27	0xbe22634a	-0.15858188
28	0x3e03aacd	0.12858124
29	0x3c647834	0.013944674
30	0xbdbe446c	-0.09290394
31	0xbc9863b7	-0.018602235
32	0x3e1c4af5	0.15262969
33	0xbd469c47	-0.04848888
34	0x3ded920b	0.11600121
35	0xbdac3fb9	-0.08410592
36	0x3b9e391e	0.0048285862
37	0xbb725d46	-0.0036981865
38	0x3b6168e2	0.003439479
39	0xbc22d489	-0.009938368
40	0x3d3f2de2	0.046674617
41	0xbd341b39	-0.043971274
42	0x3dd79c64	0.10527876
43	0xbdbcc115	-0.09216515
44	0xbe1f4298	-0.15552747
45	0x3e67ede4	0.22649342
46	0xbe19be2b	-0.1501395
47	0x3e64b620	0.223351
48	0x3e115d58	0.14195764
49	0x3e0206f7	0.1269797
50	0xbced546b	-0.028970918
51	0xbc31f463	-0.010861489
52	0xbcf58e3b	-0.029975047
53	0xbd8964e0	-0.067086935
54	0x3d955609	0.072918005
55	0xbd96ad80	-0.07357311
56	0xbd57591d	-0.05257522
57	0x3c07e5aa	0.008294502
58	0x3d4c9199	0.04994354
59	0x3d7e6039	0.062103484
60	0x3e1c8bd0	0.15287709
61	0xbca942de	-0.020661768
62	0xbc6607aa	-0.014039913
63	0xbda9c49c	-0.082894534
64	0x3cde02ee	0.027101006
65	0x3d629ab0	0.055323303
66	0x3e06e669	0.13173832
67	0x3e143ffd	0.14477535
68	0x39b36ed3	0.0003422411
69	0xbe104b13	-0.14091139
70	0x3d0e13ee	0.034686975
71	0xbc0b0840	-0.008485854
72	0x3d087775	0.033317048
73	0x39cc80a7	0.00039005766
74	0x3e0ed722	0.13949254
75	0x3e2a3993	0.16623525
76	0xbdec5b54	-0.11540857
77	0x3b4d6ac9	0.0031344166
78	0x3d248604	0.04016687
79	0xbdae0fbc	-0.08499095
80	0xbd19f1b6	-0.03758403
81	0x3b9aefc6	0.0047282903
82	0xbe234a4b	-0.1594631
83	0x3d724817	0.05915078
84	0x3db7ce11	0.08974851
85	0x3e258e1c	0.16167492
86	0x3d97b08d	0.07406721
87	0x3dbec6b2	0.09315242
88	0x3e3ce2f5	0.18445952
89	0x3df82070	0.12115562
90	0xbdd5784f	-0.10423338
91	0xbde7914f	-0.11307012
92	0x3e08e887	0.13369952
93	0x3e4e371c	0.2013821
94	0xbdaa78ae	-0.08323799
95	0x3e5020d9	0.2032503
96	0x3e03c463	0.12867884
97	0xbe434674	-0.19069844
98	0x3d88a46b	0.06671985
99	0x3c93ad9c	0.01802712
100	0x3e43f548	0.19136536
101	0x3daf01c0	0.08545256
102	0xbdf293cf	-0.118445985
103	0xbd4e2430	-0.05032748
104	0x3d07e2bc	0.033175215
105	0x3e46327b	0.19355194
106	0xbe429873	-0.19003467
107	0xbdccc529	-0.09998543
108	0xbd8d75b5	-0.069072165
109	0xbcc7dbcf	-0.024396805
110	0x3ccff26f	0.025384156
111	0x3cd54bae	0.026037063
112	0x3df3e6eb	0.119092785
113	0xbdae3def	-0.08507907
114	0xbe20ac32	-0.15690687
115	0xbe245af0	-0.16050315
116	0x3d9c30f9	0.07626528
117	0x3d555d17	0.05209073
118	0xbd173afb	-0.036921483
119	0x3e221d71	0.15831544
120	0xbdfd028f	-0.12354004
121	0x3d95e153	0.07318368
122	0xbdb95a99	-0.09050483
123	0x3e336d8e	0.1752226
124	0x3cd7be5b	0.026335886
125	0x3e026af7	0.12736116
126	0xbd60c376	-0.054873906
127	0x3bcdf195	0.0062849023
128	0xbe9d12de	-0.30678457
129	0x3e223c9a	0.1584343
130	0x3cb9fb8a	0.022702951
131	0xbdff46d9	-0.12464685
132	0x3da30c31	0.0796131
133	0xbe4fa467	-0.20277558
134	0x3cdafaae	0.026730862
135	0x3e419a8f	0.18906616
136	0x3da3f496	0.080056354
137	0x3d0b1cd5	0.033963043
138	0x3b0c86a0	0.0021442547
139	0x3ce0086b	0.027347764
140	0x3e1aaf88	0.15106022
141	0x3e2a144e	0.16609308
142	0x3dd333e6	0.10312633
143	0xbe23d6ff	-0.15999983
144	0x3e4b7c51	0.19871642
145	0xbe4135c7	-0.1886817
146	0x3e60aa14	0.2193988
147	0x3a293641	0.0006454923
148	0x3e4924f5	0.19643004
149	0x3ca5d199	0.020241546
150	0x3e2bc969	0.1677605
151	0x3ce3fa85	0.027829418
152	0x3d6e902f	0.058242973
153	0x3dd30de6	0.10305385
154	0x3e15cc40	0.14628696
155	0xbe2b9ad4	-0.16758281
156	0xbdb37913	-0.087633274
157	0x3d9c81f9	0.07641978
158	0x3dbe5128	0.09292823
159	0x3dbbdb03	0.091726325
160	0x3d6f827e	0.058474056
161	0x3da44eb4	0.08022824
162	0xbe104b07	-0.1409112
163	0x3e504a64	0.20340878
164	0xbdafde58	-0.085873306
165	0x3dd351f7	0.10318368
166	0xbe839e95	-0.25706926
167	0x3da52361	0.080633886
168	0xbcd2c5d2	-0.025729094
169	0x3e2ad9f2	0.16684702
170	0xbe05ea69	-0.13077702
171	0xbe25bbc6	-0.16184911
172	0x3dd8a788	0.10578829
173	0xbdc278e2	-0.09495713
174	0x3d17a568	0.037022978
175	0xbd7f5995	-0.06234129
176	0x3e7d46c0	0.2473402
177	0x3e3c21a1	0.18372203
178	0x3de2af45	0.11068586
179	0x3d22ba39	0.039728377
180	0x3de8d8db	0.11369487
181	0x3e266a27	0.16251431
182	0x3df11d7f	0.11773204
183	0x3c31dd45	0.010855977
184	0xbe1fb487	-0.1559621
185	0xbe670068	-0.22558749
186	0xbd42fd6c	-0.047604963
187	0xbdaa0da8	-0.08303386
188	0xbd8b5ced	-0.068048336
189	0xbd458484	-0.04822208
190	0xbd8f4bca	-0.069968775
191	0xbc9623b4	-0.018327571
192	0x3e12d5fd	0.14339443
193	0xbd7ba3c5	-0.06143548
194	0xbdb46312	-0.08807959
195	0xbdaa5e13	-0.083187245
196	0x3d136b13	0.035990786
197	0xbddaac69	-0.10677416
198	0x3deb6779	0.11494345
199	0xbe537414	-0.20649749
200	0xbe0d86df	-0.1382098
201	0xbe76e127	-0.24109326
202	0x3dd97d4e	0.10619603
203	0x3e1f9380	0.1558361
204	0x3e757113	0.23968916
205	0xbe13c117	-0.14429127
206	0x3e5beacb	0.21476285
207	0x3e6397b1	0.22225834
208	0xbdd283a8	-0.10279018
209	0x3d9c640c	0.0763627
210	0x3e5854ea	0.21126142
211	0xbd965465	-0.07340316
212	0x3c80ee4d	0.01573863
213	0xbd47303e	-0.04862999
214	0xbe176856	-0.14785895
215	0x3bf8215b	0.0075723357
216	0xbe88ed5e	-0.26743597
217	0x3e069dd6	0.13146147
218	0xbd80964d	-0.062786676
219	0xbe8deea2	-0.27721125
220	0x3e4455e7	0.19173394
221	0x3e1ce37b	0.15321152
222	0xbd288dbb	-0.04115079
223	0xbe4ecfe7	-0.20196496
224	0x3e09a8e7	0.13443337
225	0x3c50e6cb	0.012750338
226	0x3e555247	0.20832168
227	0xbddcf477	-0.107888155
228	0x3e29f5c2	0.16597655
229	0x3dbcef8c	0.092253774
230	0x3d9d07c3	0.07667496
231	0xbea16105	-0.31519333
232	0xbe8e04c4	-0.2773801
233	0x3d5caaec	0.05387394
234	0x3be9a917	0.007130753
235	0x3e183098	0.14862287
236	0x3dd51abd	0.104054905
237	0xbe16b04c	-0.1471569
238	0x3d3885a9	0.045049343
239	0xbddd1d36	-0.10796587
240	0xbd35e235	-0.04440518
241	0xbe3c35d5	-0.1837991
242	0x3e003a66	0.12522277
243	0xbe24137e	-0.1602306
244	0x3cc1264f	0.023577837
245	0xbe15767d	-0.14595981
246	0xbdc38d1e	-0.095484
247	0xbd575a31	-0.052576248
248	0xbe1ecef8	-0.1550864
249	0xbe672609	-0.22573103
250	0xbe233a8b	-0.15940301
251	0xbe5fcfed	-0.21856661
252	0x3e3a3b21	0.18186618
253	0x3e090cd2	0.13383797
254	0x3cf81971	0.030285569
255	0x3e260b25	0.16215189

transformer_encoder.layers.0.linear2.bias f4 [20]
0	0x3df5022d	0.119633056
1	0x3cde6681	0.027148487
2	0x3e3845b6	0.17995343
3	0x3bd65767	0.006541181
4	0x3e1099d2	0.14121178
5	0x3d179472	0.037006803
6	0xb9e26a05	-0.0004318507
7	0xbe181ca9	-0.14854683
8	0xbaa1d184	-0.0012345766
9	0xbd04b888	-0.032402545
10	0x3e4a0b53	0.19730882
11	0xbd129235	-0.035783965
12	0x3d3219d8	0.043481678
13	0x3d8fb1e2	0.0701635
14	0xbcfe52b7	-0.0310453
15	0xbd7828b6	-0.0605857
16	0x3e0d7f7f	0.13818167
17	0xbcdb78d7	-0.02679102
18	0x3e32344a	0.17402759
19	0xbdc5683d	-0.096390225

transformer_encoder.layers.0.norm1.weight f4 [20]
0	0x3f98f243	1.1948932
1	0x3f872a5f	1.0559806
2	0x3f910c79	1.1331931
3	0x3f911c1b	1.1336702
4	0x3f8b8c41	1.0902177
5	0x3f9838f7	1.1892384
6	0x3f89d252	1.076731
7	0x3f6f7085	0.93531066
8	0x3f8c3ab5	1.0955416
9	0x3f816e47	1.0111779
10	0x3f7a32fb	0.9773404
11	0x3f8aeb07	1.0852975
12	0x3f6e82ef	0.9316854
13	0x3f7aa5e4	0.9790938
14	0x3f78327f	0.9695205
15	0x3f4647be	0.7745322
16	0x3f71e872	0.9449531
17	0x3f8f0069	1.1172
18	0x3f7f8c2b	0.99823254
19	0x3f790818	0.97277975

transformer_encoder.layers.0.norm1.bias f4 [20]
0	0xbcbc18f8	-0.022961125
1	0x3dac2934	0.08406296
2	0x3d0e3ed5	0.03472789
3	0x3c6fc5da	0.014634574
4	0x3cc2ad43	0.023764258
5	0x3d2078f8	0.039177865
6	0xbd425ec2	-0.04745365
7	0x3d24063b	0.040045004
8	0xbb706572	-0.003668156
9	0xbd369d29	-0.044583473
10	0x3d105e88	0.035246402
11	0xbcf7f049	-0.030265944
12	0x3d7552f3	0.05989356
13	0xbd479f99	-0.04873619
14	0x3cdc50b5	0.026893953
15	0xbd3cae6c	-0.04606478
16	0x3b9c8df0	0.0047776625
17	0xbd239bbb	-0.039943438
18	0x3cc622d9	0.024186539
19	0xbd30e450	-0.043186486

transformer_encoder.layers.0.norm2.weight f4 [20]
0	0x3f9de3d1	1.2335149
1	0x3f634f3e	0.8879279
2	0x3f916c62	1.1361201
3	0x3f826523	1.0187114
4	0x3f90ecb9	1.1322242
5	0x3f805bf1	1.0028058
6	0x3f8dc72d	1.1076409
7	0x3f747ca5	0.9550269
8	0x3f8f65c2	1.1202929
9	0x3f84f1d8	1.0386305
10	0x3f751172	0.95729744
11	0x3f8dd9c6	1.1082084
12	0x3f69a0bb	0.9126088
13	0x3f7e11f7	0.9924616
14	0x3f769c6e	0.9633244
15	0x3f57696b	0.8414523
16	0x3f73e02f	0.9526395
17	0x3f8f9009	1.1215831
18	0x3f8233d9	1.0172073
19	0x3f8534c9	1.0406734

transformer_encoder.layers.0.norm2.bias f4 [20]
0	0x3cb70a92	0.022343908
1	0x3dad0d6d	0.084498264
2	0x3d247239	0.040147994
3	0x3d958615	0.07300965
4	0x3c67ca35	0.014147331
5	0x3c6111a4	0.013737116
6	0xbd17b591	-0.03703839
7	0x3d908834	0.07057229
8	0x3c1a0255	0.00939997
9	0xbd57e91c	-0.052712545
10	0x3cfaa300	0.030595303
11	0xbc9c8ad3	-0.019109165
12	0x3c9ec362	0.019380275
13	0x3bd2a821	0.006428734
14	0x3d779337	0.06044313
15	0x3ca83e34	0.020537473
16	0xbcf40f89	-0.029792564
17	0xbd29fe01	-0.041502003
18	0x3d4078dc	0.04699026
19	0xbd067aa1	-0.03283179

transformer_encoder.layers.1.self_attn.in_proj_weight f4 [60, 20]
0	0xbe3a953e	-0.18220994
1	0xbe74198c	-0.2383787
2	0x3e5f5052	0.21807984
3	0x3d5b5cb6	0.053555213
4	0x3e369e8c	0.17833918
5	0x3d75b9bd	0.059991587
6	0xbe2a4229	-0.166268
7	0x3e022d1b	0.12712519
8	0x3cff2116	0.031143706
9	0x3d60bfc0	0.054870367
10	0xbe531575	-0.20613654
11	0x3e69c820	0.22830248
12	0xbe8e532d	-0.27797833
13	0x3e3bc171	0.18335511
14	0x3e85b6a2	0.261159
15	0x3e8a42a7	0.27003977
16	0x3da57f3c	0.08080909
17	0xbdc20206	-0.09473042
18	0xbc93cf6a	-0.018043239
19	0x3c8e362d	0.017359817
20	0x3e64306d	0.22284098
21	0xbc8be912	-0.01707891
22	0xbe7dfc9c	-0.24803394
23	0x3dc51d78	0.09624761
24	0x3daaf653	0.08347764
25	0x3de838ad	0.11338935
26	0x3e1f6ea8	0.15569556
27	0xbd80ae34	-0.062832266
28	0x3e551f9b	0.20812838
29	0xbd1acff7	-0.037795987
30	0xbaa42175	-0.0012522178
31	0xbd980239	-0.07422299
32	0x3dcb424a	0.09924753
33	0xbd9525cb	-0.07282599
34	0x3e62063d	0.22072692
35	0x3e1f36ae	0.15548202
36	0x3e8557c0	0.2604351
37	0x3c78c5f8	0.015183918
38	0x3d353c1b	0.044246774
39	0xbe13ee4b	-0.1444637
40	0x3e17afc4	0.14813143
41	0xbe48b69f	-0.19600914
42	0x3bea3a7d	0.0071480856
43	0xbd7ebc18	-0.0621911
44	0x3e5a35c0	0.21309566
45	0xbe61a095	-0.22033913
46	0x3e4d1009	0.20025648
47	0xbe86b897	-0.26312706
48	0x3c7421c3	0.014900628
49	0xbd9c8c76	-0.07643978
50	0xbd991432	-0.07474555
51	0xbd980a17	-0.074237995
52	0x3d4e003c	0.050293192
53	0xbe497e1a	-0.1967701
54	0x3ddae1c0	0.1068759
55	0xbe2e1333	-0.16999511
56	0xbd7ceeb6	-0.06175109
57	0xbe870c4e	-0.26376575
58	0xbde069db	-0.1095769
59	0x3c914a46	0.017735612
60	0x3d24008b	0.04003958
61	0x3d58c23d	0.052919615
62	0xbe258c61	-0.16166832
63	0x3d884262	0.066532865
64	0x3e89ff8e	0.26952785
65	0x3e2ba45a	0.16761914
66	0xbde540ac	-0.11193976
67	0x3e20bd14	0.15697128
68	0x3bea2a67	0.007146168
69	0x3b8bd15d	0.0042669014
70	0x3d7ad8dd	0.061241973
71	0x3e06b44b	0.13154714
72	0xbe717818	-0.23580968
73	0xbda04199	-0.07825012
74	0x3c74534a	0.014912436
75	0x3e308b5d	0.17240663
76	0xbe4de50d	-0.20106907
77	0xbe0414d6	-0.12898573
78	0xbbf7d2b4	-0.0075629596
79	0x3db567ca	0.08857687
80	0xbe730802	-0.23733523
81	0x3e074ad1	0.13212134
82	0xbe2c064c	-0.16799277
83	0x3e6e53f6	0.23274216
84	0xbd2a362f	-0.04155558
85	0xbd6a7cf9	-0.05724809
86	0xbc3f7b8a	-0.011687169
87	0x3baabb63	0.0052103265
88	0x3e69c7a9	0.2283007
89	0x3e11c39c	0.14234775
90	0xbe628197	-0.22119747
91	0x3e21b7f1	0.15792824
92	0x3e2cfd93	0.16893606
93	0xbda2633f	-0.07929086
94	0xbe4ddb6d	-0.20103236
95	0xbdae65b2	-0.085154906
96	0xbd672eb4	-0.056441024
97	0x3d17a1ee	0.037019663
98	0x3d040db9	0.03223965
99	0x3e72f2cd	0.23725434
100	0xbd9ba49b	-0.075997554
101	0xbcad2409	-0.021135347
102	0x3e2eba54	0.17063266
103	0xbe716597	-0.2357391
104	0x3dbf1f5e	0.09332155
105	0x3cfebad3	0.031094944
106	0x3d2b072e	0.041754894
107	0x3e501616	0.20320925
108	0xbe477074	-0.19476491
109	0xbe10db84	-0.14146239
110	0x3dbc7e60	0.092037916
111	0x3e3aea88	0.18253529
112	0xbd05cd88	-0.032666713
113	0xbd311ff3	-0.04324336
114	0xbe7abd4d	-0.24486275
115	0x3e11b7f3	0.14230327
116	0xbe1ffb7a	-0.15623274
117	0xbe48be0a	-0.19603744
118	0xbda6ec32	-0.081505194
119	0xbd3154d3	-0.043293785
120	0xbdf1a317	-0.11798685
121	0x3db48c04	0.08815768
122	0x3e0ae0e9	0.13562359
123	0x3d1735d7	0.03691658
124	0xbe3dc560	-0.18532324
125	0xbdcfe283	-0.101506256
126	0xbcfbdb27	-0.030744148
127	0xbe09fd6b	-0.13475578
128	0xbe27b8eb	-0.16379134
129	0x3e1f29ab	0.15543239
130	0xbe079193	-0.13239126
131	0x3da1e919	0.07905788
132	0xbd58eb34	-0.052958682
133	0x3dfa59a8	0.12224132
134	0xbe236677	-0.15957056
135	0x3e3ea78d	0.18618603
136	0x3e3ce063	0.18444972
137	0xbde48225	-0.111576356
138	0xbb96e5e9	-0.004605044
139	0xbe0d5efd	-0.13805766
140	0x3d7b68fe	0.061379425
141	0xbe392617	-0.18080936
142	0x3d034c3f	0.032055136
143	0x3de8055f	0.113291495
144	0x3e8e459a	0.27787477
145	0xbd458f0c	-0.048232123
146	0xbe6d6f0e	-0.23186895
147	0xbcf7f913	-0.030270135
148	0xbe057aeb	-0.1303517
149	0xbdee8db2	-0.1164812
150	0x3d37e883	0.044899475
151	0xbe7c2031	-0.24621655
152	0x3e24a66e	0.16079113
153	0x3b9a7f1c	0.0047148596
154	0xbe34d3b7	-0.17658888
155	0xbe32a182	-0.17444423
156	0x3db93620	0.09043527
157	0x3b9b0a57	0.004731457
158	0xbdb1a9ff	-0.08675002
159	0xbde07363	-0.10959508
160	0x3dedd585	0.11612991
161	0xbd619398	-0.055072397
162	0xbda0fc2e	-0.078605995
163	0x3e1e1df5	0.15441115
164	0x3e025593	0.12727956
165	0xbd945fe9	-0.07244856
166	0xbe759758	-0.23983514
167	0x3e47c051	0.19506957
168	0xbcb0831d	-0.021546895
169	0x3e34d118	0.17657888
170	0xbd360e88	-0.04444745
171	0x3d3c51ec	0.045976564
172	0x3e710915	0.23538621
173	0xbdef6e3e	-0.11690949
174	0x3de7436c	0.112921566
175	0x3e22c320	0.15894747
176	0x3e131df9	0.14366902
177	0xbe5e0172	-0.21680239
178	0x3e864526	0.2622463
179	0x3dfad21f	0.12247109
180	0xbe0fb78c	-0.14034861
181	0xbd66e162	-0.056367286
182	0x3dff3154	0.124605805
183	0x3e077fbc	0.1323232
184	0x3e4f299c	0.20230716
185	0xbe5c4ed3	-0.21514444
186	0xbde7ffe9	-0.11328108
187	0x3e2c0cb4	0.16801721
188	0xbdc21de7	-0.0947836
189	0xbe11d226	-0.14240322
190	0xbe164564	-0.14674908
191	0xbddd76e1	-0.1081369
192	0x3e304236	0.17212757
193	0xbcf5c4a3	-0.03000099
194	0x3ca5b200	0.020226479
195	0x3bc15c8b	0.0059009246
196	0xbe3c4960	-0.18387365
197	0xbda41bec	-0.08013138
198	0xbd983307	-0.07431608
199	0x3cce96ba	0.025218356
200	0xbde898f9	-0.11357302
201	0xbe73218a	-0.23743263
202	0x3c8e3607	0.017359747
203	0xbe1864ca	-0.14882198
204	0x3bf2aac9	0.007405613
205	0x3dbaa5a2	0.09113623
206	0x3d7bdaed	0.06148808
207	0xbe35865c	-0.17727035
208	0x3e4f56b0	0.20247912
209	0x3e239e0b	0.15978257
210	0x3dcb5f1f	0.09930252
211	0xbc3713ce	-0.011174155
212	0xbc9f620a	-0.019455928
213	0x3bb83ffa	0.005622861
214	0xbd868b33	-0.06569519
215	0xbafb11cb	-0.0019155083
216	0x3d05e199	0.03268585
217	0x3e80bcac	0.25143945
218	0x3de64498	0.11243552
219	0x3df3e714	0.11909309
220	0xbce8252f	-0.028338043
221	0xbe7d19e2	-0.24716905
222	0xbe91992b	-0.2843717
223	0xbe5b063f	-0.21389101
224	0x3e4da14b	0.2008106
225	0xbda06b36	-0.07832949
226	0xbdb333bf	-0.08750104
227	0x3d392097	0.045197096
228	0x3be43c08	0.006965164
229	0x3e5006f8	0.20315158
230	0xbdf3aeed	-0.11898599
231	0x3ce16363	0.027513212
232	0xbe1e3b52	-0.15452316
233	0xbd5e2d97	-0.054242697
234	0xbe3c55b0	-0.18392062
235	0x3e0be9b6	0.13663372
236	0x3d9e88b1	0.077409156
237	0x3c95e31c	0.01829677
238	0x3c7cacf0	0.015422091
239	0xbe90ab7f	-0.2825584
240	0x3e90bd1c	0.2826928
241	0x3df70aa3	0.12062576
242	0x3e6f5a6f	0.23374341
243	0xbe861be1	-0.26193145
244	0xbe38b4e8	-0.1803776
245	0xbdf1e115	-0.11810509
246	0xbe804a34	-0.25056612
247	0x3db07c43	0.08617451
248	0xbdaab97d	-0.0833616
249	0xbe2c07ab	-0.167998
250	0x3e0b44fc	0.13600534
251	0x3c8b4f43	0.017005568
252	0x3e8c840e	0.274445
253	0x3e64a3c1	0.22328092
254	0x3e8a83ad	0.27053586
255	0xbcfd2a0a	-0.030903835

transformer_encoder.layers.1.self_attn.in_proj_bias f4 [60]
0	0x3c512e16	0.012767335
1	0x3b3719b0	0.0027938895
2	0x3ccc6be7	0.024953796
3	0xbc82df03	-0.01597548
4	0xbc4730fe	-0.012157677
5	0x3d207547	0.039174344
6	0x3c17400e	0.00923158
7	0xbaabdba0	-0.0013111718
8	0x3ce73e07	0.02822782
9	0xbc0befef	-0.008541091
10	0xbbe1814a	-0.0068818675
11	0xbd139bcc	-0.03603725
12	0x3abe5cd1	0.0014523511
13	0x3b87ff32	0.0041502947
14	0x3a589b61	0.00082628994
15	0x392f412b	0.00016713577
16	0xbb928e3c	-0.004472522
17	0xbd67c111	-0.056580607
18	0xbc1d3f86	-0.009597665
19	0x3d2c476d	0.042060304
20	0xb0f0097e	-1.7464996e-09
21	0xb0102d5d	-5.245136e-10
22	0x30fc8147	1.8372156e-09
23	0x2fafea26	3.1998687e-10
24	0xb0828e26	-9.499146e-10
25	0x319865be	4.435349e-09
26	0x312ad472	2.4859017e-09
27	0x31bd890c	5.5162044e-09
28	0xb0428618	-7.076735e-10
29	0x3073b796	8.8663776e-10
30	0xb106ae6e	-1.9598718e-09
31	0xb16dc8c5	-3.4602163e-09
32	0x3077fb94	9.021559e-10
33	0xae647238	-5.1942645e-11
34	0xb18f3e2c	-4.168916e-09
35	0xb083f5e2	-9.601389e-10
36	0x312f34d1	2.5495874e-09
37	0xb0f59712	-1.7869033e-09
38	0xb00d0cd0	-5.131371e-10
39	0xb0867232	-9.78224e-10
40	0x3c18dd7c	0.00933015
41	0xbd776b22	-0.060404904
42	0x3c7013f6	0.014653197
43	0xbb12dede	-0.0022410671
44	0x3d9d17b0	0.07670534
45	0xbcbdbe10	-0.023161918
46	0x3c53d936	0.012930205
47	0x3c7fa0bb	0.015602286
48	0x3d5c62bd	0.0538051
49	0x3c3a4eef	0.011371358
50	0x3c69d992	0.014273064
51	0x3cb03d84	0.021513708
52	0xbcbaf8bc	-0.022823684
53	0xbcb06500	-0.021532536
54	0xbd909dbb	-0.07061335
55	0xbcc26e44	-0.02373422
56	0x3d28a69b	0.041174512
57	0x3bc6227c	0.0060465913
58	0xbcfa19e6	-0.030529927
59	0x3ca77625	0.020442078
