model_epoch_86.pt (torch, 431970 bytes, 28 tensors)

pos_encoder.pe f4 [5000, 1, 20]
00000000: 0000 0000 0000 803f 0000 0000 0000 803f
00000010: 0000 0000 0000 803f 0000 0000 0000 803f
00000020: 0000 0000 0000 803f 0000 0000 0000 803f
00000030: 0000 0000 0000 803f 0000 0000 0000 803f
00000040: 0000 0000 0000 803f 0000 0000 0000 803f
00000050: a56a 573f 4151 0a3f 3d7d c63e dafa 6b3f
00000060: 4e9d 213e a0ca 7c3f 6522 813d 977d 7f3f
00000070: 8ac0 cd3c 53eb 7f3f 57d6 233c b9fc 7f3f
00000080: 9073 823b 7bff 7f3f 28bc cf3a ebff 7f3f
00000090: d466 253a fdff 7f3f f5b1 8339 ffff 7f3f
000000a0: b7c7 683f 3311 d5be 76f7 363f 040d 333f
000000b0: c596 9f3e 183f 733f 9de0 003e e3f6 7d3f
000000c0: ecaf 4d3d 51ad 7f3f 3ed4 a33c e5f2 7f3f
000000d0: 4d73 023c ecfd 7f3f 17bc 4f3b acff 7f3f
000000e0: d266 a53a f3ff 7f3f f5b1 033a feff 7f3f
000000f0: c381 103e 2670 7dbf 4812 6e3f e53b bc3e
00000100: ce5e ea3e a89a 633f b9ac 403e 6f6d 7b3f
00000110: 2d2f 9a3d 0346 7f3f 1fb9 f53c 83e2 7f3f
00000120: 49ac 433c 53fb 7f3f fccc 9b3b 42ff 7f3f
00000130: 361a f83a e2ff 7f3f ef8a 453a fbff 7f3f
00000140: cfbd 41bf 3055 27bf abf0 7f3f ce32 b1bc
00000150: 72a3 173f b041 4e3f 8ab4 7f3e d4e3 773f
00000160: 7d6d cd3d 7ab5 7e3f dbcb 233d 94cb 7f3f
00000170: 3e72 823c b1f7 7f3f d3bb cf3b affe 7f3f
00000180: c966 253b cbff 7f3f f4b1 833a f8ff 7f3f
00000190: 107c 75bf 2c3c 913e 28c7 693f cea6 d0be
000001a0: 6e4a 363f 2cbd 333f ebdb 9e3e aa5d 733f
000001b0: 4f45 003e cdfb 7d3f f4b6 4c3d 19ae 7f3f
000001c0: cf0d a33c 04f3 7f3f 44d5 013c f1fd 7f3f
000001d0: 74c0 4e3b adff 7f3f 6f9e a43a f3ff 7f3f
000001e0: 8c0f 8fbe b8cd 753f 200d 2f3f fdcb 3abf
000001f0: a75f 503f 47b7 143f b73b bd3e 8fdf 6d3f
00000200: 29bf 193e 1a19 7d3f d19c 753d 128a 7f3f
00000210: b7a8 c33c 4eed 7f3f 88cc 1b3c 09fd 7f3f
00000220: 191a 783b 88ff 7f3f eb8a c53a edff 7f3f
00000230: 4630 283f bdff 403f fde3 b13e 310d 70bf
00000240: c03b 653f 26ee e33e b9da da3e 1a6f 673f
00000250: 2d20 333e 860d 7c3f 323e 8f3d 815f 7f3f
00000260: d442 e43c 8ee6 7f3f b4c3 353c f8fb 7f3f
00000270: dbb9 903b 5cff 7f3f 6577 e63a e6ff 7f3f
00000280: 9546 7d3f f6fd 14be 3128 31bd acc2 7fbf
00000290: dc58 743f 1db7 983e c29a f73e db12 603f
000002a0: 4264 4c3e 3cd9 7a3f 50aa a33d 662e 7f3f
000002b0: 026e 023d c4de 7f3f c1ba 4f3c bbfa 7f3f
000002c0: a766 a53b 2aff 7f3f efb1 033b deff 7f3f
000002d0: 3201 d33e d53f 69bf 5cb7 dabe 7577 67bf
000002e0: 0056 7d3f 3958 133e 43af 093f 52d2 573f
000002f0: 5487 653e 6e7c 793f 3e12 b83d c2f6 7e3f
00000300: 12ba 123d f0d5 7f3f adb1 693c 55f9 7f3f
00000310: 6e13 ba3b f1fe 7f3f 2c28 143b d5ff 7f3f
00000320: f844 0bbf 64cd 56bf 238a 3ebf 43f8 2abf
00000330: 7df9 7f3f baf4 66bc e004 173f e6b5 4e3f
00000340: 5385 7e3e 54f7 773f 7675 cc3d 98b8 7e3f
00000350: 8a05 233d 13cc 7f3f 39d4 813c c5f7 7f3f
00000360: 30c0 ce3b b2fe 7f3f 679e 243b cbff 7f3f
00000370: 5cff 7fbf 7205 913b 58eb 71bf c976 a7be
00000380: 6532 7c3f 27da 2fbe 9fc0 233f e2c6 443f
00000390: 1cad 8b3e 2d4a 763f 72d3 e03d e873 7e3f
000003a0: 5950 333d 2cc1 7f3f 86cf 8e3c 0af6 7f3f
000003b0: ed6c e33b 6cfe 7f3f a214 353b c0ff 7f3f
000003c0: d85c 09bf d006 583f 0b76 7fbf e1d0 843d
000003d0: f518 723f 4d6e a6be 89d5 2f3f 630f 3a3f
000003e0: fe00 983e 3e75 743f ac2b f53d b528 7e3f
000003f0: 6d9a 433d 3bb5 7f3f baca 9b3c 26f4 7f3f
0.0 1.0 0.0 1.0 0.0 1.0 0.0 1.0
0.0 1.0 0.0 1.0 0.0 1.0 0.0 1.0
0.0 1.0 0.0 1.0 0.841471 0.54030234 0.38767424 0.92179644
0.15782663 0.9874668 0.06305388 0.9980101 0.025116224 0.9996845 0.009999833 0.99995
0.0039810613 0.9999921 0.0015848922 0.99999875 0.0006309573 0.9999998 0.00025118855 0.99999994
0.9092974 -0.41614684 0.71471345 0.69941735 0.31169716 0.9501815 0.12585683 0.99204844
0.0502166 0.99873835 0.019998666 0.9998 0.00796206 0.9999683 0.0031697804 0.999995
0.0012619144 0.9999992 0.0005023771 0.9999999 0.14112 -0.9899925 0.92996645 0.36764446
0.45775455 0.8890786 0.18815888 0.9821386 0.07528529 0.99716204 0.0299955 0.99955004
0.011942931 0.99992865 0.0047546607 0.9999887 0.001892871 0.9999982 0.00075356563 0.9999997
-0.7568025 -0.6536436 0.99976605 -0.02163067 0.5923377 0.8056898 0.24971214 0.96832013
0.10030649 0.9949566 0.039989334 0.9992001 0.015923616 0.9998732 0.006339529 0.9999799
0.0025238267 0.99999684 0.0010047541 0.9999995 -0.9589243 0.2836622 0.91319513 -0.40752262
0.7120732 0.7021053 0.3102716 0.95064795 0.12526439 0.9921234 0.049979165 0.99875027
0.019904045 0.9998019 0.007924382 0.9999686 0.0031547816 0.99999505 0.0012559424 0.9999992
-0.2794155 0.96017027 0.683794 -0.7296751 0.81395954 0.5809216 0.3695962 0.9291925
0.15014328 0.98866427 0.059964005 0.99820054 0.02388416 0.99971473 0.009509213 0.99995476
0.0037857352 0.99999285 0.0015071308 0.99999887 0.6569866 0.75390226 0.34744254 -0.9377013
0.89544296 0.4451763 0.42744997 0.904039 0.17492743 0.98458135 0.06994285 0.997551
0.027863897 0.99961174 0.011094023 0.9999385 0.004416687 0.9999902 0.001758319 0.99999845
0.98935825 -0.14550003 -0.04325122 -0.9990642 0.9544809 0.29827204 0.48360258 0.8752877
0.1996012 0.97987723 0.07991469 0.99680173 0.031843193 0.9994929 0.012678803 0.9999196
0.0050476375 0.99998724 0.002009507 0.999998 0.4121185 -0.91113025 -0.42718017 -0.9041665
0.9895935 0.14389123 0.53783053 0.843053 0.22414905 0.9745549 0.089878544 0.9959527
0.03582198 0.9993582 0.014263553 0.99989825 0.0056785857 0.99998385 0.0022606952 0.99999744
-0.5440211 -0.8390715 -0.7442953 -0.6678507 0.99990064 -0.014096433 0.58991814 0.80746305
0.24855547 0.9686177 0.099833414 0.9950042 0.039800204 0.9992077 0.015848266 0.9998744
0.0063095316 0.9999801 0.002511883 0.99999684 -0.9999902 0.004425698 -0.9449973 -0.32707813
0.98514396 -0.17173062 0.6396579 0.7686597 0.2728051 0.96206933 0.1097783 0.9939561
0.043777797 0.9990413 0.01743294 0.999848 0.006940475 0.9999759 0.0027630706 0.9999962
-0.53657293 0.84385395 -0.99789494 0.06485153 0.9456933 -0.32506028 0.68685204 0.7267973
0.29688257 0.954914 0.119712204 0.99280864 0.047754694 0.9988591 0.019017566 0.99981916

transformer_encoder.layers.0.self_attn.in_proj_weight f4 [60, 20]
00000000: 9b1f 1abe 77c7 73be b32a 5c3e 7057 7d3d
00000010: 7564 3d3e 3495 a03d 56d4 38be faf8 fe3d
00000020: 2671 373c b2e8 383d 3114 50be 4bb8 723e
00000030: 4ab7 8abe a41f 3a3e e284 863e ab75 863e
00000040: bfeb 9a3d 1e11 debd 25e2 32bc 8955 3bbc
00000050: 4362 783e 58ad 7fbd 82ef 85be df81 ce3d
00000060: 0677 733d 8590 dd3d 16f9 253e f894 afbd
00000070: a5ba 6d3e 0f3b 30bd f487 883a e480 c0bd
00000080: 615f cf3d bbf4 d1bd 367f 6a3e 0109 233e
00000090: b0c7 863e df6d a73c 9afb 153d 7953 fbbd
000000a0: 5c00 153e 7f5b 13be 9b38 713c 06cc 88bd
000000b0: 403b 773e 21ae 52be ed1e 343e df25 6abe
000000c0: 623e 98bb 03c4 a9bd e990 76bd c8d4 3fbd
000000d0: 8f4c 433d 121b 1ebe 6181 da3d b8d4 35be
000000e0: 2553 82bd 4644 90be 919a b4bd a8ba e3bc
000000f0: db20 d23d 416e 60bc 7433 11be e71a b23d
00000100: b2d0 5b3e c3f2 1f3e a633 e4bd 71b5 d73d
00000110: d2d6 f83c 9eea 39bc 53f0 7c3d 1ede fe3d
00000120: 84d1 76be ac07 05be 0c88 ee3c 46c6 413e
00000130: f8de 3bbe 8eab ffbd 6809 87bc f9d4 033e
00000140: 3f42 74be 4b80 e23d 2673 36be 0b21 813e
00000150: 15c3 91bd c98e 94bd ca6a 5ebc e608 a4bc
00000160: 511e 6f3e 5e7f 063e ec97 68be acb8 0c3e
00000170: 6bce 273e 7cf4 dcbd 12db 4cbe c325 b7bd
00000180: 52a1 62bd 2e40 1a3d f4b7 a53c c431 813e
00000190: 2219 91bd 1a3d 4cbd 6431 503e 0dbb 63be
000001a0: e5bd 163d 1122 0e3d 242c 873d 59e1 393e
000001b0: 6723 4bbe 838d eebd 4c8e 803d d62a 5a3e
000001c0: c5b1 23bd 645a a3bd 6816 71be f83e 323e
000001d0: f4fa 1abe 3b3f 26be 435c e6bd 8040 94bc
000001e0: 5b1e d4bd 0bb4 c73d 8a49 773e 7e3d ab3c
000001f0: 570a 3ebe f2d1 11be bc37 00bd 1a67 0abe
00000200: 40c8 71bd 8543 0c3e f341 afbd 0bc8 f63d
00000210: aade 09bd 99fa 153e 920f 01be 0fb9 783e
00000220: 25d1 603e aef7 07be 6fa8 713b 5e23 e1bd
00000230: 8515 643e 03f5 12bf e49f 583d 8e60 a13c
00000240: 2f52 943e 5d14 01bd d939 42be 7a49 5fbd
00000250: 3509 e8bd 8af3 7ebd 511f 673d 6a77 36be
00000260: 4bfd 2b3e 763f c0bc cb7e 5abe 2e69 0fbe
00000270: 81a6 da3d 8b26 c93b b6f6 03bd 884f dabd
00000280: 669a f33d f45e eb3d 6048 1ebc fbbf 4e3e
00000290: ba60 e83d b230 afbd f359 8cbe 3ad5 463e
000002a0: 0cf7 25bb 74d7 043e 7247 07bd 5093 843d
000002b0: cd2c 653e 7e32 9bbd da1f 153e 4d0b 433e
000002c0: 7868 1b3e 0e94 6abe 878d 803e 8385 1b3e
000002d0: aeb7 9ebd 428f 46be b454 7e3d b827 d43d
000002e0: 6414 3c3e ac72 24be cff3 b0bd c74d 0b3e
000002f0: a6e9 29be ffde dabd 9a37 51be 2b17 fcbd
00000300: 6d4a 273e 2ea7 8bbd 42ff afbc 9f66 5ebc
00000310: 2b04 56be c60c 3abd 59fe 86bd 205b 2e3c
00000320: 9489 2dbe 6acd 84be 3db4 3f3d 5d67 49be
00000330: dabf fdbb 75e0 123e 4f13 aa3c 95f9 4abe
00000340: af73 5c3e 69c4 143e 8848 fc3d 3a07 123d
00000350: 1a35 09bd 9ed1 703c 9814 47bd 58fa bb3c
00000360: a0a0 6a3d 0762 6d3e ec23 f13d c10d 073e
00000370: 9eb1 aa3c 6542 97be f49d 49be 6c14 6cbe
00000380: 8e8c 413e 5af7 c9bd 0523 1bbe 3559 463d
00000390: 2233 da3c 6324 1c3e 9acc cebd b676 4a3d
000003a0: d0c1 4cbe 2651 94bd 456b 34be f736 003e
000003b0: 0c1c d43d 716c b4bc 3c17 913c 0223 8bbe
000003c0: 5ed9 9a3e 3cba 043e 3f30 623e 44af 6cbe
000003d0: 3080 42be d7dc 14be a8c6 6fbe 2112 bb3d
000003e0: 3cc7 a7bd babe 29be d115 f63d bd6f 48bc
000003f0: 861d 8c3e 2c11 513e dcc1 863e e201 50bd
-0.15051119 -0.23806559 0.21500663 0.061850965 0.18495353 0.07840958 -0.1804975 0.12449832
0.01119641 0.04514379 -0.20320202 0.23703115 -0.27092963 0.18176132 0.26273257 0.2626165
0.07564496 -0.108431086 -0.010918175 -0.011433967 0.24256234 -0.062421173 -0.26159292 0.10083365
0.05943968 0.108185805 0.162083 -0.085733354 0.2321573 -0.043025073 0.0010416494 -0.09399584
0.10125614 -0.10251757 0.2290009 0.15921403 0.26324224 0.020438133 0.0366169 -0.122717805
0.14550918 -0.14390372 0.014722968 -0.066795394 0.24143696 -0.20574237 0.17589922 -0.22866009
-0.0046461085 -0.082893394 -0.06019679 -0.046833783 0.047680434 -0.15440014 0.10669208 -0.17756927
-0.06363515 -0.28177088 -0.08818544 -0.027798966 0.10260173 -0.013698162 -0.14179784 0.086965375
0.2146633 0.1561995 -0.11142664 0.10532654 0.030375872 -0.011347441 0.06175263 0.12444709
-0.24103361 -0.12991208 0.029117607 0.18923292 -0.18346775 -0.12483893 -0.016483977 0.12874211
-0.23853396 0.11059626 -0.17817363 0.25220522 -0.07117287 -0.072537966 -0.013575265 -0.020023774
0.23351409 0.13134524 -0.22714204 0.13742322 0.16387336 -0.10788819 -0.20005444 -0.08942749
-0.05532963 0.037658863 0.020229317 0.2523328 -0.07084872 -0.04986296 0.20331341 -0.22239323
0.03680219 0.034700457 0.06600216 0.1815237 -0.19837724 -0.11648085 0.06277141 0.21305403
-0.039964456 -0.07976225 -0.23543704 0.17406833 -0.15134794 -0.16235058 -0.11248066 -0.018097162
-0.10357352 0.09751137 0.24149147 0.020903345 -0.18558632 -0.14240244 -0.031303152 -0.13515893
-0.059028864 0.13697632 -0.08557501 0.12049874 -0.033659615 0.14646377 -0.12603596 0.24289344
0.21954782 -0.13278076 0.0036874076 -0.10993074 0.22273834 -0.5740511 0.05288686 0.019699361
0.2896895 -0.03151356 -0.1896738 -0.054513432 -0.11329881 -0.062243976 0.05642635 -0.1781899
0.16795842 -0.02346776 -0.2133743 -0.14004967 0.10676289 0.006138628 -0.032217704 -0.10659701
0.118946835 0.1149272 -0.00966081 0.20190422 0.11346574 -0.0855421 -0.27412376 0.19417277
-0.0025324253 0.12972814 -0.03302712 0.0647341 0.22380371 -0.0757799 0.14562932 0.1904728
0.1517657 -0.22908041 0.25107977 0.1518765 -0.07749878 -0.19390586 0.062092498 0.10359138
0.18367153 -0.16059369 -0.08640253 0.13603888 -0.16593036 -0.106870644 -0.20431367 -0.123091064
0.16336985 -0.06818996 -0.021484021 -0.013574271 -0.20900027 -0.045422338 -0.06591482 0.010641843
-0.16947013 -0.25937968 0.046802748 -0.19668336 -0.0077438178 0.14343436 0.02076116 -0.1982177
0.21528505 0.1452805 0.12318522 0.035651423 -0.033497907 0.014698414 -0.048603624 0.022946522
0.05728209 0.23181926 0.1177443 0.1318884 0.020836648 -0.29542843 -0.1968916 -0.23054665
0.18901274 -0.09861632 -0.15150078 0.04842492 0.02663571 0.15248255 -0.100976184 0.049429618
-0.19995809 -0.0724204 -0.17619045 0.12520967 0.10356912 -0.022024365 0.017711274 -0.27175146
0.30243963 0.12961668 0.22088717 -0.23113734 -0.18994212 -0.14537369 -0.23415625 0.09134317
-0.08192298 -0.16576663 0.1201588 -0.012233672 0.27366275 0.20416707 0.26319778 -0.050783046

transformer_encoder.layers.0.self_attn.in_proj_bias f4 [60]
00000000: 3f4c 8cbc 530a 533b d422 90bb f980 813a
00000010: f56a 1dbc 0ca2 903c 7b9e 233d d035 303d
00000020: b3ac 003d 95c1 18bc ff25 b13c 293e 5dbc
00000030: e93a 9ebc e974 cbbc 6555 933c f599 283c
00000040: 990f 33bc 26e2 30bd e94e af3b 579c 4d3d
00000050: 8b99 3bb1 ffb7 5930 a7a8 932d a23d 21b1
00000060: c488 0731 b3d4 8e32 884d c231 c34b 8631
00000070: c6a1 0632 f07b 9f31 b850 2e2f 318d d02f
00000080: 0558 642f 4dc8 6db0 bbbd 81b1 8efe 7131
00000090: ea02 c4b1 bdd5 8831 2f6f 4c31 366c 2a31
000000a0: 5c35 43bd 9166 513d ae5f cdbc 3344 83bc
000000b0: 9af3 6a3d 4e1b af3d 320f df3b 513a 833d
000000c0: dd50 633d bda6 143c 7bde 94bc c0f6 563c
000000d0: 7b77 88bd d262 933d 5406 923c de83 913d
000000e0: 13af 303d f50c 2e3d 8033 333c 2747 75bc
-0.0171262 0.0032202199 -0.004398683 0.0009880356 -0.00960802 0.017655395 0.03994606 0.04302007
0.0314147 -0.009323497 0.021624563 -0.01350359 -0.0193152 -0.02483602 0.017985055 0.0102906125
-0.010929012 -0.043184422 0.005349983 0.050197925 -2.729936e-09 7.9205614e-10 1.6786862e-11 -2.3463618e-09
1.9722828e-09 1.66277e-08 5.6549574e-09 3.9085264e-09 7.83661e-09 4.641599e-09 1.5853885e-10 3.7935302e-10
2.076775e-10 -8.650474e-10 -3.775964e-09 3.5214813e-09 -5.704682e-09 3.98242e-09 2.9749108e-09 2.4799767e-09
-0.04765831 0.051123206 -0.025070038 -0.01602373 0.057361223 0.0855013 0.0068072313 0.06407607
0.05549704 0.009072957 -0.018172493 0.013120353 -0.06663414 0.07196583 0.017825283 0.0710523
0.043135714 0.042492826 0.0109375715 -0.014970577

transformer_encoder.layers.0.self_attn.out_proj.weight f4 [20, 20]
00000000: 8b68 083e 1d36 e6bd fc16 b3bd 54f1 193e
00000010: 48d4 873e 028b 643d d095 d73e a8ae f23d
00000020: 1985 84bd 01fc 903d 4b6c 3fbe 242a 5d3d
00000030: a41a 4ebc e43c 94bc 8f62 a83d cf99 bcbe
00000040: 1123 fc3d 1331 b33d 519f ba3e 271f bc3d
00000050: 8f7c 173e 6fa9 abbd c78d 8f3d 6929 62bd
00000060: fa72 c13d c9c4 64bd c4ec 8abe 4dbb 2fbe
00000070: 1eeb 1cbe 4cac 94bd 4e8c 28bd f58e 8b3d
00000080: 7dec 013e a254 4bbe 984b d1bd 62c9 8a3d
00000090: 7f55 99bd 6ac0 5d3d a484 353d 39fc c0bd
000000a0: b180 1fbe 744f 13bd 7850 c2bd 6a95 15be
000000b0: a7ba 313e de8d 1ebe 883e 3fbe 2cb3 a53c
000000c0: 7d47 5dbe b42b 15bd 16fc 09be 4623 1dbe
000000d0: f85c 893c 892a a33d 613b ed3c 0c28 3bbe
000000e0: 62c4 173e 8bf3 dbbd 23fc cd3d c3ed 63be
000000f0: 4566 603d f75d 30bd b4d3 843c 8f05 f13b
00000100: 9c96 4c3e 33c2 86be 649b e63d 6bea a7bc
00000110: fff6 003e fc79 963d 23f7 943b 91df e7bd
00000120: d7f8 f83d 1e37 843d f615 a33e f128 18be
00000130: a4de cdbd d473 b43d d52b 36ba 9ba9 8d3e
00000140: 7258 37bd 1ecd d43d de6e 60be fe89 44be
00000150: 1241 f5bc 41ba 653a df8d 493e 4e83 1fbd
00000160: e455 353e 4d22 4c3d 65b4 95bc 5fdb 543d
00000170: b39f 53be 79f0 5b3e b8da b8bd debc 1fbe
00000180: 535b 7e3d 30c8 4b3d f8a3 d83d 0ae8 04be
00000190: bcab 853e 57c6 a73d 5fe3 52be 6fa9 85bc
000001a0: 502c a8bd 0bc2 aabd 03cd b8be 8fd2 2fbe
000001b0: 43f1 e4bc 7d55 673e 9902 60be a256 37bc
000001c0: 915c a23b 39b6 823c fe6d 4a3d 1ea3 2f3e
000001d0: ca5b 2fbd cba1 37bd 57e7 2d3e ab5b 23be
000001e0: 59f9 7e3d 6e9a cfbd 3e07 fabd 7e58 b73d
000001f0: 499f 553e 89fc 57be ad31 313e 5f8f 583d
00000200: 7df5 603e 629e 173e cf6f 9f3d bb0b 2e3d
00000210: cd26 4f3e 5ace 06be 09eb 28be 1417 413e
00000220: 8e4a 9a3c 8532 8a3d 6c15 1abe aeaa cfbd
00000230: 325c a73d 1711 07be 22fb 113e 9e08 93bd
00000240: 9279 eb3d 812a 76bd 01d1 a7bd 9249 e63d
00000250: 1c56 ff3d c936 dcbd e5fc 2cbe ed32 3bbe
00000260: 5bf3 073e 5a35 6bbd 9bbd 9bbd 546c 8dbd
00000270: 8354 aa3d f43b 183e bbd7 25bd 19f0 9abd
00000280: d68e c83c 444e 493e 0fb8 453e ef16 5b3c
00000290: cc74 c0bd 7ecc 5c3d 4a05 5fbd f08c 623e
000002a0: 1d73 6b3b 202a 0dbd eae0 33be 4426 debd
000002b0: 14e0 95bd 128a 163e 8329 0f3d d5cf 4a3e
000002c0: 4e28 bcbc 5ebc 973d 6d56 d73d 37e0 8abe
000002d0: 93cb 203e f5e7 26be 2b4b 643e 47dc febd
000002e0: 1f02 713e 92f3 ddbd e7e3 753d f54a 663d
000002f0: e9fe 6b3e a8d4 16be 829e b039 cab2 8d3d
00000300: 0d23 34be 00c5 d0bd 2007 d6bc 3390 353e
00000310: fd1b 19be eaad 043e e8a7 4bbe 9df8 20be
00000320: 96ac 723e bc4d 36be cf15 e23d bf9e 4cbd
00000330: c410 da3d a320 a1bb 3041 353e c179 103d
00000340: 20e4 25be 4b60 b6bc e1bf 5f3a cc78 bcbd
00000350: b8fa 2f3c 8c31 2d3d f547 c4bb ef19 4e3e
00000360: a268 163c df56 413e 680d a5bc c39d b03d
00000370: aab1 1c3e 352e b23d b6c0 02bc 9fcc 40be
00000380: 6f14 863d 6e27 79be d412 87be 20d7 6b3d
00000390: f5e2 6f3e 4eb5 b1bc 572a 1dbd 1125 c4bb
000003a0: 16b5 cfbd f782 933c dbd2 14bd 9227 4d3e
000003b0: cd25 a2be 8704 30be 336a 803c b484 c53c
000003c0: ad1c 2cbe a1ad c9bd 0055 9e3e 4a7b 30be
000003d0: 5865 d4bd 0bed 183d 7187 813d 1245 cf3d
000003e0: 79fa 92be 05ef 253e 0470 113e 3c66 06bd
000003f0: d1b8 08bd 2f08 5a3e 1118 f4bb eab8 813e
0.1332113 -0.1124079 -0.08744618 0.15033466 0.26529145 0.05579663 0.42106485 0.11849719
-0.06470699 0.07079316 -0.18693654 0.053995267 -0.012579594 -0.018095441 0.082219236 -0.36836097
0.12311376 0.087495945 0.36449674 0.09185629 0.14793609 -0.08381926 0.07009464 -0.055215273
0.09445758 -0.05585173 -0.27133763 -0.17161293 -0.15324065 -0.072594255 -0.04114943 0.06814376
0.1268787 -0.19856504 -0.102194965 0.06776692 -0.0748701 0.05413858 0.04431595 -0.09423108
-0.15576436 -0.035964444 -0.094880044 -0.14607778 0.17356358 -0.15483806 -0.18676198 0.020227037
-0.21609302 -0.03641863 -0.1347507 -0.15345487 0.016767964 0.07967097 0.028958978 -0.18276995
0.14821008 -0.107398115 0.10057857 -0.22258668 0.05478503 -0.04305836 0.01621423 0.007355399
0.19979328 -0.26320037 0.11260107 -0.020497521 0.12594222 0.073474854 0.0045460626 -0.11321939
0.121568374 0.06455825 0.31852692 -0.14859368 -0.10052231 0.08811155 -0.00069492805 0.2766846
-0.044762082 0.103906855 -0.21917292 -0.19193265 -0.029938255 0.0008763411 0.19683026 -0.03894358
0.17708546 0.0498374 -0.018274495 0.05196702 -0.20666389 0.21478452 -0.09026092 -0.15599391
0.062098812 0.04975146 0.105781496 -0.12979141 0.26107585 0.08192127 -0.20594548 -0.016316144
-0.08211577 -0.08337792 -0.36093912 -0.17170165 -0.027947074 0.22591205 -0.21875991 -0.0111900885
0.0049548824 0.015956031 0.049421303 0.17152068 -0.042812146 -0.044832032 0.1698278 -0.15952937
0.062249515 -0.10136877 -0.122084126 0.089524254 0.20861544 -0.21092428 0.17304106 0.052871104
0.21968646 0.14806512 0.07784998 0.042491656 0.20229645 -0.13164654 -0.16495909 0.1885646
0.018834379 0.06747917 -0.15047234 -0.101399764 0.08171882 -0.13190113 0.14255956 -0.07179378
0.11497797 -0.06009913 -0.08194161 0.11244501 0.12467596 -0.10752637 -0.16893347 -0.18281145
0.13276426 -0.057423927 -0.07604524 -0.069054276 0.083169006 0.1486662 -0.04048894 -0.07565326
0.024482172 0.19658762 0.19308494 0.013372167 -0.09397277 0.053905956 -0.054448403 0.22124076
0.0035926767 -0.034464 -0.17566267 -0.10847142 -0.0731813 0.14701107 0.034951698 0.19805844
-0.022968438 0.07408975 0.10514531 -0.27124187 0.15702657 -0.16299422 0.222943 -0.12444358
0.23535965 -0.10837473 0.060031798 0.05622383 0.2304646 -0.1472956 0.00033687433 0.06918867
-0.17591496 -0.10193825 -0.026126444 0.17730789 -0.14952083 0.12956968 -0.1988827 -0.15719838
0.23698649 -0.17803091 0.11039316 -0.04995608 0.10647729 -0.0049172207 0.17700648 0.035272364
-0.16200304 -0.022262713 0.0008535367 -0.09202728 0.010740928 0.04228358 -0.0059900233 0.2012708
0.00918022 0.18880795 -0.020147994 0.08623841 0.15302148 0.087002195 -0.007980516 -0.18828057
0.06546866 -0.24331447 -0.26381552 0.057578206 0.23426421 -0.021692898 -0.038370457 -0.005985864
-0.10141961 0.018006785 -0.0363339 0.20034626 -0.31669465 -0.17189227 0.01567564 0.02411113
-0.16807814 -0.0984757 0.30924225 -0.17234531 -0.10370892 0.037335437 0.063246615 0.10120596
-0.2870672 0.1620446 0.14202887 -0.032812342 -0.03337938 0.21292184 -0.007449158 0.2533639

transformer_encoder.layers.0.self_attn.out_proj.bias f4 [20]
00000000: 022f acbc d20c 4b3d 0ff2 0b3d acc7 1a3d
00000010: be79 b23c 4820 cd3c fc4f a3bc 35bb e93c
00000020: 2bb3 6cbc f8b6 9bbc 4b29 ad3b 4ea5 31bd
00000030: 317a 173d bb09 b1bd 5164 103d 7f1a b2bc
00000040: c760 46bb 2843 1dbd 7d66 663c 98ae acbc
-0.021018509 0.049572773 0.034166392 0.03778808 0.021786567 0.025039807 -0.0199356 0.02853165
-0.014447014 -0.019008145 0.0052844635 -0.043370537 0.036981765 -0.08644434 0.03525192 -0.02174115
-0.0030270086 -0.038394123 0.014062521 -0.021079347

transformer_encoder.layers.0.linear1.weight f4 [20, 20]
00000000: 8480 bbbd ecc8 133e da91 7b3d 6016 483e
00000010: 26b8 bcbd 5a5a b6bc 0f30 21be 8656 3b3e
00000020: 1177 05bd 9851 82bb affe f2bd 63d3 1c3d
00000030: 19e6 8b3d 9581 363d 8b0b fa3c 6ffa b23d
00000040: 125a 483e 7619 15be e4d7 6ebd 38a8 e5bd
00000050: df0b 81be 3f84 3e3e 1464 64be 3e46 2f3d
00000060: 3f88 7c3d c2f0 adbc 14b7 f63c 2c86 35be
00000070: 75e1 2a3e b914 0fbd da9b 10bd d1fd bf3d
00000080: 4f15 6dbd ca68 12be a5c7 1d3e 5f53 483e
00000090: c8ff 0c3e a89f 62bd 645e f3bd 49a5 993d
000000a0: 1d7f 2f3e ebc4 583e bc6f 6d3e dd42 463e
000000b0: ebd6 803b 64a9 383e 7877 5f3e abbe 5cbd
000000c0: 680a acbd d76a 363d 6be1 9cbe b734 0b3c
000000d0: 37d7 fd3b 4876 d43d 3075 39be d56b 49bd
000000e0: cc27 b5bd 8b13 4e3e 0fd4 333d 0411 bbbc
000000f0: a26d 89bd 4d01 1bbe 0ef1 5f3d e59f 803e
00000100: d570 19bd e97d 7bbc ad0f 94bd 8be3 113e
00000110: f46a 23be 5caa 93bd 361b 0b3e 8320 2ebe
00000120: 7fe1 1a3e a7a0 363d cade 77bd b425 de3d
00000130: 2ae2 d3bd 73fd 47be 9a84 013d 94f0 383e
00000140: 9427 813d 11a2 50be 40e9 c0bd 0342 a3be
00000150: 2554 0b3e 841c b93e 2c52 363c c337 49be
00000160: 8675 263b 64a0 05be a640 0b3d e0ac c4bd
00000170: 4c30 f9bd e423 173e 1c36 913d 217f 74be
00000180: 0be2 37be 12d8 003d 16a8 b53d c554 8dbd
00000190: 6fae d8bc 3a79 edbe 4411 59b8 5400 9bbd
000001a0: 6d68 d33d c91a a0be cd80 c23c c265 a2bd
000001b0: 1b7a e3bd 2e4c 49bd 7024 02bd 10f9 2ebd
000001c0: ec47 5dbb 0275 2f3c 3985 3e3e a648 a53e
000001d0: 266c 7dbd 5d71 9d3d 8950 6b3e 4155 fc3d
000001e0: 1add a5bc e6e6 f43d 78e3 d7bd a77f 4dbe
000001f0: 8e27 183e 6110 b63e 9947 c5bd 656d 69be
00000200: bbb9 85bd a2da 143e 5e30 14be f276 73be
00000210: fd96 58be 81f1 04be 4b83 6a3d f79c 6fbd
00000220: 5dd4 0bbd 6f55 803d 517a c53c 3015 75be
00000230: d8b9 583e 377c 2a3e 629f 8ebd 2a49 c8bc
00000240: c877 bcbd dab8 633e 0e24 6bbe ae01 ab3d
00000250: 22e7 84bd 9970 62be 2d95 36be 6a13 3abe
00000260: 98d2 e73d de62 6bbe 38c0 053e 9577 37be
00000270: 9862 013d abfe 76be b1d7 2dbe 9477 c0bd
00000280: 342c 15be c927 4a3e af82 3f3e 6b4b fdbd
00000290: 7ad1 973d fee3 fcba 84b9 913d f18a 8a3e
000002a0: 933c 06be 7d1d 03be 3f41 113e e2cc 7c3e
000002b0: 34e5 8fbd ca20 dc3d 6d6c 68bd 4a2b 6bbe
000002c0: a5bc 0d3e 4430 95bd d48b ce3d a3a1 f93d
000002d0: f268 613c af2f 8bbe 8ee7 6abc 0e07 783e
000002e0: 32be 763e 6264 973d da60 afbd d7e4 f63d
000002f0: 67f3 313d 0a71 8fbd 0291 ff3d b57d 183e
00000300: c6b8 113e ebde 22be e4ea c8bd 1a03 22bc
00000310: ae98 17be cb3a 323e 0ecc a9bd c821 d9bc
00000320: e673 99bb 8a2b 363e 2ee6 81bd 4e40 473e
00000330: dda9 473e a2ed 26bd 3c3c 12bc 1b3a adbc
00000340: f1cd 6b3e 2b3e 35be 515c 38be 25e6 3bbe
00000350: df26 c23d e01d cb3d 5380 c7bc bf08 033e
00000360: d27e 07be 5285 44be 22bc 983d cf96 2bbe
00000370: d9f8 983d 8608 81be 3051 6a3d 7e7b 38be
00000380: 9e29 57bc e555 76be 763d fe3d 9678 13be
00000390: ef8d d9bd 4846 e93d eb16 c7bc 56e2 25bd
000003a0: 504d 3dbe 6b57 ad3b d3bc 2a3e 5bad 223e
000003b0: 8d01 34be e293 32be 7daf 073e 345d c93d
000003c0: e6b0 583d 19ad 493e c3c0 bfbc bbb7 323e
000003d0: 00e5 793d c162 febc ad86 303e 2e31 463e
000003e0: 36e7 1c3e b424 d33d 9343 7d3c f5cc 2fbe
000003f0: 02ff 29be c9cc c23d c743 d2bd 1f16 eabd
-0.09155372 0.14432114 0.06141839 0.19539785 -0.09214811 -0.02225988 -0.15740989 0.18294725
-0.032584254 -0.003977012 -0.11864983 0.03828753 0.06830997 0.044557173 0.030523082 0.08739173
0.19565609 -0.14560494 -0.058311358 -0.11213726 -0.2520437 0.18605135 -0.22303802 0.042791598
0.061653372 -0.021232966 0.030116595 -0.17726964 0.16687568 -0.034931872 -0.03530488 0.093745835
-0.05788165 -0.14297786 0.1540819 0.19563054 0.13769448 -0.05532804 -0.11883238 0.07502229
0.17138334 0.21168868 0.23187155 0.19361444 0.00393187 0.18033367 0.21822917 -0.053892773
-0.08400422 0.044535484 -0.3064073 0.008496455 0.007746603 0.10374123 -0.1811111 -0.049175102
-0.08845481 0.20124643 0.043903407 -0.022835262 -0.06710364 -0.15137215 0.054673247 0.2512199
-0.03746112 -0.015349844 -0.072295524 0.14246957 -0.15958768 -0.07210228 0.13584599 -0.1700459
0.15125082 0.044586804 -0.060515203 0.10847035 -0.10345872 -0.19530277 0.0316206 0.18060523
0.06306377 -0.20374323 -0.09419489 -0.318863 0.13606317 0.36154568 0.01112799 -0.19650178
0.002539964 -0.13049465 0.0339972 -0.09603286 -0.12167415 0.14759785 0.07090399 -0.23876621
-0.17957322 0.03145606 0.088699505 -0.06900934 -0.026450364 -0.4638155 -5.175291e-05 -0.07568422
0.10322652 -0.31270435 0.023743058 -0.07929565 -0.11107274 -0.049144916 -0.03177303 -0.042717993
-0.0033764793 0.010709049 0.18605508 0.3228199 -0.061870717 0.07687638 0.2297994 0.123209484
-0.020247031 0.11958103 -0.10541433 -0.20068227 0.14858839 0.3555937 -0.09632797 -0.22795637
-0.06529566 0.14536527 -0.14471576 -0.23775843 -0.21151347 -0.12982751 0.057254117 -0.058499303
-0.034138072 0.06266295 0.024106177 -0.23933864 0.21164644 0.16648947 -0.069639936 -0.02444895
-0.09202534 0.22238484 -0.22962973 0.0834993 -0.064893976 -0.22113265 -0.17830344 -0.18171468
0.113194644 -0.22986934 0.13061607 -0.1791671 0.031588167 -0.24120586 -0.16976811 -0.09397808
-0.14567643 0.1974174 0.18702196 -0.123679005 0.07413001 -0.0019294021 0.071154624 0.2705913
-0.13109045 -0.12804218 0.14185046 0.24687532 -0.07026139 0.107484415 -0.056744028 -0.22965732
0.13841493 -0.072845966 0.10085264 0.12189033 0.013757931 -0.27184817 -0.0143374335 0.24221441
0.24095991 0.073921934 -0.08563395 0.120553665 0.043445017 -0.07003982 0.1247883 0.14891703
0.14230642 -0.15905349 -0.09810427 -0.009888435 -0.14804336 0.1740524 -0.082908735 -0.026505366
-0.0046830056 0.17790046 -0.063427314 0.19458124 0.19498391 -0.040753968 -0.008925494 -0.02114587
0.23027779 -0.17699496 -0.18003966 -0.18349512 0.0948007 0.099178076 -0.024353182 0.12796305
-0.13231972 -0.19191483 0.074577585 -0.16756748 0.07469339 -0.25201815 0.057206333 -0.18015859
-0.013132481 -0.24056204 0.124140665 -0.14401469 -0.10622775 0.11390358 -0.02430292 -0.040499054
-0.18486524 0.005289962 0.16673593 0.15886442 -0.17578717 -0.17439225 0.13250537 0.0983223
0.05290308 0.19694938 -0.023407346 0.174529 0.061009407 -0.031052949 0.17238875 0.19354698
0.15322575 0.10309735 0.0154580055 -0.17168029 -0.16601184 0.09511716 -0.10266834 -0.114300005

transformer_encoder.layers.0.linear1.bias f4 [20]
00000000: 46ee a9bd f2d1 d23d 372e 3bbe d9d6 78bd
00000010: 2d1a 2b3e 63d4 793a 0391 67be 1be1 6cbe
00000020: 50aa e03c d7a0 a03d 7033 e33d a345 93bc
00000030: e0b7 5b3d c12e 44bd 6b07 f2bd 2540 bbbd
00000040: 3191 42be b382 1fbe 2658 12be 2423 58be
-0.082974 0.1029395 -0.18279348 -0.06075177 0.16709204 0.0009530244 -0.22613911 -0.23132746
0.027424961 0.07843178 0.11093795 -0.017977541 0.053642154 -0.04789615 -0.11817821 -0.09143094
-0.19000699 -0.15577202 -0.14291438 -0.21107155

transformer_encoder.layers.0.linear2.weight f4 [20, 20]
00000000: 5dac 213d 2c6e 57be 2464 c4bd 2938 5d3e
00000010: ce08 52be 9f00 d93e 40b8 8e3d a61d 2e3e
00000020: 92bd 17be cda8 813e 3a60 c43d 12fa a03e
00000030: 0fae f4bd ef4d 7d3c ff54 463e ba4c 423e
00000040: aee8 8b3e de6f bebd e00f 4abd 7417 d03d
00000050: b14c 0b3e bc1f 663d 3537 32bd 43dc 443d
00000060: 486b 0dbd c4ff 843e 64f5 f43d 96c8 21be
00000070: 62ea ff3d 2fb9 063c 9f15 d8bd c141 c1bc
00000080: 3ed5 0a3e 82a3 4fbd 7b09 e63d b993 cdbd
00000090: ef21 f83b cac2 26bb da52 d13b 0bf2 17bc
000000a0: 5545 433d 226d 54bd 8e7f 483e 345e edbd
000000b0: 3e72 04be ed97 833e 9457 01be d217 873e
000000c0: 66ce 313e 2645 223e 792a 273c f00e ccbc
000000d0: 6b3d d93a e331 51bd a5b1 b73d 9435 24be
000000e0: 94fb 99bd 1d62 0f3d 3874 2b3d ea9b 5b3d
000000f0: c950 1c3e e8ff 0abc 23e3 5cbb 7d80 b8bd
00000100: d6d4 e63c cacc 1e3d bf06 f53d 3d0c 153e
00000110: e8d4 403b 106c 17be 72b4 253d f2d6 84bc
00000120: 9721 423d 7c90 65ba a64f 163e 7e3b 203e
00000130: 823d cdbd a972 493c 0d4b 4e3d 1ed7 d4bd
00000140: 9bb1 43bd 8c04 183b f5db 2cbe c3bc 6c3d
00000150: 6011 ad3d af5e 383e ebfe b03d 1549 cc3d
00000160: 812b 2e3e fa1a f23d c19f 00be 390b d2bd
00000170: 68c1 dc3d 1b20 503e 5149 c4bd c746 853e
00000180: c156 e43d 9fcc 4cbe 1a1e 603d 2937 5f3d
00000190: 568d 473e 7a1e 913d 2211 0abe 52d0 18bd
000001a0: 7367 243d fe35 3d3e 0646 44be c274 efbd
000001b0: d703 98bd 1cf5 89bc 48a4 1a3c f509 a63c
000001c0: 81c0 c63d 3e8d b9bd 0860 2fbe dcc0 44be
000001d0: f6a6 5f3d 8067 493d bde8 38bd 1713 183e
000001e0: 0a9e 08be 4c4f b43d d30e ebbd b02b 323e
000001f0: 2945 96bc 89d8 d53d b87b 87bd 7085 023b
00000200: 2615 a8be 08d5 0f3e 267e f83c 3f54 efbd
00000210: 9c83 be3d fc46 55be 80c4 1f3d 8510 863e
00000220: 52d6 df3d c383 df3c 07df 633c 2350 7d3c
00000230: 0eb1 233e f82e 313e e8a3 e83d 2652 21be
00000240: 62c4 4e3e e3c1 38be a060 593e 7ea5 ed3b
00000250: 0623 523e c62e b93c 53fb 213e 19bc dd3c
00000260: e475 593d 9b92 d83d 58f8 153e 7845 34be
00000270: 2feb b7bd 8af3 a23d 70b4 bd3d 432c d43d
00000280: 96fc 6e3d 4643 e53d 56f9 2dbe d5fb 4e3e
00000290: 4117 9fbd 8d78 d93d 6105 94be 056a 853d
000002a0: 6d3c 72bc 82f9 383e a475 10be 484d 2abe
000002b0: 36ff df3d 23fd c1bd d6d6 e23c 48e6 0bbe
000002c0: d025 7c3e df4e 333e 165f e93d 7bf8 1b3d
000002d0: 703c f43d 90f8 323e cb02 033e 89a0 de3b
000002e0: 2dea 3bbe 4049 8dbe 456f 7abd 79c4 bbbd
000002f0: c63b 85bd 2aac 8dbd 25f8 6cbd 41ed eabc
00000300: da16 253e 1991 7abd 9097 91bd 14b8 53bd
00000310: 9870 713d 0f6e c0bd 04da 013e 1233 78be
00000320: ea8d 04be c871 78be c88b c33d 3551 243e
00000330: b9ab 823e 8bb6 15be 62d9 593e 4ed2 603e
00000340: acb8 c1bd 4e1e 9f3d bedd 4f3e 5c75 a6bd
00000350: 719e f03a 1bda 40bd 136c 1ebe 53f5 2dbc
00000360: 4831 8cbe a32e ff3d 0512 86bd 9dfd 8abe
00000370: 5232 473e 9490 1c3e 3107 4739 c489 51be
00000380: cac9 223e b2fe 0abb 75a5 7b3e 0e7e d2bd
00000390: 9226 163e 6e1b b93d a381 a03d 9d4d b3be
000003a0: c66c 93be 4400 4b3d c8cf 223c 2189 003e
000003b0: 4f49 a63d 291c 0abe 9b0d 093d e7ee 0dbe
000003c0: 4e4a 2abd d2db 35be 09c0 f13d c1a8 23be
000003d0: 6a44 f73c 5588 28be b9de d3bd 795a 76bd
000003e0: e5a7 11be 9ecf 71be c405 22be 306e 5cbe
000003f0: 4ee3 3b3e c286 0d3e 141f ef3c b009 2c3e
0.03947102 -0.21038121 -0.09589413 0.21603455 -0.20511171 0.42383286 0.06968737 0.17003497
-0.14818409 0.25324097 0.09588666 0.31440789 -0.119472615 0.015460475 0.19368361 0.18974581
0.27325958 -0.09298681 -0.049331546 0.10160723 0.13603474 0.056182608 -0.04350968 0.04806162
-0.03452614 0.25976384 0.11960867 -0.15799174 0.12495877 0.008222862 -0.10550999 -0.023590924
0.13557908 -0.050693043 0.11232277 -0.100379415 0.0075724046 -0.0025445693 0.0063880505 -0.009274016
0.047673542 -0.05186189 0.19579908 -0.115902334 -0.12934205 0.25701848 -0.12631065 0.2638536
0.17363891 0.1584669 0.010202997 -0.024909467 0.001657409 -0.051072966 0.0896943 -0.16036063
-0.07518688 0.035005677 0.04185888 0.053615488 0.15265192 -0.008483864 -0.003370472 -0.09008882
0.02817766 0.03876952 0.11964177 0.1455545 0.0029423777 -0.14787316 0.04045529 -0.016215775
0.047395315 -0.00087571866 0.14678821 0.15647694 -0.10021497 0.0122954035 0.050364543 -0.10392593
-0.0477768 0.002319607 -0.16880782 0.057797205 0.0845058 0.18004869 0.08642372 0.09974877
0.17008783 0.118215516 -0.12560941 -0.10256047 0.10779077 0.20324747 -0.095842965 0.2603056
0.111493595 -0.19999932 0.054716207 0.054495964 0.19487509 0.07085891 -0.13483098 -0.037308045
0.04013772 0.18477628 -0.19167337 -0.11692192 -0.074226074 -0.01684051 0.009438582 0.02026842
0.09704686 -0.09060143 -0.17126477 -0.19214195 0.054602586 0.04917097 -0.04514383 0.14851032
-0.13341537 0.08804187 -0.11477437 0.17399478 -0.018343525 0.104416914 -0.06615394 0.001991596
-0.32828635 0.14046109 0.03033359 -0.116859905 0.09302446 -0.2082786 0.039005756 0.26184478
0.1092955 0.027284509 0.013908154 0.015461001 0.1598551 0.17303073 0.11359388 -0.15753993
0.20192102 -0.18042712 0.21228266 0.007252394 0.20521173 0.022605311 0.15818529 0.027067231
0.053090945 0.10574838 0.14645517 -0.17604625 -0.089804046 0.07956608 0.09262931 0.10360005
0.058346353 0.11194472 -0.16989645 0.20213254 -0.07768107 0.10618696 -0.28910354 0.06514362
-0.014784914 0.1806393 -0.14107376 -0.16631043 0.109373495 -0.0947211 0.027690332 -0.13662064
0.246238 0.17510556 0.11395089 0.038078766 0.1192559 0.17477632 0.12794034 0.0067940396
-0.1835105 -0.27594948 -0.06114127 -0.091683336 -0.065055415 -0.06917603 -0.057853837 -0.028677585
0.16121998 -0.061173532 -0.071089864 -0.051689222 0.05894527 -0.09395992 0.12680823 -0.24238232
-0.12944761 -0.24262154 0.095481455 0.16046603 0.2552164 -0.14620416 0.21274331 0.21955225
-0.094590515 0.07769452 0.20299432 -0.08127853 0.0018357766 -0.047083 -0.15470915 -0.010617572
-0.2738135 0.12460067 -0.06546406 -0.27146617 0.1945279 0.15289527 0.00018980798 -0.2046271
0.15897289 -0.002120894 0.24574836 -0.10277949 0.14663151 0.09038435 0.07837226 -0.35020152
-0.28793925 0.0495608 0.009937234 0.1255231 0.08119451 -0.13487305 0.03346024 -0.13860665
-0.04157477 -0.17759636 0.11804206 -0.15982343 0.03018399 -0.16458257 -0.10345215 -0.060144875
-0.14224203 -0.23614356 -0.15822512 -0.21526408 0.18348429 0.13820937 0.029189624 0.1680057

transformer_encoder.layers.0.linear2.bias f4 [20]
00000000: 4f3d e13d dcb9 553c f51f 573e b16f 903b
00000010: 6538 0f3e 1928 f83c 83c1 dabc ce20 05be
00000020: cac8 dd3a 0949 3fbd 046d 523e b9d9 0ebd
00000030: 1a24 403d 4028 8b3d 7453 25bc 00d0 60bd
00000040: 3e07 1b3e e93b 5ebd 6790 413e 8ead e3bd
0.10998022 0.013044801 0.21008284 0.004407846 0.13986357 0.030292558 -0.026703602 -0.13000795
0.0016920802 -0.04670051 0.20549399 -0.034875605 0.04690943 0.067947865 -0.010090698 -0.054885864
0.15139481 -0.054256354 0.18902741 -0.11117087

transformer_encoder.layers.0.norm1.weight f4 [20]
00000000: f93f ab3f 1f88 9b3f 9b04 8c3f d621 963f
00000010: f230 813f a6da 9a3f 921f 893f 8ddd 6c3f
00000020: b91f 843f ccba 7c3f ccc2 7e3f 5a4c 863f
00000030: 4138 663f b9fb 6e3f 3af1 7a3f fe25 483f
00000040: 03b9 713f c9dc 883f dfe4 7a3f 684d 7c3f
1.3378898 1.2150916 1.0938905 1.1729076 1.0093062 1.2097976 1.071276 0.9252556
1.0322181 0.9872253 0.99515986 1.0492051 0.89929587 0.9335285 0.9802433 0.7818297
0.9442293 1.0692378 0.9800548 0.9855561

transformer_encoder.layers.0.norm1.bias f4 [20]
00000000: 189f efbc 9e7c 6b3d 68f7 3a3d 2c1f 823c
00000010: 1c6d da3c ae10 2d3d bbe9 85bd d068 653d
00000020: c2b6 183c d881 6ebd b3de 323d a328 06bd
00000030: f2ef 7b3d 098b 3cbd 4efa 453d e330 33bd
00000040: cbdb 7d3c 72e7 73bd d3a8 453d d03b 50bd
-0.029250666 0.05749189 0.0456461 0.015884005 0.026663356 0.042252235 -0.06538721 0.05600816
0.009320917 -0.058229297 0.043669414 -0.032753598 0.061508127 -0.04603103 0.048334412 -0.043747794
0.015494297 -0.059546895 0.048256706 -0.05083829

transformer_encoder.layers.0.norm2.weight f4 [20]
00000000: a196 b23f 741b 693f 185e 913f 1dc2 813f
00000010: 148c 893f 9764 803f 2b18 913f ac15 703f
00000020: 21ee 8a3f e8ab 873f 3dcf 763f 12f2 8b3f
00000030: a06c 653f 6dac 783f 7884 7b3f e0b7 503f
00000040: 1cbf 743f 8161 8f3f 1ba2 803f 8c97 893f
1.3952218 0.91057515 1.135684 1.0137364 1.0745873 1.0030698 1.13355 0.9378307
1.0853921 1.0599337 0.9640997 1.0933249 0.89618874 0.971381 0.98249006 0.8153057
0.9560411 1.1201631 1.0049471 1.0749373

transformer_encoder.layers.0.norm2.bias f4 [20]
00000000: 2671 2c3c b916 903d dd9f 9a3d d7cf a03d
00000010: fede b23b b062 92bb b95b 66bd 220e b73d
00000020: 6780 1d3c 1ad7 75bd eeba 163d 9d7a d5bc
00000030: 5670 ec3c bba7 37bb c0ec a33d 81cd d03c
00000040: 720d b9bc f5fc 75bd a0ea 4b3d 6ffa 28bd
0.010525024 0.07035584 0.07550023 0.07852142 0.0054587116 -0.004467331 -0.056239817 0.089382425
0.009613133 -0.06001959 0.036799364 -0.026059443 0.02886216 -0.002802356 0.08004141 0.025488617
-0.022589419 -0.06005569 0.049784303 -0.041254457

transformer_encoder.layers.1.self_attn.in_proj_weight f4 [60, 20]
00000000: 2e4a 10be 4dab 89be 3108 5c3e 957c 573d
00000010: b74d 333e 7a8c 773d dba1 23be bf9b ed3d
00000020: 27ad 103d 53ed 4f3d b5da 4abe 1c61 793e
00000030: 6033 8fbe adb5 373e 5035 823e 12ba 8a3e
00000040: 90f9 a83d 573c d1bd c1c9 fbbb 93be 783c
00000050: 9748 683e a865 91bc f82a 7fbe 3463 c83d
00000060: 083e 9a3d 1de8 e03d fe4c 293e 0783 8ebd
00000070: fa90 573e d61c 0fbd b298 8bbb f302 95bd
00000080: 26da cc3d ca3e 99bd 2909 633e 05f9 1f3e
00000090: 9f14 863e f915 ad3c 7ed7 2a3d d28b 13be
000000a0: d26a 533e 8531 7abe 2981 d33c 0eca 8bbd
000000b0: 2a9d 733e 3597 6bbe 53e2 2a3e 9623 83be
000000c0: e755 bd3c 50be d7bd fcc0 45bd 2f3e 47bd
000000d0: b337 093d 1def 45be 1c46 cb3d c845 29be
000000e0: f083 70bd c0d0 9bbe 2993 afbd b330 ac3c
000000f0: 4167 563d 2321 573d c173 2bbe a47d 8d3d
00000100: d784 7e3e 9e87 303e a0c6 babd 0ba5 103e
00000110: 3530 773c 6a79 253c 2fe5 643d 9552 fb3d
00000120: e18b 6bbe 33ad afbd e9e7 863c 31a0 2d3e
00000130: a353 4cbe fd9c e6bd 8171 3dbc 239b b13d
00000140: 9d52 85be b6f7 163e 48e2 36be 9c50 6d3e
00000150: 3eca 70bd 26dc 47bd 1ebf d63b dafc 38bb
00000160: 3b26 663e e6bb 203e b59f 6abe 1a76 203e
00000170: cf32 363e 6644 9abd 3186 4cbe e5fc afbd
00000180: a9f1 65bd 8da8 493d 3d21 dc3c d072 653e
00000190: 63b2 80bd 25cf 48bd 8eda 4f3e 1b86 7cbe
000001a0: c0b8 c33d bf63 233d 76e7 c33c 92b5 493e
000001b0: 51c4 39be b4e9 1ebe 110f cb3d 275a 4f3e
000001c0: cee1 2dbd a03b 4ebd ca4c 77be 7613 143e
000001d0: 9de2 13be afb9 59be ddc0 8ebd 6eb3 3fbd
000001e0: c6bf 9ebd 5b37 de3d f3b8 f03d 7ac2 3a3d
000001f0: 18f8 2ebe 9b3e fcbd 8e5f 38bd f642 04be
00000200: 60be 33be 592c 0e3e 8cce f3bd b512 ae3d
00000210: 9598 82bd 8195 033e e86b 2ebe e3a8 463e
00000220: 61c5 2f3e 7f90 02be eded 78bb 7ec3 05be
00000230: 2823 803d b45f 4dbe d055 1d3d 4924 b13d
00000240: 894d a13e d56b f3bc 0aa6 7ebe 3b09 0abd
00000250: 4a18 24be ac8c 02be 0c5d 703d faa6 5ebe
00000260: bc34 253e 2db7 e53c a94d 38be 5b02 2dbe
00000270: 3535 c53d 6631 ccbc dd27 8fbd 153f fdbd
00000280: f973 273e 0536 7bbd 182b 5cbd 6073 303e
00000290: fc61 fd3d 37bf bdbd 05ce 7bbe 5dd4 403e
000002a0: cb9d 99bb 506a 223e bc17 32bd fc11 303d
000002b0: 2b93 603e 91b9 0bbe 4fef e23d 01f8 233e
000002c0: 8e62 103e a553 5cbe 25d7 823e 74d4 123e
000002d0: 3cef 18be b555 85bd 703d fd3d 3045 fe3d
000002e0: 1e14 473e 8976 4fbe bf35 cabd dcbe 1d3e
000002f0: e27d ccbd b7ad 0bbe 9703 1abe 1ca2 dbbd
00000300: d1f9 393e 43fa f9bc 92e2 bd3c cdc0 953b
00000310: 84eb 36be fcca 87bd d8c4 9dbd 9d92 c83c
00000320: a032 0cbe 4e93 6abe e699 8abb 62ae 14be
00000330: b2b3 aa3c 7b2e ba3d f793 833d 7806 2cbe
00000340: 1e93 3c3e a43b 2e3e f8a4 d03d 584f 30bc
00000350: a11b 4cbc 23a7 9d3c 1c4e 92bd b636 47bb
00000360: 510f d73c dc94 803e b68f e43d 6b64 e73d
00000370: 82cb ebbc 88c3 74be 5a42 89be 294b 5cbe
00000380: bea0 3e3e e8cb b9bd eebd a4bd 9a9e 273d
00000390: c7fb 363c 8ed2 503e d807 04be d956 bf3c
000003a0: 5104 20be ba94 7dbd 4f9b 34be 9145 0e3e
000003b0: f2c7 a13d 80e1 0a3d f8aa 703b 6c4c 8cbe
000003c0: e38b 993e e098 f13d 4a6d 6f3e 8fb4 85be
000003d0: 77a9 3abe d4a6 ecbd fc7a 81be 69eb a93d
000003e0: ad41 93bd eb0c 33be 3d15 0d3e 034c 4c3c
000003f0: 6d23 8b3e e93b 5f3e 7253 8a3e d803 04bd
-0.14090797 -0.26888505 0.214875 0.052609045 0.17510115 0.060436703 -0.15979712 0.11601972
0.03532138 0.05076344 -0.19809993 0.2435345 -0.27968884 0.17940398 0.254313 0.27095085
0.08250725 -0.10216587 -0.007683963 0.015182155 0.22683941 -0.017748669 -0.24918735 0.097845465
0.07531363 0.10981772 0.16533276 -0.06958585 0.21051398 -0.03493961 -0.004260146 -0.07275953
0.10002546 -0.07482679 0.22171463 0.15622337 0.26187608 0.021128641 0.041709416 -0.14408806
0.20646217 -0.24432953 0.025818424 -0.06825648 0.23790422 -0.230069 0.16687898 -0.25613087
0.02311225 -0.10534346 -0.048279747 -0.048643287 0.033500385 -0.19329496 0.09925482 -0.16530526
-0.058719575 -0.304327 -0.085729904 0.021019315 0.052344564 0.052521836 -0.16743375 0.0690873
0.24855362 0.17239234 -0.09119916 0.14125459 0.015087177 0.010099748 0.05588263 0.12271611
-0.23002578 -0.08577957 0.016468005 0.1695564 -0.1995378 -0.11260412 -0.011562706 0.08672168
-0.2603959 0.14742932 -0.17859757 0.23175281 -0.058786623 -0.048793934 0.0065535447 -0.0028226883
0.22475521 0.15696678 -0.22912486 0.15670052 0.1779282 -0.07532577 -0.19973065 -0.08593158
-0.05613867 0.04923301 0.026871318 0.22407079 -0.062840246 -0.049025673 0.20298216 -0.24660532
0.09556723 0.039890047 0.02391408 0.1969817 -0.18141295 -0.15518838 0.09914983 0.20249234
-0.042451672 -0.05034983 -0.24150386 0.14460549 -0.14441915 -0.21262239 -0.069703795 -0.046801977
-0.07751422 0.10850402 0.11754026 0.045595624 -0.17086828 -0.123166285 -0.045013003 -0.12916169
-0.17553091 0.13884105 -0.1190463 0.08499662 -0.06376759 0.1285 -0.1703335 0.19400363
0.17165138 -0.12750433 -0.0037983612 -0.13062856 0.062567055 -0.20056039 0.038411915 0.08649499
0.31504467 -0.029714504 -0.24868026 -0.03370021 -0.1602489 -0.12748975 0.058682486 -0.21743384
0.16133398 0.028041447 -0.17998375 -0.1689543 0.09629289 -0.024925899 -0.06990025 -0.123655476
0.16352834 -0.061330814 -0.053752035 0.17231512 0.12372205 -0.09264987 -0.24590309 0.1883101
-0.004688 0.15860868 -0.043479666 0.0429859 0.2193114 -0.13645007 0.11080801 0.16012575
0.14100096 -0.21516283 0.25554767 0.14338857 -0.1493501 -0.06510488 0.12365234 0.1241554
0.19441268 -0.20260061 -0.098735325 0.15404838 -0.09984948 -0.13640486 -0.15040432 -0.10724279
0.18161704 -0.030514842 0.023179326 0.004570103 -0.1786328 -0.06630513 -0.077035606 0.024483973
-0.13691187 -0.22907755 -0.004229772 -0.14519647 0.020837639 0.09090897 0.064247064 -0.16799343
0.18415496 0.17014939 0.10187715 -0.0107611045 -0.012457759 0.019244736 -0.071438044 -0.00303976
0.02625242 0.2511357 0.11160223 0.1129845 -0.028783564 -0.23902714 -0.26808435 -0.21513046
0.18616006 -0.09072095 -0.08044039 0.04092274 0.011168427 0.2039282 -0.12893617 0.023356842
-0.15626647 -0.061909415 -0.1763737 0.13893725 0.07899465 0.03390646 0.0036723 -0.27402055
0.29989538 0.11796737 0.23381534 -0.26114318 -0.18228708 -0.115552574 -0.25289142 0.08296854
-0.07190261 -0.17485397 0.13777633 0.0124692945 0.27175465 0.21800198 0.2701679 -0.03223023

transformer_encoder.layers.1.self_attn.in_proj_bias f4 [60]
00000000: 9f34 433c af4b fe3b 07d7 ed3c 1acf 8fbc
00000010: 3fbe 99bc da9e 5c3d cc44 03bb a112 943c
00000020: 65d2 113d 8417 dfba 06be 35bc 413c 15bd
00000030: d5a1 ac3b b636 12bb 55f7 d93a 125f 09bb
00000040: b763 1cbc 6a6b 8ebd 778d 7fbb b5a1 483d
00000050: 281c 51b0 268d d7b0 9df4 9b30 25a7 b1b0
00000060: 6685 e0b0 59bd 7931 d3a9 7d30 94ba f531
00000070: 6de5 162f 0d7b a92f 183b f6b0 866d 65b1
00000080: 7015 3030 0dda 0cb0 5372 87b1 1532 30b1
00000090: a0db 1931 12ba 61b1 c2d8 4fb0 6322 fab0
000000a0: 12b9 2f3a 5fec 55bd e606 bd3c 9c76 22bc
000000b0: ba96 8c3d 655b 4bbc 1c02 f43b 07cb d03c
000000c0: 5b3f 583d 0f22 31bc 169b 5e3c 12d9 1c3c
000000d0: f73c 9cbc 269e bebc 8230 70bd beaa abbc
000000e0: 4c48 283d 7466 063c 29fb febc d240 603c
0.011914401 0.007760487 0.029033197 -0.017554808 -0.018767474 0.05386243 -0.002003002 0.01807529
0.03560104 -0.0017020558 -0.011092668 -0.036434416 0.0052683153 -0.0022310442 0.0016629497 -0.0020961207
-0.009545258 -0.06954081 -0.0038994232 0.04898234 -7.607377e-10 -1.5683426e-09 1.1347258e-09 -1.292595e-09
-1.6336059e-09 3.63419e-09 9.22822e-10 7.15165e-09 1.3723929e-10 3.0828354e-10 -1.7915651e-09 -3.3386143e-09
6.405889e-10 -5.124157e-10 -3.9420143e-09 -2.563984e-09 2.2389273e-09 -3.2847578e-09 -7.561419e-10 -1.8199667e-09
0.0006703298 -0.052227374 0.023074578 -0.009915974 0.06864686 -0.012411927 0.0074465405 0.025487436
0.052794795 -0.010811343 0.01358678 0.009573238 -0.019072039 -0.02326877 -0.05864001 -0.02095544
0.041084573 0.008203138 -0.031125622 0.013687329

transformer_encoder.layers.1.self_attn.out_proj.weight f4 [20, 20]
00000000: d398 da3d dedc 59bc 0056 47bd c04e fd3d
00000010: 1732 ca3e bfe2 09be e82c 3a3e 88e7 5a3d
00000020: 163b 32be 2b3a 043e ceac 5dbe 030d 3f3c
00000030: 5122 c1bd 45a4 853b 8153 543d 3eb5 8ebe
00000040: 408e b23c aaa1 573d 4c5f 8d3e d204 503d
00000050: ea61 c93d b7c8 0fbe e192 973d 52cc a83d
00000060: 2e22 f73d e807 43bd 6cff 99be eecc 63be
00000070: 3e14 93be c34a 61bd 4032 38bd e9fb d43d
00000080: 680c fb3d 351d a2be 88d5 d1bd 7bb9 e2bc
00000090: fd75 58bd 137f 773c c8fa 8a3d b889 abbd
000000a0: dd8b 06be 1cd0 123d f3b2 b4bd a647 5ebe
000000b0: f105 1e3e ede3 aabd 2105 28be 85c1 ea3c
000000c0: f476 8cbe a013 03be 63b7 4dbe 835e 3abe
000000d0: eaee b33d 292e 0bbd bb50 1d3d 95ed 8bbd
000000e0: 0702 1a3e 7ae7 133c 5863 623d 3638 c6bd
000000f0: cb1b f93c 8cd7 ea3b 8bb4 be3c d349 da3c
00000100: 8bc1 2c3e c044 5fbe edb0 dc3d 8293 243d
00000110: de4f e73d 124c 8f3d 6066 193d 9983 06be
00000120: 85cc 973d 5c2c 063e 2fd9 bc3e a069 17be
00000130: e17d cdbd 7277 463d b2ba e6bc db6d 443e
00000140: 8cbb c3bb 2340 9f3c dc47 5dbe 9f50 22be
00000150: 95bc 8b3c ffbf e7bd 2247 0a3e c136 05be
00000160: 98b6 193e e901 5b3d e449 83bd b300 d03d
00000170: d44a 2bbe 5ae6 373e 29a6 eebd f759 18be
00000180: fcfa 8d3d 467d f63d 75ef 123e 1b88 2cbd
00000190: 5d70 4c3e b426 ef3c f01f 41be 980b 323d
000001a0: b231 a73d f0e0 03be f979 9abe b233 2fbe
000001b0: 36fa 8dbd fe15 973e 78ea 8fbe 9cd5 4e3d
000001c0: ae5e 05be 2af6 adbb ceed 353e 195b 0c3e
000001d0: 870a b7bc b507 fdbd 7bb4 f43d 920e 10be
000001e0: 133a c63d d173 b9bd e691 23be db8a 113d
000001f0: ec5a 2f3e e0d9 3fbe ac2a 3f3e c351 c63d
00000200: 6c37 cb3e ed8b 5a3e e6b1 c13d ee1b 5c3d
00000210: e763 0f3e 7324 f73d 3cfc a7be cca8 fd3d
00000220: 113e a83c aa06 843b 7c23 0abe 5a31 40be
00000230: bc73 8c3d 8d7e 10be 4524 213e b773 a5bc
00000240: 3d62 e23d 44f2 9dbd e635 b0bd 52a8 fd3d
00000250: 6d5e a43d bb18 0ebe 31a5 35be a610 26be
00000260: 3d7e 353e a495 17be 5e75 c7bc d0d6 e4bc
00000270: 60d1 903d fc80 253e 2efa 9abc d75e babd
00000280: 5abd b43d 6398 fa3d f8c6 843e f742 9cbc
00000290: 3a35 96bd ce74 f53d be4a eabc a912 4e3e
000002a0: 8bed 1f3d be5d 09be 925a 48be 72ef 09be
000002b0: 5119 8bbd 1008 163e deba 75bb 8fa3 183e
000002c0: 6f59 9bbb 6089 243e 6fde d93d a4e7 22be
000002d0: 3671 193e d621 1ebe b9f4 803e 3a0f 51be
000002e0: 1917 d93d f50e 623d 89d2 103e 19f5 c63d
000002f0: a3f5 5f3e 4ce6 25be 11be f33d ea12 fb3c
00000300: ba5b 1dbe 70ce 9e3c 4457 71bd 9f2b 903d
00000310: 3b14 febd a960 b93d 9757 26be a6c8 5ebe
00000320: 35a4 5f3e 5478 13be f0a6 cb3c f638 203d
00000330: 1b82 9b3d 5571 19bd 61e0 443e 82de 9d3d
00000340: ced0 97bd 7a29 263b ec3e 273c 7848 35be
00000350: 484f 283d a94a 80bc 2544 743d 210f 663e
00000360: 91e3 db3c 24ba 2c3e 7780 693c 5515 563c
00000370: f733 2d3e 0701 b73d 476a 53bc 315f 86be
00000380: 3d68 35bd 0a69 c2bd 3022 f2bd e564 a63d
00000390: b811 8f3e a45d a1bd 6ac7 59bc f952 523b
000003a0: 8513 bdbc 0435 f93c 1070 53bb b508 013e
000003b0: 6ecf 6ebe 8e3b 47be a224 a83d 3dae f83c
000003c0: ce69 21be d820 9abd 53de 6b3e 5a09 20be
000003d0: 642a 67be 4ef5 cf3d 21da 063e 8c60 323e
000003e0: 5233 0fbe 9954 4d3e 231c 663e 929b 14bd
000003f0: 1624 1d3d 5704 853e 6d98 42bc 2f17 8b3e
0.1067368 -0.013297288 -0.048666 0.12368536 0.3949134 -0.13465403 0.18181193 0.05344346
-0.17405352 0.12912814 -0.21647951 0.011660817 -0.094303735 0.0040784203 0.051837448 -0.27872652
0.021796346 0.05264441 0.27611768 0.050785847 0.09833129 -0.1404141 0.07401062 0.08242096
0.12067066 -0.04761496 -0.30077684 -0.22246143 -0.2872638 -0.05500294 -0.044969797 0.103996105
0.12258226 -0.31662908 -0.10245806 -0.027676335 -0.052846897 0.01510598 0.06786114 -0.08375877
-0.13139291 0.035843 -0.08823194 -0.21707019 0.15431954 -0.08344255 -0.16408207 0.02865673
-0.27434504 -0.12800455 -0.20089488 -0.18200116 0.087858036 -0.03397957 0.03840707 -0.068324246
0.15039836 0.009027356 0.055270523 -0.0967869 0.03040876 0.0071668085 0.023279449 0.02664653
0.16870706 -0.2180357 0.107759334 0.040179737 0.1129453 0.06996931 0.037451148 -0.13136138
0.07412056 0.1310286 0.36884448 -0.14786386 -0.10033775 0.048453756 -0.028165195 0.19182532
-0.005973285 0.019439762 -0.21609443 -0.15851067 0.017057696 -0.11315917 0.13503698 -0.13009168
0.1501106 0.05346862 -0.06410578 0.10156383 -0.16727763 0.17958966 -0.11652786 -0.14878069
0.06932637 0.12035613 0.14349158 -0.042121988 0.19964738 0.02919326 -0.1885984 0.043468088
0.081637755 -0.12878776 -0.30171183 -0.17109564 -0.069324896 0.29508966 -0.28108573 0.050496683
-0.13024399 -0.005308886 0.17766497 0.13706626 -0.022343887 -0.123549856 0.119484864 -0.14068058
0.096790455 -0.09055293 -0.15973625 0.035532814 0.17124528 -0.18735456 0.18668622 0.096835636
0.3969072 0.2134244 0.094577596 0.053737573 0.14002953 0.12067499 -0.32809627 0.12385711
0.020537408 0.0040291147 -0.13490099 -0.18768826 0.06858012 -0.14110775 0.15736492 -0.020196779
0.11053894 -0.07712224 -0.0860403 0.1238562 0.08025823 -0.13876621 -0.17738797 -0.16217288
0.17723937 -0.14803177 -0.024347957 -0.027934462 0.07071185 0.16162485 -0.018918123 -0.091001205
0.088251784 0.12236097 0.2593305 -0.0190749 -0.07334371 0.11985169 -0.028600093 0.20124306
0.039044898 -0.13414666 -0.195658 -0.13470247 -0.06791938 0.14651513 -0.0037495415 0.14906143
-0.004740886 0.1606803 0.10638129 -0.15908676 0.14984593 -0.15442595 0.2518671 -0.20415965
0.10600109 0.055190045 0.14142813 0.097147174 0.21871047 -0.16201133 0.11901487 0.030648667
-0.15367022 0.019385546 -0.058921114 0.0703957 -0.124062024 0.090516396 -0.1624435 -0.21756229
0.21839984 -0.1440137 0.024859875 0.039116822 0.07593175 -0.037461597 0.19226219 0.077084556
-0.07412873 0.0025354312 0.010207873 -0.17703426 0.041091233 -0.0156606 0.0596353 0.22466709
0.02684191 0.16867882 0.01425182 0.013066609 0.16914354 0.08935743 -0.012903756 -0.262445
-0.044288862 -0.09492691 -0.11822927 0.08124713 0.27943206 -0.07879189 -0.013292173 0.0032092913
-0.023080597 0.030420788 -0.003226284 0.12600978 -0.23321316 -0.19456312 0.08210112 0.03035652
-0.15763018 -0.07525796 0.23034029 -0.15628567 -0.22574764 0.1015421 0.13169147 0.17419642
-0.13984421 0.20051803 0.22471671 -0.036281176 0.038364492 0.25979874 -0.011877161 0.27166125

transformer_encoder.layers.1.self_attn.out_proj.bias f4 [20]
00000000: fb5a 773d 2b23 233d edea f7bc 6014 443d
00000010: ea6c 4fbd b6e5 49bd 70d8 b9bc 647f 413d
00000020: 663d 5a3c 7d55 5d3d 1b3d d43b 8879 1abd
00000030: 6f6d 1cbd 6974 4ebd 97b0 3c3d 054e 5bbc
00000040: c9df 35bd d863 e93b 7b97 3bbc d59a d53c
0.0603895 0.03982846 -0.030263389 0.047870994 -0.050640978 -0.049291335 -0.022686213 0.04724063
0.013320303 0.054036606 0.006477011 -0.037713557 -0.0381903 -0.050403986 0.046066847 -0.0133853005
-0.04440287 0.007122498 -0.01144969 0.026074806
