model_epoch_113.pt (torch, 432002 bytes, 28 tensors)

pos_encoder.pe f4 [5000, 1, 20]
000000 00 00 00 00 00 00 80 3f 00 00 00 00 00 00 80 3f
       0.0 1.0 0.0 1.0
000010 00 00 00 00 00 00 80 3f 00 00 00 00 00 00 80 3f
       0.0 1.0 0.0 1.0
000020 00 00 00 00 00 00 80 3f 00 00 00 00 00 00 80 3f
       0.0 1.0 0.0 1.0
000030 00 00 00 00 00 00 80 3f 00 00 00 00 00 00 80 3f
       0.0 1.0 0.0 1.0
000040 00 00 00 00 00 00 80 3f 00 00 00 00 00 00 80 3f
       0.0 1.0 0.0 1.0
000050 a5 6a 57 3f 41 51 0a 3f 3d 7d c6 3e da fa 6b 3f
       0.841471 0.54030234 0.38767424 0.92179644
000060 4e 9d 21 3e a0 ca 7c 3f 65 22 81 3d 97 7d 7f 3f
       0.15782663 0.9874668 0.06305388 0.9980101
000070 8a c0 cd 3c 53 eb 7f 3f 57 d6 23 3c b9 fc 7f 3f
       0.025116224 0.9996845 0.009999833 0.99995
000080 90 73 82 3b 7b ff 7f 3f 28 bc cf 3a eb ff 7f 3f
       0.0039810613 0.9999921 0.0015848922 0.99999875
000090 d4 66 25 3a fd ff 7f 3f f5 b1 83 39 ff ff 7f 3f
       0.0006309573 0.9999998 0.00025118855 0.99999994
0000a0 b7 c7 68 3f 33 11 d5 be 76 f7 36 3f 04 0d 33 3f
       0.9092974 -0.41614684 0.71471345 0.69941735
0000b0 c5 96 9f 3e 18 3f 73 3f 9d e0 00 3e e3 f6 7d 3f
       0.31169716 0.9501815 0.12585683 0.99204844
0000c0 ec af 4d 3d 51 ad 7f 3f 3e d4 a3 3c e5 f2 7f 3f
       0.0502166 0.99873835 0.019998666 0.9998
0000d0 4d 73 02 3c ec fd 7f 3f 17 bc 4f 3b ac ff 7f 3f
       0.00796206 0.9999683 0.0031697804 0.999995
0000e0 d2 66 a5 3a f3 ff 7f 3f f5 b1 03 3a fe ff 7f 3f
       0.0012619144 0.9999992 0.0005023771 0.9999999
0000f0 c3 81 10 3e 26 70 7d bf 48 12 6e 3f e5 3b bc 3e
       0.14112 -0.9899925 0.92996645 0.36764446
000100 ce 5e ea 3e a8 9a 63 3f b9 ac 40 3e 6f 6d 7b 3f
       0.45775455 0.8890786 0.18815888 0.9821386
000110 2d 2f 9a 3d 03 46 7f 3f 1f b9 f5 3c 83 e2 7f 3f
       0.07528529 0.99716204 0.0299955 0.99955004
000120 49 ac 43 3c 53 fb 7f 3f fc cc 9b 3b 42 ff 7f 3f
       0.011942931 0.99992865 0.0047546607 0.9999887
000130 36 1a f8 3a e2 ff 7f 3f ef 8a 45 3a fb ff 7f 3f
       0.001892871 0.9999982 0.00075356563 0.9999997
000140 cf bd 41 bf 30 55 27 bf ab f0 7f 3f ce 32 b1 bc
       -0.7568025 -0.6536436 0.99976605 -0.02163067
000150 72 a3 17 3f b0 41 4e 3f 8a b4 7f 3e d4 e3 77 3f
       0.5923377 0.8056898 0.24971214 0.96832013
000160 7d 6d cd 3d 7a b5 7e 3f db cb 23 3d 94 cb 7f 3f
       0.10030649 0.9949566 0.039989334 0.9992001
000170 3e 72 82 3c b1 f7 7f 3f d3 bb cf 3b af fe 7f 3f
       0.015923616 0.9998732 0.006339529 0.9999799
000180 c9 66 25 3b cb ff 7f 3f f4 b1 83 3a f8 ff 7f 3f
       0.0025238267 0.99999684 0.0010047541 0.9999995
000190 10 7c 75 bf 2c 3c 91 3e 28 c7 69 3f ce a6 d0 be
       -0.9589243 0.2836622 0.91319513 -0.40752262
0001a0 6e 4a 36 3f 2c bd 33 3f eb db 9e 3e aa 5d 73 3f
       0.7120732 0.7021053 0.3102716 0.95064795
0001b0 4f 45 00 3e cd fb 7d 3f f4 b6 4c 3d 19 ae 7f 3f
       0.12526439 0.9921234 0.049979165 0.99875027
0001c0 cf 0d a3 3c 04 f3 7f 3f 44 d5 01 3c f1 fd 7f 3f
       0.019904045 0.9998019 0.007924382 0.9999686
0001d0 74 c0 4e 3b ad ff 7f 3f 6f 9e a4 3a f3 ff 7f 3f
       0.0031547816 0.99999505 0.0012559424 0.9999992
0001e0 8c 0f 8f be b8 cd 75 3f 20 0d 2f 3f fd cb 3a bf
       -0.2794155 0.96017027 0.683794 -0.7296751
0001f0 a7 5f 50 3f 47 b7 14 3f b7 3b bd 3e 8f df 6d 3f
       0.81395954 0.5809216 0.3695962 0.9291925
000200 29 bf 19 3e 1a 19 7d 3f d1 9c 75 3d 12 8a 7f 3f
       0.15014328 0.98866427 0.059964005 0.99820054
000210 b7 a8 c3 3c 4e ed 7f 3f 88 cc 1b 3c 09 fd 7f 3f
       0.02388416 0.99971473 0.009509213 0.99995476
000220 19 1a 78 3b 88 ff 7f 3f eb 8a c5 3a ed ff 7f 3f
       0.0037857352 0.99999285 0.0015071308 0.99999887
000230 46 30 28 3f bd ff 40 3f fd e3 b1 3e 31 0d 70 bf
       0.6569866 0.75390226 0.34744254 -0.9377013
000240 c0 3b 65 3f 26 ee e3 3e b9 da da 3e 1a 6f 67 3f
       0.89544296 0.4451763 0.42744997 0.904039
000250 2d 20 33 3e 86 0d 7c 3f 32 3e 8f 3d 81 5f 7f 3f
       0.17492743 0.98458135 0.06994285 0.997551
000260 d4 42 e4 3c 8e e6 7f 3f b4 c3 35 3c f8 fb 7f 3f
       0.027863897 0.99961174 0.011094023 0.9999385
000270 db b9 90 3b 5c ff 7f 3f 65 77 e6 3a e6 ff 7f 3f
       0.004416687 0.9999902 0.001758319 0.99999845
000280 95 46 7d 3f f6 fd 14 be 31 28 31 bd ac c2 7f bf
       0.98935825 -0.14550003 -0.04325122 -0.9990642
000290 dc 58 74 3f 1d b7 98 3e c2 9a f7 3e db 12 60 3f
       0.9544809 0.29827204 0.48360258 0.8752877
0002a0 42 64 4c 3e 3c d9 7a 3f 50 aa a3 3d 66 2e 7f 3f
       0.1996012 0.97987723 0.07991469 0.99680173
0002b0 02 6e 02 3d c4 de 7f 3f c1 ba 4f 3c bb fa 7f 3f
       0.031843193 0.9994929 0.012678803 0.9999196
0002c0 a7 66 a5 3b 2a ff 7f 3f ef b1 03 3b de ff 7f 3f
       0.0050476375 0.99998724 0.002009507 0.999998
0002d0 32 01 d3 3e d5 3f 69 bf 5c b7 da be 75 77 67 bf
       0.4121185 -0.91113025 -0.42718017 -0.9041665
0002e0 00 56 7d 3f 39 58 13 3e 43 af 09 3f 52 d2 57 3f
       0.9895935 0.14389123 0.53783053 0.843053
0002f0 54 87 65 3e 6e 7c 79 3f 3e 12 b8 3d c2 f6 7e 3f
       0.22414905 0.9745549 0.089878544 0.9959527
000300 12 ba 12 3d f0 d5 7f 3f ad b1 69 3c 55 f9 7f 3f
       0.03582198 0.9993582 0.014263553 0.99989825
000310 6e 13 ba 3b f1 fe 7f 3f 2c 28 14 3b d5 ff 7f 3f
       0.0056785857 0.99998385 0.0022606952 0.99999744
000320 f8 44 0b bf 64 cd 56 bf 23 8a 3e bf 43 f8 2a bf
       -0.5440211 -0.8390715 -0.7442953 -0.6678507
000330 7d f9 7f 3f ba f4 66 bc e0 04 17 3f e6 b5 4e 3f
       0.99990064 -0.014096433 0.58991814 0.80746305
000340 53 85 7e 3e 54 f7 77 3f 76 75 cc 3d 98 b8 7e 3f
       0.24855547 0.9686177 0.099833414 0.9950042
000350 8a 05 23 3d 13 cc 7f 3f 39 d4 81 3c c5 f7 7f 3f
       0.039800204 0.9992077 0.015848266 0.9998744
000360 30 c0 ce 3b b2 fe 7f 3f 67 9e 24 3b cb ff 7f 3f
       0.0063095316 0.9999801 0.002511883 0.99999684
000370 5c ff 7f bf 72 05 91 3b 58 eb 71 bf c9 76 a7 be
       -0.9999902 0.004425698 -0.9449973 -0.32707813
000380 65 32 7c 3f 27 da 2f be 9f c0 23 3f e2 c6 44 3f
       0.98514396 -0.17173062 0.6396579 0.7686597
000390 1c ad 8b 3e 2d 4a 76 3f 72 d3 e0 3d e8 73 7e 3f
       0.2728051 0.96206933 0.1097783 0.9939561
0003a0 59 50 33 3d 2c c1 7f 3f 86 cf 8e 3c 0a f6 7f 3f
       0.043777797 0.9990413 0.01743294 0.999848
0003b0 ed 6c e3 3b 6c fe 7f 3f a2 14 35 3b c0 ff 7f 3f
       0.006940475 0.9999759 0.0027630706 0.9999962
0003c0 d8 5c 09 bf d0 06 58 3f 0b 76 7f bf e1 d0 84 3d
       -0.53657293 0.84385395 -0.99789494 0.06485153
0003d0 f5 18 72 3f 4d 6e a6 be 89 d5 2f 3f 63 0f 3a 3f
       0.9456933 -0.32506028 0.68685204 0.7267973
0003e0 fe 00 98 3e 3e 75 74 3f ac 2b f5 3d b5 28 7e 3f
       0.29688257 0.954914 0.119712204 0.99280864
0003f0 6d 9a 43 3d 3b b5 7f 3f ba ca 9b 3c 26 f4 7f 3f
       0.047754694 0.9988591 0.019017566 0.99981916

transformer_encoder.layers.0.self_attn.in_proj_weight f4 [60, 20]
000000 53 fc 18 be 7c 4d 73 be b3 b0 5c 3e e0 18 76 3d
       -0.14940004 -0.23760027 0.2155178 0.060082316
000010 bb 54 3f 3e b1 b3 a7 3d 1a 63 3b be a5 6b fd 3d
       0.18684666 0.0818857 -0.18299523 0.12374047
000020 59 cd 2a 3c dc 8a 35 3d 61 99 4e be 90 c6 74 3e
       0.010424935 0.04432188 -0.20175697 0.2390387
000030 85 a0 8a be 4c 21 3c 3e a0 68 86 3e 46 45 86 3e
       -0.27075592 0.18372077 0.26251698 0.26224726
000040 e0 fa 9a 3d eb f8 e1 bd 49 bc 2d bc 87 53 51 bc
       0.07567382 -0.110338055 -0.010603973 -0.012776262
000050 1d 8c 79 3e e4 a2 83 bd 0e f6 85 be 2e c9 cf 3d
       0.24369855 -0.06427553 -0.26164287 0.10145794
000060 a2 5e 6e 3d 99 67 d9 3d 8b 42 27 3e 54 ac af bd
       0.058195718 0.10615463 0.16333978 -0.08577791
000070 31 53 6e 3e 05 d2 2e bd 44 0e c8 39 f9 bf c1 bd
       0.23273923 -0.04268076 0.000381576 -0.09460444
000080 b6 8d ce 3d 5c 84 d5 bd 4e ac 6a 3e d7 a7 23 3e
       0.10085623 -0.10425636 0.22917292 0.15981995
000090 13 f6 86 3e d4 2a af 3c 90 a0 15 3d 5c 7b f9 bd
       0.26359615 0.021382727 0.036530077 -0.12181732
0000a0 87 e0 15 3e d5 dd 11 be 2e ad 7b 3c 32 5b 8e bd
       0.14636432 -0.14244778 0.0153611135 -0.06950988
0000b0 5b 68 79 3e e5 29 4e be 36 e8 30 3e e5 56 6b be
       0.24356215 -0.20133169 0.17276081 -0.22982366
0000c0 81 eb b3 bb d9 21 ac bd 70 6a 6e bd ec ba 35 bd
       -0.0054907207 -0.084048934 -0.058206975 -0.044367716
0000d0 60 89 44 3d 11 2b 1b be 89 9e d9 3d 26 83 36 be
       0.047982574 -0.15153147 0.10625941 -0.17823467
0000e0 a7 ad 82 bd 71 9e 91 be be 81 b3 bd e0 71 f2 bc
       -0.06380778 -0.28441194 -0.08764981 -0.029595315
0000f0 11 f9 d5 3d 73 a9 84 bc c7 bf 10 be e0 3c b2 3d
       0.10447896 -0.016194081 -0.14135657 0.08703017
000100 81 cd 5a 3e d0 7e 1e 3e 1b b1 e1 bd aa 13 d7 3d
       0.21367456 0.15478063 -0.11020108 0.105017975
000110 df e2 f9 3c 06 9d 32 bc 3c b2 7a 3d 37 a6 fe 3d
       0.030503688 -0.010901695 0.061205134 0.12434047
000120 c1 f1 76 be 7d a6 06 be 4d 81 f0 3c 38 d3 42 3e
       -0.2411566 -0.13149448 0.02935853 0.19025886
000130 41 4b 3b be 8a f5 fd bd 6a 75 85 bc 3f ac 04 3e
       -0.18290426 -0.124003485 -0.016291339 0.12956332
000140 e7 31 74 be 53 e3 de 3d 84 9f 36 be 35 04 82 3e
       -0.23847161 0.108832024 -0.17834288 0.25393835
000150 d5 0c 96 bd 58 4c 9b bd a1 b3 34 bc 15 73 a3 bc
       -0.07326666 -0.07582921 -0.011029155 -0.019952336
000160 ce d4 6f 3e fc 29 07 3e 54 02 6a be a1 e5 0a 3e
       0.23421022 0.1319961 -0.2285245 0.13564159
000170 20 a8 27 3e cd cc e1 bd b1 73 4c be 45 9b b5 bd
       0.16372728 -0.11025391 -0.19966008 -0.08867506
000180 4f 7e 61 bd 97 02 22 3d 92 3d a4 3c 3e e0 81 3e
       -0.055052098 0.03955325 0.02004889 0.25366396
000190 e5 4c 8c bd c1 8c 53 bd 78 a4 57 3e 69 17 65 be
       -0.06850604 -0.051647905 0.21058834 -0.22372212
0001a0 aa 5e 10 3d b6 ed 12 3d 99 85 78 3d 25 e0 38 3e
       0.03524653 0.03587123 0.060674284 0.18054254
0001b0 06 ed 44 be c5 ae f8 bd 72 e6 83 3d cc 1c 59 3e
       -0.19231042 -0.1214271 0.06440438 0.21202391
0001c0 ff 58 32 bd 8d f1 a5 bd 83 7a 6e be 67 5f 32 3e
       -0.043541905 -0.08102713 -0.23288922 0.17419206
0001d0 1e 3d 18 be d8 5d 27 be 3d d1 e9 bd 2d 8b 84 bc
       -0.14867064 -0.16344392 -0.11416862 -0.016179645
0001e0 82 13 da bd d5 15 c7 3d 64 5a 7b 3e 1b 47 93 3c
       -0.10648252 0.09720961 0.245462 0.017978242
0001f0 34 42 3e be 1e 76 0d be dd c5 18 bd d6 69 0d be
       -0.18579942 -0.1381459 -0.037298072 -0.13809904
000200 3a 84 62 bd 8e 0b 07 3e a3 3b a8 bd 03 be f7 3d
       -0.055301882 0.13188002 -0.082145 0.12096789
000210 77 15 0c bd f7 10 1b 3e 41 07 fe bd a5 4f 77 3e
       -0.034200158 0.1514319 -0.12403727 0.24151476
000220 1f fc 61 3e 5d 06 0b be 53 f2 2c 3b f2 3f e3 bd
       0.22068833 -0.13576646 0.0026389554 -0.11096181
000230 fa 67 6c 3e 04 17 15 bf e0 b7 5f 3d a6 3f 59 3c
       0.23086539 -0.58238244 0.054618716 0.013259804
000240 75 81 95 3e b1 84 d2 bc 25 b4 48 be 74 7f 64 bd
       0.2920033 -0.025698038 -0.1959997 -0.05578561
000250 52 56 dd bd 8c 46 88 bd 63 c1 6d 3d 95 69 35 be
       -0.1080748 -0.06654081 0.058045756 -0.17716058
000260 83 3d 26 3e 00 35 ed bc e8 08 5a be 8e 93 0e be
       0.16234402 -0.028955936 -0.2129246 -0.13923475
000270 de d8 df 3d 76 08 68 3b c3 7d 04 bd 6a 2f d6 bd
       0.10930036 0.0035405434 -0.0323465 -0.10458262
000280 d9 73 f1 3d 9c 91 eb 3d b5 8f 0e bb 44 fe 4c 3e
       0.11789674 0.11502382 -0.0021753137 0.2001887
000290 c4 c2 eb 3d 7a 22 aa bd c3 5a 8f be 5a af 44 3e
       0.11511758 -0.08307357 -0.27998933 0.19207516
0002a0 13 ff ad 3a c9 4e 00 3e 18 44 f0 bc 8b a5 88 3d
       0.001327487 0.12530054 -0.029329345 0.066722
0002b0 93 5d 64 3e 58 b9 91 bd eb b9 16 3e 0a cb 43 3e
       0.2230132 -0.0711543 0.1471936 0.19120422
0002c0 c1 6c 1d 3e 40 20 6e be 4f ef 80 3e 8e 2c 1c 3e
       0.15373518 -0.2325449 0.25182578 0.15251371
0002d0 26 b3 92 bd 31 77 4b be d6 bc 7c 3d 1f 8d d2 3d
       -0.07163076 -0.19869687 0.061703525 0.10280823
0002e0 9b c6 3b 3e 39 18 26 be 52 d3 a9 bd 73 ea 0b 3e
       0.1833748 -0.16220178 -0.08292259 0.13663654
0002f0 7f 02 2a be 6a 03 d7 bd e6 cf 53 be 54 3e 00 be
       -0.16602515 -0.10498698 -0.20684776 -0.12523776
000300 15 82 26 3e b1 82 96 bd 09 0d b6 bc 1a b5 4b bc
       0.1626056 -0.07349146 -0.022223013 -0.012433315
000310 cf 3a 56 be 1c f2 2f bd 73 ed 85 bd 14 05 4d 3c
       -0.20920871 -0.042955503 -0.065394305 0.012513418
000320 c6 b6 2d be 0f 5e 86 be 85 cf 3b 3d 9b a7 4a be
       -0.16964254 -0.26243636 0.045852203 -0.19790499
000330 43 7c 08 bc 5b 0f 12 3e b0 df ae 3c a3 ba 4a be
       -0.008330408 0.1426367 0.021346897 -0.19797759
000340 8b e2 5c 3e d9 bc 14 3e ba a2 fb 3d e5 a4 0e 3d
       0.21570794 0.14525165 0.12286897 0.034825224
000350 fd dd 08 bd 8d 32 6f 3c 79 5f 46 bd 23 c0 bd 3c
       -0.03341483 0.014599455 -0.048430894 0.023162907
000360 82 c2 6a 3d 95 cc 6d 3e d3 79 f1 3d d8 9a 07 3e
       0.057314403 0.23222573 0.11790814 0.13242662
000370 d5 f8 b0 3c 17 32 98 be e2 ad 49 be e4 bd 6c be
       0.021603027 -0.29725716 -0.19695237 -0.23119313
000380 d2 0a 41 3e 14 10 cb bd c2 17 1c be 45 f1 47 3d
       0.18851784 -0.09915176 -0.15243438 0.048814077
000390 32 21 e2 3c 88 2f 1b 3e 42 59 ce bd 89 b6 47 3d
       0.02760372 0.1515485 -0.10075618 0.048758063
0003a0 a3 83 4d be 09 4a 94 bd e3 5b 34 be 9b 39 ff 3d
       -0.20069747 -0.072406836 -0.17613177 0.12462159
0003b0 17 f8 d3 3d 91 f1 b8 bc 7b c8 8f 3c 74 1c 8b be
       0.10350054 -0.022576125 0.017551651 -0.27170146
0003c0 5e c8 9a 3e cf e3 05 3e a7 74 62 3e ba 0c 6c be
       0.30230993 0.13075183 0.22114812 -0.2305173
0003d0 f4 53 42 be e9 cb 14 be 61 0a 70 be eb 2b bb 3d
       -0.18977338 -0.1453091 -0.23441459 0.09139236
0003e0 2e d1 a7 bd b7 c1 29 be 9c 54 f6 3d 64 37 44 bc
       -0.08194195 -0.16577803 0.12027857 -0.011976097
0003f0 17 0b 8c 3e 1f 13 51 3e c1 b5 86 3e 53 91 50 bd
       0.2735221 0.2041745 0.26310542 -0.050919842

transformer_encoder.layers.0.self_attn.in_proj_bias f4 [60]
000000 e7 79 8f bc 52 0d 5e 3b 8a b2 9b bb a2 7b a5 3a
       -0.017514182 0.0033882451 -0.004751508 0.0012625346
000010 e1 30 1a bc 21 47 8f 3c 45 a5 22 3d 91 c3 2d 3d
       -0.009411068 0.017489972 0.039708395 0.042422835
000020 ff ab 0a 3d 60 c3 16 bc 9d 1f b5 3c 4d 66 60 bc
       0.033855435 -0.0092018545 0.022109801 -0.013696265
000030 cf 41 9f bc 75 79 c9 bc 15 85 9a 3c ab 0c 25 3c
       -0.01944056 -0.024594048 0.018862287 0.010073821
000040 f4 2b 27 bc 14 75 2b bd c9 37 c6 3b f6 bb 50 3d
       -0.01020335 -0.0418597 0.0060491306 0.050960504
000050 44 27 3c b1 a4 b4 79 30 84 c7 f4 2c 56 48 1d b1
       -2.737992e-09 9.084238e-10 6.957048e-12 -2.2887625e-09
000060 fe 2a 03 31 68 9f 8f 32 33 b0 c5 31 cc 7d 85 31
       1.9087447e-09 1.671988e-08 5.753486e-09 3.885111e-09
000070 67 c1 0c 32 cb 03 9e 31 f8 2e 11 2f be d8 d6 2f
       8.193047e-09 4.5988364e-09 1.320436e-10 3.9080378e-10
000080 91 d8 93 2f ed 27 65 b0 77 7f 83 b1 97 e1 74 31
       2.6893024e-10 -8.336645e-10 -3.827093e-09 3.5634906e-09
000090 a2 b0 c5 b1 cf ae 7d 31 b7 b4 47 31 8d 37 32 31
       -5.7535354e-09 3.6915713e-09 2.9061036e-09 2.5933986e-09
0000a0 1b 54 44 bd b5 7f 52 3d 96 89 cb bc fd 16 84 bc
       -0.04793177 0.051391322 -0.02484588 -0.016124243
0000b0 69 46 6d 3d 0f ec af 3d fb b2 f8 3b 3f 00 84 3d
       0.057928476 0.085899465 0.0075896955 0.064453594
0000c0 b1 ff 62 3d ba 87 11 3c ea da 8f bc e2 67 60 3c
       0.055419628 0.008882457 -0.017560441 0.013696643
0000d0 79 76 89 bd ad 0f 93 3d 16 d6 91 3c 6d 38 90 3d
       -0.0671205 0.07180724 0.01780228 0.07042012
0000e0 b9 52 2e 3d 0b 44 2d 3d 3a 59 38 3c da 3b 73 bc
       0.04255936 0.04230122 0.011251742 -0.014845813

transformer_encoder.layers.0.self_attn.out_proj.weight f4 [20, 20]
000000 61 0d 06 3e ce d9 ec bd 27 cf bb bd fd 11 22 3e
       0.13091041 -0.115649804 -0.091703705 0.15827174
000010 2e 62 8a 3e 1b ba 86 3d 6e ec e3 3e 67 db fe 3d
       0.2702803 0.065784656 0.4451632 0.124441914
000020 38 da 7b bd d7 b9 9c 3d ce 30 3f be 81 63 54 3d
       -0.061487406 0.07652634 -0.18670961 0.051852707
000030 a7 d4 25 bc 89 16 b2 bc f4 1e a6 3d 15 f3 be be
       -0.010121501 -0.021739261 0.081113726 -0.37294832
000040 8b 4c 0a 3e e7 ad bf 3d ba 95 bf 3e 17 ce cd 3d
       0.13505761 0.09359341 0.3741892 0.10049074
000050 04 04 18 3e 9d 3b a9 bd 96 4b 93 3d 50 6b 6d bd
       0.14845282 -0.082633235 0.07192151 -0.05796367
000060 e6 1f bd 3d eb 32 79 bd 79 53 8f be b2 35 32 be
       0.092346 -0.060839575 -0.27993372 -0.17403296
000070 a1 0d 1b be f7 c0 98 bd b3 9e 29 bd ac 61 8b 3d
       -0.15141918 -0.0745868 -0.041411113 0.06805739
000080 e7 90 02 3e 50 b0 4d be e3 6f cc bd 13 8b 92 3d
       0.12750588 -0.20086789 -0.09982278 0.071554326
000090 d8 16 a1 bd a2 e6 5c 3d 21 47 25 3d c9 cc c3 bd
       -0.07865685 0.053930886 0.040351037 -0.09560544
0000a0 e8 72 1f be cc e8 0e bd 97 62 bd bd 55 ea 17 be
       -0.15571177 -0.03488998 -0.0924732 -0.14835484
0000b0 e5 bd 2f 3e 92 26 21 be 44 ba 45 be c0 24 95 3c
       0.17162283 -0.1573737 -0.19309336 0.018206
0000c0 8e 52 5f be af ec 1f bd b6 38 0a be 79 b1 1b be
       -0.21808836 -0.03904408 -0.13498196 -0.15204419
0000d0 64 da 81 3c 72 fd a2 3d 7b 3d fa 3c 14 01 3a be
       0.015851207 0.07958497 0.030546894 -0.18164474
0000e0 48 16 16 3e e8 39 e2 bd 12 fb cd 3d 69 88 68 be
       0.14656937 -0.11046201 0.100576535 -0.22708286
0000f0 82 78 5d 3d b8 7d 33 bd 77 36 83 3c 34 32 0f 3c
       0.054070003 -0.043821067 0.016017182 0.008739997
000100 50 85 4d 3e 10 fe 86 be 84 56 eb 3d 05 08 9e bc
       0.20070386 -0.2636571 0.11491111 -0.019290933
000110 03 db 04 3e d6 9f 97 3d eb 45 4f 3b fa 74 ea bd
       0.12974171 0.07403533 0.0031627368 -0.11448093
000120 25 d5 fb 3d 14 79 7a 3d 6e e8 a3 3e fe d0 18 be
       0.122965135 0.061150625 0.32013267 -0.14923474
000130 cb 97 c9 bd 22 14 b2 3d 84 94 3e b8 52 3b 8d 3e
       -0.09843405 0.08695246 -4.5437846e-05 0.2758432
000140 48 e2 38 bd 5b 73 d7 3d 30 b8 60 be 20 16 45 be
       -0.045137674 0.10520049 -0.21945262 -0.19246721
000150 02 97 00 bd bc 4e de 3a a8 78 49 3e 33 af 20 bd
       -0.031394012 0.001696072 0.19674933 -0.039229583
000160 48 3d 33 3e a7 cb 4a 3d 41 b3 8f bc 3e 14 56 3d
       0.17503846 0.049510624 -0.01754153 0.0522654
000170 29 f6 55 be fa 61 5e 3e ed 2e bd bd 0d c9 1f be
       -0.20894684 0.21717063 -0.09237466 -0.15604039
000180 5c 54 78 3d e4 f8 4a 3d 74 2a d7 3d d9 95 04 be
       0.060627326 0.049553767 0.10506144 -0.12947787
000190 c3 fd 85 3e 2d 20 a7 3d 5f d0 52 be 96 32 8a bc
       0.26170167 0.08160434 -0.205873 -0.016869824
0001a0 7b 85 a7 bd e6 e7 ad bd 92 9d ba be e7 b8 30 be
       -0.08179756 -0.08491497 -0.36448342 -0.17258035
0001b0 2b 60 e8 bc 17 14 67 3e 52 6c 60 be 60 b2 27 bc
       -0.028366169 0.22566257 -0.21916321 -0.010235399
0001c0 f8 1a c4 3b 10 5b 84 3c 03 85 4f 3d fc 4c 2f 3e
       0.0059846602 0.016156703 0.05066396 0.17119211
0001d0 0e e1 33 bd b7 62 39 bd 35 f8 2d 3e 1f c0 24 be
       -0.0439158 -0.045260157 0.16989215 -0.16088913
0001e0 7d 9e 7d 3d ec b7 d2 bd 5c 6f fb bd f5 9b ba 3d
       0.061918724 -0.102889866 -0.122770995 0.09111778
0001f0 99 40 57 3e af 35 58 be a6 9f 36 3e 6c 6a 5f 3d
       0.21020736 -0.21114229 0.17834339 0.05454485
000200 ce e4 65 3e 6c f6 18 3e 05 3e 9f 3d 00 28 24 3d
       0.22450563 0.14937752 0.07775501 0.04007721
000210 05 aa 4f 3e ad 6d 09 be 42 dd 28 be c0 e2 3f 3e
       0.20279701 -0.13420744 -0.16490653 0.18738842
000220 79 24 af 3c 8e b4 8b 3d 71 a2 19 be 7f 7a cb bd
       0.021379696 0.068215474 -0.15003373 -0.09935474
000230 b5 4f a8 3d 92 91 06 be 4e 46 13 3e ef 0f 96 bd
       0.08218328 -0.13141468 0.14382288 -0.07327258
000240 5d 25 e9 3d 7f 4a 7b bd 44 ec b0 bd 3a 84 e3 3d
       0.113840796 -0.061350342 -0.08638814 0.111092046
000250 45 3b fc 3d 24 29 df bd 59 04 2d be e7 5f 3b be
       0.12315992 -0.10896519 -0.1689619 -0.18298303
000260 0b ed 06 3e cb 75 69 bd f8 ef 9b bd be 9d 8f bd
       0.13176362 -0.0569971 -0.0761413 -0.07012509
000270 fa ae a7 3d e6 d1 16 3e 69 c2 2b bd d4 59 9d bd
       0.08187671 0.14728507 -0.04193345 -0.07683149
000280 14 26 c7 3c ff e7 48 3e 48 d3 45 3e d0 c6 66 3c
       0.02431015 0.1961975 0.19318879 0.0140854865
000290 db ae bf bd 0b 1d 62 3d c4 b3 5d bd 2c a2 62 3e
       -0.09359523 0.05520348 -0.054126516 0.22132176
0002a0 da f5 1a 3b c4 c2 0c bd e0 d5 34 be 3a 4b dc bd
       0.0023645074 -0.03436543 -0.17659712 -0.10756536
0002b0 11 68 93 bd 39 cb 16 3e 75 d7 14 3d 3b 14 48 3e
       -0.071975835 0.14725961 0.03633829 0.19538967
0002c0 18 1c ab bc 52 f0 94 3d 03 0d df 3d 08 14 8c be
       -0.02088742 0.072724 0.10891154 -0.27359033
0002d0 38 07 21 3e 05 d2 27 be da 5a 64 3e 37 31 ff bd
       0.1572541 -0.1638871 0.22300282 -0.12460559
0002e0 03 e5 71 3e 70 f3 e2 bd db e6 75 3d 8b 95 68 3d
       0.23622517 -0.11081588 0.060034614 0.05678324
0002f0 fa 69 70 3e 9b 93 16 be 2a 2e f4 39 65 fc 8b 3d
       0.23477927 -0.14704745 0.00046573702 0.0683525
000300 cd 27 33 be 3c 1f d5 bd b5 88 d0 bc e9 3f 3a 3e
       -0.17495652 -0.10406348 -0.025455812 0.18188442
000310 4b 95 1a be e5 3a 06 3e 8c 67 4f be 94 4b 1f be
       -0.15096013 0.13108404 -0.20254344 -0.15556175
000320 63 14 73 3e 09 28 36 be 10 b9 e2 3d 01 84 4f bd
       0.23738246 -0.1778871 0.11070454 -0.050662998
000330 e6 5a d9 3d 1e 95 58 bb 7a a0 32 3e fc 99 0b 3d
       0.106130406 -0.0033047865 0.1744403 0.034082398
000340 04 f5 2a be ce cf bb bc bd 7d a8 3a 47 c0 b9 bd
       -0.16695029 -0.022926237 0.0012854856 -0.09069877
000350 8c af 33 3c 79 78 32 3d e9 d1 cf bb b3 01 4e 3e
       0.010967147 0.043571923 -0.006342162 0.20117836
000360 07 53 02 3c 09 b9 42 3e 0f 8f a8 bc cd 15 b3 3d
       0.007954366 0.19015898 -0.020576028 0.087443925
000370 0f d8 1c 3e c2 65 b4 3d e7 29 d8 bb 7c 4e 43 be
       0.15316795 0.08808471 -0.006596792 -0.19072908
000380 cf f4 82 3d a6 47 79 be cd 36 8b be 2c f9 5f 3d
       0.0639435 -0.24343738 -0.27190247 0.05468099
000390 43 7b 6a 3e 11 6a c3 bc e4 ba 14 bd 25 06 77 bb
       0.22898583 -0.023854287 -0.036311045 -0.0037692871
0003a0 66 39 d5 bd 56 fe b5 3c 31 1b 1b bd 5f 45 51 3e
       -0.104113385 0.022216003 -0.03786773 0.20436619
0003b0 aa 7c a5 be b8 25 30 be 7b 58 1e 3c dc c5 be 3c
       -0.32321674 -0.17201889 0.00966465 0.023287706
0003c0 e5 9d 2b be a0 9c cb bd 7d 30 9e 3e be a9 2f be
       -0.1675945 -0.09941983 0.3089637 -0.17154595
0003d0 55 0e d2 bd 6c 75 17 3d e5 ca 84 3d 87 08 d1 3d
       -0.1025664 0.036977217 0.064840116 0.102067046
0003e0 ca cc 91 be ad af 26 3e 25 27 11 3e b0 cd 08 bd
       -0.28476554 0.16277952 0.14175089 -0.033399284
0003f0 17 28 07 bd c0 18 59 3e 68 cd ec bb d9 4c 81 3e
       -0.032997217 0.21200848 -0.007226635 0.25253943

transformer_encoder.layers.0.self_attn.out_proj.bias f4 [20]
000000 b4 f3 a1 bc 78 11 45 3d 7c c2 0a 3d 07 bd 19 3d
       -0.019769527 0.048112363 0.03387688 0.037533786
000010 d1 55 ab 3c 3e fb c8 3c 0d 81 a2 bc 7c 0b e5 3c
       0.020914944 0.024533864 -0.019836927 0.027959578
000020 15 21 72 bc aa c8 8e bc 8c 67 7d 3b 56 4f 33 bd
       -0.014778395 -0.017429668 0.0038666455 -0.043776833
000030 a5 ca 18 3d 78 91 af bd 19 dc 15 3d 99 62 b3 bc
       0.037302632 -0.08572668 0.036586855 -0.021897601
000040 41 2f e1 ba b7 dc 1b bd bb 24 67 3c 5f a9 b2 bc
       -0.001718022 -0.038052287 0.014107878 -0.021809278

transformer_encoder.layers.0.linear1.weight f4 [20, 20]
000000 bc c1 c1 bd 48 c6 12 3e 0e 4a 71 3d 33 fd 46 3e
       -0.0946078 0.14333451 0.058908515 0.19432525
000010 88 fd b5 bd d2 3b b8 bc 4e 68 22 be d6 40 3d 3e
       -0.08886248 -0.022489462 -0.15860102 0.18481764
000020 41 bc 0e bd d0 9e 0d bb 0b 16 f1 bd 0b 48 2d 3d
       -0.0348475 -0.0021609552 -0.117717825 0.042305034
000030 b7 0b 8d 3d e3 43 3e 3d 71 f4 ef 3c 31 f4 b2 3d
       0.06887 0.04645146 0.029291363 0.08737982
000040 c4 54 48 3e 5f 4c 18 be 32 60 68 bd 02 c7 e9 bd
       0.19563586 -0.14872883 -0.056732364 -0.11414911
000050 7a 14 83 be 57 12 42 3e 01 3f 63 be 3b 0d 3d 3d
       -0.2560156 0.18952309 -0.22192003 0.046155196
000060 98 e0 72 3d 4d 0c ca bc b2 73 05 3d 62 d0 34 be
       0.05929622 -0.024664069 0.03258104 -0.17657617
000070 0b 1a 2b 3e 1c ba 06 bd f2 fd 14 bd 43 b8 c3 3d
       0.16709153 -0.03289233 -0.036374994 0.095566295
000080 d3 a5 6d bd ad df 13 be b0 a1 1c 3e 11 cb 47 3e
       -0.05801947 -0.14440794 0.15296054 0.19511057
000090 df 21 0d 3e 5e ce 5c bd b2 43 f6 bd 47 71 97 3d
       0.13782452 -0.053907745 -0.120246306 0.07394653
0000a0 0c 35 2f 3e 54 9b 58 3e 8b 4e 72 3e e7 f1 46 3e
       0.1711008 0.21153003 0.23662774 0.19428216
0000b0 04 ec 62 ba f8 f9 3c 3e bf 3d 61 3e ee 6c 6e bd
       -0.0008656385 0.1845473 0.2199621 -0.058209352
0000c0 95 9f a3 bd 88 cd 37 3d 69 18 9d be 34 1c 26 3c
       -0.07989422 0.044873744 -0.30682686 0.01013856
0000d0 44 bd d8 3b f1 18 cd 3d 5a 71 3a be 8d bf 4a bd
       0.006614359 0.10014523 -0.18207303 -0.049499083
0000e0 dd 60 b4 bd 1a ca 4f 3e 4e c9 2f 3d 4d 04 bc bc
       -0.08807538 0.2029194 0.04291659 -0.02295127
0000f0 1a fe 84 bd f2 20 1d be a3 fe 60 3d 8a 50 80 3e
       -0.064937785 -0.15344599 0.05493034 0.25061446
000100 e8 91 1d bd 6b 28 95 bc ca e5 90 bd aa 70 11 3e
       -0.038469225 -0.01820775 -0.07075079 0.14203134
000110 b3 00 23 be 1b d1 95 bd c0 ca 0a 3e c2 6f 30 be
       -0.15918235 -0.07315274 0.13553905 -0.17230132
000120 3d 1b 1a 3e 3c 64 31 3d 3b ed 71 bd 05 c6 e1 3d
       0.15049453 0.04330848 -0.05906413 0.11024097
000130 34 97 d3 bd 37 85 46 be de d5 00 3d 83 ec 3b 3e
       -0.10331574 -0.19386755 0.03145396 0.18351941
000140 dd 61 9e 3d 2b cd 55 be 0b 7e b7 bd ea 6d a5 be
       0.0773351 -0.20879047 -0.08959588 -0.3231042
000150 aa db 04 3e 7d dd b7 3e 80 e1 52 3c c6 f6 4a be
       0.1297442 0.3591117 0.012871146 -0.19820699
000160 f5 c9 11 3c 72 58 07 be df c0 fe 3c 01 83 cf bd
       0.008898248 -0.13217333 0.031097827 -0.10132409
000170 f7 7a fa bd cd 98 11 3e 70 33 96 3d de bc 74 be
       -0.12230485 0.14218445 0.0733403 -0.23900172
000180 78 df 34 be 2d 96 0e 3d 7e 24 b6 3d ac d9 87 bd
       -0.17663372 0.034811188 0.08893679 -0.066333145
000190 a9 03 d1 bc c7 3e f0 be 09 b5 8e bb 56 c7 9f bd
       -0.02551444 -0.46922895 -0.004355077 -0.07801692
0001a0 d9 fe d5 3d 9b c7 9e be e9 ab d2 3c 59 c9 a8 bd
       0.10448999 -0.31011662 0.025716739 -0.08241529
0001b0 58 9c e3 bd 64 19 48 bd e8 63 02 bd 35 2d 32 bd
       -0.111138046 -0.04885234 -0.03183356 -0.043500144
0001c0 4b a2 de ba d6 c5 27 3c 59 8d 3e 3e 6f 22 a6 3e
       -0.0016985623 0.010240039 0.18608607 0.32448146
0001d0 0f 4d 7b bd 69 f7 9d 3d 01 bb 6d 3e 68 cc ff 3d
       -0.061352786 0.07713205 0.23215868 0.12490159
0001e0 23 a2 a1 bc d2 aa f7 3d d2 99 d6 bd 7e 67 51 be
       -0.019730633 0.12093128 -0.10478558 -0.20449635
0001f0 0b 74 17 3e 12 2c b7 3e 4a de c3 bd 16 52 6a be
       0.1479036 0.3577581 -0.09563883 -0.22882876
000200 97 b6 84 bd bc 4f 15 3e 2e cb 14 be c9 f1 72 be
       -0.06480139 0.14581198 -0.14530632 -0.23725046
000210 37 81 58 be 38 a8 04 be b6 74 68 3d a0 f4 6f bd
       -0.21143042 -0.12954795 0.05675193 -0.058582902
000220 e6 6d 0c bd ae 98 80 3d 24 6e c5 3c f8 40 75 be
       -0.034284495 0.06279121 0.02410037 -0.23950565
000230 7f c0 5a 3e dc 99 2a 3e 18 9c 85 bd fd 4b d0 bc
       0.21362494 0.16660255 -0.06523913 -0.025426859
000240 f9 be ba bd c8 e2 62 3e 28 5c 6d be 91 e2 ab 3d
       -0.091184564 0.22156823 -0.23179686 0.083928235
000250 90 67 8a bd d7 80 63 be 1e 14 36 be 69 bb 37 be
       -0.06758034 -0.22217117 -0.17781112 -0.17942585
000260 5c 7d e3 3d 40 c9 6c be 13 21 06 3e ca e0 35 be
       0.11107895 -0.23123646 0.13098554 -0.17761531
000270 55 c2 03 3d ce 09 79 be 5b af 2d be 49 40 c0 bd
       0.03216775 -0.24320146 -0.16961424 -0.093872614
000280 ff 0b 1d be df 1b 43 3e a2 2f 3e 3e c5 7b 02 be
       -0.15336607 0.190536 0.18572858 -0.12742527
000290 e9 51 95 3d a4 13 17 3a f2 7b 93 3d 4e 06 8b 3e
       0.07291014 0.00057631196 0.07201375 0.27153248
0002a0 f8 02 05 be 4d b2 ff bd 12 d8 10 3e fa 8e 7e 3e
       -0.12989414 -0.1248518 0.14144924 0.24859229
0002b0 8d e2 87 bd a7 b4 dd 3d 0f 57 62 bd 2e e1 6c be
       -0.06635008 0.10825472 -0.055258807 -0.23132774
0002c0 ee 15 11 3e 47 ce 92 bd e7 4e d1 3d f3 20 f3 3d
       0.14168522 -0.071682505 0.102201276 0.11871519
0002d0 e3 9d 60 3c a7 84 8c be f8 c6 84 bc d8 82 77 3e
       0.013709518 -0.27444956 -0.016208157 0.24171007
0002e0 52 48 77 3e 03 62 9a 3d b6 e3 ae bd a7 69 f8 3d
       0.24148682 0.075382255 -0.08539526 0.121295266
0002f0 ff 37 2d 3d 0f 97 8e bd 3e b6 ff 3d 1a be 15 3e
       0.04228973 -0.06962406 0.12485932 0.14623299
000300 8b d1 13 3e b9 57 21 be 06 09 c7 bd 6f 72 2f bc
       0.14435403 -0.1575612 -0.09718518 -0.010708435
000310 0c 97 17 be 99 ba 33 3e 0c 6d aa bd c1 12 db bc
       -0.14803714 0.1755165 -0.0832158 -0.026742341
000320 f9 e9 49 bb cb df 35 3e 7c 18 81 bd 65 a3 47 3e
       -0.0030809625 0.17761151 -0.06303498 0.19495924
000330 b5 b8 46 3e 33 23 22 bd 38 c5 04 bc 2d 95 b4 bc
       0.19406398 -0.03958435 -0.008103661 -0.022043789
000340 5a 29 6d 3e 86 de 35 be aa 44 39 be 5e eb 3e be
       0.23160306 -0.17760667 -0.180926 -0.18644473
000350 b8 cb c2 3d 8f 06 c9 3d 16 65 c1 bc 88 90 02 3e
       0.095115125 0.09815704 -0.023607772 0.12750447
000360 d3 8d 07 be 97 80 42 be cc 74 97 3d 37 aa 2a be
       -0.13237695 -0.18994366 0.07395324 -0.16666494
000370 72 2c a4 3d 1a b9 84 be 6e 2f 70 3d 74 e4 3d be
       0.0801629 -0.2592247 0.058638982 -0.18544179
000380 28 b2 7d bc 3a 12 73 be 96 27 ff 3d 27 34 18 be
       -0.01548437 -0.23737422 0.12458722 -0.14863645
000390 b8 7a d4 bd 45 3c e4 3d ee 20 bf bc 71 78 38 bd
       -0.10374969 0.11144308 -0.023331132 -0.045036737
0003a0 94 13 3b be b4 24 e2 3b 46 97 2d 3e 9b 8d 23 3e
       -0.18269187 0.006901348 0.16952237 0.15971987
0003b0 31 4f 33 be d1 56 2f be 0e 93 06 3e 0d 8a cd 3d
       -0.17510678 -0.17122962 0.13142034 0.10036097
0003c0 57 8b 5b 3d 22 43 4c 3e ac 69 bc bc 25 dc 34 3e
       0.05359968 0.19947484 -0.022999607 0.17662103
0003d0 ba 2a 7c 3d eb fc 07 bd f9 0c 31 3e c6 e5 45 3e
       0.061564185 -0.033200186 0.17290105 0.19325933
0003e0 a6 b0 1b 3e 5d 61 d2 3d d6 5d 6f 3c b3 8c 2f be
       0.15204105 0.10272477 0.014609775 -0.17143516
0003f0 41 29 2b be fc 72 bf 3d 20 c3 d2 bd f9 f3 e7 bd
       -0.16714956 0.093481034 -0.102911234 -0.11325831

transformer_encoder.layers.0.linear1.bias f4 [20]
000000 85 28 a7 bd aa 89 d3 3d 98 15 3a be ea c8 7d bd
       -0.08162025 0.10328992 -0.181723 -0.061959185
000010 e8 a1 2a 3e b0 ae dc 3a b2 4d 67 be ea fb 6d be
       0.16663325 0.0016836729 -0.22588232 -0.23240629
000020 19 69 cf 3c 95 73 9c 3d 33 bb e1 3d 14 78 94 bc
       0.02531867 0.07639233 0.110220335 -0.018123664
000030 3b 27 60 3d 46 68 47 bd e6 60 f2 bd 54 f3 bd bd
       0.054724913 -0.048683427 -0.11834888 -0.09274927
000040 3c 10 42 be a7 94 1f be fe fc 12 be a9 61 57 be
       -0.18951505 -0.1558405 -0.14354321 -0.21033348

transformer_encoder.layers.0.linear2.weight f4 [20, 20]
000000 5f 11 08 3d 37 7c 5c be b0 09 cc bd 9d 71 5e 3e
       0.03321969 -0.21531759 -0.09962785 0.21723028
000010 28 5a 4d be ac a2 dc 3e d1 b2 92 3d 13 82 2f 3e
       -0.20053923 0.4309286 0.07163013 0.17139463
000020 0a 44 1d be e9 30 82 3e 69 20 cb 3d e4 13 a4 3e
       -0.15357986 0.2542794 0.09918291 0.32046425
000030 fc 27 ee bd 0d 0b 61 3c ad a8 47 3e 45 e3 4a 3e
       -0.1162872 0.013735545 0.19497938 0.19813259
000040 ab e8 8d 3e d4 f5 bf bd 71 be 47 bd 0f 95 d6 3d
       0.27716574 -0.0937306 -0.048765603 0.104776494
000050 e0 6e 0c 3e 81 b4 68 3d 1c 24 2e bd 0e e9 42 3d
       0.1371417 0.056812767 -0.042514905 0.04758554
000060 cd f2 13 bd d8 f0 84 3e 57 cb f4 3d ff c1 21 be
       -0.036120225 0.25965 0.119528465 -0.1579666
000070 c0 34 ff 3d e7 48 08 3c 21 05 db bd 7b 06 ca bc
       0.12461233 0.0083181625 -0.10694338 -0.024661293
000080 7b eb 08 3e 97 ec 50 bd d9 5c e4 3d 4c f8 d0 bd
       0.13371079 -0.05100688 0.11150522 -0.10203609
000090 3b 4a ed 3b 2e 42 27 bb 17 e6 d5 3b 19 4a 11 bc
       0.007241515 -0.0025521624 0.006527673 -0.008867764
0000a0 3c 6a 45 3d d5 da 50 bd e7 f0 4d 3e 0f 8d f1 bd
       0.048197016 -0.050989944 0.20111428 -0.11794483
0000b0 83 53 04 be ea b4 82 3e 9f 4e fd bd 07 6a 88 3e
       -0.12922482 0.2552865 -0.123685114 0.26643392
0000c0 d5 8e 34 3e 6f 07 24 3e 72 14 40 3c 5e b7 ee bc
       0.17632611 0.1601846 0.011723625 -0.02914017
0000d0 03 87 84 3a 41 0e 4a bd bf 61 b7 3d 1f 99 28 be
       0.0010111037 -0.04933 0.089541905 -0.16464661
0000e0 bd 2e 9f bd d5 cc 16 3d a8 cd 29 3d 17 03 54 3d
       -0.077725865 0.036816437 0.041455895 0.05176076
0000f0 d6 b7 1c 3e e1 e7 01 bc ea 85 5e bb 53 01 ba bd
       0.15304503 -0.007928819 -0.003395433 -0.09082284
000100 59 11 ea 3c e9 52 18 3d b6 a8 f5 3d 63 bf 15 3e
       0.028572725 0.037188444 0.1199507 0.1462379
000110 d1 31 8f 3b 15 bb 17 be 6c 15 27 3d 48 c1 86 bc
       0.0043699523 -0.1481746 0.040791914 -0.016449586
000120 47 9e 44 3d f6 45 98 b9 44 67 16 3e 57 3e 20 3e
       0.048002508 -0.00029043824 0.1468783 0.15648781
000130 bc 8e cb bd 14 2d 4e 3c 61 3b 4f 3d 62 7d d6 bd
       -0.09939334 0.01258399 0.050593738 -0.104731336
000140 32 ed 4b bd e4 56 53 3a ea 52 2c be ca 8b 6b 3d
       -0.049786754 0.0008061959 -0.16828504 0.05750636
000150 14 9a af 3d b8 f2 39 3e 1d ef b1 3d 1f 19 ca 3d
       0.0857431 0.18158996 0.08688185 0.09868073
000160 c3 20 2b 3e 04 d4 f1 3d 0b f2 02 be a8 9f d1 bd
       0.16711716 0.11808017 -0.12787645 -0.1023553
000170 73 f0 d8 3d 49 7b 4f 3e 98 65 c6 bd 60 8c 86 3e
       0.10592737 0.20261873 -0.09687346 0.26278973
000180 5f f2 e0 3d c5 30 4d be d8 a0 5f 3d 74 f4 62 3d
       0.109837286 -0.20038135 0.054596752 0.05540891
000190 15 57 48 3e 9c 61 8e 3d e1 67 0a be ad c1 14 bd
       0.19564469 0.06952211 -0.13516189 -0.036317516
0001a0 00 7a 26 3d 8f ac 3d 3e 9f 9f 44 be c7 53 f1 bd
       0.040643692 0.18522857 -0.19201516 -0.117835574
0001b0 a6 e0 96 bd f2 49 8b bc 7e cc 24 3c d0 ab a9 3c
       -0.07367067 -0.017003033 0.01005852 0.02071181
0001c0 90 86 c6 3d e4 b4 b9 bd af 44 2f be 25 32 47 be
       0.096936345 -0.09067705 -0.17116044 -0.19452722
0001d0 ff 3f 5e 3d 49 95 48 3d 87 67 3a bd 18 fc 17 3e
       0.05426025 0.048970494 -0.045508888 0.1484226
0001e0 12 48 09 be 94 39 b6 3d 06 a9 ee bd a0 0b 33 3e
       -0.13406399 0.08897701 -0.116533324 0.17484903
0001f0 b7 14 b3 bc 1b 25 d6 3d e1 59 8a bd d4 62 25 3b
       -0.021860464 0.10456296 -0.06755424 0.0025235908
000200 b2 72 a8 be 43 4e 0f 3e a4 14 ff 3c f0 61 ec bd
       -0.32900006 0.13994698 0.031137772 -0.115421176
000210 94 64 c1 3d 11 ce 55 be d0 de 25 3d 47 91 88 3e
       0.09443012 -0.2087939 0.040495694 0.26673338
000220 53 14 e5 3d 0c e2 dc 3c bb 77 6e 3c b8 ba 7b 3c
       0.11185517 0.026963256 0.014554913 0.015364341
000230 de ab 25 3e 52 f9 32 3e 7f dd ea 3d b8 eb 21 be
       0.16178843 0.1747792 0.11468028 -0.15812576
000240 cd 25 4e 3e 89 43 3a be 87 5a 59 3e 77 aa e7 3b
       0.20131607 -0.18189825 0.2122594 0.0070698815
000250 a8 5d 53 3e d2 f4 b6 3c 58 eb 20 3e e1 02 d1 3c
       0.20641196 0.022333536 0.15714777 0.025514068
000260 69 9c 55 3d 20 77 d9 3d 6c 7a 15 3e 1a 27 36 be
       0.052151117 0.106184244 0.14597481 -0.17788354
000270 a4 d2 b9 bd 18 1e a3 3d 76 c8 bd 3d 03 4f d4 3d
       -0.0907338 0.07964724 0.092667505 0.10366633
000280 a9 c6 72 3d 9a 50 e5 3d 23 eb 30 be 53 7e 4e 3e
       0.05927149 0.11197014 -0.17277198 0.20165376
000290 a3 3c a0 bd 89 b8 d8 3d 14 de 94 be 23 f8 83 3d
       -0.078240655 0.10582072 -0.29075682 0.06443813
0002a0 74 c3 35 bc 6d 1d 3a 3e 4f f4 0f be 00 98 29 be
       -0.011093963 0.18175288 -0.1405804 -0.1656189
0002b0 af a3 e0 3d ee fe be bd 8b 0c da 3c 3e af 10 be
       0.1096872 -0.09325968 0.02661731 -0.1412935
0002c0 a4 6b 7c 3e 08 d6 32 3e 8e 91 e8 3d 31 56 1c 3d
       0.24650437 0.17464459 0.11355887 0.038168136
0002d0 6f 77 f6 3d d0 da 35 3e 43 22 03 3e 45 26 e2 3b
       0.12034499 0.17759252 0.12806039 0.0069015347
0002e0 f9 02 3e be 76 cd 8e be d8 20 7c bd 5d 32 bc bd
       -0.18555821 -0.2789113 -0.06155476 -0.091892935
0002f0 85 34 84 bd 5f 27 8f bd 5b b8 6c bd 21 00 f5 bc
       -0.0645533 -0.06989931 -0.057793003 -0.029907288
000300 0d 41 26 3e 3a 85 7b bd 74 2d 8f bd 9d 99 48 bd
       0.16235752 -0.06140635 -0.06991091 -0.048974622
000310 33 e9 76 3d bb af bf bd ea 62 02 3e b2 30 7a be
       0.06028099 -0.0935969 0.12733045 -0.24432638
000320 ee e8 03 be 0c ae 78 be ea dc c2 3d 4f 1c 24 3e
       -0.12881824 -0.24285144 0.09514792 0.16026424
000330 ac d4 82 3e c8 3a 16 be 12 d2 59 3e 6a 6d 60 3e
       0.2555288 -0.14670861 0.21271542 0.21916738
000340 8b 5e c3 bd fb a5 9d 3d 44 2a 4f 3e 97 10 a8 bd
       -0.09539517 0.07697674 0.20230967 -0.08206289
000350 e4 5e 8e 3a fa 96 42 bd a5 1c 1f be 10 dc 4d bc
       0.001086202 -0.047507264 -0.15538271 -0.012564674
000360 bd 65 8c be 63 60 fe 3d 44 0b 86 bd ef 21 8b be
       -0.2742137 0.12420728 -0.065451175 -0.27174327
000370 fd 13 47 3e 18 b2 1d 3e 51 75 55 3b e0 39 52 be
       0.19441219 0.15399969 0.0032571147 -0.2052989
000380 71 f3 25 3e b8 9c 13 bb 40 f6 7e 3e 12 67 d3 bd
       0.16206147 -0.0022523832 0.24898624 -0.103223935
000390 61 26 13 3e 08 a3 b7 3d f0 a0 9d 3d 27 d5 b4 be
       0.14370109 0.089666426 0.07696712 -0.35318872
0003a0 35 a0 94 be 4a e9 45 3d fe 6f 18 3c c1 43 fe 3d
       -0.29028478 0.048318185 0.009304045 0.12415267
0003b0 b8 b1 a2 3d 11 95 09 be eb cf 08 3d 66 bd 0f be
       0.079440534 -0.1343577 0.03340141 -0.14037094
0003c0 b1 05 28 bd 33 5b 35 be 08 20 f0 3d 0d 2b 23 be
       -0.041021053 -0.17710571 0.117248595 -0.15934391
0003d0 62 a3 f9 3c cc 50 28 be 36 83 d5 bd 35 40 76 bd
       0.030473415 -0.16437072 -0.10425417 -0.060119826
0003e0 ea e4 0f be f8 00 72 be 5e 80 21 be 8c 6d 5b be
       -0.14052168 -0.23633182 -0.15771624 -0.21428508
0003f0 52 9a 3c 3e 75 fb 0d 3e 92 6f f3 3c e8 ed 2c 3e
       0.18418244 0.13865454 0.029716287 0.16887629

transformer_encoder.layers.0.linear2.bias f4 [20]
000000 81 b8 e4 3d 45 20 40 3c 40 f1 55 3e ed f0 92 3b
       0.11168004 0.011726444 0.20892811 0.004484287
000010 d8 fa 0c 3e 19 2e fa 3c 3f 5f da bc ba 2c 05 be
       0.13767564 0.03053956 -0.026656745 -0.13005343
000020 21 00 ea 3a fe 73 3b bd bb 81 51 3e 79 fe 13 bd
       0.0017852822 -0.045764916 0.20459644 -0.036131356
000030 13 4b 48 3d 20 c9 8b 3d 70 d3 06 bc 1a ea 63 bd
       0.04889972 0.06825471 -0.008229122 -0.05564318
000040 d9 c9 1c 3e 5a dd 5c bd 32 dd 40 3e 2d bf e5 bd
       0.15311374 -0.053922035 0.1883438 -0.112181045

transformer_encoder.layers.0.norm1.weight f4 [20]
000000 23 14 ad 3f 60 46 9c 3f b0 b2 8b 3f 97 51 96 3f
       1.352177 1.2208977 1.0913906 1.1743649
000010 90 8b 80 3f 7e 53 9a 3f f5 22 89 3f af 94 6d 3f
       1.0042591 1.205673 1.0713793 0.92805
000020 c6 d7 82 3f 28 34 7d 3f c3 b6 7e 3f 05 ee 85 3f
       1.0222099 0.9890771 0.9949762 1.0463263
000030 6c 58 65 3f 23 fd 6d 3f d3 e9 7a 3f 7b 5f 48 3f
       0.89588046 0.9296438 0.9801304 0.7827069
000040 cb c3 71 3f 28 a2 88 3f 4d 0b 7b 3f d2 c5 7c 3f
       0.9443938 1.0674486 0.9806412 0.9873935

transformer_encoder.layers.0.norm1.bias f4 [20]
000000 04 74 e5 bc 30 1f 66 3d 89 23 35 3d a2 b5 83 3c
       -0.028009422 0.056182086 0.044223342 0.01607782
000010 8a af c7 3c d2 6e 2b 3d 16 e7 83 bd f0 b0 62 3d
       0.024375696 0.041853733 -0.064405605 0.055344522
000020 82 2e 21 3c 89 c1 66 bd 66 ff 29 3d 6e 7f 0e bd
       0.0098377485 -0.056336913 0.041503333 -0.034789495
000030 6a a8 80 3d be 8a 3a bd 23 61 4f 3d c0 39 32 bd
       0.062821224 -0.04554247 0.050629746 -0.043512106
000040 10 59 93 3c 89 ec 6f bd 4f 40 44 3d 7e f1 52 bd
       0.017986804 -0.058575187 0.047912892 -0.051499836

transformer_encoder.layers.0.norm2.weight f4 [20]
000000 02 c8 b4 3f 09 99 69 3f c0 a0 91 3f 04 8d 81 3f
       1.4123538 0.9124914 1.1377182 1.012116
000010 5b 70 89 3f bc f0 7f 3f b7 60 91 3f 3b ca 70 3f
       1.0737413 0.99976707 1.135764 0.9405858
000020 25 17 8a 3f 89 2c 88 3f c9 b7 76 3f ea 0c 8c 3f
       1.0788313 1.0638591 0.96374184 1.0941441
000030 b5 c5 64 3f d3 95 78 3f e2 c0 7b 3f ec aa 50 3f
       0.89364177 0.97103614 0.9834119 0.81510806
000040 3a 0d 75 3f fc 7d 8f 3f c2 90 80 3f 96 fc 89 3f
       0.9572331 1.1210322 1.0044177 1.0780208

transformer_encoder.layers.0.norm2.bias f4 [20]
000000 6f 12 3d 3c e6 7a 8c 3d db 86 99 3d ef 4c a2 3d
       0.011540039 0.068593785 0.07496425 0.0792483
000010 76 69 2a 3b b0 5c 86 bb e6 cd 66 bd a4 de b5 3d
       0.00260028 -0.0041004047 -0.056348704 0.08880356
000020 62 61 25 3c 75 43 73 bd ff 6d 11 3d 8c 87 e3 bc
       0.010094019 -0.059390504 0.03550529 -0.027774595
000030 05 c6 00 3d 51 92 62 bb 59 88 a6 3d b5 b5 c4 3c
       0.031438846 -0.0034572075 0.08131475 0.024012426
000040 45 85 ac bc 72 5f 74 bd d1 11 47 3d e1 99 2b bd
       -0.021059642 -0.059661336 0.048600975 -0.041894797

transformer_encoder.layers.1.self_attn.in_proj_weight f4 [60, 20]
000000 24 6c 0d be f3 77 8a be bf e1 5a 3e a2 43 56 3d
       -0.13810784 -0.2704464 0.21375178 0.052310593
000010 33 7e 34 3e 10 83 78 3d 7c 96 23 be bd 75 ea 3d
       0.17626266 0.060671866 -0.15975374 0.11448238
000020 51 ae 0e 3d 03 70 4e 3d 48 a4 49 be 38 4c 7c 3e
       0.03483421 0.05039979 -0.19691575 0.2463845
000030 b5 95 8f be f8 a8 37 3e ae a6 81 3e 9e 13 8b 3e
       -0.28043905 0.1793555 0.2532248 0.27163404
000040 14 bf a8 3d a8 9d d4 bd bd 89 dc bb fa 33 7f 3c
       0.0823957 -0.10381633 -0.006730287 0.015576357
000050 8b 93 67 3e ae 77 8d bc e5 99 7e be 88 96 c7 3d
       0.22614877 -0.017268982 -0.24863394 0.097455084
000060 49 98 9d 3d a6 cc de 3d 5d d5 27 3e 4b 5e 8c bd
       0.07695062 0.10878877 0.16389985 -0.068539225
000070 c5 c1 56 3e 03 82 10 bd 84 31 70 bb 34 05 92 bd
       0.20972355 -0.03528024 -0.0036650607 -0.07129899
000080 15 a1 cb 3d d8 1f 97 bd 74 9d 62 3e 15 71 20 3e
       0.09942833 -0.073791206 0.22130376 0.15668137
000090 32 13 86 3e 36 cf 9c 3c 96 03 2d 3d 3f ea 13 be
       0.2618652 0.019141775 0.042239748 -0.14444827
0000a0 7d 58 5d 3e 63 f7 7d be 47 7a c1 3c 7c 96 8c bd
       0.21615787 -0.24801402 0.023617877 -0.0686464
0000b0 55 6b 76 3e ae 09 6b be db ff 2a 3e 89 d4 84 be
       0.24064381 -0.22952911 0.16699164 -0.259434
0000c0 7d ad b7 3c 60 80 dd bd df 46 3c bd 26 59 43 bd
       0.022421593 -0.10815501 -0.045966025 -0.04769244
0000d0 a3 fb 03 3d c5 5f 46 be cd 42 c9 3d 57 79 28 be
       0.0322224 -0.1937247 0.09827194 -0.16452537
0000e0 d6 ab 73 bd 94 8e 9c be 52 85 ad bd ca 54 c7 3c
       -0.059490047 -0.30577528 -0.084726945 0.024332423
0000f0 97 49 54 3d 81 a7 57 3d 01 0c 2b be 24 a4 8c 3d
       0.051827993 0.05264998 -0.16703798 0.06867245
000100 2a 28 7e 3e 50 84 30 3e a1 a0 ba bd 61 01 11 3e
       0.24820009 0.17237973 -0.09112669 0.14160682
000110 f7 ee 7a 3c 70 af 25 3c 78 0c 64 3d 39 d5 f9 3d
       0.015315763 0.010112628 0.055675954 0.12198872
000120 90 1a 6b be fd 50 af bd 55 52 89 3c 82 54 2d 3e
       -0.22959352 -0.08560369 0.016762892 0.16926768
000130 eb 12 4c be 0a f6 e5 bd 23 fc 3b bc 7e c8 b0 3d
       -0.19929092 -0.11228569 -0.011473688 0.08631991
000140 3b 75 89 be 3e 0c 19 3e 93 b4 35 be 83 c4 6c 3e
       -0.26847252 0.14946076 -0.17744665 0.23121838
000150 c7 31 75 bd c0 fb 47 bd 0d 3e c4 3b 37 30 6b ba
       -0.059861924 -0.048824072 0.0059888423 -0.0008971723
000160 3e 4f 66 3e e1 df 22 3e 87 62 6b be fe b5 22 3e
       0.22491166 0.15905716 -0.22986804 0.15889737
000170 bd d3 36 3e f8 14 98 bd 28 78 4c be 5c 15 b0 bd
       0.17854209 -0.074258745 -0.19967711 -0.08597824
000180 2e e6 62 bd cf d2 46 3d 98 ac de 3c a3 27 62 3e
       -0.055395298 0.048540886 0.027181908 0.22085433
000190 56 fb 81 bd ec 8a 4a bd 01 b8 50 3e e6 ab 7d be
       -0.06346767 -0.049448892 0.20382692 -0.24772605
0001a0 79 b1 c6 3d 0f 8f 24 3d b1 e0 ad 3c 22 72 4a 3e
       0.09701819 0.040175494 0.021225305 0.197701
0001b0 5f ae 39 be f8 25 20 be 05 50 cd 3d b7 03 51 3e
       -0.18132924 -0.15639484 0.10025028 0.20411573
0001c0 65 d8 2f bd 2d 64 49 bd cc e9 76 be ad 77 14 3e
       -0.04293098 -0.0491678 -0.24112624 0.14498778
0001d0 b3 6c 13 be 57 5d 5c be d3 79 8c bd 36 78 44 bd
       -0.14396934 -0.21519981 -0.068591736 -0.047966205
0001e0 aa b1 94 bd 79 aa dd 3d 1f d9 ec 3d 8d 76 3c 3d
       -0.07260449 0.10823531 0.1156485 0.046011496
0001f0 b0 db 2c be 5d a6 ff bd f9 b9 3b bd 6d d7 04 be
       -0.16880679 -0.12482903 -0.045831654 -0.12972803
000200 69 87 34 be 11 b4 0c 3e 2b 7d ef bd 02 49 ad 3d
       -0.1762978 0.13740565 -0.11693796 0.08461191
000210 b2 84 84 bd 2a 53 04 3e 02 56 2f be b1 78 47 3e
       -0.06470622 0.1292235 -0.17122653 0.19479634
000220 24 d7 2e 3e 38 3c 03 be a3 a9 91 bb 99 d7 03 be
       0.17074257 -0.1281594 -0.004445271 -0.12875213
000230 94 de 85 3d 61 57 4e be ab f9 18 3d c8 55 ac 3d
       0.06536594 -0.2015052 0.037347477 0.08414799
000240 c7 43 a4 3e f0 3e e9 bc a7 f0 80 be 63 70 0a bd
       0.3208296 -0.028472394 -0.25183603 -0.033798587
000250 1f 28 27 be df 18 05 be 66 a6 7b 3d 86 69 5c be
       -0.16323899 -0.12997769 0.061437987 -0.21524629
000260 53 a0 24 3e 45 ef fd 3c 4b 4b 39 be ba 55 2c be
       0.16076784 0.030997882 -0.18095128 -0.16829577
000270 87 c8 c4 3d a8 76 f5 bc 35 09 8a bd 8e 20 ff bd
       0.0960856 -0.029963806 -0.06740037 -0.12457381
000280 d9 f7 2e 3e e9 28 81 bd 28 d0 5b bd a8 de 31 3e
       0.17086734 -0.06306631 -0.05366531 0.17370093
000290 cd d7 fd 3d fb 1c c2 bd d7 92 7b be 8a 89 3f 3e
       0.12394676 -0.09478184 -0.24567734 0.1870481
0002a0 93 f6 6b bb 42 5e 20 3e a7 12 2f bd 17 00 25 3d
       -0.0036005124 0.15660957 -0.042742398 0.04028329
0002b0 16 7d 5f 3e 73 3c 0d be 28 a0 e3 3d 74 3a 24 3e
       0.2182506 -0.13792591 0.11114532 0.16037923
0002c0 b6 e2 0f 3e 0f 90 5a be 00 22 82 3e 1d 5d 16 3e
       0.14051327 -0.21344016 0.25416565 0.14683957
0002d0 05 75 1a be d0 5e 85 bd 46 f1 fb 3d 58 0b fc 3d
       -0.15083702 -0.06512225 0.12301879 0.12306851
0002e0 2a f1 48 3e b0 3d 4e be 78 f1 cb bd df a3 1d 3e
       0.19623247 -0.2014072 -0.09958166 0.15394543
0002f0 d7 01 d0 bd 6e eb 0b be 25 fa 18 be 22 74 d8 bd
       -0.10156601 -0.13664028 -0.14939173 -0.105690256
000300 f3 4e 3a 3e 77 0c ee bc 7e 15 b9 3c 33 a0 9f 3b
       0.18194179 -0.029058678 0.022593256 0.004871392
000310 c0 ef 36 be 84 17 8b bd ee 16 9c bd 6c 52 c1 3c
       -0.17864895 -0.067915946 -0.07621561 0.023598872
000320 2b b4 0f be 8c 64 69 be 81 8d ae bb b2 f8 14 be
       -0.14033572 -0.22792262 -0.005326927 -0.14547995
000330 8b df b4 3c ec 85 bb 3d 77 bf 82 3d cb 4e 2b be
       0.02207925 0.09156403 0.06384175 -0.16729276
000340 c3 0b 3b 3e 7b d8 2e 3e 21 5d d1 3d 16 90 26 bc
       0.18266205 0.17074768 0.10222841 -0.010166189
000350 dc 76 44 bc 77 f6 a8 3c b5 08 93 bd 68 d8 41 bb
       -0.011991229 0.020625336 -0.07179395 -0.002957845
000360 2c 3f d4 3c a6 3a 80 3e 23 0e e5 3d 8b 9c e5 3d
       0.025909029 0.25044745 0.11184337 0.11211499
000370 7f 2f f1 bc 2e e6 74 be c5 02 89 be 99 a0 5c be
       -0.029441593 -0.23915932 -0.26759925 -0.21545638
000380 32 f9 3d 3e 15 00 ba bd 3b 47 a4 bd 81 c5 26 3d
       0.18552092 -0.09082047 -0.08021399 0.0407157
000390 8a 88 36 3c 0c 48 51 3e 96 5b 04 be 12 93 c7 3c
       0.011140952 0.2043764 -0.12925562 0.02436212
0003a0 62 05 20 be 79 13 7f bd 78 75 34 be 55 73 0e 3e
       -0.15627053 -0.06227443 -0.17622936 0.13911183
0003b0 31 9f a2 3d 2d 26 0c 3d f7 f4 67 3b 82 67 8c be
       0.079405196 0.034216095 0.0035393813 -0.2742272
0003c0 7e 21 9b 3e 69 5c f0 3d aa 1f 70 3e 21 7f 85 be
       0.3029899 0.11736376 0.23449579 -0.26073554
0003d0 d3 40 3b be b2 2e ee bd ba 6f 81 be 32 07 a9 3d
       -0.18286447 -0.1163 -0.25280553 0.082533255
0003e0 6f c5 90 bd 4b d9 33 be 26 eb 0c 3e a0 81 40 3c
       -0.070689075 -0.1756336 0.13761577 0.011749655
0003f0 47 dd 8a 3e e7 30 5e 3e 67 6c 8a 3e 5c 1b 04 bd
       0.27121946 0.21698342 0.2703583 -0.032252654

transformer_encoder.layers.1.self_attn.in_proj_bias f4 [60]
000000 40 2c 54 3c f9 9c 10 3c 9e b2 f4 3c 86 4a 8f bc
       0.012950003 0.008826488 0.029870328 -0.01749159
000010 0e 4d 97 bc 49 56 5d 3d 44 c2 06 bb b0 3d 9d 3c
       -0.01846936 0.054037366 -0.0020562569 0.019194454
000020 46 e2 10 3d 0a 28 9d ba 4f 03 35 bc f2 a6 13 bd
       0.03537204 -0.0011990082 -0.011048152 -0.036047883
000030 bf e8 b4 3b e3 1b 1b bb 65 c3 f9 3a 5a 27 0c bb
       0.0055209096 -0.0023667745 0.0019055424 -0.002138576
000040 e2 64 1f bc bb fa 8d bd 7e ca 81 bb ee 65 46 3d
       -0.009728642 -0.06932589 -0.0039609065 0.04843705
000050 c8 b1 7e b0 af 99 d2 b0 e1 14 97 30 18 2d b8 b0
       -9.2657304e-10 -1.532319e-09 1.099263e-09 -1.3400578e-09
000060 aa 96 d3 b0 bc ed 65 31 1c 6e 4c 30 aa e0 f0 31
       -1.5395092e-09 3.3459022e-09 7.437124e-10 7.0104607e-09
000070 28 7a 2a ae ca 5a 88 2f 60 d2 f2 b0 d6 b2 68 b1
       -3.876202e-11 2.4802765e-10 -1.766761e-09 -3.38621e-09
000080 ec af 30 30 22 65 0e b0 3a 54 85 b1 fa b3 2d b1
       6.4278427e-10 -5.180302e-10 -3.880385e-09 -2.5277118e-09
000090 89 85 19 31 12 e1 60 b1 ef a6 4c b0 b2 1c ef b0
       2.2340336e-09 -3.2724228e-09 -7.4451995e-10 -1.7397694e-09
0000a0 cf 01 3e 38 32 73 53 bd 30 f5 c5 3c 7d d7 35 bc
       4.5301214e-05 -0.05162353 0.024164766 -0.01109874
0000b0 e1 7e 8b 3d c0 9e 33 bc 10 5a 09 3c df e9 dd 3c
       0.068113096 -0.010963142 0.008383289 0.027089057
0000c0 5b 88 5c 3d 97 1b 31 bc c9 2b 76 3c a7 ff 0e 3c
       0.053840976 -0.010809801 0.015025088 0.008727944
0000d0 5b f2 9e bc 90 9d b5 bc 30 bf 6f bd 81 dd a0 bc
       -0.019402673 -0.022169858 -0.05853194 -0.019636871
0000e0 d7 e1 24 3d f7 69 0e 3c 8e 04 05 bd 1f bf 51 3c
       0.04025444 0.008692256 -0.032475047 0.0128019145
