model_epoch_96.pt (torch, 431970 bytes, 28 tensors)

pos_encoder.pe f4 [5000, 1, 20]
00000000: 0000 0000 0000 803f 0000 0000 0000 803f
00000010: 0000 0000 0000 803f 0000 0000 0000 803f
00000020: 0000 0000 0000 803f 0000 0000 0000 803f
00000030: 0000 0000 0000 803f 0000 0000 0000 803f
00000040: 0000 0000 0000 803f 0000 0000 0000 803f
00000050: a56a 573f 4151 0a3f 3d7d c63e dafa 6b3f
00000060: 4e9d 213e a0ca 7c3f 6522 813d 977d 7f3f
00000070: 8ac0 cd3c 53eb 7f3f 57d6 233c b9fc 7f3f
00000080: 9073 823b 7bff 7f3f 28bc cf3a ebff 7f3f
00000090: d466 253a fdff 7f3f f5b1 8339 ffff 7f3f
000000a0: b7c7 683f 3311 d5be 76f7 363f 040d 333f
000000b0: c596 9f3e 183f 733f 9de0 003e e3f6 7d3f
000000c0: ecaf 4d3d 51ad 7f3f 3ed4 a33c e5f2 7f3f
000000d0: 4d73 023c ecfd 7f3f 17bc 4f3b acff 7f3f
000000e0: d266 a53a f3ff 7f3f f5b1 033a feff 7f3f
000000f0: c381 103e 2670 7dbf 4812 6e3f e53b bc3e
00000100: ce5e ea3e a89a 633f b9ac 403e 6f6d 7b3f
00000110: 2d2f 9a3d 0346 7f3f 1fb9 f53c 83e2 7f3f
00000120: 49ac 433c 53fb 7f3f fccc 9b3b 42ff 7f3f
00000130: 361a f83a e2ff 7f3f ef8a 453a fbff 7f3f
00000140: cfbd 41bf 3055 27bf abf0 7f3f ce32 b1bc
00000150: 72a3 173f b041 4e3f 8ab4 7f3e d4e3 773f
00000160: 7d6d cd3d 7ab5 7e3f dbcb 233d 94cb 7f3f
00000170: 3e72 823c b1f7 7f3f d3bb cf3b affe 7f3f
00000180: c966 253b cbff 7f3f f4b1 833a f8ff 7f3f
00000190: 107c 75bf 2c3c 913e 28c7 693f cea6 d0be
000001a0: 6e4a 363f 2cbd 333f ebdb 9e3e aa5d 733f
000001b0: 4f45 003e cdfb 7d3f f4b6 4c3d 19ae 7f3f
000001c0: cf0d a33c 04f3 7f3f 44d5 013c f1fd 7f3f
000001d0: 74c0 4e3b adff 7f3f 6f9e a43a f3ff 7f3f
000001e0: 8c0f 8fbe b8cd 753f 200d 2f3f fdcb 3abf
000001f0: a75f 503f 47b7 143f b73b bd3e 8fdf 6d3f
00000200: 29bf 193e 1a19 7d3f d19c 753d 128a 7f3f
00000210: b7a8 c33c 4eed 7f3f 88cc 1b3c 09fd 7f3f
00000220: 191a 783b 88ff 7f3f eb8a c53a edff 7f3f
00000230: 4630 283f bdff 403f fde3 b13e 310d 70bf
00000240: c03b 653f 26ee e33e b9da da3e 1a6f 673f
00000250: 2d20 333e 860d 7c3f 323e 8f3d 815f 7f3f
00000260: d442 e43c 8ee6 7f3f b4c3 353c f8fb 7f3f
00000270: dbb9 903b 5cff 7f3f 6577 e63a e6ff 7f3f
00000280: 9546 7d3f f6fd 14be 3128 31bd acc2 7fbf
00000290: dc58 743f 1db7 983e c29a f73e db12 603f
000002a0: 4264 4c3e 3cd9 7a3f 50aa a33d 662e 7f3f
000002b0: 026e 023d c4de 7f3f c1ba 4f3c bbfa 7f3f
000002c0: a766 a53b 2aff 7f3f efb1 033b deff 7f3f
000002d0: 3201 d33e d53f 69bf 5cb7 dabe 7577 67bf
000002e0: 0056 7d3f 3958 133e 43af 093f 52d2 573f
000002f0: 5487 653e 6e7c 793f 3e12 b83d c2f6 7e3f
00000300: 12ba 123d f0d5 7f3f adb1 693c 55f9 7f3f
00000310: 6e13 ba3b f1fe 7f3f 2c28 143b d5ff 7f3f
00000320: f844 0bbf 64cd 56bf 238a 3ebf 43f8 2abf
00000330: 7df9 7f3f baf4 66bc e004 173f e6b5 4e3f
00000340: 5385 7e3e 54f7 773f 7675 cc3d 98b8 7e3f
00000350: 8a05 233d 13cc 7f3f 39d4 813c c5f7 7f3f
00000360: 30c0 ce3b b2fe 7f3f 679e 243b cbff 7f3f
00000370: 5cff 7fbf 7205 913b 58eb 71bf c976 a7be
00000380: 6532 7c3f 27da 2fbe 9fc0 233f e2c6 443f
00000390: 1cad 8b3e 2d4a 763f 72d3 e03d e873 7e3f
000003a0: 5950 333d 2cc1 7f3f 86cf 8e3c 0af6 7f3f
000003b0: ed6c e33b 6cfe 7f3f a214 353b c0ff 7f3f
000003c0: d85c 09bf d006 583f 0b76 7fbf e1d0 843d
000003d0: f518 723f 4d6e a6be 89d5 2f3f 630f 3a3f
000003e0: fe00 983e 3e75 743f ac2b f53d b528 7e3f
000003f0: 6d9a 433d 3bb5 7f3f baca 9b3c 26f4 7f3f
0.0 1.0 0.0 1.0 0.0 1.0 0.0 1.0
0.0 1.0 0.0 1.0 0.0 1.0 0.0 1.0
0.0 1.0 0.0 1.0 0.841471 0.54030234 0.38767424 0.92179644
0.15782663 0.9874668 0.06305388 0.9980101 0.025116224 0.9996845 0.009999833 0.99995
0.0039810613 0.9999921 0.0015848922 0.99999875 0.0006309573 0.9999998 0.00025118855 0.99999994
0.9092974 -0.41614684 0.71471345 0.69941735 0.31169716 0.9501815 0.12585683 0.99204844
0.0502166 0.99873835 0.019998666 0.9998 0.00796206 0.9999683 0.0031697804 0.999995
0.0012619144 0.9999992 0.0005023771 0.9999999 0.14112 -0.9899925 0.92996645 0.36764446
0.45775455 0.8890786 0.18815888 0.9821386 0.07528529 0.99716204 0.0299955 0.99955004
0.011942931 0.99992865 0.0047546607 0.9999887 0.001892871 0.9999982 0.00075356563 0.9999997
-0.7568025 -0.6536436 0.99976605 -0.02163067 0.5923377 0.8056898 0.24971214 0.96832013
0.10030649 0.9949566 0.039989334 0.9992001 0.015923616 0.9998732 0.006339529 0.9999799
0.0025238267 0.99999684 0.0010047541 0.9999995 -0.9589243 0.2836622 0.91319513 -0.40752262
0.7120732 0.7021053 0.3102716 0.95064795 0.12526439 0.9921234 0.049979165 0.99875027
0.019904045 0.9998019 0.007924382 0.9999686 0.0031547816 0.99999505 0.0012559424 0.9999992
-0.2794155 0.96017027 0.683794 -0.7296751 0.81395954 0.5809216 0.3695962 0.9291925
0.15014328 0.98866427 0.059964005 0.99820054 0.02388416 0.99971473 0.009509213 0.99995476
0.0037857352 0.99999285 0.0015071308 0.99999887 0.6569866 0.75390226 0.34744254 -0.9377013
0.89544296 0.4451763 0.42744997 0.904039 0.17492743 0.98458135 0.06994285 0.997551
0.027863897 0.99961174 0.011094023 0.9999385 0.004416687 0.9999902 0.001758319 0.99999845
0.98935825 -0.14550003 -0.04325122 -0.9990642 0.9544809 0.29827204 0.48360258 0.8752877
0.1996012 0.97987723 0.07991469 0.99680173 0.031843193 0.9994929 0.012678803 0.9999196
0.0050476375 0.99998724 0.002009507 0.999998 0.4121185 -0.91113025 -0.42718017 -0.9041665
0.9895935 0.14389123 0.53783053 0.843053 0.22414905 0.9745549 0.089878544 0.9959527
0.03582198 0.9993582 0.014263553 0.99989825 0.0056785857 0.99998385 0.0022606952 0.99999744
-0.5440211 -0.8390715 -0.7442953 -0.6678507 0.99990064 -0.014096433 0.58991814 0.80746305
0.24855547 0.9686177 0.099833414 0.9950042 0.039800204 0.9992077 0.015848266 0.9998744
0.0063095316 0.9999801 0.002511883 0.99999684 -0.9999902 0.004425698 -0.9449973 -0.32707813
0.98514396 -0.17173062 0.6396579 0.7686597 0.2728051 0.96206933 0.1097783 0.9939561
0.043777797 0.9990413 0.01743294 0.999848 0.006940475 0.9999759 0.0027630706 0.9999962
-0.53657293 0.84385395 -0.99789494 0.06485153 0.9456933 -0.32506028 0.68685204 0.7267973
0.29688257 0.954914 0.119712204 0.99280864 0.047754694 0.9988591 0.019017566 0.99981916

transformer_encoder.layers.0.self_attn.in_proj_weight f4 [60, 20]
00000000: 3d75 19be 499e 73be d881 5c3e a58a 793d
00000010: 885c 3e3e 904d a43d 0f2c 3abe 3d24 fe3d
00000020: 6d71 313c a606 373d 4653 4fbe bfbc 733e
00000030: 4bae 8abe 0720 3b3e 887a 863e b85c 863e
00000040: 24fc 9a3d a80a e0bd 5194 30bc fb74 46bc
00000050: d2fe 783e b7d2 81bd 9ef3 85be 6a2c cf3d
00000060: 80c4 703d 705a db3d a3a6 263e 649b afbd
00000070: 9008 6e3e d076 2fbd 3618 373a c321 c1bd
00000080: 53f5 ce3d 7ec9 d3bd 1d97 6a3e 255b 233e
00000090: 2be0 863e 7976 ab3c c9c5 153d f65f fabd
000000a0: 5a8b 153e d4a2 12be 98ba 773c 8dc9 8bbd
000000b0: 395b 783e 0147 50be bf68 323e 5ec9 6abe
000000c0: 4437 a6bb f410 abbd 6b4a 72bd 5da3 3abd
000000d0: 6ee3 433d 9493 1cbe 8513 da3d ad30 36be
000000e0: 0f80 82bd 78f9 90be 880a b4bd 3a68 ebbc
000000f0: 9728 d43d 08d1 76bc b3e2 10be 3546 b23d
00000100: 9833 5b3e 9b1d 1f3e 2feb e2bd e364 d73d
00000110: 78b0 f93c c374 36bc ffc5 7b3d 24c4 fe3d
00000120: 98ec 76be 61ec 05be 95c1 ef3c b253 423e
00000130: 6a89 3bbe cfc4 febd e977 86bc b648 043e
00000140: f546 74be 8da5 e03d 7385 36be 969c 813e
00000150: a607 94bd 5e23 98bd 8149 49bc 78a9 a3bc
00000160: 507c 6f3e cbd6 063e f34b 69be 1dd8 0b3e
00000170: aeb4 273e 8075 dfbd 7aa9 4cbe 3b5a b6bd
00000180: 99fd 61bd de14 1e3d bcf9 a43c f289 813e
00000190: 4860 8ebd d5fd 50bd df64 543e d96d 64be
000001a0: aba8 123d 500d 103d 2878 813d 1c5a 393e
000001b0: c894 47be 7922 f4bd 1327 823d 515c 593e
000001c0: fcbb 2bbd b304 a5bd 218d 6fbe b75f 323e
000001d0: b26d 19be 30aa 26be 5c59 e8bd 3f63 8abc
000001e0: 6608 d7bd fe0a c73d b6d5 793e 4071 9f3c
000001f0: cc42 3ebe 2ed7 0fbe 289d 0dbd 4fdd 0bbe
00000200: ef6f 68bd fd59 093e 2790 abbd da0d f73d
00000210: 1db1 0bbd f58e 183e 3e99 ffbd 2316 783e
00000220: 1d9c 613e 757f 09be 0774 483b c7c9 e1bd
00000230: a0de 683e ce3f 14bf a4a7 5c3d eae1 833c
00000240: 9ea8 943e e804 e7bc 0a39 45be 5dbb 63bd
00000250: 40b7 e1bd 472a 84bd 1869 693d a885 36be
00000260: c2fe 283e 21e8 dbbc 4519 5abe 51e4 0ebe
00000270: e96f dd3d dece ac3b 58b3 04bd 068e d7bd
00000280: e566 f23d 6e8b eb3d 9589 abbb bc01 4e3e
00000290: 2030 ea3d c63b adbd 6e19 8ebe f1f2 453e
000002a0: 26c9 82b9 f033 023e d7b5 fdbc b9bc 863d
000002b0: 238c 643e 7704 96bd 5121 163e 6271 433e
000002c0: af9f 1c3e 5d91 6cbe fcb5 803e a4f3 1b3e
000002d0: bf64 98bd ee32 49be 0134 7d3d 0e2d d33d
000002e0: 95d7 3b3e 3f05 25be 403d adbd 7f79 0b3e
000002f0: 3e08 2abe 65d7 d8bd 8793 52be 4763 febd
00000300: bce5 263e f470 91bd 21bb b3bc d810 56bc
00000310: 4233 56be bce3 34bd 2877 86bd 6898 3c3c
00000320: a9a2 2dbe d8a6 85be 6f93 3d3d 0417 4abe
00000330: 3cba 04bc 8e81 123e beee ac3c 03e5 4abe
00000340: f2b0 5c3e ddc1 143e f4e4 fb3d e012 103d
00000350: 20f3 08bd da7d 6f3c c0a6 46bd 1cf9 bc3c
00000360: 39b3 6a3d aea6 6d3e b149 f13d fb5a 073e
00000370: 2227 ae3c 8bc5 97be 719f 49be 1574 6cbe
00000380: 7c40 413e f27c cabd 3ca5 1bbe 3c14 473d
00000390: 707f de3c 77a0 1b3e 1d8f cebd 9805 493d
000003a0: da29 4dbe a258 94bd b360 34be 16d1 ff3d
000003b0: 530f d43d 75c2 b6bc 4260 903c bc1e 8bbe
000003c0: a8d0 9a3e 7a5b 053e 3756 623e f256 6cbe
000003d0: 4065 42be b4d9 14be beed 6fbe de28 bb3d
000003e0: 9fcc a7bd f2c0 29be 313a f63d 6209 46bc
000003f0: bb12 8c3e 0014 513e 09bb 863e ea50 50bd
-0.14986129 -0.2379085 0.21533906 0.060923237 0.18589985 0.080226064 -0.1818087 0.12409256
0.0108302655 0.044684075 -0.2024661 0.2380247 -0.270861 0.18273936 0.2626536 0.26242614
0.07567623 -0.109395325 -0.010777549 -0.012112851 0.24315956 -0.06339019 -0.26162428 0.10115893
0.058781147 0.10710609 0.16274504 -0.0857456 0.23245454 -0.042837918 0.00069845037 -0.09430268
0.10105386 -0.10341166 0.22909208 0.15952738 0.26342902 0.020930516 0.036565576 -0.12225334
0.1460394 -0.14319927 0.015120171 -0.06825552 0.24253549 -0.20339586 0.1742277 -0.22928378
-0.005072506 -0.08352843 -0.059153 -0.04556595 0.047824316 -0.15290672 0.10648254 -0.17792006
-0.063720815 -0.2831533 -0.08791071 -0.028736223 0.103593044 -0.015064485 -0.14148979 0.08704797
0.214064 0.15538637 -0.11080014 0.105172895 0.030479655 -0.011136237 0.06146812 0.124397546
-0.24113691 -0.13078453 0.029267112 0.1897724 -0.18314138 -0.12439882 -0.0164146 0.12918362
-0.23855193 0.10969076 -0.17824344 0.25314778 -0.07228021 -0.07428621 -0.012285591 -0.01997827
0.23387265 0.13167875 -0.22782879 0.1365666 0.16377518 -0.10911083 -0.19986525 -0.08903929
-0.05517349 0.03859412 0.020138614 0.25300556 -0.06951958 -0.051023323 0.20741604 -0.22307529
0.035805386 0.035168946 0.06321746 0.1810078 -0.1949035 -0.11920638 0.06355109 0.21226622
-0.041927323 -0.08057537 -0.2339368 0.17419325 -0.14983252 -0.16275859 -0.11345169 -0.016893027
-0.10499649 0.097188935 0.2439793 0.019463181 -0.18580168 -0.14046928 -0.034573704 -0.13658641
-0.056747373 0.13413234 -0.08377104 0.12063189 -0.034104455 0.14898284 -0.124804005 0.24227194
0.22032209 -0.13427527 0.0030586736 -0.11024814 0.22741175 -0.5790986 0.053870812 0.016098935
0.29034895 -0.028200582 -0.1926004 -0.055598605 -0.1102128 -0.06453376 0.05698499 -0.17824423
0.16503432 -0.026844086 -0.21298702 -0.13954283 0.10812361 0.005273684 -0.032397598 -0.10525136
0.11836032 0.115012035 -0.005234907 0.20117849 0.1143496 -0.084586665 -0.27753776 0.19330956
-0.000249454 0.12715125 -0.030970497 0.06578965 0.22319083 -0.0732507 0.14661147 0.19086221
0.1529529 -0.23102327 0.25138843 0.1522966 -0.07441091 -0.19648334 0.061817173 0.10311328
0.18343957 -0.16115282 -0.08458948 0.13620566 -0.16604707 -0.10587958 -0.2056409 -0.124212794
0.16298574 -0.07101622 -0.021939816 -0.013065539 -0.20917991 -0.044162497 -0.06565696 0.011510946
-0.16956581 -0.26103854 0.04628318 -0.19735342 -0.008101042 0.14307234 0.021109935 -0.19813924
0.21551874 0.14527078 0.12299529 0.03517425 -0.033434987 0.014617408 -0.04849887 0.023068003
0.057299826 0.23208115 0.11781634 0.132183 0.021258894 -0.296429 -0.19689728 -0.23091157
0.18872255 -0.09887113 -0.1519975 0.04860328 0.027160376 0.15197931 -0.100858904 0.0490776
-0.20035496 -0.07243468 -0.17615013 0.12491052 0.10354485 -0.022309521 0.017624024 -0.27171886
0.30237317 0.13023177 0.22103201 -0.23080042 -0.18983936 -0.14536172 -0.23430535 0.09138654
-0.08193325 -0.16577509 0.12022818 -0.012087198 0.2735804 0.20417786 0.26314571 -0.050858416

transformer_encoder.layers.0.self_attn.in_proj_bias f4 [60]
00000000: 6524 8ebc c9ca 583b 30ae 96bb ac2b 913a
00000010: c6d4 1bbc 825b 903c 368e 233d c3e4 2e3d
00000020: e610 063d b1cc 19bc b92a b33c 4e01 5fbc
00000030: 1bc0 9ebc e45f cabc 2123 973c 3319 263c
00000040: 3e66 2dbc ee73 2ebd 6848 bc3b 3aa4 4f3d
00000050: 417b 48b1 7cb1 8730 f70d 7e2d af77 22b1
00000060: e3eb 0931 2423 8e32 94fc c831 e4da 7d31
00000070: 85d6 0b32 213e 9b31 ec38 142f 6901 dc2f
00000080: 4617 882f fb3a 6db0 df99 83b1 fe7a 6f31
00000090: 2fe3 c4b1 7518 7531 debc 4c31 68e1 2d31
000000a0: 23b4 43bd 74c2 513d 04ff cbbc 298d 83bc
000000b0: 1766 6c3d 767f af3d c36e f03b b0c7 833d
000000c0: 5d5b 633d 97cb 123c 9d3e 92bc 9638 5c3c
000000d0: fef7 88bd 1f44 933d ae17 923c 8aba 903d
000000e0: f86d 2f3d ccd8 2d3d 02be 353c 0a02 73bc
-0.017351339 0.0033079854 -0.0045984015 0.0011075637 -0.009511178 0.01762176 0.039930545 0.042698633
0.03273096 -0.009387181 0.021870958 -0.013611151 -0.019378712 -0.024703927 0.018449368 0.010137844
-0.0105834585 -0.042591028 0.005745936 0.050693728 -2.9173892e-09 9.872987e-10 1.4441329e-11 -2.3642135e-09
2.007021e-09 1.6546956e-08 5.849481e-09 3.694077e-09 8.139641e-09 4.518157e-09 1.3480744e-10 4.001877e-10
2.4754793e-10 -8.6303914e-10 -3.830095e-09 3.484899e-09 -5.7301786e-09 3.5666095e-09 2.9793266e-09 2.5302942e-09
-0.047779214 0.051210836 -0.024901874 -0.016058521 0.057714548 0.08569233 0.0073374226 0.06434572
0.055507053 0.008959672 -0.017852122 0.0134412255 -0.06687926 0.071907274 0.017833557 0.070668295
0.042829484 0.04244308 0.011092665 -0.014832029

transformer_encoder.layers.0.self_attn.out_proj.weight f4 [20, 20]
00000000: af28 073e ace7 e9bd 5eae b7bd 3e47 1e3e
00000010: a036 893e 401a 7b3d 0457 de3e d53b f93d
00000020: ce1b 81bd 2858 973d 4149 3fbe 3b79 583d
00000030: 0221 38bc 44ac a4bc b930 a73d 8002 bebe
00000040: 509d 043e c4c5 b93d b540 bd3e 0cad c53d
00000050: a7d1 173e c577 aabd f289 913d 3432 68bd
00000060: 4731 bf3d fd01 70bd f04c 8dbe 0407 31be
00000070: 72c7 1bbe afce 96bd 9f41 29bd 8d9b 8b3d
00000080: 215b 023e 66a8 4cbe 8d7d cebd d26e 8f3d
00000090: 84b3 9dbd 6820 5d3d 680d 2d3d 50c9 c2bd
000000a0: 287b 1fbe 4095 10bd 5796 bfbd e1e5 16be
000000b0: 3198 303e a8e0 1fbe 7aa2 42be 4097 9c3c
000000c0: 5387 5ebe 93f2 1abd a221 0abe a042 1cbe
000000d0: 2a07 863c d6fb a23d 858f f43c 5764 3abe
000000e0: cdd3 163e ae36 dfbd 9c2d ce3d fc6b 66be
000000f0: 9f19 5f3d 4256 32bd dc2e 843c 32a2 043c
00000100: 9a27 4d3e b7eb 86be c845 e93d e83b a2bc
00000110: d62d 033e 0929 973d dcbd 773b 482c e9bd
00000120: 0f94 fa3d 436f 803d 218e a33e bf68 18be
00000130: 0bbd cbbd a90b b33d a521 b5b9 235e 8d3e
00000140: 5c5f 38bd 5f5a d63d 6a96 60be 03da 44be
00000150: 862e fcbc 3dad b53a df75 493e b556 20bd
00000160: 6f0d 343e ea44 4b3d 9561 92bc 497b 553d
00000170: c8e3 54be 6d40 5d3e 1f3c bbbd a4e2 1fbe
00000180: 726e 7b3d 299a 4b3d 79e8 d73d 099f 04be
00000190: 96db 853e a762 a73d d9de 52be 5d53 88bc
000001a0: 9bd1 a7bd d5aa acbd 22d0 b9be 7246 30be
000001b0: 475d e5bc ef34 673e 8c44 60be 464e 2ebc
000001c0: 6519 b73b c5df 823c 9471 4d3d 02bf 2f3e
000001d0: c041 32bd 5d64 38bd fcdd 2d3e 731d 24be
000001e0: f407 7e3d 8e49 d1bd 86d4 fabd 853b b93d
000001f0: 4884 563e 660a 58be 171a 343e b027 5c3d
00000200: a178 633e d453 183e 7c65 9f3d 9c65 283d
00000210: 7f5b 4f3e 7c28 08be 87f1 28be 4c44 403e
00000220: cfea a53c d106 8b3d 46e6 19be 9740 cdbd
00000230: 4cf8 a73d b8dd 06be b8ad 123e 5aa3 94bd
00000240: 4d59 ea3d 8a1d 79bd 29a7 acbd 9fd9 e43d
00000250: cae6 fd3d 29c0 ddbd f203 2dbe e74b 3bbe
00000260: 6c69 073e 7d42 6abd d2d1 9bbd 31bb 8ebd
00000270: fffb a83d dd69 173e 97d2 28bd ea5e 9cbd
00000280: b6a8 c73c c41c 493e 21c7 453e f86e 613c
00000290: 2417 c0bd 14d2 5f3d 4f36 5ebd 9897 623e
000002a0: 11c1 3d3b d2f6 0cbd bb65 34be 7e12 ddbd
000002b0: 1976 94bd 84aa 163e dc65 123d 927e 493e
000002c0: 0b43 b3bc 7445 963d 5788 db3d 3b8a 8bbe
000002d0: 67e7 203e 8767 27be 224e 643e c1f7 febd
000002e0: 7481 713e 24ba e0bd cdc4 753d b188 673d
000002f0: b265 6e3e 9ab0 16be 16e5 e139 cfb7 8c3d
00000300: 2ea5 33be d807 d3bd b733 d3bc 801c 383e
00000310: 92ea 19be 2a86 053e e8b8 4dbe 6b10 20be
00000320: 1eec 723e 0c42 36be ad6c e23d 542d 4ebd
00000330: bebb d93d 9196 85bb 28d8 333e 4cec 0d3d
00000340: 388b 28be 7840 b9bc cbf5 8e3a 9f00 bbbd
00000350: d296 313c 9027 303d 063e cbbb 4b12 4e3e
00000360: 2266 0b3c 7b0d 423e f01e a7bc 7adf b13d
00000370: 77d0 1c3e ec52 b33d 54f5 ecbb b225 42be
00000380: 2271 843d 8649 79be 385a 89be dd69 653d
00000390: 0d0b 6d3e a044 bbbc 4b8b 18bd 01df 9cbb
000003a0: 219d d2bd d4d4 a53c 3508 18bd 6c6a 4f3e
000003b0: 74f1 a3be 7911 30be 666a 4c3c 97a8 c13c
000003c0: 0bd1 2bbe 96c0 cabd 6942 9e3e 1d0e 30be
000003d0: 951a d3bd 50ec 173d f53d 833d 5044 d03d
000003e0: f14c 92be 1e59 263e dd42 113e f59e 07bd
000003f0: dde7 07bd 0287 593e 364a f0bb 0685 813e
0.13199113 -0.11421141 -0.08968805 0.15456864 0.26799488 0.06130433 0.43425763 0.12169615
-0.063041314 0.07389861 -0.18680288 0.05284999 -0.011238338 -0.020101674 0.0816359 -0.37111282
0.12950635 0.09070924 0.3696343 0.09652147 0.1482607 -0.083236255 0.07106389 -0.056688502
0.09335571 -0.058595646 -0.2759776 -0.17287832 -0.15212801 -0.073636405 -0.041322347 0.06816778
0.12730075 -0.19986114 -0.10082541 0.07003559 -0.077002555 0.053985983 0.042249113 -0.095110536
-0.15574324 -0.035298586 -0.09354847 -0.1473613 0.17245556 -0.15613043 -0.19007292 0.01911509
-0.2173131 -0.037828993 -0.13489392 -0.1525979 0.016360838 0.0795819 0.029853592 -0.18202339
0.14729233 -0.10899101 0.10067293 -0.2250213 0.054467794 -0.043539293 0.016135626 0.008095311
0.20034638 -0.2635171 0.11390263 -0.019803956 0.12810454 0.07380874 0.0037802374 -0.11385399
0.12235271 0.062712215 0.31944373 -0.14883707 -0.099481665 0.087424584 -0.00034548077 0.27610883
-0.045012817 0.10466456 -0.21932378 -0.1922379 -0.030783903 0.0013860833 0.1967387 -0.03914519
0.1758325 0.04962627 -0.017868796 0.052119527 -0.20790017 0.21606608 -0.091423266 -0.156138
0.061384626 0.049707565 0.105423875 -0.12951292 0.26144093 0.08173113 -0.20592822 -0.016641313
-0.08194276 -0.08431021 -0.36291605 -0.17214373 -0.02799858 0.22578786 -0.21901149 -0.010638779
0.005587744 0.015975842 0.050157145 0.17162707 -0.043519735 -0.04501759 0.16979212 -0.16026859
0.062019303 -0.102191076 -0.12247567 0.090445556 0.20948899 -0.21097717 0.17588077 0.053748786
0.22213985 0.14875728 0.077830285 0.041112527 0.20249747 -0.13296694 -0.16498385 0.18776053
0.020253567 0.067884095 -0.15029249 -0.10022085 0.08201656 -0.13170516 0.14324081 -0.07257719
0.11442814 -0.060819186 -0.08430321 0.111743204 0.12397535 -0.10827667 -0.16896036 -0.18290673
0.13223809 -0.057192314 -0.076083794 -0.06969298 0.082511894 0.14786477 -0.04121646 -0.07635291
0.02437244 0.1963988 0.19314243 0.013759367 -0.09379414 0.054643705 -0.05425101 0.22128141
0.0028954188 -0.034415074 -0.17616932 -0.10794543 -0.07249088 0.14713484 0.035741672 0.19677189
-0.021882555 0.07337466 0.10719364 -0.272539 0.15713273 -0.16348086 0.2229543 -0.12449599
0.23584539 -0.109730035 0.060002137 0.056526843 0.23280981 -0.14715806 0.00043086027 0.06870996
-0.1754348 -0.103042305 -0.025781495 0.17979622 -0.15030888 0.13039461 -0.20090067 -0.15631263
0.23722884 -0.17798632 0.110558845 -0.050336197 0.10631512 -0.004076787 0.17562926 0.03464918
-0.16459358 -0.022613749 0.0010906992 -0.09130978 0.010839181 0.04300648 -0.006202462 0.20124166
0.008508237 0.18950455 -0.020400494 0.08685203 0.15313898 0.087560505 -0.007231394 -0.18959692
0.06466891 -0.24344453 -0.26826644 0.056009162 0.23148747 -0.022859871 -0.037242215 -0.0047873263
-0.10283876 0.020243086 -0.0371172 0.2025544 -0.32020152 -0.17194165 0.012476539 0.02363996
-0.16778962 -0.09900014 0.30910042 -0.17192884 -0.103078045 0.0370906 0.06408302 0.101692796
-0.28574327 0.16244933 0.14185663 -0.033110578 -0.033180106 0.21242908 -0.0073330654 0.252968

transformer_encoder.layers.0.self_attn.out_proj.bias f4 [20]
00000000: f0b1 a5bc 0e5e 473d 380a 0b3d 7d80 1a3d
00000010: 3f5b ae3c bd3a ca3c 2203 a3bc 44db e73c
00000020: dfce 70bc 9a7b 94bc 7f21 963b ef49 32bd
00000030: 9c41 183d ec37 b0bd 76f8 123d 6c4b b2bc
00000040: b69b 18bb eca8 1cbd d52f 673c 751a b0bc
-0.020226449 0.048673682 0.033945292 0.037720192 0.021283744 0.024686212 -0.019898955 0.028302796
-0.014697759 -0.018125344 0.0045816298 -0.04352754 0.037171945 -0.08604416 0.035881482 -0.02176448
-0.002328617 -0.038247034 0.014110525 -0.02149699

transformer_encoder.layers.0.linear1.weight f4 [20, 20]
00000000: 4629 bfbd f53a 133e c88e 753d cd67 473e
00000010: fa6e b8bd 6776 b7bc a6fe 21be cf77 3c3e
00000020: c23f 0bbd 9943 42bb 18c2 f1bd 0cbe 263d
00000030: a56f 8c3d 434b 3b3d e0c4 f33c f21a b33d
00000040: 0e48 483e 261f 17be 53e4 6abd 35f6 e7bd
00000050: 9231 82be ca5a 403e 2da7 63be bd98 373d
00000060: 1c97 773d ce17 bfbc a75b 003d 9200 35be
00000070: 00f9 2a3e a67a 0abd fcb2 12bd f272 c23d
00000080: 5bef 6dbd 3d38 13be fc1b 1d3e 7211 483e
00000090: 6811 0d3e 4b14 60bd 02f5 f4bd f977 983d
000000a0: dd5b 2f3e 27b2 583e 2d1a 703e d3c7 463e
000000b0: 664b a53a c4e1 3a3e 4f74 603e c71f 66bd
000000c0: 7962 a7bd 2335 373d bc04 9dbe 84e6 193c
000000d0: b379 e73b 1638 d03d 1cfd 39be f313 4abd
000000e0: 0cb0 b4bd 0b08 4f3e 7291 313d fb1b bbbc
000000f0: 0aec 86bd 6e24 1cbe 155f 603d 8868 803e
00000100: bb9b 1bbd 27da 89bc a15f 92bd 2f9e 113e
00000110: 9d43 23be b9c0 94bd 3afa 0a3e 9947 2fbe
00000120: cf7a 1a3e 8b04 343d 6ee3 74bd 701d e03d
00000130: 56c7 d3bd 0842 47be 1d45 013d 9983 3a3e
00000140: 0d46 903d 3e4d 53be be2a bcbd 8e5e a4be
00000150: f3da 073e f28f b83e d9da 443c 8014 4abe
00000160: de0f c03b 4276 06be c71c 053d 525e cabd
00000170: a5b0 f9bd 565c 143e 3dbf 933d 54b8 74be
00000180: 9954 36be 1a4a 083d 2ba5 b53d 78a1 8abd
00000190: 86fe d1bc e50b efbe b5bb 28bb 18db 9dbd
000001a0: 3391 d43d fc50 9fbe cbdf cc3c 2935 a6bd
000001b0: c292 e3bd c25d 48bd 4b93 02bd a50e 31bd
000001c0: faec 1cbb ecb2 283c 6b85 3e3e 34c6 a53e
000001d0: a128 7cbd 54f6 9d3d acb0 6c3e f268 fe3d
000001e0: d43b a3bc 9185 f63d 7ad3 d6bd c972 4fbe
000001f0: 1473 173e 9ca6 b63e 8832 c4bd eb0b 6abe
00000200: e4c8 84bd ed04 153e 5c9a 14be 3e6c 73be
00000210: 3c91 58be 67f4 04be bacb 693d 54e1 6fbd
00000220: da01 0cbd 280d 813d 9172 c43c a213 75be
00000230: a0c7 593e 069d 2a3e 0e7b 89bd 13c2 ccbc
00000240: f278 bbbd 6038 633e 5d73 6cbe 7395 ab3d
00000250: 3203 88bd fe0c 63be d748 36be eab7 38be
00000260: 984f e53d 442c 6cbe 0bfb 053e 0794 36be
00000270: ded5 023d 2229 78be 5bc3 2dbe 625e c0bd
00000280: bc5d 19be 885b 463e b7d8 3e3e df9e 00be
00000290: 3277 963d 1afe 16ba 2b97 923d b1d0 8a3e
000002a0: a392 05be 6960 01be 2b0a 113e 57c4 7d3e
000002b0: aeb2 8bbd 8ee9 dc3d 5c2d 65bd 2e15 6cbe
000002c0: ef89 0f3e 2a06 94bd 4207 d03d cc2a f63d
000002d0: fd7b 623c 82ee 8bbe f67b 7dbc 2ea6 773e
000002e0: b60f 773e f42c 993d ad00 afbd 499f f73d
000002f0: c500 2f3d 6ddf 8ebd 329d ff3d 8ffb 163e
00000300: 28ee 123e 0204 22be 95ea c7bd 990a 29bc
00000310: 139b 17be 1e11 333e c81f aabd c219 dabc
00000320: bf7a 77bb 6808 363e 0b78 81bd 5a70 473e
00000330: ea28 473e 3257 24bd a618 0bbc 2619 b1bc
00000340: d785 6c3e 9f92 35be 31da 38be 3689 3dbe
00000350: be7f c23d 70fc c93d 473f c4bc b5c6 023e
00000360: dd86 07be 816e 43be 3608 983d 6b19 2bbe
00000370: c5ac 9f3d e54e 83be 64a0 6d3d 1f3d 3bbe
00000380: 48cb 6ebc c38c 74be 1173 ff3d 233f 16be
00000390: c233 d6bd 5838 e63d ca4c c6bc 55b0 34bd
000003a0: 69d4 3bbe e2b5 bb3b 9eb9 2c3e 5227 233e
000003b0: e56c 33be 76fe 2fbe acf4 063e a966 cc3d
000003c0: 4696 5a3d 4403 4b3e ab13 bdbc c9fc 333e
000003d0: d05b 7a3d 9e03 04bd 38d0 303e c402 463e
000003e0: ac5d 1c3e 2ec3 d23d cfc6 763c 1a93 2fbe
000003f0: d5b0 2abe cdd9 c03d dd93 d2bd 1d04 e9bd
-0.09334044 0.14377959 0.05995062 0.1947319 -0.09005542 -0.022395326 -0.15819797 0.18405078
-0.03399635 -0.0029642342 -0.118045986 0.040708587 0.06857232 0.045726072 0.029756963 0.08745374
0.19558737 -0.14757976 -0.057346653 -0.11326257 -0.25428444 0.18784633 -0.22231741 0.044823397
0.060446844 -0.02332678 0.031337406 -0.17675999 0.16696548 -0.033808373 -0.035815224 0.0949458
-0.058089595 -0.14376922 0.15342706 0.19537905 0.13776171 -0.054706853 -0.11960794 0.07444758
0.17124887 0.2116171 0.23447485 0.19412164 0.0012610971 0.18250185 0.21919368 -0.05618265
-0.08173079 0.04472841 -0.30667675 0.009393338 0.007064068 0.101669475 -0.1816296 -0.04933543
-0.08822641 0.20217912 0.043351598 -0.02284049 -0.0658799 -0.15248272 0.054778177 0.2507975
-0.037990313 -0.016827656 -0.07147146 0.14220499 -0.15943761 -0.072633214 0.13572016 -0.17117156
0.1508591 0.043949645 -0.059787206 0.10943115 -0.10340755 -0.19458783 0.031560052 0.18214263
0.07044611 -0.20634934 -0.0918784 -0.3210339 0.13267116 0.36047322 0.012015068 -0.19734383
0.0058612665 -0.1313105 0.032498147 -0.098812714 -0.121918954 0.14488348 0.0721421 -0.2389844
-0.17805709 0.033273794 0.08869394 -0.06769079 -0.025634062 -0.46688762 -0.0025746648 -0.077078044
0.10379257 -0.31116474 0.025009057 -0.08115608 -0.11111976 -0.04891754 -0.03187875 -0.043226857
-0.002394496 0.010296565 0.18605582 0.3237778 -0.061562184 0.07712999 0.2311427 0.124223605
-0.01992599 0.120371945 -0.10489555 -0.20258631 0.14789993 0.35673988 -0.095799506 -0.22856109
-0.06483629 0.1455266 -0.14512008 -0.2377176 -0.21149153 -0.12983857 0.057079054 -0.0585645
-0.034181453 0.063013375 0.02398041 -0.2393327 0.21267557 0.16661462 -0.06712924 -0.024994886
-0.09153928 0.22189474 -0.23090883 0.083781146 -0.066412345 -0.22172925 -0.17801224 -0.18038908
0.11196822 -0.23063761 0.13084047 -0.17829905 0.03194224 -0.24234441 -0.16969053 -0.09393002
-0.14977163 0.19370854 0.18637358 -0.12560605 0.073469535 -0.000575991 0.07157739 0.27112344
-0.13044219 -0.12634434 0.14164035 0.24781929 -0.0682119 0.107867345 -0.05595146 -0.23054954
0.14017461 -0.07227738 0.10157634 0.120198816 0.013823506 -0.27330405 -0.015471449 0.24184486
0.24127087 0.07479277 -0.08545051 0.12090928 0.042725343 -0.06976209 0.124811545 0.147444
0.14348662 -0.15821841 -0.0976154 -0.010317468 -0.1480525 0.17486998 -0.08306843 -0.02662361
-0.0037762371 0.17776644 -0.063217245 0.19476452 0.19449201 -0.04012222 -0.008489763 -0.021618437
0.23097931 -0.17731713 -0.18051983 -0.18509373 0.09497021 0.09862602 -0.023955954 0.12771113
-0.1323504 -0.19085123 0.07423441 -0.16708915 0.07796625 -0.2564613 0.05801429 -0.18285035
-0.014574833 -0.23881821 0.12473119 -0.14672522 -0.10459091 0.112412155 -0.024206538 -0.044113476
-0.18342747 0.005728469 0.16867682 0.15932968 -0.17522009 -0.17186913 0.13179272 0.09980518
0.05336597 0.19825464 -0.023080667 0.17576899 0.061122715 -0.032230012 0.17266929 0.19336993
0.15270108 0.10291134 0.015062048 -0.17145959 -0.16669019 0.09416542 -0.10282109 -0.11377738

transformer_encoder.layers.0.linear1.bias f4 [20]
00000000: 651a a8bd 3c66 d33d 6c90 3abe 3d6e 7bbd
00000010: 94ca 2a3e c193 ac3a 5f94 67be 647d 6dbe
00000020: 4a39 d73c f560 9e3d b36a e23d e546 95bc
00000030: 60c0 5d3d b9dd 45bd 633f f2bd f75e bcbd
00000040: f457 42be ae8b 1fbe d3bc 12be d473 57be
-0.08208159 0.10322234 -0.18219155 -0.06138443 0.1667884 0.0013166593 -0.22615193 -0.23192364
0.026272435 0.07733337 0.110555075 -0.018222282 0.05413854 -0.048307154 -0.11828496 -0.091978006
-0.18978864 -0.15580627 -0.14329843 -0.21040279

transformer_encoder.layers.0.linear2.weight f4 [20, 20]
00000000: e8ca 133d 5437 5abe c78b c8bd 1dce 5d3e
00000010: a979 4fbe df12 db3e fff8 903d cedf 2e3e
00000020: 56b1 1abe 45ec 813e 22df c73d a8ba a23e
00000030: 0c4e f1bd 6eb8 6e3c 7de9 463e 33f6 463e
00000040: 81fc 8c3e a051 bfbd b88e 48bd f4fa d33d
00000050: e3eb 0b3e 8772 673d 780d 30bd 4ad4 433d
00000060: 76ec 10bd fef2 843e 59d8 f43d c2c4 21be
00000070: 8e91 ff3d 2b9c 073c a39d d9bd fe35 c6bc
00000080: 89d3 093e dd4f 50bd 5b32 e53d 3a68 cfbd
00000090: e9bd f23b 15ea 26bb 737e d33b 762f 15bc
000000a0: 1730 443d fcb6 52bd 9977 4b3e 9ab4 efbd
000000b0: 7873 04be 1a13 833e 2bd1 ffbd 24d3 873e
000000c0: 9941 333e ba2d 233e 01ef 343c 8698 debc
000000d0: 1542 b23a 5336 4dbd 257a b73d 34a3 26be
000000e0: d0c0 9cbd 8b74 133d 557a 2a3d f95c 573d
000000f0: 9287 1c3e e81a 06bc 0301 5ebb dc52 b9bd
00000100: 1a65 e83c 6d12 1b3d 104f f53d 4b68 153e
00000110: c168 743b 2b98 17be 4988 263d 261d 86bc
00000120: 1e95 433d 49ca 0fba 345d 163e f03d 203e
00000130: 945f ccbd 08fd 4b3c 63c3 4e3d 80c0 d5bd
00000140: c91b 48bd 697e c53a 4093 2cbe be14 6c3d
00000150: c680 ae3d 7744 393e 2499 b13d 732c cb3d
00000160: 9d79 2c3e 14f9 f13d 23de 01be d2c5 d1bd
00000170: 64a9 da3d 83c1 4f3e 4f6f c5bd 62f9 853e
00000180: 399a e23d ce06 4dbe f3d8 5f3d 4b67 613d
00000190: f6ff 473e 6ea3 8f3d b33c 0abe df8d 16bd
000001a0: 7085 253d 2f6e 3d3e 3773 44be c173 f0bd
000001b0: 2154 97bd 28a6 8abc f629 203c 65d8 a73c
000001c0: 059b c63d 3ca3 b9bd d94b 2fbe 210c 46be
000001d0: 4dd0 5e3d bc04 493d a8ba 39bd 2ff8 173e
000001e0: 2afa 08be 2c49 b53d 3013 edbd 0fa6 323e
000001f0: f83e a5bc 4f2d d63d 9404 89bd eb42 123b
00000200: 6d4c a8be 6385 0f3e f22e fc3c d2a3 edbd
00000210: 9e21 c03d 2995 55be 2614 233d de69 873e
00000220: b1a8 e23d cced dd3c 5dd7 693c f91a 7d3c
00000230: 80c6 243e 1928 323e dad8 e93d 699c 21be
00000240: 966f 4e3e 608f 39be 4158 593e 312e eb3b
00000250: 24d4 523e e446 b83c 5874 213e d2d7 d63c
00000260: 837f 573d 950e d93d 19c4 153e b34a 35be
00000270: 83e9 b8bd b00b a33d cab8 bd3d 3838 d43d
00000280: 13bd 703d 6447 e53d 7493 2fbe 5aae 4e3e
00000290: 1fda 9fbd ab05 d93d 4580 94be ff97 843d
000002a0: 0835 52bc 8e92 393e 6b37 10be 1af3 29be
000002b0: cd55 e03d 6859 c0bd dc99 dd3c 0e89 0ebe
000002c0: 0b4e 7c3e ad0b 333e e9f9 e83d 1f1a 1c3d
000002d0: 538e f53d c88d 343e e112 033e a549 e23b
000002e0: a6f9 3cbe 811c 8ebe b167 7bbd 700c bcbd
000002f0: 6476 84bd a16d 8ebd 4ca1 6cbd 4f8b f0bc
00000300: 5dbf 253e 1708 7bbd f027 90bd a0b4 4dbd
00000310: 3648 743d 6905 c0bd 8b23 023e ec4f 79be
00000320: 4d30 04be ed88 78be 3933 c33d 3237 243e
00000330: e6c4 823e 9a02 16be 7dd9 593e 4a9d 603e
00000340: 068f c2bd 0b61 9e3d db7a 4f3e 695e a7bd
00000350: 1688 b93a 01c9 41bd afc7 1ebe 3931 3fbc
00000360: 944f 8cbe e1c0 fe3d 4910 86bd 2712 8bbe
00000370: 672e 473e 0532 1d3e 9381 f53a 02de 51be
00000380: f47d 243e cca4 13bb 0269 7d3e a8eb d2bd
00000390: 917e 143e 3a65 b83d 51f3 9e3d 8527 b4be
000003a0: 7b0f 94be 041a 483d 713e 1e3c a093 ff3d
000003b0: 1b5f a43d 54cd 09be 5bcc 083d 25fa 0ebe
000003c0: c60d 29bd 6692 35be 1edd f03d 2166 23be
000003d0: e36e f83c 5a76 28be 76c8 d4bd 8662 76bd
000003e0: 53b1 10be 06ed 71be 0ec0 21be f4e9 5bbe
000003f0: 7743 3c3e d1c5 0d3e 3370 f13c ef89 2c3e
0.03608218 -0.21310169 -0.097922854 0.21660657 -0.20261253 0.42787835 0.07078742 0.17077562
-0.15106711 0.25375572 0.09759356 0.31783032 -0.117824644 0.014570339 0.19425006 0.19429855
0.27536395 -0.093417406 -0.048964232 0.103506 0.13664202 0.056505706 -0.042981595 0.047809877
-0.035381757 0.25966638 0.119553275 -0.15797713 0.12478934 0.008276979 -0.1062577 -0.024195667
0.134596 -0.050857414 0.11191245 -0.101273015 0.007407893 -0.0025469114 0.006454283 -0.009105554
0.047897425 -0.05144404 0.19869842 -0.11704369 -0.12934673 0.2560051 -0.124910675 0.26528275
0.17505492 0.15935412 0.011043311 -0.027172338 0.0013600016 -0.050100636 0.08958844 -0.16273195
-0.076539636 0.035999816 0.04162057 0.0525789 0.15286091 -0.008185126 -0.0033875115 -0.09049007
0.028368521 0.03785937 0.119779706 0.14590566 0.0037293884 -0.14804141 0.040657315 -0.016371321
0.04774963 -0.000548516 0.14683992 0.15648627 -0.099791676 0.012450464 0.050479304 -0.10437107
-0.048854623 0.001506758 -0.16853046 0.05763697 0.08520655 0.18092524 0.086717874 0.099205874
0.16843267 0.11815086 -0.12682395 -0.10242809 0.1067684 0.20288663 -0.09640371 0.26166826
0.11064572 -0.20022127 0.05465026 0.05503015 0.19531235 0.070135936 -0.13499717 -0.036756393
0.04041046 0.18499063 -0.19184576 -0.11740828 -0.07389093 -0.016924933 0.009775629 0.020488927
0.096975364 -0.090643376 -0.17118777 -0.19340564 0.05439787 0.04907678 -0.045344025 0.14840768
-0.1337668 0.08851847 -0.11575925 0.17446159 -0.020171627 0.10457861 -0.06690326 0.0022317718
-0.32870808 0.14015727 0.030784104 -0.11603512 0.09381412 -0.20857681 0.039814137 0.26447958
0.110673316 0.02709093 0.014272538 0.015448325 0.16091347 0.17398109 0.11418314 -0.15782322
0.20159754 -0.181211 0.21225072 0.0071771373 0.20588738 0.02249474 0.15767038 0.026225958
0.05261184 0.105984844 0.14625587 -0.17704277 -0.09028914 0.079612136 0.09263761 0.103622854
0.058774065 0.11195257 -0.17146093 0.20183697 -0.07805275 0.10596784 -0.29004112 0.064743035
-0.012830026 0.18122312 -0.1408364 -0.16596642 0.10953865 -0.09392053 0.027050905 -0.1391947
0.24639146 0.17484923 0.113757916 0.03811085 0.11990037 0.1763221 0.1280017 0.006905752
-0.18454608 -0.27756122 -0.061378185 -0.0918206 -0.06467894 -0.06954504 -0.057771012 -0.029363303
0.1618628 -0.061287012 -0.070388675 -0.050221086 0.05963918 -0.09376032 0.12708871 -0.24346894
-0.1290905 -0.24270983 0.09531254 0.1603668 0.25540847 -0.1464943 0.21274371 0.21935001
-0.09499936 0.07733353 0.2026171 -0.08172304 0.0014154937 -0.047310833 -0.15505861 -0.01166945
-0.27404463 0.124391325 -0.06546075 -0.27162287 0.19451295 0.15351112 0.0018730633 -0.20494846
0.16063672 -0.0022528647 0.24747089 -0.10298854 0.14501406 0.090036824 0.07761253 -0.351864
-0.2891806 0.048852935 0.009658442 0.12479329 0.080259524 -0.13457233 0.033398014 -0.1396261
-0.0412729 -0.17731628 0.11760925 -0.15956928 0.030326312 -0.16451398 -0.103897974 -0.060152553
-0.14130144 -0.23625574 -0.1579592 -0.21475965 0.18385111 0.13844992 0.029472446 0.16849492

transformer_encoder.layers.0.linear2.bias f4 [20]
00000000: f020 e33d f5fe 493c 5678 563e 42e7 903b
00000010: e608 0e3e 255f f93c 96e2 dabc 8d15 05be
00000020: 11ee d83a 33ea 3cbd a5f9 513e e779 11bd
00000030: 186f 443d 1b8d 8b3d be7c 15bc d871 62bd
00000040: 91f9 1b3e 79c0 5dbd 4d3f 413e a6e8 e4bd
0.11090267 0.012328853 0.20944342 0.0044220993 0.13870582 0.030440876 -0.026719373 -0.12996502
0.0016550442 -0.046121787 0.20505388 -0.035516646 0.04795751 0.06814023 -0.009123979 -0.05528435
0.15231921 -0.054138634 0.18871804 -0.11177187

transformer_encoder.layers.0.norm1.weight f4 [20]
00000000: 933e ac3f e8f4 9b3f 1cc9 8b3f 443a 963f
00000010: 6bd1 803f 6e95 9a3f 2d21 893f 6b48 6d3f
00000020: 016a 833f e5f9 7c3f 69c1 7e3f e61f 863f
00000030: a9ba 653f c073 6e3f d7f6 7a3f 334c 483f
00000040: 97be 713f a3bb 883f 2ff3 7a3f 5c98 7c3f
1.3456596 1.2184114 1.0920749 1.1736531 1.0063909 1.2076852 1.071325 0.92688626
1.0266725 0.9881881 0.9951387 1.0478485 0.89737946 0.9314537 0.980329 0.7824127
0.9443144 1.0682262 0.9802732 0.9866998

transformer_encoder.layers.0.norm1.bias f4 [20]
00000000: ed93 e9bc 976d 683d 4bad 373d 44f3 833c
00000010: a0db cf3c 2203 2c3d 46f2 84bd dcad 643d
00000020: 6eb7 1c3c b045 6abd 9888 2e3d d10a 0abd
00000030: e300 7f3d ba5d 3bbd 5a91 4a3d da5b 32bd
00000040: 817f 8a3c 12e9 71bd 11eb 443d 6ddf 51bd
-0.02851292 0.056745138 0.044843 0.016107209 0.02537328 0.041995175 -0.064915225 0.055829868
0.009565217 -0.057195365 0.042610735 -0.03370172 0.062256705 -0.04574368 0.049455024 -0.043544628
0.016906502 -0.059060164 0.04807574 -0.051238466

transformer_encoder.layers.0.norm2.weight f4 [20]
00000000: f3cd b33f 9e60 693f 4d76 913f 88a6 813f
00000010: a77a 893f 0429 803f 0d3e 913f 5e77 703f
00000020: db74 8a3f 3cef 873f c0c3 763f be00 8c3f
00000030: 340d 653f 709d 783f 25a5 7b3f 49b0 503f
00000040: 8ee9 743f a271 8f3f c097 803f 4bd1 893f
1.4047226 0.9116305 1.1364228 1.0128946 1.0740556 1.0012517 1.1347061 0.9393214
1.0816911 1.0619884 0.9639244 1.0937726 0.8947327 0.9711523 0.98298866 0.8151899
0.95668876 1.1206553 1.004631 1.0766996

transformer_encoder.layers.0.norm2.bias f4 [20]
00000000: 0aa5 353c 6a27 8e3d 3806 9a3d 6093 a13d
00000010: 8206 813b 5f98 8abb 2dc9 66bd 0e9c b63d
00000020: b663 203c 131c 74bd c920 143d 37ab dcbc
00000030: 76ae f73c 5033 4cbb 6e46 a53d c764 ca3c
00000040: 093a b2bc a762 75bd d592 493d 68a8 2abd
0.011086712 0.069411114 0.075207174 0.07889438 0.0039375434 -0.00422959 -0.0563442 0.08916484
0.009789398 -0.059597086 0.03616408 -0.02693711 0.030234557 -0.0031158514 0.08070074 0.024706258
-0.021756189 -0.059908535 0.049212296 -0.04166451

transformer_encoder.layers.1.self_attn.in_proj_weight f4 [60, 20]
00000000: 27ba 0ebe 7518 8abe 4d7c 5b3e ecef 563d
00000010: 96e7 333e b5f3 773d a29e 23be 20f4 eb3d
00000020: 1ac1 0f3d 79f8 4e3d 0a3c 4abe 13e3 7a3e
00000030: dd6a 8fbe 8ea5 373e a9ed 813e 86e9 8a3e
00000040: 46de a83d 0cfc d2bd 8481 ebbb 2ad6 7c3c
00000050: e2da 673e eb46 8fbc d8d3 7ebe bef8 c73d
00000060: 68f9 9b3d 75be df3d 8984 283e cf59 8dbd
00000070: 6c27 573e 13d6 0fbd e563 81bb 2068 93bd
00000080: 9c31 cc3d 2a1c 98bd dad1 623e ba38 203e
00000090: be14 863e 7a87 a43c 8af6 2b3d 05c0 13be
000000a0: facb 583e 7e35 7cbe b23b ca3c 804b 8cbd
000000b0: c01d 753e 2b4c 6bbe 34ef 2a3e 9308 84be
000000c0: bc50 ba3c bceb dabd 95e2 40bd 286c 45bd
000000d0: c560 063d 1235 46be 8d4b ca3d 4edc 28be
000000e0: e52a 72bd df33 9cbe 5a6c aebd c724 bb3c
000000f0: a644 553d d057 573d 8d39 2bbe cc0f 8d3d
00000100: 8548 7e3e 7185 303e d2a6 babd 50d3 103e
00000110: aa9e 793c 21db 253c 5570 643d f082 fa3d
00000120: 9e4d 6bbe df80 afbd 692f 883c cc76 2d3e
00000130: 0e30 4cbe 5b37 e6bd 32e4 3cbc 4526 b13d
00000140: 318c 87be d811 183e c235 36be 7413 6d3e
00000150: 0756 73bd 5304 48bd 2d68 cc3b 348d ebba
00000160: ff45 663e f7e3 213e 5d00 6bbe a9b3 213e
00000170: 7d83 363e dc15 99bd 6783 4cbe 1d03 b0bd
00000180: 944d 64bd 791f 483d a32e dd3c 1faa 633e
00000190: ef2e 81bd 50ee 49bd 2d69 503e ac18 7dbe
000001a0: a549 c53d 09e3 233d 2bcf b73c b317 4a3e
000001b0: 53ac 39be 15a5 1fbe 7652 cc3d bc35 503e
000001c0: d12b 2fbd 4fc8 4bbd eb14 77be 594b 143e
000001d0: 7ca1 13be 9e21 5bbe d791 8dbd defe 41bd
000001e0: 9239 99bd e7e1 dd3d 31d7 ee3d b9cf 3b3d
000001f0: 11d9 2dbe 982c febd e345 3abd 7294 04be
00000200: 021b 34be 7b4c 0d3e ae89 f1bd e686 ad3d
00000210: a0b9 83bd 12eb 033e 98dc 2ebe d217 473e
00000220: 8349 2f3e a3e4 02be 9faf 87bb c4a7 04be
00000230: f907 833d a7de 4dbe 9c3f 1b3d 9588 ae3d
00000240: 79e1 a23e afde edbc 9335 80be 0b21 0abd
00000250: 48c1 25be ace7 03be f064 763d 3e70 5dbe
00000260: b6e5 243e a3d2 f23c 59d3 38be bea5 2cbe
00000270: 8b01 c53d e437 e2bc c770 8cbd f850 febd
00000280: 9383 2b3e 8b1f 7fbd 9773 5bbd 8041 313e
00000290: f696 fd3d 522d c0bd 4eb6 7bbe d523 403e
000002a0: 750e 84bb ff39 213e a496 30bd 71d5 293d
000002b0: aff0 5f3e 8d9a 0cbe d96b e33d 8019 243e
000002c0: c423 103e c859 5bbe 9176 823e 81cc 143e
000002d0: a8bc 19be 9b51 85bd 9a89 fc3d 9517 fd3d
000002e0: 7e0e 483e 38d0 4ebe a320 cbbd 9db0 1d3e
000002f0: 6464 cebd 9bc9 0bbe cd76 19be bded d9bd
00000300: dd28 3a3e 3c98 f3bc 033d bb3c 5efe 9a3b
00000310: f9ee 36be fc85 89bd 98e9 9cbd 28a7 c43c
00000320: 9a0b 0ebe 83ee 69be 6e7d 9fbb 0fdb 14be
00000330: 005c b03c aae9 ba3d 4427 833d aea3 2bbe
00000340: 85ba 3b3e e093 2e3e dc0a d13d 7e19 2bbc
00000350: 72c1 47bc bcd6 a33c d3ba 92bd 5b99 44bb
00000360: 2b72 d53c 3b63 803e fad8 e43d 276d e63d
00000370: 6d01 efbc f7d3 74be 3f1e 89be e073 5cbe
00000380: 7b44 3e3e 64f1 b9bd 957e a4bd 3b32 273d
00000390: e3ea 363c bc13 513e 6335 04be 5cf0 c33c
000003a0: 7f07 20be b161 7ebd 5788 34be 975f 0e3e
000003b0: 7e3b a23d ba88 0b3d 4eb1 6b3b 3a5c 8cbe
000003c0: d75f 9a3e 8ded f03d 10d0 6f3e 8996 85be
000003d0: effc 3abe 8771 edbd 7e74 81be 1d6e a93d
000003e0: 87e6 91bd fd7b 33be 64fe 0c3e 4dfe 453c
000003f0: 8ffd 8a3e d5ab 5e3e 4861 8a3e 5511 04bd
-0.13938199 -0.26971784 0.21434136 0.0524749 0.17568812 0.06053515 -0.15978482 0.115211725
0.035096265 0.05052993 -0.19749466 0.24500684 -0.28011218 0.17934248 0.25376633 0.2713129
0.0824552 -0.103019804 -0.0071870703 0.01543192 0.22642091 -0.017489871 -0.248855 0.09764241
0.0761593 0.10924999 0.16456808 -0.06901895 0.21011132 -0.035116266 -0.003948676 -0.07197595
0.099704 -0.07427247 0.22150365 0.1564664 0.261877 0.020084132 0.041983165 -0.14428718
0.21171561 -0.2462978 0.024686668 -0.06850338 0.2393713 -0.22978275 0.16692811 -0.25787792
0.022743575 -0.10689494 -0.047091085 -0.04819885 0.03280713 -0.19356182 0.098776914 -0.1649029
-0.05912294 -0.30508325 -0.0851676 0.022844685 0.05206742 0.05257398 -0.16721173 0.06887779
0.24832352 0.17238404 -0.0911385 0.1414311 0.015235582 0.010123045 0.05577119 0.122320056
-0.22978827 -0.08569502 0.01662417 0.16939849 -0.19940206 -0.11241027 -0.011529015 0.086498775
-0.26474145 0.14850557 -0.17793944 0.23151952 -0.059408214 -0.04883225 0.0062380047 -0.0017971159
0.22487639 0.15809618 -0.22949357 0.15791191 0.17823596 -0.074748725 -0.19972001 -0.08594344
-0.055738047 0.04885814 0.026999777 0.22232865 -0.0630778 -0.049299538 0.20352621 -0.24716443
0.09633187 0.04001144 0.022437653 0.19735603 -0.18132143 -0.15590318 0.09976666 0.20332998
-0.042766396 -0.049751576 -0.24129073 0.14481868 -0.1441707 -0.21399543 -0.06912582 -0.0473622
-0.07481684 0.10834103 0.11662138 0.045852397 -0.16977336 -0.12410849 -0.045476805 -0.12947252
-0.17588428 0.13798706 -0.117938384 0.084729955 -0.064318895 0.12882641 -0.17076337 0.1944268
0.17117886 -0.1278253 -0.0041408087 -0.12954623 0.06398005 -0.20104466 0.03790246 0.08522145
0.31812647 -0.029036848 -0.25040874 -0.03372292 -0.16187012 -0.12881345 0.060154855 -0.21624848
0.16103253 0.029641455 -0.18049373 -0.168601 0.09619435 -0.027614541 -0.06857448 -0.12417787
0.1674941 -0.06228594 -0.053577032 0.17310143 0.12382309 -0.09383644 -0.24581262 0.18763669
-0.0040300437 0.1574478 -0.043112412 0.04146332 0.21869157 -0.13730831 0.11104555 0.16025352
0.14076144 -0.21420968 0.25481084 0.14531137 -0.15013373 -0.06509706 0.12330933 0.123580135
0.19536778 -0.20196617 -0.09918334 0.15399404 -0.10077742 -0.13651125 -0.14986725 -0.10641048
0.1817965 -0.029735677 0.022856241 0.00473003 -0.17864598 -0.067150086 -0.07661742 0.024005488
-0.13871613 -0.22844891 -0.0048672473 -0.14536689 0.021528244 0.09126599 0.06403974 -0.16761658
0.1833287 0.17048597 0.102071494 -0.0104430895 -0.012192117 0.019999854 -0.0716454 -0.0029998634
0.026055416 0.25075707 0.111741975 0.11251288 -0.029175485 -0.23908983 -0.26780888 -0.21528578
0.1858081 -0.09079245 -0.08031956 0.040819388 0.0111644 0.20417684 -0.1291099 0.023918323
-0.1562786 -0.062104885 -0.17630135 0.13903652 0.079215035 0.03406594 0.0035963836 -0.27414113
0.30151245 0.11764059 0.23419213 -0.26091412 -0.18260549 -0.11593919 -0.2528419 0.082729556
-0.07124048 -0.17527767 0.13768917 0.012084556 0.27146575 0.21745236 0.27027345 -0.03224309

transformer_encoder.layers.1.self_attn.in_proj_bias f4 [60]
00000000: 715b 4c3c 7379 083c 827d f13c d4a1 8fbc
00000010: 4368 98bc 5412 5d3d 1ab8 04bb 530f 993c
00000020: aa62 113d 98a4 bcba 0b7a 35bc 935c 14bd
00000030: 762a b13b 98cb 15bb 4b8b ea3a ac99 0abb
00000040: 77f1 1dbc f42e 8ebd 4ced 80bb b872 473d
00000050: 778a 63b0 3215 d7b0 3355 9530 322f b2b0
00000060: 1447 d8b0 0950 7b31 a717 7330 abec f531
00000070: 5d73 d32e 053d b52f 9525 f2b0 cc95 66b1
00000080: f21e 2a30 34d8 0cb0 7d66 86b1 d8c8 2fb1
00000090: be34 1731 5e84 62b1 3799 4cb0 fc22 f3b0
000000a0: 7cc0 be39 5ab6 54bd 8ef4 c13c 6553 2dbc
000000b0: 32ff 8b3d 3700 3fbc b41b 023c 34c3 d73c
000000c0: 157d 5a3d 1d8f 31bc 7ba2 6b3c 2634 163c
000000d0: d9bb 9dbc 51f2 b9bc b305 70bd e1d1 a5bc
000000e0: 1362 263d 4080 0a3c 4284 02bd 9b4d 583c
0.012472973 0.008329737 0.029478792 -0.01753322 -0.018604403 0.053972557 -0.0020251335 0.018684065
0.035494484 -0.0014392314 -0.011076461 -0.0362211 0.005406673 -0.0022856947 0.0017894296 -0.0021148724
-0.009640089 -0.06942549 -0.003934538 0.04869339 -8.277889e-10 -1.5649333e-09 1.0865392e-09 -1.2964618e-09
-1.573627e-09 3.6570802e-09 8.8436497e-10 7.1573445e-09 9.615662e-11 3.2967065e-10 -1.7618499e-09 -3.3554555e-09
6.1889616e-10 -5.1238946e-10 -3.911565e-09 -2.5580018e-09 2.2003372e-09 -3.296257e-09 -7.44325e-10 -1.769052e-09
0.00036383036 -0.051931717 0.023676183 -0.010578965 0.06835784 -0.011657766 0.007941175 0.026338197
0.053341944 -0.0108373435 0.014382 0.009167707 -0.019254612 -0.022698553 -0.058599185 -0.02024168
0.040620875 0.008453429 -0.031864412 0.013202096

transformer_encoder.layers.1.self_attn.out_proj.weight f4 [20, 20]
00000000: d4d7 d83d 8524 56bc 4eeb 55bd fadb 023e
00000010: 6afb cb3e dfa5 09be e470 3c3e 4abc 5b3d
00000020: 7f78 32be 2800 063e 08ef 5dbe b5b6 263c
00000030: bc2f bfbd 3cab 3c3b a72f 5a3d f96a 8fbe
00000040: 2fa7 bd3c f729 573d 5d41 8e3e c51e 573d
00000050: cf3b c93d 4eb9 0fbe 4c37 983d dea7 a73d
00000060: bd32 f63d 0306 42bd 0756 9abe 7e05 64be
00000070: 8a48 93be 7185 64bd c85a 38bd 787f d53d
00000080: b8be fa3d ff14 a2be 1971 d2bd de4d e5bc
00000090: a8b4 58bd 17f1 733c b408 8b3d 70cc abbd
000000a0: 1756 06be a4c1 1e3d 8310 acbd 1f89 62be
000000b0: 129c 183e 128a a8bd 0119 2cbe 9827 e43c
000000c0: 8fbc 8dbe b2fc 06be e5f9 4dbe 8f4d 3abe
000000d0: 3370 b43d 4083 12bd c910 273d 6556 89bd
000000e0: f04f 183e f43f 0c3c 14ef 5f3d 2d15 cabd
000000f0: b0dd f73c 4f1b 023c 5862 c83c 2841 cf3c
00000100: 487d 2b3e 05e8 5ebe 8f74 db3d d3b1 233d
00000110: 439f e63d e226 8e3d 8775 183d 1194 06be
00000120: a4d3 973d 3ea9 053e 5a42 bd3e df51 17be
00000130: e884 cdbd 8353 453d 84dd e8bc 7f22 443e
00000140: 7a83 c6bb 4644 9c3c b934 5ebe 2292 21be
00000150: 2f98 8f3c 553a e8bd 852e 0a3e 7f13 05be
00000160: 0d56 193e 191e 583d 217b 83bd 88cd cf3d
00000170: 6ad0 2bbe fb95 383e 09d0 f0bd 67f9 18be
00000180: c1a3 8e3d f545 f63d 430c 133e e6a0 2bbd
00000190: a86e 4c3e 1862 e63c 7c63 42be 3e40 383d
000001a0: c05d ab3d b9f7 03be f22f 9abe e314 2fbe
000001b0: 5270 8dbd 528e 973e 9be7 8fbe 8d46 503d
000001c0: d521 05be 6881 aabb d736 353e a4cf 0b3e
000001d0: f0a5 b4bc 1d3e fcbd ebbc f53d d36c 0fbe
000001e0: 56e8 c53d e446 bbbd bfb4 24be fff9 163d
000001f0: 2924 313e 1e6f 40be 7010 413e e835 c73d
00000200: 380f cc3e 14ed 5c3e 00f9 c13d 69c9 583d
00000210: 1036 0f3e 025f f73d d13c a8be 0110 fd3d
00000220: 2ea0 ab3c c245 803b 7c0a 0abe 9bea 3fbe
00000230: 4bd5 8c3d 4dc5 0fbe 9959 223e ae22 b3bc
00000240: 144d de3d fa83 9dbd 4942 b2bd 582d fd3d
00000250: 5d3c a33d 5289 0fbe ecb2 35be f7d8 25be
00000260: 7647 353e 6f61 17be 9c20 c7bc e201 e2bc
00000270: cf3f 903d 616a 253e 0484 9ebc a84f bbbd
00000280: 75c9 b43d 0b90 fa3d 8bea 843e 8739 9abc
00000290: cb88 95bd f246 f63d 1972 ecbc 2ddd 4d3e
000002a0: 00c1 1e3d 1b23 09be 8f89 48be e36a 09be
000002b0: 999f 89bd 5128 153e 782e 1bbb 0fd6 183e
000002c0: 5d35 9ebb c0bf 243e a598 da3d c0c6 22be
000002d0: 138c 193e 632c 1ebe 0d79 813e b63d 52be
000002e0: 0c66 d73d 916e 603d 2e58 113e bc54 c73d
000002f0: 29fd 603e ee51 25be db23 f43d 4dc2 f63c
00000300: e2de 1dbe 9dd7 a33c c077 72bd 3f09 913d
00000310: 2dd1 fdbd 4036 b93d 7114 27be 5b29 5fbe
00000320: bd8e 5f3e 92a1 13be 02cf ca3c ce7d 1f3d
00000330: 639c 9b3d c410 19bd cfbf 443e fcad 9d3d
00000340: 9100 98bd dba4 153b d9af 263c 3bf1 34be
00000350: 84b3 273d de6e 78bc b876 713d d691 653e
00000360: 5707 de3c eec2 2c3e 7d10 6a3c 15ca 593c
00000370: 503e 2d3e 69a3 b73d 704b 43bc d61e 87be
00000380: 7950 3abd a296 c1bd 8605 f5bd f936 a63d
00000390: ebc6 8e3e 5fdd a4bd dfa5 53bc 91d6 703b
000003a0: cf61 c0bc 3b1a 003d 52e0 8dbb 1173 003e
000003b0: a6fd 6ebe 7169 47be ae87 a73d 1c8e f53c
000003c0: 081e 21be 9745 9bbd e930 6c3e 6933 20be
000003d0: 48f2 66be 5e62 cf3d 5748 073e 287b 323e
000003e0: 1373 0ebe 2b20 4e3e a31f 663e ede1 14bd
000003f0: b8d0 1c3d acfa 843e 24a6 42bc f140 8b3e
0.10588041 -0.01307023 -0.052226357 0.12779227 0.3984025 -0.13442181 0.1840244 0.053646363
-0.17428778 0.13085997 -0.21673214 0.010175397 -0.093352765 0.0028788587 0.0532681 -0.280113
0.023151008 0.052530255 0.27784243 0.05251958 0.09825861 -0.14035532 0.07432422 0.08186315
0.12021396 -0.047369014 -0.3014376 -0.2226772 -0.2876628 -0.055791322 -0.04500845 0.10424703
0.12243408 -0.31656644 -0.10275478 -0.027991232 -0.052906662 0.014889023 0.06788769 -0.08388603
-0.13118778 0.03875889 -0.08401587 -0.2212262 0.14903286 -0.0822946 -0.16806413 0.027850911
-0.2768292 -0.13182333 -0.20114858 -0.18193649 0.08810463 -0.0357697 0.040787492 -0.067059316
0.14874244 0.0085601695 0.054671362 -0.0986732 0.030257076 0.007941081 0.024460956 0.025299624
0.1674701 -0.21768196 0.10715591 0.03996451 0.112608455 0.0694101 0.037221458 -0.1314242
0.07413414 0.13052842 0.36964685 -0.14777325 -0.100351155 0.048175346 -0.02842594 0.19153784
-0.0060581537 0.019075524 -0.216998 -0.15778401 0.017528621 -0.11339251 0.13494308 -0.12995718
0.14974232 0.05276308 -0.06419969 0.10146624 -0.16778722 0.18025963 -0.117584296 -0.1493889
0.06964827 0.12025062 0.14360146 -0.04190149 0.19964087 0.028122947 -0.18983263 0.04498314
0.08367491 -0.12887467 -0.30114704 -0.17097811 -0.06906189 0.2960077 -0.28106388 0.050848532
-0.13001187 -0.0052034147 0.17696701 0.13653427 -0.022051781 -0.12316535 0.11998924 -0.14006357
0.09663455 -0.09144381 -0.16084574 0.03685951 0.1729895 -0.18792388 0.18853927 0.09727079
0.3985536 0.21574813 0.09471321 0.052926455 0.13985467 0.12078668 -0.328589 0.12356568
0.020950403 0.003914566 -0.13480562 -0.18741839 0.0687662 -0.14040108 0.15854491 -0.021867123
0.10854545 -0.07691188 -0.08704049 0.12362164 0.07970498 -0.14017227 -0.17744035 -0.16196047
0.17703041 -0.14783262 -0.024307542 -0.027588788 0.070434205 0.16153862 -0.01935006 -0.091460526
0.088274874 0.12234505 0.25960192 -0.01882626 -0.07301482 0.120252505 -0.028863 0.20103903
0.038758278 -0.13392298 -0.19583724 -0.1341968 -0.06719894 0.1456616 -0.002367882 0.14925407
-0.0048281387 0.16088772 0.10673646 -0.1589613 0.1499484 -0.1544662 0.25287667 -0.20531353
0.10517511 0.054792944 0.14193794 0.09732959 0.21971573 -0.16144535 0.119209014 0.030121947
-0.15417054 0.020000273 -0.059196234 0.07081842 -0.12393413 0.090435505 -0.16316392 -0.2179312
0.21831794 -0.14417103 0.024756912 0.038938336 0.07598188 -0.037369505 0.19213794 0.076992005
-0.07421983 0.0022833857 0.010173761 -0.17670147 0.040942684 -0.015163152 0.05895111 0.22418913
0.02710311 0.16871235 0.014286158 0.013292809 0.16918302 0.08966715 -0.011919841 -0.26390713
-0.0454869 -0.09452559 -0.11963944 0.08115954 0.27886137 -0.08050036 -0.012917965 0.0036748985
-0.023484139 0.031275015 -0.0043297196 0.12543894 -0.23338947 -0.19473816 0.08180176 0.02997499
-0.15734112 -0.075816326 0.23065533 -0.15644611 -0.2255336 0.10126184 0.13211189 0.17429793
-0.13911085 0.20129459 0.22473006 -0.036348272 0.038284987 0.25972497 -0.011880431 0.27197984

transformer_encoder.layers.1.self_attn.out_proj.bias f4 [20]
00000000: 67ea 753d 1ba5 1e3d 0760 f6bc 2398 443d
00000010: 1b44 56bd 63b6 49bd 47ca b4bc 0032 3f3d
00000020: 9d2a 603c d49b 623d 9aaf bc3b 5622 1bbd
00000030: 1006 17bd a019 51bd 44ab 3e3d f8e3 53bc
00000040: fd87 33bd 5ffa 023c 53f2 4bbc 9d9e d43c
0.060037997 0.038731676 -0.030075086 0.04799665 -0.052311044 -0.049246203 -0.02206911 0.046678543
0.013682035 0.05532439 0.005758238 -0.037874542 -0.036871016 -0.05104983 0.04655005 -0.01293277
-0.04383086 0.007994263 -0.012447911 0.025954539
