model_epoch_66.pt (torch, 431970 bytes, 28 tensors)

pos_encoder.pe f4 [5000, 1, 20]
000000 00 00 00 00 00 00 80 3f 00 00 00 00 00 00 80 3f
       0.0 1.0 0.0 1.0
000010 00 00 00 00 00 00 80 3f 00 00 00 00 00 00 80 3f
       0.0 1.0 0.0 1.0
000020 00 00 00 00 00 00 80 3f 00 00 00 00 00 00 80 3f
       0.0 1.0 0.0 1.0
000030 00 00 00 00 00 00 80 3f 00 00 00 00 00 00 80 3f
       0.0 1.0 0.0 1.0
000040 00 00 00 00 00 00 80 3f 00 00 00 00 00 00 80 3f
       0.0 1.0 0.0 1.0
000050 a5 6a 57 3f 41 51 0a 3f 3d 7d c6 3e da fa 6b 3f
       0.841471 0.54030234 0.38767424 0.92179644
000060 4e 9d 21 3e a0 ca 7c 3f 65 22 81 3d 97 7d 7f 3f
       0.15782663 0.9874668 0.06305388 0.9980101
000070 8a c0 cd 3c 53 eb 7f 3f 57 d6 23 3c b9 fc 7f 3f
       0.025116224 0.9996845 0.009999833 0.99995
000080 90 73 82 3b 7b ff 7f 3f 28 bc cf 3a eb ff 7f 3f
       0.0039810613 0.9999921 0.0015848922 0.99999875
000090 d4 66 25 3a fd ff 7f 3f f5 b1 83 39 ff ff 7f 3f
       0.0006309573 0.9999998 0.00025118855 0.99999994
0000a0 b7 c7 68 3f 33 11 d5 be 76 f7 36 3f 04 0d 33 3f
       0.9092974 -0.41614684 0.71471345 0.69941735
0000b0 c5 96 9f 3e 18 3f 73 3f 9d e0 00 3e e3 f6 7d 3f
       0.31169716 0.9501815 0.12585683 0.99204844
0000c0 ec af 4d 3d 51 ad 7f 3f 3e d4 a3 3c e5 f2 7f 3f
       0.0502166 0.99873835 0.019998666 0.9998
0000d0 4d 73 02 3c ec fd 7f 3f 17 bc 4f 3b ac ff 7f 3f
       0.00796206 0.9999683 0.0031697804 0.999995
0000e0 d2 66 a5 3a f3 ff 7f 3f f5 b1 03 3a fe ff 7f 3f
       0.0012619144 0.9999992 0.0005023771 0.9999999
0000f0 c3 81 10 3e 26 70 7d bf 48 12 6e 3f e5 3b bc 3e
       0.14112 -0.9899925 0.92996645 0.36764446
000100 ce 5e ea 3e a8 9a 63 3f b9 ac 40 3e 6f 6d 7b 3f
       0.45775455 0.8890786 0.18815888 0.9821386
000110 2d 2f 9a 3d 03 46 7f 3f 1f b9 f5 3c 83 e2 7f 3f
       0.07528529 0.99716204 0.0299955 0.99955004
000120 49 ac 43 3c 53 fb 7f 3f fc cc 9b 3b 42 ff 7f 3f
       0.011942931 0.99992865 0.0047546607 0.9999887
000130 36 1a f8 3a e2 ff 7f 3f ef 8a 45 3a fb ff 7f 3f
       0.001892871 0.9999982 0.00075356563 0.9999997
000140 cf bd 41 bf 30 55 27 bf ab f0 7f 3f ce 32 b1 bc
       -0.7568025 -0.6536436 0.99976605 -0.02163067
000150 72 a3 17 3f b0 41 4e 3f 8a b4 7f 3e d4 e3 77 3f
       0.5923377 0.8056898 0.24971214 0.96832013
000160 7d 6d cd 3d 7a b5 7e 3f db cb 23 3d 94 cb 7f 3f
       0.10030649 0.9949566 0.039989334 0.9992001
000170 3e 72 82 3c b1 f7 7f 3f d3 bb cf 3b af fe 7f 3f
       0.015923616 0.9998732 0.006339529 0.9999799
000180 c9 66 25 3b cb ff 7f 3f f4 b1 83 3a f8 ff 7f 3f
       0.0025238267 0.99999684 0.0010047541 0.9999995
000190 10 7c 75 bf 2c 3c 91 3e 28 c7 69 3f ce a6 d0 be
       -0.9589243 0.2836622 0.91319513 -0.40752262
0001a0 6e 4a 36 3f 2c bd 33 3f eb db 9e 3e aa 5d 73 3f
       0.7120732 0.7021053 0.3102716 0.95064795
0001b0 4f 45 00 3e cd fb 7d 3f f4 b6 4c 3d 19 ae 7f 3f
       0.12526439 0.9921234 0.049979165 0.99875027
0001c0 cf 0d a3 3c 04 f3 7f 3f 44 d5 01 3c f1 fd 7f 3f
       0.019904045 0.9998019 0.007924382 0.9999686
0001d0 74 c0 4e 3b ad ff 7f 3f 6f 9e a4 3a f3 ff 7f 3f
       0.0031547816 0.99999505 0.0012559424 0.9999992
0001e0 8c 0f 8f be b8 cd 75 3f 20 0d 2f 3f fd cb 3a bf
       -0.2794155 0.96017027 0.683794 -0.7296751
0001f0 a7 5f 50 3f 47 b7 14 3f b7 3b bd 3e 8f df 6d 3f
       0.81395954 0.5809216 0.3695962 0.9291925
000200 29 bf 19 3e 1a 19 7d 3f d1 9c 75 3d 12 8a 7f 3f
       0.15014328 0.98866427 0.059964005 0.99820054
000210 b7 a8 c3 3c 4e ed 7f 3f 88 cc 1b 3c 09 fd 7f 3f
       0.02388416 0.99971473 0.009509213 0.99995476
000220 19 1a 78 3b 88 ff 7f 3f eb 8a c5 3a ed ff 7f 3f
       0.0037857352 0.99999285 0.0015071308 0.99999887
000230 46 30 28 3f bd ff 40 3f fd e3 b1 3e 31 0d 70 bf
       0.6569866 0.75390226 0.34744254 -0.9377013
000240 c0 3b 65 3f 26 ee e3 3e b9 da da 3e 1a 6f 67 3f
       0.89544296 0.4451763 0.42744997 0.904039
000250 2d 20 33 3e 86 0d 7c 3f 32 3e 8f 3d 81 5f 7f 3f
       0.17492743 0.98458135 0.06994285 0.997551
000260 d4 42 e4 3c 8e e6 7f 3f b4 c3 35 3c f8 fb 7f 3f
       0.027863897 0.99961174 0.011094023 0.9999385
000270 db b9 90 3b 5c ff 7f 3f 65 77 e6 3a e6 ff 7f 3f
       0.004416687 0.9999902 0.001758319 0.99999845
000280 95 46 7d 3f f6 fd 14 be 31 28 31 bd ac c2 7f bf
       0.98935825 -0.14550003 -0.04325122 -0.9990642
000290 dc 58 74 3f 1d b7 98 3e c2 9a f7 3e db 12 60 3f
       0.9544809 0.29827204 0.48360258 0.8752877
0002a0 42 64 4c 3e 3c d9 7a 3f 50 aa a3 3d 66 2e 7f 3f
       0.1996012 0.97987723 0.07991469 0.99680173
0002b0 02 6e 02 3d c4 de 7f 3f c1 ba 4f 3c bb fa 7f 3f
       0.031843193 0.9994929 0.012678803 0.9999196
0002c0 a7 66 a5 3b 2a ff 7f 3f ef b1 03 3b de ff 7f 3f
       0.0050476375 0.99998724 0.002009507 0.999998
0002d0 32 01 d3 3e d5 3f 69 bf 5c b7 da be 75 77 67 bf
       0.4121185 -0.91113025 -0.42718017 -0.9041665
0002e0 00 56 7d 3f 39 58 13 3e 43 af 09 3f 52 d2 57 3f
       0.9895935 0.14389123 0.53783053 0.843053
0002f0 54 87 65 3e 6e 7c 79 3f 3e 12 b8 3d c2 f6 7e 3f
       0.22414905 0.9745549 0.089878544 0.9959527
000300 12 ba 12 3d f0 d5 7f 3f ad b1 69 3c 55 f9 7f 3f
       0.03582198 0.9993582 0.014263553 0.99989825
000310 6e 13 ba 3b f1 fe 7f 3f 2c 28 14 3b d5 ff 7f 3f
       0.0056785857 0.99998385 0.0022606952 0.99999744
000320 f8 44 0b bf 64 cd 56 bf 23 8a 3e bf 43 f8 2a bf
       -0.5440211 -0.8390715 -0.7442953 -0.6678507
000330 7d f9 7f 3f ba f4 66 bc e0 04 17 3f e6 b5 4e 3f
       0.99990064 -0.014096433 0.58991814 0.80746305
000340 53 85 7e 3e 54 f7 77 3f 76 75 cc 3d 98 b8 7e 3f
       0.24855547 0.9686177 0.099833414 0.9950042
000350 8a 05 23 3d 13 cc 7f 3f 39 d4 81 3c c5 f7 7f 3f
       0.039800204 0.9992077 0.015848266 0.9998744
000360 30 c0 ce 3b b2 fe 7f 3f 67 9e 24 3b cb ff 7f 3f
       0.0063095316 0.9999801 0.002511883 0.99999684
000370 5c ff 7f bf 72 05 91 3b 58 eb 71 bf c9 76 a7 be
       -0.9999902 0.004425698 -0.9449973 -0.32707813
000380 65 32 7c 3f 27 da 2f be 9f c0 23 3f e2 c6 44 3f
       0.98514396 -0.17173062 0.6396579 0.7686597
000390 1c ad 8b 3e 2d 4a 76 3f 72 d3 e0 3d e8 73 7e 3f
       0.2728051 0.96206933 0.1097783 0.9939561
0003a0 59 50 33 3d 2c c1 7f 3f 86 cf 8e 3c 0a f6 7f 3f
       0.043777797 0.9990413 0.01743294 0.999848
0003b0 ed 6c e3 3b 6c fe 7f 3f a2 14 35 3b c0 ff 7f 3f
       0.006940475 0.9999759 0.0027630706 0.9999962
0003c0 d8 5c 09 bf d0 06 58 3f 0b 76 7f bf e1 d0 84 3d
       -0.53657293 0.84385395 -0.99789494 0.06485153
0003d0 f5 18 72 3f 4d 6e a6 be 89 d5 2f 3f 63 0f 3a 3f
       0.9456933 -0.32506028 0.68685204 0.7267973
0003e0 fe 00 98 3e 3e 75 74 3f ac 2b f5 3d b5 28 7e 3f
       0.29688257 0.954914 0.119712204 0.99280864
0003f0 6d 9a 43 3d 3b b5 7f 3f ba ca 9b 3c 26 f4 7f 3f
       0.047754694 0.9988591 0.019017566 0.99981916

transformer_encoder.layers.0.self_attn.in_proj_weight f4 [60, 20]
000000 75 89 1d be 84 c6 72 be 34 f5 5a 3e cc e3 87 3d
       -0.15384467 -0.2370854 0.213826 0.06635246
000010 06 8b 3c 3e c7 4e 96 3d f4 06 35 be df b9 01 3e
       0.18412408 0.07339244 -0.17678434 0.1266856
000020 8c 7c 42 3c 8d 47 40 3d 0c 76 52 be f5 b5 6f 3e
       0.011870515 0.046943236 -0.20552844 0.23409255
000030 e5 bf 8a be 4e a0 37 3e 64 8a 86 3e 0d a5 86 3e
       -0.2709953 0.17932245 0.2627746 0.262978
000040 dc 2f 9a 3d ca 07 d8 bd 78 82 3c bc ee 5a 1b bc
       0.0752866 -0.10548361 -0.011505716 -0.009482129
000050 45 89 76 3e d4 f8 74 bd b0 0c 86 be 3b 4a cb 3d
       0.24075802 -0.059807613 -0.26181555 0.09926268
000060 00 0b 7a 3d 76 fc e4 3d ec 48 24 3e 04 8d b0 bd
       0.061045647 0.111809656 0.16043442 -0.086206466
000070 a4 b0 6c 3e 82 12 32 bd ed 4b 00 3b a2 a8 be bd
       0.23114258 -0.04347468 0.0019576505 -0.09309508
000080 5c d7 d0 3d 92 46 cd bd ef 2a 6a 3e f2 39 22 3e
       0.101973265 -0.10023226 0.2286794 0.15842417
000090 26 7e 86 3e 71 d3 9c 3c e2 03 17 3d 38 34 fe bd
       0.2626812 0.019143792 0.036868937 -0.12412304
0000a0 c4 94 11 3e 73 7e 14 be bb df 59 3c 0c 26 74 bd
       0.14216906 -0.14501362 0.01329797 -0.059606597
0000b0 8f ab 75 3e 99 e8 59 be 16 63 39 3e a6 42 67 be
       0.23991226 -0.21280135 0.18104205 -0.22584018
0000c0 3a 44 62 bb 93 ee a4 bd 7a 9c 82 bd 45 0a 51 bd
       -0.003452553 -0.08053317 -0.06377502 -0.051035184
0000d0 5b 7a 41 3d df e8 22 be 02 cc db 3d 80 d4 34 be
       0.047235828 -0.15909146 0.10732271 -0.17659187
0000e0 fd f3 81 bd e1 df 8d be dd 17 b7 bd 92 93 ca bc
       -0.06345365 -0.2770987 -0.089400984 -0.02472857
0000f0 2a c5 cb 3d 1e bf 19 bc 4c 83 13 be 47 32 ae 3d
       0.099497154 -0.009383945 -0.14405555 0.085056834
000100 1b 19 5e 3e c1 97 23 3e b3 a1 e6 bd d6 40 d8 3d
       0.21689264 0.15975858 -0.112613104 0.105592415
000110 ab 47 ef 3c 70 fd 38 bc e7 68 7f 3d ce 07 ff 3d
       0.029208979 -0.011290893 0.062355902 0.124526605
000120 52 ae 75 be 92 e1 01 be e7 77 e8 3c 0f f9 3f 3e
       -0.23992279 -0.12683704 0.028377486 0.18747352
000130 f9 5e 3d be 1a cf 00 be 30 c8 87 bc dd 14 02 3e
       -0.1849326 -0.12579003 -0.016574949 0.12703271
000140 8a 90 73 be 36 d8 e6 3d 80 14 37 be 95 10 7d 3e
       -0.23785606 0.11271708 -0.17878914 0.24713357
000150 55 ae 8c bd 82 93 89 bd a3 c5 87 bc 19 2e a9 bc
       -0.06869189 -0.06717588 -0.016573733 -0.020651864
000160 77 8a 6d 3e e8 f8 05 3e 4f a7 66 be a0 69 0f 3e
       0.23197351 0.13083231 -0.2252476 0.14005136
000170 ac b1 28 3e b1 3e d5 bd 42 85 4d be 40 2c b9 bd
       0.16474026 -0.10412348 -0.20070365 -0.09041643
000180 22 28 65 bd 48 4a 10 3d 6b 97 a9 3c b3 1c 80 3e
       -0.055946477 0.03522709 0.020702085 0.25021896
000190 7d 34 99 bd 41 f8 30 bd 4e 7f 42 3e da 60 5f be
       -0.074807145 -0.043205503 0.18993875 -0.2181429
0001a0 03 c8 31 3d 3f 58 13 3d f9 71 95 3d 2d a2 3c 3e
       0.043403637 0.03597283 0.07297129 0.1842124
0001b0 f7 3b 58 be 91 f6 dd bd a5 31 76 3d 12 ca 5b 3e
       -0.21116625 -0.108380444 0.06010594 0.21463802
0001c0 65 12 0b bd 04 4b 9d bd 3a 47 76 be 4e 22 30 3e
       -0.03395309 -0.07680324 -0.24050608 0.17200586
0001d0 f7 e7 20 be 6d d0 25 be 1b 61 e1 bd e2 a4 c2 bc
       -0.15713488 -0.1619279 -0.110048495 -0.023760263
0001e0 f5 19 ce bd f6 e2 ca 3d 3a 0d 69 3e a7 61 d8 3c
       -0.10063545 0.099065706 0.22758952 0.026413752
0001f0 b1 15 3b be 95 74 13 be 81 bc a0 bc 09 76 07 be
       -0.18269993 -0.14399941 -0.019621136 -0.1322862
000200 11 97 8e bd a3 06 17 3e 5d 62 bc bd 05 d8 f4 3d
       -0.069624074 0.14748625 -0.09198449 0.11955265
000210 44 f7 fb bc 2d a5 0d 3e 28 31 07 be 53 11 79 3e
       -0.030757554 0.13832541 -0.13202345 0.24323015
000220 51 ef 5b 3e 6b 94 03 be ab 50 cf 3b b4 3b e4 bd
       0.2147801 -0.12849586 0.006326755 -0.111442
000230 9d 8e 56 3e cc df 0b bf 64 38 70 3d 46 13 2f 3d
       0.2095284 -0.5463836 0.05864753 0.04274299
000240 e7 2b 96 3e 52 e4 30 bd 7c 1c 3d be 5b 28 40 bd
       0.2933037 -0.043186493 -0.18467897 -0.046913486
000250 9b f7 f5 bd 37 c1 6d bd 0d 5f 5c 3d 85 e1 39 be
       -0.120101176 -0.058045592 0.053801585 -0.18152435
000260 46 6e 32 3e 05 08 66 bc 09 2d 58 be 7f 00 12 be
       0.17424878 -0.014039998 -0.2111093 -0.14258002
000270 84 71 d5 3d c5 2a 2e 3c fe 2c 13 bd a9 16 e0 bd
       0.10422042 0.010630314 -0.03593158 -0.10941822
000280 57 4f f4 3d 36 42 e4 3d 1e 7a 02 bd a9 06 4e 3e
       0.119291954 0.11145441 -0.03185474 0.20119728
000290 ce 71 e7 3d b5 37 a9 bd eb 1b 85 be 82 06 48 3e
       0.113010034 -0.082625784 -0.25997862 0.19533733
0002a0 e1 c2 7b bc 4c 71 11 3e 98 f5 26 bd 4d b9 7f 3d
       -0.015366287 0.14203376 -0.04076156 0.062432576
0002b0 4f 4f 6a 3e 86 2d ab bd 22 e1 0e 3e de cd 40 3e
       0.22881816 -0.08358292 0.13953069 0.18828532
0002c0 d8 bd 14 3e 9d e6 63 be 8c b0 80 3e 65 62 17 3e
       0.14525545 -0.2225594 0.25134695 0.14783628
0002d0 c2 45 b1 bd 16 c2 3b be 7c 50 8b 3d b4 5a d9 3d
       -0.08655883 -0.18335757 0.068024606 0.106130034
0002e0 ae 65 3e 3e eb 3f 26 be 19 9f bf bd b6 3f 0e 3e
       0.18593475 -0.1623532 -0.09356517 0.13891491
0002f0 c2 6c 28 be 4a f0 e2 bd a7 e3 4c be 92 46 f5 bd
       -0.16447738 -0.11080988 -0.20008717 -0.11976351
000300 35 cd 27 3e 9c cd 6d bd 26 55 94 bc 46 c4 6e bc
       0.16386874 -0.058057413 -0.018107008 -0.014573162
000310 ad 09 54 be b4 c4 47 bd 5b 16 8b bd 5f 63 15 3c
       -0.20706816 -0.048771575 -0.06791373 0.00911793
000320 39 61 2c be 9c 09 82 be cb 7f 46 3d bf fb 46 be
       -0.16833963 -0.25397956 0.048461717 -0.19431971
000330 b0 de f9 bb 96 2e 13 3e 47 14 a7 3c 9b a4 4b be
       -0.0076254234 0.1437324 0.020395411 -0.19887011
000340 88 a0 5c 3e 20 9d 14 3e 96 8c fc 3d b6 61 13 3d
       0.21545613 0.14513063 0.12331502 0.035981856
000350 ea 54 0a bd 28 14 69 3c f4 be 46 bd dc 2c b9 3c
       -0.033772387 0.014225997 -0.04852195 0.022604398
000360 2d f2 6a 3d 33 71 6d 3e ef ec ef 3d e1 ba 06 3e
       0.057359863 0.23187713 0.11715113 0.13157226
000370 be d6 9c 3c b9 7a 95 be 34 41 4a be 89 ab 6a be
       0.019145366 -0.29195192 -0.19751436 -0.22916998
000380 ad db 42 3e db b3 c8 bd 34 3c 19 be 12 88 45 3d
       0.19029112 -0.0979993 -0.14964372 0.04822547
000390 ce 28 cb 3c 1e f2 1d 3e 64 37 d0 bd c5 9f 4c 3d
       0.02479973 0.15424392 -0.10166815 0.049957056
0003a0 80 42 4b be 9a 05 94 bd 2d 7c 34 be fe f0 00 3e
       -0.19849586 -0.07227631 -0.17625494 0.12591931
0003b0 f8 db d3 3d 3e 27 aa bc 9c ad 91 3c c8 36 8b be
       0.1034469 -0.020770665 0.017782979 -0.27190232
0003c0 b5 cb 9a 3e cc a1 02 3e 21 b1 61 3e 07 de 6d be
       0.3023354 0.12757033 0.22040226 -0.23229228
0003d0 47 6b 42 be 86 91 14 be 80 8f 6f be 08 24 bb 3d
       -0.18986236 -0.14508638 -0.23394585 0.09137732
0003e0 08 81 a8 bd a6 a8 29 be 67 ea f5 3d b0 32 4a bc
       -0.08227736 -0.1656824 0.12007599 -0.012341186
0003f0 31 47 8c 3e 54 50 51 3e 0d c6 86 3e 45 3c 4f bd
       0.27398065 0.20440799 0.26322976 -0.050594587

transformer_encoder.layers.0.self_attn.in_proj_bias f4 [60]
000000 fd a7 85 bc 78 e4 3a 3b 78 9c 75 bb 68 80 21 3a
       -0.016315455 0.0028517526 -0.0037477296 0.00061607966
000010 30 28 20 bc b7 62 7b 3c 77 68 1b 3d ca 77 2a 3d
       -0.009775206 0.01534336 0.037941422 0.041618146
000020 2a bc d5 3c ed c6 09 bc a3 24 ab 3c 57 2e 5a bc
       0.0260907 -0.008409244 0.020891493 -0.013316712
000030 6c 48 9d bc ab 88 ce bc c6 69 85 3c 15 49 56 3c
       -0.019199573 -0.025211653 0.016285788 0.013078948
000040 76 99 49 bc c6 3b 34 bd 40 13 88 3b 1b ff 48 3d
       -0.012304654 -0.044002317 0.0041526854 0.049071413
000050 9e 82 50 b1 1e 01 97 30 00 90 91 2e 2c d2 3c b1
       -3.034223e-09 1.0987014e-09 6.619416e-11 -2.747707e-09
000060 63 50 10 31 1e ee 99 32 7e ce be 31 36 5f 94 31
       2.1000452e-09 1.7919827e-08 5.5532032e-09 4.318191e-09
000070 2b f6 08 32 a3 2a b3 31 fb 17 08 2e 4e 13 d4 2f
       7.972214e-09 5.214433e-09 3.094412e-11 3.8576292e-10
000080 8f fe c8 2e 71 85 74 b0 31 3b 79 b1 76 a4 77 31
       9.140166e-11 -8.8956315e-10 -3.6267915e-09 3.6036716e-09
000090 bb 61 c6 b1 82 8f 75 31 d1 47 45 31 d6 31 37 31
       -5.773669e-09 3.5733767e-09 2.8708096e-09 2.6658333e-09
0000a0 66 74 43 bd e2 56 54 3d ca 2d cd bc aa 9e 8d bc
       -0.047718428 0.05184067 -0.025046248 -0.017287571
0000b0 ca c3 65 3d bb 73 ab 3d d1 aa 34 3b d1 79 82 3d
       0.056094922 0.08371683 0.0027567635 0.06370891
0000c0 5e 58 61 3d ad ba 0e 3c 3f 73 9e bc c3 71 39 3c
       0.055015914 0.008711499 -0.019342063 0.011318627
0000d0 e3 54 87 bd 06 ad 94 3d cd b2 94 3c ea d0 95 3d
       -0.06607988 0.07259564 0.018151665 0.07315238
0000e0 79 39 2f 3d 12 56 2b 3d 0b 50 21 3c 58 ef 80 bc
       0.04277942 0.04183013 0.009845744 -0.015739128

transformer_encoder.layers.0.self_attn.out_proj.weight f4 [20, 20]
000000 e8 f5 0d 3e 80 ea d7 bd 9e 2c a2 bd 8a 95 0b 3e
       0.13863337 -0.10542774 -0.07918666 0.13631263
000010 55 29 83 3e 46 70 17 3d 0f 14 c0 3e e8 3a dd 3d
       0.2561747 0.036972307 0.37515303 0.10802251
000020 80 35 92 bd 69 43 79 3d fe 0e 40 be b6 b3 73 3d
       -0.071391106 0.060855303 -0.18755719 0.059497558
000030 a9 53 81 bc 71 d1 45 bc aa cd af 3d 25 6a b4 be
       -0.015786963 -0.0120738605 0.08584149 -0.35237232
000040 78 bd cb 3d e9 90 a1 3d 25 e2 b1 3e 77 5b 9a 3d
       0.09948248 0.078889675 0.34742847 0.07536977
000050 46 5e 16 3e 6f cc b1 bd a1 9c 88 3d 55 0e 4e bd
       0.146844 -0.08681571 0.066704996 -0.050306637
000060 50 f0 c9 3d de 49 39 bd 56 2e 82 be 32 3f 2b be
       0.09860289 -0.04523646 -0.25425977 -0.16723326
000070 43 92 21 be 8a fc 8d bd 50 e2 25 bd 79 75 8c 3d
       -0.1577845 -0.06932934 -0.04049903 0.06858344
000080 07 37 00 3e 6c b1 46 be 9e e3 db bd 05 44 70 3d
       0.12520991 -0.19403619 -0.10736774 0.05865862
000090 32 2c 88 bd 14 82 61 3d 5e f9 58 3d b1 4c b8 bd
       -0.066490546 0.055055693 0.05297219 -0.08999003
0000a0 e7 27 1f be a8 50 22 bd 08 55 cc bd 44 6f 10 be
       -0.15542565 -0.0396277 -0.09977156 -0.14104944
0000b0 42 a9 36 3e 19 8e 1a be d1 7b 34 be a0 56 c8 3c
       0.17838004 -0.15093268 -0.17625357 0.024455369
0000c0 ce da 56 be c9 b8 00 bd d1 e2 08 be 1f f9 20 be
       -0.20981905 -0.031426225 -0.13367774 -0.15720032
0000d0 82 73 8b 3c ee e4 a5 3d 62 51 cc 3c 13 27 3e be
       0.017022852 0.081003055 0.02494115 -0.18569593
0000e0 43 95 1b 3e 7a 49 d1 bd b7 e1 cc 3d 36 98 5b be
       0.15193658 -0.10219093 0.10003989 -0.21444783
0000f0 5c b2 67 3d b9 f9 2f bd 9d 95 87 3c 58 4b b5 3b
       0.05656658 -0.042962763 0.016550833 0.0055326633
000100 06 0a 4c 3e 82 d6 85 be 92 2f e1 3d 47 f8 b5 bc
       0.19925699 -0.2614022 0.109954014 -0.022213114
000110 9d 23 f5 3d be 62 95 3d b8 c5 e5 3b 1a 52 e1 bd
       0.11969683 0.07294224 0.0070120953 -0.11001988
000120 7c 08 f4 3d 64 3a 91 3d 1c 9d a1 3e c5 30 18 be
       0.11915681 0.07091215 0.31565177 -0.14862354
000130 a2 57 d4 bd 9b 2c b8 3d 2f 92 66 b7 90 18 8e 3e
       -0.10368277 0.08992883 -1.3743104e-05 0.27753115
000140 82 ea 35 bd c2 28 d1 3d f1 4d 60 be ff 71 43 be
       -0.044413097 0.10212852 -0.21904732 -0.19086455
000150 2b dc e1 bc 38 7c 8c ba bd 59 49 3e ac 61 1c bd
       -0.027570805 -0.0010718172 0.19663139 -0.038179085
000160 1f 83 39 3e 8b fe 4e 3d 47 92 a3 bc 70 73 50 3d
       0.18116425 0.05053572 -0.019967211 0.05089134
000170 89 1d 4f be 14 26 57 3e e0 4d b0 bd e7 dd 1d be
       -0.2022611 0.2101062 -0.086086035 -0.1541668
000180 d8 4b 83 3d 00 de 4b 3d fe fd d8 3d b6 d2 05 be
       0.064109504 0.049772263 0.1059532 -0.13068661
000190 3a ff 84 3e 00 04 a7 3d 67 96 52 be 3e 4e 7c bc
       0.25975972 0.0815506 -0.20565186 -0.015399514
0001a0 24 79 a8 bd be 5c a2 bd da 25 b5 be c4 f4 2e be
       -0.08226231 -0.079278454 -0.3538044 -0.17085558
0001b0 70 d1 ef bc f4 4a 67 3e a3 16 5f be ff 0e 58 bc
       -0.029274672 0.22587186 -0.21785979 -0.013187169
0001c0 d1 92 42 3b 06 13 80 3c f8 aa 40 3d 0e b6 2a 3e
       0.002968956 0.015634071 0.04703805 0.16671011
0001d0 4c 79 1b bd 6c 58 36 bd 5b f0 2f 3e 6b d6 1f be
       -0.037957475 -0.04451792 0.17181532 -0.15609138
0001e0 40 49 81 3d 88 04 c7 bd 45 84 f6 bd 16 7d af 3d
       0.063127995 -0.09717661 -0.12036947 0.0856878
0001f0 5c 34 51 3e 8b 01 58 be a1 3a 27 3e 04 ab 4a 3d
       0.2043013 -0.21094339 0.16330959 0.0494795
000200 32 16 57 3e 7f f6 14 3e f2 ce 9f 3d e5 f3 43 3d
       0.2100456 0.14547156 0.078031436 0.047840018
000210 c8 1b 4f 3e ca b6 02 be 86 f8 27 be 53 9a 46 3e
       0.20225441 -0.12765041 -0.16403398 0.19394808
000220 dd e6 4c 3c 4d d4 89 3d 95 48 1b be b9 58 d7 bd
       0.012506214 0.06729946 -0.15164407 -0.105149694
000230 a2 b3 a5 3d 3c a5 08 be ab 74 0f 3e a5 38 8d bd
       0.08090903 -0.13344282 0.14009349 -0.0689557
000240 72 98 f0 3d ae 2c 6d bd 3d be 96 bd 2f 11 ec 3d
       0.11747827 -0.057903938 -0.07360504 0.11526715
000250 87 2b 03 3e 1d ad d6 bd 95 40 2d be 05 8b 3a be
       0.12809573 -0.104822375 -0.16919167 -0.18217094
000260 ac 0e 0a 3e 45 ec 70 bd 21 e5 9a bd c1 be 86 bd
       0.1348216 -0.058819074 -0.07563234 -0.06579352
000270 81 99 ad 3d f6 96 1a 3e 2f 0b 1c bd 47 18 97 bd
       0.08476544 0.1509665 -0.038096603 -0.073776774
000280 2e 19 d4 3c 27 8a 47 3e e1 da 45 3e 1c c9 44 3c
       0.025890913 0.19486295 0.19321777 0.012010839
000290 a4 04 be bd 56 9b 4d 3d 9e f8 5e bd 2d 8c 62 3e
       -0.09278229 0.050196968 -0.05443632 0.22123785
0002a0 fc 4a f5 3b 01 f5 0c bd 02 5e 32 be fc 75 e1 bd
       0.0074857455 -0.03441334 -0.17418674 -0.11008832
0002b0 7a 98 98 bd e0 d8 14 3e 97 7d 08 3d 14 be 4d 3e
       -0.074509576 0.14535856 0.033322897 0.2009204
0002c0 50 43 d7 bc 18 9d 9c 3d e0 ab c9 3d 19 a1 88 be
       -0.026277214 0.07647151 0.09847236 -0.26685408
0002d0 eb cf 1f 3e f6 b0 23 be 91 70 64 3e dc 01 ff bd
       0.15606658 -0.15985474 0.22308566 -0.124515265
0002e0 77 f9 6d 3e 6b 40 d1 bd 77 5f 76 3d 24 12 60 3d
       0.23239695 -0.10217365 0.060149636 0.0547048
0002f0 a9 47 61 3e f5 b3 17 be 42 d3 fb 39 b5 2f 92 3d
       0.21999992 -0.14814742 0.0004803185 0.07138006
000300 ef 45 36 be 39 45 c7 bd 0f c6 e4 bc 0c 17 2d 3e
       -0.17800115 -0.0973 -0.027926473 0.16903323
000310 24 aa 16 be 79 a4 02 3e 63 59 44 be 55 61 23 be
       -0.14713341 0.12758054 -0.19174723 -0.15955098
000320 27 6f 71 3e 44 64 36 be 94 a2 e0 3d 86 93 46 bd
       0.23577558 -0.17811686 0.10968509 -0.048480533
000330 3d 4d db 3d 8d 88 ef bb 45 a4 39 3e 3f 97 18 3d
       0.107080914 -0.0073099793 0.1812907 0.037253615
000340 9c f1 1d be fb 15 ae bc 48 85 08 b9 f7 81 c2 bd
       -0.15424198 -0.021250715 -0.00013019622 -0.09497445
000350 a7 a8 27 3c 8b 83 23 3d b0 e6 b6 bb 84 65 4d 3e
       0.010233081 0.03992037 -0.0055816993 0.20058256
000360 ac 39 3f 3c 06 70 3e 3e 7c 3b a1 bc be 89 ac 3d
       0.011671465 0.18597421 -0.019681685 0.0842471
000370 76 e6 1b 3e 4a 51 ac 3d 68 ed 31 bc 7d b5 3b be
       0.15224633 0.08413942 -0.010859825 -0.18330951
000380 b0 c4 8d 3d 3d 8a 77 be 0d 6f 7c be df ee 81 3d
       0.06922281 -0.24173827 -0.24651738 0.06344389
000390 cd 54 7a 3e 08 98 8e bc 62 b7 2d bd 7e cc 28 bc
       0.24446411 -0.017406479 -0.042411216 -0.010302661
0003a0 dd 52 c7 bd 94 3a 3e 3c 0a 19 0f bd 71 72 42 3e
       -0.09732602 0.011610646 -0.03493599 0.18988968
0003b0 28 60 9b be 34 43 31 be d8 fd db 3c b1 b3 d0 3c
       -0.303468 -0.17310792 0.02685444 0.025476309
0003c0 6f ff 2c be 78 fb c5 bd 9c a6 9e 3e 23 07 32 be
       -0.16894315 -0.096671045 0.30986488 -0.17385535
0003d0 12 ff d8 bd f7 c0 1d 3d 47 a8 78 3d 32 98 cb 3d
       -0.10595526 0.038514104 0.060707357 0.09941138
0003e0 32 83 95 be 23 7f 24 3e 7a 62 12 3e 99 dc 00 bd
       -0.29201657 0.16064124 0.14295378 -0.03146038
0003f0 23 a5 0b bd 98 12 5c 3e 6e c5 00 bc f8 26 82 3e
       -0.034093034 0.21491468 -0.007859571 0.25420356

transformer_encoder.layers.0.self_attn.out_proj.bias f4 [20]
000000 14 f4 cf bc fc b5 57 3d fc b8 19 3d 33 da 1d 3d
       -0.02538494 0.05266379 0.03752993 0.03853817
000010 57 87 b3 3c 2e 9e d6 3c d0 4b ae bc 5c b5 e8 3c
       0.021915121 0.026198473 -0.021276385 0.028406791
000020 12 f1 50 bc 4c 01 b3 bc a6 6a e9 3b 07 4a 26 bd
       -0.012752788 -0.021851204 0.007123309 -0.04059794
000030 fc 0a 16 3d 1d 8c b3 bd f1 c7 06 3d 6d 65 af bc
       0.03663157 -0.08766959 0.032905523 -0.021410668
000040 fb 08 9d bb b6 a6 1b bd 7c 4d 55 3c df a0 ad bc
       -0.0047923303 -0.038000785 0.013018962 -0.021194873

transformer_encoder.layers.0.linear1.weight f4 [20, 20]
000000 f0 3d b0 bd f4 cc 14 3e e1 a2 82 3d 34 7b 47 3e
       -0.08605564 0.14531308 0.06378723 0.19480592
000010 29 a1 c2 bd c3 df aa bc 99 d8 1f be 60 2e 38 3e
       -0.09503395 -0.020858651 -0.15609969 0.1798644
000020 bc ac fe bc f6 5b c7 bb 0e e8 f3 bd 19 11 0e 3d
       -0.031088226 -0.0060839606 -0.11909495 0.034684274
000030 e8 17 8a 3d cd 65 30 3d ae c6 fe 3c a3 56 b4 3d
       0.06742841 0.043065835 0.031100597 0.08805587
000040 21 81 47 3e ec 8c 12 be f4 ff 73 bd e2 57 e0 bd
       0.19482853 -0.1431157 -0.059570268 -0.10954262
000050 00 c2 77 be a2 53 35 3e 14 fb 67 be d8 96 0c 3d
       -0.24195099 0.17707685 -0.22654372 0.034323543
000060 52 99 83 3d 3b 49 7e bc f4 2c ea 3c 54 52 38 be
       0.06425728 -0.015520389 0.028585888 -0.18000156
000070 89 28 2b 3e bc d4 1d bd a7 3a 0f bd d7 69 b3 3d
       0.16714682 -0.038532957 -0.034968045 0.08760422
000080 c5 cf 67 bd ce 33 11 be ae 6f 21 3e 2e 04 4a 3e
       -0.05659463 -0.14179918 0.15765259 0.19728157
000090 f7 c4 0d 3e 07 9c 61 bd b4 1a ed bd 64 b0 a0 3d
       0.13844667 -0.05508044 -0.11577359 0.07846144
0000a0 45 74 2e 3e a7 02 57 3e ef 9c 64 3e 17 9b 44 3e
       0.17036541 0.20997106 0.2232549 0.19199787
0000b0 3a 4b 4e 3c 49 e1 30 3e e7 86 5b 3e ff 27 3b bd
       0.012591178 0.1727344 0.2143818 -0.04569244
0000c0 1e c6 bb bd 0a 23 34 3d d1 03 9c be d5 de d9 3b
       -0.09168647 0.04397873 -0.30471662 0.006648878
0000d0 e9 73 20 3c 41 99 e3 3d f7 3b 37 be 3f 7d 46 bd
       0.00979326 0.11113215 -0.17893969 -0.048459288
0000e0 59 97 b5 bd 90 8c 4a 3e 5d af 3b 3d 18 61 bc bc
       -0.08866758 0.19780183 0.045821536 -0.022995517
0000f0 7b 25 91 bd f8 5c 19 be 6b 7f 60 3d 6b 3b 82 3e
       -0.07087227 -0.14976871 0.054809015 0.25435957
000100 c3 75 15 bd 58 14 38 bc 1b 93 99 bd 58 d8 12 3e
       -0.03648926 -0.011235319 -0.07498761 0.14340341
000110 a3 52 22 be 77 55 91 bd 45 9a 0a 3e 33 6a 2c be
       -0.15851836 -0.07096379 0.13535412 -0.16837387
000120 61 47 1c 3e 44 6b 37 3d 7f d2 7a bd e8 be d7 3d
       0.15261604 0.04478003 -0.0612359 0.10534459
000130 37 1e d1 bd 7a c0 48 be 01 5f ff 3c a7 50 34 3e
       -0.10210841 -0.19604674 0.031173231 0.17608891
000140 dc 76 26 3d 6e b0 47 be 47 f7 ca bd 3c 24 a0 be
       0.040640697 -0.19500896 -0.09910446 -0.31277645
000150 2b 5a 16 3e 21 aa b9 3e 45 5d 07 3c 49 f9 46 be
       0.14682834 0.3626261 0.008261983 -0.19431032
000160 5f 82 06 bc 84 89 04 be 34 48 1c 3d 65 b4 b3 bd
       -0.008209794 -0.12943083 0.038154796 -0.08774642
000170 b7 f7 f9 bd 1a 5f 1e 3e cb 7a 8c 3d be b6 72 be
       -0.12205451 0.15465966 0.068593584 -0.23702523
000180 04 e8 3b be f2 a2 d3 3c 10 56 b7 3d 38 5a 94 bd
       -0.18350226 0.025834534 0.08951962 -0.0724377
000190 25 be fe bc b9 7b e5 be f6 01 19 3c 1e 28 83 bd
       -0.031096527 -0.44820955 0.009338846 -0.06404136
0001a0 34 86 cb 3d 9a 25 a3 be 0f cf b6 3c 68 2e 9c bd
       0.099377066 -0.31864625 0.02231553 -0.07626039
0001b0 04 6d df bd a1 a6 47 bd 06 44 08 bd 40 91 1b bd
       -0.10909465 -0.048742894 -0.033267997 -0.037980318
0001c0 07 f7 03 bc 73 65 05 3c 0f 3c 3c 3e 09 a1 a3 3e
       -0.008054501 0.008141863 0.18382286 0.31958798
0001d0 74 ce 81 bd 73 dc 9d 3d c1 e7 64 3e 4d c7 f3 3d
       -0.06338206 0.07708063 0.22354032 0.11903248
0001e0 a7 c3 ae bc 99 42 ee 3d 8c 2b dd bd 55 53 46 be
       -0.021333529 0.11633796 -0.107993215 -0.19367726
0001f0 50 bc 1a 3e 15 a6 b3 3e 3d 36 c8 bd f4 19 67 be
       0.15110898 0.35087648 -0.0977597 -0.22568494
000200 6f 87 88 bd 38 77 14 3e c1 f5 12 be ac 9b 74 be
       -0.06666457 0.14498603 -0.1435156 -0.23887509
000210 cf 31 58 be 08 13 05 be 55 35 6e 3d d5 f7 6e bd
       -0.2111275 -0.12995541 0.05815633 -0.05834182
000220 3d b3 0a bd 65 1b 7e 3d d1 47 c8 3c dc d7 74 be
       -0.03386234 0.062037844 0.024448307 -0.23910469
000230 14 4f 55 3e 6d 61 28 3e 28 56 9e bd 3e 0e bd bc
       0.20830947 0.16443415 -0.07731277 -0.02307808
000240 40 19 c0 bd f3 65 65 3e 91 0a 67 be 8e a8 a8 3d
       -0.09379816 0.22402172 -0.22562625 0.08235274
000250 e0 1e 77 bd 1c 72 60 be 69 1b 37 be 2f 51 3d be
       -0.06033218 -0.2191853 -0.1788155 -0.18488
000260 ca 81 ef 3d 4d de 68 be 13 34 05 3e 1e c2 39 be
       0.11694677 -0.22741051 0.13008146 -0.18140456
000270 65 07 fc 3c df aa 73 be d8 cf 2d be b9 2f c1 bd
       0.030765245 -0.23795651 -0.16973817 -0.094329305
000280 8a fb 05 be 95 5d 56 3e 09 db 44 3e 84 9c f0 bd
       -0.13084236 0.20934136 0.1922418 -0.11748603
000290 d6 40 97 3d b8 eb fe bb 72 99 8d 3d a0 97 89 3e
       0.07385413 -0.0077795647 0.06914033 0.26873493
0002a0 86 fd 06 be 1f 8c 09 be bc f0 12 3e b4 f9 7a 3e
       -0.13182649 -0.13432358 0.14349645 0.24509317
0002b0 5a 53 a0 bd 49 e0 d8 3d 6b df 72 bd 4b 5c 68 be
       -0.07828398 0.10589654 -0.0592951 -0.22691457
0002c0 ff db 07 3e 83 3c 99 bd 9f c8 c8 3d f1 8d 02 3e
       0.13267516 -0.07482245 0.098038904 0.12749459
0002d0 27 54 5a 3c 26 ab 87 be 92 17 1a bc a5 2c 7a 3e
       0.013325728 -0.26497763 -0.009405034 0.24431093
0002e0 95 be 76 3e 1e 83 8d 3d e9 f8 b2 bd ef be f6 3d
       0.24096139 0.06909774 -0.08738882 0.120481364
0002f0 fc f1 3d 3d 88 ed 92 bd f1 09 00 3e be ad 1d 3e
       0.046373352 -0.07174212 0.12503792 0.15398309
000300 31 b2 0c 3e 32 6e 25 be bf 07 cd bd 51 19 0f bc
       0.1373985 -0.16155317 -0.10011243 -0.008734063
000310 d9 0d 18 be 06 44 2e 3e 50 54 a8 bd 07 4f d7 bc
       -0.14849032 0.17018136 -0.08219206 -0.0262828
000320 d4 a1 0f bc 2e 19 36 3e 87 4f 83 bd f6 d9 46 3e
       -0.00876661 0.17783043 -0.06411653 0.19419083
000330 14 e4 49 3e a7 1b 2f bd 60 7f 31 bc 15 0b a0 bc
       0.19715911 -0.04275098 -0.010833591 -0.019536534
000340 48 d8 69 3e 81 94 34 be 03 9f 36 be 26 67 36 be
       0.22836411 -0.17634775 -0.17834096 -0.17812786
000350 4c e8 c0 3d 59 74 cf 3d 83 64 d0 bc 82 f5 03 3e
       0.09419307 0.101296134 -0.025438553 0.12886623
000360 22 4a 07 be 8b 7f 48 be 81 91 9b 3d 9c 17 2d be
       -0.13211873 -0.19579904 0.07596112 -0.16903538
000370 e8 83 85 3d 01 f3 6f be 1e 4a 60 3d e3 b2 2b be
       0.065193 -0.23432542 0.054758184 -0.16767459
000380 0b 2e 03 bc e3 b1 7c be 51 06 f9 3d dc a6 08 be
       -0.008006583 -0.24677233 0.12159408 -0.13344902
000390 ab 08 e5 bd 2b af f2 3d a3 97 cb bc 84 07 06 bd
       -0.11183294 0.11849817 -0.02485258 -0.03272201
0003a0 e8 3a 41 be 1e 13 89 3b 05 dd 24 3e 8c 95 1e 3e
       -0.18870127 0.004183187 0.16099937 0.15486735
0003b0 0c 70 36 be 6c ea 38 be 33 b0 07 3e 30 2d bc 3d
       -0.1781618 -0.18058175 0.13250808 0.09188306
0003c0 55 83 53 3d d6 73 44 3e d3 f1 c4 bc 36 d5 2e 3e
       0.05163892 0.19184813 -0.024041092 0.17073521
0003d0 de 87 74 3d fc 6b d3 bc 77 9d 2f 3e 4a 5a 46 3e
       0.059699886 -0.025808327 0.17149912 0.1937038
0003e0 e7 1c 1f 3e 6f dd d4 3d 3c 7d 8a 3c 6b 1f 30 be
       0.15538369 0.103937976 0.01690542 -0.17199485
0003f0 d5 d4 27 be 48 5a c8 3d ea 67 d1 bd c8 1b ee bd
       -0.16389783 0.09782845 -0.10224898 -0.116263926

transformer_encoder.layers.0.linear1.bias f4 [20]
000000 15 0c ac bd 9c 34 cf 3d 37 2a 3e be 3f 2e 75 bd
       -0.08400742 0.10117456 -0.18570791 -0.059858557
000010 fa ee 2a 3e 53 88 0b 3b 6a 84 67 be af a5 6b be
       0.16692725 0.0021290972 -0.22609106 -0.23012422
000020 61 ed fd 3c 69 54 a9 3d 34 a3 e6 3d 44 8d aa bc
       0.03099698 0.08268053 0.11261597 -0.020819314
000030 ce cb 51 3d 61 8d 3f bd df 33 ef bd ce 67 b7 bd
       0.051219754 -0.04676569 -0.116798155 -0.08955346
000040 fc f8 46 be c0 ed 1f be c3 bb 10 be 23 f5 5b be
       -0.19430918 -0.15618038 -0.14134125 -0.21480231

transformer_encoder.layers.0.linear2.weight f4 [20, 20]
000000 81 e6 53 3d 22 cd 4d be 28 9d b1 bd 1a 7c 5c 3e
       0.051733498 -0.20097783 -0.08672553 0.21531716
000010 6c ba 59 be b9 1c cf 3e f6 39 85 3d bf d2 2b 3e
       -0.2126252 0.404516 0.06505196 0.16779612
000020 05 56 0d be 95 2b 81 3e b9 93 be 3d 2c b0 99 3e
       -0.13802345 0.25228563 0.093055196 0.3001722
000030 86 08 fb bd 4f f8 96 3c 3e c2 47 3e b8 ea 31 3e
       -0.12257485 0.01842895 0.19507691 0.17374694
000040 7c 5f 88 3e 00 00 b8 bd 81 16 56 bd a6 0e bd 3d
       0.2663535 -0.08984375 -0.052267555 0.092313096
000050 3c 34 09 3e 65 5d 62 3d d5 0a 3c bd 90 c3 47 3d
       0.13398832 0.05526485 -0.045908768 0.048770487
000060 03 15 04 bd 92 95 85 3e 19 61 f5 3d 6b cd 21 be
       -0.0322466 0.26090676 0.119814105 -0.15801017
000070 86 b2 00 3e 8f 96 01 3c dc 31 d4 bd 39 47 ad bc
       0.12568101 0.007909431 -0.103610724 -0.021152126
000080 6f d1 0d 3e 81 71 4d bd 5e 97 e7 3d 3d 29 c7 bd
       0.13849424 -0.050157074 0.11308168 -0.097246625
000090 c8 15 00 3c e9 08 41 bb e7 31 d1 3b f4 3b 16 bc
       0.007817693 -0.0029454774 0.0063841227 -0.009169567
0000a0 5d 41 4a 3d e8 d0 51 bd 2d ce 3c 3e d6 2f e2 bd
       0.04937874 -0.05122462 0.18438025 -0.1104428
0000b0 0e a9 03 be 85 36 86 3e 56 47 06 be 93 2c 84 3e
       -0.12857458 0.2621347 -0.1311315 0.25815257
0000c0 b8 86 30 3e e9 23 20 3e 9e 2c 05 3c e5 d6 8e bc
       0.17238891 0.15638699 0.008128313 -0.017436454
0000d0 fe 69 ff 3a ac 86 5d bd 85 c8 ba 3d 4b 0b 1a be
       0.0019486544 -0.05408351 0.09120277 -0.1504337
0000e0 21 aa 8e bd ff d3 fc 3c ae dc 30 3d 8a 29 6d 3d
       -0.06966043 0.030862806 0.043179207 0.057900943
0000f0 dc 3a 1b 3e fa d9 27 bc ca b0 6c bb df cb b5 bd
       0.15159172 -0.010244841 -0.0036116117 -0.08876776
000100 c3 eb e2 3c b7 60 2e 3d 8a 8e f4 3d 8f 02 14 3e
       0.02770031 0.042572703 0.1194125 0.14454101
000110 b8 43 93 39 23 b4 16 be 7d e5 20 3d b2 dc 73 bc
       0.0002808848 -0.14717154 0.039281357 -0.014884161
000120 6d b0 39 3d 4c 43 fd ba 91 8b 15 3e 58 5c 20 3e
       0.04533427 -0.0019322424 0.14604022 0.15660226
000130 fc 9f cf bd 3c 23 3d 3c d2 5e 4c 3d 54 71 d1 bd
       -0.101379365 0.011544045 0.049895115 -0.10226694
000140 6f 85 35 bd b0 3e 89 3b c0 53 2d be fd 1f 6e 3d
       -0.044316705 0.004188381 -0.1692648 0.058135975
000150 40 5f a7 3d 71 87 33 3e b3 fb ad 3d 58 40 cf 3d
       0.08172464 0.17532136 0.084952734 0.101196945
000160 5d ba 33 3e 17 a4 f0 3d 95 40 f9 bd ad 9f d4 bd
       0.1755156 0.11750048 -0.12170521 -0.10382018
000170 19 ad e4 3d 53 50 51 3e 4d 4e c0 bd 4f 7a 82 3e
       0.11165828 0.20440798 -0.09389935 0.2548394
000180 4d 4d e8 3d 89 60 4b be d0 36 61 3d 92 e2 51 3d
       0.11342869 -0.19861044 0.054983914 0.051241465
000190 bf 6d 45 3e dc 42 97 3d db 62 0a be cd 07 24 bd
       0.19280146 0.07385799 -0.13514273 -0.040046502
0001a0 5c 77 1e 3d 96 81 3d 3e 9e 6b 43 be 23 96 eb bd
       0.03868805 0.18506464 -0.19084021 -0.11503246
0001b0 55 ea 9b bd 3e d5 8b bc 94 9f 06 3c a1 f6 a1 3c
       -0.07613055 -0.017069455 0.008216757 0.019770922
0001c0 76 ff c7 3d e2 f4 b8 bd e9 41 30 be b5 00 40 be
       0.09765522 -0.09031083 -0.17212643 -0.1875027
0001d0 56 12 66 3d 42 bd 47 3d 9e d9 34 bd 57 fb 19 3e
       0.05616983 0.048764475 -0.04415285 0.15037285
0001e0 63 e2 06 be f5 e9 b0 3d a6 06 e1 bd 18 11 31 3e
       -0.13172297 0.08638374 -0.10987596 0.17291677
0001f0 a3 93 4c bc f8 31 d2 3d 4f 1a 83 bd e2 3b dc 3a
       -0.012486371 0.10263437 -0.06401502 0.0016802514
000200 87 17 a7 be 8d eb 11 3e 8e 3e f1 3c 25 be f6 bd
       -0.32635137 0.14250012 0.029448774 -0.12047986
000210 e3 93 b9 3d 0b 0e 54 be 74 07 18 3d c4 ed 80 3e
       0.0906141 -0.20708482 0.037116483 0.251814
000220 3d 94 d5 3d 1a 78 eb 3c c5 3c 46 3c 11 73 6c 3c
       0.10428665 0.028743792 0.0120994495 0.014431731
000230 00 d4 1f 3e fc 83 2d 3e 25 75 e3 3d 65 05 21 be
       0.15608215 0.1694488 0.11106328 -0.15724714
000240 51 46 4f 3e a2 86 36 be af c5 59 3e e4 98 e9 3b
       0.20241667 -0.17824796 0.21266817 0.0071288217
000250 7b c1 4f 3e 2f 37 b3 3c 85 bc 22 3e 13 d0 f4 3c
       0.2028865 0.0218769 0.15892227 0.029884374
000260 a2 4f 5c 3d f9 f2 d6 3d 70 49 15 3e 61 d7 30 be
       0.05378688 0.10495562 0.14578795 -0.1726966
000270 ae 58 b5 bd 9f 40 a2 3d 6f 24 be 3d 2d ca d3 3d
       -0.08854805 0.07922482 0.09284293 0.10341296
000280 e1 fe 6a 3d 2e 28 e2 3d 3d 20 28 be 1c 19 50 3e
       0.057371978 0.1104282 -0.16418548 0.20322078
000290 06 17 9d bd f0 e1 d8 3d fb 0d 92 be c9 c3 88 3d
       -0.07670407 0.10589969 -0.2852629 0.06677968
0002a0 78 b7 aa bc 46 80 36 3e 5c ab 10 be 86 68 2b be
       -0.020839438 0.1782237 -0.14127868 -0.16739091
0002b0 8e 58 df 3d fc 4a c7 bd 15 7d f6 3c 9b 72 01 be
       0.10905562 -0.09731099 0.03008894 -0.12641375
0002c0 7f e3 7b 3e ad 5a 34 3e c1 52 ea 3d 9c f5 18 3d
       0.24598502 0.17612715 0.11441565 0.037343606
0002d0 19 9c ed 3d cf 0e 2e 3e c3 bd 02 3e 03 76 c3 3b
       0.11602039 0.16997837 0.12767701 0.005964996
0002e0 b5 2c 38 be 73 61 89 be 28 12 77 bd 13 74 ba bd
       -0.17985804 -0.2683216 -0.06032005 -0.09104171
0002f0 b0 c7 8a bd 19 04 89 bd 8c 60 72 bd 7e 8b cf bc
       -0.067763686 -0.06690235 -0.059174106 -0.02533507
000300 1a 0c 22 3e 9f 80 79 bd 4a 85 98 bd be ec 69 bd
       0.15824929 -0.06091368 -0.07447298 -0.05711054
000310 19 f0 67 3d 08 7d c2 bd 67 07 01 3e cb 45 73 be
       0.05662546 -0.09496504 0.1260048 -0.23757093
000320 b2 93 06 be e4 eb 78 be 49 c4 c4 3d 2f 4d 24 3e
       -0.13142279 -0.24308735 0.09607751 0.16045068
000330 9e 71 82 3e 01 07 14 be 7e 05 5a 3e 92 78 61 3e
       0.25477308 -0.14455797 0.21291158 0.2201865
000340 53 f1 c0 bd 4f b2 a0 3d e9 06 51 3e 77 20 a2 bd
       -0.09421029 0.0784651 0.20412792 -0.079163484
000350 eb 6c 70 3b 75 b3 3e bd 0a a0 1d be 15 8c e7 bb
       0.0036686014 -0.046557862 -0.15393081 -0.0070662596
000360 18 d2 8b be d2 58 00 3e 00 cd 85 bd 13 9c 8a be
       -0.27308726 0.12533882 -0.06533241 -0.270722
000370 cf ec 45 3e b5 af 1a 3e 8f a1 e5 bb 35 1e 51 be
       0.19328617 0.1510609 -0.0070077847 -0.2042168
000380 b4 f6 1d 3e 68 a3 de 3a 76 ff 75 3e 5a 0e d2 bd
       0.15426141 0.0016985955 0.24023232 -0.102566436
000390 f1 77 1c 3e b7 29 bb 3d b5 f8 a3 3d f8 56 af be
       0.15280129 0.09138816 0.080064215 -0.3424604
0003a0 f4 be 91 be 47 ce 56 3d 24 f9 17 3c 2c 0e 03 3e
       -0.28465998 0.052442815 0.009275708 0.12798375
0003b0 4a 5c ad 3d 40 17 0c be 6f be 0e 3d 4d 4b 08 be
       0.08464868 -0.13680744 0.03484958 -0.13309975
0003c0 c5 c8 30 bd ce eb 36 be d0 09 f4 3d 60 ce 24 be
       -0.04316022 -0.1786339 0.11915934 -0.16094351
0003d0 e1 57 ef 3c f9 18 28 be ff 2f d1 bd 7d 3b 75 bd
       0.029216709 -0.16415776 -0.10214233 -0.059871186
0003e0 6a 26 16 be 78 56 71 be b4 78 23 be f3 fb 5d be
       -0.14663091 -0.23568141 -0.15964013 -0.21678142
0003f0 42 86 3a 3e 57 6f 0c 3e 10 c6 e4 3c 29 32 2a 3e
       0.18215278 0.13714348 0.027926475 0.16620697

transformer_encoder.layers.0.linear2.bias f4 [20]
000000 c7 ed db 3d 50 ef 7b 3c 0f db 5c 3e bb b9 83 3b
       0.10738712 0.015376881 0.21567939 0.0040199435
000010 7d b9 11 3e 66 98 ef 3c 0f a9 d1 bc 80 f0 06 be
       0.14230914 0.029247474 -0.025593309 -0.13177681
000020 53 fb 80 3a 93 b2 43 bd ab 0f 53 3e 5b 60 02 bd
       0.0009840525 -0.047777724 0.20611446 -0.031830173
000030 bb 7e 2e 3d b5 f8 89 3d ba 2f 5e bc 0d 58 59 bd
       0.04260133 0.0673689 -0.013561184 -0.053062487
000040 08 92 17 3e 89 5c 5b bd 09 a7 41 3e 46 7f e0 bd
       0.148018 -0.053555045 0.18911375 -0.109617755

transformer_encoder.layers.0.norm1.weight f4 [20]
000000 1f d7 a7 3f 61 43 99 3f e1 61 8d 3f d5 92 95 3f
       1.3112525 1.1973687 1.1045495 1.1685435
000010 bf 4d 82 3f 28 ab 9b 3f 3d 3d 89 3f a3 cd 6b 3f
       1.0179976 1.2161608 1.0721813 0.9211065
000020 75 75 86 3f 1d c8 7c 3f 2a b3 7e 3f a6 14 87 3f
       1.0504595 0.9874285 0.9949213 1.0553176
000030 54 04 68 3f 33 99 70 3f ae e8 7a 3f cb 87 47 3f
       0.90631604 0.93983763 0.9801129 0.7794158
000040 c1 b3 71 3f b4 49 89 3f 5f a6 7a 3f 52 09 7b 3f
       0.9441491 1.0725617 0.9791011 0.98061097

transformer_encoder.layers.0.norm1.bias f4 [20]
000000 43 95 04 bd c4 80 75 3d 45 e8 51 3d dc 7d 83 3c
       -0.03236891 0.059937254 0.0512469 0.016051225
000010 51 ba f1 3c 67 ea 2e 3d b9 c1 8a bd 03 09 63 3d
       0.029507788 0.042704012 -0.06775231 0.055428516
000020 fb 8c 17 3c ac c3 7b bd 68 77 3e 3d 5e a7 e1 bc
       0.009249921 -0.061465904 0.046500593 -0.027545627
000030 f0 47 74 3d f2 27 3e bd 7d 8a 34 3d b2 95 33 bd
       0.059638917 -0.046424814 0.044077385 -0.043843932
000040 83 cf 34 3c a5 2f 75 bd 1a 5d 44 3d 7d 44 51 bd
       0.011035803 -0.05985989 0.04794035 -0.051090706

transformer_encoder.layers.0.norm2.weight f4 [20]
000000 ae 34 ae 3f da 16 68 3f 8a 0a 92 3f f8 ee 81 3f
       1.3609827 0.9065987 1.1409466 1.0151052
000010 21 bd 89 3f 7d 60 81 3f 9c 94 90 3f 6a 03 6f 3f
       1.0760843 1.0107571 1.1295352 0.93364584
000020 77 49 8c 3f d2 03 87 3f b3 01 77 3f 46 c6 8b 3f
       1.095992 1.0548041 0.9648697 1.0919883
000030 c7 f4 66 3f c7 cb 78 3f 53 0e 7b 3f 84 f9 50 3f
       0.9021725 0.9718594 0.9806873 0.8163073
000040 1d 28 74 3f f5 10 8f 3f b0 da 80 3f 42 93 88 3f
       0.9537371 1.117705 1.0066738 1.066994

transformer_encoder.layers.0.norm2.bias f4 [20]
000000 12 f3 1d 3c 8e 6e 95 3d e7 3d a4 3d 60 33 9d 3d
       0.009640472 0.07296477 0.080196194 0.07675815
000010 63 11 15 3c 6f f7 ba bb db 3e 60 bd 48 45 b4 3d
       0.009098384 -0.005705766 -0.054747444 0.08802277
000020 06 19 0c 3c 68 f8 79 bd f6 92 1a 3d 5f 11 b9 bc
       0.008550888 -0.061027914 0.03773781 -0.022591291
000030 1d b2 bd 3c c9 a1 04 bb 0a 46 9f 3d da 72 eb 3c
       0.02315622 -0.0020238033 0.07777031 0.028741289
000040 e9 ba d1 bc f6 1c 72 bd da f2 4f 3d 32 79 23 bd
       -0.025601821 -0.05910965 0.05076871 -0.039910503

transformer_encoder.layers.1.self_attn.in_proj_weight f4 [60, 20]
000000 b8 59 15 be 1c 1b 88 be 3f 1e 5d 3e f1 ab 57 3d
       -0.14585006 -0.26583183 0.21593569 0.05265421
000010 c5 93 32 3e fe 3c 77 3d 06 88 24 be 5c 77 f3 3d
       0.17439182 0.0603609 -0.16067514 0.11888
000020 fc ae 0f 3d 49 22 54 3d 18 21 4c be 1e 43 75 3e
       0.035078987 0.05179051 -0.199345 0.23951384
000030 32 7b 8e be b1 a6 38 3e ee c8 82 3e 4d 3b 8a 3e
       -0.27828366 0.18032338 0.25543922 0.26998368
000040 7f 2a a9 3d 1e 23 ce bd cf b4 12 bc 31 56 61 3c
       0.082600586 -0.10065292 -0.008954241 0.01375346
000050 72 e0 69 3e c2 ce 96 bc a8 8f 80 be 3e 53 c9 3d
       0.22839525 -0.018409137 -0.251096 0.0983033
000060 3d 53 96 3d 97 45 e5 3d c3 c1 2b 3e 2e 25 92 bd
       0.07340095 0.11194914 0.16773133 -0.07135998
000070 fa 54 58 3e 81 ac 0c bd 63 b4 a6 bb 1a c2 99 bd
       0.21126166 -0.0343442 -0.0050874217 -0.07507725
000080 37 0e cf 3d 8d 89 9c bd c8 76 63 3e 84 3b 1f 3e
       0.10110133 -0.07643423 0.2221328 0.15550047
000090 e3 ec 85 3e 9f 34 c4 3c 0c 8f 28 3d e8 e0 12 be
       0.26157293 0.023950873 0.041152045 -0.14343607
0000a0 b4 b1 43 3e 03 05 73 be e0 4f e9 3c bc 36 88 bd
       0.19110757 -0.2373238 0.02848047 -0.06651065
0000b0 2d 2b 6f 3e d2 4f 6c be 96 49 2a 3e 4d 68 80 be
       0.23356314 -0.23077324 0.16629633 -0.25079575
0000c0 d5 b5 c0 3c d3 db cc bd ae cd 51 bd 75 22 50 bd
       0.023524204 -0.10002866 -0.051221542 -0.05081411
0000d0 47 f1 13 3d a4 7d 44 be 93 8b cc 3d 8a 83 2a be
       0.036118772 -0.19188553 0.09987559 -0.1665174
0000e0 c7 e6 6b bd 48 be 9a be 3d ca b4 bd f2 f8 6e 3c
       -0.057593133 -0.30223298 -0.088276364 0.01458572
0000f0 c4 53 58 3d de 43 57 3d 90 7e 2c be 12 16 8e 3d
       0.05281426 0.052554958 -0.16845155 0.06937803
000100 cb dc 7f 3e d1 af 30 3e 3d 51 bb bd a4 35 10 3e
       0.2498657 0.17254569 -0.09146354 0.14082962
000110 23 8a 66 3c 84 8c 22 3c 01 f1 65 3d ab 3c fe 3d
       0.01407102 0.009921197 0.056138042 0.12413915
000120 3b 48 6c be 2a e1 af bd b3 bd 83 3c 5d 31 2e 3e
       -0.23074429 -0.085878685 0.016081667 0.17011018
000130 f9 e9 4c be f7 1b e8 bd a9 9b 3c bc a8 77 b3 3d
       -0.20011128 -0.11333459 -0.011511722 0.08763057
000140 86 fa 7d be 39 43 13 3e 49 fe 38 be 67 26 6d 3e
       -0.24802598 0.14381112 -0.18065752 0.2315918
000150 9a 7f 65 bd ce 9e 47 bd 8b 50 fb 3b 77 7d bd bb
       -0.056029893 -0.048735432 0.0076695136 -0.005782779
000160 25 a6 65 3e 77 fc 1c 3e b3 e7 69 be ca 89 1d 3e
       0.2242666 0.15330683 -0.22842292 0.15384594
000170 77 e8 34 3e 64 90 9e bd e3 33 4c be a1 c0 af bd
       0.17666803 -0.07742384 -0.19941668 -0.08581663
000180 80 5e 6b bd b1 cc 4c 3d a4 96 e0 3c 99 74 6b 3e
       -0.05746317 0.049999896 0.027415581 0.22993697
000190 11 17 81 bd 69 1e 42 bd 0f b6 4b 3e ed e5 7a be
       -0.06303228 -0.047392283 0.19893669 -0.24501772
0001a0 fe b0 bd 3d 20 81 24 3d af 18 f7 3c fb 3f 48 3e
       0.09262274 0.040162206 0.030163137 0.19555657
0001b0 52 0d 3b be 16 f4 1a be e0 c6 c5 3d 6f 30 4c 3e
       -0.182668 -0.15132174 0.09657073 0.19940351
0001c0 22 d2 23 bd 3e 42 54 bd 89 43 78 be 6b 11 13 3e
       -0.03999532 -0.051820986 -0.24244513 0.14362113
0001d0 ec f9 14 be a7 43 54 be ad 6a 93 bd 14 6d 3b bd
       -0.14548463 -0.20728932 -0.07198081 -0.045758322
0001e0 bb 5f b1 bd 8f 1e de 3d f1 35 f2 3d 98 aa 36 3d
       -0.08660837 0.10845672 0.11826695 0.044596285
0001f0 85 8d 32 be 54 6a f3 bd d7 1a 2e bd fb 56 03 be
       -0.17436798 -0.11885515 -0.042506065 -0.12826149
000200 dc 3c 33 be 0c 6e 12 3e 7d ae fa bd 54 20 af 3d
       -0.17503685 0.14299792 -0.12240312 0.08551088
000210 66 64 79 bd db 37 03 3e d8 74 2d be db f1 44 3e
       -0.060886763 0.12814276 -0.16939104 0.19232886
000220 4f 53 31 3e f6 0f 01 be 1a 82 42 bb 93 4d 0a be
       0.17316936 -0.12603745 -0.0029679597 -0.13506155
000230 47 22 71 3d bc 1b 4c be b2 c4 1f 3d 82 11 ba 3d
       0.05887058 -0.19932455 0.039005943 0.090853706
000240 3d 7b 9c 3e 25 4f 04 bd 12 42 78 be 7b e8 0a bd
       0.30562773 -0.03230204 -0.24243954 -0.033913117
000250 6c 5b 1e be 5a 4d fc bd 7a 51 5c 3d da c5 62 be
       -0.15464562 -0.12319441 0.05378864 -0.22145787
000260 d8 01 26 3e 24 ac b7 3c 2b a2 36 be 21 25 2e be
       0.16211641 0.02242095 -0.178353 -0.17006351
000270 da 26 c5 3d 06 e2 84 bc 2d a9 97 bd af fb f7 bd
       0.09626551 -0.016221058 -0.074053146 -0.12108552
000280 e4 c6 1a 3e 7e 4a 70 bd e4 2e 6c bd cb 33 2d 3e
       0.15114933 -0.05866479 -0.057661906 0.16914289
000290 60 72 fc 3d db 14 b3 bd 31 af 7a be 23 ae 42 3e
       0.12326503 -0.08744212 -0.24480893 0.1901174
0002a0 0c d4 02 bc 36 d2 27 3e da 14 36 bd 51 1f 41 3d
       -0.007985126 0.16388783 -0.04445348 0.047149006
0002b0 6f 35 64 3e ae f2 07 be 22 af e0 3d fb 48 23 3e
       0.22286008 -0.13276169 0.10970904 0.15945809
0002c0 52 1b 11 3e 26 76 5e be a8 ce 83 3e b2 a0 0b 3e
       0.14170578 -0.21724758 0.25743604 0.13635519
0002d0 c7 54 16 be ff d9 85 bd f3 27 00 3e d4 df 00 3e
       -0.14680777 -0.0653572 0.1251524 0.12585384
0002e0 5a d5 44 3e bf e4 51 be 83 93 c8 bd ab 2c 1e 3e
       0.19222012 -0.20497416 -0.09793761 0.15446727
0002f0 c9 1f c6 bd 10 d3 0b be c4 7b 1b be 40 fa df bd
       -0.09674031 -0.13654733 -0.15183932 -0.10936403
000300 16 d1 38 3e 61 3c 07 bd e5 3b c6 3c 9c 55 8b 3b
       0.1804851 -0.033016566 0.024198482 0.004252149
000310 c3 ec 36 be dc 1e 84 bd 07 71 9f bd bf ff d6 3c
       -0.17863755 -0.064511985 -0.0778523 0.026244996
000320 0a 45 06 be 32 8a 6c be 57 f7 f2 ba e0 24 14 be
       -0.13112274 -0.23099592 -0.0018536848 -0.14467192
000330 ff 95 9b 3c 51 8c b7 3d 68 03 84 3d 53 0b 2d be
       0.018992422 0.0896231 0.06445962 -0.16898851
000340 6d 06 3f 3e 11 fb 2c 3e dd af cf 3d 47 ff 3b bc
       0.18654795 0.16892649 0.10140965 -0.011474437
000350 ee cb 5b bc 1d bf 8b 3c 4b 27 91 bd ea 82 4a bb
       -0.01341532 0.017058903 -0.07087573 -0.0030900785
000360 85 32 dc 3c 56 f4 80 3e 88 a4 e3 3d 91 22 ea 3d
       0.026879558 0.25186414 0.11115366 0.11432374
000370 25 13 df bc 07 ce 74 be 23 f3 89 be 47 29 5c be
       -0.027230809 -0.23906718 -0.2694331 -0.21500121
000380 ca 3c 40 3e 07 58 b8 bd 8e 68 a5 bd ef 1f 28 3d
       0.18773189 -0.09001165 -0.08076583 0.04104608
000390 95 16 32 3c f7 f1 4f 3e 92 4f 03 be cb d2 b2 3c
       0.010869642 0.20307146 -0.12823322 0.02182903
0003a0 2c f0 1f be e3 eb 7a bd 28 f7 34 be 0f f1 0d 3e
       -0.15618962 -0.061260115 -0.17672408 0.13861488
0003b0 bb 18 a0 3d 77 7b 07 3d de 6d 8f 3b 9b 16 8c be
       0.07817217 0.03307673 0.004377111 -0.27360997
0003c0 d2 fc 96 3e 8d 60 f3 3d 09 54 6e 3e 50 0b 86 be
       0.29489762 0.1188365 0.23274244 -0.26180506
0003d0 c1 f4 39 be bd 81 ea bd 01 7c 81 be 0c 58 ab 3d
       -0.18159772 -0.11450527 -0.2528992 0.08366403
0003e0 a9 24 97 bd e6 9b 31 be d6 32 0d 3e cf 6b 5e 3c
       -0.07380039 -0.17344627 0.13788924 0.013575508
0003f0 86 91 8b 3e 52 c3 60 3e a3 40 8a 3e 71 bc 03 bd
       0.27259463 0.21949509 0.2700244 -0.032162134

transformer_encoder.layers.1.self_attn.in_proj_bias f4 [60]
000000 07 55 24 3c 4f 41 bb 3b 4b 61 e0 3c 13 22 91 bc
       0.010030038 0.0057145725 0.027390143 -0.017716443
000010 8e be 9c bc 9f ba 57 3d b2 59 16 bb 14 2b 82 3c
       -0.019133832 0.05266821 -0.0022941646 0.015889682
000020 62 27 0f 3d 04 6c 0f bb c4 d3 33 bc 39 4a 18 bd
       0.034949668 -0.002188445 -0.010975782 -0.03718016
000030 f8 ad 9b 3b a7 b0 07 bb 30 b4 9b 3a 4c 33 14 bb
       0.0047509633 -0.0020704658 0.0011879262 -0.0022613583
000040 1d 59 19 bc b1 d2 8f bd e8 28 7d bb 94 61 4d 3d
       -0.009359625 -0.07022608 -0.0038629118 0.050141886
000050 2a 15 f8 af 51 68 e6 b0 87 96 99 30 3d a7 ae b0
       -4.5125975e-10 -1.6764351e-09 1.1174998e-09 -1.2707698e-09
000060 fd d5 ea b0 b2 77 9f 31 3a 36 be 30 6a 33 f7 31
       -1.708656e-09 4.641117e-09 1.3839732e-09 7.1944912e-09
000070 e9 32 8a 2f 39 94 00 30 c1 6f f2 b0 85 9b 65 b1
       2.5138228e-10 4.6776766e-10 -1.763958e-09 -3.3412288e-09
000080 15 23 44 30 42 f6 03 b0 72 8f 83 b1 8b 02 2f b1
       7.135424e-10 -4.8007476e-10 -3.8289096e-09 -2.5467297e-09
000090 10 d9 1c 31 00 26 67 b1 f8 61 57 b0 69 fa ef b0
       2.2824374e-09 -3.3636525e-09 -7.8355766e-10 -1.746071e-09
0000a0 84 cc a8 3a 27 00 59 bd c6 ca a8 3c ab 68 08 bc
       0.0012878333 -0.05297866 0.020604502 -0.008325736
0000b0 e6 32 91 3d 2e ec 7d bc 23 69 b3 3b 70 ea bc 3c
       0.07089786 -0.015498204 0.0054751798 0.023061007
0000c0 7e 2f 4c 3d 59 e7 34 bc 5e b0 24 3c bf a3 26 3c
       0.04984998 -0.011041486 0.010051815 0.010170876
0000d0 7f 2c 95 bc d4 10 d0 bc 5f c6 6e bd 1c 62 c5 bc
       -0.018209694 -0.02539865 -0.05829465 -0.024094634
0000e0 71 42 2f 3d 0f 27 e8 3b 98 79 eb bc a1 cf 80 3c
       0.042787973 0.0070847343 -0.028744504 0.015724005
