model_epoch_49.pt (torch, 431970 bytes, 28 tensors)

pos_encoder.pe f4 [5000, 1, 20]
00000000: 0000 0000 0000 803f 0000 0000 0000 803f
00000010: 0000 0000 0000 803f 0000 0000 0000 803f
00000020: 0000 0000 0000 803f 0000 0000 0000 803f
00000030: 0000 0000 0000 803f 0000 0000 0000 803f
00000040: 0000 0000 0000 803f 0000 0000 0000 803f
00000050: a56a 573f 4151 0a3f 3d7d c63e dafa 6b3f
00000060: 4e9d 213e a0ca 7c3f 6522 813d 977d 7f3f
00000070: 8ac0 cd3c 53eb 7f3f 57d6 233c b9fc 7f3f
00000080: 9073 823b 7bff 7f3f 28bc cf3a ebff 7f3f
00000090: d466 253a fdff 7f3f f5b1 8339 ffff 7f3f
000000a0: b7c7 683f 3311 d5be 76f7 363f 040d 333f
000000b0: c596 9f3e 183f 733f 9de0 003e e3f6 7d3f
000000c0: ecaf 4d3d 51ad 7f3f 3ed4 a33c e5f2 7f3f
000000d0: 4d73 023c ecfd 7f3f 17bc 4f3b acff 7f3f
000000e0: d266 a53a f3ff 7f3f f5b1 033a feff 7f3f
000000f0: c381 103e 2670 7dbf 4812 6e3f e53b bc3e
00000100: ce5e ea3e a89a 633f b9ac 403e 6f6d 7b3f
00000110: 2d2f 9a3d 0346 7f3f 1fb9 f53c 83e2 7f3f
00000120: 49ac 433c 53fb 7f3f fccc 9b3b 42ff 7f3f
00000130: 361a f83a e2ff 7f3f ef8a 453a fbff 7f3f
00000140: cfbd 41bf 3055 27bf abf0 7f3f ce32 b1bc
00000150: 72a3 173f b041 4e3f 8ab4 7f3e d4e3 773f
00000160: 7d6d cd3d 7ab5 7e3f dbcb 233d 94cb 7f3f
00000170: 3e72 823c b1f7 7f3f d3bb cf3b affe 7f3f
00000180: c966 253b cbff 7f3f f4b1 833a f8ff 7f3f
00000190: 107c 75bf 2c3c 913e 28c7 693f cea6 d0be
000001a0: 6e4a 363f 2cbd 333f ebdb 9e3e aa5d 733f
000001b0: 4f45 003e cdfb 7d3f f4b6 4c3d 19ae 7f3f
000001c0: cf0d a33c 04f3 7f3f 44d5 013c f1fd 7f3f
000001d0: 74c0 4e3b adff 7f3f 6f9e a43a f3ff 7f3f
000001e0: 8c0f 8fbe b8cd 753f 200d 2f3f fdcb 3abf
000001f0: a75f 503f 47b7 143f b73b bd3e 8fdf 6d3f
00000200: 29bf 193e 1a19 7d3f d19c 753d 128a 7f3f
00000210: b7a8 c33c 4eed 7f3f 88cc 1b3c 09fd 7f3f
00000220: 191a 783b 88ff 7f3f eb8a c53a edff 7f3f
00000230: 4630 283f bdff 403f fde3 b13e 310d 70bf
00000240: c03b 653f 26ee e33e b9da da3e 1a6f 673f
00000250: 2d20 333e 860d 7c3f 323e 8f3d 815f 7f3f
00000260: d442 e43c 8ee6 7f3f b4c3 353c f8fb 7f3f
00000270: dbb9 903b 5cff 7f3f 6577 e63a e6ff 7f3f
00000280: 9546 7d3f f6fd 14be 3128 31bd acc2 7fbf
00000290: dc58 743f 1db7 983e c29a f73e db12 603f
000002a0: 4264 4c3e 3cd9 7a3f 50aa a33d 662e 7f3f
000002b0: 026e 023d c4de 7f3f c1ba 4f3c bbfa 7f3f
000002c0: a766 a53b 2aff 7f3f efb1 033b deff 7f3f
000002d0: 3201 d33e d53f 69bf 5cb7 dabe 7577 67bf
000002e0: 0056 7d3f 3958 133e 43af 093f 52d2 573f
000002f0: 5487 653e 6e7c 793f 3e12 b83d c2f6 7e3f
00000300: 12ba 123d f0d5 7f3f adb1 693c 55f9 7f3f
00000310: 6e13 ba3b f1fe 7f3f 2c28 143b d5ff 7f3f
00000320: f844 0bbf 64cd 56bf 238a 3ebf 43f8 2abf
00000330: 7df9 7f3f baf4 66bc e004 173f e6b5 4e3f
00000340: 5385 7e3e 54f7 773f 7675 cc3d 98b8 7e3f
00000350: 8a05 233d 13cc 7f3f 39d4 813c c5f7 7f3f
00000360: 30c0 ce3b b2fe 7f3f 679e 243b cbff 7f3f
00000370: 5cff 7fbf 7205 913b 58eb 71bf c976 a7be
00000380: 6532 7c3f 27da 2fbe 9fc0 233f e2c6 443f
00000390: 1cad 8b3e 2d4a 763f 72d3 e03d e873 7e3f
000003a0: 5950 333d 2cc1 7f3f 86cf 8e3c 0af6 7f3f
000003b0: ed6c e33b 6cfe 7f3f a214 353b c0ff 7f3f
000003c0: d85c 09bf d006 583f 0b76 7fbf e1d0 843d
000003d0: f518 723f 4d6e a6be 89d5 2f3f 630f 3a3f
000003e0: fe00 983e 3e75 743f ac2b f53d b528 7e3f
000003f0: 6d9a 433d 3bb5 7f3f baca 9b3c 26f4 7f3f
0.0 1.0 0.0 1.0 0.0 1.0 0.0 1.0
0.0 1.0 0.0 1.0 0.0 1.0 0.0 1.0
0.0 1.0 0.0 1.0 0.841471 0.54030234 0.38767424 0.92179644
0.15782663 0.9874668 0.06305388 0.9980101 0.025116224 0.9996845 0.009999833 0.99995
0.0039810613 0.9999921 0.0015848922 0.99999875 0.0006309573 0.9999998 0.00025118855 0.99999994
0.9092974 -0.41614684 0.71471345 0.69941735 0.31169716 0.9501815 0.12585683 0.99204844
0.0502166 0.99873835 0.019998666 0.9998 0.00796206 0.9999683 0.0031697804 0.999995
0.0012619144 0.9999992 0.0005023771 0.9999999 0.14112 -0.9899925 0.92996645 0.36764446
0.45775455 0.8890786 0.18815888 0.9821386 0.07528529 0.99716204 0.0299955 0.99955004
0.011942931 0.99992865 0.0047546607 0.9999887 0.001892871 0.9999982 0.00075356563 0.9999997
-0.7568025 -0.6536436 0.99976605 -0.02163067 0.5923377 0.8056898 0.24971214 0.96832013
0.10030649 0.9949566 0.039989334 0.9992001 0.015923616 0.9998732 0.006339529 0.9999799
0.0025238267 0.99999684 0.0010047541 0.9999995 -0.9589243 0.2836622 0.91319513 -0.40752262
0.7120732 0.7021053 0.3102716 0.95064795 0.12526439 0.9921234 0.049979165 0.99875027
0.019904045 0.9998019 0.007924382 0.9999686 0.0031547816 0.99999505 0.0012559424 0.9999992
-0.2794155 0.96017027 0.683794 -0.7296751 0.81395954 0.5809216 0.3695962 0.9291925
0.15014328 0.98866427 0.059964005 0.99820054 0.02388416 0.99971473 0.009509213 0.99995476
0.0037857352 0.99999285 0.0015071308 0.99999887 0.6569866 0.75390226 0.34744254 -0.9377013
0.89544296 0.4451763 0.42744997 0.904039 0.17492743 0.98458135 0.06994285 0.997551
0.027863897 0.99961174 0.011094023 0.9999385 0.004416687 0.9999902 0.001758319 0.99999845
0.98935825 -0.14550003 -0.04325122 -0.9990642 0.9544809 0.29827204 0.48360258 0.8752877
0.1996012 0.97987723 0.07991469 0.99680173 0.031843193 0.9994929 0.012678803 0.9999196
0.0050476375 0.99998724 0.002009507 0.999998 0.4121185 -0.91113025 -0.42718017 -0.9041665
0.9895935 0.14389123 0.53783053 0.843053 0.22414905 0.9745549 0.089878544 0.9959527
0.03582198 0.9993582 0.014263553 0.99989825 0.0056785857 0.99998385 0.0022606952 0.99999744
-0.5440211 -0.8390715 -0.7442953 -0.6678507 0.99990064 -0.014096433 0.58991814 0.80746305
0.24855547 0.9686177 0.099833414 0.9950042 0.039800204 0.9992077 0.015848266 0.9998744
0.0063095316 0.9999801 0.002511883 0.99999684 -0.9999902 0.004425698 -0.9449973 -0.32707813
0.98514396 -0.17173062 0.6396579 0.7686597 0.2728051 0.96206933 0.1097783 0.9939561
0.043777797 0.9990413 0.01743294 0.999848 0.006940475 0.9999759 0.0027630706 0.9999962
-0.53657293 0.84385395 -0.99789494 0.06485153 0.9456933 -0.32506028 0.68685204 0.7267973
0.29688257 0.954914 0.119712204 0.99280864 0.047754694 0.9988591 0.019017566 0.99981916

transformer_encoder.layers.0.self_attn.in_proj_weight f4 [60, 20]
00000000: 5c2f 26be 2dc3 6cbe ab24 563e c663 943d
00000010: 43cd 3c3e 6977 8e3d 56de 2ebe f1ea 033e
00000020: 0f47 4a3c 2505 4e3d e581 56be e007 6a3e
00000030: 5162 8abe 755c 343e 7850 863e c88a 863e
00000040: b6cf 963d b879 cdbd 70e9 55bc 1968 e2bb
00000050: 0f4b 743e a6b4 68bd c05f 86be 42be c43d
00000060: eb18 843d 3190 ef3d c6ff 213e 50c8 b1bd
00000070: 6b86 693e 409f 33bd cb59 613b 483f babd
00000080: 0280 d33d 738a c6bd e8e5 683e 2e20 213e
00000090: f4e0 853e 195d 853c 12e9 1c3d 0934 02be
000000a0: ece9 0b3e 2b95 13be d127 7e3b 41a2 49bd
000000b0: b713 713e bd7d 5dbe 8c6f 473e 2f01 68be
000000c0: 7074 7fbb 3397 94bd 8b7c 93bd 2646 74bd
000000d0: 781f 4b3d 8492 2cbe 6099 db3d 0c06 34be
000000e0: da6c 85bd c5c0 87be 9519 bfbd 6d35 a6bc
000000f0: 5800 bc3d 8c76 15bb 6326 14be d5d5 a43d
00000100: bf76 663e b18c 263e f8e3 f2bd 367a e03d
00000110: d915 df3c 178e 61bc 7734 853d a28f 003e
00000120: ef47 75be 8b34 f5bd 0bdb da3c edab 3c3e
00000130: fccf 3fbe 1077 06be 61d3 71bc 353f fc3d
00000140: 8791 73be d695 ea3d c251 34be 23e9 753e
00000150: c010 81bd e97b 82bd bf3d bbbc 83b0 95bc
00000160: 62ce 6b3e 64dd 033e 3320 63be 8bf8 133e
00000170: 16d6 283e 6296 c8bd 1e13 4ebe 9552 bbbd
00000180: 749f 65bd dd77 f63c 2bb1 b63c 6749 7d3e
00000190: fb7f a6bd 7482 f1bc bd65 363e bc99 5dbe
000001a0: 9e3c 5d3d d42b 1a3d 3d7d 923d a238 433e
000001b0: 3b93 62be fbe9 dbbd edc7 6f3d 398f 583e
000001c0: 5326 02bd aa2e 95bd a311 7abe 47bf 2b3e
000001d0: d1c1 26be b2e4 29be 7643 dcbd 467c f7bc
000001e0: 46ff c3bd 1a87 c83d 0ebc 4b3e 8636 fe3c
000001f0: 4f62 3abe 5797 0cbe 15bc bdba 811e 0abe
00000200: 7b3f b2bd 2f84 263e 1020 d0bd 254b ec3d
00000210: 2de9 c8bc db41 023e 635d 11be 9aed 753e
00000220: 672d 523e e884 fabd 478d 153c 1587 f0bd
00000230: 7a97 4d3e 7e83 fbbe 239a 463d 3d44 903d
00000240: 0320 913e 6b64 37bd 0fa7 20be c1ea 58bd
00000250: 697d 03be 8221 31bd 248e 1c3d 586e 4ebe
00000260: 8659 413e ca9a 88bc 7692 52be 1f14 15be
00000270: 7b6f c93d 9669 1b3d 3ba0 50bd 970a ddbd
00000280: 2cc1 e73d 94f4 c73d cfbc 5abd ffc3 483e
00000290: 4b74 f13d 8c9d a1bd 32d9 80be bb2f 4e3e
000002a0: c104 eebc 5cab 1b3e 2745 45bd 5db0 713d
000002b0: f005 6c3e 1f63 bdbd e0a3 063e d76b 3c3e
000002c0: 2c1d 0d3e c42a 62be 27dc 813e 1e99 113e
000002d0: 02de cabd 92e4 26be 6bfe aa3d 37de e13d
000002e0: 36a8 413e 1486 2ebe b915 d5bd 9779 153e
000002f0: 71f9 20be 370d f3bd 12a6 48be 1cf2 f4bd
00000300: 4d8e 253e c882 44bd d29d 2ebc 4b5e 6cbc
00000310: 8450 4fbe 244d 4fbd 0a82 94bd 2787 3c3c
00000320: eaec 27be c481 7dbe f80f 4f3d fa35 44be
00000330: 0079 05bc 2fbf 123e 1bb0 9f3c ec6b 4cbe
00000340: 3f05 5d3e 25b6 133e 09da fc3d 3c01 123d
00000350: 1e94 0dbd 1177 583c e519 47bd 78df ad3c
00000360: c8cf 693d 91e7 6c3e c13e ee3d 21aa 053e
00000370: 0772 883c 32eb 92be 1d10 4dbe 05ea 67be
00000380: 3616 443e 7d10 c7bd f0f0 14be a03e 433d
00000390: 711b b63c 9042 213e 3ca2 d4bd 62be 473d
000003a0: c0bd 48be 338c 95bd d187 34be c072 013e
000003b0: 6f6e d23d 0865 8ebc 5a44 8c3c 1c2f 8bbe
000003c0: 7425 9a3e 3f20 003e 0839 613e f75e 6fbe
000003d0: 3f0f 42be 02d6 13be fd2c 6fbe f811 bb3d
000003e0: 898c a9bd ea62 29be f8b6 f53d 93e8 48bc
000003f0: 4596 8c3e 25d9 513e 3be5 863e f295 4cbd
-0.16229004 -0.23121329 0.20912425 0.07245593 0.18437676 0.069563694 -0.17077002 0.12882592
0.012346043 0.050297875 -0.20947988 0.22854567 -0.27028134 0.17613395 0.26233268 0.26277757
0.073638365 -0.10032982 -0.013056144 -0.006909382 0.23856758 -0.056812905 -0.26244926 0.09606601
0.06450065 0.11697424 0.15820226 -0.08680785 0.22805183 -0.043853045 0.0034385796 -0.09094101
0.1032715 -0.09694376 0.22743952 0.15734932 0.26148188 0.016279744 0.03830821 -0.12715162
0.13663453 -0.14412372 0.0038781057 -0.049227003 0.23542677 -0.21629997 0.19476146 -0.22656702
-0.0038979314 -0.072554015 -0.07201489 -0.05963721 0.049590558 -0.16852766 0.10722613 -0.17580432
-0.065149024 -0.2651426 -0.09331051 -0.020289147 0.09179753 -0.0022806255 -0.14467768 0.08048598
0.22506236 0.16264607 -0.11859888 0.1096081 0.027232097 -0.013766787 0.065041475 0.12554792
-0.23953222 -0.119729124 0.026715776 0.1842496 -0.18731683 -0.13131356 -0.014759869 0.12316743
-0.23785983 0.1145436 -0.17609313 0.24014716 -0.06302023 -0.0637129 -0.022856591 -0.018272644
0.23027948 0.12877423 -0.22180252 0.1445028 0.16487917 -0.09794308 -0.2012448 -0.09146611
-0.05606027 0.030086452 0.022301277 0.24735032 -0.08129879 -0.02948115 0.17812248 -0.21640676
0.054012887 0.037639454 0.071527936 0.19064572 -0.22126476 -0.107379876 0.058540273 0.21148385
-0.03177483 -0.07284291 -0.2442079 0.16772185 -0.16284873 -0.16591147 -0.10755055 -0.030210625
-0.09570174 0.097913936 0.19895956 0.031031858 -0.18201564 -0.13729607 -0.0014475608 -0.13488199
-0.08703514 0.16261362 -0.101623654 0.1153777 -0.02452525 0.12720434 -0.1419578 0.24016419
0.20525132 -0.12232381 0.009127921 -0.11744515 0.20077315 -0.49123758 0.04848684 0.070442654
0.28344736 -0.0447735 -0.15688728 -0.052958254 -0.12840809 -0.043244846 0.038221493 -0.2015928
0.18881807 -0.016675372 -0.20563683 -0.14558457 0.09835716 0.03794249 -0.050934058 -0.107930355
0.113161415 0.097634465 -0.05340272 0.19606017 0.11789759 -0.07891378 -0.25165707 0.20135395
-0.029055001 0.15202087 -0.048161652 0.059006084 0.2304914 -0.092474215 0.13148451 0.18400513
0.1378066 -0.22086626 0.25363275 0.14218566 -0.09905626 -0.1629813 0.083493076 0.11028712
0.18911824 -0.17043334 -0.10404534 0.14597164 -0.15720154 -0.11867755 -0.19594601 -0.11960241
0.16167565 -0.047976285 -0.0106577445 -0.014426778 -0.20245558 -0.050610676 -0.072513655 0.011506832
-0.1639897 -0.24756533 0.05055234 -0.19161215 -0.008146524 0.14330743 0.019493153 -0.19963044
0.21584032 0.14424951 0.123462744 0.03564571 -0.034565084 0.013211981 -0.04860868 0.021224722
0.05708292 0.2313521 0.11633063 0.1305318 0.016655935 -0.28695065 -0.20025678 -0.22647865
0.19149098 -0.09719942 -0.14545035 0.047667146 0.022229882 0.15748048 -0.10382506 0.048765548
-0.19603634 -0.073021315 -0.17629935 0.1264143 0.1027497 -0.01738216 0.017122436 -0.2718438
0.301067 0.12512301 0.21994412 -0.2337607 -0.18951128 -0.14437106 -0.23357005 0.09134287
-0.08278758 -0.16541639 0.11997789 -0.012262481 0.27458397 0.2049299 0.26346764 -0.049947686

transformer_encoder.layers.0.self_attn.in_proj_bias f4 [60]
00000000: 493c 7fbc 5972 f53a ac5e 8cbb b282 7d39
00000010: 6122 18bc ab17 2a3c 20c6 f93c f39c 0b3d
00000020: d61d 9a3c 2c93 c2bb 91fc 9a3c efa3 5ebc
00000030: c719 99bc 30f8 d1bc f020 5c3c a052 9b3c
00000040: 401d 4abc e5f9 2abd 91d5 553b 3b39 443d
00000050: 697f 32b0 10b7 5430 4b97 75ad b636 3bb1
00000060: 5d69 df30 d3f6 8d32 805e c531 0087 8b31
00000070: c32f 0332 3b4e ac31 aedb 49af d96a 692f
00000080: e0c7 9e2f c400 7bb0 f42b 6ab1 da08 5331
00000090: 3a77 c6b1 2e1b 6d31 1ad2 2031 7f51 f730
000000a0: 901c 3cbd fffa 573d 7650 c7bc 5c37 a7bc
000000b0: be68 603d 3410 a33d 657f 71bb b59c 793d
000000c0: 603e 613d 4401 c13b ec2f b2bc baa4 163c
000000d0: cd3f 87bd 4b53 923d 1531 983c be67 9d3d
000000e0: d24e 263d 1037 293d 8ffc de3b 7836 8bbc
-0.015578338 0.0018726095 -0.0042837467 0.00024176648 -0.00928554 0.010381619 0.030489981 0.034085225
0.018813055 -0.0059379544 0.018919261 -0.0135888895 -0.01868905 -0.02563104 0.013435587 0.018960297
-0.012336075 -0.041742224 0.0032628516 0.04790614 -6.4937083e-10 7.73853e-10 -1.3960231e-11 -2.724318e-09
1.6255332e-09 1.6526803e-08 5.744198e-09 4.06078e-09 7.636063e-09 5.0147526e-09 -1.835889e-10 2.1229186e-10
2.8882052e-10 -9.1314356e-10 -3.4076466e-09 3.0709573e-09 -5.776113e-09 3.450349e-09 2.3402493e-09 1.7994778e-09
-0.045925677 0.052729603 -0.024330359 -0.02041214 0.05478739 0.07962075 -0.0036849615 0.060940463
0.054991126 0.0058900435 -0.021751367 0.009194547 -0.06603966 0.07144793 0.018578092 0.07685803
0.040602513 0.041312277 0.0068050097 -0.016993746

transformer_encoder.layers.0.self_attn.out_proj.weight f4 [20, 20]
00000000: a597 133e 56c2 aebd bfc7 87bd 55a8 ed3d
00000010: 74b9 733e 6199 0f3c 7806 9c3e 1121 be3d
00000020: 0b29 aabd 416a 423d c3e0 40be ae36 8a3d
00000030: b0ae b6bc 825c c7bb ee79 b23d a3e4 a6be
00000040: 403d 843d de6b 973d 42e4 a43e ea80 6d3d
00000050: 08b5 163e 17f5 c3bd 3cb2 783d 6046 30bd
00000060: d85a de3d 2b5a 14bd ed1c 6dbe 054b 24be
00000070: f344 20be 329a 84bd 0c54 24bd 6c20 843d
00000080: 818f f73d f075 3dbe c203 ebbd 0fc7 353d
00000090: fb6d 5dbd 09b5 583d 5a0b 773d 8b1f b0bd
000000a0: 1ace 1ebe aff3 35bd 9aa6 dcbd dedc 09be
000000b0: 5e73 3c3e 7c5b 13be 3c02 23be 11f5 003d
000000c0: dedc 4cbe a738 c1bc 19f7 06be 0f59 24be
000000d0: 679f 9a3c 5260 aa3d fd21 8b3c c00f 3bbe
000000e0: 1b25 213e 8074 bcbd a403 ce3d 4f4f 4ebe
000000f0: a701 713d 8cea 34bd 7475 883c f05a 913b
00000100: 5bb8 4c3e e914 84be 9b47 e13d e747 c0bc
00000110: 2a2f e63d dc30 963d 0943 213c 730c d5bd
00000120: 02a6 ee3d d079 a23d bcdc 9f3e c23e 18be
00000130: 5c8d debd aace bc3d 586a 273b 6adb 8d3e
00000140: a017 35bd 8f6c d13d 1486 60be 74a0 42be
00000150: 9df1 d1bc c7e1 8cbb 63e2 463e 708b 18bd
00000160: dd30 3e3e 06be 513d 800e b5bc 206f 4a3d
00000170: fbd2 48be 16db 513e 9eef a5bd f8f2 17be
00000180: 472c 883d 75e2 4e3d 1a47 d63d f602 06be
00000190: 6956 853e 08bf 973d 217c 51be c52a 51bc
000001a0: 37b3 9fbd a7db 94bd 1838 afbe b1c4 2ebe
000001b0: 100e f6bc b0e2 663e 1e72 5dbe 89e9 8dbc
000001c0: bff3 fb3a 6a18 4b3c 17c7 463d aed9 1d3e
000001d0: a2bb e5bc aa6c 3cbd 7abf 343e bdd0 1bbe
000001e0: 34ae 813d 8ef1 b3bd 521b f1bd 6f4d a23d
000001f0: 2977 483e ad68 58be f653 173e 363e 353d
00000200: 9bb9 473e 9eca 103e 1ac9 a03d 082b 623d
00000210: 3e1a 4c3e 9eb0 f3bd 0ce8 29be 0de2 4a3e
00000220: 3c7a 573b 710c 873d 5444 1dbe 0071 e2bd
00000230: 9ba6 a23d 54f9 0cbe e7c2 0a3e 5a45 83bd
00000240: 3298 fc3d b910 6dbd 179e 83bd a586 f63d
00000250: cab4 0d3e 3860 cebd 7f9f 2ebe 0a44 3bbe
00000260: 8522 0b3e 6ae1 70bd 1db1 9dbd fbe2 7dbd
00000270: 6b34 b33d c33f 193e 8afa 0ebd 2895 99bd
00000280: 145e f73c 3d05 403e 9895 473e 9ada 243c
00000290: 11da b3bd 72de 363d 164f 48bd cf9f 633e
000002a0: 3ab4 7d3c ba18 07bd c9c2 30be dd1a dbbd
000002b0: e309 93bd 6283 0e3e e5ae 133d 7550 573e
000002c0: cb3a 0cbd bc89 a53d 96b7 bc3d 6d32 87be
000002d0: 8c28 1d3e df73 1cbe c74c 643e 8531 00be
000002e0: c859 673e 8622 bbbd 7593 763d 73f3 513d
000002f0: dfee 4d3e aacf 19be b5e8 e33a 8693 953d
00000300: 898a 3abe 51b9 b6bd 6d03 01bd 0533 1e3e
00000310: bcac 12be 936d 013e 5e5f 3cbe 32a9 23be
00000320: b703 6e3e 4bf6 36be 7ca3 dc3d 3403 39bd
00000330: 0c7e de3d b142 32bc f83e 3e3e 2ec5 243d
00000340: 2fbd 11be 0b5a a4bc 952d 1dbb ee1f d1bd
00000350: ef1e e93b c740 183d 99c0 e3bb 8524 493e
00000360: 1760 873c cf65 373e 4977 a7bc 1f1e a53d
00000370: ce4b 1a3e f26c 9f3d b054 89bc 452b 33be
00000380: 12f8 9a3d 2827 70be ce2b 5fbe afdd 923d
00000390: b4e7 823e 1bbe 3dbc 51bb 45bd 452d 9bbc
000003a0: ba26 bfbd 4f94 ae3b 338d 0dbd e3f3 2f3e
000003b0: ffa6 90be e76a 34be 367b 273d 2f38 ef3c
000003c0: a2e6 2dbe 702c c2bd 0d51 9f3e 73b8 33be
000003d0: 50fe debd 9ef3 243d 2140 693d 75be c53d
000003e0: 487f 99be f23e 223e 894b 143e 3b7f f3bc
000003f0: 2c4b 10bd 9e57 5e3e 78be f3bb defe 813e
0.14413317 -0.085331604 -0.066298954 0.116043724 0.23801214 0.008764596 0.30473685 0.09283651
-0.083086096 0.047464613 -0.1883574 0.067487106 -0.022300094 -0.006084026 0.087146625 -0.3259631
0.06456995 0.07393621 0.32205397 0.05798427 0.14717495 -0.095682316 0.060716853 -0.043035865
0.10857171 -0.036218803 -0.23155566 -0.16044243 -0.15651302 -0.06474723 -0.040119216 0.064514965
0.12087918 -0.18502021 -0.11475326 0.04437929 -0.054059964 0.052907024 0.06031356 -0.08599766
-0.15508309 -0.044421848 -0.10773964 -0.1346316 0.18403384 -0.14390367 -0.15918821 0.031483714
-0.20006129 -0.023586584 -0.13180198 -0.16049598 0.018874837 0.08319153 0.01698398 -0.18267727
0.15736811 -0.09201908 0.10059288 -0.20147441 0.058839466 -0.044168994 0.016657569 0.0044358894
0.19992201 -0.25797203 0.10999986 -0.023471786 0.112394646 0.07333538 0.009842643 -0.10402765
0.11652757 0.0793339 0.31223094 -0.1486769 -0.10866806 0.092191055 0.0025545564 0.27706462
-0.044211984 0.10225784 -0.21926147 -0.1900652 -0.025627906 -0.0042993757 0.19422297 -0.037242353
0.18573327 0.05120661 -0.02210164 0.049422383 -0.19611733 0.20493731 -0.08102344 -0.14838779
0.0664907 0.050508935 0.1046278 -0.13087067 0.26042488 0.07409483 -0.20457508 -0.012766545
-0.077978544 -0.07268458 -0.34222484 -0.1706722 -0.030036002 0.22547412 -0.21625564 -0.017323272
0.0019222422 0.0123959575 0.04852971 0.1541507 -0.028043572 -0.046002068 0.17651168 -0.15216346
0.06332055 -0.08786307 -0.11772789 0.079249255 0.19576706 -0.2113368 0.14778122 0.044248782
0.19504397 0.14139792 0.07850857 0.05521682 0.19931886 -0.118989214 -0.16592425 0.19812794
0.0032879254 0.0659417 -0.15358096 -0.11056709 0.07941934 -0.13766986 0.13550912 -0.06409712
0.123337165 -0.057877276 -0.064266376 0.120374 0.13838497 -0.10076946 -0.1705303 -0.18287674
0.13587387 -0.05880872 -0.07699797 -0.061984044 0.08750232 0.1496573 -0.0349069 -0.074991524
0.030196227 0.18751998 0.19490659 0.010061884 -0.08781827 0.044645734 -0.048903547 0.22228931
0.015484864 -0.032982565 -0.17261805 -0.10698483 -0.0717962 0.13917306 0.036055464 0.21026786
-0.034235757 0.08082911 0.09214704 -0.2640566 0.15347499 -0.15278576 0.22294913 -0.1251889
0.22592843 -0.09137444 0.06019922 0.051257562 0.20110653 -0.15020624 0.0017388078 0.073035285
-0.1821691 -0.08922065 -0.031497408 0.1544915 -0.14323705 0.12639455 -0.18395755 -0.15982512
0.23243605 -0.17867391 0.1077337 -0.04516907 0.10863885 -0.010880158 0.18578708 0.040227108
-0.14232324 -0.020062467 -0.0023983468 -0.10211168 0.0071142833 0.03717115 -0.0069504497 0.19642837
0.016525311 0.1790993 -0.020442622 0.08062386 0.1506798 0.077844515 -0.016764015 -0.17496975
0.07566847 -0.23452437 -0.21794054 0.07171189 0.255674 -0.011580969 -0.048274342 -0.018942485
-0.093335584 0.0053277384 -0.034558486 0.17182879 -0.28252408 -0.17618905 0.040888987 0.029201595
-0.1698251 -0.09481132 0.31116524 -0.1755083 -0.1088835 0.040271394 0.056945924 0.096554674
-0.2997992 0.15844324 0.1448194 -0.029723754 -0.03522794 0.21713111 -0.007438477 0.2538976

transformer_encoder.layers.0.self_attn.out_proj.bias f4 [20]
00000000: 95ad 01bd 5391 853d 15b7 2b3d 8a77 1f3d
00000010: 2f7e b83c d558 ea3c 542e b5bc bd92 eb3c
00000020: 3b3f 4cbc c2f5 b1bc 7443 083c 619d 17bd
00000030: ca36 113d 4266 b9bd d110 ec3c 86c1 c2bc
00000040: a47f bebb 9efe 1abd 84d9 b13b 3551 acbc
-0.03165968 0.06521859 0.041922648 0.03893236 0.022521107 0.028606812 -0.022116818 0.028756494
-0.012466247 -0.021723632 0.008316863 -0.037015323 0.03545264 -0.09052707 0.028816612 -0.02377392
-0.005813556 -0.037840478 0.005427541 -0.021034816

transformer_encoder.layers.0.linear1.weight f4 [20, 20]
00000000: 74b8 a9bd e320 183e df89 913d 5660 473e
00000010: 0d84 c5bd fc29 b8bc 435f 22be 1e0b 363e
00000020: 301c efbc 5558 2dbc 2bd6 efbd aa53 133d
00000030: bf42 813d 8a9a 313d 4361 fa3c e69a b73d
00000040: fba6 453e 0f8b 14be 2c46 77bd b3f5 dabd
00000050: 7b77 66be d76c 273e d049 69be aac9 be3c
00000060: 1834 933d 35eb 86bc a3ad b53c 4dce 36be
00000070: a8e8 293e 081b 39bd 74ec 03bd 3d16 a33d
00000080: 5898 67bd 7755 0dbe 3890 253e 523e 4c3e
00000090: 41c5 0e3e ce7b 71bd b43e e1bd 33e5 a93d
000000a0: ed2b 2e3e 3f90 4f3e b5c2 583e d918 413e
000000b0: aa05 cf3c 6c9e 263e 0c1b 513e ecf1 f2bc
000000c0: 3fab d8bd 7021 343d 3dda 98be e78c 883b
000000d0: 9a0b 6f3c 4259 013e 3402 34be c7cf 4abd
000000e0: e660 b5bd d532 443e 6721 423d 330f d1bc
000000f0: f830 84bd a300 1cbe d61f 433d 7a3e 833e
00000100: 7970 12bd c413 15bb 74bc 94bd 4ee2 0f3e
00000110: 7acd 21be ba17 89bd 6fce 053e 6975 30be
00000120: c044 213e f08d 233d 6cea 79bd e224 d13d
00000130: 94a8 cabd a196 44be 54c3 fb3c f52d 303e
00000140: 3db9 7b3c 7411 3dbe bde5 c2bd f014 9cbe
00000150: 447c 1f3e 032d bb3e e66d 843a 2fac 48be
00000160: 821d b9bc 37f9 06be e3e2 343d 1a34 97bd
00000170: 4064 01be e317 213e f8ee 8a3d 7c2c 6dbe
00000180: 6d23 3dbe e5d8 893c 190e bc3d 626a 99bd
00000190: 74a2 a5bc d9d6 d7be 1a44 0b3b ea93 3fbd
000001a0: 8ef7 ab3d 024e 9fbe f997 263d d4e0 b0bd
000001b0: 455e eebd 7d06 0bbd eb40 34bd 122a 12bd
000001c0: b0e8 3abb 0afc 67bb 6e80 333e b17c a03e
000001d0: 45a3 89bd 2e47 be3d 4463 563e f6c1 e23d
000001e0: 4cea a3bc e827 e33d 5877 e6bd 25a9 38be
000001f0: 73c7 1c3e e7ae af3e f4d1 cabd a4e7 64be
00000200: c7f3 88bd 62d6 133e 3bf9 10be 2740 79be
00000210: 66d4 56be b865 06be da6d 733d 605a 70bd
00000220: 5d0b 0abd eda5 803d ff73 c33c 637c 73be
00000230: 5103 503e 592f 223e b2e3 acbd 8b6a b9bc
00000240: 7240 c5bd 4eee 663e 9f1b 64be 9ca8 a63d
00000250: d246 60bd dcf0 5ebe 8658 36be 5558 3ebe
00000260: a45e f63d f856 65be 88a5 053e 6549 3bbe
00000270: 17f2 fe3c e34c 71be 8e31 2dbe c9c1 c2bd
00000280: e8c9 fbbd 18c2 593e b459 553e 741c ebbd
00000290: bfe3 9b3d ff6b 8dbc 2898 783d 1b07 893e
000002a0: 73b1 04be 8a0c 15be 17ed 183e 6500 7d3e
000002b0: ecd7 b5bd 7aed dc3d e931 76bd 2268 63be
000002c0: 560b 033e a917 a8bd 179a c63d 1f38 0a3e
000002d0: 3860 8c3c f196 81be 0e5d 4ebb 2518 7c3e
000002e0: f9f3 713e f13d 803d 05ac adbd 5e5d ed3d
000002f0: 8085 4d3d 34c0 93bd bd51 fd3d a866 273e
00000300: a16e 043e fc7e 2fbe 5427 d4bd 00b4 aabb
00000310: 93b0 17be 5249 2b3e d5a5 a5bd adeb cebc
00000320: 5c7f 54bc bfd7 353e e8c7 86bd c0e5 453e
00000330: a4fe 4b3e f852 33bd 1ae3 4fbc 2f3e 99bc
00000340: c7fb 673e a553 34be fbcf 34be a184 30be
00000350: f961 c03d 5f91 d43d 0b21 d8bc 1c30 053e
00000360: 5dde 06be 3ec2 4cbe 9a59 9f3d 8aa2 2ebe
00000370: fefe 983d 024e 55be e4e9 2d3d 0080 1cbe
00000380: 0865 10bc e1dd 77be a382 003e 2a83 04be
00000390: 8174 f2bd 6487 013e b56c f5bc abb4 02bd
000003a0: a29e 41be afe8 45bb 379b 1d3e 140e 173e
000003b0: f1d0 38be 9b0d 38be 43bb 033e a9b6 a83d
000003c0: 0975 373d 2e60 3b3e 72d0 dbbc 1dbd 293e
000003d0: 5b1d 6e3d 4ae5 87bc d6e7 313e 5e53 443e
000003e0: 9dcd 233e 4aa4 d93d e760 8f3c e745 31be
000003f0: 9b80 23be 2782 cf3d 72c1 d0bd 6bc0 f2bd
-0.08287135 0.14856295 0.07106375 0.19470343 -0.09644327 -0.022480957 -0.15856652 0.17777678
-0.029188246 -0.010580142 -0.11710771 0.03596846 0.06311559 0.04336027 0.030563956 0.089650914
0.19301979 -0.14506172 -0.060369655 -0.10691395 -0.22506516 0.16350113 -0.22782063 0.02328952
0.071876705 -0.016469577 0.022177523 -0.17852135 0.16592658 -0.045191795 -0.03220792 0.07963226
-0.05654177 -0.13802134 0.16168296 0.19945648 0.13942434 -0.05895596 -0.10998288 0.082956694
0.17008944 0.2026987 0.21168025 0.18857135 0.025271256 0.1627137 0.20420474 -0.029656373
-0.105795376 0.0439772 -0.29854003 0.0041671875 0.014590168 0.12631705 -0.17578965 -0.04951456
-0.088563725 0.19160016 0.047395136 -0.025519943 -0.064546525 -0.15234618 0.047637783 0.25633603
-0.035751794 -0.0022747377 -0.07262507 0.14051172 -0.1580104 -0.066939786 0.1306703 -0.17232288
0.15748882 0.039930284 -0.061014578 0.10212113 -0.09895435 -0.19198085 0.030732788 0.17205031
0.0153639885 -0.18463689 -0.09516475 -0.30484724 0.15574747 0.3655778 0.0010103553 -0.19596933
-0.022597078 -0.13181005 0.04416169 -0.073829845 -0.12635899 0.15731768 0.06783861 -0.231615
-0.18470545 0.016827056 0.091823764 -0.07490994 -0.020219065 -0.42156103 0.0021250308 -0.04677192
0.08396827 -0.31114203 0.040672276 -0.086366326 -0.11639074 -0.033941735 -0.044007223 -0.035684653
-0.002852004 -0.003539803 0.17529461 0.31345132 -0.06720594 0.0929092 0.20936304 0.11072151
-0.020009182 0.11091596 -0.11253232 -0.18033274 0.15310459 0.34313127 -0.09903327 -0.22353989
-0.06687122 0.1443725 -0.14157574 -0.24340878 -0.20979461 -0.1312474 0.059430934 -0.05867994
-0.033702243 0.06281648 0.023859022 -0.23777919 0.20313765 0.15838374 -0.08441867 -0.022633811
-0.096314326 0.22551844 -0.22276162 0.081376284 -0.05475504 -0.21771568 -0.17807207 -0.18588383
0.1202977 -0.22396457 0.13051426 -0.18289717 0.031121297 -0.23564486 -0.16913435 -0.09509618
-0.1229437 0.21265447 0.20835 -0.114800364 0.076117985 -0.01726341 0.060691983 0.26763234
-0.12958317 -0.14555565 0.14934193 0.24707182 -0.088790745 0.107874826 -0.06010619 -0.22207692
0.12797293 -0.08207638 0.09697359 0.13497971 0.017135724 -0.25310472 -0.003148857 0.24618585
0.23628224 0.062618144 -0.08480076 0.11590074 0.050176144 -0.07214394 0.12369106 0.16347754
0.12932827 -0.17138284 -0.10359064 -0.005209446 -0.14813451 0.16727188 -0.080882706 -0.025258863
-0.012969818 0.17758082 -0.06581098 0.19325924 0.19921356 -0.043780297 -0.012688423 -0.01870641
0.22654639 -0.17610033 -0.17657463 -0.17238094 0.09393687 0.1037929 -0.026382944 0.13006634
-0.13170762 -0.19995973 0.07780762 -0.17054191 0.07470511 -0.20830539 0.042459384 -0.15283203
-0.00881315 -0.24205734 0.12549834 -0.1294066 -0.118386276 0.12649304 -0.029959062 -0.03191058
-0.1890817 -0.0030198505 0.15391241 0.14751464 -0.18048455 -0.1797394 0.12864403 0.08237965
0.044789348 0.18298408 -0.026832793 0.16576047 0.058133464 -0.016588826 0.17373595 0.19172427
0.15996404 0.10627039 0.017502261 -0.17311822 -0.15967028 0.101322465 -0.10193147 -0.11853107

transformer_encoder.layers.0.linear1.bias f4 [20]
00000000: b431 a7bd a1cd cb3d 5d05 46be 2750 7ebd
00000010: 02ce 293e 55a2 dcb9 4223 67be cd3d 6bbe
00000020: 44c1 203d 8b39 b13d 4a05 ea3d be05 f6bc
00000030: d874 4a3d 4bb0 34bd 2909 ebbd dd6b b9bd
00000040: 2872 42be 5d51 21be d817 0fbe f151 6abe
-0.08163777 0.0995133 -0.19337983 -0.062088158 0.16582492 -0.00042082617 -0.22572044 -0.22972794
0.039246812 0.086535536 0.1142679 -0.030032035 0.049427837 -0.04411344 -0.114763565 -0.090537764
-0.1898886 -0.15753694 -0.1397394 -0.2288282

transformer_encoder.layers.0.linear2.weight f4 [20, 20]
00000000: df73 763d 4f19 3cbe cc79 92bd c0f8 573e
00000010: 1743 63be 086c c13e c8a8 683d 61eb 2a3e
00000020: 8d13 0bbe 0f5a 803e 856c b83d cb2e 913e
00000030: 1a62 fdbd c4e8 b33c bde2 463e 3357 1a3e
00000040: c4de 843e 288f acbd abce 6abd b90c af3d
00000050: 2615 093e 520b 5d3d 73af 46bd 7150 503d
00000060: 88ae ebbc 7da2 853e bcd3 f73d d4c1 21be
00000070: 0e88 053e ff30 073c 8744 cbbd 3140 9dbc
00000080: 7e45 133e dad5 48bd 0fef ec3d bd4c bebd
00000090: db8c e23b 16fc 52bb d155 c93b 940e 2fbc
000000a0: 5841 523d b871 50bd 27c2 263e 7539 d6bd
000000b0: 51f4 02be b899 853e 1f2f 0ebe 829f 7c3e
000000c0: b84c 2f3e 19ba 183e 72ef 3e3b e9ca 28bc
000000d0: 1660 44ba f645 67bd 9ce6 b73d 6d63 04be
000000e0: 7c00 69bd 86b1 b93c ee8d 3f3d c210 813d
000000f0: 5560 1a3e 9c19 62bc df30 84bb 6013 b2bd
00000100: 27c0 d83c 7638 4a3d 118f f43d ad48 133e
00000110: 2451 c0ba 862f 15be 3c7d 1b3d e5c5 3abc
00000120: 7062 2c3d 71c2 32bb 4f26 143e b082 213e
00000130: 1b62 d2bd a0e1 283c 5bcc 463d edbf c9bd
00000140: b69e 26bd 6dc9 e93b 8e2a 2cbe b5f8 713d
00000150: 3ab8 a33d b4a7 2a3e 6cc3 a83d d3dd d03d
00000160: 4086 393e f4a0 ee3d 0df1 edbd ca5f dbbd
00000170: d144 f63d d1b1 513e 1ca2 b8bd 8dfb 793e
00000180: 9fc8 e93d 5ae3 47be 73ad 663d e64d 323d
00000190: a1b0 443e b151 9e3d 6779 0bbe 6b1c 30bd
000001a0: bd5f 193d 8358 403e ea17 41be 1afd e3bd
000001b0: a29a 98bd 6137 92bc ef92 063c 2840 9f3c
000001c0: 8fbd c93d 863e b6bd 3758 2fbe f494 37be
000001d0: e709 763d 562b 443d db43 2dbd b8fa 1b3e
000001e0: 86eb 05be 568f af3d 86a3 cdbd e0a9 2f3e
000001f0: bff1 97bb 3d0a d63d 8ade 7ebd 4aae cf3a
00000200: 3625 a7be 3ebe 173e 8459 e43c bdd4 febd
00000210: e52d b13d 3f09 53be ba27 0a3d 20c3 6d3e
00000220: 794a c43d 5e0a 013d 5ce8 0c3c 2567 733c
00000230: 6602 1e3e 4eb6 2a3e 2a72 db3d f9ef 1fbe
00000240: 4404 503e a145 37be c711 5b3e eeb0 cd3b
00000250: d034 523e ee99 a23c 4d52 253e 5750 003d
00000260: 30d6 633d 819a d63d bce5 153e aac8 2dbe
00000270: 08c6 b5bd 7879 a13d d849 be3d 8669 cd3d
00000280: 50f5 653d 9e92 d43d 138f 1fbe 507c 503e
00000290: 36f0 9abd 99a6 d03d d856 8ebe e7bf 8f3d
000002a0: 2b14 c4bc 29bd 313e ae71 0ebe e2a8 2abe
000002b0: 2fc7 de3d 6363 c8bd fe9a 023d c59a dcbd
000002c0: 1ffa 7b3e b64d 363e 0a91 e83d e486 153d
000002d0: 5a21 e63d ff8a 283e 34c5 023e bf3c c13b
000002e0: 84d4 33be e51d 80be 5c97 71bd e15d b8bd
000002f0: c6f6 95bd 5da0 75bd 0717 80bd 52ea 9fbc
00000300: c2a0 1b3e e44f 7ebd 85e5 a1bd 6fd6 87bd
00000310: 5c9f 593d ccb9 c6bd dc24 003e 841c 6abe
00000320: 0ec9 08be a2f7 78be f724 c63d bf59 243e
00000330: 3584 823e 7e33 11be 7c1d 5c3e 477d 623e
00000340: 36ae bfbd 783c a13d 4ed8 523e bd23 9cbd
00000350: e1c2 cf3b 60d1 3ebd 272c 1cbe 3ff6 c9ba
00000360: 4675 8bbe f06b 013e b3cd 84bd 1767 8abe
00000370: 5d8b 463e 4b80 173e 4b77 a8bc ab61 4fbe
00000380: f23e 163e 5653 3c3c 3bd8 6c3e 14aa d5bd
00000390: 88b9 273e 0ce9 bd3d 3b09 a33d 716c a9be
000003a0: 8f66 90be e343 623d 26e8 153c 18db 073e
000003b0: 7c08 b93d ab20 10be f472 203d e0ab febd
000003c0: 4797 36bd f348 38be 5188 f73d 2b79 25be
000003d0: 4f8e d83c b2ec 24be 0a8e cebd ecef 6fbd
000003e0: 88fa 1bbe a3a4 6fbe c71b 25be 712c 60be
000003f0: e47e 383e c76d 0a3e 260e e03c a653 273e
0.060169097 -0.1836903 -0.07152137 0.21090984 -0.22193561 0.37777734 0.056801587 0.16691352
-0.13581677 0.2506871 0.090050735 0.28356013 -0.12372227 0.021961577 0.19422431 0.15072326
0.25951207 -0.084257424 -0.057326 0.085473485 0.13386974 0.053965874 -0.048507165 0.050857965
-0.028769746 0.2610053 0.12100932 -0.15796596 0.13040182 0.008251428 -0.0992518 -0.019195648
0.14381978 -0.04903207 0.11569034 -0.092919804 0.006913764 -0.0032193712 0.0061442633 -0.010684628
0.051331848 -0.0508897 0.16285 -0.10460178 -0.12788512 0.2609384 -0.13885163 0.24670222
0.1711911 0.1491474 0.002913442 -0.010302284 -0.00074911246 -0.056463204 0.08979532 -0.12928553
-0.056885228 0.022667658 0.046766214 0.063020244 0.1507581 -0.013800051 -0.004034146 -0.08695102
0.026458813 0.04937025 0.1194135 0.14383192 -0.0014672619 -0.1456891 0.03796123 -0.011399721
0.042086065 -0.002727654 0.14467739 0.1577251 -0.102726184 0.010307699 0.048534732 -0.0985106
-0.040678702 0.0071346075 -0.16813108 0.059075076 0.07994123 0.16665536 0.08240399 0.101985596
0.18117619 0.11651793 -0.116182424 -0.1071163 0.120248444 0.20477988 -0.09015295 0.24412365
0.114152186 -0.19520321 0.056317758 0.04353132 0.19208004 0.07730425 -0.1362053 -0.04299585
0.03744482 0.18783765 -0.18856779 -0.1113226 -0.07451369 -0.017848672 0.008213743 0.019439772
0.098506086 -0.08898644 -0.17123495 -0.17927915 0.060068037 0.04789289 -0.04230104 0.1523236
-0.13078126 0.08572261 -0.10040955 0.17154646 -0.0046369727 0.104511715 -0.06222395 0.0015844789
-0.32645577 0.14818665 0.027874716 -0.1244292 0.08651332 -0.20608996 0.033729292 0.23218966
0.09584517 0.031504028 0.008600321 0.014856135 0.15430602 0.16671106 0.107151344 -0.15618886
0.20314127 -0.17897655 0.213935 0.006277195 0.20527959 0.01984879 0.16144677 0.031326618
0.055624187 0.10478688 0.14638418 -0.16971079 -0.08875662 0.078844965 0.09291428 0.100298926
0.05614215 0.103795275 -0.15581922 0.20359921 -0.07565348 0.10188026 -0.27800632 0.07019024
-0.023935398 0.17357315 -0.13910553 -0.16665986 0.10877835 -0.097845815 0.031886093 -0.107717074
0.24607132 0.17803082 0.11355789 0.036505595 0.1123683 0.16459273 0.1277054 0.005897134
-0.17561537 -0.25022808 -0.05898224 -0.09002281 -0.07322459 -0.059967387 -0.06254392 -0.019520912
0.15198043 -0.06208791 -0.079051055 -0.06632697 0.053130493 -0.09703407 0.1251406 -0.2286244
-0.13357946 -0.24313214 0.09675019 0.1604986 0.2549149 -0.14179799 0.21495622 0.22118102
-0.093594 0.078728616 0.20590326 -0.07624004 0.00634037 -0.046586394 -0.15251218 -0.001540847
-0.2723791 0.12638831 -0.064845465 -0.27031776 0.193891 0.14795034 -0.020564696 -0.20252101
0.14672449 0.011494478 0.2312936 -0.104328305 0.16379368 0.09272966 0.07960745 -0.33090547
-0.28203246 0.055240523 0.009149587 0.13267171 0.090348214 -0.14074962 0.039172128 -0.12435126
-0.044577863 -0.17996578 0.12086547 -0.16159503 0.026435046 -0.16105917 -0.100856856 -0.058578417
-0.15232289 -0.23402648 -0.16123877 -0.21891953 0.18017155 0.13518439 0.027350497 0.16340503

transformer_encoder.layers.0.linear2.bias f4 [20]
00000000: c94a db3d 3d7d a83c c5b7 603e 2c8a 9d3b
00000010: 177b 153e 9398 e83c 0ab1 acbc 2e4c 09be
00000020: 7662 f7ba 2e38 36bd da90 533e 360f e4bc
00000030: 4717 1a3d efeb 873d 8bc0 9fbc a1f1 57bd
00000040: 5283 103e 99a6 57bd 9221 3c3e ab23 d9bd
0.107076235 0.02056753 0.21945103 0.004807731 0.14597736 0.028393066 -0.021080513 -0.13407966
-0.0018873948 -0.04448717 0.20660725 -0.027839284 0.037619855 0.06636798 -0.019500991 -0.05272067
0.14112595 -0.052649114 0.18372181 -0.10602506

transformer_encoder.layers.0.norm1.weight f4 [20]
00000000: c6d3 a33f cb24 953f c21f 8f3f ebc7 943f
00000010: 1258 833f bab0 9b3f 948e 8a3f abe1 6c3f
00000020: 4030 883f 35e7 7d3f 6771 7e3f 0ae8 873f
00000030: e85f 6a3f e8d7 723f d5c8 793f df26 463f
00000040: 52c1 713f f602 8b3f 3da0 7b3f b067 783f
1.2799003 1.1651853 1.1181567 1.162351 1.0261252 1.2163308 1.0824761 0.9253184
1.0639725 0.9918092 0.9939179 1.0617688 0.9155259 0.94860697 0.9757207 0.7740306
0.9443561 1.0860279 0.9829138 0.97033215

transformer_encoder.layers.0.norm1.bias f4 [20]
00000000: 9593 1bbd b5fd 963d bd52 6c3d 2201 833c
00000010: ad46 0d3d beab 363d 5ae9 8cbd 4a4f 653d
00000020: 44c8 ad3b f3c7 75bd fa97 443d 73b4 acbc
00000030: f750 6a3d a970 44bd 5469 1b3d facf 44bd
00000040: a357 ee3b 3a4a 7abd 0934 233d 2564 50bd
-0.037982542 0.073726095 0.057696093 0.015991751 0.03449123 0.04459738 -0.06880446 0.05598382
0.0053034145 -0.06000514 0.0479965 -0.021082139 0.05720612 -0.047959004 0.037942246 -0.048049904
0.0072736307 -0.061105944 0.039844546 -0.050876755

transformer_encoder.layers.0.norm2.weight f4 [20]
00000000: 3bf8 a83f acf7 673f 4503 923f 0f2d 823f
00000010: c2a5 893f a34d 823f 7601 913f c646 703f
00000020: ae79 8c3f a32a 863f 0d5e 773f 8019 8b3f
00000030: ec74 683f de42 793f 4682 793f afbf 513f
00000040: d5bf 733f 1344 8f3f 107e 813f 6385 863f
1.3200754 0.9061229 1.1407248 1.0170001 1.075371 1.0179943 1.1328571 0.9385799
1.0974634 1.0481762 0.96627885 1.0867157 0.9080341 0.97367656 0.97464406 0.8193311
0.9521459 1.119265 1.0116596 1.0509456

transformer_encoder.layers.0.norm2.bias f4 [20]
00000000: c0d4 273c 2cff a03d 9296 a93d b4a9 9b3d
00000010: ce3e 5d3c 6a4f a2bb 7b39 50bd 3978 b13d
00000020: efe4 e33b 28f4 6fbd 17e8 1e3d 9105 93bc
00000030: 021d 873c ab60 b5ba 886d 973d 4ec1 f23c
00000040: 4ef2 01bd b4d4 6dbd 953d 413d 2b7c 17bd
0.010243595 0.0786117 0.08280672 0.07600728 0.013503743 -0.0049533146 -0.050836068 0.08665509
0.0069547812 -0.058582455 0.038795557 -0.01794699 0.016493324 -0.0013838013 0.07393938 0.02963319
-0.03172522 -0.058064178 0.04717787 -0.03698365

transformer_encoder.layers.1.self_attn.in_proj_weight f4 [60, 20]
00000000: 05a7 1cbe 4e51 85be 15be 5d3e 9905 593d
00000010: 9ac4 323e d81c 773d 9d3e 25be e4e5 f93d
00000020: 6935 0c3d c6de 5a3d d6ed 4dbe bb8b 703e
00000030: a8f2 8dbe bc56 393e 0948 833e bcba 893e
00000040: 14a2 a83d c5dc cabd f5a7 28bc 6638 4e3c
00000050: f58a 6a3e 2446 8dbc e5d9 80be 268a c73d
00000060: 296c 9b3d f828 e83d 69d2 283e 19fa 8fbd
00000070: 8120 583e 8d23 14bd 9e62 80bb a1c6 9cbd
00000080: 25c4 cd3d 9233 9cbd 114f 633e c541 1f3e
00000090: 6b92 853e 1e61 b23c 87ab 2e3d 716f 12be
000000a0: 3021 373e fb68 6bbe 30f6 be3c ac97 80bd
000000b0: be1e 653e 2419 69be 43f8 363e 9037 81be
000000c0: 013a b93c b8c1 b5bd 9d50 71bd 4747 69bd
000000d0: 6ff6 2d3d fa5c 47be 0a4a cd3d 7a90 2dbe
000000e0: 7b5b 6cbd 6f67 94be f338 c1bd 3d16 2a3c
000000f0: bee2 513d 9e36 5e3d 43f5 2abe 4f67 8b3d
00000100: a2e7 823e 8f7b 2f3e 7721 c8bd 3d49 133e
00000110: 07cc 3b3c 8124 e83b 171e 6d3d 6350 013e
00000120: 6ba6 6ebe ebb0 abbd 50f6 823c c7b2 2f3e
00000130: 2a86 4dbe 2caa f2bd 7eeb 27bc aaf0 b53d
00000140: b0b6 74be f41b 113e 7321 35be 2ebc 6b3e
00000150: c437 45bd 2c96 54bd b213 50ba 211d 5dbb
00000160: 5190 653e dc02 153e 6059 66be 2df3 1c3e
00000170: 134e 303e 7768 9ebd a4dd 4bbe e5a1 acbd
00000180: 2069 6ebd 7912 313d 2018 fa3c 09ec 703e
00000190: a6af 82bd bef0 33bd a38c 443e 245b 77be
000001a0: c472 b23d 55d2 1f3d c5e9 253d 29e8 453e
000001b0: 4506 3cbe 28ea 14be e97a bb3d 6174 453e
000001c0: 74b5 14bd dfd2 5dbd cb49 78be bd69 113e
000001d0: f1d8 16be 901e 4abe 1633 9dbd 9abd 2fbd
000001e0: 8637 c6bd f628 d63d 124a ef3d 4ae0 353d
000001f0: e03b 39be f448 e4bd 31bf 0abd 32a0 04be
00000200: 0476 31be 7d09 1a3e 9c2f 03be 934e a73d
00000210: 892e 64bd c22c 013e a50b 2bbe b450 413e
00000220: 796a 333e 4cdf f2bd 7c12 6fbb 59ff 0dbe
00000230: ec75 6c3d 7719 48be 4157 1a3d 193a c63d
00000240: 726f 973e 75c6 1bbd adc6 71be 520b 06bd
00000250: ffac 16be 4e55 f3bd 8280 453d 6fba 6bbe
00000260: 276d 263e 66fa 7c3c e59e 34be 45a8 2fbe
00000270: 35e8 c23d 30c7 c5bb bed6 a2bd 679c edbd
00000280: 88f4 0c3e eb90 6fbd 09f2 86bd a8a1 293e
00000290: 9ce5 f43d a723 a3bd a5bc 73be 3753 423e
000002a0: 5534 35bc b83f 303e 84b6 42bd 95d4 423d
000002b0: 6b74 6a3e dcb3 04be 5137 e23d d487 213e
000002c0: 5953 123e d56b 5abe 87e0 833e 3e46 053e
000002d0: c688 12be 8b9f 84bd fa02 033e d780 023e
000002e0: 7361 453e 8605 56be 2187 cfbd 35f3 203e
000002f0: 2b2e bfbd 87a0 0dbe c315 1bbe ccb5 e2bd
00000300: 65f7 353e 9d03 0fbd 484c c83c 3db2 943b
00000310: ee38 37be 6489 88bd 848a 9ebd ebcf e33c
00000320: f0a5 fcbd 6fbf 6ebe 1bbb 87b9 8668 14be
00000330: df03 8e3c f784 b63d ba98 853d d9ad 2ebe
00000340: 1d3a 413e aef8 2b3e 68c5 ce3d dcd7 41bc
00000350: 0fa4 63bc 0eed 723c 6249 91bd fd89 59bb
00000360: 734a e03c 111a 813e f463 e33d 5438 ec3d
00000370: b935 dcbc 4b71 75be 35ce 8abe 652c 5cbe
00000380: cd22 443e 1de2 b4bd babf a9bd ebcf 2b3d
00000390: fb6c 283c ae14 4e3e 2625 01be b6ff b03c
000003a0: fa5b 20be 6a8b 73bd 460b 36be bdaf 0d3e
000003b0: 8fd2 9d3d 63d4 f13c bd00 e13b c348 8cbe
000003c0: 3ee8 933e 6813 f53d 08c5 6e3e 562e 86be
000003d0: 16cd 39be 2091 eabd 89cd 81be cca8 ad3d
000003e0: de42 9bbd e522 30be 0af9 0c3e 8d07 753c
000003f0: cbb6 8b3e 7efe 613e e08f 8a3e c2e6 01bd
-0.15298088 -0.26038593 0.21654542 0.052983854 0.1745781 0.060330242 -0.16137166 0.12202051
0.034230623 0.05343511 -0.20110258 0.23490803 -0.27724195 0.18099493 0.25640896 0.2690028
0.08234039 -0.0990539 -0.01029395 0.012586689 0.2290457 -0.01724536 -0.2516624 0.097431466
0.07588989 0.11335939 0.16486515 -0.07030124 0.2110615 -0.036166716 -0.003918006 -0.07655073
0.10047177 -0.07627024 0.2219813 0.15552433 0.2608827 0.021774825 0.04264405 -0.14300324
0.17883754 -0.22989266 0.02331075 -0.06278929 0.22375008 -0.22763497 0.17868142 -0.25237703
0.022610666 -0.088748395 -0.05891477 -0.05695274 0.042471346 -0.19469061 0.100238875 -0.16949645
-0.05770443 -0.28985164 -0.0943469 0.010381279 0.05124163 0.054251306 -0.16695122 0.06806814
0.25567347 0.17136978 -0.09772008 0.14383407 0.011462218 0.0070844297 0.057890024 0.12628321
-0.23305671 -0.08383354 0.015986592 0.17158042 -0.20070711 -0.11848864 -0.010249017 0.08883794
-0.23897815 0.1417082 -0.17688541 0.23021004 -0.048148885 -0.051901028 -0.0007937505 -0.0033739286
0.22418334 0.14551872 -0.22495031 0.15327139 0.17217283 -0.07734769 -0.19908768 -0.084293164
-0.058205724 0.043230508 0.030529082 0.2352754 -0.063811585 -0.04393076 0.19194274 -0.24155861
0.08713296 0.039018948 0.040506143 0.19326843 -0.18361767 -0.14542449 0.091543026 0.19282676
-0.03630586 -0.05415618 -0.242469 0.14200492 -0.14731194 -0.19738221 -0.076757595 -0.042905428
-0.09678559 0.104570314 0.1168405 0.04440335 -0.18089247 -0.11146727 -0.03387374 -0.12951735
-0.17330176 0.15042682 -0.1281113 0.08169284 -0.055708442 0.1261473 -0.16703661 0.18878442
0.17521085 -0.11858997 -0.0036479523 -0.13866939 0.057729647 -0.19540964 0.037680868 0.0967905
0.29577214 -0.03803106 -0.23610945 -0.03272564 -0.1471443 -0.11881505 0.048218258 -0.23020338
0.16252576 0.015440559 -0.17638738 -0.17154033 0.09516946 -0.006035708 -0.07951115 -0.11602097
0.13765156 -0.058487814 -0.06589133 0.16565573 0.11957857 -0.079657845 -0.23802431 0.18977056
-0.01105984 0.17211807 -0.04753734 0.047566015 0.22895972 -0.12959236 0.11045707 0.1577447
0.14289607 -0.21330197 0.25757238 0.13015077 -0.14309987 -0.06475743 0.12794104 0.12744461
0.19275455 -0.20900545 -0.10133196 0.15717776 -0.09334978 -0.13830768 -0.1514502 -0.11069831
0.17770155 -0.034915555 0.024450436 0.004537849 -0.1789281 -0.0666683 -0.077412635 0.027809104
-0.123363376 -0.23315214 -0.0002588861 -0.14492998 0.01733583 0.0891208 0.06523271 -0.17058505
0.18869825 0.16794083 0.10096246 -0.01183125 -0.013894095 0.014827026 -0.07094075 -0.003319382
0.02737925 0.252152 0.11103049 0.11534181 -0.026881086 -0.23968999 -0.27110448 -0.2150131
0.191539 -0.0883219 -0.08288522 0.041946333 0.010279889 0.20125076 -0.12611827 0.021606307
-0.15660086 -0.059459127 -0.17777738 0.1383657 0.077061765 0.02952022 0.006866543 -0.27399263
0.28888124 0.11966592 0.23317349 -0.26207227 -0.1814464 -0.11453462 -0.25352123 0.08479461
-0.07581113 -0.17200811 0.13766876 0.0149554135 0.27287897 0.22069737 0.27062893 -0.03171421

transformer_encoder.layers.1.self_attn.in_proj_bias f4 [60]
00000000: 8b79 0b3c 78b0 563b c005 d33c 8d31 97bc
00000010: 445c 9fbc 4d29 4c3d 7c5f 38bb 7274 283c
00000020: 0531 063d 70f9 4dbb e664 2cbc 6875 19bd
00000030: 44af 783b 1f9d aeba d2a5 9638 b0a1 09bb
00000040: e863 0ebc 23b7 8ebd 2456 82bb 782d 4f3d
00000050: a92d d3af 0de1 f9b0 3ea1 b630 d96f 81b0
00000060: 64a4 12b1 f16d 8c31 e99f ae30 4ce6 ff31
00000070: 000c 5e30 d92c a530 ee72 18b1 1933 6ab1
00000080: 1415 2330 7e0a 86af 7fcf 91b1 936a 39b1
00000090: cf73 1e31 03ad 59b1 d6d4 50b0 273c fdb0
000000a0: 4c6c 663b 0d7f 63bd a701 9a3c 6ac2 babb
000000b0: 1781 983d d37e adbc 380a 873b 64af a23c
000000c0: 9744 3d3d 4605 1dbc f3d6 b43b ba17 183c
000000d0: 0aed 90bc 2103 e2bc e330 65bd 2f5d d5bc
000000e0: aaa5 373d 91fb d33b ad8c e6bc 6d26 9d3c
0.008512865 0.0032758992 0.025759578 -0.018456245 -0.019453175 0.049844075 -0.0028133085 0.010281669
0.032761592 -0.0031429194 -0.010522103 -0.037465483 0.0037946263 -0.0013321972 7.183444e-05 -0.0021000914
-0.008690812 -0.06968524 -0.003977554 0.05058047 -3.841312e-10 -1.8181098e-09 1.3288071e-09 -9.417774e-10
-2.1339241e-09 4.087035e-09 1.2705615e-09 7.4476585e-09 8.078018e-10 1.2018077e-09 -2.2184241e-09 -3.4080527e-09
5.932901e-10 -2.4381913e-10 -4.243645e-09 -2.6981624e-09 2.3057856e-09 -3.1676002e-09 -7.597242e-10 -1.8425269e-09
0.0035159765 -0.055541087 0.018799616 -0.0056994455 0.07446497 -0.021178639 0.004121091 0.019859023
0.04620799 -0.009583777 0.005518788 0.009283001 -0.017691154 -0.027589383 -0.055954825 -0.02604541
0.044835724 0.006469198 -0.028143251 0.019183362

transformer_encoder.layers.1.self_attn.out_proj.weight f4 [20, 20]
00000000: 008d ee3d d9aa 0ebc e4c7 80bc 9e42 b03d
00000010: 489c b73e fa40 0abe 4488 233e cf66 623d
00000020: b1f2 31be a1d9 de3d 2361 5cbe a3cd ce3c
00000030: 52a1 c5bd 29fc 1c3c 7d96 4b3d d0a2 89be
00000040: 36b9 db3b 5bea 553d 662e 853e 320d 153d
00000050: 88eb c83d def3 11be 606d 8f3d 1776 b23d
00000060: 91fa 023e 081c 59bd 6ca4 95be 837f 62be
00000070: 8e7f 90be 8c93 33bd 375f 3fbd aa9a cf3d
00000080: d7b4 f53d 5ef7 a0be ba2c d4bd cd60 b9bc
00000090: 8619 52bd b130 893c 67ab 843d be58 a8bd
000000a0: 298a 08be 986f 3b3c 82c7 eebd 3afb 3fbe
000000b0: b68f 463e 6bb2 c2bd cf24 02be a9e9 0f3d
000000c0: ab9e 7ebe 5606 b6bd 18ce 4abe ff1e 3fbe
000000d0: b7b2 af3d 298a c2bc b20a 9f3c 885c 99bd
000000e0: 3ccb 283e da98 563c d9c2 753d 33f3 a9bd
000000f0: 1dff 013d 6c92 b4ba 4964 663c 778a 173d
00000100: 5e1f 3a3e 9991 63be cfb9 e93d 7ce6 2a3d
00000110: b46f ef3d f6b7 9f3d fc54 213d 637f 04be
00000120: ee6a 963d 0042 093e d067 b83e 3be7 16be
00000130: 9e93 d1bd 6ea4 4b3d 92d1 d8bc cff6 453e
00000140: 311e 06bc 846e cd3c 8510 58be 01d7 28be
00000150: df2b 693c fc39 e4bd 558d 0a3e 4048 07be
00000160: d2ce 193e fbac 683d 2bda 85bd 749b d23d
00000170: 5d0a 2abe 787d 353e f039 e1bd 1073 15be
00000180: ab62 8d3d 874e f43d 40ec 0f3e 17d0 2cbd
00000190: 66b0 4d3e 3b14 1a3d f237 38be eb5f 073d
000001a0: a9b9 833d 5f71 02be 92a4 9cbe 4694 30be
000001b0: 6da1 8ebd 5414 943e 1c82 8fbe c2ea 403d
000001c0: 5d42 04be b46e debb aba5 3e3e 145f 0f3e
000001d0: 773e b8bc 6d9d ffbd 6d26 f33d b5a1 13be
000001e0: ca3e cd3d 399d a8bd 1c7a 18be 591d c03c
000001f0: f158 1d3e 923c 37be fb56 283e 0d6d c03d
00000200: 647b c03e 7fbc 393e 28be c13d c288 7f3d
00000210: 1255 133e 3c94 f63d 6aed a4be 98dc fd3d
00000220: 6ff3 6b3c 40ed 893b 4ba6 0abe 584b 43be
00000230: 0fd2 843d ffa0 16be be07 173e 1f47 10bc
00000240: 2a61 043e 212a a8bd 59bb 97bd ff5c ff3d
00000250: aef7 b23d 0b29 f7bd 60e2 36be a292 28be
00000260: 679a 323e d04e 17be f959 edbc e2c7 e9bc
00000270: f734 973d 8f28 253e fc46 96bc c5ae b2bd
00000280: 796d b73d 76cb f63d 6abd 823e c164 a0bc
00000290: cab7 98bd 4565 ee3d 35fa b9bc f181 513e
000002a0: 9c7f 403d 352a 03be d827 43be 1835 0abe
000002b0: 43fc 91bd f124 1a3e eb7b 8bbc cb5d 1b3e
000002c0: dba2 18bc 4666 243e c2bf d53d be9b 26be
000002d0: 03c5 193e 36d7 1ebe ed71 7b3e 90a6 48be
000002e0: 09cb e43d 9774 733d 51de 083e 8f95 c33d
000002f0: 88a2 523e 4e44 32be a4c7 f13d 6448 113d
00000300: 4d9c 19be 63b1 823c f306 6abd b8e2 893d
00000310: f58f 01be 4bdc b93d f637 20be aab4 5cbe
00000320: 6ebc 5f3e 58ce 12be 7793 c03c f778 2d3d
00000330: fbeb a13d 0392 1fbd bf41 473e d97e 9e3d
00000340: 0c04 95bd 9781 d13b 4203 163c b1bf 38be
00000350: 8aa8 253d a10d 9fbc 372e 813d e1bb 693e
00000360: c032 d33c 4bb2 2c3e 7247 5e3c 6f0c 453c
00000370: 15a0 2b3e 2fe2 a93d 0981 c6bc f294 7abe
00000380: 4cc9 e4bc 6e10 cdbd 73ac d8bd 3586 a53d
00000390: 2fc6 903e 6404 84bd bc64 9dbc 1ef3 1abb
000003a0: b7a9 b6bc d836 c23c 64dd 813b 60ef 043e
000003b0: 7093 68be 0041 45be c2f1 b03d be7e 113d
000003c0: cc4a 23be c809 92bd 8835 6a3e db47 1fbe
000003d0: 10c2 69be 74d1 d53d 6aab 013e 030b 313e
000003e0: 45b3 16be b6d0 443e 09ea 663e 8628 13bd
000003f0: 3269 213d ea65 853e b260 34bc 79f6 893e
0.11647987 -0.008707725 -0.015720315 0.08606456 0.3586142 -0.13501349 0.1596995 0.055273827
-0.17377736 0.10881353 -0.2152143 0.02524454 -0.0964991 0.009581604 0.049704064 -0.2688203
0.0067054285 0.052225452 0.26011962 0.036389537 0.09810549 -0.14253184 0.070032835 0.0871393
0.12790896 -0.05300525 -0.29227006 -0.22118954 -0.28222317 -0.043841884 -0.046721663 0.10136922
0.11997383 -0.31438726 -0.103600934 -0.022629166 -0.051293872 0.01674685 0.06478005 -0.08220051
-0.13333954 0.01144018 -0.11659147 -0.18748179 0.19390759 -0.09506687 -0.12709354 0.035134945
-0.24865215 -0.08887927 -0.19805181 -0.18664168 0.08579009 -0.02374752 0.01941428 -0.07488352
0.16483778 0.013097966 0.060000274 -0.0829834 0.031737436 -0.0013776547 0.014061996 0.036997285
0.18176028 -0.2222351 0.11412393 0.041723713 0.116912276 0.0779876 0.039387688 -0.12939219
0.07344614 0.13404083 0.36016703 -0.14736645 -0.10233234 0.04971736 -0.026467118 0.19332431
-0.008185909 0.025077112 -0.21100052 -0.16488267 0.014231651 -0.11143872 0.13530476 -0.13211155
0.15020302 0.056805592 -0.06535753 0.102835566 -0.16605516 0.17723644 -0.10997379 -0.14594674
0.06903585 0.119290404 0.14054966 -0.042190637 0.20086822 0.03761695 -0.17990091 0.03305046
0.06431896 -0.1273856 -0.30594307 -0.17244062 -0.06964383 0.2892176 -0.28028953 0.047098882
-0.1291594 -0.006788099 0.18617885 0.14001113 -0.022490723 -0.124811985 0.118725635 -0.14417155
0.10021742 -0.08233113 -0.14890331 0.023451494 0.1536596 -0.178942 0.1643943 0.093958
0.3759414 0.18138312 0.094600976 0.06238628 0.1438792 0.12039992 -0.32212383 0.123955905
0.014401301 0.0042091906 -0.13539998 -0.1907171 0.06485378 -0.14709853 0.14749047 -0.008806019
0.1292769 -0.082111605 -0.074087806 0.124689095 0.087386474 -0.12068375 -0.17859793 -0.16462186
0.17441712 -0.14776158 -0.028973566 -0.028537694 0.07383149 0.16128753 -0.018344395 -0.08724741
0.08956427 0.12050526 0.25535136 -0.019579293 -0.0745693 0.116404094 -0.022702316 0.20459725
0.046996698 -0.1280907 -0.19058168 -0.13496816 -0.07128193 0.15053155 -0.017026862 0.15172498
-0.0093161715 0.16054639 0.104369655 -0.16270348 0.1501656 -0.15511784 0.24555178 -0.19594789
0.111715384 0.05943736 0.13366057 0.095500104 0.20569813 -0.17408869 0.118056566 0.035469428
-0.1500103 0.015953725 -0.057135534 0.06732696 -0.12652571 0.09075221 -0.15646347 -0.21553293
0.21849224 -0.14336526 0.023507817 0.04235169 0.07906338 -0.038957607 0.19458674 0.07739038
-0.072761625 0.006393622 0.00915605 -0.18041874 0.040443935 -0.019415678 0.06307643 0.22825576
0.025781035 0.16864888 0.013566839 0.01202689 0.16760285 0.08295094 -0.02423145 -0.2447088
-0.027928017 -0.10012899 -0.10579767 0.080822386 0.28276202 -0.0644615 -0.019213073 -0.0023643444
-0.022297723 0.023707792 0.0039631594 0.1298194 -0.22712493 -0.19263077 0.08639862 0.03552126
-0.15946501 -0.07130772 0.22871983 -0.15554754 -0.22827935 0.10440341 0.12663046 0.17289357
-0.14716823 0.19220242 0.22550215 -0.035927318 0.039406963 0.26054317 -0.011009382 0.26945856

transformer_encoder.layers.1.self_attn.out_proj.bias f4 [20]
00000000: 9368 8b3d 1584 453d e805 c9bc b91e 483d
00000010: 72f9 32bd 0005 45bd 88ea cebc 45d2 4c3d
00000020: 0f2a ed3b a08e 3f3d ece1 513c c5f1 16bd
00000030: 7c82 40bd 0b38 3bbd 7c46 233d d871 a4bc
00000040: 7012 52bd ac59 713b 962e 30bc b556 e33c
0.06807055 0.048221666 -0.02453895 0.048857424 -0.04369492 -0.04810047 -0.025258318 0.050005216
0.00723768 0.046766877 0.012810212 -0.036851663 -0.04699944 -0.045707744 0.03986214 -0.020073816
-0.051287115 0.003682713 -0.010753294 0.027751306
