model_epoch_61.pt (torch, 431970 bytes, 28 tensors)

pos_encoder.pe f4 [5000, 1, 20]
00000000: 0000 0000 0000 803f 0000 0000 0000 803f
00000010: 0000 0000 0000 803f 0000 0000 0000 803f
00000020: 0000 0000 0000 803f 0000 0000 0000 803f
00000030: 0000 0000 0000 803f 0000 0000 0000 803f
00000040: 0000 0000 0000 803f 0000 0000 0000 803f
00000050: a56a 573f 4151 0a3f 3d7d c63e dafa 6b3f
00000060: 4e9d 213e a0ca 7c3f 6522 813d 977d 7f3f
00000070: 8ac0 cd3c 53eb 7f3f 57d6 233c b9fc 7f3f
00000080: 9073 823b 7bff 7f3f 28bc cf3a ebff 7f3f
00000090: d466 253a fdff 7f3f f5b1 8339 ffff 7f3f
000000a0: b7c7 683f 3311 d5be 76f7 363f 040d 333f
000000b0: c596 9f3e 183f 733f 9de0 003e e3f6 7d3f
000000c0: ecaf 4d3d 51ad 7f3f 3ed4 a33c e5f2 7f3f
000000d0: 4d73 023c ecfd 7f3f 17bc 4f3b acff 7f3f
000000e0: d266 a53a f3ff 7f3f f5b1 033a feff 7f3f
000000f0: c381 103e 2670 7dbf 4812 6e3f e53b bc3e
00000100: ce5e ea3e a89a 633f b9ac 403e 6f6d 7b3f
00000110: 2d2f 9a3d 0346 7f3f 1fb9 f53c 83e2 7f3f
00000120: 49ac 433c 53fb 7f3f fccc 9b3b 42ff 7f3f
00000130: 361a f83a e2ff 7f3f ef8a 453a fbff 7f3f
00000140: cfbd 41bf 3055 27bf abf0 7f3f ce32 b1bc
00000150: 72a3 173f b041 4e3f 8ab4 7f3e d4e3 773f
00000160: 7d6d cd3d 7ab5 7e3f dbcb 233d 94cb 7f3f
00000170: 3e72 823c b1f7 7f3f d3bb cf3b affe 7f3f
00000180: c966 253b cbff 7f3f f4b1 833a f8ff 7f3f
00000190: 107c 75bf 2c3c 913e 28c7 693f cea6 d0be
000001a0: 6e4a 363f 2cbd 333f ebdb 9e3e aa5d 733f
000001b0: 4f45 003e cdfb 7d3f f4b6 4c3d 19ae 7f3f
000001c0: cf0d a33c 04f3 7f3f 44d5 013c f1fd 7f3f
000001d0: 74c0 4e3b adff 7f3f 6f9e a43a f3ff 7f3f
000001e0: 8c0f 8fbe b8cd 753f 200d 2f3f fdcb 3abf
000001f0: a75f 503f 47b7 143f b73b bd3e 8fdf 6d3f
00000200: 29bf 193e 1a19 7d3f d19c 753d 128a 7f3f
00000210: b7a8 c33c 4eed 7f3f 88cc 1b3c 09fd 7f3f
00000220: 191a 783b 88ff 7f3f eb8a c53a edff 7f3f
00000230: 4630 283f bdff 403f fde3 b13e 310d 70bf
00000240: c03b 653f 26ee e33e b9da da3e 1a6f 673f
00000250: 2d20 333e 860d 7c3f 323e 8f3d 815f 7f3f
00000260: d442 e43c 8ee6 7f3f b4c3 353c f8fb 7f3f
00000270: dbb9 903b 5cff 7f3f 6577 e63a e6ff 7f3f
00000280: 9546 7d3f f6fd 14be 3128 31bd acc2 7fbf
00000290: dc58 743f 1db7 983e c29a f73e db12 603f
000002a0: 4264 4c3e 3cd9 7a3f 50aa a33d 662e 7f3f
000002b0: 026e 023d c4de 7f3f c1ba 4f3c bbfa 7f3f
000002c0: a766 a53b 2aff 7f3f efb1 033b deff 7f3f
000002d0: 3201 d33e d53f 69bf 5cb7 dabe 7577 67bf
000002e0: 0056 7d3f 3958 133e 43af 093f 52d2 573f
000002f0: 5487 653e 6e7c 793f 3e12 b83d c2f6 7e3f
00000300: 12ba 123d f0d5 7f3f adb1 693c 55f9 7f3f
00000310: 6e13 ba3b f1fe 7f3f 2c28 143b d5ff 7f3f
00000320: f844 0bbf 64cd 56bf 238a 3ebf 43f8 2abf
00000330: 7df9 7f3f baf4 66bc e004 173f e6b5 4e3f
00000340: 5385 7e3e 54f7 773f 7675 cc3d 98b8 7e3f
00000350: 8a05 233d 13cc 7f3f 39d4 813c c5f7 7f3f
00000360: 30c0 ce3b b2fe 7f3f 679e 243b cbff 7f3f
00000370: 5cff 7fbf 7205 913b 58eb 71bf c976 a7be
00000380: 6532 7c3f 27da 2fbe 9fc0 233f e2c6 443f
00000390: 1cad 8b3e 2d4a 763f 72d3 e03d e873 7e3f
000003a0: 5950 333d 2cc1 7f3f 86cf 8e3c 0af6 7f3f
000003b0: ed6c e33b 6cfe 7f3f a214 353b c0ff 7f3f
000003c0: d85c 09bf d006 583f 0b76 7fbf e1d0 843d
000003d0: f518 723f 4d6e a6be 89d5 2f3f 630f 3a3f
000003e0: fe00 983e 3e75 743f ac2b f53d b528 7e3f
000003f0: 6d9a 433d 3bb5 7f3f baca 9b3c 26f4 7f3f
0.0 1.0 0.0 1.0 0.0 1.0 0.0 1.0
0.0 1.0 0.0 1.0 0.0 1.0 0.0 1.0
0.0 1.0 0.0 1.0 0.841471 0.54030234 0.38767424 0.92179644
0.15782663 0.9874668 0.06305388 0.9980101 0.025116224 0.9996845 0.009999833 0.99995
0.0039810613 0.9999921 0.0015848922 0.99999875 0.0006309573 0.9999998 0.00025118855 0.99999994
0.9092974 -0.41614684 0.71471345 0.69941735 0.31169716 0.9501815 0.12585683 0.99204844
0.0502166 0.99873835 0.019998666 0.9998 0.00796206 0.9999683 0.0031697804 0.999995
0.0012619144 0.9999992 0.0005023771 0.9999999 0.14112 -0.9899925 0.92996645 0.36764446
0.45775455 0.8890786 0.18815888 0.9821386 0.07528529 0.99716204 0.0299955 0.99955004
0.011942931 0.99992865 0.0047546607 0.9999887 0.001892871 0.9999982 0.00075356563 0.9999997
-0.7568025 -0.6536436 0.99976605 -0.02163067 0.5923377 0.8056898 0.24971214 0.96832013
0.10030649 0.9949566 0.039989334 0.9992001 0.015923616 0.9998732 0.006339529 0.9999799
0.0025238267 0.99999684 0.0010047541 0.9999995 -0.9589243 0.2836622 0.91319513 -0.40752262
0.7120732 0.7021053 0.3102716 0.95064795 0.12526439 0.9921234 0.049979165 0.99875027
0.019904045 0.9998019 0.007924382 0.9999686 0.0031547816 0.99999505 0.0012559424 0.9999992
-0.2794155 0.96017027 0.683794 -0.7296751 0.81395954 0.5809216 0.3695962 0.9291925
0.15014328 0.98866427 0.059964005 0.99820054 0.02388416 0.99971473 0.009509213 0.99995476
0.0037857352 0.99999285 0.0015071308 0.99999887 0.6569866 0.75390226 0.34744254 -0.9377013
0.89544296 0.4451763 0.42744997 0.904039 0.17492743 0.98458135 0.06994285 0.997551
0.027863897 0.99961174 0.011094023 0.9999385 0.004416687 0.9999902 0.001758319 0.99999845
0.98935825 -0.14550003 -0.04325122 -0.9990642 0.9544809 0.29827204 0.48360258 0.8752877
0.1996012 0.97987723 0.07991469 0.99680173 0.031843193 0.9994929 0.012678803 0.9999196
0.0050476375 0.99998724 0.002009507 0.999998 0.4121185 -0.91113025 -0.42718017 -0.9041665
0.9895935 0.14389123 0.53783053 0.843053 0.22414905 0.9745549 0.089878544 0.9959527
0.03582198 0.9993582 0.014263553 0.99989825 0.0056785857 0.99998385 0.0022606952 0.99999744
-0.5440211 -0.8390715 -0.7442953 -0.6678507 0.99990064 -0.014096433 0.58991814 0.80746305
0.24855547 0.9686177 0.099833414 0.9950042 0.039800204 0.9992077 0.015848266 0.9998744
0.0063095316 0.9999801 0.002511883 0.99999684 -0.9999902 0.004425698 -0.9449973 -0.32707813
0.98514396 -0.17173062 0.6396579 0.7686597 0.2728051 0.96206933 0.1097783 0.9939561
0.043777797 0.9990413 0.01743294 0.999848 0.006940475 0.9999759 0.0027630706 0.9999962
-0.53657293 0.84385395 -0.99789494 0.06485153 0.9456933 -0.32506028 0.68685204 0.7267973
0.29688257 0.954914 0.119712204 0.99280864 0.047754694 0.9988591 0.019017566 0.99981916

transformer_encoder.layers.0.self_attn.in_proj_weight f4 [60, 20]
00000000: cd08 1ebe deed 72be e92d 583e 9f04 8c3d
00000010: dc0a 3b3e 73c9 953d 2b12 31be 12de 003e
00000020: 1c51 3d3c cc50 493d 528a 54be d9ad 6d3e
00000030: ba51 8abe 9c18 353e 8c5a 863e efb4 863e
00000040: 5dc5 983d 78f0 d1bd bf1a 48bc dc63 0dbc
00000050: 1f89 753e 88c3 6fbd d2ef 85be c157 c93d
00000060: d66f 803d 6684 e73d 11d5 223e 2664 afbd
00000070: d2b9 6b3e 5db9 33bd 1b6d 2d3b f2fd bcbd
00000080: 1946 d13d a7ff c9bd 98e2 693e e8be 213e
00000090: c353 863e d325 923c 22a7 183d b921 00be
000000a0: 55bb 113e 7ed2 15be a5c1 193c a561 67bd
000000b0: 9717 733e 514c 5abe 4511 3f3e 7eb1 68be
000000c0: 5ff2 7abb 91bc 9ebd 6fef 88bd b385 5dbd
000000d0: 1aba 453d 1b31 27be 7e1a db3d b597 34be
000000e0: cd94 83bd 9a9a 8bbe 3e78 b9bd 8a59 c0bc
000000f0: 338e c73d c360 f3bb 2954 13be d178 ab3d
00000100: e1d3 603e 997d 243e 7ab1 eabd eb82 db3d
00000110: 6d98 e73c 3e29 41bc d37f 813d b854 003e
00000120: 916c 75be 3065 febd 8933 e63c cf1a 3f3e
00000130: 70e7 3dbe 686f 02be 015d 85bc 47e7 003e
00000140: 4386 74be 6aa2 e93d b337 35be 85c4 7a3e
00000150: cf58 87bd d888 88bd b007 a3bc 4a48 9bbc
00000160: e121 6d3e a298 043e 02f2 64be 2448 113e
00000170: e964 283e 9cf5 cebd 276d 4dbe e2fd b9bd
00000180: d35e 64bd 9602 063d 5414 ae3c 9d34 7f3e
00000190: 5c8d 98bd baf4 29bd 2681 3b3e deaf 5dbe
000001a0: 72d5 333d 38b4 1d3d e8af 9e3d 3d87 3b3e
000001b0: 7bbb 5cbe 569b d6bd 12cb 6c3d 855f 5a3e
000001c0: 5eda 00bd 2edb 9fbd ac24 78be ef22 2f3e
000001d0: ee6d 23be d3a3 23be 9837 e1bd 0c11 d1bc
000001e0: f558 c9bd f5f1 c93d c30c 603e 3173 e43c
000001f0: 24e5 3abe 580f 11be 1288 5dbc 9435 08be
00000200: 6ea9 99bd 9904 1c3e 3898 c3bd 0a99 f03d
00000210: 524f ebbc 746f 093e ac57 0abe b7d5 773e
00000220: 98a2 583e 88f6 00be a72d e13b b10a e8bd
00000230: 0f3e 593e 34c8 09bf 2fb7 4a3d 033c 5b3d
00000240: b17d 913e b04b 23bd 2ff0 2bbe 9b02 65bd
00000250: 81a6 fbbd b915 48bd 061a 3e3d 044b 40be
00000260: 1a95 383e 7b4a b4bc 0086 58be 1d0b 11be
00000270: 1484 d03d 8a58 c23c d41d 23bd d40e dcbd
00000280: ab13 f33d bd28 de3d 436e 23bd 39a6 4c3e
00000290: ada2 ea3d c66a a5bd 0720 83be 4bf2 493e
000002a0: e274 acbc 89a9 153e f32c 33bd 83f5 783d
000002b0: 4f28 6c3e 575e afbd 5376 0c3e 2aba 3e3e
000002c0: c7ae 113e 862e 62be ff95 803e 4bb7 143e
000002d0: 125c b6bd 152d 38be 17ca 903d 092f dd3d
000002e0: a46b 3d3e d063 27be 8dc0 c0bd 242b 0e3e
000002f0: f0a6 26be a12f e4bd 5141 4cbe e32a f4bd
00000300: a908 283e 19da 66bd e869 85bc ab73 63bc
00000310: baa7 52be f6b3 43bd 55ed 8dbd b4c4 263c
00000320: 8abc 2bbe 9510 81be e92b 4a3d bf38 46be
00000330: 2c3c f9bb aef7 123e 63f0 a23c 36ba 4bbe
00000340: f3c2 5c3e 8257 143e 621e fd3d 19f8 143d
00000350: 1aa3 0bbd 688f 683c 1de6 46bd 9c99 b73c
00000360: b82b 6b3d 7c0b 6d3e 26b0 ef3d 4e87 063e
00000370: 444f 993c 4408 95be 4cf6 4abe 5601 6abe
00000380: 1fe6 423e b6fe c7bd e801 18be 7d11 443d
00000390: 7374 c53c ccda 1e3e 2568 d1bd a5c4 4b3d
000003a0: 7ca4 4abe baf5 94bd e78e 34be 4c1a 013e
000003b0: 0482 d33d 68d4 a2bc 405b 903c 3d39 8bbe
000003c0: f6bb 9a3e 8edd 013e 9a5a 613e 6144 6ebe
000003d0: 5e65 42be 8154 14be bb4f 6fbe 0206 bb3d
000003e0: b3d9 a8bd 3388 29be 3da5 f53d fabb 4cbc
000003f0: cc62 8c3e 8f56 513e f4ca 863e 78d8 4ebd
-0.15433045 -0.23723552 0.21111263 0.06836819 0.18265861 0.07313814 -0.17292087 0.12584713
0.0115549825 0.04914932 -0.2075589 0.23210849 -0.27015477 0.17685169 0.26240957 0.26309916
0.07459519 -0.10250944 -0.012213408 -0.008629765 0.23978089 -0.058536083 -0.2615953 0.09831191
0.06271331 0.1130455 0.15901591 -0.08564024 0.23020104 -0.043877948 0.0026462737 -0.09228124
0.10218448 -0.09863215 0.22840345 0.15795481 0.2623578 0.017840302 0.037268765 -0.12512864
0.14231618 -0.14631078 0.009384547 -0.056489605 0.23739468 -0.21318175 0.18658932 -0.22723958
-0.0038291437 -0.0775081 -0.06686293 -0.054082584 0.048273183 -0.16327326 0.10698412 -0.17635997
-0.06424866 -0.2726639 -0.090561375 -0.023480196 0.09743919 -0.0074273064 -0.14387573 0.08372653
0.21955825 0.16063537 -0.11459632 0.1071833 0.028270924 -0.011789618 0.06323209 0.12532318
-0.23967196 -0.12421644 0.028100746 0.1866257 -0.18545318 -0.1273781 -0.0162797 0.12588225
-0.23879342 0.11407931 -0.17697029 0.24489029 -0.06608736 -0.06666726 -0.019901127 -0.018955369
0.23157455 0.1294885 -0.22357944 0.14187676 0.16444744 -0.1010544 -0.2006117 -0.090816274
-0.055754494 0.03271731 0.021249928 0.24922414 -0.07448837 -0.041493155 0.18310985 -0.2164912
0.04390473 0.038501948 0.07748395 0.18313308 -0.21555893 -0.10478847 0.05781085 0.213255
-0.03145825 -0.07805477 -0.24232739 0.1710317 -0.15959904 -0.15980463 -0.10996932 -0.025520824
-0.0983142 0.09860603 0.21879868 0.027886959 -0.18251473 -0.1416601 -0.013521211 -0.13301688
-0.07503019 0.15236129 -0.09550518 0.1174794 -0.028724346 0.13421422 -0.13510007 0.2420262
0.21155775 -0.12594044 0.0068718973 -0.11330164 0.2121508 -0.5382111 0.049491104 0.05352403
0.28416207 -0.039867103 -0.16790842 -0.055910688 -0.122876175 -0.04884884 0.046411537 -0.18778616
0.18025628 -0.022008171 -0.21144867 -0.14164396 0.10181442 0.02372386 -0.03982337 -0.10745016
0.11868986 0.10847614 -0.039900076 0.19985284 0.11456809 -0.08077006 -0.25610372 0.19721334
-0.021051828 0.14615454 -0.04374404 0.060781013 0.23062252 -0.08562916 0.13717012 0.18625703
0.14226829 -0.2208806 0.25114438 0.14523046 -0.0890428 -0.17985947 0.070697956 0.10799987
0.18498093 -0.16346669 -0.09411726 0.13883644 -0.16274619 -0.11141897 -0.19946791 -0.119222425
0.16409554 -0.056360338 -0.016285852 -0.013882558 -0.20571795 -0.047779046 -0.06930033 0.010178734
-0.1677114 -0.25207964 0.049358282 -0.19357584 -0.00760605 0.14352295 0.019890016 -0.19895253
0.21558742 0.14486507 0.12359311 0.036369417 -0.034091093 0.014194347 -0.048559297 0.022412114
0.05741474 0.23148912 0.117035195 0.13137552 0.018714555 -0.2910787 -0.19820517 -0.22852072
0.19033097 -0.09765379 -0.14844477 0.04786824 0.024103379 0.15513152 -0.10224942 0.04974808
-0.19789308 -0.07273431 -0.17632638 0.12607688 0.10327533 -0.019876674 0.017621636 -0.27192107
0.30221528 0.12682173 0.22007218 -0.23268272 -0.18983981 -0.1448536 -0.23370259 0.09132005
-0.08244648 -0.16555862 0.11994407 -0.012495989 0.27419126 0.20443176 0.26326716 -0.05049941

transformer_encoder.layers.0.self_attn.in_proj_bias f4 [60]
00000000: 61eb 86bc 7623 2b3b a5dc 8ebb 3ee6 1d3a
00000010: 0868 1abc 42c0 5c3c ce65 103d 7119 233d
00000020: d18a bb3c fa87 f1bb 0f11 a93c 2dfc 5cbc
00000030: 190b 9dbc b1ac d0bc 3ddc 7f3c 358d 703c
00000040: 576d 4bbc 96af 31bd 6aaf 883b a57b 473d
00000050: dc38 39b1 87df a030 b180 9c2e aeb4 40b1
00000060: c0fd 1131 5171 9632 b44b b331 c23b 9831
00000070: 7e25 fd31 cef8 b831 95a0 4e2e 9205 cd2f
00000080: dd0f be2d 50b4 74b0 870d 72b1 c1bc 6a31
00000090: cb4c c9b1 2df6 6831 386e 3f31 44d5 2d31
000000a0: ff6e 43bd 56dd 543d 9478 cbbc b742 95bc
000000b0: df0c 633d 941a aa3d 6dd4 6d3a 3cf9 803d
000000c0: 2efd 613d ef33 023c 659c a0bc 3c91 2d3c
000000d0: 4d21 87bd 607a 943d 537b 923c 6ae4 973d
000000e0: 1a22 2e3d 2b23 2a3d b209 133c 7c58 83bc
-0.01646966 0.0026113666 -0.004359799 0.00060233835 -0.009424217 0.013473572 0.03525334 0.039819185
0.022893341 -0.007370946 0.020638017 -0.013487858 -0.01917033 -0.02547297 0.015616474 0.014682104
-0.012416205 -0.043380342 0.0041713016 0.0487019 -2.6953364e-09 1.1705062e-09 7.116919e-11 -2.8042382e-09
2.1244517e-09 1.7513829e-08 5.218192e-09 4.430576e-09 7.3675315e-09 5.3833906e-09 4.6981603e-11 3.729324e-10
2.1607544e-11 -8.902292e-10 -3.5223324e-09 3.4158776e-09 -5.8586003e-09 3.3900378e-09 2.785681e-09 2.529604e-09
-0.047713276 0.051968895 -0.02483777 -0.018220289 0.055432197 0.083058506 0.00090724864 0.06297538
0.05517309 0.007946952 -0.019605825 0.010593709 -0.065981485 0.07249904 0.017881071 0.074166134
0.04251299 0.041537445 0.0089744795 -0.016033404

transformer_encoder.layers.0.self_attn.out_proj.weight f4 [20, 20]
00000000: dbb3 0d3e 585b c5bd a905 9cbd 8138 053e
00000010: 13cf 7d3e 9f67 f73c 590b b63e f055 d33d
00000020: b179 9dbd e7ab 673d 4518 40be bac4 793d
00000030: 9c61 9cbc 8f56 10bc a400 ad3d 47c5 b0be
00000040: 0676 b93d 69a8 9e3d 7460 ae3e 557f 913d
00000050: 939f 173e 3d1a bdbd 6f28 863d c0db 42bd
00000060: 4479 d43d ed0b 2bbd 927c 7cbe ac07 29be
00000070: cf40 21be 79b2 8abd 5252 25bd aec7 8b3d
00000080: 29d1 003e a4fb 45be 0d54 dcbd a814 5c3d
00000090: 2a84 80bd 5000 603d b3ce 653d 8bb6 b5bd
000000a0: cacf 1ebe df17 27bd 94ab cfbd aada 0ebe
000000b0: 4614 383e 9e6e 18be 53f8 2fbe 448e d53c
000000c0: 0712 55be 7715 f2bc 4541 08be 5d3e 21be
000000d0: 3816 913c 5fc5 a63d e1f5 c23c 0cfb 3cbe
000000e0: ae6b 1c3e 5676 cbbd 92e8 cd3d ba8d 58be
000000f0: 06f9 693d f12e 30bd e44b 893c 9e7f a53b
00000100: 19e8 4b3e a526 85be e025 e13d 3c2d bbbc
00000110: ade5 ee3d 1a28 953d c6f3 013c 9f08 debd
00000120: 8323 f33d 2484 953d 5d49 a13e b74a 18be
00000130: 8b9e d6bd 1d4a ba3d a61a 2f3a c34c 8e3e
00000140: 595d 36bd 8349 d23d 2f6b 60be a075 43be
00000150: 6066 e1bc d13a 31bb 7946 483e e07f 1bbd
00000160: c8b2 3b3e d4a8 4f3d ccf5 a8bc c697 4c3d
00000170: 9927 4ebe bbf7 553e 20be aebd 4de3 1cbe
00000180: c0b9 843d 0b20 4b3d d8d8 d73d 3523 06be
00000190: f16a 853e cdd7 9f3d 640d 52be 85e2 6abc
000001a0: 1d8d a3bd 7b84 9cbd 651e b3be 03a9 2ebe
000001b0: 6af2 fbbc 5c5d 673e d586 5ebe 51dd 56bc
000001c0: 4f05 803b 4941 683c e203 463d b93e 283e
000001d0: 304c 13bd 316a 34bd 9297 313e e257 1ebe
000001e0: 5798 803d 99f9 c0bd 7092 f5bd c51a ac3d
000001f0: 0a77 4e3e 7299 58be 0cc3 223e 657d 453d
00000200: f5f4 533e ece0 133e 119c 9f3d 1914 4a3d
00000210: 2216 4e3e 257e 00be 5fcf 28be 5017 483e
00000220: 555c 283c a038 883d 4dc9 1bbe 070d dbbd
00000230: 5864 a53d 7d11 0abe 2650 0e3e d2b2 8abd
00000240: 2c42 f43d 11e8 6dbd e3b4 90bd 9901 ef3d
00000250: c5a7 063e 3727 d4bd 82a3 2dbe a5e4 3abe
00000260: 4878 0a3e d4d3 71bd fb65 9bbd aa5a 86bd
00000270: 7fcb af3d 0d21 1a3e ce77 18bd 22a2 97bd
00000280: a66c db3c f794 453e f606 463e 498d 413c
00000290: 2217 bbbd 0202 493d 246b 58bd 2911 633e
000002a0: 2153 213c f8fe 0abd 4e20 32be ccaa e0bd
000002b0: f7d4 97bd 2a8f 133e 5ac5 093d b097 4f3e
000002c0: 1152 e4bc 90cd 9d3d c830 c63d 7f51 88be
000002d0: 2b71 1f3e c542 22be c9a4 643e f755 ffbd
000002e0: 4a84 6c3e 4955 cbbd 120b 763d 3dfc 5b3d
000002f0: f8a2 5b3e 3a5b 18be c8c3 833a 2d1c 943d
00000300: dbd4 36be 54df c3bd 1e81 e7bc 4c4f 2a3e
00000310: 1c14 16be 3d07 033e d92b 42be 7f21 23be
00000320: 73cd 703e a870 36be 7ce4 df3d 10cc 43bd
00000330: 6908 dc3d c719 08bc 2ce2 3a3e 8c7b 1b3d
00000340: 56d7 1abe ef53 abbc 347e e0b9 197d c5bd
00000350: f84a 1c3c 537d 213d 51b0 bfbb 0dba 4c3e
00000360: 28f2 4e3c 9112 3d3e b1a7 a3bc 8aee aa3d
00000370: 5d42 1c3e dccb a53d ed71 45bc b738 39be
00000380: 14e9 933d 6f03 76be 2a01 75be 4f81 863d
00000390: 17a6 7d3e 3d6d 81bc 29be 32bd 3885 49bc
000003a0: 5bf8 c3bd eb31 183c 43e9 0abd ea99 3d3e
000003b0: 78ce 98be 29c1 31be 31bb f93c 3b38 d93c
000003c0: 0d48 2dbe 264c c5bd 3bd1 9e3e e765 32be
000003d0: d54f dabd a2a8 213d c1bf 753d 1e03 ca3d
000003e0: 02df 96be e9e6 233e 74e5 123e 24d9 fbbc
000003f0: bca1 0bbd fd9b 5c3e b3d4 f9bb 2f38 823e
0.1383814 -0.09636563 -0.07618267 0.13009836 0.24786024 0.030200778 0.35555533 0.10319126
-0.076892264 0.056560423 -0.18759258 0.06097863 -0.019089513 -0.0088097 0.08447388 -0.3452551
0.09055714 0.077469654 0.34057963 0.07104365 0.14806966 -0.0923352 0.06550681 -0.04757285
0.10374692 -0.04175942 -0.24656895 -0.16506833 -0.15747379 -0.06772322 -0.04036171 0.06825195
0.12579788 -0.19334275 -0.10758219 0.053730637 -0.06275208 0.054687798 0.056105327 -0.08872708
-0.15508953 -0.04079425 -0.10140148 -0.13950601 0.17976484 -0.14885947 -0.17184572 0.026068814
-0.20807658 -0.02955125 -0.13306148 -0.15746446 0.01771079 0.08143114 0.023798885 -0.18455142
0.15275452 -0.0993468 0.10054125 -0.21147814 0.057122253 -0.043013517 0.01675982 0.0050506135
0.19912757 -0.26006046 0.10993552 -0.022848718 0.11664901 0.072830394 0.007931655 -0.10841488
0.11872008 0.073005944 0.31501284 -0.14872251 -0.104794584 0.09096167 0.0006679691 0.2779294
-0.044522617 0.102679275 -0.21915887 -0.19087839 -0.027514637 -0.0027043114 0.19558133 -0.037963748
0.18329918 0.050698116 -0.020625018 0.04994943 -0.20132293 0.20895283 -0.08532357 -0.15321083
0.064807415 0.049591105 0.105394065 -0.13099368 0.26058152 0.078048326 -0.2051292 -0.014336233
-0.079858996 -0.07642456 -0.34984127 -0.1705666 -0.03075524 0.22594208 -0.21731122 -0.013114289
0.003906883 0.014175721 0.048343547 0.16430177 -0.03596133 -0.044046585 0.17342976 -0.15463212
0.062790565 -0.09422607 -0.11990821 0.084035434 0.20162597 -0.21152285 0.15894717 0.04821529
0.20698912 0.1444127 0.07793439 0.049335573 0.2012563 -0.1254812 -0.16485356 0.19540143
0.01027592 0.06651425 -0.15213509 -0.10695844 0.0807578 -0.13483234 0.13897762 -0.067723885
0.11926684 -0.058082644 -0.070657514 0.116702266 0.13149936 -0.10359042 -0.16956905 -0.18251283
0.13522446 -0.059039906 -0.075878106 -0.065602615 0.08583736 0.1505167 -0.03722363 -0.07403971
0.026785206 0.19295107 0.19338593 0.01181347 -0.091352716 0.04907418 -0.052836552 0.22174515
0.00984648 -0.033934563 -0.17395136 -0.10970077 -0.07413667 0.14410082 0.033635475 0.20272708
-0.027871164 0.077052236 0.09677273 -0.26624677 0.15570514 -0.15845783 0.22328486 -0.12467568
0.2309734 -0.09928376 0.06006915 0.05370735 0.21448886 -0.1487855 0.0010052854 0.072319366
-0.17854635 -0.09564081 -0.02825981 0.16631812 -0.14656109 0.1279573 -0.18962039 -0.15930746
0.23515873 -0.17816412 0.10932252 -0.04780203 0.107437916 -0.008306927 0.1825034 0.03795962
-0.15121207 -0.020914046 -0.00042818638 -0.09643001 0.009539358 0.03942616 -0.005849876 0.19992848
0.012630977 0.18464114 -0.019977422 0.08346279 0.1525969 0.08095524 -0.012051088 -0.18088041
0.072221905 -0.24024747 -0.23926225 0.065676324 0.2477039 -0.01579916 -0.043638382 -0.012299828
-0.095688544 0.009289245 -0.033913862 0.18515745 -0.29845023 -0.17358841 0.030484768 0.02651607
-0.16922016 -0.09633665 0.31019005 -0.17421685 -0.10659758 0.03946746 0.059997324 0.09863876
-0.29467016 0.16006054 0.14345342 -0.03074319 -0.03408979 0.2154388 -0.0076242327 0.2543349

transformer_encoder.layers.0.self_attn.out_proj.bias f4 [20]
00000000: a7ca eabc 79fe 613d 825d 1e3d a254 1d3d
00000010: e519 bb3c 35a3 d33c c23e b4bc 9a46 f13c
00000020: a542 4ebc 1365 b9bc 36a2 083c 1a6a 21bd
00000030: 6cec 123d c83e b4bd 99fc 033d 28d9 b4bc
00000040: 7c03 a5bb d70b 1cbd aaba 473c 50d4 a7bc
-0.028661085 0.055174325 0.038663395 0.03841079 0.022839496 0.02583466 -0.022002582 0.02945261
-0.0125891315 -0.022631204 0.008339455 -0.039407827 0.03587 -0.08801037 0.032223318 -0.022076204
-0.0050358158 -0.03809723 0.0121905 -0.02048698

transformer_encoder.layers.0.linear1.weight f4 [20, 20]
00000000: f962 aebd 83ac 153e 5caf 873d 1553 473e
00000010: 8811 c4bd fe26 afbc 959b 20be 9a94 373e
00000020: a714 f8bc 3ae5 f5bb 9bfa f2bd 5acc 0d3d
00000030: df80 873d 5d2e 303d f9ae ff3c 184c b53d
00000040: a41e 473e 7dda 12be 8841 75bd f75e debd
00000050: 3f93 74be fdb2 323e fe6d 66be a24b ff3c
00000060: 5629 8a3d d39e 8ebc 0770 cb3c cb16 36be
00000070: 1e8e 2a3e 5331 29bd 5f47 08bd 457b af3d
00000080: f4aa 6bbd 0195 0ebe 67fe 223e 0380 4a3e
00000090: ed9f 0d3e 16a1 6bbd d12a eabd 6e18 a33d
000000a0: a4ed 2d3e bc73 553e 3f75 613e 5001 443e
000000b0: 003e 7b3c 9a58 2e3e 00b6 593e dc61 2dbd
000000c0: e6ae c1bd 6089 343d f373 9bbe c2bb c83b
000000d0: f140 323c b9ea e93d 737c 36be 16b1 46bd
000000e0: ff70 b5bd dc59 493e 5b97 3d3d 4f71 bfbc
000000f0: 43df 8dbd c7f8 19be 0d6e 533d 4eb7 823e
00000100: 13e7 15bd ef9f 02bc 0784 96bd 82a9 113e
00000110: 7a93 22be 8ec3 8dbd 7631 093e 2d6a 2dbe
00000120: 275d 1e3e 3763 323d 3f4a 7cbd a03c d53d
00000130: fabf cfbd da20 47be 83e5 fd3c 7ba8 323e
00000140: 55cc 083d 591f 44be b282 cbbd 8038 9fbe
00000150: 9aab 193e d90f ba3e d57d cb3b bc6f 46be
00000160: eb14 41bc c9d5 04be 6a36 243d 32bb abbd
00000170: 98f7 fbbd ae2b 203e 47ee 8a3d e1d3 71be
00000180: d0cf 3cbe e2ed bb3c 9ef0 b83d 3341 97bd
00000190: f99e ebbc a3b9 e2be 0b1a cf3b c3e5 6ebd
000001a0: 3e3e c03d b285 a1be 0448 ef3c a9ab a5bd
000001b0: 56c7 debd b574 36bd cd64 16bd b4ae 17bd
000001c0: 357f d7bb a549 473b 3896 393e d9f0 a23e
000001d0: 0712 83bd 6150 a83d f4c5 613e 64fd ef3d
000001e0: 2214 acbc aade ea3d dd0d dfbd 991a 43be
000001f0: d647 1b3e 0c8a b23e 873a c9bd fc22 66be
00000200: 938d 88bd 8355 143e fe79 12be 68b0 75be
00000210: 7808 58be 0484 05be 7e23 703d 1b63 6fbd
00000220: f4d4 09bd 4b99 7e3d ae4a c73c d77c 74be
00000230: 5413 543e ac33 273e 5839 a3bd 8311 babc
00000240: 5d6f c1bd 5ae7 653e d3d9 65be 3df3 a73d
00000250: 23d0 70bd 5fd9 5fbe b81b 37be 531a 3ebe
00000260: 19db f13d 7bf7 67be 811e 053e a361 3abe
00000270: 99cf fa3c 96b7 72be aabf 2dbe a77e c1bd
00000280: ca5a 04be a624 593e 337e 493e 5d21 efbd
00000290: 3264 9a3d b8f9 3cbc 7977 873d c9cd 893e
000002a0: f9eb 06be 37f5 0cbe 54b5 143e 6919 7c3e
000002b0: 7da8 a7bd a8d6 da3d 9dc4 74bd bea5 66be
000002c0: 2628 063e 610e 9fbd e28a c83d 7ecf 043e
000002d0: 0c6f 653c 53ac 86be 63c8 10bc d542 7b3e
000002e0: 6017 753e fc0b 8b3d dfcc afbd 3f09 f33d
000002f0: bf1c 453d 571e 92bd 659e fe3d 1f10 203e
00000300: b42c 0b3e 2d64 28be 596e cfbd 16e7 00bc
00000310: a1de 17be 7223 2e3e dbb1 a7bd 551a d3bc
00000320: 29c4 21bc cf18 363e 27ba 85bd 1788 463e
00000330: 8fcd 4a3e b314 2fbd a4eb 34bc 844a 9ebc
00000340: 43dd 683e 1a18 34be 103c 36be 21b8 34be
00000350: 1367 c13d 1403 d13d 4a75 d4bc d637 043e
00000360: 684a 07be ffa0 49be 59bd 9c3d fac0 2dbe
00000370: c6de 853d d966 6abe 926b 4b3d a7de 25be
00000380: fab5 28bc 8c53 7abe 8350 013e ade6 09be
00000390: 8682 e7bd f2cf fb3d 6de6 ddbc 4f6e f4bc
000003a0: 89bd 40be 3d38 5639 92ab 213e b2f8 1c3e
000003b0: 730a 37be c248 37be 18c4 063e e0d3 b63d
000003c0: 04f3 4d3d 8ed2 423e 0a72 cfbc 3809 2d3e
000003d0: 01e0 743d 941e bebc 5cd1 2f3e d54f 463e
000003e0: 5b6c 1f3e 8a3f d63d 5300 8d3c 458d 30be
000003f0: ed62 26be 2274 cb3d 1170 d1bd 54b9 efbd
-0.08514971 0.14616589 0.06625244 0.19465287 -0.09573656 -0.021380898 -0.1568435 0.17927781
-0.030283285 -0.0075041326 -0.118642054 0.034618713 0.06616377 0.043012965 0.031211363 0.08852404
0.19445282 -0.14341159 -0.05987695 -0.10857957 -0.23884295 0.17451091 -0.22502896 0.031163994
0.067461655 -0.017409718 0.024833692 -0.17782132 0.16655776 -0.041306805 -0.03327119 0.08568434
-0.05753608 -0.13924028 0.1591736 0.19775395 0.13830538 -0.05752667 -0.11433948 0.07963644
0.16985184 0.2084493 0.22017382 0.19141126 0.015334606 0.17025986 0.21260834 -0.042329654
-0.09457187 0.044076324 -0.303619 0.006125898 0.010879741 0.11421723 -0.17820911 -0.048508726
-0.08859443 0.19663185 0.046286922 -0.02336946 -0.069273494 -0.15036307 0.051618624 0.25530475
-0.036597323 -0.007972701 -0.07349401 0.14224818 -0.1587657 -0.06922065 0.13397774 -0.16935034
0.15465222 0.04355165 -0.061594244 0.10411954 -0.101440385 -0.19446126 0.030993229 0.17447083
0.03339799 -0.19152583 -0.099370375 -0.31097794 0.15006867 0.36340216 0.0062100687 -0.19378561
-0.011784772 -0.12972178 0.040090956 -0.08385314 -0.12303084 0.15641662 0.06783729 -0.23615982
-0.18438649 0.02294058 0.09030269 -0.07385483 -0.028762328 -0.44282255 0.0063202432 -0.058324587
0.09386872 -0.31547314 0.029209144 -0.08089382 -0.10877864 -0.044544894 -0.036717225 -0.037031844
-0.0065764436 0.0030408886 0.1812371 0.31824377 -0.06399923 0.08218456 0.2204817 0.11718252
-0.021005694 0.11468251 -0.10891316 -0.19053115 0.15164122 0.34870946 -0.09825616 -0.22474283
-0.06667628 0.14485745 -0.14304349 -0.23993075 -0.2109698 -0.13038641 0.058627598 -0.058444124
-0.033650354 0.06215791 0.024327602 -0.23875748 0.20710498 0.16328305 -0.07969922 -0.022713428
-0.09445069 0.22451535 -0.22446375 0.08200691 -0.058792245 -0.21860264 -0.17881668 -0.1856473
0.11809368 -0.22653 0.12999918 -0.18201308 0.030616568 -0.23702845 -0.16967645 -0.09447985
-0.12925258 0.21205387 0.19677047 -0.116762854 0.07538642 -0.011534147 0.066145845 0.26914814
-0.13175954 -0.13765417 0.14522296 0.24619068 -0.081864335 0.10685474 -0.059757818 -0.22524163
0.13101253 -0.077664144 0.09792115 0.12969777 0.014003526 -0.26303348 -0.008836838 0.24537213
0.23934698 0.06789395 -0.08583998 0.11866998 0.048123118 -0.07134693 0.12432555 0.1563115
0.13591272 -0.16444464 -0.10128469 -0.007867595 -0.1483102 0.17005709 -0.0818822 -0.025769392
-0.009873428 0.17782901 -0.06529646 0.19387852 0.19804977 -0.04274435 -0.011042509 -0.019322641
0.22740655 -0.17587319 -0.1779635 -0.17648365 0.09443488 0.10205665 -0.025934834 0.12911925
-0.13211977 -0.19690321 0.07653303 -0.16968146 0.06536631 -0.22890796 0.049663134 -0.16198216
-0.010297293 -0.24445933 0.12628369 -0.13466902 -0.11304192 0.12295522 -0.027087415 -0.029837755
-0.18822302 0.00020429581 0.15788105 0.15329245 -0.1787508 -0.17898849 0.13160741 0.08927131
0.050280586 0.19025633 -0.025322933 0.16898048 0.05978394 -0.02320794 0.17169708 0.19366391
0.15568678 0.10461338 0.017212069 -0.1724139 -0.16248675 0.0993426 -0.10226453 -0.117052704

transformer_encoder.layers.0.linear1.bias f4 [20]
00000000: 61cd aabd 8077 ce3d 1d8d 3fbe bceb 79bd
00000010: 104b 2a3e 0a79 983a e19a 67be c35e 6bbe
00000020: 5980 0c3d 2b66 ad3d ea69 e73d a46d bdbc
00000030: bf5f 4e3d 7955 3dbd b825 efbd 16a4 bbbd
00000040: 9226 47be 6d50 20be a945 10be 374b 5fbe
-0.08339954 0.100813866 -0.18706174 -0.06101583 0.16630197 0.0011632752 -0.22617675 -0.22985367
0.03430209 0.084667526 0.112994984 -0.02312357 0.05038428 -0.04622409 -0.11677116 -0.09162156
-0.19448307 -0.1565568 -0.14089073 -0.21806036

transformer_encoder.layers.0.linear2.weight f4 [20, 20]
00000000: bf7b 593d 7304 48be 9c56 a9bd 1176 5a3e
00000010: 9948 5cbe b7f6 ca3e 9b91 813d 313b 2b3e
00000020: 5e57 0fbe d90f 813e 8cdd ba3d 52c9 963e
00000030: 84b1 fcbd 5fc0 9a3c d88e 463e 4ee5 2b3e
00000040: cd7e 873e dcd7 b4bd dc2b 5dbd 22fc b93d
00000050: 5671 093e 7ee4 5d3d be25 40bd 00ec 4a3d
00000060: 40a5 01bd a7cb 853e 1373 f53d 6cc3 21be
00000070: 36a0 023e c0a8 fb3b 6bf7 d1bd b61d a6bc
00000080: fd04 0f3e 2df7 4bbd 3173 e93d 79d1 c4bd
00000090: acc4 fa3b f509 4fbb e155 d23b 9658 1dbc
000000a0: b09e 4b3d cf30 53bd c5ea 373e 15de debd
000000b0: d65d 03be 046d 863e f480 08be 09dd 823e
000000c0: 4fc5 303e e750 1f3e c639 e93b 0833 7cbc
000000d0: ac6f e13a e8f8 5ebd 075a ba3d 7542 15be
000000e0: a76b 89bd a84c ee3c b53b 333d f9d0 723d
000000f0: a8ee 1a3e 369f 37bc f641 72bb 62e2 b4bd
00000100: 1ed8 df3c 18eb 343d c77e f43d 2dce 133e
00000110: de25 08ba a66e 16be 0c9b 1f3d c5a6 67bc
00000120: 92ca 363d 4b47 16bb d141 153e 0d8f 203e
00000130: 604e d0bd 6788 383c f171 4b3d 9ceb cfbd
00000140: 91f9 30bd af7d b43b 4e06 2dbe d31e 6f3d
00000150: bb16 a53d f2b8 313e 3754 ac3d 0ffc cf3d
00000160: 8857 353e ec3c f03d cd65 f6bd 7bc2 d5bd
00000170: 17a6 e83d 0174 513e 6753 bebd b64b 813e
00000180: efce e83d 298e 4abe b1cf 613d e8a7 4c3d
00000190: 1d01 453e df0e 973d 8af5 0abe 539b 27bd
000001a0: 6474 1d3d 5c0a 3e3e 98e0 42be 1e0f eabd
000001b0: f0eb 9bbd aac5 8fbc e3d7 003c 0f97 a13c
000001c0: 5d45 c83d 3394 b8bd 1c50 30be fffb 3dbe
000001d0: 5011 6a3d b44b 463d 5f8f 32bd 9262 1a3e
000001e0: 24d6 06be d563 b13d 8494 dcbd 5368 303e
000001f0: add3 31bc 4418 d13d 464a 82bd 6cfd ca3a
00000200: b460 a7be a002 133e d63b ec3c 0bd9 f9bd
00000210: 935f b73d 17d4 53be 0cab 133d 0525 7d3e
00000220: 048c d13d 25eb f03c 3608 373c dd78 683c
00000230: eca6 1f3e 11ae 2c3e 0771 e13d 974c 20be
00000240: f28c 4f3e 7ec4 35be 66f6 593e d869 e83b
00000250: 0c6e 513e f357 b03c 17b6 233e 9e40 fd3c
00000260: ea38 5e3d b047 d73d dfcb 153e a6cc 2fbe
00000270: 7c53 b5bd a907 a23d 4c75 be3d c47d d23d
00000280: 407b 693d 32c6 df3d e312 26be 855b 503e
00000290: 7993 9bbd 1dde d63d 321d 91be 711a 8a3d
000002a0: 2965 b3bc ca5e 353e cd4e 10be 8196 2bbe
000002b0: 2801 df3d 67ee c7bd d714 fb3c eb37 fabd
000002c0: 1cd2 7b3e 88c9 343e 3e3e ea3d aaa7 163d
000002d0: d56c eb3d dae8 2b3e feab 023e 9811 be3b
000002e0: 6e38 37be 6647 87be d3f6 75bd bd01 babd
000002f0: 8319 8ebd 832c 86bd f0c9 75bd 2926 c2bc
00000300: 99ab 203e bdeb 7abd e3e7 9abd 2506 72bd
00000310: 3a01 653d 4f85 c3bd f5e2 003e 400e 71be
00000320: fa0b 07be 13be 78be f334 c53d e080 243e
00000330: 0196 823e 4dd8 12be 6178 5a3e abb8 613e
00000340: 8189 bfbd 5394 a13d ea9f 513e dfde 9fbd
00000350: cd60 8c3b 42f6 3dbd f930 1dbe 19cd b8bb
00000360: d9b2 8bbe 4a9c 003e ea63 85bd c86a 8abe
00000370: 0d88 463e 06e6 183e b9e6 27bc 3b41 50be
00000380: 3c9e 1b3e 8e3a 9c3b 3f80 733e 225d d2bd
00000390: a91a 203e 7fe9 bb3d e79b a43d 708b adbe
000003a0: 4e48 91be 2be4 593d 494c 203c de1a 043e
000003b0: 59e7 af3d 8518 0dbe 871d 133d 7d12 06be
000003c0: 8f54 33bd 08bb 37be 8798 f43d b53c 25be
000003d0: fe92 ea3c b5b4 27be 9262 d0bd ae99 74bd
000003e0: b825 18be 374d 71be 5a1b 24be 1b97 5ebe
000003f0: c7fb 393e 5dd4 0b3e 5363 e13c 517f 293e
0.05309653 -0.19532947 -0.082684726 0.21334101 -0.21512069 0.39641353 0.063266 0.16721798
-0.13998172 0.25207403 0.09124288 0.2945047 -0.12338546 0.018890558 0.19390428 0.16786692
0.2646393 -0.088302344 -0.053996906 0.09081294 0.1342214 0.054172985 -0.046910994 0.049541473
-0.031651735 0.26131937 0.11984839 -0.15797204 0.12756428 0.0076800287 -0.10252269 -0.02027784
0.13966747 -0.049796272 0.11398924 -0.09610266 0.0076528396 -0.0031591628 0.006418929 -0.00960364
0.049711883 -0.05156022 0.17960651 -0.108822025 -0.12828764 0.26255047 -0.13330442 0.2555926
0.17262767 0.15558206 0.007117483 -0.015393026 0.0017199419 -0.054436594 0.090992026 -0.14576133
-0.06709986 0.029089287 0.043758113 0.059281323 0.15130103 -0.011207392 -0.0036965585 -0.088322416
0.027324732 0.044169515 0.11938243 0.14434119 -0.0005193631 -0.14690647 0.038966224 -0.014138882
0.04462678 -0.0022930678 0.14575888 0.1567957 -0.10171199 0.01126299 0.04966921 -0.10152361
-0.043206755 0.0055081467 -0.16896936 0.058379006 0.08060976 0.17355707 0.084145 0.10155498
0.17709172 0.1173037 -0.12031136 -0.10437485 0.11359804 0.20454408 -0.092932515 0.25253075
0.113675945 -0.19780792 0.05512971 0.049964815 0.19238706 0.07375883 -0.13570228 -0.040919613
0.038441077 0.1855864 -0.19030988 -0.114286646 -0.07613361 -0.017550308 0.007863971 0.01972535
0.09778855 -0.09012642 -0.1721806 -0.1855316 0.057145417 0.04841204 -0.04359376 0.15076664
-0.13167626 0.086616196 -0.107705146 0.17227297 -0.01085369 0.102097064 -0.06361823 0.0015486903
-0.32690966 0.1435647 0.028837126 -0.12199601 0.08953776 -0.20686375 0.036051795 0.24721153
0.10231784 0.029409 0.011171391 0.014188972 0.1559102 0.16863276 0.110078864 -0.15654217
0.2026861 -0.17750737 0.212854 0.0070926957 0.20452136 0.021526312 0.1598743 0.030914601
0.054253496 0.1051172 0.14628552 -0.17167911 -0.08853814 0.07911617 0.09299716 0.10277894
0.057002306 0.10926475 -0.16218142 0.20347412 -0.075964876 0.104915835 -0.28342587 0.067433245
-0.021898823 0.1771194 -0.1409256 -0.16756631 0.108888924 -0.097622685 0.030649586 -0.12217697
0.24591869 0.17655003 0.11437653 0.03678099 0.114953674 0.16788045 0.12760922 0.005800437
-0.1789262 -0.2642166 -0.060049843 -0.09082363 -0.0693846 -0.06551459 -0.060007036 -0.023699837
0.1569046 -0.061259974 -0.0756376 -0.05908789 0.055909373 -0.09546911 0.12586577 -0.23540592
-0.13188162 -0.24291258 0.0962924 0.16064787 0.2550507 -0.14340325 0.21334983 0.22043101
-0.09352399 0.07889619 0.20471159 -0.07806181 0.0042840005 -0.046377428 -0.15350713 -0.005639684
-0.27284887 0.1255962 -0.06513198 -0.27034593 0.19387837 0.14931497 -0.01024788 -0.20337383
0.1519708 0.0047677225 0.23779391 -0.1027167 0.1563517 0.09175395 0.080375485 -0.33895445
-0.28375477 0.053196114 0.009783813 0.12900874 0.08589048 -0.13778885 0.03591683 -0.1309299
-0.043781813 -0.1794244 0.11943155 -0.16136439 0.028634544 -0.16377528 -0.10175051 -0.059716873
-0.14858139 -0.23564611 -0.16026059 -0.2173733 0.18162452 0.13655229 0.027513182 0.16552474

transformer_encoder.layers.0.linear2.bias f4 [20]
00000000: ae40 d93d 0387 843c 3251 5e3e bddc 803b
00000010: 5934 133e 777f e53c 348d cebc 2e78 06be
00000020: f914 ba39 5547 43bd eb44 543e c10a fcbc
00000030: c2c1 253d 727e 8a3d 9e35 70bc 6378 57bd
00000040: 51ab 153e 84a0 5bbd bb51 413e ad1b debd
0.1060804 0.01617766 0.21710661 0.003932564 0.14375438 0.028014882 -0.025213815 -0.13131782
0.0003549231 -0.04767545 0.20729415 -0.030766847 0.040467985 0.06762399 -0.014661221 -0.052605044
0.14616133 -0.053619877 0.18878834 -0.108451225

transformer_encoder.layers.0.norm1.weight f4 [20]
00000000: 0e33 a73f 798d 983f b3aa 8d3f c65e 953f
00000010: aa5f 823f f382 9b3f 99af 893f c213 6c3f
00000020: 44d5 863f 9fea 7c3f dda1 7e3f 5336 873f
00000030: a7c1 683f 043b 713f 7d86 7a3f dc42 473f
00000040: 897a 713f 55a2 893f 9f9c 7a3f dd71 7a3f
1.3062456 1.1918174 1.1067718 1.1669548 1.0185444 1.2149338 1.0756713 0.9221765
1.0533834 0.98795503 0.99465734 1.0563453 0.9092049 0.94230676 0.9786146 0.77836394
0.943276 1.0752665 0.97895235 0.9782999

transformer_encoder.layers.0.norm1.bias f4 [20]
00000000: 2083 12bd 1c26 813d ca53 593d 43a6 803c
00000010: 03c5 013d 0ff4 2d3d fa83 8cbd 554c 693d
00000020: c53a 0e3c 38ef 7ebd 7999 443d a307 cebc
00000030: 13d7 6e3d dc39 3ebd 086d 303d 7bd4 38bd
00000040: a52e 2a3c 0030 77bd 3cba 413d ba38 4ebd
-0.03576958 0.06306097 0.053058423 0.01570428 0.031682026 0.04246908 -0.0686111 0.05695756
0.008681004 -0.062239856 0.047997925 -0.025150126 0.05831058 -0.046441898 0.04307273 -0.045124512
0.0103870975 -0.06034851 0.047296748 -0.050347067

transformer_encoder.layers.0.norm2.weight f4 [20]
00000000: 3de2 ac3f f051 683f 71f2 913f 61fb 813f
00000010: 8376 893f 0f9c 813f efc3 903f e182 6f3f
00000020: b547 8c3f 3dcb 863f 5a18 773f e865 8b3f
00000030: 2b93 673f 1ce4 783f c494 7a3f c21b 513f
00000040: 4ce5 733f 07f1 8e3f 03e9 803f c109 883f
1.3506542 0.90750027 1.1402112 1.015484 1.0739292 1.012575 1.1309794 0.9355908
1.0959383 1.0530773 0.9652153 1.0890474 0.90458935 0.9722307 0.9788325 0.8168298
0.95271754 1.1167306 1.007111 1.0627977

transformer_encoder.layers.0.norm2.bias f4 [20]
00000000: 4d71 0a3c 11a3 973d 77ac a63d c491 9c3d
00000010: adab 273c 8f7a d5bb da50 5ebd c01e b63d
00000020: 3756 0a3c 7ac3 79bd 13cd 1f3d 9d44 b1bc
00000030: b22f a93c 2f21 c9ba f2cb 9e3d 86ea ef3c
00000040: 1428 debc 4bf2 6fbd cb97 4f3d fb5d 1fbd
0.008449865 0.07404149 0.08138364 0.0764499 0.010233802 -0.0065148543 -0.054276325 0.08892584
0.008443407 -0.060977437 0.039013933 -0.021639163 0.020652626 -0.0015344972 0.07753743 0.029286634
-0.02711872 -0.058580678 0.05068187 -0.038907986

transformer_encoder.layers.1.self_attn.in_proj_weight f4 [60, 20]
00000000: 78dc 16be 0bb7 87be 8cff 5c3e 1e8e 583d
00000010: 4fbc 313e 6808 793d a6d0 23be a5f3 f33d
00000020: c6f0 103d 10fc 563d b4ef 4cbe f5d0 733e
00000030: 0030 8ebe 893e 383e 37f8 823e 1808 8a3e
00000040: eb46 a93d c4b5 cbbd 4cda 18bc d1a1 5c3c
00000050: ae68 6a3e 7a80 95bc 52f0 80be a1e6 c83d
00000060: d221 973d c96d e63d 63a3 2b3e d12d 92bd
00000070: 6ee1 573e 23df 0cbd 5f82 a1bb cfe7 9abd
00000080: 9491 cf3d 5159 9cbd 8265 633e a81b 1f3e
00000090: 3fcd 853e cb2b c43c 80c7 283d 8acf 12be
000000a0: f649 403e e2f8 71be 4b61 dc3c 3663 85bd
000000b0: bcca 6a3e a380 6abe 89d6 2e3e d612 81be
000000c0: 8455 cc3c b023 c6bd ae73 5cbd 3d68 57bd
000000d0: 88cd 1b3d 6ea0 46be 240e cd3d 7b78 2bbe
000000e0: 4abd 6abd 0697 98be 123c b7bd ceaf 593c
000000f0: 56b7 573d f8f8 583d 0978 2cbe 927a 8d3d
00000100: 96af 803e 295f 303e a101 bebd a3e1 103e
00000110: 8b2c 553c 0761 1b3c e902 683d 9f97 ff3d
00000120: c4b2 6cbe d565 aebd e071 823c 8c86 2e3e
00000130: be27 4dbe bf82 eabd 9407 3bbc 87d9 b33d
00000140: 6d1d 7bbe 4a16 133e 7312 38be fe6f 6c3e
00000150: da94 58bd 7919 4dbd 2959 9b3b e7b0 96bb
00000160: fb5f 643e b1bd 1a3e f47f 68be e66f 1d3e
00000170: 38b4 333e 5e72 9cbd 1e3b 4cbe 8ed3 aebd
00000180: e509 6dbd dd1f 433d 33ee e43c a2e3 6c3e
00000190: 54c8 80bd 16e5 40bd c9b8 493e fa03 7abe
000001a0: 8eb1 b93d df99 253d df48 093d 5a29 473e
000001b0: 4604 3bbe dc19 19be f3bf c23d 716f 4a3e
000001c0: 48f2 1ebd 7db9 58bd 3458 78be 9c84 123e
000001d0: b956 15be 572e 51be 58bf 95bd 4dc3 38bd
000001e0: a4ab b5bd 6085 db3d 4be9 ef3d 6ba7 363d
000001f0: c093 35be c77b eebd 58dd 1fbd d55e 04be
00000200: 1710 32be 2ccb 143e 83f2 febd 86cf ab3d
00000210: 8bc6 71bd d1d8 013e 95a1 2cbe d9cf 433e
00000220: 5ef6 313e 06bd fbbd 4025 54bb 5237 0bbe
00000230: e1bc 6f3d 93ab 4bbe a872 1d3d 28d5 bc3d
00000240: f3f9 9a3e 17b8 08bd 5602 76be 9c70 0abd
00000250: 7d96 1cbe 4233 f9bd e7ab 553d 0757 65be
00000260: e99c 263e b82a a93c 02ef 35be c2af 2ebe
00000270: ced8 c43d 4f8e 53bc 7713 9bbd 7596 f5bd
00000280: 9e7b 173e ed70 71bd 025e 76bd 5873 2c3e
00000290: c35e f83d ef0a aebd 29dc 77be fa12 423e
000002a0: fc24 04bc c464 2a3e 5851 3bbd 3d8e 3f3d
000002b0: 3936 663e 48e1 07be a142 e13d 559a 223e
000002c0: cc86 113e ca7f 5cbe 7acc 833e 3bef 093e
000002d0: e641 15be f3c8 85bd ced7 003e 5d4e 013e
000002e0: b4b9 443e 1c09 53be 819d c9bd 00c9 1e3e
000002f0: 7b78 c4bd 3426 0cbe fc95 1bbe 7966 e1bd
00000300: 6143 383e bd35 09bd 8d52 c83c ecbc 8a3b
00000310: 5ffa 36be 7331 84bd c8cb 9fbd 7184 db3c
00000320: 1f2d 04be ac18 6dbe 940c c2ba ab19 14be
00000330: 4726 983c 6929 b73d f878 843d 1f7f 2dbe
00000340: 448f 3f3e cdb6 2c3e 3f71 cf3d bfb4 3cbc
00000350: 477b 5ebc fba8 863c e53a 91bd 3076 4cbb
00000360: 2314 dd3c 03ff 803e db98 e33d 18c0 ea3d
00000370: 5c73 dcbc 6dbd 74be 2c0a 8abe 2b4e 5cbe
00000380: 5959 413e d90a b8bd fbfe a6bd f8a1 293d
00000390: d323 2c3c 215f 4f3e 31c0 02be e177 b13c
000003a0: 701a 20be d68f 78bd 9f29 35be 03ed 0d3e
000003b0: be83 9f3d 8d9a 033d d6b4 9e3b f714 8cbe
000003c0: 3327 963e feb0 f33d 5252 6e3e 0c17 86be
000003d0: b2fe 39be 9241 eabd 4381 81be f5e1 ab3d
000003e0: e8ed 97bd 6a32 31be dc22 0d3e 926d 613c
000003f0: 0da7 8b3e f515 613e 9d56 8a3e 3691 03bd
-0.1473254 -0.26506838 0.21581858 0.05286991 0.1735699 0.060799032 -0.15997562 0.11911706
0.03538587 0.05248648 -0.20013314 0.2381018 -0.27770996 0.17992605 0.25579998 0.269593
0.0826548 -0.099467784 -0.00932939 0.013466314 0.22891495 -0.018249739 -0.2518335 0.09809614
0.073794976 0.112514086 0.16761546 -0.07137645 0.21082088 -0.034392487 -0.0049288715 -0.07563745
0.10135189 -0.07634223 0.22206691 0.15537894 0.26133153 0.023946663 0.041205883 -0.14336982
0.18778214 -0.23630098 0.026901862 -0.065130636 0.229289 -0.22900634 0.17074026 -0.25209683
0.02494312 -0.096747756 -0.05382126 -0.052589644 0.038037807 -0.19397137 0.10012463 -0.16745178
-0.057309426 -0.29802722 -0.089470044 0.013286544 0.052665077 0.05297181 -0.16842665 0.06908144
0.2513396 0.172238 -0.092776544 0.14148574 0.013011108 0.009483582 0.0566434 0.12480091
-0.23115069 -0.08515517 0.01592344 0.17043513 -0.20034692 -0.11450719 -0.011415381 0.087817244
-0.24522944 0.14363971 -0.17975788 0.23089597 -0.05287633 -0.05007312 0.0047408533 -0.004598725
0.22302239 0.15111424 -0.2270506 0.15374717 0.17549217 -0.07639001 -0.19944426 -0.085364446
-0.057870764 0.04763781 0.027945613 0.2313371 -0.062882096 -0.047093473 0.19699396 -0.2441558
0.09067069 0.040429946 0.03351676 0.19449368 -0.18263349 -0.14951271 0.09509268 0.19769074
-0.038805276 -0.05291127 -0.24252397 0.14308399 -0.14583863 -0.20427833 -0.073118865 -0.04510813
-0.088706285 0.10718799 0.11714419 0.044593256 -0.17732143 -0.116447024 -0.03902945 -0.129268
-0.1738895 0.14530629 -0.12448599 0.08389191 -0.059027236 0.12680365 -0.16858514 0.19122256
0.17379138 -0.12291913 -0.0032370836 -0.13595322 0.05852974 -0.19889669 0.038439423 0.09220344
0.3026882 -0.033378687 -0.24024329 -0.0337988 -0.15291782 -0.1216798 0.052165892 -0.2239648
0.16270794 0.020650253 -0.17766955 -0.17059234 0.09611665 -0.012912347 -0.07572072 -0.11991588
0.1479325 -0.058945585 -0.060148247 0.16840875 0.12127449 -0.08498179 -0.24205078 0.18952551
-0.008065458 0.16640002 -0.045731872 0.04676651 0.22481622 -0.13269532 0.109990366 0.15879185
0.14211577 -0.21533123 0.2574194 0.13470165 -0.1457592 -0.06532469 0.12582323 0.1262755
0.19211465 -0.20608944 -0.098444946 0.15506363 -0.09593292 -0.13686448 -0.15193933 -0.11005873
0.17994453 -0.033498514 0.024453426 0.004233947 -0.17868946 -0.06454744 -0.0780254 0.026796551
-0.12907837 -0.23153943 -0.0014804774 -0.14462917 0.01857294 0.08943445 0.064683855 -0.16943024
0.18706995 0.16866608 0.10129022 -0.011517703 -0.013579196 0.016437998 -0.07091311 -0.0031198375
0.026987141 0.25194559 0.11113139 0.1146242 -0.026910476 -0.23900385 -0.26960886 -0.21514194
0.1888174 -0.08986444 -0.081541024 0.04141423 0.010506588 0.20251133 -0.12768628 0.021663608
-0.15635085 -0.060684048 -0.17691658 0.13859944 0.077888 0.032129813 0.0048433347 -0.27359745
0.29326782 0.11898993 0.2327359 -0.26189458 -0.18163565 -0.11438288 -0.2529393 0.08392707
-0.07418424 -0.17304388 0.13782829 0.013759034 0.27275887 0.21981032 0.27019206 -0.032120906

transformer_encoder.layers.1.self_attn.in_proj_bias f4 [60]
00000000: 3162 1b3c 08b3 9f3b 6ff9 da3c d8ab 92bc
00000010: 9f87 9dbc 9fdb 543d 3de7 43bb eadb 693c
00000020: b38a 0b3d 57e7 23bb dc9b 31bc e6d2 18bd
00000030: e544 923b 3f51 f2ba 2345 553a c55c 11bb
00000040: a302 17bc 2e9b 8fbd a4e2 73bb baeb 4d3d
00000050: 5e1e 0caf 0984 ddb0 eb13 9930 34c0 c1b0
00000060: a3dd e6b0 95c1 9b31 34ad fa30 5ecb f831
00000070: 348b 532f e1d6 5930 7be4 00b1 cb19 6ab1
00000080: 2f22 5330 b11a e5af 69f2 89b1 8d8f 2bb1
00000090: 9612 2031 74da 67b1 76d0 72b0 b941 f9b0
000000a0: b122 f43a e23c 5bbd dad8 a63c 0049 febb
000000b0: d4d2 913d c90b 86bc 7c87 9c3b 5cfa b53c
000000c0: b8be 483d 5f21 41bc a862 103c c014 203c
000000d0: 149f 90bc 81fd d7bc 0265 6cbd a4d5 cabc
000000e0: ca13 323d 4867 e83b 1dd3 e6bc 8b04 883c
0.00948386 0.004873637 0.026730267 -0.017904207 -0.019229708 0.05196726 -0.0029892467 0.014273623
0.03406782 -0.0025009715 -0.010840382 -0.037310503 0.0044637793 -0.0018487348 0.00081356073 -0.002218054
-0.009216937 -0.0701202 -0.0037213946 0.050273634 -1.2743714e-10 -1.6117393e-09 1.1137876e-09 -1.4097226e-09
-1.6797695e-09 4.5331014e-09 1.8239121e-09 7.24087e-09 1.9239793e-10 7.92495e-10 -1.8756328e-09 -3.4066143e-09
7.680993e-10 -4.1673823e-10 -4.0147836e-09 -2.4965374e-09 2.329363e-09 -3.37391e-09 -8.833533e-10 -1.8135814e-09
0.0018626062 -0.05352486 0.020367075 -0.007760167 0.071202904 -0.016363041 0.004776893 0.022214107
0.04901001 -0.011787741 0.008812584 0.009770572 -0.01765398 -0.026365997 -0.057713516 -0.024760075
0.043475904 0.00709239 -0.028176839 0.016603729

transformer_encoder.layers.1.self_attn.out_proj.weight f4 [20, 20]
00000000: f106 e43d 6505 39bc d896 fbbc 80fe d23d
00000010: 472b c03e 8c26 0abe 8487 2e3e 33a2 5b3d
00000020: 320f 32be 6756 f33d ab67 5cbe f8b7 9b3c
00000030: 2bea c5bd e90f 133c 88ac 4a3d 90d7 8bbe
00000040: a1a2 703c dbb2 593d 8b11 893e ec57 303d
00000050: 2197 c93d c025 11be f528 933d c8b8 ae3d
00000060: f4c2 fe3d ca00 4dbd edd6 97be c7ef 62be
00000070: 1caf 91be 706d 4abd 0e2d 3abd 3055 d23d
00000080: 7fe0 f93d 48e8 a1be f513 d2bd 9d35 d0bc
00000090: 9fb1 55bd 5bfd 823c 7355 893d 12da a9bd
000000a0: ccfd 06be e807 ad3c d716 d6bd 76e4 4cbe
000000b0: ed19 363e f02a b7bd 2184 14be 9673 043d
000000c0: a686 85be 7999 dcbd 781e 4cbe 911e 3cbe
000000d0: bd83 b03d 50db e0bc 83c7 df3c 16c5 94bd
000000e0: 7675 213e 8297 363c 5588 6b3d a0ab b6bd
000000f0: 3e8e fe3c b451 383b 75a2 933c d2f1 053d
00000100: 20bf 333e 4412 61be a8f4 e23d 5f36 283d
00000110: fb52 eb3d 15da 963d ecf0 1d3d c193 05be
00000120: b577 973d a8ea 073e caab ba3e 748e 17be
00000130: e3f9 cebd 7237 4a3d 9a68 ddbc 316b 453e
00000140: 30cc d3bb 342a b23c 46c0 59be 73e8 25be
00000150: e5de 7a3c 9184 e6bd 46ca 0a3e 062a 06be
00000160: 8ba6 1a3e e5f2 653d 5142 84bd 5995 d03d
00000170: 5f03 2abe 7ad5 353e 3dbf e6bd 8a58 16be
00000180: fd6b 8d3d dc68 f63d aae4 113e ca42 2dbd
00000190: 1e86 4c3e d6f1 0d3d 4d74 3cbe f9e6 183d
000001a0: f805 933d 3070 03be 3371 9bbe e4c2 2fbe
000001b0: 9451 8fbd d758 953e 5ebf 8fbe 649f 483d
000001c0: 7555 05be 84bd b5bb 211b 3a3e 2baf 0e3e
000001d0: feaa bcbc 5f75 ffbd 5839 f23d a05c 12be
000001e0: 9365 c83d 9af9 aebd 9c99 1dbe 59d1 ec3c
000001f0: 5559 253e adad 3bbe 90b4 333e e495 c23d
00000200: 70c6 c53e cd84 4a3e ecde c03d f3ac 6d3d
00000210: ea24 113e 0d6c f63d 9632 a6be 3595 fe3d
00000220: 8ee6 923c a3cf 8c3b 8d6d 0abe f2bd 41be
00000230: 3894 893d e1a2 14be 9662 1b3e a1b1 55bc
00000240: 9d3a f83d 8ea5 a2bd dcc4 a3bd 450e ff3d
00000250: 5a53 ac3d 66a3 04be 0804 36be 3f4b 27be
00000260: d9d4 343e 5416 18be 84b3 d8bc 844d ecbc
00000270: 8e36 943d 7186 253e 5793 91bc 4fd6 b5bd
00000280: 2211 b53d 6eca f93d 70d8 833e bb42 a3bc
00000290: c2fc 97bd 16a9 f13d 3ab4 d6bc 2477 4f3e
000002a0: 5089 2c3d 80a2 07be 4b9c 46be 7a33 0bbe
000002b0: 95ff 90bd 7c51 193e 3fff 33bc 60df 183e
000002c0: 6005 bbbb 330a 243e 9767 d63d 3542 24be
000002d0: f739 193e 4c21 1ebe e4dc 7d3e e7bb 4bbe
000002e0: a60b e03d 891a 6c3d fad7 0c3e 0a40 c53d
000002f0: 156c 593e 4269 2bbe 8655 f23d df20 093d
00000300: cce7 1abe e5a1 873c 8011 6bbd 5cb1 8c3d
00000310: 2986 00be ba9a b93d 5fd3 22be 27ad 5dbe
00000320: 27f5 5f3e 2b30 13be d8c0 c73c 3fea 273d
00000330: 28f2 9d3d 6a65 1bbd 38b5 453e 1b96 9e3d
00000340: 39a2 96bd b3fa 843b e828 243c 25e8 36be
00000350: 1a8a 293d dfa1 94bc c4f4 7d3d 882c 683e
00000360: e8d1 d23c 2098 2c3e 3aa4 673c 2cf1 473c
00000370: 74ef 2c3e 03ff af3d 5b1e 99bc 6eb2 81be
00000380: fde0 13bd 1fb3 c7bd 743d e4bd 2bdb a63d
00000390: dd73 903e f62f 90bd 4804 81bc 43e3 ee39
000003a0: 89bc b3bc 13fc d53c 0190 653a f8e4 033e
000003b0: 8139 6dbe d174 46be 0418 ac3d 0257 043d
000003c0: 78db 22be 0daf 94bd 3a4a 6a3e 2719 1fbe
000003d0: 045e 68be 4a1a d33d 4f77 043e 64cb 313e
000003e0: c03c 13be 2f14 493e 9656 663e a6f5 11bd
000003f0: 0dca 1f3d b22b 853e 7298 3bbc d577 8a3e
0.111341365 -0.01129279 -0.030711576 0.10302448 0.37533018 -0.13491267 0.17043883 0.053621482
-0.17388609 0.11881714 -0.21523921 0.019008622 -0.096638046 0.008975961 0.049480945 -0.273129
0.014687211 0.053149085 0.26771197 0.0430526 0.09843279 -0.14174557 0.07185546 0.08531338
0.12439528 -0.05004958 -0.29656163 -0.2216178 -0.2845391 -0.049420774 -0.045453124 0.102701545
0.12201022 -0.3162253 -0.10257713 -0.02541619 -0.052171346 0.01598995 0.06705751 -0.08293547
-0.13182753 0.021121934 -0.10453575 -0.20009026 0.17783327 -0.089437366 -0.14503528 0.032336794
-0.2607929 -0.1077146 -0.19933498 -0.18371035 0.08618877 -0.027448326 0.027316814 -0.07264154
0.15767464 0.011144521 0.057503063 -0.089194536 0.031073686 0.002812487 0.018021801 0.03270132
0.17553377 -0.21979624 0.11081821 0.041067477 0.11490437 0.073658146 0.03855984 -0.13044645
0.07395879 0.13273108 0.3645919 -0.14800435 -0.10106256 0.049369283 -0.027027417 0.19279172
-0.00646355 0.02174864 -0.21264753 -0.16201954 0.015311931 -0.11255754 0.13553724 -0.13101968
0.15102594 0.056139845 -0.06457961 0.10184736 -0.16602848 0.17757216 -0.112669446 -0.14682212
0.06905363 0.12031719 0.14247385 -0.042300023 0.19973037 0.03465446 -0.1840374 0.037329648
0.07178873 -0.12835765 -0.30359802 -0.17164189 -0.06997982 0.29169342 -0.2807569 0.04898013
-0.1302088 -0.0055462737 0.18174411 0.13934009 -0.023030754 -0.12473559 0.11827344 -0.14293146
0.09784999 -0.085437015 -0.15390629 0.028908418 0.16147359 -0.18327971 0.17549348 0.095012456
0.38627958 0.19777222 0.09417519 0.058026265 0.14174238 0.12032328 -0.3246047 0.12430803
0.017932203 0.004297213 -0.13518353 -0.18920115 0.067177236 -0.14515258 0.15174326 -0.013042838
0.121205546 -0.07941733 -0.07996532 0.124538936 0.084143355 -0.12952957 -0.17774975 -0.16337298
0.1765932 -0.14852268 -0.026452787 -0.028845556 0.07236968 0.16164567 -0.017770452 -0.08878767
0.088411584 0.121968135 0.25751066 -0.01992928 -0.074212566 0.11799829 -0.026208986 0.20260292
0.04212314 -0.13245583 -0.19395559 -0.13593856 -0.070799984 0.1497249 -0.010986148 0.14928961
-0.005707428 0.16019516 0.10468977 -0.16040881 0.14963518 -0.15442389 0.24791294 -0.19895898
0.10939722 0.057642493 0.13754264 0.09631355 0.21232636 -0.16739371 0.118327186 0.033478614
-0.15127486 0.01655669 -0.057389736 0.06869766 -0.12551178 0.09062715 -0.15900944 -0.21648084
0.21870862 -0.14373843 0.024383947 0.04099488 0.07712203 -0.037938513 0.1930741 0.07743474
-0.0735516 0.004058206 0.010019518 -0.17861994 0.04139147 -0.018143592 0.062001005 0.22673237
0.025734857 0.16854906 0.014138276 0.012203496 0.16888219 0.085935615 -0.018691232 -0.25331444
-0.036103237 -0.097509615 -0.11144534 0.08147272 0.28213397 -0.07040398 -0.015749112 0.0004556422
-0.021940487 0.026121175 0.0008757115 0.12880313 -0.23166467 -0.193805 0.08403018 0.03230954
-0.15904033 -0.07259951 0.22879878 -0.15536939 -0.22692114 0.103077486 0.12936138 0.17362744
-0.14378643 0.19636606 0.22493967 -0.03563466 0.03901105 0.260099 -0.01144992 0.2704455

transformer_encoder.layers.1.self_attn.out_proj.bias f4 [20]
00000000: 8ac5 803d 9868 363d f65d d7bc 332d 443d
00000010: 65ae 38bd 6503 4fbd df7c d6bc 1127 4d3d
00000020: 402b 2e3c c2f3 463d 9180 233c 4cc8 15bd
00000030: 3874 37bd fe4e 41bd 769c 323d eb94 7dbc
00000040: df1a 43bd 6264 743b 56d5 10bc a5ad da3c
0.062876776 0.044533342 -0.026289921 0.047894668 -0.04508819 -0.050540347 -0.02618259 0.050086085
0.010630429 0.04857231 0.009979383 -0.03656797 -0.04478857 -0.047194473 0.043606244 -0.015477399
-0.04763305 0.0037291278 -0.008839926 0.026694128
