model_epoch_8.pt (torch, 431938 bytes, 28 tensors)

pos_encoder.pe f4 [5000, 1, 20]
00000000: 0000 0000 0000 803f 0000 0000 0000 803f
00000010: 0000 0000 0000 803f 0000 0000 0000 803f
00000020: 0000 0000 0000 803f 0000 0000 0000 803f
00000030: 0000 0000 0000 803f 0000 0000 0000 803f
00000040: 0000 0000 0000 803f 0000 0000 0000 803f
00000050: a56a 573f 4151 0a3f 3d7d c63e dafa 6b3f
00000060: 4e9d 213e a0ca 7c3f 6522 813d 977d 7f3f
00000070: 8ac0 cd3c 53eb 7f3f 57d6 233c b9fc 7f3f
00000080: 9073 823b 7bff 7f3f 28bc cf3a ebff 7f3f
00000090: d466 253a fdff 7f3f f5b1 8339 ffff 7f3f
000000a0: b7c7 683f 3311 d5be 76f7 363f 040d 333f
000000b0: c596 9f3e 183f 733f 9de0 003e e3f6 7d3f
000000c0: ecaf 4d3d 51ad 7f3f 3ed4 a33c e5f2 7f3f
000000d0: 4d73 023c ecfd 7f3f 17bc 4f3b acff 7f3f
000000e0: d266 a53a f3ff 7f3f f5b1 033a feff 7f3f
000000f0: c381 103e 2670 7dbf 4812 6e3f e53b bc3e
00000100: ce5e ea3e a89a 633f b9ac 403e 6f6d 7b3f
00000110: 2d2f 9a3d 0346 7f3f 1fb9 f53c 83e2 7f3f
00000120: 49ac 433c 53fb 7f3f fccc 9b3b 42ff 7f3f
00000130: 361a f83a e2ff 7f3f ef8a 453a fbff 7f3f
00000140: cfbd 41bf 3055 27bf abf0 7f3f ce32 b1bc
00000150: 72a3 173f b041 4e3f 8ab4 7f3e d4e3 773f
00000160: 7d6d cd3d 7ab5 7e3f dbcb 233d 94cb 7f3f
00000170: 3e72 823c b1f7 7f3f d3bb cf3b affe 7f3f
00000180: c966 253b cbff 7f3f f4b1 833a f8ff 7f3f
00000190: 107c 75bf 2c3c 913e 28c7 693f cea6 d0be
000001a0: 6e4a 363f 2cbd 333f ebdb 9e3e aa5d 733f
000001b0: 4f45 003e cdfb 7d3f f4b6 4c3d 19ae 7f3f
000001c0: cf0d a33c 04f3 7f3f 44d5 013c f1fd 7f3f
000001d0: 74c0 4e3b adff 7f3f 6f9e a43a f3ff 7f3f
000001e0: 8c0f 8fbe b8cd 753f 200d 2f3f fdcb 3abf
000001f0: a75f 503f 47b7 143f b73b bd3e 8fdf 6d3f
00000200: 29bf 193e 1a19 7d3f d19c 753d 128a 7f3f
00000210: b7a8 c33c 4eed 7f3f 88cc 1b3c 09fd 7f3f
00000220: 191a 783b 88ff 7f3f eb8a c53a edff 7f3f
00000230: 4630 283f bdff 403f fde3 b13e 310d 70bf
00000240: c03b 653f 26ee e33e b9da da3e 1a6f 673f
00000250: 2d20 333e 860d 7c3f 323e 8f3d 815f 7f3f
00000260: d442 e43c 8ee6 7f3f b4c3 353c f8fb 7f3f
00000270: dbb9 903b 5cff 7f3f 6577 e63a e6ff 7f3f
00000280: 9546 7d3f f6fd 14be 3128 31bd acc2 7fbf
00000290: dc58 743f 1db7 983e c29a f73e db12 603f
000002a0: 4264 4c3e 3cd9 7a3f 50aa a33d 662e 7f3f
000002b0: 026e 023d c4de 7f3f c1ba 4f3c bbfa 7f3f
000002c0: a766 a53b 2aff 7f3f efb1 033b deff 7f3f
000002d0: 3201 d33e d53f 69bf 5cb7 dabe 7577 67bf
000002e0: 0056 7d3f 3958 133e 43af 093f 52d2 573f
000002f0: 5487 653e 6e7c 793f 3e12 b83d c2f6 7e3f
00000300: 12ba 123d f0d5 7f3f adb1 693c 55f9 7f3f
00000310: 6e13 ba3b f1fe 7f3f 2c28 143b d5ff 7f3f
00000320: f844 0bbf 64cd 56bf 238a 3ebf 43f8 2abf
00000330: 7df9 7f3f baf4 66bc e004 173f e6b5 4e3f
00000340: 5385 7e3e 54f7 773f 7675 cc3d 98b8 7e3f
00000350: 8a05 233d 13cc 7f3f 39d4 813c c5f7 7f3f
00000360: 30c0 ce3b b2fe 7f3f 679e 243b cbff 7f3f
00000370: 5cff 7fbf 7205 913b 58eb 71bf c976 a7be
00000380: 6532 7c3f 27da 2fbe 9fc0 233f e2c6 443f
00000390: 1cad 8b3e 2d4a 763f 72d3 e03d e873 7e3f
000003a0: 5950 333d 2cc1 7f3f 86cf 8e3c 0af6 7f3f
000003b0: ed6c e33b 6cfe 7f3f a214 353b c0ff 7f3f
000003c0: d85c 09bf d006 583f 0b76 7fbf e1d0 843d
000003d0: f518 723f 4d6e a6be 89d5 2f3f 630f 3a3f
000003e0: fe00 983e 3e75 743f ac2b f53d b528 7e3f
000003f0: 6d9a 433d 3bb5 7f3f baca 9b3c 26f4 7f3f
0.0 1.0 0.0 1.0 0.0 1.0 0.0 1.0
0.0 1.0 0.0 1.0 0.0 1.0 0.0 1.0
0.0 1.0 0.0 1.0 0.841471 0.54030234 0.38767424 0.92179644
0.15782663 0.9874668 0.06305388 0.9980101 0.025116224 0.9996845 0.009999833 0.99995
0.0039810613 0.9999921 0.0015848922 0.99999875 0.0006309573 0.9999998 0.00025118855 0.99999994
0.9092974 -0.41614684 0.71471345 0.69941735 0.31169716 0.9501815 0.12585683 0.99204844
0.0502166 0.99873835 0.019998666 0.9998 0.00796206 0.9999683 0.0031697804 0.999995
0.0012619144 0.9999992 0.0005023771 0.9999999 0.14112 -0.9899925 0.92996645 0.36764446
0.45775455 0.8890786 0.18815888 0.9821386 0.07528529 0.99716204 0.0299955 0.99955004
0.011942931 0.99992865 0.0047546607 0.9999887 0.001892871 0.9999982 0.00075356563 0.9999997
-0.7568025 -0.6536436 0.99976605 -0.02163067 0.5923377 0.8056898 0.24971214 0.96832013
0.10030649 0.9949566 0.039989334 0.9992001 0.015923616 0.9998732 0.006339529 0.9999799
0.0025238267 0.99999684 0.0010047541 0.9999995 -0.9589243 0.2836622 0.91319513 -0.40752262
0.7120732 0.7021053 0.3102716 0.95064795 0.12526439 0.9921234 0.049979165 0.99875027
0.019904045 0.9998019 0.007924382 0.9999686 0.0031547816 0.99999505 0.0012559424 0.9999992
-0.2794155 0.96017027 0.683794 -0.7296751 0.81395954 0.5809216 0.3695962 0.9291925
0.15014328 0.98866427 0.059964005 0.99820054 0.02388416 0.99971473 0.009509213 0.99995476
0.0037857352 0.99999285 0.0015071308 0.99999887 0.6569866 0.75390226 0.34744254 -0.9377013
0.89544296 0.4451763 0.42744997 0.904039 0.17492743 0.98458135 0.06994285 0.997551
0.027863897 0.99961174 0.011094023 0.9999385 0.004416687 0.9999902 0.001758319 0.99999845
0.98935825 -0.14550003 -0.04325122 -0.9990642 0.9544809 0.29827204 0.48360258 0.8752877
0.1996012 0.97987723 0.07991469 0.99680173 0.031843193 0.9994929 0.012678803 0.9999196
0.0050476375 0.99998724 0.002009507 0.999998 0.4121185 -0.91113025 -0.42718017 -0.9041665
0.9895935 0.14389123 0.53783053 0.843053 0.22414905 0.9745549 0.089878544 0.9959527
0.03582198 0.9993582 0.014263553 0.99989825 0.0056785857 0.99998385 0.0022606952 0.99999744
-0.5440211 -0.8390715 -0.7442953 -0.6678507 0.99990064 -0.014096433 0.58991814 0.80746305
0.24855547 0.9686177 0.099833414 0.9950042 0.039800204 0.9992077 0.015848266 0.9998744
0.0063095316 0.9999801 0.002511883 0.99999684 -0.9999902 0.004425698 -0.9449973 -0.32707813
0.98514396 -0.17173062 0.6396579 0.7686597 0.2728051 0.96206933 0.1097783 0.9939561
0.043777797 0.9990413 0.01743294 0.999848 0.006940475 0.9999759 0.0027630706 0.9999962
-0.53657293 0.84385395 -0.99789494 0.06485153 0.9456933 -0.32506028 0.68685204 0.7267973
0.29688257 0.954914 0.119712204 0.99280864 0.047754694 0.9988591 0.019017566 0.99981916

transformer_encoder.layers.0.self_attn.in_proj_weight f4 [60, 20]
00000000: 4b8b 79be 8a6e 50be c282 363e c9d9 5b3d
00000010: 4e53 473e fed8 bf3d 76d1 2ebe d1a8 033e
00000020: 7bfa bd3c 4b72 7b3d 564a 54be c07f 653e
00000030: e29b 87be 52be 423e 44b3 883e 868a 883e
00000040: 336b 993d 7d53 b2bd 6932 e8bc 5bac 1e3b
00000050: 4d85 723e 4985 5cbd 43c0 73be 76c2 d13d
00000060: fbbe 943d 0401 cb3d 9046 283e 1c35 93bd
00000070: ab36 5b3e 0f1d 11bd 6100 303b c3f6 9cbd
00000080: 18ec e03d e4f4 b8bd 94ec 693e 658b 223e
00000090: 9503 863e a293 863c e642 243d beb1 08be
000000a0: a2e9 993d ac27 ecbd ea9c c2bd 94ca 94bd
000000b0: c7f5 683e 3db8 17be 0d98 593e 1544 88be
000000c0: 9e10 743b 2c72 88bd dda3 a4bd 5752 d2bd
000000d0: b998 803d 0828 2ebe bc43 d73d 1390 37be
000000e0: 730b 98bd 960b 77be 87dd d5bd 657e 55bc
000000f0: 83cd 843d 99d8 d63a df1d ddbd ee4d a23d
00000100: e61c 843e d9e5 023e 6f92 f2bd d89e 1d3e
00000110: 7b92 a73c f6a0 a43b fd8a 863d dc91 143e
00000120: 45eb 6fbe 7352 ccbd 9f3a bb3c ad78 353e
00000130: 892f 44be fdfe 06be adfc a9bc 62a7 e73d
00000140: f824 6bbe 2c3b d73d 9ea3 06be 185e 753e
00000150: 1026 41bd ab19 aabd 3b90 83bc c8e9 e03b
00000160: f0a8 663e 0d5a 1a3e 0471 65be 8948 2d3e
00000170: 12e9 2e3e d11e bcbd 9363 4bbe 863e b1bd
00000180: fa53 4fbd e66b 273d 819c 823c 2149 7e3e
00000190: da78 efbd 83cd 493d 6052 303e b106 5fbe
000001a0: 061b eb3d b1fc 053b 166b 773b f6a2 803e
000001b0: b7b1 6cbe 8444 21be 31e3 a23d e395 533e
000001c0: 90f8 60bd 206a f1bc 783d 82be 723e 193e
000001d0: 873d 36be ef7a 6dbe 00aa b9bd e287 59bd
000001e0: ba39 20be 84e7 223d fc7a ca3d 3604 8f3c
000001f0: 8f5f 1ebe 5b43 a8bd 2471 973c 5f9b 13be
00000200: 08ab 07be 3796 433e 881e e1bd 6aea e93d
00000210: 3f7d 99bb 749a 103e df2c 24be cf07 723e
00000220: e7ad 423e 908e e9bd c863 3e3c d0fc 03be
00000230: 9c41 883d 60d1 59be 4fbe d93b 4b4f d13d
00000240: 79fe 913e 15c3 06bd 9228 43be e7e2 14bd
00000250: 0a1b e2bd 0235 b4bd 672d 523d f8ec 82be
00000260: dfe8 473e 2ade aa3c c59c 39be 39e7 1cbe
00000270: 4905 b63d 55b9 f03c dc96 aabd 0143 d8bd
00000280: efe8 c23d 639e 54bc 37ef 8cbd 0e07 2e3e
00000290: 8fee 0c3e 1d1b b9bd 3c80 86be 698f 623e
000002a0: 3084 4fbd 2d90 243e da0e 60bd 993b 8f3d
000002b0: 4126 5c3e cd91 d6bd ed48 de3d 0afa 293e
000002c0: 56f5 043e ba6d 75be c9e8 863e 9ab1 fb3d
000002d0: d7f5 03be 1f9f 033c d99e 393e 84a3 1c3e
000002e0: 6bc6 323e 085a 77be bbc3 31be f20d 433e
000002f0: 16f1 d7bd f78a 31be 3b17 2ebe 174d e9bd
00000300: 802a 013e 8f96 1bbd 9c97 233c 0089 b0bc
00000310: a9d5 42be b933 bbbd b32a c0bd 55f1 a03c
00000320: 6124 d5bd 6ce2 7bbe 83c3 0c3d 8ff1 1ebe
00000330: 46a3 9fbc c9de df3d 881d 6d3d 4068 45be
00000340: 7ab9 603e 78d3 283e b9f6 d83d 8e6a dfba
00000350: 7033 bcbc 2173 233b 8452 4cbd 8845 deb9
00000360: 1ead 313d 965b 863e 55eb d53d 0c28 063e
00000370: 0b84 cf3c 0816 8dbe fe80 80be 3b1c 67be
00000380: 9bf4 433e 4c09 a4bd aa03 a5bd d8de cd3c
00000390: d86e d63b b206 4b3e af78 08be e12b 3a3c
000003a0: 695f 27be 6bdd a7bd d9dc 39be 9feb fc3d
000003b0: c5ea b63d 7a76 0d3d db82 853c 36c2 89be
000003c0: 20f2 8c3e 233e fe3d d065 713e f126 83be
000003d0: 13d5 36be 6232 03be b8bc 84be f227 bc3d
000003e0: 9225 b3bd 8bfc 37be d8d2 063e 3994 1f3c
000003f0: ff2f 893e c3f0 5b3e 37fa 873e 8e64 1cbd
-0.24369542 -0.20354667 0.17823318 0.053674493 0.19465372 0.0936756 -0.1707209 0.12857367
0.023190727 0.061388295 -0.20731482 0.22412014 -0.26486117 0.19017914 0.2669927 0.26668185
0.0749115 -0.087073304 -0.02834435 0.0024211619 0.23683663 -0.053838048 -0.23803811 0.102421686
0.07262989 0.09912303 0.16433167 -0.07187864 0.21407573 -0.035428103 0.0026855695 -0.076642536
0.10982531 -0.09031084 0.22844154 0.15873487 0.26174608 0.016427819 0.04010286 -0.13349053
0.07515265 -0.11531004 -0.09502585 -0.07265201 0.22750007 -0.14816375 0.21249409 -0.26614442
0.003724135 -0.066624016 -0.08039067 -0.10269611 0.062791295 -0.17007458 0.10510966 -0.17926054
-0.07424059 -0.24125513 -0.104426436 -0.013030623 0.06484511 0.0016391455 -0.10796713 0.0792502
0.25803298 0.12782992 -0.11844336 0.15392625 0.02045559 0.005024071 0.06569479 0.14508766
-0.23429592 -0.099766634 0.022855101 0.17721815 -0.19158758 -0.13183208 -0.020750368 0.113112226
-0.22963321 0.10509333 -0.13148353 0.23961675 -0.04715544 -0.08305677 -0.016059985 0.0068638064
0.22525382 0.15073414 -0.22406393 0.16922201 0.17081097 -0.09185565 -0.19862203 -0.086545035
-0.050617196 0.040874384 0.015943768 0.24832584 -0.116929725 0.049268257 0.17218924 -0.21779896
0.11479764 0.0020444805 0.0037753037 0.2512433 -0.23114668 -0.15748793 0.079534896 0.20662646
-0.054924548 -0.02946955 -0.25437522 0.14965227 -0.17796908 -0.23191427 -0.09065628 -0.053108104
-0.15647021 0.03977157 0.09886739 0.017458063 -0.1546614 -0.08215972 0.018486567 -0.14414738
-0.13248837 0.19100271 -0.109921515 0.11421664 -0.00468412 0.14121419 -0.16032742 0.23635791
0.19011651 -0.11404145 0.011620469 -0.12889409 0.06653139 -0.21271276 0.006645001 0.10220202
0.2851446 -0.03290089 -0.19058445 -0.036349203 -0.110403135 -0.08799173 0.05131283 -0.25571418
0.19522427 0.02085789 -0.18126209 -0.1532258 0.08887727 0.029385248 -0.083295554 -0.10559655
0.09517085 -0.012977215 -0.06881564 0.16994879 0.13762878 -0.090383746 -0.2626971 0.22125019
-0.050663173 0.16070624 -0.054701664 0.06993789 0.21498968 -0.10477028 0.10853753 0.16599289
0.12984213 -0.23967639 0.26349476 0.12289734 -0.12886749 0.008033543 0.18127002 0.15296751
0.17458503 -0.24155438 -0.17359821 0.19048288 -0.1054403 -0.17338167 -0.17001049 -0.11391657
0.12613869 -0.03798538 0.009984877 -0.021549702 -0.19026817 -0.09140725 -0.09383144 0.019646326
-0.10407329 -0.24598092 0.034366142 -0.15521835 -0.019487035 0.10931165 0.05788949 -0.1927805
0.21945754 0.16486919 0.105939336 -0.0017045306 -0.022973746 0.0024940448 -0.04988338 -0.00042394944
0.043377988 0.2624175 0.10445277 0.13101214 0.025331518 -0.2755587 -0.25098413 -0.22569363
0.19136278 -0.08009586 -0.080573395 0.025130674 0.0065439753 0.19826773 -0.13327287 0.011363001
-0.1634499 -0.08196529 -0.18150653 0.12349629 0.089314975 0.034536816 0.016297748 -0.26905984
0.27528477 0.124141954 0.23573995 -0.25615647 -0.17854719 -0.12812188 -0.2592523 0.091873065
-0.087474 -0.17967431 0.13166368 0.009739929 0.2679443 0.21478562 0.26558086 -0.038181834

transformer_encoder.layers.0.self_attn.in_proj_bias f4 [60]
00000000: c084 1ebb ba56 c839 b7cc 15bb 29b5 1e3b
00000010: f872 02ba 663e 02bb dd3b e23c 7f3c 713c
00000020: f824 0f3b 786b 6dbc 76b2 083c 6691 10bc
00000030: 6b9f 6abc e917 43bb 27f7 9b3c 9817 463c
00000040: 0307 a33a 5170 31bb 944d 8a3b 8862 38bb
00000050: 8c9e 21b1 28db 2d31 538f 9430 76f8 1db1
00000060: 970c af30 591a a931 c393 7f30 1376 e330
00000070: c2da 4631 8c35 6431 1192 3130 6733 6eb0
00000080: 9ca0 1b2d a49c 87b0 d02d 08b1 b8c8 7f31
00000090: a48d 0db1 7ba8 2e31 90b6 9830 b0a7 a130
000000a0: 04cf 55bd 9268 d53d b9c6 53bd a052 76bc
000000b0: 9ba1 733d 2cad a93d 47b8 06bd 8ef4 303d
000000c0: 777c b03d 8f40 bb3c 562f fbbc f3c1 133d
000000d0: e9b5 3cbd 1be8 613d 51eb 1dbd 0c6a be3d
000000e0: 543b 2e3d 4c09 503d 8c6f d1bc f4bc 90bd
-0.0024188012 0.0003821159 -0.0022857615 0.0024216867 -0.0004976238 -0.0019873618 0.027616436 0.014723896
0.0021842103 -0.014490955 0.00834333 -0.008823728 -0.014320235 -0.002976889 0.01903875 0.012090586
0.0012438003 -0.0027075002 0.004220674 -0.00281349 -2.3518707e-09 2.529939e-09 1.0809152e-09 -2.298774e-09
1.2736504e-09 4.9215427e-09 9.297844e-10 1.6549982e-09 2.8937142e-09 3.3208805e-09 6.45998e-10 -8.665694e-10
8.846392e-12 -9.867063e-10 -1.9816646e-09 3.722148e-09 -2.0598714e-09 2.5416103e-09 1.1111343e-09 1.1761951e-09
-0.05219938 0.10420336 -0.05170319 -0.015034348 0.05948029 0.08284983 -0.032890584 0.043201976
0.0861749 0.022857932 -0.03066222 0.036073636 -0.04607192 0.055152994 -0.038554493 0.092975706
0.04253705 0.050790116 -0.025565885 -0.0706729

transformer_encoder.layers.0.self_attn.out_proj.weight f4 [20, 20]
00000000: d318 133e ab8d 8a3c 500e 02bd dd62 453d
00000010: 8dee 233e a6b7 d1bd 5a9c 9f3d 5744 613d
00000020: 3ae3 bfbd fca6 f83c 3604 7bbe 1b7d 0d3e
00000030: c39b f6bc d481 77bd 6d3e 1c3d a9a4 5dbe
00000040: d77d 253c d36e 833d 0dde 6e3e 5982 1ebd
00000050: e637 113e c290 d7bd 6d7c 283d 2d9f c3bc
00000060: 189b f43d 5e0b 15bd 650e 48be d1a4 0ebe
00000070: f926 10be 0547 69bd ec4d 34bd 5f30 7a3d
00000080: be7c d93d 4864 1abe 4a87 14be cff0 d93c
00000090: 1ddc 1dbd 48e7 0d3d 6648 663d 4797 a9bd
000000a0: 9ecc aabd 65a0 98bd b0dd dbbd 8777 83be
000000b0: 3c70 683e 6dfc 59be 29cc c5bd e12d fd3d
000000c0: f6fb a9bd b3de 3fbd 24c8 febd 5e09 59be
000000d0: f9c7 703c 9cd6 1a3e b77d 98bd 0da8 14be
000000e0: 00e2 143e 26f0 6cbd bc80 f93d a2f5 7abd
000000f0: 27eb 553d ac03 82bd b00e 303c c880 ba3b
00000100: 7b58 503e 858f 5ebe bc9b 143e fc7f 193c
00000110: 24f8 0a3e c68a a73d 82bb a03b 7e94 9fbd
00000120: a4e9 df3d 0557 ee3d 3a17 823e 5f52 46be
00000130: 83d9 f1bd e2c9 453d dc02 073d f41b 823e
00000140: a524 93bd d613 f53d ccbd 61be 7963 21be
00000150: 28f4 49bd fcfb 86bd c776 f03d 9dd6 83bd
00000160: 5c67 403e 58a8 5b3d c4af 55bc 6f20 863d
00000170: 4e32 43be 622d 4e3e 6d19 14bd 58a1 8ebd
00000180: 12a8 c83d 871e 9a3d 75e4 c03d e965 21be
00000190: 16fb 7e3e 5437 053b affa 5abe 6499 9f3d
000001a0: 968d 42bd 6da5 e0bc a428 7dbe d21a 50be
000001b0: 1ec0 c8bc e094 843e f7f3 4fbe 76b3 3bbd
000001c0: 947d 893c 567e 14bd daad 113e b89a 7b3d
000001d0: 9570 063d 2dd6 56bd 369b 463e 4f55 18be
000001e0: 0802 4a3d 2174 fdbc 03fc 08be c4eb a83d
000001f0: 0714 433e 6eaf 2ebe d7b5 b73d 129e fbbb
00000200: 4e71 e83d c4ed 1c3e 6f56 3e3d d3e3 083e
00000210: b5bc 713e bc07 11be b260 32be 7ed9 553e
00000220: d4fb fbbc 008c 823d c85e 4fbe 1d55 33be
00000230: 4b0d 8a3d 7590 22be bb22 053e 9b8b 3cbd
00000240: 6e17 0a3e 791f 93bd 239c 9ebd 5ebd 193e
00000250: 76c4 373e 835e d8bd d873 2fbe 90ea 41be
00000260: e05a 033e 97f0 4abd 4dad c6bd 33c7 88bd
00000270: c46d d13d b375 013e 6998 25bc 425e abbd
00000280: cbd1 933d 549d 323e 2b52 633e 72c4 b9bc
00000290: 69f9 2dbd b677 423d 33a8 0dbd bdf4 5c3e
000002a0: 254e 823c 3dea 0bbd d0cf 1abe 350a fdbd
000002b0: 958e b6bd f30d 073e 26bb 063d d61a 513e
000002c0: 715a 97bd 2cc2 e03d f71f 6e3d aa8e 79be
000002d0: 7d6f 1b3e 77dd 0fbe 1778 593e 728d ecbd
000002e0: 6e56 613e af37 043d ed69 013e 7c8b 383d
000002f0: a415 e63d b5a3 17be 45a6 893b 6abe ea3d
00000300: 7c0e 21be 61e6 9ebd 848b f6bc 0f64 f03d
00000310: 9569 31be 39a0 f53d bcd8 24be 4d14 31be
00000320: 8c75 543e 5138 4fbe a3ae e33d 768b fabb
00000330: ec90 c03d f320 36bc 4849 5b3e ad43 713d
00000340: 15b5 ccbd bb63 85bc f7a3 a23c 7924 2dbe
00000350: 8e70 44bd 01f3 6f3d fb52 08bb 5b67 223e
00000360: f46b 293d a7e0 1a3e 3706 a23c 3b02 9a3d
00000370: 7679 203e d08b dc3c b011 6cbd 3d83 0cbe
00000380: be14 db3d b356 1dbe d020 82bd ea6e ca3d
00000390: f1d2 7e3e c652 4bbc c7cf f1bc db8e b8bd
000003a0: 89b6 99bd 5ec0 fe3c 5257 983b 0469 a93d
000003b0: 87c5 5abe 4c33 45be f77b 0a3e 31e4 e03d
000003c0: f4a5 2bbe 5607 f3bd b3da 9f3e 027e 13be
000003d0: a1b8 ebbd 4e06 a73d 928d ce3d dac4 bc3d
000003e0: b63a a8be fe6c 2d3e 856a 243e 570c 6fbc
000003f0: 0037 0cbd d7f7 523e 40d3 f43c 1c52 7e3e
0.14364938 0.016913256 -0.03175193 0.048189986 0.16008969 -0.10240106 0.077934936 0.054996815
-0.09369512 0.030353062 -0.24513325 0.13817255 -0.03010357 -0.060426548 0.03814547 -0.21644844
0.010100803 0.064176224 0.23326893 -0.038698528 0.1418148 -0.10525657 0.041134287 -0.023879612
0.11943644 -0.036387794 -0.19536741 -0.1393006 -0.14077367 -0.056952495 -0.044019625 0.061081287
0.10619496 -0.15077317 -0.14504734 0.026604084 -0.038539995 0.034644395 0.05622139 -0.08280807
-0.08339809 -0.07452468 -0.10735643 -0.2567713 0.22699064 -0.21287699 -0.09658081 0.12362266
-0.08300011 -0.046843242 -0.124405175 -0.2119498 0.014696115 0.1512093 -0.07445853 -0.14517231
0.14539337 -0.05784621 0.12182757 -0.06126941 0.052226212 -0.063483566 0.010745689 0.0056916215
0.20346253 -0.21734436 0.14512533 0.009368893 0.1357122 0.08180766 0.004905165 -0.077919945
0.10933235 0.116376914 0.25408345 -0.1936736 -0.11809065 0.048288234 0.03296171 0.25411952
-0.07184724 0.11966674 -0.22045058 -0.15760602 -0.04930511 -0.06591031 0.11741405 -0.064374186
0.18789428 0.053627342 -0.013042394 0.06549155 -0.19062158 0.201345 -0.03615706 -0.06964368
0.09797682 0.07525354 0.09418575 -0.15761532 0.24900469 0.0020327168 -0.2138469 0.07792929
-0.047498308 -0.027422631 -0.24722534 -0.20322731 -0.024505671 0.25894833 -0.20307909 -0.045825444
0.016783513 -0.036253296 0.14226475 0.06142685 0.03282221 -0.052450348 0.19395146 -0.14876293
0.049318343 -0.030939164 -0.13377385 0.08248094 0.19050609 -0.17059109 0.0897023 -0.0076787556
0.11349736 0.15325075 0.04646915 0.13368158 0.23607142 -0.14163107 -0.17419699 0.20883748
-0.03075973 0.06374359 -0.20251 -0.17512937 0.06740817 -0.15875418 0.1300153 -0.046031576
0.134855 -0.07183737 -0.077446245 0.15013644 0.17946038 -0.10564902 -0.17134035 -0.18937135
0.12827635 -0.04954585 -0.09701023 -0.06678619 0.10226014 0.12642555 -0.010107138 -0.083675876
0.07217749 0.17442828 0.22199313 -0.02267668 -0.042474184 0.047477446 -0.034584235 0.21577735
0.015906403 -0.034158934 -0.15118337 -0.123554625 -0.08913914 0.13188915 0.032893322 0.20420393
-0.07390297 0.10974535 0.058135953 -0.24370828 0.15179248 -0.14049326 0.21237217 -0.11550416
0.22005627 0.032279667 0.12638064 0.045054898 0.11234596 -0.14808543 0.004200729 0.114621
-0.15728182 -0.07758785 -0.030095823 0.11737835 -0.17325433 0.11993451 -0.16098303 -0.172929
0.20747966 -0.20236327 0.11117294 -0.0076460196 0.09402642 -0.011116254 0.21414673 0.05890243
-0.09995476 -0.016282907 0.019853575 -0.16908444 -0.047958903 0.058581356 -0.0020801413 0.1585974
0.041362718 0.1512476 0.019778354 0.07519957 0.15671334 0.026922137 -0.057634056 -0.13721938
0.10697316 -0.15365104 -0.06353915 0.098844364 0.24885155 -0.012409871 -0.029518021 -0.090116225
-0.07505519 0.031097587 0.0046490813 0.08271983 -0.21364413 -0.1925785 0.13523851 0.10981024
-0.16762525 -0.118666336 0.31221542 -0.14403537 -0.115098245 0.081554994 0.10085596 0.09217234
-0.32857293 0.16936108 0.16056259 -0.014590344 -0.03423214 0.20602356 0.029885888 0.2483601

transformer_encoder.layers.0.self_attn.out_proj.bias f4 [20]
00000000: 358e d5bc 2561 b73d 04a1 0bbc 4c87 4fbc
00000010: a55c 923c 29f7 3e3d 1e47 743d 728a 7fbc
00000020: b099 9b3d 5176 01bd e4f1 34bd 2995 a0bd
00000030: 0c05 9abc e8f6 05be 4725 fa3c b48d 123d
00000040: 9e85 00b8 80c6 003c 200d 993c 3d6c 81bc
-0.026068786 0.08954076 -0.008522276 -0.012666535 0.017866442 0.04662243 0.059638135 -0.015596973
0.07597673 -0.031606976 -0.044175997 -0.0784095 -0.018801235 -0.13082469 0.030535353 0.03577967
-3.064202e-05 0.007859826 0.018683016 -0.015798682

transformer_encoder.layers.0.linear1.weight f4 [20, 20]
00000000: ec72 09bd f6e2 263e cfe5 263e 71c7 5e3e
00000010: 82af 20be 5562 82bd f56b 38be 9d0b 1f3e
00000020: 7909 8f3c 57c4 febc 0770 f7bd c484 733d
00000030: e445 c13c ae6a 4c3c 59bc 0c3d 69bd cf3d
00000040: c6d8 463e 93fc 19be cb21 92bd a370 b6bd
00000050: 6ae0 71be 7a26 8e3d d9be 56be 97f5 b83b
00000060: a81d fb3d 1f27 c3bc 77d1 863c e123 16be
00000070: c443 1b3e fa77 f4b8 6c3d 43bd 3443 d63d
00000080: 08b0 5dbd 71b9 11be fe3d 1b3e e10b 473e
00000090: f898 1a3e 5420 2abd c84b fbbd 58ed a73d
000000a0: 5f05 203e 70a2 1c3e 888e 4d3e 546b 373e
000000b0: e30e 463d 14d4 413e e84c 083e cfd9 ee39
000000c0: 6935 f3bd 9cec 143d 8d41 84be 3b0a 7c3c
000000d0: 5b0f 813c 03b7 203e b9f1 29be 5b46 54bd
000000e0: 9167 8bbd 8aec 253e b26d 3c3d c373 d4bc
000000f0: 5796 6bbd bf1d 30be 6681 063d b288 5e3e
00000100: ff3c 40bd f4ac 573d 2d6d 42bd 4efd e33d
00000110: 2469 2fbe fe99 24bd aff0 d23d f803 4bbe
00000120: 7c74 3e3e b5e1 f53c 6bfc 43bd e5c6 d23d
00000130: 13fb b5bd 01a4 1cbe 56dc 963c a22b 333e
00000140: a7f7 9abb b0bf 0fbe 4896 8f3d 5376 5bbe
00000150: b4b8 213e 7549 393e 0cbf 313c abe9 1cbe
00000160: 5d9b 00be 3332 11be 411c 243d e836 0dbd
00000170: c231 17be 1bdf 193e 5b10 9a3d 2642 67be
00000180: f325 5bbe 4ba1 e839 c569 963d 5211 9ebd
00000190: 59ac 68bd 28f1 82be bbf5 39bd 12f1 0abc
000001a0: d90e 82bd 3fa7 5cbe 5a31 343d e01d 2cbe
000001b0: b2be 963c 1173 47bd 4862 aebd 6c90 e6bd
000001c0: 52a5 b13b bb45 4ebd 3a3d 323e 5ac2 a03e
000001d0: fac9 60bd a0af 353e 4a38 173e c392 1d3e
000001e0: 08fe 8d3d c0ff c53d 8548 f2bd 6fdc 01be
000001f0: d710 273e 308b 603e 7169 85bd 20e7 52be
00000200: 8dc0 f7bd ebfd 013e 19e2 16be a853 67be
00000210: d51c 62be e8ec 00be 809d 783d 039d 45bd
00000220: 3d48 53bd e072 133d 0ee2 573d 3838 6ebe
00000230: 29d2 453e 802a d93d 18a3 6ebd b9cb e4bb
00000240: 371a fdbd 98b1 5b3e 4f82 63be a2ef 833d
00000250: 9127 e4bc caa6 62be 0261 2dbe c56c 2bbe
00000260: 0d06 f93d 6bb4 6abe 904f 0c3e aa8f 31be
00000270: 2743 273d eb1b 72be a91e 2abe 96d0 c0bd
00000280: 5f09 37bd a82d 2d3e 41a5 973e a826 96bd
00000290: 399b 803d bf79 bbbd 2626 8a3d 52d9 773e
000002a0: 9b13 08be fe7f 3dbe ced4 1d3e 45be 903e
000002b0: de65 01be c8e7 dc3d 42a8 84bd a3f2 50be
000002c0: a4bb ed3d 0d7c c3bd 8a43 d23d 95dd 183e
000002d0: 3c07 223c 6728 2fbe ec8d d4bc f3fc 623e
000002e0: e386 763e 13db ab3d fb51 c1bd 67d4 fe3d
000002f0: 960e 793d 8423 b3bd 6b3c fb3d a5b4 0b3e
00000300: cbd4 023e 1ef3 32be 541f dbbd 0ef8 4cbc
00000310: 456f 1ebe baa9 273e e485 94bd b607 d2bc
00000320: e97d 1a3c 42e7 1a3e 0889 8ebd 38e7 413e
00000330: 0984 5d3e 2f22 8bbd acf0 a2bc cd65 6cbc
00000340: c05d 553e ade0 4cbe 59d5 2abe e432 1abe
00000350: 302b b53d e358 fb3d 1825 a0bc d3a6 113e
00000360: 27f2 04be 341c 6abe f4a7 c73d 092f 2fbe
00000370: 9b63 063d bfc8 72bd 2fd4 7bbd 25de 02be
00000380: 7e32 adbd 6565 17be 82fa 143e b706 44be
00000390: 2a01 a3bd 3af2 f23d f402 69bd 4420 7ebd
000003a0: 1412 3abe 99c2 0ebd dc89 1e3e 78ab 1b3e
000003b0: 9e4b 2cbe ba5a 17be 61cd f83d 4b5d bc3d
000003c0: 1ea4 cebc 2c7b 2a3e cb2b b8bd b5df 8e3d
000003d0: 29d2 0c3e 9ff5 193d a832 4f3e 0ee2 303e
000003e0: d894 4c3e 816a e03d 4ad3 493c 5019 80be
000003f0: 1607 febd 170a 123e 2b90 bbbd 2792 e3bd
-0.033556864 0.16297516 0.16298603 0.21755768 -0.15691951 -0.063664116 -0.18009932 0.15531774
0.017460572 -0.031099482 -0.120819144 0.059452787 0.023592897 0.012476606 0.03435931 0.10143549
0.1941863 -0.15037756 -0.07135352 -0.089082025 -0.23620763 0.069409326 -0.2097124 0.005644511
0.12261516 -0.023822365 0.016457302 -0.14662124 0.1516257 -0.00011657174 -0.047666 0.10462037
-0.054122955 -0.14230897 0.15160367 0.19438125 0.15097415 -0.041534737 -0.122703135 0.081995666
0.15627049 0.1529634 0.20073903 0.17912036 0.04835404 0.18928558 0.13310587 0.00045557178
-0.118754216 0.03635846 -0.2583126 0.0153832985 0.015754392 0.15694813 -0.16596116 -0.05182491
-0.06806863 0.16203514 0.04600305 -0.025934106 -0.057516422 -0.17198847 0.032838248 0.21731833
-0.04693317 0.052655175 -0.0474674 0.111322984 -0.17129952 -0.04018592 0.10299813 -0.19825733
0.18599123 0.030014852 -0.047848146 0.10291842 -0.08885779 -0.15296938 0.018415611 0.17497113
-0.0047292295 -0.14037967 0.07011086 -0.21431856 0.15793115 0.18094428 0.010848772 -0.15323512
-0.12559266 -0.14179306 0.040066008 -0.03447619 -0.14765075 0.15026514 0.07522651 -0.22583827
-0.21401195 0.0004437066 0.07344393 -0.07718147 -0.05680499 -0.25574613 -0.045400362 -0.008480327
-0.06350488 -0.21548174 0.043992378 -0.16808271 0.018401477 -0.04869372 -0.085148394 -0.11258015
0.005421319 -0.05035947 0.17406169 0.31398278 -0.05488012 0.17742777 0.14767566 0.15388016
0.06933218 0.09667921 -0.11830238 -0.12681745 0.16315018 0.21928096 -0.06514252 -0.2059598
-0.12097273 0.12694518 -0.14734687 -0.22590506 -0.22081311 -0.12590373 0.06069708 -0.04824544
-0.051582564 0.035998225 0.052705817 -0.23263633 0.19318451 0.10603809 -0.058261007 -0.0069822934
-0.12358516 0.21454465 -0.22217678 0.06442191 -0.027850898 -0.22133937 -0.16931537 -0.16740711
0.12159357 -0.22920386 0.13702226 -0.1733996 0.040835526 -0.23643462 -0.16613258 -0.094147846
-0.04468667 0.16911948 0.29618266 -0.07331592 0.06279606 -0.091540806 0.067455575 0.24203995
-0.13288729 -0.18505856 0.1541321 0.28270164 -0.12636515 0.10786396 -0.06477405 -0.20405059
0.11608055 -0.09545145 0.10266788 0.14928277 0.00988942 -0.17105256 -0.02594658 0.22166805
0.24074893 0.083913945 -0.09439465 0.12442856 0.060804926 -0.087470084 0.12267383 0.13643129
0.12776487 -0.17475554 -0.10699335 -0.012510313 -0.15472133 0.1637334 -0.072521 -0.025638442
0.009429433 0.1512728 -0.069597304 0.18935859 0.21632399 -0.067936294 -0.019890152 -0.014428568
0.20836544 -0.20007582 -0.16682948 -0.15058476 0.08846128 0.12272813 -0.019548938 0.14223795
-0.12982999 -0.22862321 0.097488314 -0.17107786 0.032809835 -0.059273478 -0.06148165 -0.12780054
-0.08456896 -0.14784773 0.14548686 -0.19143187 -0.079592064 0.11862607 -0.056887582 -0.06204249
-0.18170959 -0.03485355 0.15482277 0.15202129 -0.1682572 -0.14780703 0.12148548 0.09197482
-0.025224742 0.16648549 -0.08992728 0.069762625 0.13752045 0.03758776 0.20234168 0.17273733
0.19978654 0.10957814 0.012318442 -0.25019312 -0.12403695 0.14261661 -0.09158357 -0.11111861

transformer_encoder.layers.0.linear1.bias f4 [20]
00000000: 9f49 22bd 3782 033e a160 60be 32d7 80bd
00000010: ad12 383e 28d1 b03d 7881 65be 6148 68be
00000020: 3ac1 863d f867 833d acff fd3d 8873 313b
00000030: b380 c03d 16bc 96bc 8215 51bd 6e33 27bd
00000040: 7a83 13be 7bc2 e2bd 1d61 c5bd 8f35 49be
-0.03962099 0.12842642 -0.21911861 -0.06291045 0.17975874 0.086336434 -0.2241267 -0.2268386
0.06579824 0.06416315 0.12402281 0.0027076919 0.093995474 -0.018400233 -0.051045902 -0.04082053
-0.14405623 -0.110722505 -0.096376635 -0.19649337

transformer_encoder.layers.0.linear2.weight f4 [20, 20]
00000000: 6209 493d 11d6 f2bd 6f74 a6bd b183 4f3e
00000010: af88 49be 8c7d 913e 9793 133d f1ac 2f3e
00000020: 5d64 3cbe c8f9 523e 7aa3 1e3d 6021 643e
00000030: 2fd2 35be 085e 0d3d 998b 343e b81f 8c3d
00000040: 28d4 373e cf2a 9abd 6c7b 9fbd 082d a03c
00000050: ec6d 183e b114 683d d076 59bd af3c 4b3d
00000060: b595 b9bc a06a 8f3e 253c f13d 2772 1fbe
00000070: e780 1e3e 0b36 823c 449d bcbd 5b1d 8abb
00000080: 2b1d 123e b7d9 19bd 7662 f23d a135 94bd
00000090: 058c 68ba 23d5 423b 95b0 dc3c 6797 e33b
000000a0: aae7 a23d c0c6 48bd 685f c73d 9a6e cdbd
000000b0: 775a 46be b81e 2e3e 1d54 2fbe b575 573e
000000c0: 8e1f 353e 7e17 b83d f8ea 86bd 0ce3 67bd
000000d0: 854e 91bc 95c2 42bd 9531 873d 62a5 27bc
000000e0: ac29 27be 4451 233c f9b8 ea3d 0ebc a93d
000000f0: c39b 173e 4676 c0bc 6ac7 edbc f754 aebd
00000100: a96f 703d 8db8 533d bcf5 1f3e df1a 0d3e
00000110: 8b1c 8cbc 5533 14be 5b05 b0bb a20b 78bc
00000120: 7413 b93a 3035 aebb 0d89 f63d 0dee 323e
00000130: 7fcb 02be bef1 6fbc 931c 5f3c e9b0 bcbd
00000140: 1e2a 8ebd 213b 973c 378a 0fbe ff35 873d
00000150: aba7 6a3d df05 3b3e 25c9 f53c 715c a43d
00000160: 1975 443e f322 1e3e 99c9 62bd 2365 cdbd
00000170: 4dc8 e83d 7cbe 433e 7ac4 c0bd 4562 2e3e
00000180: dbd5 153e 5c5b 32be e7ec 2e3d ae9b f83a
00000190: d169 393e 43c8 bc3d 92c7 cebd 8ac0 56bd
000001a0: fdcc e53c 6d4b 6f3e f4e8 57be 1764 b6bd
000001b0: 512d a5bd 7b35 acbc aebe 833d 84ce 633d
000001c0: 435d 173e 507f a9bd 5f5f 0ebe da8f 19be
000001d0: b35e 1b3e afa6 813d ecf6 5fbb 4985 353e
000001e0: 7cc6 b0bd aaa2 c43d 7243 b9bd 3ae8 3b3e
000001f0: a2fe 013e b628 033e cc0f a13c 3193 903c
00000200: b5e2 5dbe efcf 2d3e 56be 303d da25 ebbd
00000210: d4e2 c73d f043 34be ee36 5b3d ea86 1d3e
00000220: 3bd9 c53d 856f 733c 4ff6 96bd f482 1dbb
00000230: 2841 133e 805d 1c3e 861b d33d 04eb 29be
00000240: 1c60 283e 3364 4abe 1486 3c3e 18e8 14bc
00000250: 8b3e 4c3e 9692 b43c c7cc 263e 65ec d03c
00000260: fcc5 f53c a8cb cb3d d77b 083e 074c 34be
00000270: c8d3 c4bd a5a3 9f3d 4fa9 d93d 9288 ba3d
00000280: a493 a73d 6fbe 093e 064e 0dbe 5e9e 463e
00000290: 870d 85bd 7dba df3d 3b7e 61be 3562 bc3d
000002a0: e9d2 38bd 7a0d 173e d262 edbd 14b1 30be
000002b0: bb3b 263e 92b5 babd 9788 533d 3fe5 b4bb
000002c0: b6fc 793e d61f 4f3e c31d 3e3e ebf4 4d3d
000002d0: 7f51 123e 15c9 153e f9b9 ca3d 6419 953c
000002e0: db68 c9bd a605 5cbe e4d6 e33c 7211 98bd
000002f0: 6860 2dbd 00df 27bd 0230 b3bd 9884 82bc
00000300: 8580 1d3e d712 80bd 0679 9bbd 5f9f cebd
00000310: 2ab7 403d 64ca 10be 2a1f 843d c46a 59be
00000320: 6b9a 3ebe a511 81be 533f e33d 83b3 1d3e
00000330: 2f0e 4e3e b99a 0dbe 26ca 4a3e 569b 593e
00000340: 9f95 36be 8dbb a93d dcfb 463e d571 8cbd
00000350: 069d 753a ca51 a8bd 5e8a 2fbe a8b2 7f3c
00000360: fac9 76be 451a 0e3e 4651 7cbd c1cd 8fbe
00000370: b9f8 4a3e ef56 cf3d 1a2d 16bd efc7 48be
00000380: bc48 243d 96e1 573d e00c 2c3e 2c26 e3bd
00000390: 196b 233e 6c38 d53d e64a 983d 101b 8fbe
000003a0: e414 82be 3925 093d 1bdd f13b f449 0a3e
000003b0: a64a 173e 8878 20be e28c 893d 73fa 6dbd
000003c0: be19 7ebd fd42 5cbe 4b15 ef3d f850 22be
000003d0: 7f31 083d 684b 07be 7c49 c1bd 841f 58bd
000003e0: 2b4b 38be 7015 5ebe cf31 2ebe d713 5abe
000003f0: 50d9 2b3e 6a83 003e a115 da3c b4f7 203e
0.049081214 -0.11857236 -0.08127677 0.2026508 -0.19681047 0.28416097 0.036029425 0.17155816
-0.1839766 0.20603096 0.038730122 0.22278357 -0.1775596 0.034513503 0.17631377 0.06841987
0.17952025 -0.07527696 -0.07787213 0.019552723 0.14885682 0.056660358 -0.053091824 0.04961842
-0.022654394 0.28011036 0.1177905 -0.1557089 0.1547886 0.01589491 -0.092096835 -0.004214925
0.14268939 -0.037561145 0.11835186 -0.072367914 -0.0008870962 0.002972909 0.02693967 0.006945539
0.07954343 -0.049017668 0.09734994 -0.10030861 -0.19370447 0.17003906 -0.1712193 0.21040995
0.17687818 0.08988856 -0.065877855 -0.056613013 -0.017737636 -0.04754885 0.06601254 -0.010232301
-0.1632449 0.009968106 0.11461062 0.08287822 0.14805512 -0.023493897 -0.029025752 -0.085122995
0.058700237 0.051689673 0.15621084 0.13779782 -0.017103454 -0.14472707 -0.005371732 -0.015139492
0.0014120177 -0.005316399 0.12037859 0.17473622 -0.1277294 -0.014645038 0.0136176525 -0.092134304
-0.06941627 0.018460812 -0.14017569 0.06602096 0.057288807 0.18263958 0.03000314 0.08025444
0.19185294 0.1544302 -0.05536804 -0.10029056 0.11366329 0.19115633 -0.09412475 0.17029674
0.1463236 -0.17417663 0.042706396 0.0018967295 0.18106772 0.092178844 -0.10096659 -0.052429713
0.028051848 0.23368616 -0.21084958 -0.089058094 -0.08065284 -0.021021595 0.06432854 0.05561687
0.1478167 -0.08276236 -0.13903569 -0.14996281 0.15172844 0.063306205 -0.0034174277 0.17726626
-0.08631608 0.09601338 -0.09046067 0.18350306 0.12694791 0.12808499 0.019660853 0.017648311
-0.21668513 0.16973852 0.04315027 -0.11481829 0.09760061 -0.17604041 0.053519182 0.15383497
0.09660574 0.014858131 -0.073711984 -0.0024034353 0.14380324 0.15270042 0.10307984 -0.16593558
0.16442913 -0.19764785 0.18410522 -0.009088539 0.19945733 0.022042554 0.16289054 0.025503347
0.030001633 0.09950954 0.13328491 -0.17607127 -0.096107066 0.077948846 0.10627996 0.0910808
0.08182457 0.13451551 -0.13799295 0.1939635 -0.06496721 0.10924242 -0.2202081 0.09198419
-0.045123015 0.14751235 -0.11591114 -0.1725505 0.16233723 -0.09116663 0.051643934 -0.0055204923
0.24412808 0.20226988 0.1856604 0.0502824 0.14288901 0.14627488 0.09898753 0.018200584
-0.09834453 -0.2148653 0.027812429 -0.074252024 -0.04232827 -0.040984154 -0.08749391 -0.015932366
0.15381058 -0.062535934 -0.07591443 -0.100889914 0.04704968 -0.14139706 0.064512566 -0.21232134
-0.18613593 -0.25208774 0.110960625 0.1540051 0.20122598 -0.13828553 0.19803676 0.21250662
-0.17830513 0.082877256 0.19432014 -0.06857649 0.00093694066 -0.08218725 -0.17142627 0.01560656
-0.24100485 0.13877209 -0.061600946 -0.28086665 0.19821443 0.10124003 -0.036664106 -0.19607519
0.040108427 0.05270537 0.16801786 -0.11091265 0.15958823 0.10411152 0.07436161 -0.27950335
-0.25406563 0.033482764 0.007381094 0.13504773 0.1477457 -0.15670979 0.067163244 -0.058100175
-0.06203627 -0.21509929 0.11673983 -0.158512 0.03325033 -0.13212359 -0.09437844 -0.05276443
-0.17997424 -0.21687865 -0.17011188 -0.21296631 0.16782117 0.1255013 0.026621642 0.15719491

transformer_encoder.layers.0.linear2.bias f4 [20]
00000000: 8c05 cf3d 3bf1 5d3d 6d16 243e d7a4 abbc
00000010: 3898 093e 402f aa3d 0977 b53d a139 54be
00000020: a567 613d f90b 9e3b 1338 083e 1577 87bd
00000030: a4ad 693c a0f1 473b 99ed 3bbd 5983 bcbc
00000040: e099 153e f602 cd3c dc0d 273e 0591 cfbd
0.1010848 0.054185133 0.1602418 -0.020952625 0.13436973 0.083097935 0.08860595 -0.20725109
0.055030484 0.0048232046 0.1330264 -0.0661451 0.014262591 0.003050901 -0.045880888 -0.02301185
0.1460948 0.025025826 0.1631388 -0.10135082

transformer_encoder.layers.0.norm1.weight f4 [20]
00000000: cc6c 893f 3c53 783f 9124 9c3f 8e6e 7e3f
00000010: 9761 8c3f 2881 823f 7a4c 8f3f 656e 773f
00000020: ea9f 913f e985 853f fe9c 793f c7de 873f
00000030: 48b9 723f 3407 713f 0362 773f 54bc 4c3f
00000040: cf3a 6e3f a612 8d3f 9aff 813f b746 733f
1.0736327 0.97002006 1.2198659 0.99387443 1.0967282 1.0195665 1.1195214 0.96652824
1.1376927 1.0431491 0.97505176 1.0614861 0.94813967 0.94151616 0.9663393 0.79974866
0.93058485 1.1021316 1.0156128 0.9502978

transformer_encoder.layers.0.norm1.bias f4 [20]
00000000: 12ce 15bd f097 e43d 0086 3c3c 5169 10bc
00000010: 1001 043c eac0 0f3d c283 4d3d 9b5b 1dbc
00000020: 29e9 8a3d 273f 4abc cb7c 12bd f0cb 9fbd
00000030: a161 f33b 480d e1bd 1227 d13c e59d 133d
00000040: 1bf8 313b 5c59 903c 976a 9d3c 0720 07bd
-0.036573477 0.11161792 0.011506557 -0.008814172 0.008056894 0.035096087 0.050174482 -0.00960436
0.06782753 -0.012344158 -0.035763543 -0.0780257 0.0074274098 -0.10988861 0.025531325 0.03603925
0.002715594 0.017620735 0.019215865 -0.032989528

transformer_encoder.layers.0.norm2.weight f4 [20]
00000000: b675 8b3f 5f75 5f3f 806f a23f 99f0 6e3f
00000010: 1d54 8c3f 57c7 6d3f 2d01 933f beb6 7d3f
00000020: 7576 973f 91c8 873f 9645 7a3f acb7 853f
00000030: 73fa 703f 3ebe 753f 3fc6 773f e92b 5d3f
00000040: 9182 6d3f 447b 893f 2aab 803f b7a8 753f
1.0895298 0.8728847 1.2690277 0.9333587 1.0963169 0.92882293 1.1484734 0.9910697
1.1833025 1.0608083 0.9776243 1.0446677 0.94132155 0.9599341 0.96786875 0.86395127
0.92777354 1.0740743 1.0052235 0.95960563

transformer_encoder.layers.0.norm2.bias f4 [20]
00000000: cc43 563b fbf0 ea3d 425a 9d3b 49fa 143d
00000010: 2875 9d3b 30d5 813d a89a 583d bc63 eeba
00000020: c839 953d 7c1e 6ebc b500 4dbd a8cf a1bd
00000030: 5698 34bc 42ec a0bd fa6b fb3c 270c 5f3d
00000040: 4c7b f2bc 1e6b 7a3c f60a f13c cc51 57bd
0.0032694219 0.114717446 0.0048020193 0.036371503 0.004805226 0.063394904 0.052881867 -0.0018187682
0.072864115 -0.014533635 -0.050049502 -0.079009354 -0.011022648 -0.078575626 0.030691136 0.05445495
-0.029599808 0.015284328 0.029424172 -0.052568242

transformer_encoder.layers.1.self_attn.in_proj_weight f4 [60, 20]
00000000: 7d2f 72be cbeb 5dbe 2f4e 543e 37f6 543d
00000010: 9fb8 2e3e 7a5b a23d 9ad1 2dbe 2542 fc3d
00000020: f630 f93c e19a 853d 3a23 58be a035 773e
00000030: a2cd 8cbe 7cfa 383e d260 873e 911b 8c3e
00000040: f503 b43d fa21 adbd ca34 c5bc fe41 5c3c
00000050: 6b45 733e f476 07bd e98d 6ebe 825f d43d
00000060: 73d4 923d bb74 d83d 6475 243e 81bb 88bd
00000070: 105b 5a3e f6c3 fcbc 3aa0 e4bb 441f a3bd
00000080: 28da d23d f620 b1bd a29c 663e 97be 183e
00000090: eaef 853e da58 fd3c 76e4 0f3d ea5c 0bbe
000000a0: 01eb 9f3d 1c9e 16be 2d64 82bd 8277 93bd
000000b0: c3f7 533e a2ff 32be 9d6b 563e 7009 8bbe
000000c0: 3b79 303c 34e1 90bd e571 91bd b006 9ebd
000000d0: 36e2 693d 9081 3bbe 7944 d53d c9c4 26be
000000e0: e947 6fbd 8178 84be d4e9 c3bd 781d 7aba
000000f0: be93 7d3d 7b63 da3c 9b11 efbd 365c 973d
00000100: 50ac 863e 6d55 173e 6b15 ecbd 760a 203e
00000110: 2586 643c d054 393c 2aed 4f3d 897f 083e
00000120: 9720 71be dc44 c3bd 1c99 a43c 0872 293e
00000130: 88a3 4bbe 0f49 ecbd 94c6 c8bc 77a0 d73d
00000140: a5e5 68be 63f5 e93d 192b 09be e6bb 723e
00000150: 95c5 2bbd bfdb 97bd 402a 66bc 5cb1 013c
00000160: 5975 683e d554 193e c79a 6abe 0f14 283e
00000170: 2365 2d3e 3a4d b9bd 9594 49be 432e b6bd
00000180: b432 60bd d172 3f3d 4393 853c 4831 7e3e
00000190: 74bb d0bd 46c8 543c 92d5 363e 664a 59be
000001a0: b85f e03d aa0d 4c3b 2649 183c 03f2 773e
000001b0: 438a 6ebe 828a 12be a78c c33d 8a9a 543e
000001c0: d18c 1bbd bbf3 b6bc 73f1 81be e3e1 1c3e
000001d0: c1e1 2cbe be4b 69be f9ff b3bd d60a 64bd
000001e0: 6aad 1fbe b802 993d b84f c43d ccde 053d
000001f0: 192c 35be e5e3 9bbd 3a19 e6bc 6cde 0cbe
00000200: 7405 22be 934c 2e3e ba95 f4bd 365c 963d
00000210: 35c0 18bd 6446 063e be9c 21be c83f 383e
00000220: c363 443e f346 d6bd 1ec3 96bb 0633 16be
00000230: d85e 823d 6105 44be 3acc 3b3c cd73 e43d
00000240: b0e9 8a3e 8fa7 1dbd b783 61be d8d8 16bd
00000250: fea6 e4bd 8c24 e1bd 167a 3d3d 6d38 8bbe
00000260: 5b3d 303e 33ff 8b3b 11a5 33be 2324 38be
00000270: 82e8 b63d c287 bd3c 9e90 b9bd 947c ddbd
00000280: 9658 c73d 2ca4 1cbd ab71 7fbd 6f94 303e
00000290: 1f86 0a3e 955e babd 11ee 86be 2c76 613e
000002a0: f1a8 66bd 0192 323e 6e04 3abd ebd4 873d
000002b0: a2df 6c3e 06b7 d6bd 2f46 de3d 6d5b 2b3e
000002c0: d1eb 0d3e 4718 71be 2db1 853e f190 ec3d
000002d0: 3a7e 00be 85d9 05bd 77f2 343e ed80 173e
000002e0: 3622 473e 99c0 78be d6f8 0dbe ff67 3b3e
000002f0: 4918 bfbd 9e46 21be 7fe7 1fbe de7c b6bd
00000300: 6384 1d3e 1b52 04bd cf64 3e3c b2a3 833c
00000310: 4add 44be 16e2 cdbd 8037 a4bd 2385 f63c
00000320: be05 d9bd 7457 78be 3d4d 2d3d 2274 22be
00000330: 1947 8ebc d685 ce3d 9e79 6d3d 9621 46be
00000340: d60e 633e e208 253e 95ef c53d a873 1dbc
00000350: 86ce bfbc 7507 0fbc e323 5ebd 408b 53bb
00000360: 7c39 253d febc 843e c33a d53d 0bb0 003e
00000370: 2060 c03c 2a64 8abe 49c5 7dbe 0e9e 6abe
00000380: 4f7b 483e 9ac4 9abd c51f 98bd 53ad bc3c
00000390: 2773 403c 6c85 493e 89a6 09be d426 a33c
000003a0: 13d6 25be c59d a0bd 83c6 39be a038 073e
000003b0: 1aa0 b33d 3974 0d3d f0fd ac3c 792e 88be
000003c0: 37a6 8c3e cce3 fc3d 6fc6 6f3e df94 82be
000003d0: a9be 33be 87d4 ffbd f506 84be 932e c43d
000003e0: e8a5 aebd 1efb 2ebe 791f 0f3e 73e5 b63c
000003f0: 9ee3 8b3e fa4e 6c3e ecce 883e f765 e6bc
-0.23650928 -0.21671979 0.2073295 0.05199262 0.17062615 0.07927604 -0.16974488 0.123173036
0.030418854 0.065236814 -0.21107188 0.2414155 -0.27500635 0.18064302 0.26441056 0.27364781
0.08789817 -0.08453746 -0.024073023 0.013443468 0.2375695 -0.033072427 -0.23296322 0.10369779
0.07169428 0.105691396 0.16060406 -0.066763885 0.213238 -0.03085516 -0.0069771083 -0.07964948
0.10295516 -0.08648865 0.22520688 0.14916454 0.26159602 0.030926157 0.035129987 -0.13609663
0.07808495 -0.14708751 -0.06366763 -0.07200529 0.20699982 -0.17480329 0.20939489 -0.27155638
0.010771091 -0.07074204 -0.07101802 -0.07716119 0.057100497 -0.18311143 0.10413451 -0.16286005
-0.05841819 -0.25873187 -0.095660836 -0.00095411344 0.061908476 0.026658764 -0.1167328 0.07390635
0.2630334 0.14778681 -0.11527523 0.1562899 0.013947998 0.011311725 0.050763287 0.13329901
-0.23547588 -0.09534618 0.02009254 0.16547406 -0.19886601 -0.11537372 -0.024508752 0.10528653
-0.22743852 0.11423757 -0.13395347 0.2370449 -0.041936476 -0.0741496 -0.014048159 0.007915821
0.22701015 0.14973767 -0.22910605 0.16413902 0.16933112 -0.09047933 -0.19685586 -0.088955425
-0.054735854 0.046740357 0.016305571 0.24823487 -0.10192004 0.012987202 0.17854908 -0.21219787
0.10955757 0.0031136074 0.009294784 0.24213414 -0.2329493 -0.14310649 0.09548312 0.20762077
-0.03797609 -0.022333017 -0.25379524 0.15320544 -0.16882993 -0.227828 -0.08789057 -0.055674396
-0.15593496 0.07471222 0.09585518 0.03268318 -0.17692603 -0.07611827 -0.0280882 -0.13756722
-0.15822393 0.17021398 -0.119426206 0.073418066 -0.037292678 0.1311279 -0.15782449 0.1799308
0.19178681 -0.10462751 -0.0046008965 -0.14667901 0.06365746 -0.19142677 0.011462266 0.111549
0.27131414 -0.038489874 -0.22022901 -0.036827892 -0.11164664 -0.10993299 0.04625901 -0.27191487
0.17210905 0.0042723655 -0.17543437 -0.17982535 0.08931066 0.023136023 -0.09060787 -0.10814777
0.09733693 -0.038242504 -0.06236426 0.17244123 0.13527726 -0.09100071 -0.26353505 0.22017735
-0.05631346 0.17438509 -0.04541438 0.06632408 0.23132184 -0.10484128 0.1085323 0.16734095
0.13859488 -0.23544417 0.26111737 0.11551083 -0.12548152 -0.032678146 0.17670618 0.14795275
0.19446644 -0.2429222 -0.13864455 0.1830139 -0.09330804 -0.15749595 -0.15615653 -0.08910535
0.15382533 -0.032304864 0.011620714 0.016069267 -0.1922504 -0.10052888 -0.08018398 0.030092781
-0.10596798 -0.2425211 0.04230999 -0.15864614 -0.017367886 0.10084121 0.05797731 -0.1934875
0.22173628 0.1611667 0.09664837 -0.009610094 -0.023413908 -0.008729805 -0.054233443 -0.0032279044
0.040338024 0.2592544 0.104115985 0.12567155 0.023483336 -0.27029544 -0.2478229 -0.22911856
0.19578288 -0.0755703 -0.074279346 0.023031866 0.011746204 0.19679803 -0.13442434 0.019915976
-0.16194944 -0.07842592 -0.18142132 0.13205194 0.08770771 0.034534667 0.02111718 -0.26597956
0.27470562 0.12348136 0.2341554 -0.25504205 -0.175532 -0.12491708 -0.25786558 0.09579196
-0.08527738 -0.17087981 0.1397685 0.022326207 0.27322096 0.23077002 0.2672037 -0.028124793

transformer_encoder.layers.1.self_attn.in_proj_bias f4 [60]
00000000: aaf9 f53c 6b5f 40bb 3b68 fe3c 08e4 1bbc
00000010: 47d7 cebb 0f23 8a3c f010 263c f20b c0bb
00000020: 5c10 313c 8ec5 c539 4285 76bb 2283 debb
00000030: fd01 f7ba 08b5 d43b fc74 0f3b b5fc ad3b
00000040: bcf7 3cba d90d 42bc 5e21 24bb 9140 f43b
00000050: e927 93b0 58af a630 e640 1e31 eea0 6030
00000060: 3c98 d82d 4523 8431 92c7 3631 4d1e af31
00000070: 8d6a 7930 abf0 2931 24d1 0eb0 da08 e0ae
00000080: cb4d b6af bc6d e330 4069 ff2e f8d2 352f
00000090: 4b1f 0231 97b3 8bb0 5259 daaf badc e3af
000000a0: c33d 233d 1897 cdbc 8c77 7cba 3c92 e5bc
000000b0: 733e b03d 0d82 813a 002b 3739 fce2 a8bc
000000c0: 230d 8c3c c7af a93c 56a9 873b 4a66 093d
000000d0: bf99 573c a61f 26bd 7404 32bd 73a7 743c
000000e0: ef13 f83b bdf0 9e3c aec7 71bd 2bf1 f63c
0.030026276 -0.0029353749 0.03105556 -0.009514816 -0.006312284 0.01686242 0.010135874 -0.005860799
0.010807123 0.00037721958 -0.003761605 -0.0067905346 -0.0018845197 0.006491307 0.0021889796 0.005309666
-0.0007208546 -0.011844122 -0.0025044302 0.007453986 -1.0707001e-09 1.2127925e-09 2.3028917e-09 8.171942e-10
2.4623963e-11 3.8457153e-09 2.6597928e-09 5.096615e-09 9.073709e-10 2.472954e-09 -5.1956506e-10 -1.0187913e-10
-3.3160882e-10 1.6547612e-09 1.16147536e-10 1.6536805e-10 1.8935278e-09 -1.0164624e-09 -3.9717435e-10 -4.1447895e-10
0.039853822 -0.025096461 -0.0009630851 -0.028023832 0.08605661 0.0009880677 0.00017468259 -0.020616047
0.017096108 0.0207137 0.0041400595 0.033544816 0.0131592145 -0.040557526 -0.043461278 0.014932501
0.0075707356 0.019401902 -0.05902832 0.030144295

transformer_encoder.layers.1.self_attn.out_proj.weight f4 [20, 20]
00000000: 31d1 f83d 7f47 9f3c 1b4d 723d d7e2 c93b
00000010: 12dd 963e 3103 3abe 42dc 383d ed92 0e3d
00000020: 46c9 5cbe 9d09 343d 9e16 8abe 4ebc 1a3e
00000030: 3eff d1bd b6f0 30bd 714e 8b3d 5486 58be
00000040: e79c 9abb d68c 6c3d 6d10 493e 5233 643b
00000050: 1e7f d53d 5bdc 12be 0b5e 893d 1f3d aa3d
00000060: a056 263e 68c4 96bd 39f0 9bbe c0c7 5fbe
00000070: 333d 8fbe 495f 1cbd dfd1 82bd 676c ee3d
00000080: f53e e13d 4c99 94be 8703 dbbd efbc 2bbc
00000090: fcf9 2fbd 1bdd b73c b1a9 593d 923e 92bd
000000a0: 921b 59bd 1e17 d5bc 0a5f 3cbe 4b8e 71be
000000b0: e36c 5c3e 8d42 27be 2698 b2bd ac07 d73d
000000c0: 5efb 03bd a53a c0bb 043e 0abe 80de 4fbe
000000d0: 053b 0c3e 8122 583d 3925 ebbd 8b0e 66bd
000000e0: 2d3b 303e accb 3c3c f457 0e3e 3e1d afbd
000000f0: 8fb4 023d 8dc8 26bd c79a b1bb acdb 283d
00000100: eb5d 663e 9ecd 6dbe 8368 273e 0320 833d
00000110: 2ae1 363e 83e7 003e 4215 a13c e583 fabd
00000120: 2130 a13d eace fe3d a50e 913e 28e4 2dbe
00000130: 51ad e5bd 0c99 723c db53 573c 0fc5 423e
00000140: a4ab 2bbd ac2b 573d f39b 1dbe bf21 34be
00000150: 2398 a2bc 8af7 e0bd cc8d ac3d 03e5 16be
00000160: 4315 cc3d 4aee c43c 29c9 08bd 5d94 f93d
00000170: 180b 52be dd1c 633e d527 2bbd 2aed edbd
00000180: fbdf b33d ecd6 f63d 73d1 c63d 120c 4dbd
00000190: a5da 523e 4f98 303d c276 3bbe 829b 883d
000001a0: d16d a13d 07e0 d8bd cca2 9ebe 4680 58be
000001b0: bd13 0cbe 8621 913e d75d 88be 5d64 a93b
000001c0: 0df8 febd 9b9c a6bb 5190 883e d33d ec3d
000001d0: b81e 30bc af34 c6bd d63b db3d b511 f0bd
000001e0: 30cd 993d d032 2bbd ee0f 0bbe 808b 023d
000001f0: d872 f83d e884 efbd 914b 233e 2bc0 173d
00000200: 56cb 673e 6237 aa3d 8d07 063d 0a0f 133e
00000210: 8939 4c3e ea15 2b3b d83b 5cbe 5e78 233e
00000220: 9599 e8bc a478 0d3d 7716 43be 0fb7 26be
00000230: 196d 5c3d c23e 31be 675f 273e 9c04 46bc
00000240: 5190 333e 0ff6 fbbd caf3 e7bd 205a 063e
00000250: 3349 f83d 8694 a9bd 8748 2cbe c8a5 3cbe
00000260: ebd6 f93d 992d b8bd 2f37 a4bd 2244 5fbd
00000270: 7eb4 ce3d 0e73 0c3e 5c3f f3bb 07c5 bcbd
00000280: 67d6 103e 7ed9 d63d 0066 803e d615 86bd
00000290: 61da 7fbd 9aa7 eb3d d4e4 e13b df8c 593e
000002a0: c6c3 a93d 4000 a5bd 4487 1bbe 0539 0dbe
000002b0: 910e b0bd 976d 4d3e 3fad 99bd 867d 2a3e
000002c0: 3cdc 4fbd b205 2b3e c54e d13d dc0e 2cbe
000002d0: bd40 043e 78cd 19be 592e 483e 1240 1dbe
000002e0: 4972 cf3d 31d5 c83d d058 4c3e 4b39 db3d
000002f0: 0250 363e f618 4cbe c869 8a3d deaa 803d
00000300: 776d d7bd 1916 a2bd aedd 83bd fdcb a63d
00000310: 5638 31be 4de2 ad3d 7522 1cbe b2e2 5fbe
00000320: 4b54 3a3e f6a2 18be c667 193d 7a4d 903d
00000330: e016 883d 6bae 54bc 4ebc 783e 2798 dd3d
00000340: 39ea 1fbd 4009 503d e76c 353d d9c2 72be
00000350: 8f68 8dbc a9c7 e23c 3cf3 a53c 9ef8 3f3e
00000360: 35f0 583d 3c7d 163e aa59 fb3c 306e 2bbc
00000370: 14af 313e 84f1 3a3d 1f61 eabd a078 25be
00000380: 4a7e ac3c 7abf ebbd a6cc 55bd e585 f93d
00000390: 1246 be3e 4c55 e2bc c742 50bc 31d6 d4bd
000003a0: 13d0 013c 35fb e73c b1a4 0bbd 7027 9c3d
000003b0: 08a8 3ebe 57a3 5abe c0ec 353e 4582 313d
000003c0: 0cf0 40be d56b a4bd c440 633e 1d49 ebbd
000003d0: a20d 6bbe b72d 113e c6e8 343e 0394 2b3e
000003e0: 4a70 3dbe 478c 3b3e bb14 573e 9665 7dbd
000003f0: 4713 183d 3391 653e 73d6 80ba 149c 7a3e
0.12149275 0.019443272 0.059155565 0.0061610746 0.29465538 -0.1816528 0.04513193 0.034808088
-0.21561155 0.04395448 -0.2697038 0.15110895 -0.10253762 -0.04319831 0.06802071 -0.21144992
-0.0047184112 0.0577515 0.19635172 0.0034820628 0.10424636 -0.14341871 0.067073904 0.08312439
0.16243982 -0.0736168 -0.30456713 -0.21853542 -0.2797638 -0.03817681 -0.06387686 0.1164177
0.10998336 -0.29023206 -0.10694032 -0.010482057 -0.042963013 0.022444298 0.053140346 -0.071408406
-0.05300481 -0.026012 -0.1839563 -0.23589437 0.21525912 -0.16333981 -0.08720426 0.1049951
-0.032222144 -0.005866366 -0.1350022 -0.20299721 0.13694389 0.05276728 -0.11481709 -0.056166213
0.17210074 0.0115231685 0.13900739 -0.085504994 0.031910475 -0.040718604 -0.005420062 0.04122512
0.22496764 -0.23222968 0.16348462 0.0640259 0.17859331 0.12588315 0.019663457 -0.12232188
0.07870508 0.124418095 0.28331485 -0.16981566 -0.11214698 0.014806997 0.013142551 0.19020484
-0.041911736 0.052531883 -0.15391521 -0.17590998 -0.019847935 -0.10984714 0.08425483 -0.14735799
0.09964993 0.024039406 -0.033394966 0.12186501 -0.20512044 0.22178979 -0.041786034 -0.11617501
0.08782955 0.12052712 0.09707918 -0.05006034 0.20591219 0.043114003 -0.18307021 0.06670286
0.07882274 -0.10589605 -0.3098358 -0.21142682 -0.13679405 0.2834589 -0.26634094 0.005169435
-0.12449656 -0.005084587 0.26672605 0.115352295 -0.010749511 -0.09678017 0.10704772 -0.11722127
0.075098395 -0.041796505 -0.13580295 0.03187132 0.1213128 -0.11695272 0.15946795 0.0370485
0.2263616 0.08311345 0.032722045 0.14361206 0.19943823 0.002610559 -0.21507204 0.15963885
-0.028393546 0.03453888 -0.19051538 -0.16280769 0.05381498 -0.17309096 0.16344987 -0.01208606
0.17535521 -0.12302791 -0.11325796 0.13120317 0.12123337 -0.08280282 -0.16824542 -0.18422616
0.121991955 -0.08993072 -0.08018338 -0.054508336 0.1009302 0.13715765 -0.0074233245 -0.092172675
0.14144288 0.10490702 0.2507782 -0.065471336 -0.06246412 0.11506577 0.0068937335 0.21245144
0.08289294 -0.08056688 -0.15188318 -0.13791282 -0.08596528 0.20061336 -0.07503747 0.16649446
-0.05074714 0.16701391 0.10220102 -0.16802543 0.1291532 -0.15019786 0.1954893 -0.15356472
0.1012922 0.09806288 0.19955754 0.10704287 0.17803958 -0.19931397 0.067584574 0.0628259
-0.10518926 -0.07914371 -0.064387664 0.081443764 -0.17306647 0.08490429 -0.1524752 -0.21863821
0.18196218 -0.14905915 0.03745248 0.070460275 0.06644988 -0.012981038 0.24290583 0.108200364
-0.03904173 0.05079007 0.04429331 -0.23707141 -0.017261771 0.027683096 0.020257585 0.18747184
0.052963454 0.1469621 0.030682404 -0.0104632825 0.17351943 0.045640483 -0.11444306 -0.16159296
0.021056313 -0.11511131 -0.05219712 0.121837415 0.37162834 -0.027628563 -0.012711233 -0.10392416
0.007923144 0.028318027 -0.03409261 0.076247096 -0.18618786 -0.21351372 0.17766094 0.043337125
-0.1884157 -0.0802838 0.22192675 -0.114885546 -0.2295442 0.14177595 0.17666921 0.1675568
-0.18499866 0.1831523 0.21004002 -0.061864458 0.03712776 0.2241867 -0.0009829536 0.24473602

transformer_encoder.layers.1.self_attn.out_proj.bias f4 [20]
00000000: 5788 883d 3a6a 873d 5aee 85bd eb53 aa3c
00000010: efec 61bd d3ad b73c 64ce 5e3d cc34 acbc
00000020: 0511 ce3c bc70 063d d842 d6bc 66fb adbd
00000030: 5776 3ebd d82d 4ebd aa2c 303d ce62 83bb
00000040: 8afd 1dbd 0864 923d 3138 6dbc 5e60 733b
0.0666663 0.06612058 -0.065396026 0.020791968 -0.055157598 0.022421753 0.05439605 -0.02102127
0.0251546 0.032822356 -0.02615492 -0.08495216 -0.046499576 -0.05033669 0.043011345 -0.004009581
-0.03857187 0.07147986 -0.014478729 0.0037136297
