model_epoch_95.pt (torch, 431970 bytes, 28 tensors)

pos_encoder.pe f4 [5000, 1, 20]
00000000: 0000 0000 0000 803f 0000 0000 0000 803f
00000010: 0000 0000 0000 803f 0000 0000 0000 803f
00000020: 0000 0000 0000 803f 0000 0000 0000 803f
00000030: 0000 0000 0000 803f 0000 0000 0000 803f
00000040: 0000 0000 0000 803f 0000 0000 0000 803f
00000050: a56a 573f 4151 0a3f 3d7d c63e dafa 6b3f
00000060: 4e9d 213e a0ca 7c3f 6522 813d 977d 7f3f
00000070: 8ac0 cd3c 53eb 7f3f 57d6 233c b9fc 7f3f
00000080: 9073 823b 7bff 7f3f 28bc cf3a ebff 7f3f
00000090: d466 253a fdff 7f3f f5b1 8339 ffff 7f3f
000000a0: b7c7 683f 3311 d5be 76f7 363f 040d 333f
000000b0: c596 9f3e 183f 733f 9de0 003e e3f6 7d3f
000000c0: ecaf 4d3d 51ad 7f3f 3ed4 a33c e5f2 7f3f
000000d0: 4d73 023c ecfd 7f3f 17bc 4f3b acff 7f3f
000000e0: d266 a53a f3ff 7f3f f5b1 033a feff 7f3f
000000f0: c381 103e 2670 7dbf 4812 6e3f e53b bc3e
00000100: ce5e ea3e a89a 633f b9ac 403e 6f6d 7b3f
00000110: 2d2f 9a3d 0346 7f3f 1fb9 f53c 83e2 7f3f
00000120: 49ac 433c 53fb 7f3f fccc 9b3b 42ff 7f3f
00000130: 361a f83a e2ff 7f3f ef8a 453a fbff 7f3f
00000140: cfbd 41bf 3055 27bf abf0 7f3f ce32 b1bc
00000150: 72a3 173f b041 4e3f 8ab4 7f3e d4e3 773f
00000160: 7d6d cd3d 7ab5 7e3f dbcb 233d 94cb 7f3f
00000170: 3e72 823c b1f7 7f3f d3bb cf3b affe 7f3f
00000180: c966 253b cbff 7f3f f4b1 833a f8ff 7f3f
00000190: 107c 75bf 2c3c 913e 28c7 693f cea6 d0be
000001a0: 6e4a 363f 2cbd 333f ebdb 9e3e aa5d 733f
000001b0: 4f45 003e cdfb 7d3f f4b6 4c3d 19ae 7f3f
000001c0: cf0d a33c 04f3 7f3f 44d5 013c f1fd 7f3f
000001d0: 74c0 4e3b adff 7f3f 6f9e a43a f3ff 7f3f
000001e0: 8c0f 8fbe b8cd 753f 200d 2f3f fdcb 3abf
000001f0: a75f 503f 47b7 143f b73b bd3e 8fdf 6d3f
00000200: 29bf 193e 1a19 7d3f d19c 753d 128a 7f3f
00000210: b7a8 c33c 4eed 7f3f 88cc 1b3c 09fd 7f3f
00000220: 191a 783b 88ff 7f3f eb8a c53a edff 7f3f
00000230: 4630 283f bdff 403f fde3 b13e 310d 70bf
00000240: c03b 653f 26ee e33e b9da da3e 1a6f 673f
00000250: 2d20 333e 860d 7c3f 323e 8f3d 815f 7f3f
00000260: d442 e43c 8ee6 7f3f b4c3 353c f8fb 7f3f
00000270: dbb9 903b 5cff 7f3f 6577 e63a e6ff 7f3f
00000280: 9546 7d3f f6fd 14be 3128 31bd acc2 7fbf
00000290: dc58 743f 1db7 983e c29a f73e db12 603f
000002a0: 4264 4c3e 3cd9 7a3f 50aa a33d 662e 7f3f
000002b0: 026e 023d c4de 7f3f c1ba 4f3c bbfa 7f3f
000002c0: a766 a53b 2aff 7f3f efb1 033b deff 7f3f
000002d0: 3201 d33e d53f 69bf 5cb7 dabe 7577 67bf
000002e0: 0056 7d3f 3958 133e 43af 093f 52d2 573f
000002f0: 5487 653e 6e7c 793f 3e12 b83d c2f6 7e3f
00000300: 12ba 123d f0d5 7f3f adb1 693c 55f9 7f3f
00000310: 6e13 ba3b f1fe 7f3f 2c28 143b d5ff 7f3f
00000320: f844 0bbf 64cd 56bf 238a 3ebf 43f8 2abf
00000330: 7df9 7f3f baf4 66bc e004 173f e6b5 4e3f
00000340: 5385 7e3e 54f7 773f 7675 cc3d 98b8 7e3f
00000350: 8a05 233d 13cc 7f3f 39d4 813c c5f7 7f3f
00000360: 30c0 ce3b b2fe 7f3f 679e 243b cbff 7f3f
00000370: 5cff 7fbf 7205 913b 58eb 71bf c976 a7be
00000380: 6532 7c3f 27da 2fbe 9fc0 233f e2c6 443f
00000390: 1cad 8b3e 2d4a 763f 72d3 e03d e873 7e3f
000003a0: 5950 333d 2cc1 7f3f 86cf 8e3c 0af6 7f3f
000003b0: ed6c e33b 6cfe 7f3f a214 353b c0ff 7f3f
000003c0: d85c 09bf d006 583f 0b76 7fbf e1d0 843d
000003d0: f518 723f 4d6e a6be 89d5 2f3f 630f 3a3f
000003e0: fe00 983e 3e75 743f ac2b f53d b528 7e3f
000003f0: 6d9a 433d 3bb5 7f3f baca 9b3c 26f4 7f3f
0.0 1.0 0.0 1.0 0.0 1.0 0.0 1.0
0.0 1.0 0.0 1.0 0.0 1.0 0.0 1.0
0.0 1.0 0.0 1.0 0.841471 0.54030234 0.38767424 0.92179644
0.15782663 0.9874668 0.06305388 0.9980101 0.025116224 0.9996845 0.009999833 0.99995
0.0039810613 0.9999921 0.0015848922 0.99999875 0.0006309573 0.9999998 0.00025118855 0.99999994
0.9092974 -0.41614684 0.71471345 0.69941735 0.31169716 0.9501815 0.12585683 0.99204844
0.0502166 0.99873835 0.019998666 0.9998 0.00796206 0.9999683 0.0031697804 0.999995
0.0012619144 0.9999992 0.0005023771 0.9999999 0.14112 -0.9899925 0.92996645 0.36764446
0.45775455 0.8890786 0.18815888 0.9821386 0.07528529 0.99716204 0.0299955 0.99955004
0.011942931 0.99992865 0.0047546607 0.9999887 0.001892871 0.9999982 0.00075356563 0.9999997
-0.7568025 -0.6536436 0.99976605 -0.02163067 0.5923377 0.8056898 0.24971214 0.96832013
0.10030649 0.9949566 0.039989334 0.9992001 0.015923616 0.9998732 0.006339529 0.9999799
0.0025238267 0.99999684 0.0010047541 0.9999995 -0.9589243 0.2836622 0.91319513 -0.40752262
0.7120732 0.7021053 0.3102716 0.95064795 0.12526439 0.9921234 0.049979165 0.99875027
0.019904045 0.9998019 0.007924382 0.9999686 0.0031547816 0.99999505 0.0012559424 0.9999992
-0.2794155 0.96017027 0.683794 -0.7296751 0.81395954 0.5809216 0.3695962 0.9291925
0.15014328 0.98866427 0.059964005 0.99820054 0.02388416 0.99971473 0.009509213 0.99995476
0.0037857352 0.99999285 0.0015071308 0.99999887 0.6569866 0.75390226 0.34744254 -0.9377013
0.89544296 0.4451763 0.42744997 0.904039 0.17492743 0.98458135 0.06994285 0.997551
0.027863897 0.99961174 0.011094023 0.9999385 0.004416687 0.9999902 0.001758319 0.99999845
0.98935825 -0.14550003 -0.04325122 -0.9990642 0.9544809 0.29827204 0.48360258 0.8752877
0.1996012 0.97987723 0.07991469 0.99680173 0.031843193 0.9994929 0.012678803 0.9999196
0.0050476375 0.99998724 0.002009507 0.999998 0.4121185 -0.91113025 -0.42718017 -0.9041665
0.9895935 0.14389123 0.53783053 0.843053 0.22414905 0.9745549 0.089878544 0.9959527
0.03582198 0.9993582 0.014263553 0.99989825 0.0056785857 0.99998385 0.0022606952 0.99999744
-0.5440211 -0.8390715 -0.7442953 -0.6678507 0.99990064 -0.014096433 0.58991814 0.80746305
0.24855547 0.9686177 0.099833414 0.9950042 0.039800204 0.9992077 0.015848266 0.9998744
0.0063095316 0.9999801 0.002511883 0.99999684 -0.9999902 0.004425698 -0.9449973 -0.32707813
0.98514396 -0.17173062 0.6396579 0.7686597 0.2728051 0.96206933 0.1097783 0.9939561
0.043777797 0.9990413 0.01743294 0.999848 0.006940475 0.9999759 0.0027630706 0.9999962
-0.53657293 0.84385395 -0.99789494 0.06485153 0.9456933 -0.32506028 0.68685204 0.7267973
0.29688257 0.954914 0.119712204 0.99280864 0.047754694 0.9988591 0.019017566 0.99981916

transformer_encoder.layers.0.self_attn.in_proj_weight f4 [60, 20]
00000000: 6e81 19be a0a1 73be 8e76 5c3e 02cc 793d
00000010: 1548 3e3e a405 a43d 730a 3abe 492e fe3d
00000020: 33f2 313c db33 373d 6965 4fbe eea2 733e
00000030: f7ac 8abe c40b 3b3e 4b7c 863e b65f 863e
00000040: 9afa 9a3d d5d6 dfbd c9c2 30bc 4e6b 45bc
00000050: 83f1 783e f3aa 81bd dff2 85be df21 cf3d
00000060: 8dfb 703d 2286 db3d 1997 263e af97 afbd
00000070: 5c01 6e3e 6486 2fbd c80d 3f3a 2b11 c1bd
00000080: c1fb ce3d 46a3 d3bd 4194 6a3e 4253 233e
00000090: f8dd 863e cf14 ab3c c5c8 153d 6e76 fabd
000000a0: d582 153e 63b1 12be caf5 763c f394 8bbd
000000b0: 2f43 783e 6b75 50be c291 323e 51c0 6abe
000000c0: 2ffa a4bb daf3 aabd b5ac 72bd bb23 3bbd
000000d0: 96e7 433d afb2 1cbe 9a20 da3d 3627 36be
000000e0: 757c 82bd 06e8 90be 0816 b4bd 88b5 eabc
000000f0: 16ff d33d 4b41 75bc c7e4 10be dd49 b23d
00000100: 6c3c 5b3e 5e2c 1f3e 6b0b e3bd cc6d d73d
00000110: f7a0 f93c c7c9 36bc 90e2 7b3d c7cb fe3d
00000120: daed 76be 72dc 05be db9f ef3c 4d46 423e
00000130: 3f90 3bbe 9fdc febd 9c8f 86bc a13d 043e
00000140: 2d47 74be a8c5 e03d 937c 36be 0b95 813e
00000150: 7edf 93bd 23e0 97bd 606a 4bbc 209a a3bc
00000160: d575 6f3e 31cd 063e b73a 69be 11ef 0b3e
00000170: d8b0 273e 0b47 dfbd 08af 4cbe 3670 b6bd
00000180: 9308 62bd 39af 1d3d 1ffd a43c 9d81 813e
00000190: f697 8ebd 2c9f 50bd da0c 543e ae62 64be
000001a0: 1a03 133d 98e0 0f3d f7f2 813d 8265 393e
000001b0: 18dc 47be 3bae f3bd f403 823d e66a 593e
000001c0: f00d 2bbd 1adf a4bd e8aa 6fbe 2e60 323e
000001d0: 4f8c 19be 9c9e 26be f12d e8bd b810 8bbc
000001e0: 8dcc d6bd a916 c73d b3a2 793e 743e a03c
000001f0: e536 3ebe 4901 10be a490 0cbd b0bc 0bbe
00000200: 732f 69bd dc95 093e 0bd8 abbd 3410 f73d
00000210: bf84 0bbd 7c5f 183e d0c9 ffbd 1d28 783e
00000220: a28e 613e 3961 09be 0e90 4c3b 88b6 e1bd
00000230: a282 683e 7327 14bf e90b 5c3d 9106 863c
00000240: 9b9c 943e f7f4 e8bc 40e7 44be 9189 63bd
00000250: db3a e2bd adb6 83bd f516 693d 738e 36be
00000260: 9544 293e 8eea d9bc 9c22 5abe a4eb 0ebe
00000270: a32f dd3d a5f1 b03b a0a1 04bd dcbb d7bd
00000280: 9d7d f23d 2d88 eb3d dcb9 b5bb 1611 4e3e
00000290: b010 ea3d be6e adbd 05fa 8dbe 8309 463e
000002a0: c2eb dab9 4664 023e 68ed febc 1c97 863d
000002b0: bd95 643e 6964 96bd d70f 163e 1e6a 433e
000002c0: 5a8a 1c3e 996d 6cbe a7b2 803e 83eb 1b3e
000002d0: 4adf 98bd 2703 49be 1b61 7d3d 194a d33d
000002e0: decd 3b3e a7f7 24be 258b adbd 2d71 0b3e
000002f0: 3001 2abe 5106 d9bd 0979 52be 3f3c febd
00000300: 64e8 263e 8f0d 91bd b273 b3bc b211 57bc
00000310: b530 56be b148 35bd c68c 86bd a758 3b3c
00000320: baa2 2dbe c396 85be 3bce 3d3d b506 4abe
00000330: ae38 04bc 4087 123e af84 ac3c cee2 4abe
00000340: d0a9 5c3e acc1 143e fff2 fb3d ed59 103d
00000350: 4109 09bd 638b 6f3c e0b9 46bd 1ddc bc3c
00000360: 54b3 6a3d cd9a 6d3e e647 f13d fe51 073e
00000370: 26e0 ad3c 35bc 97be 4e9d 49be 1f6c 6cbe
00000380: d745 413e 7072 cabd 5b9c 1bbe 1307 473d
00000390: 6022 de3c 1fab 1b3e 4592 cebd a32e 493d
000003a0: f722 4dbe 375a 94bd 4362 34be a3dd ff3d
000003b0: 2011 d43d 899f b6bc c86e 903c 741f 8bbe
000003c0: a7d1 9a3e 964f 053e d551 623e d65e 6cbe
000003d0: 3867 42be 51d9 14be b7e8 6fbe d924 bb3d
000003e0: fcca a7bd 8ec0 29be 6635 f63d a760 46bc
000003f0: 5414 8c3e 4a14 513e fcbb 863e ed48 50bd
-0.1499078 -0.23792124 0.215296 0.060985573 0.18582185 0.08008888 -0.18168049 0.12411172
0.010860967 0.044727188 -0.20253529 0.23792621 -0.27085087 0.18266207 0.26266703 0.26244897
0.0756733 -0.10929648 -0.010788628 -0.012049509 0.2431088 -0.06331434 -0.26161858 0.10113882
0.058833648 0.10718943 0.16268577 -0.08573853 0.23242706 -0.042852774 0.00072881253 -0.09427103
0.10106612 -0.10333876 0.22908117 0.15949729 0.26341224 0.020883946 0.036568422 -0.1222962
0.1460069 -0.1432548 0.015073249 -0.06815519 0.24244379 -0.20357291 0.17438415 -0.22924925
-0.005034707 -0.08347292 -0.059246738 -0.045688372 0.04782828 -0.15302537 0.106507495 -0.17788395
-0.063713945 -0.2830202 -0.087932646 -0.028651014 0.10351388 -0.01496918 -0.14149772 0.087054946
0.21409768 0.15544268 -0.11086162 0.10518989 0.030472262 -0.011156506 0.061495364 0.12441211
-0.2411417 -0.13072374 0.02925103 0.1897213 -0.18316744 -0.12444424 -0.0164259 0.12914135
-0.23855276 0.109752 -0.17820959 0.25309023 -0.07220362 -0.074157976 -0.0124154985 -0.019970953
0.23384793 0.13164212 -0.22776304 0.13665415 0.16376054 -0.10902222 -0.19988644 -0.08908121
-0.05518396 0.038497183 0.020140229 0.252942 -0.06962578 -0.050933048 0.20708027 -0.22303268
0.03589163 0.0351263 0.0634517 0.18105128 -0.19517553 -0.11898466 0.0634841 0.21232185
-0.04176134 -0.08050366 -0.2340504 0.17419502 -0.1499493 -0.16271442 -0.11336888 -0.016975746
-0.10488234 0.09721119 0.24378471 0.01956103 -0.18575628 -0.1406299 -0.034317628 -0.13646197
-0.056930017 0.13436073 -0.08390816 0.120636374 -0.034062143 0.14880174 -0.124896646 0.24234052
0.22027066 -0.13415994 0.0031213793 -0.11021143 0.22706082 -0.57872695 0.053722296 0.016360553
0.2902573 -0.02843712 -0.1922884 -0.055551115 -0.11046382 -0.06431327 0.05690666 -0.17827778
0.16530068 -0.026601102 -0.21302265 -0.13957077 0.108001016 0.0053999 -0.0323807 -0.10533878
0.11840365 0.11500583 -0.005545838 0.20123705 0.11428964 -0.08468388 -0.27729812 0.19339566
-0.00041755853 0.12733564 -0.031119063 0.065717906 0.22322746 -0.073433705 0.1465448 0.19083449
0.15287152 -0.23088683 0.251363 0.1522656 -0.07464464 -0.19630109 0.061860185 0.103168674
0.18340251 -0.16110097 -0.08473805 0.13617392 -0.16602015 -0.10596908 -0.20553984 -0.12413835
0.16299587 -0.07082664 -0.021905754 -0.0131267775 -0.20917018 -0.044258777 -0.06569819 0.011434711
-0.16956607 -0.26091585 0.046339255 -0.19729121 -0.008070154 0.14309406 0.021059362 -0.19813082
0.21549153 0.14527005 0.12302207 0.03524201 -0.03345609 0.014620635 -0.048517108 0.023054177
0.057299927 0.23203583 0.11781292 0.13214871 0.021225046 -0.29635778 -0.19688913 -0.2308812
0.18874298 -0.098851085 -0.15196364 0.04859073 0.027116 0.15201996 -0.100864924 0.049116742
-0.2003287 -0.072437696 -0.17615609 0.12493446 0.10354829 -0.02229287 0.01763095 -0.27172434
0.30238077 0.13018641 0.22101529 -0.23083052 -0.18984687 -0.14536025 -0.23428617 0.091378875
-0.08193013 -0.1657736 0.12021904 -0.012108005 0.2735926 0.20417896 0.26315296 -0.050850797

transformer_encoder.layers.0.self_attn.in_proj_bias f4 [60]
00000000: 42ed 8dbc 8103 583b 4ddd 95bb 644f 8e3a
00000010: c234 1cbc 1088 903c 78aa 233d eb10 2f3d
00000020: c1a8 053d b63b 1abc e9ef b23c 73eb 5ebc
00000030: 6cae 9ebc 137d cabc aeca 963c e636 263c
00000040: edfc 2dbc b9a8 2ebd 3cb0 bb3b 8c93 4f3d
00000050: 6bb9 4ab1 6291 8930 b7a1 032d 9557 24b1
00000060: 3a87 0b31 41ac 8e32 82ab ca31 2bd8 7f31
00000070: cf86 0c32 1828 9b31 0d4d 222f 7186 df2f
00000080: 5621 8f2f ee4f 6cb0 c72c 84b1 28ef 7031
00000090: 5c0a c5b1 aac4 7831 b195 4c31 4d0b 2c31
000000a0: dab7 43bd dfa0 513d a041 ccbc 0050 83bc
000000b0: ef67 6c3d 697d af3d 94e1 f03b 11bf 833d
000000c0: 8b79 633d c407 133c bb62 92bc 68eb 5b3c
000000d0: a1e8 88bd a93d 933d e102 923c 2fb8 903d
000000e0: b7a6 2f3d 17e4 2d3d 8d8b 353c ab29 73bc
-0.017325047 0.0032961073 -0.0045735002 0.00108574 -0.009534063 0.017643005 0.039957494 0.042740744
0.03263164 -0.00941365 0.021842914 -0.01360594 -0.01937028 -0.024717843 0.018407192 0.010144925
-0.010619384 -0.042641375 0.005727796 0.05067782 -2.9500267e-09 1.0009382e-09 7.482396e-12 -2.3914926e-09
2.030403e-09 1.6609308e-08 5.898472e-09 3.723026e-09 8.1797245e-09 4.515652e-09 1.4761188e-10 4.065899e-10
2.6035235e-10 -8.5969887e-10 -3.846796e-09 3.5060541e-09 -5.7346323e-09 3.620054e-09 2.9770997e-09 2.5035718e-09
-0.047782756 0.05117881 -0.024933636 -0.016029358 0.057716306 0.08568842 0.0073511098 0.064329274
0.055535834 0.008974019 -0.017869344 0.013422824 -0.066849954 0.07189495 0.017823638 0.0706638
0.0428836 0.04245385 0.011080635 -0.014841477

transformer_encoder.layers.0.self_attn.out_proj.weight f4 [20, 20]
00000000: 7b37 073e 0f8a e9bd e255 b7bd ecef 1d3e
00000010: 0b18 893e bf5b 793d abcd dd3e adae f83d
00000020: 1a76 81bd c3d2 963d 014c 3fbe 44bf 583d
00000030: a90e 3abc c63f a3bc 043c a73d 3bf0 bdbe
00000040: f723 043e 6841 b93d d108 bd3e d1fd c43d
00000050: ceca 173e 388d aabd 8560 913d 61be 67bd
00000060: 7c5b bf3d 5020 6fbd 9c1f 8dbe 21ee 30be
00000070: c7e1 1bbe c2a5 96bd 7f32 29bd d798 8b3d
00000080: 8053 023e 7c8d 4cbe 7bb6 cebd 4518 8f3d
00000090: 405f 9dbd 0e2f 5d3d f2a7 2d3d 23a2 c2bd
000000a0: 7f7d 1fbe 77ba 10bd 58cd bfbd 0fce 16be
000000b0: dcab 303e 6bc6 1fbe e960 42be 0641 9d3c
000000c0: 8871 5ebe 3382 1abd a11f 0abe 8f54 1cbe
000000d0: 6955 863c c9fe a23d 57f5 f33c e875 3abe
000000e0: 81e8 163e e6f4 debd e626 ce3d e837 66be
000000f0: 4b38 5f3d 952f 32bd a537 843c 4e9d 033c
00000100: 891c 4d3e eee8 86be 840f e93d f4a2 a2bc
00000110: 9e02 033e 4e1c 973d 0964 7b3b 7e10 e9bd
00000120: 7270 fa3d 6bc1 803d 4a83 a33e f35f 18be
00000130: 73ec cbbd 5621 b33d 8931 c8b9 bd62 8d3e
00000140: e344 38bd 2737 d63d f191 60be ecd3 44be
00000150: 1397 fbbc 8d7b b03a 9079 493e 7146 20bd
00000160: 5029 343e ed57 4b3d 06a1 92bc 3178 553d
00000170: 0ac8 54be 4624 5d3e d306 bbbd 76e1 1fbe
00000180: 91ae 7b3d 96a1 4b3d c7ff d73d 0da6 04be
00000190: 32d7 853e 9171 a73d b3e1 52be 6827 88bc
000001a0: c8e2 a7bd 5a80 acbd acbc b9be 3f3d 30be
000001b0: 2172 e5bc a036 673e 6f3f 60be d008 2fbc
000001c0: 43b3 b53b cec5 823c fd38 4d3d 06ce 2f3e
000001d0: 1626 32bd 4940 38bd 60d9 2d3e f009 24be
000001e0: 2517 7e3d 652b d1bd 95c3 fabd a418 b93d
000001f0: 0476 563e 4009 58be 5ede 333e 0fdc 5b3d
00000200: db45 633e da45 183e 4668 9f3d e0d8 283d
00000210: ac55 4f3e 4c08 08be 23f4 28be 1d4b 403e
00000220: 4a28 a53c 66f2 8a3d b8ea 19be 2372 cdbd
00000230: 04f0 a73d 28e3 06be 11a0 123e 2284 94bd
00000240: a771 ea3d 82e4 78bd 4045 acbd 35f8 e43d
00000250: 7b07 fe3d 5ca0 ddbd 0d04 2dbe 7649 3bbe
00000260: 1b74 073e 7354 6abd 46d0 9bbd 5fa1 8ebd
00000270: 9316 a93d f277 173e e98d 28bd 1e48 9cbd
00000280: 78b3 c73c 6820 493e 59c5 453e 3f0d 613c
00000290: 8c1e c0bd e7a4 5f3d c234 5ebd b797 623e
000002a0: 8301 413b aef7 0cbd b15a 34be 4322 ddbd
000002b0: 5093 94bd 94a9 163e 2627 123d 89a2 493e
000002c0: 7711 b4bc bc64 963d 8437 db3d 0b7e 8bbe
000002d0: eee4 203e 6a5e 27be 3f4e 643e 57f4 febd
000002e0: 4579 713e 5389 e0bd 89be 753d c66b 673d
000002f0: 1a37 6e3e a1b3 16be 8461 e039 bdc8 8c3d
00000300: 7faf 33be b5d8 d2bd a76a d3bc 78e4 373e
00000310: 12d8 19be 5976 053e 5691 4dbe b320 20be
00000320: 97e7 723e 5344 36be 2066 e23d 4308 4ebd
00000330: 7cc3 d93d 14f2 87bb 47f6 333e 9722 0e3d
00000340: 7253 28be d204 b9bc cc59 8c3a 7a20 bbbd
00000350: bd72 313c 07e1 2f3d 676d cabb 7e13 4e3e
00000360: 2035 0c3c 51ff 413e 69e8 a6bc 3cc5 b13d
00000370: a3cf 1c3e a93b b33d 5bfc eebb 430b 42be
00000380: 1f8e 843d a945 79be f42c 89be 70ec 653d
00000390: 0644 6d3e 6186 babc e0e4 18bd 26e6 9fbb
000003a0: 5560 d2bd 324c a43c 66be 17bd 4946 4f3e
000003b0: c9cf a3be 090e 30be 5483 503c e9ff c13c
000003c0: cbd5 2bbe 0aaa cabd a343 9e3e a917 30be
000003d0: 3737 d3bd 20fe 173d c419 833d c132 d03d
000003e0: 105a 92be ce50 263e 0445 113e ba88 07bd
000003f0: f5f8 07bd ad8f 593e fca1 f0bb 998b 813e
0.13204758 -0.11403286 -0.08951928 0.15423554 0.26776156 0.06087851 0.43320975 0.12142692
-0.06321354 0.07364418 -0.18681337 0.05291678 -0.011356034 -0.01992787 0.08165744 -0.37097344
0.12904344 0.090456784 0.3692079 0.09618724 0.14823458 -0.083277166 0.07098488 -0.056578044
0.09343621 -0.058380425 -0.2756318 -0.17278339 -0.15222846 -0.073558345 -0.041307922 0.06816261
0.12727165 -0.19975847 -0.10093399 0.06987051 -0.07684183 0.053999953 0.042396493 -0.095035814
-0.15575217 -0.035334077 -0.09365338 -0.14727043 0.17253059 -0.15603034 -0.18982281 0.019196045
-0.21722996 -0.037721824 -0.13488628 -0.15266632 0.016398149 0.07958753 0.029780073 -0.1820904
0.1473713 -0.108865544 0.10066013 -0.22482264 0.054497045 -0.04350241 0.016139815 0.00803311
0.20030417 -0.26349586 0.113799125 -0.019853093 0.12793967 0.073784456 0.0038359186 -0.11380099
0.122284785 0.062868915 0.31936103 -0.14880352 -0.099572085 0.08746593 -0.0003818388 0.27614394
-0.04498757 0.10459738 -0.21930672 -0.19221467 -0.030711686 0.0013464555 0.19675279 -0.03912968
0.17593884 0.0496444 -0.017899048 0.052116577 -0.20779434 0.21595868 -0.09132161 -0.1561335
0.061445776 0.049714647 0.105468325 -0.12953968 0.26140743 0.08175958 -0.2059391 -0.016620353
-0.08197552 -0.084229186 -0.36276758 -0.17210864 -0.028008522 0.22579432 -0.21899198 -0.010683253
0.0055450513 0.015963461 0.050103176 0.17168435 -0.043493353 -0.044983182 0.16977453 -0.16019416
0.06203379 -0.10213355 -0.122443356 0.09037903 0.20943457 -0.21097279 0.17565295 0.05367666
0.22194616 0.14870396 0.077835605 0.041222453 0.20247525 -0.13284415 -0.16499381 0.18778653
0.020160813 0.06784515 -0.15030944 -0.100315355 0.08200076 -0.1317259 0.14318873 -0.07251765
0.11447459 -0.060764797 -0.08411646 0.11180154 0.124037705 -0.10821602 -0.16896077 -0.18289742
0.13227884 -0.057209443 -0.076080844 -0.06964373 0.08256259 0.1479185 -0.04115096 -0.07630943
0.02437757 0.19641268 0.19313563 0.013736068 -0.09380826 0.054600623 -0.054249533 0.22128187
0.0029450364 -0.034415893 -0.17612721 -0.107975505 -0.0725466 0.14713126 0.035681866 0.19690908
-0.021980984 0.07343432 0.10703948 -0.272446 0.1571233 -0.1634461 0.22295474 -0.12448948
0.23581417 -0.109636925 0.05999616 0.056499265 0.23263207 -0.1471696 0.00042797264 0.06874225
-0.17547415 -0.1029524 -0.025807692 0.17958248 -0.1502383 0.13033427 -0.20074973 -0.15637474
0.23721157 -0.17799501 0.11054635 -0.050300848 0.10632989 -0.004148731 0.17574416 0.034700956
-0.16438082 -0.022585306 0.0010707914 -0.09137054 0.010830578 0.042939212 -0.0061775926 0.20124623
0.008557588 0.18945052 -0.020374494 0.086801976 0.15313582 0.08751614 -0.0072932667 -0.18949609
0.0647242 -0.2434298 -0.2679211 0.056133687 0.2317048 -0.022769155 -0.037327647 -0.0048797308
-0.1027228 0.020055864 -0.037046812 0.20241655 -0.31994465 -0.17192854 0.012726624 0.023681598
-0.16780774 -0.098957136 0.30910978 -0.17196526 -0.10313266 0.037107587 0.06401399 0.101659305
-0.28584337 0.16241762 0.14186484 -0.033089377 -0.03319641 0.21246214 -0.007343529 0.25301817

transformer_encoder.layers.0.self_attn.out_proj.bias f4 [20]
00000000: 0afc a5bc 059f 473d 8a1f 0b3d f989 1a3d
00000010: 59d6 ae3c 4d09 ca3c 0ea0 a2bc 3004 e83c
00000020: d3c9 70bc f6e3 94bc c402 973b cd60 32bd
00000030: eb1e 183d 7a4b b0bd b9d0 123d 882e b2bc
00000040: 9780 1dbb 23bc 1cbd 2b54 673c 4193 afbc
-0.020261783 0.048735637 0.033965625 0.037729237 0.021342443 0.024662638 -0.01985171 0.02832231
-0.014696556 -0.018175106 0.004608484 -0.043549348 0.03713886 -0.08608146 0.035843585 -0.021750703
-0.0024032944 -0.03826536 0.014119188 -0.02143252

transformer_encoder.layers.0.linear1.weight f4 [20, 20]
00000000: 03e3 bebd 3447 133e fd09 763d 1376 473e
00000010: e5c3 b8bd b963 b7bc 17ef 21be 8361 3c3e
00000020: 4ccc 0abd 5d8f 47bb 76da f1bd 5df9 253d
00000030: ce63 8c3d f7eb 3a3d f241 f43c a418 b33d
00000040: 6b49 483e 3af7 16be 9033 6bbd e4c7 e7bd
00000050: 811d 82be 8235 403e 24b1 63be 9bf3 363d
00000060: b9f9 773d fcbb bdbc f4c8 ff3c da07 35be
00000070: ccf5 2a3e 4ad4 0abd 567a 12bd 0b4f c23d
00000080: dae4 6dbd 8224 13be 1e28 1d3e cc15 483e
00000090: 520f 0d3e 2d57 60bd 3cd8 f4bd 0d8b 983d
000000a0: bb64 2f3e 20b1 583e 36db 6f3e 15a8 463e
000000b0: 57b3 c33a fec7 3a3e 8066 603e d8aa 65bd
000000c0: 94c3 a7bd 731d 373d b503 9dbe 6256 183c
000000d0: e3d6 ea3b cc9a d03d 41f2 39be 26fc 49bd
000000e0: 2bbb b4bd 8df7 4e3e 38d2 313d a721 bbbc
000000f0: 281d 87bd 760d 1cbe e453 603d 3f6b 803e
00000100: 386c 1bbd 53d2 88bc 9282 92bd 76a2 113e
00000110: 2049 23be 45a9 94bd 19fe 0a3e c22c 2fbe
00000120: 0683 1a3e b63f 343d 1726 75bd 34f7 df3d
00000130: 24cb d3bd 4e53 47be 614f 013d fa62 3a3e
00000140: e0f5 8e3d b315 53be de8f bcbd cb44 a4be
00000150: a61d 083e f99e b83e 6e6f 433c b7fc 49be
00000160: bc07 b73b 1461 06be fca6 053d 9bdf c9bd
00000170: b4a1 f9bd 069c 143e a889 933d 7fb8 74be
00000180: 8274 36be d4b8 073d 2895 b53d 16e3 8abd
00000190: 3646 d2bc b1ee eebe dc2d 1dbb c3a9 9dbd
000001a0: 8a74 d43d d45e 9fbe 483c cc3c 2ef3 a5bd
000001b0: fd91 e3bd ac68 48bd 1393 02bd cfed 30bd
000001c0: 6160 21bb d7f7 283c 0385 3e3e 61bd a53e
000001d0: 7e3e 7cbd 3df2 9d3d 1397 6c3e 5445 fe3d
000001e0: 1d5d a3bc 5969 f63d 17d4 d6bd e33e 4fbe
000001f0: 3f6b 173e 8b98 b63e 9432 c4bd c205 6abe
00000200: 49be 84bd 53fd 143e 0e98 14be eb7e 73be
00000210: c992 58be d8ff 04be 0bf7 693d e6e5 6fbd
00000220: 0df2 0bbd 7e27 813d 453f c43c da0c 75be
00000230: 20b2 593e 3e9e 2a3e 55f3 89bd bc53 ccbc
00000240: cb8e bbbd df43 633e 5954 6cbe 7e89 ab3d
00000250: 28b5 87bd 1500 63be 3e52 36be 20dd 38be
00000260: 648b e53d d419 6cbe 74f5 053e abaa 36be
00000270: 4eae 023d ff0c 78be c6c5 2dbe 6c5d c0bd
00000280: 1607 19be d3a3 463e 18ed 3e3e c373 00be
00000290: 1e88 963d 8ea2 32ba 017f 923d 89cb 8a3e
000002a0: 1b9c 05be 2084 01be 5311 113e 99b5 7d3e
000002b0: 490f 8cbd fbd4 dc3d 3e6f 65bd 6b03 6cbe
000002c0: 1d67 0f3e e022 94bd 26e7 cf3d d86f f63d
000002d0: 6c7e 623c 52e0 8bbe 8f38 7cbc 11ab 773e
000002e0: 000a 773e e10c 993d d104 afbd e88e f73d
000002f0: 1231 2f3d 59e8 8ebd 889a ff3d 8718 173e
00000300: 14d8 123e 1414 22be a6fd c7bd 2c78 28bc
00000310: 129b 17be c301 333e c519 aabd 3d02 dabc
00000320: ec24 7cbb 6b0d 363e a384 81bd 196c 473e
00000330: 5c34 473e 2d8c 24bd 8e98 0bbc 50c9 b0bc
00000340: f275 6c3e a48b 35be 64d1 38be ab69 3dbe
00000350: 667a c23d d413 ca3d ef81 c4bc 0acc 023e
00000360: b786 07be cf83 43be a616 983d 3423 2bbe
00000370: f5fb 9e3d dd1c 83be d1cd 6c3d 8b1a 3bbe
00000380: bfe4 6abc 01ab 74be 967b ff3d 910d 16be
00000390: 02a0 d6bd 7e7f e63d 38db c6bc 5eca 33bd
000003a0: 15de 3bbe 96de bb3b 8791 2c3e a426 233e
000003b0: d57c 33be 742e 30be 8610 073e 8a33 cc3d
000003c0: 541c 5a3d f4f1 4a3e b03b bebc 58d2 333e
000003d0: 3dc6 7a3d e293 03bd b2d5 303e 4805 463e
000003e0: f954 1c3e a8d4 d23d 179f 763c c0a4 2fbe
000003f0: 3a91 2abe 861b c13d 9d8e d2bd f10f e9bd
-0.09320643 0.1438263 0.06006812 0.19478635 -0.09021739 -0.022386419 -0.15813862 0.18396573
-0.03388624 -0.0030450441 -0.11809246 0.040521014 0.06854974 0.04563519 0.029816601 0.08744934
0.19559257 -0.14742747 -0.05742222 -0.11317423 -0.25413135 0.18770412 -0.22235543 0.044665914
0.06054089 -0.023160927 0.031223752 -0.17678776 0.16695327 -0.03389386 -0.0357612 0.094877325
-0.058079578 -0.14369395 0.15347335 0.19539565 0.13775375 -0.054770637 -0.11955306 0.07448397
0.1712827 0.21161318 0.23423466 0.19400056 0.0014930767 0.18240353 0.219141 -0.056071132
-0.081916004 0.04470582 -0.3066689 0.009297939 0.00716673 0.10185775 -0.18158819 -0.049312733
-0.08824762 0.2021162 0.04341337 -0.022843195 -0.06597358 -0.1523951 0.054767504 0.25081822
-0.037945002 -0.016701853 -0.071538106 0.1422213 -0.15945864 -0.07258848 0.13573493 -0.17106918
0.15089044 0.044006072 -0.05985078 0.10935822 -0.103414804 -0.19465372 0.031569842 0.18201819
0.06980491 -0.20613746 -0.09207128 -0.32083735 0.1329256 0.36058787 0.011928422 -0.1972531
0.005585639 -0.1312297 0.03262995 -0.098571025 -0.121890455 0.14512643 0.0720399 -0.23898505
-0.17817882 0.03313525 0.0886634 -0.067815945 -0.025668245 -0.46666482 -0.0023983633 -0.07698395
0.103737906 -0.31127036 0.024931088 -0.081030235 -0.111118294 -0.048927948 -0.031878542 -0.043195542
-0.0024624097 0.010312996 0.18605427 0.32371047 -0.061583035 0.07712219 0.23104505 0.12415567
-0.01994186 0.12031812 -0.10489672 -0.20238833 0.14787005 0.35663256 -0.095799595 -0.22853759
-0.064816065 0.1454976 -0.1451113 -0.23778884 -0.21149744 -0.12988222 0.057120364 -0.058568858
-0.034166384 0.06306361 0.02395595 -0.23930684 0.21259356 0.16661927 -0.06735865 -0.024942271
-0.09158095 0.2219386 -0.23079051 0.08375834 -0.0662635 -0.22168 -0.1780481 -0.18053102
0.11208227 -0.23056728 0.13081914 -0.17838542 0.03190451 -0.24223708 -0.16969976 -0.09392819
-0.1494411 0.19398431 0.18645132 -0.1254416 0.07350181 -0.00068143837 0.0715313 0.2710841
-0.13047831 -0.12648058 0.14166765 0.24776305 -0.06838853 0.1078281 -0.056014292 -0.23048179
0.14004178 -0.072332144 0.1015151 0.12033051 0.013824087 -0.2731958 -0.015394344 0.2418635
0.24124908 0.074731596 -0.085458405 0.12087804 0.042771406 -0.069779105 0.12480646 0.1475545
0.1434024 -0.15827972 -0.097651765 -0.010282557 -0.14805248 0.17481141 -0.083056964 -0.026612395
-0.0038474156 0.17778556 -0.063241266 0.1947483 0.19453567 -0.040172745 -0.008520259 -0.021580368
0.23091868 -0.1772905 -0.18048626 -0.1849734 0.09496002 0.09867063 -0.023987738 0.12773147
-0.13234983 -0.1909325 0.07426195 -0.16712648 0.07762901 -0.25607958 0.05781347 -0.18271844
-0.014336764 -0.23893358 0.12474744 -0.14653613 -0.10479738 0.11254786 -0.024274454 -0.043894164
-0.18346436 0.0057333214 0.1685239 0.15932709 -0.17528088 -0.1720522 0.13189897 0.09970768
0.053249672 0.1981886 -0.02322182 0.17560709 0.06122421 -0.032123454 0.17269018 0.19337952
0.1526679 0.10294467 0.015052578 -0.17152691 -0.16656962 0.09429078 -0.102811076 -0.11379994

transformer_encoder.layers.0.linear1.bias f4 [20]
00000000: f73d a8bd 3d5b d33d 9c92 3abe 8337 7bbd
00000010: 18cb 2a3e 25dd a83a ce9e 67be 406c 6dbe
00000020: bbe0 d73c 4a8d 9e3d a67b e23d 677f 94bc
00000030: d8cc 5d3d 56b6 45bd e43c f2bd c278 bcbd
00000040: d650 42be 6c86 1fbe 21b6 12be 9a7f 57be
-0.08214944 0.10320137 -0.1821999 -0.061332237 0.16679037 0.0012883289 -0.22619173 -0.23185825
0.026352277 0.077417925 0.1105874 -0.018127156 0.054150432 -0.048269592 -0.1182802 -0.0920272
-0.18976149 -0.15578622 -0.14327289 -0.2104477

transformer_encoder.layers.0.linear2.weight f4 [20, 20]
00000000: 29dd 143d 89fe 59be a836 c8bd adc0 5d3e
00000010: 4ea7 4fbe 2dec da3e cfd8 903d 59d1 2e3e
00000020: 0f77 1abe 35e6 813e 4c9e c73d 4e99 a23e
00000030: c791 f1bd 1ce1 6f3c 56db 463e bc98 463e
00000040: 33e8 8c3e 8541 bfbd 07a6 48bd 50b5 d33d
00000050: 73df 0b3e de53 673d 4538 30bd 7ce9 433d
00000060: f8a4 10bd 33f4 843e 16da f43d d8c4 21be
00000070: 0497 ff3d 4a8d 073c c27e d9bd 0dd1 c5bc
00000080: 74e8 093e 0644 50bd e944 e53d 5e43 cfbd
00000090: 783c f33b dcdd 26bb fd55 d33b e26c 15bc
000000a0: 0f17 443d 01df 52bd 133d 4b3e fa87 efbd
000000b0: a875 04be 811c 833e ea05 00be 00c5 873e
000000c0: 9a23 333e 5c1a 233e bbd8 333c 8e1f ddbc
000000d0: 65bd b53a 1583 4dbd e07c b73d e573 26be
000000e0: 1f89 9cbd e824 133d a48c 2a3d 82ae 573d
000000f0: b183 1c3e 0491 06bc c600 5ebb b242 b9bd
00000100: 1f4b e83c ab4f 1b3d a846 f53d f460 153e
00000110: 0545 713b ef94 17be 0a72 263d 9810 86bc
00000120: ef75 433d 308f 14ba 985b 163e 1e3e 203e
00000130: d176 ccbd e1ca 4b3c 5fb7 4e3d e7b0 d5bd
00000140: 0cc0 47bd a36f ce3a da98 2cbe 0e22 6c3d
00000150: eb64 ae3d 9b34 393e cc8e b13d 4c44 cb3d
00000160: 9c9c 2c3e 35fd f13d 81c4 01be 84c9 d1bd
00000170: 23d3 da3d 74c9 4f3e 3f58 c5bd c5eb 853e
00000180: 4ac0 e23d a502 4dbe 7adf 5f3d 1342 613d
00000190: 9bf7 473e ddbf 8f3d ff38 0abe 9cb8 16bd
000001a0: a56e 253d e868 3d3e 1770 44be 235f f0bd
000001b0: 005f 97bd 6894 8abc 3bba 1f3c 1caf a73c
000001c0: de9d c63d 1ea1 b9bd c74c 2fbe aef1 45be
000001d0: 2ddd 5e3d 250e 493d 9caa 39bd 8af8 173e
000001e0: abf3 08be 1e34 b53d 79ea ecbd 639c 323e
000001f0: 3fe7 a3bc 2429 d63d 17de 88bd b8da 103b
00000200: f549 a8be a48a 0f3e 1def fb3c bec4 edbd
00000210: 1003 c03d c090 55be 02d2 223d d34e 873e
00000220: d870 e23d 4f09 de3c 2269 693c 6723 7d3c
00000230: 34b1 243e 1c13 323e adbf e93d 3096 21be
00000240: f774 4e3e 2680 39be 9b56 593e 7572 eb3b
00000250: 32c7 523e 215c b83c 057d 213e d35b d73c
00000260: 30a4 573d aa05 d93d c3c8 153e 6436 35be
00000270: 84d8 b8bd f609 a33d abb7 bd3d ee35 d43d
00000280: 6b91 703d 7d45 e53d 1c74 2fbe 18b3 4e3e
00000290: c7cc 9fbd 890d d93d 4477 94be efa6 843d
000002a0: a6c9 54bc 2586 393e 403e 10be e2fa 29be
000002b0: 434d e03d 6d79 c0bd c6f2 dd3c 7e55 0ebe
000002c0: 844a 7c3e b810 333e 9602 e93d 2616 1c3d
000002d0: b476 f53d bc6e 343e ee11 033e dc2f e23b
000002e0: 57e2 3cbe 2d0c 8ebe ad52 7bbd 9a07 bcbd
000002f0: 8481 84bd 535d 8ebd ea9f 6cbd 5d1e f0bc
00000300: 94b3 253e d6fe 7abd a440 90bd 372b 4ebd
00000310: 7b0e 743d 400d c0bd cb1d 023e a73a 79be
00000320: dd36 04be c184 78be 293a c33d 7539 243e
00000330: 4ec2 823e 91fd 15be 5dd9 593e 42a1 603e
00000340: 117b c2bd 4270 9e3d 8384 4f3e c64d a7bd
00000350: d632 be3a b4b4 41bd 9ebf 1ebe b7e1 3dbc
00000360: fb4c 8cbe 91c9 fe3d 6a11 86bd a910 8bbe
00000370: 4430 473e 7f25 1d3e b18a e43a 59d6 51be
00000380: 5d59 243e 0334 13bb be42 7d3e c7e1 d2bd
00000390: 7aa0 143e 8d76 b83d f20f 9f3d 1a17 b4be
000003a0: 7b02 94be 9453 483d fcb0 1e3c 9fb2 ff3d
000003b0: 0385 a43d d4d2 09be d1cf 083d d2e6 0ebe
000003c0: 7e24 29bd af97 35be aaef f03d 476b 23be
000003d0: e268 f83c 6879 28be 1bb4 d4bd 1d62 76bd
000003e0: bbc2 10be e3ea 71be 5ac5 21be 15f5 5bbe
000003f0: a13b 3c3e 8fc1 0d3e 2f42 f13c 7e80 2c3e
0.036343727 -0.21288504 -0.0977605 0.21655531 -0.20278665 0.42758313 0.07072603 0.17072047
-0.1508448 0.25370947 0.097469896 0.31757587 -0.11795383 0.014641073 0.19419608 0.19394201
0.27520904 -0.09338669 -0.04898646 0.10337317 0.13659458 0.056476466 -0.043022413 0.04783009
-0.035313576 0.2596756 0.11955659 -0.15797746 0.12479976 0.008273432 -0.1061988 -0.024147535
0.1346758 -0.050846122 0.11194784 -0.10120271 0.00742298 -0.0025461828 0.0064494596 -0.009120198
0.047873553 -0.051482204 0.19847517 -0.11695857 -0.12935507 0.25607684 -0.12502256 0.26517487
0.1749405 0.15928024 0.010976966 -0.026992586 0.0013865648 -0.050173838 0.08959365 -0.16255148
-0.07643341 0.03592387 0.04163803 0.052656658 0.15284611 -0.008213285 -0.0033874973 -0.09045924
0.028356133 0.037917774 0.11976367 0.14587766 0.003681482 -0.14802907 0.0406361 -0.016365334
0.047719892 -0.00056670886 0.14683378 0.15648696 -0.099836 0.012438507 0.050467845 -0.10434132
-0.048767135 0.0015749823 -0.16855183 0.057649665 0.08515342 0.18086474 0.086698145 0.09925136
0.16856617 0.118158735 -0.12672617 -0.10243514 0.106848024 0.20291692 -0.09635972 0.2615644
0.110718325 -0.2002054 0.054656483 0.054994654 0.19528048 0.07019017 -0.13498305 -0.03679715
0.040388722 0.1849705 -0.19183384 -0.11736896 -0.07391167 -0.016916469 0.009748991 0.02046924
0.096980795 -0.09063934 -0.17119132 -0.19330475 0.05441015 0.049085755 -0.04532872 0.14840904
-0.13374202 0.08847831 -0.115681596 0.1744247 -0.020007728 0.10457066 -0.06682985 0.0022103023
-0.32868925 0.14017731 0.030753667 -0.11609791 0.09375584 -0.20855999 0.03975106 0.26427326
0.110566795 0.027104048 0.014246257 0.015450335 0.16083223 0.17390102 0.114135124 -0.15779948
0.20161806 -0.18115291 0.21224444 0.007185275 0.205838 0.022504868 0.15770347 0.026288902
0.052646816 0.105967835 0.14627366 -0.1769653 -0.09025672 0.07960884 0.092635475 0.10361849
0.05873243 0.111948945 -0.17134136 0.20185506 -0.0780273 0.10598285 -0.28997242 0.064771526
-0.01298753 0.18117578 -0.14086246 -0.1659961 0.109522365 -0.0939816 0.027093302 -0.138998
0.246378 0.17486846 0.11377446 0.03810706 0.119855314 0.17620367 0.12799808 0.006902678
-0.18445717 -0.27743664 -0.061358143 -0.091811374 -0.06470016 -0.06951394 -0.057769693 -0.029311353
0.16181785 -0.061278187 -0.07043579 -0.05033418 0.059584122 -0.09377527 0.12706678 -0.2433878
-0.12911554 -0.24269392 0.095325775 0.16037543 0.25538868 -0.14647509 0.21274324 0.21936515
-0.09496129 0.07736255 0.20265393 -0.08169131 0.0014511 -0.047291473 -0.15502784 -0.011589459
-0.2740248 0.124407895 -0.0654629 -0.27161148 0.19452006 0.15346335 0.0017436353 -0.20491923
0.16049714 -0.0022461421 0.24732491 -0.1029697 0.14514342 0.09006987 0.07766713 -0.35173875
-0.28908142 0.04890783 0.009685751 0.12485241 0.080331825 -0.13459331 0.033401314 -0.13955238
-0.041294567 -0.17733644 0.11764462 -0.15958892 0.03032345 -0.16452563 -0.10385915 -0.060152162
-0.14136784 -0.23624758 -0.1579794 -0.2148021 0.18382122 0.13843368 0.029450504 0.16845891

transformer_encoder.layers.0.linear2.bias f4 [20]
00000000: 3902 e33d a6e5 4a3c f783 563e a2b1 903b
00000010: eb23 0e3e de4a f93c 3fe8 dabc ff17 05be
00000020: 65df d73a 2c10 3dbd 3404 523e f240 11bd
00000030: e61c 443d 3e85 8b3d 78cb 16bc d652 62bd
00000040: 5ee4 1b3e 67c7 5dbd ee44 413e d1d1 e4bd
0.11084408 0.012383854 0.20948778 0.0044157067 0.13880889 0.030431207 -0.026722072 -0.12997435
0.0016469775 -0.046158 0.20509416 -0.035462327 0.047879122 0.06812523 -0.009203784 -0.05525478
0.15223834 -0.054145243 0.18873951 -0.11172832

transformer_encoder.layers.0.norm1.weight f4 [20]
00000000: 5f2b ac3f 89ec 9b3f 4ecd 8b3f 4e37 963f
00000010: bed9 803f 869b 9a3f 0421 893f d240 6d3f
00000020: ec76 833f 17f4 7c3f fec1 7e3f 7324 863f
00000030: 1ec3 653f e07d 6e3f a0f5 7a3f 954a 483f
00000040: c9be 713f 10be 883f e5f2 7a3f 0292 7c3f
1.3450736 1.218156 1.0922029 1.1735628 1.006645 1.2078712 1.07132 0.9267703
1.0270667 0.9880995 0.9951476 1.0479873 0.8975085 0.9316082 0.98031044 0.78238803
0.9443174 1.0683002 0.9802688 0.9866029

transformer_encoder.layers.0.norm1.bias f4 [20]
00000000: 8914 eabc 5ba6 683d 12f0 373d a4d5 833c
00000010: bde4 d03c 5bec 2b3d c6f0 84bd d1c7 643d
00000020: 521c 1c3c f48b 6abd f6c2 2e3d 48d5 09bd
00000030: 1db5 7e3d cb7e 3bbd d048 4a3d 3b59 32bd
00000040: 4c8e 893c 8a17 72bd 9e0c 453d f094 51bd
-0.028574245 0.056799274 0.044906683 0.016093083 0.025499696 0.041973453 -0.064912364 0.055854622
0.009528236 -0.057262376 0.042666398 -0.033650666 0.06218444 -0.045775216 0.049385846 -0.043542128
0.016791485 -0.05910448 0.048107736 -0.05116743

transformer_encoder.layers.0.norm2.weight f4 [20]
00000000: 31b6 b33f 825a 693f 8e73 913f 89a8 813f
00000010: e37b 893f 8d2d 803f 5b3b 913f 516f 703f
00000020: f67d 8a3f c4e9 873f 55c4 763f 1600 8c3f
00000030: 1d14 653f b99d 783f 28a3 7b3f c2b0 503f
00000040: ace6 743f 1c70 8f3f 4f98 803f 30cd 893f
1.4039975 0.9115373 1.136339 1.0129558 1.0740932 1.0013901 1.1346239 0.93919855
1.081969 1.0618215 0.9639333 1.0937526 0.89483815 0.97115666 0.9829583 0.8151971
0.9566448 1.1206088 1.0046481 1.0765743

transformer_encoder.layers.0.norm2.bias f4 [20]
00000000: e813 353c 4a4f 8e3d 660f 9a3d 1681 a13d
00000010: 7d82 853b 2925 8bbb 7ac8 66bd 9da3 b63d
00000020: f0ef 1f3c df34 74bd ee5d 143d c90c dcbc
00000030: 6fd7 f63c 6c4a 4abb 9b29 a53d e5e1 ca3c
00000040: e1d8 b2bc d66e 75bd 10bf 493d 538c 2abd
0.011052109 0.06948717 0.07522468 0.07885949 0.0040743933 -0.004246373 -0.056343533 0.089179255
0.009761795 -0.059620734 0.03622239 -0.026861565 0.030132024 -0.0030867113 0.08064576 0.024765918
-0.021831932 -0.059920155 0.049254477 -0.04163773

transformer_encoder.layers.1.self_attn.in_proj_weight f4 [60, 20]
00000000: 15d9 0ebe b80f 8abe 0788 5b3e bafb 563d
00000010: 3fdb 333e 0eea 773d 9e9e 23be de15 ec3d
00000020: 46d5 0f3d ce07 4f3d 3f49 4abe dbc2 7a3e
00000030: 8e66 8fbe 46a6 373e bef3 813e b3e5 8a3e
00000040: 78e0 a83d 0ed7 d2bd 7dc9 ecbb 8892 7c3c
00000050: 53e2 673e 4e71 8fbc 04da 7ebe 6601 c83d
00000060: 56d5 9b3d 2cd5 df3d 4694 283e de70 8dbd
00000070: 1e30 573e b9c6 0fbd 7933 82bb d787 93bd
00000080: bc3e cc3d c432 98bd 50d6 623e ae33 203e
00000090: ce14 863e de35 a53c 46df 2b3d 33bc 13be
000000a0: 8d60 583e b80b 7cbe 42ec ca3c ef44 8cbd
000000b0: 6001 753e ee51 6bbe 3eef 2a3e 51f6 83be
000000c0: 3b82 ba3c 6fae dabd e64a 41bd 0c9e 45bd
000000d0: 0c9d 063d a92f 46be ff61 ca3d 0de5 28be
000000e0: ba0a 72bd 992b 9cbe b880 aebd 3403 ba3c
000000f0: 3a5c 553d 0b50 573d 363d 2bbe b419 8d3d
00000100: 9e4b 7e3e 8385 303e dda8 babd 56cf 103e
00000110: 8f80 793c 11dc 253c e879 643d e793 fa3d
00000120: a352 6bbe 6085 afbd e014 883c f779 2d3e
00000130: 9932 4cbe 403e e6bd 7af9 3cbc f42e b13d
00000140: 1a5f 87be b2f9 173e d13f 36be 221a 6d3e
00000150: f62f 73bd a302 48bd 230a cd3b e060 f6ba
00000160: 2c46 663e 12cd 213e 7ef7 6abe 0b9d 213e
00000170: cc7b 363e 242f 99bd 2984 4cbe 0a02 b0bd
00000180: ca6b 64bd e93c 483d dc0b dd3c 54cd 633e
00000190: ba21 81bd 36de 49bd d260 503e 290c 7dbe
000001a0: e926 c53d 9cd6 233d 11bf b83c 6c0f 4a3e
000001b0: 78ac 39be b497 1fbe ee39 cc3d 8923 503e
000001c0: 6a16 2fbd 0cfe 4bbd b118 77be 0447 143e
000001d0: 1da6 13be 2e04 5bbe 86ab 8dbd f7ca 41bd
000001e0: 87a9 99bd 1ceb dd3d 84fc ee3d 0bb7 3b3d
000001f0: 30ed 2dbe ee06 febd 2122 3abd ac8d 04be
00000200: c614 34be 275c 0d3e b9b7 f1bd 7290 ad3d
00000210: 96a3 83bd d0e4 033e 05d3 2ebe 4d0f 473e
00000220: 2553 2f3e b3de 02be b2a4 86bb 3abd 04be
00000230: ebc9 823d 45d4 4dbe 3e6d 1b3d f2ba ae3d
00000240: d8c1 a23e ca4a eebc f423 80be 161d 0abd
00000250: 07a1 25be 34cc 03be 36ea 753d 5e88 5dbe
00000260: 58ec 243e 50cf f13c 84c8 38be 06ad 2cbe
00000270: 4d06 c53d 9779 e0bc 8ca7 8cbd 763c febd
00000280: 6630 2b3e 9dcc 7ebd da7d 5bbd ac30 313e
00000290: f895 fd3d dbfc bfbd 4bb9 7bbe 3d32 403e
000002a0: 9dc7 85bb 0850 213e e4b4 30bd ae51 2a3d
000002b0: e3fc 5f3e 8588 0cbe 6663 e33d f716 243e
000002c0: dd28 103e 766e 5bbe bd7e 823e 39a5 143e
000002d0: 7bab 19be f251 85bd a198 fc3d 9d2f fd3d
000002e0: 18fa 473e 61dd 4ebe 4a0e cbbd a5b1 1d3e
000002f0: b33d cebd 2ac7 0bbe ef81 19be 1d10 dabd
00000300: 2025 3a3e 181b f4bc 5071 bb3c 3192 9a3b
00000310: a7ee 36be 8a62 89bd c1fb 9cbd fdf5 c43c
00000320: 57e6 0dbe b5fa 69be 7d07 9ebb 3fd8 14be
00000330: 3ff4 af3c 5cdb ba3d f82e 833d 23ab 2bbe
00000340: 70ca 3b3e 648d 2e3e da03 d13d ad6d 2bbc
00000350: c216 48bc 5261 a33c fcb3 92bd fec4 44bb
00000360: 708f d53c 6966 803e 98d4 e43d 4b7f e63d
00000370: 03c9 eebc 89d2 74be b720 89be 3470 5cbe
00000380: 5f4b 3e3e 34ef b9bd eb84 a4bd c63b 273d
00000390: 17f4 363c d50e 513e 6b31 04be 81a0 c33c
000003a0: d007 20be eb50 7ebd 408a 34be cd5d 0e3e
000003b0: 9332 a23d 9977 0b3d 3f18 6c3b 595b 8cbe
000003c0: dc4e 9a3e 9efa f03d 88c8 6f3e cc98 85be
000003d0: aff6 3abe f760 edbd c474 81be 7b77 a93d
000003e0: 3a01 92bd 7b73 33be eeff 0c3e aa70 463c
000003f0: 9f00 8b3e e8b6 5e3e 6060 8a3e d410 04bd
-0.13949998 -0.26965117 0.21438609 0.05248616 0.17564104 0.060525946 -0.15978476 0.11527608
0.035115503 0.050544553 -0.19754504 0.24488394 -0.2800793 0.17934522 0.25381273 0.27128372
0.08245939 -0.10294925 -0.0072261677 0.015415795 0.2264493 -0.017510083 -0.24887854 0.09765892
0.0760905 0.10929331 0.16462812 -0.06906293 0.21014449 -0.035101626 -0.003973421 -0.07203644
0.09972903 -0.07431558 0.22152066 0.15644714 0.26187748 0.020167287 0.041960977 -0.14427261
0.21130581 -0.24613845 0.02477086 -0.068490855 0.23926306 -0.22980472 0.16692826 -0.25773862
0.022767177 -0.10677802 -0.04719057 -0.04824643 0.032864615 -0.19354118 0.098819725 -0.16493626
-0.05909226 -0.30502012 -0.08520645 0.022706605 0.052089907 0.05256657 -0.16722569 0.06889668
0.24833533 0.1723843 -0.09114239 0.14141592 0.015228405 0.010123269 0.05578032 0.122352414
-0.22980742 -0.08570361 0.016611516 0.16941057 -0.19941176 -0.11242342 -0.011534089 0.08651534
-0.26439744 0.14841345 -0.17797782 0.231545 -0.05937191 -0.04883064 0.006257312 -0.0018797182
0.22487706 0.15800884 -0.22945973 0.15782563 0.17820662 -0.074796945 -0.1997229 -0.08594139
-0.05576686 0.048886213 0.026983194 0.22246295 -0.06305261 -0.049284182 0.20349434 -0.2471167
0.09626562 0.03999959 0.022552045 0.19732445 -0.18132198 -0.15585214 0.09971987 0.20326056
-0.042745985 -0.049802825 -0.24130513 0.14480215 -0.14418836 -0.21388313 -0.06917481 -0.047312703
-0.07503038 0.10835859 0.11669257 0.04582886 -0.16985011 -0.124036655 -0.045442704 -0.12944669
-0.1758605 0.13804685 -0.118026204 0.084748164 -0.06427686 0.12880254 -0.17072685 0.1943943
0.17121561 -0.12780266 -0.0041089887 -0.12962809 0.06386169 -0.20100506 0.03794598 0.08531751
0.31788516 -0.029088397 -0.2502743 -0.033719145 -0.16174708 -0.12870866 0.060037814 -0.21634051
0.16105783 0.0295178 -0.1804524 -0.16862878 0.096203424 -0.027401729 -0.068678945 -0.12413876
0.16717681 -0.062206853 -0.05358682 0.17303723 0.1238212 -0.093744 -0.24582402 0.18769164
-0.0040826336 0.15753186 -0.04314126 0.041581802 0.21873812 -0.13723953 0.11102943 0.16024385
0.14078088 -0.21428856 0.2548732 0.14516152 -0.15006821 -0.065097705 0.12333799 0.12362597
0.19528997 -0.20201637 -0.09914835 0.15399797 -0.10070362 -0.13650194 -0.14990972 -0.106476046
0.18178225 -0.029798076 0.02288118 0.0047171344 -0.17864476 -0.06708248 -0.07665206 0.024043078
-0.13857399 -0.22849543 -0.00482267 -0.14535616 0.02147877 0.09123871 0.06405443 -0.16764502
0.18338943 0.17046124 0.10205813 -0.01046316 -0.012212457 0.019943867 -0.071632355 -0.0030024643
0.026069373 0.25078133 0.111733615 0.11254748 -0.029148584 -0.23908438 -0.26782772 -0.21527177
0.1858344 -0.090788275 -0.080331646 0.04082849 0.011166594 0.20415814 -0.12909476 0.023880245
-0.1562798 -0.06208889 -0.17630863 0.1390297 0.079198025 0.034049604 0.0036025194 -0.27413443
0.3013829 0.117665514 0.2341634 -0.26093137 -0.18258165 -0.1159076 -0.25284398 0.08274742
-0.0712914 -0.17524521 0.13769504 0.012111822 0.2714891 0.2174946 0.27026653 -0.03224261

transformer_encoder.layers.1.self_attn.in_proj_bias f4 [60]
00000000: 5ba8 4b3c 5abd 073c c13a f13c 4faa 8fbc
00000010: 188b 98bc f308 5d3d c443 04bb 4eb3 983c
00000020: 7470 113d d56d bfba 2c7d 35bc 306e 14bd
00000030: 91d2 b03b d266 15bb 7327 e93a 6c7a 0abb
00000040: 69d3 1dbc aa34 8ebd 11cf 80bb 628b 473d
00000050: ff46 5bb0 2277 d7b0 67ba 9830 c68f b3b0
00000060: edf1 dcb0 fd8e 8131 f433 8030 d560 f731
00000070: 06d5 f02e 085c bb2f 43a6 f1b0 1e15 67b1
00000080: 98d0 2930 8e26 0db0 6dc8 86b1 f804 2fb1
00000090: 0016 1831 8d5e 61b1 8c81 4fb0 960b f4b0
000000a0: 546c cd39 72d5 54bd f088 c13c db76 2cbc
000000b0: 010f 8c3d f410 40bc 8092 013c 8f38 d73c
000000c0: 5a4f 5a3d 936a 31bc c59d 6a3c 66b6 163c
000000d0: 0ca8 9dbc 5c4f babc 100b 70bd 2645 a6bc
000000e0: 1b89 263d 3838 0a3c 694a 02bd 5aff 583c
0.012430276 0.008284891 0.029446961 -0.017537264 -0.018621013 0.053963613 -0.0020181993 0.018640187
0.035507634 -0.0014604876 -0.011077207 -0.036237895 0.005396195 -0.0022796881 0.0017788246 -0.0021130098
-0.009632924 -0.069436386 -0.0039309342 0.04871691 -7.977263e-10 -1.5677168e-09 1.1112434e-09 -1.3064827e-09
-1.6075866e-09 3.77065e-09 9.327992e-10 7.1996547e-09 1.0951777e-10 3.4080494e-10 -1.7582312e-09 -3.3626928e-09
6.177827e-10 -5.135029e-10 -3.922699e-09 -2.5468676e-09 2.2131417e-09 -3.2795555e-09 -7.549026e-10 -1.775663e-09
0.00039181358 -0.05196137 0.023624867 -0.010526384 0.06838799 -0.011722792 0.0079084635 0.026272086
0.05329833 -0.010828632 0.014319842 0.009198761 -0.01924517 -0.02274292 -0.0586043 -0.020296644
0.040658098 0.008436255 -0.031809244 0.013244474

transformer_encoder.layers.1.self_attn.out_proj.weight f4 [20, 20]
00000000: d9fa d83d 1863 56bc 23c8 54bd 2288 023e
00000010: a5d7 cb3e 85a8 09be 0942 3c3e 32a9 5b3d
00000020: d274 32be 8bda 053e 99e9 5dbe 0da4 283c
00000030: cb53 bfbd 9367 423b e0b7 593d 8f5d 8fbe
00000040: 11ce bc3c 1836 573d 7a30 8e3e 4692 563d
00000050: 453e c93d 79ba 0fbe 9429 983d 9cbf a73d
00000060: f045 f63d 8116 42bd 834f 9abe 1301 64be
00000070: ea44 93be 884a 64bd 3256 38bd e174 d53d
00000080: 4ac6 fa3d c815 a2be 3a64 d2bd 5027 e5bc
00000090: 28ac 58bd 1339 743c e709 8b3d eec5 abbd
000000a0: 2e5a 06be 4fd3 1d3d 4cc2 acbd 5532 62be
000000b0: 2909 193e 1ebb a8bd dec5 2bbe 18a9 e43c
000000c0: d8a2 8dbe 40ad 06be 95f4 4dbe f04c 3abe
000000d0: 3469 b43d cdee 11bd 3850 263d 6389 89bd
000000e0: ac71 183e e0da 0c3c 1e23 603d cfc6 c9bd
000000f0: 7bf9 f73c 3e11 013c aa9e c73c 201f d03c
00000100: be96 2b3e 48f1 5ebe ca8f db3d 23c4 233d
00000110: b2b0 e63d c044 8e3d 8d87 183d c190 06be
00000120: 87d1 973d d4b3 053e 0c3a bd3e 1850 17be
00000130: c388 cdbd ec69 453d debf e8bc 0f27 443e
00000140: d33e c6bb 7980 9c3c 2421 5ebe 91a1 21be
00000150: da43 8f3c 6230 e8bd 5f30 0a3e 1916 05be
00000160: dc5d 193e c658 583d 2876 83bd 61d1 cf3d
00000170: 80c5 2bbe d587 383e 46a3 f0bd 6bec 18be
00000180: af95 8e3d 034b f63d 1c0a 133e eeb4 2bbd
00000190: a16e 4c3e 1d0e e73c 4a49 42be b7bf 373d
000001a0: 870a ab3d 04f6 03be e635 9abe 5b17 2fbe
000001b0: 777b 8dbd e984 973e 03e8 8fbe 2f2a 503d
000001c0: 2c27 05be 30d6 aabb dc44 353e e4da 0b3e
000001d0: acd8 b4bc d24e fcbd 43a7 f53d cd79 0fbe
000001e0: 4fed c53d 0122 bbbd 0d9f 24be 9e90 163d
000001f0: e401 313e 2762 40be 65ea 403e f223 c73d
00000200: 07fe cb3e ffbc 5c3e fbf2 c13d 1308 593d
00000210: 3d39 0f3e c85a f73d 5338 a8be 7517 fd3d
00000220: 5a6a ab3c c59e 803b d40b 0abe c9ee 3fbe
00000230: b0ce 8c3d 92d4 0fbe 9041 223e 4610 b2bc
00000240: 899e de3d a58d 9dbd 151a b2bd 0837 fd3d
00000250: d352 a33d 8d6c 0fbe 09b2 35be 76dc 25be
00000260: 034c 353e 1066 17be ae22 c7bc e933 e2bc
00000270: cd49 903d f66b 253e 743d 9ebc 9d3d bbbd
00000280: a6c6 b43d 6a93 fa3d 58e7 843e 0061 9abc
00000290: 3d97 95bd d136 f63d b842 ecbc e2e0 4d3e
000002a0: 6cd7 1e3d 8527 09be b485 48be 6c74 09be
000002b0: a7bc 89bd 9b3a 153e 0a26 22bb 8ad1 183e
000002c0: 8af6 9dbb ecba 243e 4b8b da3d f0c8 22be
000002d0: 488a 193e f32b 1ebe 9f6e 813e b725 52be
000002e0: a488 d73d d78e 603d 424e 113e a24d c73d
000002f0: 79e9 603e 605c 25be 331c f43d 6f11 f73c
00000300: aad4 1dbe 6c73 a33c 4962 72bd 56f7 903d
00000310: 71d5 fdbd b43a b93d c305 27be 7e21 5fbe
00000320: 3991 5f3e e99d 13be d2ee ca3c f886 1f3d
00000330: 6d96 9b3d b819 19bd 14c2 443e dbb2 9d3d
00000340: 8dfb 97bd d7f1 163b 6dc0 263c a2f8 34be
00000350: 08c0 273d cb12 79bc c0b1 713d fa9c 653e
00000360: 8ad6 dd3c cac2 2c3e e4f8 693c fd70 593c
00000370: 9d3d 2d3e f996 b73d c57e 44bc 7d10 87be
00000380: d5f2 39bd 78a6 c1bd e1cb f4bd c739 a63d
00000390: b2cc 8e3e a897 a4bd 6f1e 54bc 1d67 6e3b
000003a0: 971a c0bc 52a1 ff3c 35ea 8abb 067e 003e
000003b0: d4f9 6ebe 3f66 47be 1a95 a73d aecd f53c
000003c0: 9823 21be 4430 9bbd d92a 6c3e 9a30 20be
000003d0: 47f6 66be 486b cf3d 3d40 073e 5979 323e
000003e0: 1581 0ebe e411 4e3e d21e 663e 43da 14bd
000003f0: 07d3 1c3d 91fb 843e 99ae 42bc a03e 8b3e
0.105947204 -0.013085149 -0.051948678 0.12747243 0.3981296 -0.13443191 0.18384565 0.053628154
-0.17427376 0.13071649 -0.21671142 0.010293019 -0.09342154 0.0029663786 0.053153872 -0.28001067
0.023047479 0.052541822 0.2777136 0.05238559 0.0982633 -0.14035977 0.074298054 0.081908435
0.12025058 -0.047384743 -0.30138788 -0.22266035 -0.28763515 -0.05573514 -0.045004077 0.104226835
0.12244852 -0.31657243 -0.10273023 -0.027972847 -0.052898556 0.014906186 0.06788998 -0.083873615
-0.13120338 0.038531598 -0.08435497 -0.22089513 0.149449 -0.08238815 -0.16774699 0.027912661
-0.27663302 -0.13152027 -0.20112832 -0.18193412 0.088091284 -0.03562813 0.040603846 -0.067156576
0.14887112 0.008597106 0.05472099 -0.09852373 0.030270329 0.007877646 0.02436765 0.025405467
0.16756722 -0.21771729 0.10720785 0.039981972 0.11264171 0.06946707 0.037238646 -0.13141157
0.07413011 0.1305688 0.3695835 -0.14776647 -0.10035851 0.048196718 -0.028411802 0.19155525
-0.0060499697 0.01910423 -0.2169233 -0.15784289 0.017488409 -0.11337353 0.13495015 -0.12996711
0.14977211 0.052819036 -0.06419021 0.10147358 -0.16774559 0.18020566 -0.11749892 -0.14933936
0.06962144 0.12026026 0.14359325 -0.041920595 0.19964077 0.028204972 -0.1897327 0.044860568
0.08351617 -0.12886816 -0.30119246 -0.17098753 -0.06908315 0.2959359 -0.28106698 0.05082148
-0.13003224 -0.0052135214 0.17702049 0.13657719 -0.022075973 -0.12319721 0.11994793 -0.14011307
0.09664404 -0.09137345 -0.16076298 0.03675901 0.17285877 -0.18787442 0.18839414 0.09723653
0.39842245 0.21556471 0.09470173 0.052986216 0.13986678 0.12077862 -0.32855472 0.1235799
0.020924736 0.003925177 -0.13481075 -0.18743433 0.0687536 -0.14045933 0.15845323 -0.021736275
0.10870082 -0.07693032 -0.08696381 0.12364012 0.07974782 -0.14006253 -0.17743696 -0.1619738
0.17704777 -0.14785028 -0.024308529 -0.027612643 0.070453264 0.16154465 -0.019316413 -0.09142611
0.08826952 0.12235148 0.2595775 -0.018845081 -0.07304237 0.12022174 -0.028840408 0.20105317
0.03877966 -0.13393982 -0.19582254 -0.13423318 -0.06725436 0.14573137 -0.0024741911 0.14923683
-0.0048206495 0.1608693 0.10671099 -0.15896964 0.14994156 -0.15446453 0.2527971 -0.205222
0.10524109 0.054823723 0.14190009 0.09731604 0.21964063 -0.1614852 0.11919441 0.03015968
-0.15413156 0.019952498 -0.059175763 0.070784256 -0.12394226 0.090444 -0.16310792 -0.2179012
0.21832742 -0.14415707 0.024772082 0.038947076 0.07597051 -0.037378043 0.1921466 0.077001296
-0.074210264 0.0023032331 0.010177714 -0.17672971 0.04095462 -0.0152022345 0.059007406 0.22423163
0.02707984 0.16871181 0.014280532 0.013271567 0.16918035 0.089643426 -0.011993115 -0.26379767
-0.0453976 -0.094555795 -0.11952949 0.08116489 0.27890545 -0.08036739 -0.012946709 0.0036377378
-0.023450179 0.031204853 -0.0042393454 0.12548074 -0.2333749 -0.19472598 0.08182736 0.030005302
-0.15736234 -0.07577565 0.2306322 -0.1564354 -0.22554885 0.10127884 0.13208099 0.17429103
-0.13916428 0.20124012 0.22472695 -0.036340963 0.03828719 0.2597318 -0.011882448 0.27196217

transformer_encoder.layers.1.self_attn.out_proj.bias f4 [20]
00000000: 6315 763d 25fd 1e3d 5689 f6bc 9885 443d
00000010: 61b1 55bd 7db9 49bd 7c33 b5bc 535c 3f3d
00000020: d87a 5f3c 4539 623d 17f7 be3b e112 1bbd
00000030: dc6f 17bd 3fe2 50bd f47e 3e3d 8d8a 54bc
00000040: 9ac3 33bd 6507 023c b6b3 4abc a5aa d43c
0.06007899 0.038815636 -0.030094784 0.047978967 -0.052171115 -0.04924916 -0.022119276 0.046718907
0.013640128 0.055230398 0.0058277952 -0.0378598 -0.03697191 -0.050997015 0.04650779 -0.012972486
-0.043887712 0.007936333 -0.012371948 0.025960276
