model_epoch_90.pt (torch, 431970 bytes, 28 tensors)

pos_encoder.pe f4 [5000, 1, 20]
000000 00 00 00 00 00 00 80 3f 00 00 00 00 00 00 80 3f
       0.0 1.0 0.0 1.0
000010 00 00 00 00 00 00 80 3f 00 00 00 00 00 00 80 3f
       0.0 1.0 0.0 1.0
000020 00 00 00 00 00 00 80 3f 00 00 00 00 00 00 80 3f
       0.0 1.0 0.0 1.0
000030 00 00 00 00 00 00 80 3f 00 00 00 00 00 00 80 3f
       0.0 1.0 0.0 1.0
000040 00 00 00 00 00 00 80 3f 00 00 00 00 00 00 80 3f
       0.0 1.0 0.0 1.0
000050 a5 6a 57 3f 41 51 0a 3f 3d 7d c6 3e da fa 6b 3f
       0.841471 0.54030234 0.38767424 0.92179644
000060 4e 9d 21 3e a0 ca 7c 3f 65 22 81 3d 97 7d 7f 3f
       0.15782663 0.9874668 0.06305388 0.9980101
000070 8a c0 cd 3c 53 eb 7f 3f 57 d6 23 3c b9 fc 7f 3f
       0.025116224 0.9996845 0.009999833 0.99995
000080 90 73 82 3b 7b ff 7f 3f 28 bc cf 3a eb ff 7f 3f
       0.0039810613 0.9999921 0.0015848922 0.99999875
000090 d4 66 25 3a fd ff 7f 3f f5 b1 83 39 ff ff 7f 3f
       0.0006309573 0.9999998 0.00025118855 0.99999994
0000a0 b7 c7 68 3f 33 11 d5 be 76 f7 36 3f 04 0d 33 3f
       0.9092974 -0.41614684 0.71471345 0.69941735
0000b0 c5 96 9f 3e 18 3f 73 3f 9d e0 00 3e e3 f6 7d 3f
       0.31169716 0.9501815 0.12585683 0.99204844
0000c0 ec af 4d 3d 51 ad 7f 3f 3e d4 a3 3c e5 f2 7f 3f
       0.0502166 0.99873835 0.019998666 0.9998
0000d0 4d 73 02 3c ec fd 7f 3f 17 bc 4f 3b ac ff 7f 3f
       0.00796206 0.9999683 0.0031697804 0.999995
0000e0 d2 66 a5 3a f3 ff 7f 3f f5 b1 03 3a fe ff 7f 3f
       0.0012619144 0.9999992 0.0005023771 0.9999999
0000f0 c3 81 10 3e 26 70 7d bf 48 12 6e 3f e5 3b bc 3e
       0.14112 -0.9899925 0.92996645 0.36764446
000100 ce 5e ea 3e a8 9a 63 3f b9 ac 40 3e 6f 6d 7b 3f
       0.45775455 0.8890786 0.18815888 0.9821386
000110 2d 2f 9a 3d 03 46 7f 3f 1f b9 f5 3c 83 e2 7f 3f
       0.07528529 0.99716204 0.0299955 0.99955004
000120 49 ac 43 3c 53 fb 7f 3f fc cc 9b 3b 42 ff 7f 3f
       0.011942931 0.99992865 0.0047546607 0.9999887
000130 36 1a f8 3a e2 ff 7f 3f ef 8a 45 3a fb ff 7f 3f
       0.001892871 0.9999982 0.00075356563 0.9999997
000140 cf bd 41 bf 30 55 27 bf ab f0 7f 3f ce 32 b1 bc
       -0.7568025 -0.6536436 0.99976605 -0.02163067
000150 72 a3 17 3f b0 41 4e 3f 8a b4 7f 3e d4 e3 77 3f
       0.5923377 0.8056898 0.24971214 0.96832013
000160 7d 6d cd 3d 7a b5 7e 3f db cb 23 3d 94 cb 7f 3f
       0.10030649 0.9949566 0.039989334 0.9992001
000170 3e 72 82 3c b1 f7 7f 3f d3 bb cf 3b af fe 7f 3f
       0.015923616 0.9998732 0.006339529 0.9999799
000180 c9 66 25 3b cb ff 7f 3f f4 b1 83 3a f8 ff 7f 3f
       0.0025238267 0.99999684 0.0010047541 0.9999995
000190 10 7c 75 bf 2c 3c 91 3e 28 c7 69 3f ce a6 d0 be
       -0.9589243 0.2836622 0.91319513 -0.40752262
0001a0 6e 4a 36 3f 2c bd 33 3f eb db 9e 3e aa 5d 73 3f
       0.7120732 0.7021053 0.3102716 0.95064795
0001b0 4f 45 00 3e cd fb 7d 3f f4 b6 4c 3d 19 ae 7f 3f
       0.12526439 0.9921234 0.049979165 0.99875027
0001c0 cf 0d a3 3c 04 f3 7f 3f 44 d5 01 3c f1 fd 7f 3f
       0.019904045 0.9998019 0.007924382 0.9999686
0001d0 74 c0 4e 3b ad ff 7f 3f 6f 9e a4 3a f3 ff 7f 3f
       0.0031547816 0.99999505 0.0012559424 0.9999992
0001e0 8c 0f 8f be b8 cd 75 3f 20 0d 2f 3f fd cb 3a bf
       -0.2794155 0.96017027 0.683794 -0.7296751
0001f0 a7 5f 50 3f 47 b7 14 3f b7 3b bd 3e 8f df 6d 3f
       0.81395954 0.5809216 0.3695962 0.9291925
000200 29 bf 19 3e 1a 19 7d 3f d1 9c 75 3d 12 8a 7f 3f
       0.15014328 0.98866427 0.059964005 0.99820054
000210 b7 a8 c3 3c 4e ed 7f 3f 88 cc 1b 3c 09 fd 7f 3f
       0.02388416 0.99971473 0.009509213 0.99995476
000220 19 1a 78 3b 88 ff 7f 3f eb 8a c5 3a ed ff 7f 3f
       0.0037857352 0.99999285 0.0015071308 0.99999887
000230 46 30 28 3f bd ff 40 3f fd e3 b1 3e 31 0d 70 bf
       0.6569866 0.75390226 0.34744254 -0.9377013
000240 c0 3b 65 3f 26 ee e3 3e b9 da da 3e 1a 6f 67 3f
       0.89544296 0.4451763 0.42744997 0.904039
000250 2d 20 33 3e 86 0d 7c 3f 32 3e 8f 3d 81 5f 7f 3f
       0.17492743 0.98458135 0.06994285 0.997551
000260 d4 42 e4 3c 8e e6 7f 3f b4 c3 35 3c f8 fb 7f 3f
       0.027863897 0.99961174 0.011094023 0.9999385
000270 db b9 90 3b 5c ff 7f 3f 65 77 e6 3a e6 ff 7f 3f
       0.004416687 0.9999902 0.001758319 0.99999845
000280 95 46 7d 3f f6 fd 14 be 31 28 31 bd ac c2 7f bf
       0.98935825 -0.14550003 -0.04325122 -0.9990642
000290 dc 58 74 3f 1d b7 98 3e c2 9a f7 3e db 12 60 3f
       0.9544809 0.29827204 0.48360258 0.8752877
0002a0 42 64 4c 3e 3c d9 7a 3f 50 aa a3 3d 66 2e 7f 3f
       0.1996012 0.97987723 0.07991469 0.99680173
0002b0 02 6e 02 3d c4 de 7f 3f c1 ba 4f 3c bb fa 7f 3f
       0.031843193 0.9994929 0.012678803 0.9999196
0002c0 a7 66 a5 3b 2a ff 7f 3f ef b1 03 3b de ff 7f 3f
       0.0050476375 0.99998724 0.002009507 0.999998
0002d0 32 01 d3 3e d5 3f 69 bf 5c b7 da be 75 77 67 bf
       0.4121185 -0.91113025 -0.42718017 -0.9041665
0002e0 00 56 7d 3f 39 58 13 3e 43 af 09 3f 52 d2 57 3f
       0.9895935 0.14389123 0.53783053 0.843053
0002f0 54 87 65 3e 6e 7c 79 3f 3e 12 b8 3d c2 f6 7e 3f
       0.22414905 0.9745549 0.089878544 0.9959527
000300 12 ba 12 3d f0 d5 7f 3f ad b1 69 3c 55 f9 7f 3f
       0.03582198 0.9993582 0.014263553 0.99989825
000310 6e 13 ba 3b f1 fe 7f 3f 2c 28 14 3b d5 ff 7f 3f
       0.0056785857 0.99998385 0.0022606952 0.99999744
000320 f8 44 0b bf 64 cd 56 bf 23 8a 3e bf 43 f8 2a bf
       -0.5440211 -0.8390715 -0.7442953 -0.6678507
000330 7d f9 7f 3f ba f4 66 bc e0 04 17 3f e6 b5 4e 3f
       0.99990064 -0.014096433 0.58991814 0.80746305
000340 53 85 7e 3e 54 f7 77 3f 76 75 cc 3d 98 b8 7e 3f
       0.24855547 0.9686177 0.099833414 0.9950042
000350 8a 05 23 3d 13 cc 7f 3f 39 d4 81 3c c5 f7 7f 3f
       0.039800204 0.9992077 0.015848266 0.9998744
000360 30 c0 ce 3b b2 fe 7f 3f 67 9e 24 3b cb ff 7f 3f
       0.0063095316 0.9999801 0.002511883 0.99999684
000370 5c ff 7f bf 72 05 91 3b 58 eb 71 bf c9 76 a7 be
       -0.9999902 0.004425698 -0.9449973 -0.32707813
000380 65 32 7c 3f 27 da 2f be 9f c0 23 3f e2 c6 44 3f
       0.98514396 -0.17173062 0.6396579 0.7686597
000390 1c ad 8b 3e 2d 4a 76 3f 72 d3 e0 3d e8 73 7e 3f
       0.2728051 0.96206933 0.1097783 0.9939561
0003a0 59 50 33 3d 2c c1 7f 3f 86 cf 8e 3c 0a f6 7f 3f
       0.043777797 0.9990413 0.01743294 0.999848
0003b0 ed 6c e3 3b 6c fe 7f 3f a2 14 35 3b c0 ff 7f 3f
       0.006940475 0.9999759 0.0027630706 0.9999962
0003c0 d8 5c 09 bf d0 06 58 3f 0b 76 7f bf e1 d0 84 3d
       -0.53657293 0.84385395 -0.99789494 0.06485153
0003d0 f5 18 72 3f 4d 6e a6 be 89 d5 2f 3f 63 0f 3a 3f
       0.9456933 -0.32506028 0.68685204 0.7267973
0003e0 fe 00 98 3e 3e 75 74 3f ac 2b f5 3d b5 28 7e 3f
       0.29688257 0.954914 0.119712204 0.99280864
0003f0 6d 9a 43 3d 3b b5 7f 3f ba ca 9b 3c 26 f4 7f 3f
       0.047754694 0.9988591 0.019017566 0.99981916

transformer_encoder.layers.0.self_attn.in_proj_weight f4 [60, 20]
000000 bc c4 19 be f0 c0 73 be cd 4c 5c 3e 25 90 7b 3d
       -0.15016454 -0.23804069 0.21513672 0.061416764
000010 b6 cc 3d 3e a8 4c a2 3d a0 62 39 be d0 81 fe 3d
       0.18535122 0.07924777 -0.18104029 0.124271035
000020 2b e7 34 3c f2 1e 38 3d c0 c2 4f be 23 26 73 3e
       0.011041443 0.044951387 -0.20289135 0.23745017
000030 80 b1 8a be ea 89 3a 3e 83 80 86 3e 64 6c 86 3e
       -0.27088547 0.18216673 0.26269922 0.2625457
000040 27 f2 9a 3d bb df de bd 4c d4 31 bc a4 02 40 bc
       0.07565718 -0.10882517 -0.010853838 -0.01171938
000050 3b a6 78 3e 6a b7 80 bd b4 f0 85 be c3 d1 ce 3d
       0.24282162 -0.062849835 -0.26160204 0.100986026
000060 02 46 72 3d 1f 8e dc 3d 94 42 26 3e 30 8c af bd
       0.059148796 0.10769295 0.16236335 -0.085716605
000070 d8 da 6d 3e fd e9 2f bd 8a 28 69 3a c2 c8 c0 bd
       0.23228014 -0.042947758 0.00088942854 -0.094132915
000080 69 2d cf 3d 56 c2 d2 bd 64 8a 6a 3e 41 2a 23 3e
       0.10116083 -0.10290973 0.22904354 0.15934087
000090 5f d2 86 3e 05 24 a9 3c 42 dc 15 3d 3b ee fa bd
       0.26332375 0.020647058 0.036587007 -0.1225247
0000a0 a3 4f 15 3e b2 12 13 be a5 c5 73 3c 2c 37 8a bd
       0.1458116 -0.143626 0.014878665 -0.067488045
0000b0 c0 b8 77 3e 2f 90 51 be d7 64 33 3e 42 7c 6a be
       0.2419157 -0.20465158 0.17518936 -0.22898963
0000c0 bd 87 9e bb 3d 50 aa bd a8 b0 74 bd ca 89 3d bd
       -0.0048379586 -0.083160855 -0.059738785 -0.046273984
0000d0 59 a3 43 3d 39 70 1d be d2 4c da 3d df f9 35 be
       0.047763202 -0.15374841 0.106591836 -0.177711
0000e0 67 6a 82 bd 24 92 90 be 72 54 b4 bd da 11 e7 bc
       -0.06367951 -0.28236496 -0.08805169 -0.028206754
0000f0 0a 08 d3 3d 4f c4 6a bc 5f 06 11 be c7 3b b2 3d
       0.10304268 -0.01432903 -0.14162587 0.08702808
000100 79 83 5b 3e f9 8b 1f 3e a8 aa e3 bd c2 99 d7 3d
       0.21436872 0.15580739 -0.111165345 0.10527374
000110 63 4a f9 3c b6 ab 38 bc 00 69 7c 3d 13 cd fe 3d
       0.030430978 -0.011271408 0.061623573 0.124414586
000120 2a e3 76 be db 72 05 be bf 27 ef 3c 0c 02 42 3e
       -0.24110094 -0.13032095 0.029193757 0.18946093
000130 14 b7 3b be e1 47 ff bd ad e9 86 bc d0 06 04 3e
       -0.18331558 -0.12464882 -0.016468847 0.12893224
000140 d9 4f 74 be d4 b4 e1 3d 04 70 36 be 49 5c 81 3e
       -0.23858584 0.11020818 -0.17816168 0.2526572
000150 cd c2 92 bd 15 3b 96 bd fb e0 55 bc f0 87 a3 bc
       -0.071660616 -0.07335488 -0.013054128 -0.019962281
000160 03 49 6f 3e 4a 9f 06 3e 10 e3 68 be 1d 5a 0c 3e
       0.23367696 0.13146701 -0.22742867 0.1370625
000170 aa bb 27 3e cc 0a de bd 25 c4 4c be 91 d3 b6 bd
       0.16380182 -0.10841903 -0.19996698 -0.08927072
000180 93 4f 62 bd 11 ca 1b 3d 7a 55 a5 3c ca 56 81 3e
       -0.05525167 0.038034502 0.02018236 0.25261527
000190 b8 b1 8f bd 99 f2 4e bd 64 1e 52 3e 57 0a 64 be
       -0.07016319 -0.050524328 0.20519406 -0.2226957
0001a0 09 4f 14 3d 8a ec 0e 3d 0d c6 84 3d 97 96 39 3e
       0.036208186 0.03489355 0.06483088 0.18123852
0001b0 7d 6a 49 be b2 1c f1 bd df 1b 81 3d 06 a3 59 3e
       -0.19669528 -0.11773051 0.06304144 0.21253595
0001c0 0e 6b 27 bd cb 67 a4 bd f1 54 70 be 52 51 32 3e
       -0.04087358 -0.080276094 -0.23469903 0.17413834
0001d0 fb 40 1a be 11 4b 26 be 46 62 e7 bd 3f 1a 8f bc
       -0.1506385 -0.16239573 -0.11298041 -0.01746857
0001e0 9c 47 d5 bd 47 36 c7 3d 10 7a 78 3e 51 d6 a5 3c
       -0.10414049 0.097271495 0.24265313 0.020243796
0001f0 a8 30 3e be b7 f5 10 be 7d 26 06 bd 0c 11 0b be
       -0.18573248 -0.14156233 -0.03275155 -0.13580722
000200 6d 30 6d bd d3 ed 0a 3e 5b a8 ad bd cd b8 f6 3d
       -0.05790751 0.13567285 -0.08479377 0.12046967
000210 b3 bd 0a bd cc 1a 17 3e 48 71 00 be aa 73 78 3e
       -0.033872318 0.14756316 -0.12543213 0.24262872
000220 db 32 61 3e 03 94 08 be 06 b4 5c 3b 06 4a e1 bd
       0.21992056 -0.13337712 0.0033676638 -0.11000447
000230 26 86 66 3e e8 a5 13 bf fb b4 59 3d 53 ca 93 3c
       0.22512111 -0.5767503 0.053151112 0.018040812
000240 95 3c 94 3e 17 bd f4 bc a9 2e 43 be 4e 8b 62 bd
       0.2895247 -0.029875321 -0.19060768 -0.055308633
000250 23 e3 e4 bd 80 70 81 bd 7b 18 67 3d 62 e3 36 be
       -0.111761354 -0.06320286 0.05641983 -0.17860177
000260 c4 a4 2a 3e 8b d5 d0 bc 63 43 5a be 77 25 0f be
       0.16664416 -0.02549245 -0.21314768 -0.13979135
000270 2a e1 db 3d 81 55 c9 3b 01 c5 04 bd 6a c2 d8 bd
       0.10736306 0.006144226 -0.03241444 -0.105839565
000280 e5 0f f3 3d 9a 70 eb 3d 9c c6 f6 bb 0d 6f 4e 3e
       0.11868266 0.114960864 -0.0075310003 0.2015955
000290 e6 48 e9 3d 19 7e ae bd 6d 30 8d be 7d 83 46 3e
       0.113908574 -0.08520145 -0.27576008 0.19386096
0002a0 cb 3f ba ba 18 92 03 3e 57 5a 03 bd d7 7e 85 3d
       -0.0014209686 0.12848699 -0.032068577 0.065183334
0002b0 99 da 64 3e 09 b7 98 bd 06 a2 15 3e 0e 37 43 3e
       0.22349013 -0.07456786 0.14612588 0.1906397
0002c0 96 fd 1b 3e eb 80 6b be 99 9c 80 3e 47 be 1b 3e
       0.15233454 -0.22998397 0.25119475 0.15209304
0002d0 3c d7 9b bd f0 cd 47 be ba d8 7d 3d fc bc d3 3d
       -0.07609412 -0.19512153 0.061974265 0.1033878
0002e0 5d e4 3b 3e 22 a7 24 be 4c 42 af bd 2e 53 0b 3e
       0.18348832 -0.16079381 -0.08557567 0.1360595
0002f0 be f5 29 be 1f fa d9 bd 42 d9 51 be 6f 2e fd bd
       -0.1659765 -0.1064341 -0.20493034 -0.12362372
000300 a9 16 27 3e e3 70 8e bd f8 c0 b1 bc 4a fc 5a bc
       0.16317238 -0.06955125 -0.02169846 -0.013365814
000310 38 1b 56 be a4 ad 37 bd 46 cb 86 bd 5e 82 34 3c
       -0.2090882 -0.04484333 -0.0658174 0.01101741
000320 42 95 2d be 5a 34 85 be f9 ce 3e 3d 87 b2 49 be
       -0.16951469 -0.26016504 0.046584103 -0.19697009
000330 b3 82 02 bc 15 b4 12 3e a0 3d ab 3c 06 f0 4a be
       -0.007965731 0.14326508 0.020903409 -0.19818124
000340 15 94 5c 3e 4d bf 14 3e 8c 19 fc 3d 42 19 11 3d
       0.21540864 0.145261 0.1230956 0.03542448
000350 2e 38 09 bd 58 8e 6f 3c 48 e3 46 bd f8 42 bc 3c
       -0.033500843 0.01462134 -0.048556596 0.022981152
000360 f9 a8 6a 3d 44 80 6d 3e c6 29 f1 3d f6 2e 07 3e
       0.05729005 0.2319346 0.11775546 0.13201508
000370 49 6b ac 3c 28 83 97 be 99 9a 49 be 19 3f 6c be
       0.021047251 -0.29592252 -0.1968788 -0.23070945
000380 67 5d 41 3e 40 35 ca bd 78 5c 1b be bc 9d 46 3d
       0.18883286 -0.09873438 -0.15171993 0.04849027
000390 4b 51 dc 3c 9c e6 1b 3e c5 b5 ce bd fc bb 49 3d
       0.026894232 0.15224689 -0.100932635 0.04925154
0003a0 48 f5 4c be 04 69 94 bd 07 65 34 be 07 12 00 3e
       -0.20015442 -0.07246593 -0.17616664 0.12506877
0003b0 14 18 d4 3d 68 5c b5 bc df a2 90 3c 44 20 8b be
       0.10356155 -0.02213879 0.017655788 -0.27173054
0003c0 8d d5 9a 3e 5c 06 05 3e d7 3f 62 3e d0 88 6c be
       0.3024105 0.12990707 0.22094665 -0.23099065
0003d0 0a 6f 42 be 4d db 14 be b5 d6 6f be 7f 1c bb 3d
       -0.1898767 -0.14536782 -0.23421748 0.091362946
0003e0 ad cb a7 bd 7d be 29 be 48 26 f6 3d e3 56 47 bc
       -0.08193145 -0.16576572 0.1201902 -0.0121667115
0003f0 fa 19 8c 3e b7 15 51 3e ec be 86 3e ce 1e 50 bd
       0.2736357 0.2041844 0.26317537 -0.050810628

transformer_encoder.layers.0.self_attn.in_proj_bias f4 [60]
000000 f3 0f 8d bc 77 6d 54 3b 7e 99 92 bb 22 bf 84 3a
       -0.01721952 0.003241388 -0.004473864 0.0010127763
000010 40 08 1d bc 84 5c 90 3c 2e b6 23 3d 87 23 2f 3d
       -0.0095844865 0.01762224 0.039968662 0.04275849
000020 c1 36 03 3d bf 41 1a bc a0 c5 b1 3c e2 59 5e bc
       0.03203464 -0.009415089 0.02170068 -0.013571234
000030 e9 5d 9e bc 55 f0 ca bc d4 e4 94 3c e8 d9 26 3c
       -0.01933189 -0.024772802 0.01817552 0.010183789
000040 3b ba 30 bc a3 fa 2f bd d0 8d b5 3b c7 94 4e 3d
       -0.010786588 -0.042963635 0.005540587 0.050434854
000050 8e 45 3c b1 b4 9e 68 30 d7 5c 63 ad 1b 4d 1d b1
       -2.7397138e-09 8.462664e-10 -1.2924071e-11 -2.2890336e-09
000060 f6 b4 05 31 58 e2 8c 32 65 13 c6 31 48 64 81 31
       1.9456912e-09 1.6401074e-08 5.7647633e-09 3.765795e-09
000070 dc 59 07 32 43 35 9e 31 6f 0b 1d 2f dd 64 d3 2f
       7.878466e-09 4.6044604e-09 1.4283129e-10 3.8452344e-10
000080 00 a6 83 2f 8a 23 6e b0 f8 9a 83 b1 ad 13 67 31
       2.394671e-10 -8.66344e-10 -3.8302197e-09 3.3626109e-09
000090 61 e5 c2 b1 8d 94 7f 31 bc 43 4f 31 e0 ff 24 31
       -5.6722205e-09 3.7191825e-09 3.0160967e-09 2.401059e-09
0000a0 bc 73 43 bd b3 44 51 3d 52 4e cc bc 1e 43 83 bc
       -0.047717795 0.051090907 -0.02493969 -0.016023215
0000b0 8b 00 6c 3d 16 1b af 3d bc e3 e8 3b 81 9d 83 3d
       0.057617705 0.08550088 0.007107226 0.06426526
0000c0 e5 7d 63 3d fa 2a 13 3c 8f e7 93 bc ce 09 59 3c
       0.055539984 0.008982414 -0.018054752 0.0132469665
0000d0 b3 98 88 bd 75 4e 93 3d 65 4f 92 3c 19 19 91 3d
       -0.0666975 0.07192699 0.017860124 0.07084865
0000e0 dd 26 30 3d 3e 21 2e 3d 72 30 33 3c 21 72 73 bc
       0.043005813 0.04251217 0.010936843 -0.014858753

transformer_encoder.layers.0.self_attn.out_proj.weight f4 [20, 20]
000000 e3 cf 07 3e 50 d5 e7 bd 4f 28 b5 bd e4 ec 1b 3e
       0.13262896 -0.11319983 -0.08845579 0.15227085
000010 90 72 88 3e 19 4f 6f 3d d0 bc da 3e a3 a5 f5 3d
       0.26649904 0.058425043 0.42722178 0.11994483
000020 0e 28 83 bd 0e e8 93 3d ff 54 3f be c4 04 5b 3d
       -0.06404124 0.07221995 -0.18684767 0.05347134
000030 18 20 44 bc 50 b1 9b bc 01 ca a7 3d d5 52 bd be
       -0.011970542 -0.019005448 0.08192826 -0.36977258
000040 9b 1d 01 3e 2d 44 b6 3d fe d4 bb 3e 06 a1 c0 3d
       0.1260895 0.08899722 0.36685938 0.09405713
000050 d9 ad 17 3e 18 4a ab bd 98 78 90 3d 7a df 64 bd
       0.14812411 -0.08363742 0.070542514 -0.055877186
000060 13 8f c0 3d eb 15 6a bd e9 03 8c be c3 4f 30 be
       0.09402289 -0.05714981 -0.27346733 -0.17217927
000070 32 50 1c be dd 9d 95 bd 93 e5 28 bd c9 98 8b 3d
       -0.15264967 -0.07305501 -0.041234564 0.06816251
000080 1d 29 02 3e 29 f8 4b be 79 e9 cf bd 7b ec 8c 3d
       0.12710996 -0.19918884 -0.10151953 0.068810426
000090 6a 59 9b bd 35 5d 5d 3d 34 9c 31 3d 7e e1 c1 bd
       -0.07585414 0.054043967 0.043361858 -0.09466837
0000a0 d8 77 1f be 9c 08 12 bd 77 07 c1 bd 8c 37 16 be
       -0.1557306 -0.03565274 -0.09425252 -0.14669627
0000b0 35 36 31 3e 94 31 1f be 9b c0 40 be 4f a7 a1 3c
       0.17305835 -0.15546256 -0.18823473 0.0197331
0000c0 2b c6 5d be 12 be 17 bd 07 10 0a be e0 ae 1c be
       -0.21657626 -0.0370465 -0.13482676 -0.15301085
0000d0 7f 22 88 3c e0 0e a3 3d 02 da f0 3c 11 bd 3a be
       0.016618012 0.079618216 0.02940083 -0.18236186
0000e0 fd 4f 17 3e be 79 dd bd 89 23 ce 3d 32 22 65 be
       0.14776607 -0.10814236 0.100653715 -0.22376326
0000f0 1c df 5f 3d db 5d 31 bd b0 9a 84 3c 57 1f fc 3b
       0.054656133 -0.0433024 0.016187042 0.0076941657
000100 a2 e1 4c 3e de d5 86 be 43 e4 e7 3d 91 37 a5 bc
       0.20007947 -0.26335043 0.11322834 -0.020168098
000110 27 00 02 3e f8 d0 96 3d 01 62 89 3b 69 75 e8 bd
       0.1269537 0.073640764 0.004192591 -0.11350519
000120 7b b0 f9 3d 8e 8c 82 3d 25 4b a3 3e 2c 54 18 be
       0.12191864 0.06374465 0.31893268 -0.14875859
000130 45 d6 cc bd 3d bc b3 3d 91 73 0b ba a8 83 8d 3e
       -0.10001806 0.08776138 -0.000531965 0.27639508
000140 74 f5 37 bd e8 9f d5 3d 98 81 60 be d1 b1 44 be
       -0.044911817 0.1043089 -0.21924436 -0.19208457
000150 ca e3 f8 bc a6 23 95 3a 01 74 49 3e ff 06 20 bd
       -0.030382056 0.0011378422 0.19673158 -0.039069172
000160 10 a4 34 3e 9f 9d 4b 3d 2f 21 94 bc 91 19 55 3d
       0.1764071 0.049710866 -0.01808223 0.052026335
000170 0a 37 54 be 11 89 5c 3e 47 fa b9 bd a1 d1 1f be
       -0.2072412 0.21536662 -0.0908094 -0.15607311
000180 2f 0a 7d 3d 94 dd 4b 3d 93 4a d8 3d 09 b7 04 be
       0.06177729 0.04977186 0.10561099 -0.12960447
000190 32 c3 85 3e b0 83 a7 3d 5b e4 52 be ac c2 86 bc
       0.26125485 0.08179414 -0.20594923 -0.016450249
0001a0 a5 fb a7 bd f7 a0 ab bd f9 42 b9 be 73 05 30 be
       -0.08202294 -0.08380311 -0.3618391 -0.17189579
0001b0 fa ff e4 bc 32 48 67 3e e2 21 60 be 3a b1 32 bc
       -0.02795409 0.22586134 -0.21887925 -0.010906512
0001c0 6f d7 ad 3b d4 39 82 3c 70 13 4c 3d 8a df 2f 3e
       0.0053052227 0.015896715 0.049823225 0.17175117
0001d0 9f 0a 31 bd 99 b5 37 bd 23 d9 2d 3e 96 ad 23 be
       -0.04322302 -0.04485092 0.16977362 -0.15984187
0001e0 f7 5c 7e 3d 32 52 d0 bd 79 6e fa bd 32 3e b8 3d
       0.062100377 -0.101719275 -0.12228102 0.08996238
0001f0 ed 06 56 3e 6e 01 58 be 24 80 32 3e 5d 2b 5a 3d
       0.2090108 -0.21094295 0.17431694 0.05326401
000200 2f 15 62 3e 6f ef 17 3e 55 6a 9f 3d ce 4c 2b 3d
       0.22078393 0.1483743 0.07783953 0.041821294
000210 6f 35 4f 3e eb 60 07 be b5 fc 28 be 2a a0 40 3e
       0.20235227 -0.13220565 -0.1650265 0.18811098
000220 d6 04 a0 3c 1a 83 8a 3d 20 06 1a be 1d 8c ce bd
       0.019533556 0.06763287 -0.15041399 -0.10085318
000230 82 b0 a7 3d e6 05 07 be 01 4d 12 3e c0 be 93 bd
       0.08187963 -0.13185844 0.14287187 -0.07214117
000240 67 0c eb 3d a5 96 77 bd 75 f7 a9 bd 92 ac e5 3d
       0.11476975 -0.0604464 -0.08299152 0.11214556
000250 9a d7 fe 3d c6 e0 dc bd 59 03 2d be ae 3f 3b be
       0.124434665 -0.1078506 -0.16895808 -0.1828601
000260 99 b1 07 3e eb b8 6a bd e0 c9 9b bd 35 31 8e bd
       0.13251342 -0.057305258 -0.07606864 -0.06942979
000270 c3 c8 a9 3d 96 ca 17 3e 96 0d 27 bd f2 b4 9b bd
       0.082902454 0.14823374 -0.04078444 -0.07602872
000280 61 05 c8 3c 12 36 49 3e df bc 45 3e 16 50 5e 3c
       0.024416627 0.19649532 0.1931033 0.013568899
000290 69 46 c0 bd 08 52 5e 3d 25 76 5e bd 94 94 62 3e
       -0.0938843 0.05427745 -0.05431189 0.2212699
0002a0 f6 4c 56 3b a7 08 0d bd c7 1e 34 be 3b 98 dd bd
       0.003269968 -0.03443208 -0.17589866 -0.10820051
0002b0 3a 34 95 bd 34 9c 16 3e 61 b0 10 3d 6f 47 4a 3e
       -0.07285352 0.14708024 0.035324458 0.19753812
0002c0 84 2a b8 bc 82 0e 97 3d a6 51 d9 3d 83 32 8b be
       -0.02248121 0.07375814 0.10611276 -0.27186975
0002d0 f9 d6 20 3e c9 1d 27 be 1a 4d 64 3e 0b ed fe bd
       0.15707006 -0.16319956 0.22295037 -0.12447556
0002e0 33 3b 71 3e 34 51 df bd 9d a2 75 3d 61 cd 66 3d
       0.23557739 -0.1090416 0.059969533 0.05634821
0002f0 9a 18 6d 3e de c6 16 be 9b 89 cf 39 86 36 8d 3d
       0.23153916 -0.147243 0.0003958464 0.06895165
000300 74 ea 33 be 21 cb d1 bd 8a b2 d4 bc ed bf 36 3e
       -0.17569906 -0.10243822 -0.02596404 0.17846651
000310 f4 7b 19 be e0 19 05 3e a0 a6 4c be a7 85 20 be
       -0.1498869 0.12998152 -0.19985437 -0.15675984
000320 3c cf 72 3e 25 4d 36 be 67 42 e2 3d 19 50 4d bd
       0.23711866 -0.17802866 0.110478215 -0.050125215
000330 34 f1 d9 3d c8 d0 94 bb c9 a1 34 3e 4f 58 0f 3d
       0.10641709 -0.00454149 0.17639841 0.034996327
000340 7e 14 27 be b4 a2 b7 bc 70 bd 7d 3a 4e c3 bb bd
       -0.16316411 -0.02241645 0.00096794125 -0.09168111
000350 80 b6 30 3c 2c 8f 2e 3d ca 08 c7 bb 70 21 4e 3e
       0.010785699 0.042617008 -0.006074046 0.20129943
000360 ce f4 10 3c 3f ab 41 3e 1b d5 a5 bc 2d 21 b1 3d
       0.0088474285 0.18912981 -0.020243218 0.08648906
000370 82 c8 1c 3e bc a5 b2 3d 26 08 fa bb 8d 6b 41 be
       0.15310863 0.087230176 -0.007630366 -0.18888684
000380 df 5d 85 3d 70 3c 79 be 31 20 88 be 4d eb 68 3d
       0.06512045 -0.24339461 -0.2658706 0.056865025
000390 8d 9e 6e 3e 02 0e b6 bc a1 fe 1a bd bd 86 b1 bb
       0.2330267 -0.022223476 -0.03784049 -0.0054176734
0003a0 35 04 d1 bd 4d d8 9b 3c a1 2d 16 bd bb 45 4e 3e
       -0.102058806 0.019024039 -0.03666461 0.20143788
0003b0 3c fe a2 be 79 09 30 be 75 db 68 3c 3b 79 c3 3c
       -0.3183459 -0.17191114 0.014212479 0.023861518
0003c0 5e f5 2b be 2c 36 ca bd e0 4c 9e 3e da 48 30 be
       -0.16792819 -0.09873614 0.30918026 -0.1721529
0003d0 65 c7 d3 bd 3b 7d 18 3d 4c 4e 82 3d a2 be cf 3d
       -0.10340766 0.037228804 0.0636259 0.10143782
0003e0 6d aa 92 be 6f 20 26 3e d9 59 11 3e d3 f2 06 bd
       -0.2864565 0.1622331 0.1419443 -0.03294642
0003f0 1b 5c 08 bd 49 cb 59 3e 99 68 f2 bb 83 a1 81 3e
       -0.033290964 0.21268953 -0.007397723 0.25318536

transformer_encoder.layers.0.self_attn.out_proj.bias f4 [20]
000000 b0 a9 a8 bc d1 66 49 3d e9 f1 0b 3d b3 09 1b 3d
       -0.020588726 0.04917032 0.03416625 0.037851047
000010 e6 ed af 3c 0c 96 ca 3c 9c c5 a2 bc 28 34 e9 3c
       0.021475744 0.024729751 -0.019869618 0.028467253
000020 a7 27 6f bc ff d6 97 bc 54 26 a3 3b 70 d1 31 bd
       -0.014596856 -0.018535135 0.0049789343 -0.043412626
000030 97 b9 17 3d 25 9d b0 bd 12 11 11 3d 9c 0e b2 bc
       0.037042227 -0.08623723 0.03541667 -0.021735482
000040 01 57 35 bb 29 f4 1c bd ed 65 66 3c 17 7b ae bc
       -0.0027670267 -0.038318787 0.014062387 -0.021298928

transformer_encoder.layers.0.linear1.weight f4 [20, 20]
000000 b1 42 bd bd 91 8e 13 3e ee d7 78 3d aa c6 47 3e
       -0.09241236 0.14409854 0.0607528 0.19509378
000010 1f b1 ba bd c1 f8 b6 bc 5e 95 21 be 3c df 3b 3e
       -0.091158144 -0.022335412 -0.15779635 0.18346876
000020 41 30 08 bd 47 5d 66 bb f9 65 f2 bd 77 8c 21 3d
       -0.033249144 -0.0035150812 -0.11835856 0.0394406
000030 e6 1c 8c 3d 1f c7 38 3d aa 0d f7 3c 16 0d b3 3d
       0.068414494 0.04511177 0.030157883 0.0874273
000040 20 50 48 3e b2 11 16 be 7e fd 6c bd 83 ba e6 bd
       0.19561815 -0.14655188 -0.057858936 -0.11266043
000050 d3 a6 81 be 3a 77 3f 3e e7 04 64 be 83 07 33 3d
       -0.2532259 0.18697825 -0.22267495 0.043708336
000060 0e 9e 7a 3d bb d6 b5 bc 34 86 fa 3c 98 31 35 be
       0.06118589 -0.022197118 0.030581571 -0.176947
000070 57 d7 2a 3e 50 ee 0c bd 71 4d 11 bd 96 64 c1 3d
       0.16683708 -0.03440696 -0.035474245 0.09443013
000080 4d 96 6d bd a2 a8 12 be 23 6c 1d 3e dc 31 48 3e
       -0.058004666 -0.14322141 0.15373282 0.1955027
000090 58 fb 0c 3e e3 f7 61 bd 0a 18 f4 bd 4a f9 98 3d
       0.13767755 -0.055168044 -0.119186476 0.07469423
0000a0 ac 78 2f 3e 92 b5 58 3e db a1 6e 3e a4 6a 46 3e
       0.17135876 0.21163014 0.2330393 0.19376618
0000b0 c3 50 30 3b 27 c9 39 3e 8b f7 5f 3e 1d 7f 61 bd
       0.0026903606 0.1814314 0.21871774 -0.055052865
0000c0 63 dc a9 bd 5e c5 36 3d f2 f4 9c be 8f 8a 11 3c
       -0.082939886 0.044621818 -0.30655628 0.008883133
0000d0 12 6c f5 3b 55 7e d2 3d f2 b4 39 be f0 a7 49 bd
       0.0074896896 0.10278002 -0.18135431 -0.049232423
0000e0 5b ed b4 bd 7d 8c 4e 3e 22 dd 32 3d 35 07 bb bc
       -0.088343345 0.2017078 0.04366792 -0.022830585
0000f0 d9 47 88 bd 7c 81 1b be 4c 0b 60 3d 72 7f 80 3e
       -0.06654329 -0.15186113 0.054698274 0.25097233
000100 75 5f 1a bd 9d ba 82 bc ab 4a 93 bd da bb 11 3e
       -0.03768869 -0.015958125 -0.07191976 0.14231816
000110 91 65 23 be 52 20 94 bd ea 11 0b 3e b2 96 2e be
       -0.15956713 -0.07232727 0.13581052 -0.17049673
000120 db b4 1a 3e 96 8f 35 3d ce a8 76 bd 60 11 df 3d
       0.15108053 0.044326387 -0.06021958 0.10891986
000130 fb e0 d3 bd 95 b2 47 be af 7e 01 3d ee a3 39 3e
       -0.10345646 -0.19501717 0.031614956 0.1812894
000140 52 4f 87 3d 94 98 51 be bc 21 bf bd 46 b8 a3 be
       0.06606926 -0.2046836 -0.09332606 -0.31976527
000150 99 d7 09 3e b4 f8 b8 3e 51 f3 3a 3c 0a 6f 49 be
       0.1346115 0.36127245 0.01141055 -0.19671264
000160 8c 6a 7f 3b cf ee 05 be 5c bb 08 3d 06 07 c7 bd
       0.003897342 -0.1307938 0.033381805 -0.097181365
000170 0c 44 f9 bd cb 26 16 3e e8 3b 92 3d b6 b8 74 be
       -0.12171182 0.14663236 0.071403325 -0.23898587
000180 be 3f 37 be 35 f8 03 3d 05 69 b5 3d 03 7f 8c bd
       -0.1789541 0.03221913 0.088579215 -0.06860163
000190 3d b5 d4 bc e7 3c ee be b7 50 ae ba 6d 6f 9c bd
       -0.025965327 -0.4653084 -0.0013299201 -0.0763844
0001a0 f6 d3 d3 3d d7 b1 9f be 10 32 c8 3c 4d 5c a4 bd
       0.10343163 -0.3119037 0.024437934 -0.080254175
0001b0 9a 8a e3 bd da ac 48 bd 1a 83 02 bd ce 09 30 bd
       -0.111104205 -0.04899297 -0.03186331 -0.0429781
0001c0 ce 2e 3c bb fe 2e 2b 3c 21 82 3e 3e 2f 86 a5 3e
       -0.0028714421 0.0104482155 0.18604328 0.32328936
0001d0 7a c7 7c bd 03 d1 9d 3d 6c fa 6b 3e cb 5d fd 3d
       -0.061713673 0.077058814 0.23044747 0.12371405
0001e0 6e 52 a4 bc ff b2 f5 3d 6f 1f d7 bd 79 3a 4e be
       -0.020058837 0.119970314 -0.10504042 -0.20139493
0001f0 24 88 17 3e f0 4c b6 3e 1d 7a c4 bd b8 cb 69 be
       0.14798027 0.35605574 -0.09593604 -0.22831619
000200 1b e2 84 bd 0a df 14 3e 41 78 14 be cb b3 73 be
       -0.06488439 0.14538208 -0.14498998 -0.23799054
000210 73 97 58 be f4 1c 05 be 37 99 6a 3d bd de 6f bd
       -0.21151523 -0.12999326 0.057275023 -0.05856203
000220 a2 bb 0b bd a5 3b 81 3d 15 08 c4 3c 04 fb 74 be
       -0.034114487 0.063102044 0.023929635 -0.2392388
000230 45 32 59 3e cc 85 2a 3e 81 ce 8b bd 7e cc ca bc
       0.21210583 0.16652602 -0.06826497 -0.024755713
000240 27 f1 bb bd 10 71 63 3e 2d e2 6b be 50 54 ab 3d
       -0.091768555 0.22211099 -0.23035498 0.08365691
000250 13 aa 86 bd f4 c1 62 be 6d 61 36 be b7 3d 39 be
       -0.06575408 -0.221443 -0.17810602 -0.18089949
000260 91 6a e6 3d 6e cf 6b be d6 e3 05 3e 5b f6 36 be
       0.11250795 -0.23028347 0.13075194 -0.17867415
000270 c3 51 02 3d 31 a5 77 be 33 cb 2d be 93 78 c0 bd
       0.031816255 -0.2418411 -0.16972046 -0.09397998
000280 05 22 17 be fa 67 48 3e 4b 3b 3f 3e 06 15 ff bd
       -0.14759071 0.19570914 0.18674962 -0.12455182
000290 84 43 97 3d f6 5e ab ba 3a 05 92 3d cb ad 8a 3e
       0.073859245 -0.0013074565 0.07129903 0.2708572
0002a0 94 f5 05 be 86 4d 02 be a7 33 11 3e 34 5f 7d 3e
       -0.13081962 -0.12724885 0.1417986 0.24743348
0002b0 1d 0d 8e bd 0c 8a dc 3d 12 1b 67 bd d6 93 6b be
       -0.06936095 0.10768518 -0.0564223 -0.23005614
0002c0 65 8d 0e 3e a6 dc 94 bd 3b 45 cf 3d 64 fd f7 3d
       0.13921125 -0.07268648 0.101206265 0.12108877
0002d0 3f 47 62 3c b2 8c 8b be 9f 60 74 bc 64 d3 77 3e
       0.013810932 -0.2725578 -0.014915614 0.24201733
0002e0 87 df 76 3e c7 4f 98 3d 0a 20 af bd 44 29 f7 3d
       0.24108706 0.07437091 -0.08551033 0.12068418
0002f0 ef 78 30 3d 8d 1b 8f bd b3 90 ff 3d 4b ca 17 3e
       0.04308408 -0.06987677 0.12478771 0.14823262
000300 c6 51 12 3e b1 7b 22 be 87 78 c8 bd db 25 25 bc
       0.14289007 -0.15867497 -0.09788614 -0.010079826
000310 0c 99 17 be 30 a6 32 3e b7 f4 a9 bd a9 83 d9 bc
       -0.14804476 0.17446208 -0.08298629 -0.026552038
000320 5f 29 8b bb 73 1c 36 3e bf b5 81 bd e0 56 47 3e
       -0.004246875 0.1778429 -0.063334934 0.19466734
000330 18 6c 47 3e 77 b9 25 bd c1 c9 0e bc f5 02 af bc
       0.19474828 -0.040460076 -0.008715094 -0.021363715
000340 4a 23 6c 3e 83 64 35 be e0 98 38 be fa ad 3c be
       0.23060337 -0.17714123 -0.18027067 -0.18425742
000350 c0 53 c2 3d 0b 94 ca 3d 6d f6 c5 bc f2 e8 02 3e
       0.0948863 0.09891518 -0.024165357 0.12784174
000360 17 82 07 be b1 ff 43 be 81 65 98 3d 7f 5c 2b be
       -0.13233219 -0.19140507 0.07441235 -0.16734503
000370 25 30 9c 3d b3 20 82 be 20 ed 6b 3d 92 b5 39 be
       0.0762637 -0.25415573 0.057599187 -0.1813567
000380 0f d5 64 bc f7 74 75 be 8e 0d ff 3d 15 ea 14 be
       -0.013966813 -0.239704 0.12453757 -0.1454242
000390 67 bb d7 bd 22 e3 e7 3d 02 58 c7 bc 55 b1 2c bd
       -0.10533791 0.11322619 -0.024333958 -0.042161305
0003a0 b8 a5 3c be ab d6 ad 3b a1 aa 2b 3e e1 f2 22 3e
       -0.18422592 0.0053051314 0.16764309 0.15912963
0003b0 f3 ad 33 be 9e 47 31 be f0 58 07 3e 81 ed ca 3d
       -0.17546825 -0.17312476 0.1321752 0.099085815
0003c0 69 13 59 3d ca 58 4a 3e 84 ea bf bc 9a 35 33 3e
       0.052997027 0.19760433 -0.023427255 0.17500916
0003d0 83 be 7a 3d 48 58 01 bd c2 ba 30 3e 2c 19 46 3e
       0.061216842 -0.031578332 0.17258742 0.1934554
0003e0 ac 8b 1c 3e 0e 08 d3 3d 5b 55 79 3c 70 c3 2f be
       0.15287656 0.10304271 0.015218104 -0.17164397
0003f0 42 37 2a be 3d 0c c2 3d 6f 6b d2 bd 88 89 e9 bd
       -0.16622642 0.094749905 -0.102743976 -0.11403185

transformer_encoder.layers.0.linear1.bias f4 [20]
000000 e8 09 a9 bd d4 22 d3 3d 27 d4 3a be ff f9 79 bd
       -0.082538426 0.10309377 -0.18244992 -0.06102943
000010 78 d2 2a 3e b4 47 92 3a b7 b7 67 be 6b 3f 6d be
       0.1668185 0.0011160285 -0.22628675 -0.23168723
000020 a0 82 dc 3c 71 9e 9f 3d e6 d2 e2 3d 2e ae 93 bc
       0.026917756 0.07793892 0.11075382 -0.018027391
000030 d8 f1 5c 3d a1 fb 44 bd 47 24 f2 bd 0f 52 bb bd
       0.053941578 -0.048091535 -0.118233256 -0.09146511
000040 5a 67 42 be 4c 7e 1f be 21 89 12 be 15 cc 57 be
       -0.18984738 -0.15575522 -0.14310123 -0.21073945

transformer_encoder.layers.0.linear2.weight f4 [20, 20]
000000 01 10 1b 3d 03 bb 58 be 40 4c c6 bd 88 71 5d 3e
       0.03785706 -0.2116509 -0.09682512 0.2162534
000010 3f d6 50 be 20 00 da 3e f5 d9 8f 3d f0 79 2e 3e
       -0.20394228 0.4257822 0.07023994 0.17038703
000020 f2 41 19 be 35 c5 81 3e 6c ee c5 3d e5 cd a1 3e
       -0.14966562 0.2534577 0.09664616 0.31602398
000030 10 21 f3 bd 31 e6 75 3c d8 89 46 3e e8 72 44 3e
       -0.118715405 0.015008495 0.1938852 0.19184458
000040 d4 6a 8c 3e 5f dc be bd a8 44 49 bd 6d 09 d2 3d
       0.27425253 -0.09319376 -0.04913774 0.10255704
000050 f6 99 0b 3e 9a b4 66 3d a3 35 31 bd da 6a 44 3d
       0.1363295 0.05632458 -0.043264043 0.047953464
000060 42 05 0f bd e7 f8 84 3e 72 e5 f4 3d b4 c5 21 be
       -0.034917124 0.25971147 0.11957826 -0.15798074
000070 85 d6 ff 3d 8f 2c 07 3c 02 c2 d8 bd ad 8f c3 bc
       0.12492088 0.00825037 -0.10583879 -0.02387222
000080 58 61 0a 3e 0d e5 4f bd 8a b0 e5 3d 30 6a ce bd
       0.13513696 -0.05075555 0.11215313 -0.100788474
000090 79 c3 f5 3b 3a b7 26 bb cc 3d d2 3b 35 e1 16 bc
       0.007500109 -0.0025438801 0.006416058 -0.009208967
0000a0 b7 99 43 3d 57 a9 53 bd 62 e3 49 3e e3 78 ee bd
       0.047754016 -0.051675167 0.19715646 -0.11644151
0000b0 1b 74 04 be 3d 57 83 3e d5 af 00 be 1b 6f 87 3e
       -0.12934916 0.25652495 -0.12567075 0.26451954
0000c0 f4 86 32 3e 29 b2 22 3e 1d b3 2d 3c 05 80 d4 bc
       0.17434293 0.15888275 0.010601786 -0.02593995
0000d0 6d d1 c8 3a da 32 4f bd 91 91 b7 3d ab 54 25 be
       0.0015321203 -0.050585605 0.089633115 -0.1614558
0000e0 6c 45 9b bd 37 4b 11 3d 1c fb 2a 3d 20 99 59 3d
       -0.075816005 0.03547212 0.041743383 0.053124547
0000f0 11 6a 1c 3e 05 db 08 bc 68 30 5d bb 2a e3 b8 bd
       0.15274836 -0.008353 -0.0033750776 -0.09027703
000100 72 90 e7 3c da ff 1c 3d 1c 27 f5 3d 10 37 15 3e
       0.02826712 0.038329937 0.1197035 0.14571786
000110 35 e7 58 3b df 81 17 be 9f 1d 26 3d 72 79 85 bc
       0.0033096795 -0.14795636 0.040555593 -0.016293261
000120 b3 da 42 3d 69 ea 3c ba f7 56 16 3e 06 3e 20 3e
       0.04757185 -0.00072065607 0.14681612 0.1564866
000130 ca da cc bd 03 a6 4a 3c 4d 7f 4e 3d 38 42 d5 bd
       -0.10002668 0.012368682 0.050414372 -0.10413021
000140 b0 c2 45 bd 64 22 ff 3a d4 bb 2c be 09 69 6c 3d
       -0.04828137 0.0019465205 -0.16868526 0.057717357
000150 b1 b7 ad 3d 89 cc 38 3e 37 49 b1 3d 25 c7 cb 3d
       0.08482302 0.18046774 0.08656543 0.09950093
000160 7b 55 2d 3e 91 0b f2 3d 65 36 01 be 1e ea d1 bd
       0.1692714 0.11818612 -0.12618406 -0.102497324
000170 be c2 db 3d 3a ef 4f 3e 7d d6 c4 bd 20 99 85 3e
       0.107305035 0.20306101 -0.09611223 0.26093388
000180 8f 8e e3 3d 6f e9 4c be 1c fc 5f 3d f4 49 60 3d
       0.11111175 -0.20010923 0.05468379 0.054758027
000190 f8 c2 47 3e 9d 68 90 3d d8 23 0a be 14 bf 17 bd
       0.19507968 0.070512034 -0.13490236 -0.03704746
0001a0 c6 f0 24 3d 84 4d 3d 3e 75 5a 44 be be e9 ef bd
       0.040268682 0.18486601 -0.19175132 -0.11714505
0001b0 31 af 97 bd 02 45 8a bc ca 40 1d 3c b0 d3 a6 3c
       -0.07406462 -0.016878609 0.009597966 0.020364612
0001c0 d6 af c6 3d 1d 98 b9 bd 8b 54 2f be 07 59 45 be
       0.09701507 -0.090622164 -0.17122094 -0.19272242
0001d0 91 3d 5f 3d a2 3f 49 3d 86 4b 39 bd b7 00 18 3e
       0.054502074 0.04913295 -0.04523804 0.14844023
0001e0 93 c9 08 be 59 c1 b4 3d e7 00 ec bd a7 63 32 3e
       -0.13358144 0.08825941 -0.115236096 0.17420827
0001f0 fe eb 9c bc 72 09 d6 3d d6 22 88 bd bc 1d 09 3b
       -0.019155499 0.1045102 -0.066472694 0.0020922264
000200 b4 33 a8 be f4 aa 0f 3e f6 4d fa 3c 7a 88 ee bd
       -0.32851946 0.14030057 0.030554753 -0.116471246
000210 f6 49 bf 3d 6c 6f 55 be dc 4b 21 3d 7a af 86 3e
       0.09340279 -0.20843285 0.039378986 0.26305753
000220 70 27 e1 3d ce b9 de 3c a1 bf 66 3c d3 47 7d 3c
       0.1099385 0.027188208 0.014083774 0.015459019
000230 cd 35 24 3e b1 a2 31 3e 82 32 e9 3d 30 6f 21 be
       0.16036148 0.17347218 0.11386587 -0.15765071
000240 63 a0 4e 3e 78 20 39 be eb 59 59 3e a5 ca ec 3b
       0.2017837 -0.18078792 0.21225707 0.0072263055
000250 c3 86 52 3e 54 df b8 3c 1e c2 21 3e 0f 9b da 3c
       0.2055922 0.022567429 0.15796706 0.026685266
000260 48 96 58 3d b0 d6 d8 3d 6a e7 15 3e 6c bf 34 be
       0.052877694 0.105878234 0.14639059 -0.17651147
000270 64 62 b8 bd 52 ff a2 3d 93 b3 bd 3d 38 2d d4 3d
       -0.090031415 0.07958855 0.09262767 0.10360187
000280 b9 b6 6f 3d e1 45 e5 3d 19 b9 2e be 85 d5 4e 3e
       0.058523867 0.11194969 -0.17062797 0.20198639
000290 f9 69 9f bd d3 3e d9 3d 89 3e 94 be a5 05 85 3d
       -0.077838846 0.10607686 -0.2895396 0.06495217
0002a0 d2 d6 62 bc 32 40 39 3e 06 59 10 be 39 24 2a be
       -0.0138451625 0.18090895 -0.1409646 -0.1661538
0002b0 55 24 e0 3d b7 2e c1 bd ed 41 e0 3c 59 22 0d be
       0.1094443 -0.09432738 0.027375186 -0.13782634
0002c0 52 38 7c 3e 06 2f 33 3e 23 33 e9 3d e1 fc 1b 3d
       0.2463086 0.17498407 0.11386707 0.03808296
0002d0 8d e2 f4 3d f4 b5 33 3e 89 0b 03 3e a9 c1 e0 3b
       0.11957274 0.17549878 0.12797369 0.0068590236
0002e0 45 65 3c be f2 ab 8d be 2d e2 7a bd e1 e9 bb bd
       -0.18398006 -0.27670246 -0.061250854 -0.09175468
0002f0 e9 d6 84 bd 07 02 8e bd df be 6c bd 9a 9c ed bc
       -0.06486303 -0.069339804 -0.057799216 -0.029005338
000300 75 68 25 3e bf c9 7a bd c8 e1 90 bd 8c dd 50 bd
       0.16153128 -0.061227556 -0.07074314 -0.050992534
000310 13 bf 72 3d 37 3c c0 bd 31 fc 01 3e df b8 78 be
       0.059264254 -0.09386485 0.1269386 -0.24289273
000320 1d 60 04 be a8 77 78 be cf 63 c3 3d e2 46 24 3e
       -0.1292729 -0.24264395 0.09540521 0.16042665
000330 1c b7 82 3e 3c da 15 be 32 d8 59 3e fa b9 60 3e
       0.25530326 -0.14634031 0.21273878 0.21945944
000340 2b 13 c2 bd 3b cf 9e 3d 2b b1 4f 3e dc e4 a6 bd
       -0.09476312 0.0775437 0.20282428 -0.0814912
000350 7d f8 d6 3a 83 47 41 bd 0d 94 1e be 16 f1 35 bc
       0.001640096 -0.04718734 -0.15486164 -0.011104843
000360 83 3f 8c be 5e fc fe 3d 62 12 86 bd 00 07 8b be
       -0.27392206 0.12450479 -0.06546475 -0.27153778
000370 47 37 47 3e 30 db 1c 3e 74 87 80 3a de ab 51 be
       0.1945468 0.15317988 0.0009805993 -0.20475718
000380 41 8c 23 3e 2f df 0f bb db 6f 7c 3e 33 ac d2 bd
       0.15971471 -0.0021953096 0.24652044 -0.10286751
000390 1c 64 15 3e fb d0 b8 3d 67 c9 9f 3d 21 b4 b3 be
       0.1458897 0.09024235 0.07802086 -0.35098365
0003a0 88 b6 93 be b3 a0 49 3d 7b 2e 21 3c 9a 33 00 3e
       -0.28850198 0.04922552 0.009837742 0.12519684
0003b0 8b 67 a5 3d 81 f5 09 be c3 e5 08 3d e9 6e 0e be
       0.0807639 -0.13472559 0.033422243 -0.13909496
0003c0 0f be 29 bd e7 ba 35 be d6 56 f1 3d ac 8b 23 be
       -0.04144102 -0.17747079 0.11784141 -0.1597125
0003d0 2b e2 f7 3c d1 84 28 be 82 47 d4 bd 3c 64 76 bd
       0.030259212 -0.16456915 -0.103652015 -0.060154185
0003e0 27 3c 11 be 04 e0 71 be 1b e8 21 be be 34 5c be
       -0.14183103 -0.23620611 -0.15811197 -0.21504495
0003f0 06 0e 3c 3e 7d a1 0d 3e 75 26 f0 3c 3f 45 2c 3e
       0.18364725 0.13831134 0.029315213 0.1682329

transformer_encoder.layers.0.linear2.bias f4 [20]
000000 29 05 e2 3d 7c 99 50 3c fe dc 56 3e 74 5e 90 3b
       0.110361405 0.012731906 0.2098274 0.004405791
000010 4d a5 0e 3e 07 b0 f8 3c 23 01 db bc 73 11 05 be
       0.13930245 0.030357374 -0.02673394 -0.12994938
000020 75 54 dc 3a 6c 11 3e bd 01 3f 52 3e 65 fe 0f bd
       0.0016809838 -0.046403334 0.20531847 -0.03515472
000030 02 01 42 3d fc 57 8b 3d c3 61 1e bc 35 96 61 bd
       0.047364242 0.06803891 -0.009666863 -0.05507489
000040 d8 75 1b 3e 25 0c 5e bd 9a 72 41 3e 5a 4f e4 bd
       0.15181673 -0.0542108 0.18891373 -0.111479476

transformer_encoder.layers.0.norm1.weight f4 [20]
000000 41 b8 ab 3f b3 bc 9b 3f 7e e3 8b 3f aa 29 96 3f
       1.3415605 1.2166961 1.09288 1.1731465
000010 bc ff 80 3f d6 bb 9a 3f 0b 22 89 3f 12 12 6d 3f
       1.0078044 1.2088573 1.0713514 0.926057
000020 01 c7 83 3f 31 d7 7c 3f 58 c5 7e 3f 7f 3c 86 3f
       1.0295106 0.98765856 0.9951987 1.0487212
000030 ab fc 65 3f 85 c0 6e 3f 37 f9 7a 3f 60 3a 48 3f
       0.89838666 0.9326251 0.9803652 0.78214073
000040 b8 bc 71 3f 7d cd 88 3f 99 e6 7a 3f 3f 73 7c 3f
       0.94428587 1.068771 0.98008114 0.9861335

transformer_encoder.layers.0.norm1.bias f4 [20]
000000 f1 71 ec bc 80 40 6a 3d 04 0d 3a 3d 4c db 83 3c
       -0.028862925 0.05719042 0.04542257 0.01609578
000010 d1 c9 d4 3c 3b 12 2c 3d 96 62 85 bd 53 7b 65 3d
       0.02597514 0.042009573 -0.065129444 0.056025814
000020 82 3c 1a 3c 74 3a 6c bd d6 1d 31 3d 7d 91 07 bd
       0.00941384 -0.057672933 0.043241344 -0.033097733
000030 ec 53 7d 3d b5 d4 3b bd 79 9d 47 3d 3e 93 32 bd
       0.061847612 -0.04585715 0.048734162 -0.043597452
000040 58 12 84 3c 8f ed 72 bd c1 3e 45 3d 67 0f 51 bd
       0.016122028 -0.059308585 0.04815555 -0.05104008

transformer_encoder.layers.0.norm2.weight f4 [20]
000000 ac 2b b3 3f 01 3f 69 3f 79 64 91 3f 57 b5 81 3f
       1.3997703 0.9111176 1.1358787 1.0133466
000010 39 81 89 3f 6f 48 80 3f cd 29 91 3f 9b 47 70 3f
       1.0742561 1.0022105 1.1340882 0.9385926
000020 f0 b0 8a 3f b3 ca 87 3f cf c9 76 3f 25 f8 8b 3f
       1.0835247 1.0608734 0.96401685 1.0935103
000030 21 40 65 3f 1a a4 78 3f cd 93 7b 3f 45 b4 50 3f
       0.8955098 0.971254 0.982724 0.8152507
000040 ae d2 74 3f 36 66 8f 3f 2f 9c 80 3f 51 b3 89 3f
       0.9563397 1.1203067 1.0047663 1.0757848

transformer_encoder.layers.0.norm2.bias f4 [20]
000000 4f 26 30 3c 7f 3c 8f 3d 5d 72 9a 3d 10 2e a1 3d
       0.010751321 0.069939606 0.07541344 0.07870114
000010 ad d7 99 3b 8e 7c 8e bb ff 98 66 bd 47 f0 b6 3d
       0.0046949 -0.004348344 -0.056298252 0.08932548
000020 52 58 1f 3c db e6 74 bd 37 a4 15 3d 5e ca d8 bc
       0.009725647 -0.059790473 0.03653356 -0.026463684
000030 aa 6c f1 3c 28 76 42 bb 29 88 a4 3d 58 bb cd 3c
       0.02947076 -0.0029672477 0.08033783 0.025113747
000040 cf d5 b5 bc 63 a0 75 bd 1d f0 4a 3d e0 d9 29 bd
       -0.022196678 -0.05996741 0.049545396 -0.041467547

transformer_encoder.layers.1.self_attn.in_proj_weight f4 [60, 20]
000000 ee 8b 0f be dd de 89 be 7b cb 5b 3e dc 47 57 3d
       -0.14018223 -0.26927844 0.2146434 0.052558765
000010 7c 8a 33 3e c6 b9 77 3d a9 99 23 be 9b d2 ec 3d
       0.17533296 0.0604799 -0.15976585 0.11563607
000020 93 60 10 3d 0c 71 4f 3d 29 97 4a be 5d 05 7a 3e
       0.03524835 0.05064492 -0.19784226 0.24416108
000030 7b 4c 8f be dc a6 37 3e 5f 17 82 3e cd ce 8a 3e
       -0.27988037 0.17934746 0.25408456 0.271109
000040 68 ef a8 3d ba f1 d1 bd e8 aa f4 bb cc 03 7b 3c
       0.08248788 -0.10251184 -0.0074666627 0.015320729
000050 71 12 68 3e 1d 63 90 bc 57 00 7f be 17 32 c8 3d
       0.22663285 -0.017625386 -0.24902473 0.09775179
000060 9a 08 9b 3d 51 5c e0 3d 45 ef 28 3e 15 f8 8d bd
       0.0757 0.10955108 0.16497524 -0.069320835
000070 6a 60 57 3e 2e 71 0f bd 88 db 86 bb f7 41 94 bd
       0.21032873 -0.035020046 -0.0041155256 -0.07239144
000080 b2 8b cc 3d 52 b6 98 bd a3 ef 62 3e 8f 16 20 3e
       0.09987582 -0.0745665 0.22161727 0.15633605
000090 d7 14 86 3e 26 20 a9 3c 33 5a 2b 3d 14 a5 13 be
       0.26187775 0.020645212 0.041834068 -0.14418441
0000a0 1b f5 55 3e ef 28 7b be 75 36 cf 3c 57 05 8c bd
       0.20894282 -0.24527334 0.025294522 -0.06836956
0000b0 01 36 74 3e 51 6f 6b be a3 fe 2a 3e 93 92 83 be
       0.23848726 -0.22991683 0.16698699 -0.25697765
0000c0 44 7a bc 3c 75 39 d9 bd df bd 43 bd 38 ec 46 bd
       0.02300752 -0.10606662 -0.047788497 -0.04856512
0000d0 ca 05 08 3d 9f 21 46 be f7 ef ca 3d 34 1c 29 be
       0.033208646 -0.19348763 0.09909051 -0.16514665
0000e0 01 39 71 bd c9 ed 9b be ef 13 af bd f7 7e b3 3c
       -0.058892254 -0.30454853 -0.08548724 0.021911127
0000f0 97 dc 55 3d e6 3a 57 3d 82 57 2b be 90 4c 8d 3d
       0.052212324 0.052546404 -0.167326 0.06899369
000100 aa 69 7e 3e a3 85 30 3e b8 bc ba bd a9 bb 10 3e
       0.24844995 0.17238478 -0.091180265 0.14134087
000110 d4 47 78 3c 94 b9 25 3c 96 b6 64 3d a9 fa fa 3d
       0.015153844 0.010115046 0.05583819 0.12254841
000120 09 70 6b be 6c 95 af bd cb 6e 87 3c a4 8d 2d 3e
       -0.22991957 -0.08573422 0.016532322 0.16948563
000130 50 43 4c be d5 74 e6 bd a4 34 3d bc 9f 60 b1 3d
       -0.19947553 -0.11252753 -0.011548195 0.08661007
000140 f3 5c 86 be 7a 7f 17 3e cf 8c 36 be 17 36 6d 3e
       -0.2624279 0.14794722 -0.17827152 0.23165165
000150 50 c1 71 bd 89 03 48 bd cb d5 cf 3b 59 0d 18 bb
       -0.059022248 -0.048831496 0.006342625 -0.0023201315
000160 05 2c 66 3e 0e 44 21 3e d6 c1 6a be c1 1e 21 3e
       0.2247773 0.15748617 -0.22925505 0.15734388
000170 fa 50 36 3e 15 a2 99 bd 4d 8e 4c be f4 f5 af bd
       0.17804328 -0.07501618 -0.19976158 -0.08591834
000180 48 37 65 bd ca 98 48 3d ab a8 dc 3c 42 98 64 3e
       -0.055960923 0.048973836 0.026935896 0.22323707
000190 1e d9 80 bd ae 6c 49 bd 95 25 50 3e b2 c6 7c be
       -0.06291412 -0.04917591 0.20326836 -0.24685171
0001a0 d3 6b c4 3d 56 93 23 3d ac 43 be 3c 95 e1 49 3e
       0.09590878 0.039935432 0.023225628 0.19714959
0001b0 3f b3 39 be da 45 1f be ae a6 cb 3d 66 ba 4f 3e
       -0.18134783 -0.1555399 0.09943901 0.20285949
0001c0 61 8b 2e bd 7e 2b 4d bd 88 30 77 be 42 2d 14 3e
       -0.04261339 -0.050090306 -0.24139607 0.1447039
0001d0 da c2 13 be b0 5c 5a be 94 38 8e bd 94 ab 40 bd
       -0.14429799 -0.2132442 -0.06944385 -0.04703863
0001e0 e0 18 9c bd d8 02 de 3d a5 e5 ef 3d 48 48 3b 3d
       -0.07621932 0.10840386 0.11713723 0.04572323
0001f0 d5 82 2e be 12 25 fd bd 1e 16 39 bd 38 6f 04 be
       -0.17042096 -0.12360586 -0.04518711 -0.12933052
000200 c7 da 33 be ca bd 0d 3e 45 d3 f2 bd d3 9e ad 3d
       -0.17563926 0.1384193 -0.11856703 0.08477559
000210 f5 19 83 bd 33 b0 03 3e a2 93 2e be fa d7 46 3e
       -0.06401435 0.12860183 -0.17048505 0.19418326
000220 85 8f 2f 3e a0 a0 02 be 4b 2f 82 bb bd 34 05 be
       0.17144592 -0.12756586 -0.003972923 -0.130084
000230 fc 73 81 3d c0 9c 4d be 6c 70 1c 3d 33 ee af 3d
       0.063209504 -0.20079327 0.03819315 0.08590355
000240 7a 03 a2 3e 59 cc f0 bc 22 74 7f be 2c 15 0a bd
       0.31643277 -0.029394316 -0.24946645 -0.033711597
000250 12 d9 24 be 41 2c 03 be af 18 73 3d e3 21 5e be
       -0.16098431 -0.1280985 0.059349712 -0.21692614
000260 bc 13 25 3e a0 ae eb 3c fd 85 38 be cc d9 2c be
       0.1612081 0.028769791 -0.18019862 -0.16879958
000270 1d 23 c5 3d 05 fe d5 bc 44 ef 8d bd d2 bc fd bd
       0.09625838 -0.026122103 -0.06930402 -0.1238953
000280 24 5e 29 3e 80 21 7d bd b2 b2 5b bd 3a d6 30 3e
       0.16539818 -0.061799526 -0.053637214 0.17269221
000290 94 5a fd 3d 5b e0 be bd e2 b8 7b be 51 7d 40 3e
       0.12370792 -0.09320136 -0.24582246 0.18797804
0002a0 48 a3 8d bb b0 d6 21 3e 94 89 31 bd a1 c6 2c 3d
       -0.004322443 0.15804553 -0.043344095 0.042181615
0002b0 ba 49 60 3e fd 2e 0c be bd 41 e3 3d b0 02 24 3e
       0.21903124 -0.136898 0.11096523 0.1601665
0002c0 58 49 10 3e d9 c9 5b be 64 a8 82 3e 5a c8 13 3e
       0.14090478 -0.21463718 0.25519097 0.14431897
0002d0 5c 4c 19 be 1d 52 85 bd 61 e9 fc 3d 18 bc fd 3d
       -0.14970535 -0.065098025 0.12349201 0.12389392
0002e0 ea 84 47 3e 77 2a 4f be da 9f ca bd 5d b8 1d 3e
       0.19484296 -0.20231043 -0.098937705 0.1540236
0002f0 fc 5d cd bd 0e b9 0b be 2a c3 19 be 1e dd da bd
       -0.10027692 -0.13644812 -0.15015855 -0.10686706
000300 7b 10 3a 3e 08 0b f7 bc 38 a9 bc 3c a6 1a 98 3b
       0.1817035 -0.030156627 0.023029909 0.0046418486
000310 3f ed 36 be 89 91 88 bd 6f 64 9d bd 5a c3 c6 3c
       -0.1786394 -0.06668384 -0.07685172 0.024263073
000320 26 0b 0d be 8a 45 6a be 1f f4 94 bb 21 c5 14 be
       -0.13773784 -0.2287809 -0.004545703 -0.14528324
000330 8d 70 ad 3c 23 87 ba 3d 5a 62 83 3d bb d8 2b be
       0.021171832 0.091078065 0.064152434 -0.16781895
000340 0b 2b 3c 3e f1 65 2e 3e 61 d6 d0 3d 9c c1 2d bc
       0.18375795 0.17031075 0.101971395 -0.010605242
000350 5c 06 4a bc cd 94 a0 3c 69 85 92 bd 63 f7 45 bb
       -0.012330618 0.019602204 -0.07154352 -0.0030207268
000360 ee 44 d6 3c 6f 7c 80 3e 82 b5 e4 3d c1 ef e6 3d
       0.026155915 0.25094935 0.11167432 0.11276198
000370 a7 62 ed bc 86 c9 74 be 7c 30 89 be a7 5c 5c be
       -0.028977705 -0.23905 -0.26794803 -0.21519719
000380 6d 77 3e 3e d6 e1 b9 bd b4 a6 a4 bd 04 74 27 3d
       0.18600245 -0.09076278 -0.080396086 0.040882125
000390 a9 f2 36 3c a2 f0 50 3e a2 1b 04 be 4e 9c c1 3c
       0.011166253 0.20404294 -0.12901166 0.023634102
0003a0 ce 07 20 be c7 ed 7d bd e7 93 34 be af 52 0e 3e
       -0.15627977 -0.06199434 -0.17634545 0.13898729
0003b0 2c fd a1 3d 4f 1e 0b 3d 0b 76 6e 3b a6 54 8c be
       0.07909617 0.03396445 0.0036386277 -0.27408332
0003c0 c1 ec 99 3e 9d 47 f1 3d d0 9c 6f 3e 2c a6 85 be
       0.3006344 0.11781237 0.23399663 -0.26103342
0003d0 e9 d2 3a be de 02 ed bd 40 77 81 be e9 af a9 3d
       -0.18244518 -0.115728125 -0.25286293 0.08285505
0003e0 ce 9b 92 bd fe 40 33 be 97 09 0d 3e 13 2f 49 3c
       -0.07158624 -0.17505261 0.1377319 0.01227929
0003f0 1d 12 8b 3e c9 f7 5e 3e ba 5a 8a 3e bb 0c 04 bd
       0.27162257 0.2177421 0.27022344 -0.032238703

transformer_encoder.layers.1.self_attn.in_proj_bias f4 [60]
000000 fb 3f 47 3c 0b 79 03 3c 4c 2f ef 3c 63 b5 8f bc
       0.01216125 0.008024464 0.029197358 -0.017542547
000010 c0 e2 98 bc d4 d8 5c 3d 63 b4 05 bb 50 43 96 3c
       -0.01866281 0.05391772 -0.0020401708 0.018342644
000020 e5 86 11 3d b9 00 d0 ba 02 9a 35 bc 68 cf 14 bd
       0.035529036 -0.0015869356 -0.011084082 -0.03633061
000030 a7 a5 ae 3b 55 30 13 bb e0 ee e0 3a 28 aa 09 bb
       0.005329806 -0.0022459228 0.0017161034 -0.0021005962
000040 5d 16 1d bc a2 4a 8e bd 39 69 80 bb fa 0d 48 3d
       -0.009587851 -0.06947829 -0.0039187935 0.048841454
000050 47 fc 3c b0 b0 1b d8 b0 ac 79 a5 30 67 67 ae b0
       -6.875251e-10 -1.5723938e-09 1.2039911e-09 -1.2689555e-09
000060 a4 6b eb b0 6a be 83 31 cf 1d 86 30 02 13 f8 31
       -1.7129094e-09 3.8342494e-09 9.758255e-10 7.219911e-09
000070 1c bf 0f 2f 8c fa ae 2f 0c a3 f6 b0 8f fd 65 b1
       1.307367e-10 3.182844e-10 -1.7945196e-09 -3.3468017e-09
000080 ac 5f 29 30 fa 55 0e b0 b9 af 87 b1 db 10 30 b1
       6.16178e-10 -5.178148e-10 -3.9489945e-09 -2.5620952e-09
000090 77 47 19 31 f8 4b 62 b1 b1 3e 4e b0 5f 77 f6 b0
       2.2305053e-09 -3.2930512e-09 -7.5031453e-10 -1.7932783e-09
0000a0 0f 59 0a 3a b4 56 55 bd 54 9d bf 3c 4e 2d 28 bc
       0.0005277553 -0.05208464 0.02339045 -0.010264708
0000b0 88 3e 8c 3d 83 97 45 bc 00 3a fa 3b 81 07 d4 3c
       0.068478644 -0.012060049 0.0076363087 0.025882484
0000c0 ca 2d 59 3d 3e 53 32 bc b9 b0 64 3c f7 a0 19 3c
       0.053022183 -0.010884104 0.01395815 0.009376756
0000d0 d6 d6 9c bc 33 93 bc bc 8d 0d 70 bd cd c7 a8 bc
       -0.01914541 -0.023019409 -0.058606673 -0.020603085
0000e0 8b 5b 27 3d 4e 48 08 3c 8a fb 00 bd 85 5c 5c 3c
       0.040858787 0.00831802 -0.031489886 0.013449793
