model_epoch_71.pt (torch, 431970 bytes, 28 tensors)

pos_encoder.pe f4 [5000, 1, 20]
0	0x00000000	0.0
1	0x3f800000	1.0
2	0x00000000	0.0
3	0x3f800000	1.0
4	0x00000000	0.0
5	0x3f800000	1.0
6	0x00000000	0.0
7	0x3f800000	1.0
8	0x00000000	0.0
9	0x3f800000	1.0
10	0x00000000	0.0
11	0x3f800000	1.0
12	0x00000000	0.0
13	0x3f800000	1.0
14	0x00000000	0.0
15	0x3f800000	1.0
16	0x00000000	0.0
17	0x3f800000	1.0
18	0x00000000	0.0
19	0x3f800000	1.0
20	0x3f576aa5	0.841471
21	0x3f0a5141	0.54030234
22	0x3ec67d3d	0.38767424
23	0x3f6bfada	0.92179644
24	0x3e219d4e	0.15782663
25	0x3f7ccaa0	0.9874668
26	0x3d812265	0.06305388
27	0x3f7f7d97	0.9980101
28	0x3ccdc08a	0.025116224
29	0x3f7feb53	0.9996845
30	0x3c23d657	0.009999833
31	0x3f7ffcb9	0.99995
32	0x3b827390	0.0039810613
33	0x3f7fff7b	0.9999921
34	0x3acfbc28	0.0015848922
35	0x3f7fffeb	0.99999875
36	0x3a2566d4	0.0006309573
37	0x3f7ffffd	0.9999998
38	0x3983b1f5	0.00025118855
39	0x3f7fffff	0.99999994
40	0x3f68c7b7	0.9092974
41	0xbed51133	-0.41614684
42	0x3f36f776	0.71471345
43	0x3f330d04	0.69941735
44	0x3e9f96c5	0.31169716
45	0x3f733f18	0.9501815
46	0x3e00e09d	0.12585683
47	0x3f7df6e3	0.99204844
48	0x3d4dafec	0.0502166
49	0x3f7fad51	0.99873835
50	0x3ca3d43e	0.019998666
51	0x3f7ff2e5	0.9998
52	0x3c02734d	0.00796206
53	0x3f7ffdec	0.9999683
54	0x3b4fbc17	0.0031697804
55	0x3f7fffac	0.999995
56	0x3aa566d2	0.0012619144
57	0x3f7ffff3	0.9999992
58	0x3a03b1f5	0.0005023771
59	0x3f7ffffe	0.9999999
60	0x3e1081c3	0.14112
61	0xbf7d7026	-0.9899925
62	0x3f6e1248	0.92996645
63	0x3ebc3be5	0.36764446
64	0x3eea5ece	0.45775455
65	0x3f639aa8	0.8890786
66	0x3e40acb9	0.18815888
67	0x3f7b6d6f	0.9821386
68	0x3d9a2f2d	0.07528529
69	0x3f7f4603	0.99716204
70	0x3cf5b91f	0.0299955
71	0x3f7fe283	0.99955004
72	0x3c43ac49	0.011942931
73	0x3f7ffb53	0.99992865
74	0x3b9bccfc	0.0047546607
75	0x3f7fff42	0.9999887
76	0x3af81a36	0.001892871
77	0x3f7fffe2	0.9999982
78	0x3a458aef	0.00075356563
79	0x3f7ffffb	0.9999997
80	0xbf41bdcf	-0.7568025
81	0xbf275530	-0.6536436
82	0x3f7ff0ab	0.99976605
83	0xbcb132ce	-0.02163067
84	0x3f17a372	0.5923377
85	0x3f4e41b0	0.8056898
86	0x3e7fb48a	0.24971214
87	0x3f77e3d4	0.96832013
88	0x3dcd6d7d	0.10030649
89	0x3f7eb57a	0.9949566
90	0x3d23cbdb	0.039989334
91	0x3f7fcb94	0.9992001
92	0x3c82723e	0.015923616
93	0x3f7ff7b1	0.9998732
94	0x3bcfbbd3	0.006339529
95	0x3f7ffeaf	0.9999799
96	0x3b2566c9	0.0025238267
97	0x3f7fffcb	0.99999684
98	0x3a83b1f4	0.0010047541
99	0x3f7ffff8	0.9999995
100	0xbf757c10	-0.9589243
101	0x3e913c2c	0.2836622
102	0x3f69c728	0.91319513
103	0xbed0a6ce	-0.40752262
104	0x3f364a6e	0.7120732
105	0x3f33bd2c	0.7021053
106	0x3e9edbeb	0.3102716
107	0x3f735daa	0.95064795
108	0x3e00454f	0.12526439
109	0x3f7dfbcd	0.9921234
110	0x3d4cb6f4	0.049979165
111	0x3f7fae19	0.99875027
112	0x3ca30dcf	0.019904045
113	0x3f7ff304	0.9998019
114	0x3c01d544	0.007924382
115	0x3f7ffdf1	0.9999686
116	0x3b4ec074	0.0031547816
117	0x3f7fffad	0.99999505
118	0x3aa49e6f	0.0012559424
119	0x3f7ffff3	0.9999992
120	0xbe8f0f8c	-0.2794155
121	0x3f75cdb8	0.96017027
122	0x3f2f0d20	0.683794
123	0xbf3acbfd	-0.7296751
124	0x3f505fa7	0.81395954
125	0x3f14b747	0.5809216
126	0x3ebd3bb7	0.3695962
127	0x3f6ddf8f	0.9291925
128	0x3e19bf29	0.15014328
129	0x3f7d191a	0.98866427
130	0x3d759cd1	0.059964005
131	0x3f7f8a12	0.99820054
132	0x3cc3a8b7	0.02388416
133	0x3f7fed4e	0.99971473
134	0x3c1bcc88	0.009509213
135	0x3f7ffd09	0.99995476
136	0x3b781a19	0.0037857352
137	0x3f7fff88	0.99999285
138	0x3ac58aeb	0.0015071308
139	0x3f7fffed	0.99999887
140	0x3f283046	0.6569866
141	0x3f40ffbd	0.75390226
142	0x3eb1e3fd	0.34744254
143	0xbf700d31	-0.9377013
144	0x3f653bc0	0.89544296
145	0x3ee3ee26	0.4451763
146	0x3edadab9	0.42744997
147	0x3f676f1a	0.904039
148	0x3e33202d	0.17492743
149	0x3f7c0d86	0.98458135
150	0x3d8f3e32	0.06994285
151	0x3f7f5f81	0.997551
152	0x3ce442d4	0.027863897
153	0x3f7fe68e	0.99961174
154	0x3c35c3b4	0.011094023
155	0x3f7ffbf8	0.9999385
156	0x3b90b9db	0.004416687
157	0x3f7fff5c	0.9999902
158	0x3ae67765	0.001758319
159	0x3f7fffe6	0.99999845
160	0x3f7d4695	0.98935825
161	0xbe14fdf6	-0.14550003
162	0xbd312831	-0.04325122
163	0xbf7fc2ac	-0.9990642
164	0x3f7458dc	0.9544809
165	0x3e98b71d	0.29827204
166	0x3ef79ac2	0.48360258
167	0x3f6012db	0.8752877
168	0x3e4c6442	0.1996012
169	0x3f7ad93c	0.97987723
170	0x3da3aa50	0.07991469
171	0x3f7f2e66	0.99680173
172	0x3d026e02	0.031843193
173	0x3f7fdec4	0.9994929
174	0x3c4fbac1	0.012678803
175	0x3f7ffabb	0.9999196
176	0x3ba566a7	0.0050476375
177	0x3f7fff2a	0.99998724
178	0x3b03b1ef	0.002009507
179	0x3f7fffde	0.999998
180	0x3ed30132	0.4121185
181	0xbf693fd5	-0.91113025
182	0xbedab75c	-0.42718017
183	0xbf677775	-0.9041665
184	0x3f7d5600	0.9895935
185	0x3e135839	0.14389123
186	0x3f09af43	0.53783053
187	0x3f57d252	0.843053
188	0x3e658754	0.22414905
189	0x3f797c6e	0.9745549
190	0x3db8123e	0.089878544
191	0x3f7ef6c2	0.9959527
192	0x3d12ba12	0.03582198
193	0x3f7fd5f0	0.9993582
194	0x3c69b1ad	0.014263553
195	0x3f7ff955	0.99989825
196	0x3bba136e	0.0056785857
197	0x3f7ffef1	0.99998385
198	0x3b14282c	0.0022606952
199	0x3f7fffd5	0.99999744
200	0xbf0b44f8	-0.5440211
201	0xbf56cd64	-0.8390715
202	0xbf3e8a23	-0.7442953
203	0xbf2af843	-0.6678507
204	0x3f7ff97d	0.99990064
205	0xbc66f4ba	-0.014096433
206	0x3f1704e0	0.58991814
207	0x3f4eb5e6	0.80746305
208	0x3e7e8553	0.24855547
209	0x3f77f754	0.9686177
210	0x3dcc7576	0.099833414
211	0x3f7eb898	0.9950042
212	0x3d23058a	0.039800204
213	0x3f7fcc13	0.9992077
214	0x3c81d439	0.015848266
215	0x3f7ff7c5	0.9998744
216	0x3bcec030	0.0063095316
217	0x3f7ffeb2	0.9999801
218	0x3b249e67	0.002511883
219	0x3f7fffcb	0.99999684
220	0xbf7fff5c	-0.9999902
221	0x3b910572	0.004425698
222	0xbf71eb58	-0.9449973
223	0xbea776c9	-0.32707813
224	0x3f7c3265	0.98514396
225	0xbe2fda27	-0.17173062
226	0x3f23c09f	0.6396579
227	0x3f44c6e2	0.7686597
228	0x3e8bad1c	0.2728051
229	0x3f764a2d	0.96206933
230	0x3de0d372	0.1097783
231	0x3f7e73e8	0.9939561
232	0x3d335059	0.043777797
233	0x3f7fc12c	0.9990413
234	0x3c8ecf86	0.01743294
235	0x3f7ff60a	0.999848
236	0x3be36ced	0.006940475
237	0x3f7ffe6c	0.9999759
238	0x3b3514a2	0.0027630706
239	0x3f7fffc0	0.9999962
240	0xbf095cd8	-0.53657293
241	0x3f5806d0	0.84385395
242	0xbf7f760b	-0.99789494
243	0x3d84d0e1	0.06485153
244	0x3f7218f5	0.9456933
245	0xbea66e4d	-0.32506028
246	0x3f2fd589	0.68685204
247	0x3f3a0f63	0.7267973
248	0x3e9800fe	0.29688257
249	0x3f74753e	0.954914
250	0x3df52bac	0.119712204
251	0x3f7e28b5	0.99280864
252	0x3d439a6d	0.047754694
253	0x3f7fb53b	0.9988591
254	0x3c9bcaba	0.019017566
255	0x3f7ff426	0.99981916

transformer_encoder.layers.0.self_attn.in_proj_weight f4 [60, 20]
0	0xbe1b85aa	-0.15187708
1	0xbe73f3aa	-0.23823419
2	0x3e5a27a7	0.21304189
3	0x3d852bff	0.06502532
4	0x3e3b5632	0.182946
5	0x3d9a3e75	0.07531444
6	0xbe347f35	-0.1762665
7	0x3dffc205	0.12488178
8	0x3c3f4963	0.011675212
9	0x3d40f652	0.04710991
10	0xbe528447	-0.20558272
11	0x3e6fd065	0.2341934
12	0xbe8a8d5d	-0.27060977
13	0x3e370df0	0.1787641
14	0x3e867b1b	0.26265797
15	0x3e86a4fa	0.26297742
16	0x3d99fcbe	0.0751891
17	0xbdd75afc	-0.10515401
18	0xbc3d4213	-0.011551398
19	0xbc2072fa	-0.009793038
20	0x3e76c64e	0.24099085
21	0xbd76c2d0	-0.06024438
22	0xbe85dd99	-0.26145628
23	0x3dcc2241	0.09967471
24	0x3d7ae2dd	0.06125151
25	0x3de2a5a1	0.110667475
26	0x3e2425dc	0.16030067
27	0xbdaf115b	-0.08548232
28	0x3e6cc1a3	0.23120742
29	0xbd324e33	-0.043531608
30	0x3afbf1fd	0.0019221898
31	0xbdbeb2d7	-0.09311455
32	0x3dd04b60	0.10170627
33	0xbdcd6aa9	-0.100301094
34	0x3e6a3e4f	0.22875331
35	0x3e22444f	0.1584637
36	0x3e868c9b	0.26279148
37	0x3c9bfcbf	0.019041417
38	0x3d16f3e2	0.03685368
39	0xbdfdecbf	-0.12398671
40	0x3e13cc18	0.14433324
41	0xbe151d14	-0.14561874
42	0x3c4a5f80	0.012351871
43	0xbd7d4b82	-0.061839588
44	0x3e74767c	0.23873323
45	0xbe5737d9	-0.21017398
46	0x3e39b87f	0.18136786
47	0xbe697407	-0.22798167
48	0xbb7ab2cd	-0.0038253546
49	0xbda4c2e9	-0.08044989
50	0xbd8238d4	-0.06358495
51	0xbd4fe51b	-0.0507556
52	0x3d43cc8b	0.04780249
53	0xbe22f561	-0.15913917
54	0x3ddb288b	0.10701092
55	0xbe3511ed	-0.1768262
56	0xbd82a53d	-0.06379173
57	0xbe8de061	-0.2771025
58	0xbdb6e8a5	-0.08931092
59	0xbccfebd5	-0.025381008
60	0x3dccca27	0.09999495
61	0xbc28f249	-0.0103116715
62	0xbe123bc4	-0.14280611
63	0x3daf7b5c	0.08568451
64	0x3e5e544a	0.21711841
65	0x3e224bcf	0.15849231
66	0xbde7d3cc	-0.11319694
67	0x3dd9bd2c	0.10631785
68	0x3cf01476	0.029306632
69	0xbc3e924e	-0.011631561
70	0x3d8015bf	0.06254148
71	0x3dffd99c	0.124926776
72	0xbe763333	-0.24042968
73	0xbe020cf9	-0.12700261
74	0x3cea3c6e	0.028593268
75	0x3e404b70	0.18778777
76	0xbe3cec3f	-0.18449496
77	0xbe01426e	-0.12622997
78	0xbc86cddd	-0.016455585
79	0x3e024257	0.12720619
80	0xbe749685	-0.23885544
81	0x3de7037b	0.11279961
82	0xbe35c4ec	-0.17750901
83	0x3e7e9cbf	0.24864481
84	0xbd8b6fe5	-0.068084516
85	0xbd8da057	-0.06915348
86	0xbc8d97c9	-0.01728429
87	0xbc9e523a	-0.019326318
88	0x3e6ded14	0.2323497
89	0x3e056ce3	0.13029818
90	0xbe6681b6	-0.22510418
91	0x3e0f5b73	0.13999729
92	0x3e281016	0.16412386
93	0xbdd503bc	-0.10401103
94	0xbe4d3cd8	-0.20042741
95	0xbdb8f1e1	-0.0903051
96	0xbd63c48e	-0.05560737
97	0x3d0e5704	0.034750953
98	0x3ca9ffac	0.020751797
99	0x3e804142	0.25049788
100	0xbd940a61	-0.07228542
101	0xbd3ecc2c	-0.046581432
102	0x3e4408db	0.19144003
103	0xbe6073ac	-0.21919125
104	0x3d20d9c1	0.039270166
105	0x3d1589b4	0.036508277
106	0x3d978bd9	0.07399721
107	0x3e39cafd	0.1814384
108	0xbe549639	-0.2076043
109	0xbddfab7e	-0.109213814
110	0x3d7409d9	0.059579704
111	0x3e5a2754	0.21304065
112	0xbd0ecdc9	-0.03486422
113	0xbda34bb8	-0.079734266
114	0xbe751f26	-0.23937663
115	0x3e30fad4	0.17283183
116	0xbe1fa902	-0.15591815
117	0xbe23ba6a	-0.1598908
118	0xbde3703a	-0.1110539
119	0xbcb15aeb	-0.021649798
120	0xbdcd3ac1	-0.10020972
121	0x3dc8bd2b	0.09801706
122	0x3e6c4ab2	0.23075369
123	0x3cc9fb21	0.02465588
124	0xbe3d2ad0	-0.18473363
125	0xbe128d6b	-0.14311759
126	0xbcafd956	-0.021465939
127	0xbe08d8a5	-0.13363893
128	0xbd8898d8	-0.06669778
129	0x3e149932	0.14511564
130	0xbdbab4f0	-0.09116542
131	0x3df2870b	0.11842164
132	0xbcff323b	-0.031151881
133	0x3e0ee521	0.13954593
134	0xbe055d07	-0.13023768
135	0x3e78a060	0.24279928
136	0x3e5cea1b	0.21573679
137	0xbe035737	-0.12826239
138	0x3ba2d2a3	0.0049689575
139	0xbde332e8	-0.11093694
140	0x3e5ec190	0.21753526
141	0xbf0f3cb1	-0.5595198
142	0x3d4a42c0	0.049380064
143	0x3d15c095	0.036560614
144	0x3e91718e	0.28406948
145	0xbd156aec	-0.03647892
146	0xbe34b430	-0.17646861
147	0xbd6985be	-0.057012312
148	0xbdf18668	-0.11793214
149	0xbd5febfe	-0.05466842
150	0x3d50b89e	0.050957315
151	0xbe3bb09f	-0.18329094
152	0x3e32dbe0	0.17466688
153	0xbcc4ff6b	-0.024047574
154	0xbe5a34e8	-0.21309245
155	0xbe0fb42f	-0.14033578
156	0x3dd4e5b4	0.10395375
157	0x3c80df20	0.015731394
158	0xbd10147f	-0.035175797
159	0xbdda5aea	-0.10661872
160	0x3df4e780	0.119582176
161	0x3de73cd6	0.112909004
162	0xbcce36c6	-0.025172602
163	0x3e4e4598	0.20143735
164	0x3de817a1	0.11332632
165	0xbdabba65	-0.08385161
166	0xbe87605c	-0.26440704
167	0x3e489d94	0.19591361
168	0xbc409205	-0.011753564
169	0x3e0d5dfa	0.1380538
170	0xbd1f6601	-0.038915638
171	0x3d7d9b8b	0.061915915
172	0x3e68c0fc	0.22729868
173	0xbda64e39	-0.081203885
174	0x3e110825	0.14163263
175	0x3e4097a2	0.18807843
176	0x3e16593a	0.14682475
177	0xbe659dfe	-0.2242355
178	0x3e805527	0.25064966
179	0x3e181a5f	0.1485381
180	0xbdab6d38	-0.08370441
181	0xbe3fd5f8	-0.18733966
182	0x3d851884	0.064988166
183	0x3dd8761e	0.10569404
184	0x3e3c6a69	0.18399967
185	0xbe251223	-0.161202
186	0xbdb8ddf9	-0.09026713
187	0x3e0bcc40	0.13652134
188	0xbe28a44a	-0.16468921
189	0xbddf6256	-0.10907428
190	0xbe4e5e6c	-0.20153207
191	0xbdf6ea84	-0.12056449
192	0x3e27ce93	0.16387396
193	0xbd7e9195	-0.062150557
194	0xbc9f424e	-0.019440796
195	0xbc62600b	-0.013816844
196	0xbe549826	-0.20761165
197	0xbd4172e7	-0.04722872
198	0xbd897331	-0.06711424
199	0x3c22f473	0.009945977
200	0xbe2ce93c	-0.16885847
201	0xbe82c82d	-0.25543347
202	0x3d451468	0.048115164
203	0xbe47b542	-0.19502738
204	0xbbf2660b	-0.0073974184
205	0x3e133328	0.14374983
206	0x3ca5e71b	0.020251801
207	0xbe4b5944	-0.19858271
208	0x3e5c6857	0.21524177
209	0x3e14ab3d	0.14518447
210	0x3dfce25e	0.123478636
211	0x3d14b119	0.036301706
212	0xbd0a1c5d	-0.033718456
213	0x3c6f6b89	0.014613041
214	0xbd474ea1	-0.04865897
215	0x3cba41b4	0.022736408
216	0x3d6ad970	0.05733627
217	0x3e6d1cdd	0.23155542
218	0x3df08eec	0.1174601
219	0x3e06b518	0.1315502
220	0x3ca211fa	0.019783963
221	0xbe961407	-0.29312155
222	0xbe4a2ad5	-0.19742902
223	0xbe6b15cf	-0.22957538
224	0x3e423961	0.18967201
225	0xbdc8caf5	-0.09804336
226	0xbe1989a1	-0.14993908
227	0x3d44e602	0.048070915
228	0x3ccf74aa	0.025324184
229	0x3e1d8b5f	0.15385197
230	0xbdd0003f	-0.10156297
231	0x3d4bb83a	0.04973624
232	0xbe4b9f79	-0.19885053
233	0xbd9478db	-0.07249614
234	0xbe347b1c	-0.17625087
235	0x3e00bf9c	0.12573093
236	0x3dd3e06a	0.10345538
237	0xbcab9a2a	-0.020947535
238	0x3c911849	0.017711775
239	0xbe8b2dbb	-0.27183327
240	0x3e9adae4	0.30245125
241	0x3e0334fe	0.12813184
242	0x3e61c3c5	0.22047336
243	0xbe6d8680	-0.23195839
244	0xbe428cb6	-0.1899899
245	0xbe14ade2	-0.14519456
246	0xbe6f8210	-0.23389459
247	0x3dbb0295	0.09131352
248	0xbda82c3d	-0.08211563
249	0xbe29ac69	-0.16569676
250	0x3df5cf74	0.12002459
251	0xbc4c1a1b	-0.012457396
252	0x3e8c3dcb	0.27390894
253	0x3e5125f6	0.20424637
254	0x3e86c994	0.26325667
255	0xbd4f7b4a	-0.050654687

transformer_encoder.layers.0.self_attn.in_proj_bias f4 [60]
0	0xbc899a69	-0.016797261
1	0x3b3e2eec	0.0029019667
2	0xbb8c2a73	-0.0042775213
3	0x3a2d669b	0.00066147157
4	0xbc1d7722	-0.009610923
5	0x3c817ae0	0.015805662
6	0x3d1b0744	0.037848726
7	0x3d2c3c12	0.042049475
8	0x3cda18f9	0.026623236
9	0xbc09843c	-0.008393344
10	0x3cada5c7	0.021197213
11	0xbc5bc8b2	-0.013414549
12	0xbc9dbde3	-0.019255584
13	0xbcce2db1	-0.025168272
14	0x3c8a04f5	0.016848067
15	0x3c3fd479	0.011708372
16	0xbc405caa	-0.011740843
17	0xbd3276d6	-0.043570362
18	0x3ba2e89a	0.004971576
19	0x3d4885d0	0.04895574
20	0xb1439718	-2.8462122e-09
21	0x306b490f	8.5596324e-10
22	0x2de36e3b	2.5855864e-11
23	0xb131423c	-2.579454e-09
24	0x30f4f43d	1.7822753e-09
25	0x3295e783	1.7451162e-08
26	0x31c84bbc	5.829376e-09
27	0x318e6f88	4.1454236e-09
28	0x32088cdb	7.948269e-09
29	0x31ad6e44	5.0474984e-09
30	0x2e4d0618	4.6617016e-11
31	0x2fe83251	4.2236306e-10
32	0x2f338ee9	1.6330727e-10
33	0xb063c440	-8.2861007e-10
34	0xb17c4054	-3.6707393e-09
35	0x318603d1	3.900347e-09
36	0xb1ccafdb	-5.957174e-09
37	0x318896a5	3.9752472e-09
38	0x313ee7e1	2.7780447e-09
39	0x31364e49	2.6528986e-09
40	0xbd4448c7	-0.04792097
41	0x3d51c013	0.051208567
42	0xbccd8c9d	-0.025091464
43	0xbc886b55	-0.016652742
44	0x3d67fc28	0.05663696
45	0x3dad6111	0.084657796
46	0x3b97d96a	0.004634072
47	0x3d82f82a	0.0639499
48	0x3d62bf41	0.055358175
49	0x3c0fcf67	0.008777476
50	0xbc9a9b78	-0.018872961
51	0x3c41c3c6	0.011826461
52	0xbd878610	-0.06617367
53	0x3d945069	0.072418995
54	0x3c916fae	0.017753448
55	0x3d93d2c9	0.072179385
56	0x3d31fa0f	0.043451365
57	0x3d2cd3a1	0.042194013
58	0x3c2643d2	0.010148006
59	0xbc7bd780	-0.015371203

transformer_encoder.layers.0.self_attn.out_proj.weight f4 [20, 20]
0	0x3e0af9d7	0.13571869
1	0xbdd612ca	-0.104528025
2	0xbda73f93	-0.08166423
3	0x3e0ec313	0.13941602
4	0x3e833382	0.25625235
5	0x3d2e1378	0.042499036
6	0x3ec5e4af	0.38651034
7	0x3de1a323	0.11017444
8	0xbd919959	-0.07109327
9	0x3d80e2e4	0.06293276
10	0xbe3f947e	-0.18708989
11	0x3d6ab946	0.057305597
12	0xbc8604e2	-0.01635975
13	0xbc4d5f8f	-0.01253499
14	0x3daa08e2	0.083024755
15	0xbeb75a63	-0.35811147
16	0x3dd9fdc0	0.10644102
17	0x3da66d77	0.081263475
18	0x3eb40677	0.35161182
19	0x3da58547	0.08082061
20	0x3e179252	0.1480191
21	0xbdb45f8a	-0.08807285
22	0x3d8ae2e8	0.0678156
23	0xbd50fa00	-0.05101967
24	0x3dcafbd4	0.09911314
25	0xbd44b378	-0.048022717
26	0xbe84066e	-0.25786155
27	0xbe2c2153	-0.16809587
28	0xbe1fdfd5	-0.15612729
29	0xbd8f1183	-0.06985762
30	0xbd26da9c	-0.040735826
31	0x3d8ca9d8	0.068683326
32	0x3e01c5a7	0.12673055
33	0xbe4908cd	-0.19632263
34	0xbdd616b9	-0.10453553
35	0x3d7b8cdb	0.061413627
36	0xbd8d5614	-0.06901184
37	0x3d6128b4	0.05497046
38	0x3d500160	0.05078256
39	0xbdbb2a07	-0.091388755
40	0xbe1efcbc	-0.15526098
41	0xbd1e05e1	-0.038579825
42	0xbdc8d856	-0.09806888
43	0xbe120764	-0.14260632
44	0x3e353c60	0.17698812
45	0xbe1b8d04	-0.15190512
46	0xbe36f95f	-0.17868565
47	0x3cbe730e	0.023248222
48	0xbe58f0da	-0.21185628
49	0xbd06577d	-0.03279828
50	0xbe092136	-0.13391575
51	0xbe1f1931	-0.15536954
52	0x3c8e9d1a	0.017408896
53	0x3da49286	0.0803576
54	0x3cdb03f0	0.026735276
55	0xbe3c78e4	-0.18405491
56	0x3e19ed7d	0.15032001
57	0xbdd38091	-0.103272565
58	0x3dce0538	0.10059589
59	0xbe5e2b6a	-0.21696249
60	0x3d656124	0.056000844
61	0xbd2f6d6b	-0.04282896
62	0x3c86d949	0.016461032
63	0x3bc367f5	0.0059633204
64	0x3e4c01b3	0.19922523
65	0xbe8613d4	-0.26187003
66	0x3de255b6	0.11051504
67	0xbcb30294	-0.021851815
68	0x3df7ca6d	0.120991565
69	0x3d957736	0.07298128
70	0x3bcfed24	0.006345408
71	0xbde36807	-0.11103826
72	0x3df5a69d	0.119946696
73	0x3d8d4753	0.0689837
74	0x3ea213e1	0.3165579
75	0xbe17eb7e	-0.14835927
76	0xbdd2aaa5	-0.10286454
77	0x3db7a8a1	0.0896771
78	0xb9f082a9	-0.00045873717
79	0x3e8e2555	0.27762857
80	0xbd36cec4	-0.04463078
81	0x3dd31242	0.10306217
82	0xbe60569e	-0.21908042
83	0xbe43f2b1	-0.19135548
84	0xbcea1c8d	-0.028578067
85	0xba84629f	-0.0010100192
86	0x3e48e739	0.19619454
87	0xbd1da629	-0.03848854
88	0x3e38d443	0.18049721
89	0x3d4dc5b7	0.050237384
90	0xbc9f3bc6	-0.019437682
91	0x3d50448d	0.050846625
92	0xbe50e93e	-0.20401475
93	0x3e58cac7	0.21171103
94	0xbdb3a30f	-0.08771335
95	0xbe1eebaa	-0.15519586
96	0x3d826040	0.063660145
97	0x3d4ae317	0.049532976
98	0x3dd89afb	0.10576435
99	0xbe05a26d	-0.13050242
100	0x3e85765d	0.26066867
101	0x3da47299	0.0802967
102	0xbe529a63	-0.20566706
103	0xbc77d5bc	-0.015126642
104	0xbda66510	-0.08124745
105	0xbda2ae5a	-0.07943411
106	0xbeb58317	-0.35451576
107	0xbe2eea5e	-0.17081591
108	0xbcf293fd	-0.029611582
109	0x3e679337	0.22614752
110	0xbe5f4c50	-0.21806455
111	0xbc443e0b	-0.011977683
112	0x3b90a248	0.0044138767
113	0x3c7736c4	0.015088741
114	0x3d47960e	0.048727088
115	0x3e2d137a	0.16901961
116	0xbd22f234	-0.039781764
117	0xbd34c5e9	-0.044134054
118	0x3e2fe965	0.17178877
119	0xbe20e400	-0.15711975
120	0x3d7fcdcd	0.062452126
121	0xbdc853de	-0.097816214
122	0xbdf7dfe0	-0.12103248
123	0x3db18827	0.08668547
124	0x3e521072	0.20514086
125	0xbe58556c	-0.21126336
126	0x3e295f33	0.16540222
127	0x3d4e5ecd	0.050383378
128	0x3e5a4bf7	0.21318041
129	0x3e159a77	0.14609705
130	0x3d9f7b98	0.077872455
131	0x3d3b8ed5	0.045790512
132	0x3e4e8f9c	0.2017197
133	0xbe0392d7	-0.12848984
134	0xbe28f056	-0.16497931
135	0x3e445a91	0.19175173
136	0x3c70e090	0.014701977
137	0x3d890911	0.066911824
138	0xbe1b2dfa	-0.15154257
139	0xbdd529e5	-0.104083814
140	0x3da68aec	0.08131966
141	0xbe08b174	-0.13348943
142	0x3e102167	0.14075242
143	0xbd8e777d	-0.06956384
144	0x3df02ca0	0.117272615
145	0xbd7111e8	-0.058854967
146	0xbd9ab2a6	-0.07553606
147	0x3deaf8c4	0.114732295
148	0x3e034917	0.1282085
149	0xbdd7c165	-0.10534934
150	0xbe2d47a7	-0.16921864
151	0xbe3aead8	-0.18253648
152	0x3e095fa0	0.13415384
153	0xbd6eb936	-0.0582821
154	0xbd9b4bd5	-0.07582823
155	0xbd89df3f	-0.06732034
156	0x3dad380e	0.08457957
157	0x3e194e48	0.14971268
158	0xbd1e4460	-0.038639426
159	0xbd99573f	-0.07487344
160	0x3ccfe4eb	0.025377711
161	0x3e4826fe	0.19546124
162	0x3e45a14a	0.19299808
163	0x3c4d41c0	0.012527883
164	0xbdbecad7	-0.093160324
165	0x3d528350	0.05139476
166	0xbd5e126a	-0.05421678
167	0x3e62c4c0	0.22145367
168	0x3bdef7a7	0.006804425
169	0xbd0c72a7	-0.03428903
170	0xbe32f217	-0.17475162
171	0xbde0a948	-0.10969788
172	0xbd97f783	-0.07420256
173	0x3e156f0f	0.14593147
174	0x3d09acc3	0.033612024
175	0x3e4cff77	0.20019327
176	0xbcce23dc	-0.025163583
177	0x3d9a7b4c	0.07543048
178	0x3dce033a	0.10059209
179	0xbe896d04	-0.26840985
180	0x3e204530	0.15651393
181	0xbe24bea3	-0.16088347
182	0x3e648799	0.22317351
183	0xbdff3899	-0.12461967
184	0x3e6ee381	0.23328973
185	0xbdd4c22b	-0.10388597
186	0x3d752cbb	0.05985711
187	0x3d6110c7	0.05494764
188	0x3e63a56c	0.22231072
189	0xbe179507	-0.14802943
190	0x3a1c06ef	0.0005951961
191	0x3d916204	0.07098773
192	0xbe3549ec	-0.1770398
193	0xbdcaa2ff	-0.0989437
194	0xbcdd1af1	-0.026990386
195	0x3e3037a5	0.17208727
196	0xbe17a206	-0.14807901
197	0x3e03f917	0.12887989
198	0xbe46b23a	-0.19403926
199	0xbe221973	-0.1583002
200	0x3e71d102	0.23614886
201	0xbe365ae0	-0.17808104
202	0x3de0fef1	0.10986126
203	0xbd486ce4	-0.04893197
204	0x3ddb0567	0.1069439
205	0xbbdf9f04	-0.006824376
206	0x3e38516b	0.17999808
207	0x3d1667a1	0.036719922
208	0xbe1fce06	-0.15605935
209	0xbcaff97e	-0.021481272
210	0x39565bec	0.00020442874
211	0xbdc0a8c6	-0.09407191
212	0x3c29e5f7	0.010369769
213	0x3d26b16c	0.040696546
214	0xbbbb5201	-0.0057165627
215	0x3e4dac89	0.20085348
216	0x3c34057a	0.010987634
217	0x3e3f5032	0.18682936
218	0xbca2b605	-0.019862184
219	0x3dadadd2	0.08480419
220	0x3e1cbd4e	0.15306589
221	0x3dabffd7	0.08398407
222	0xbc216a74	-0.009852041
223	0xbe3cf1b1	-0.18451573
224	0x3d8d0358	0.068854034
225	0xbe780ad5	-0.24222882
226	0xbe80a1e5	-0.25123516
227	0x3d7d1c74	0.061794713
228	0x3e772c84	0.24138075
229	0xbc97fecd	-0.018554116
230	0xbd2850b7	-0.0410926
231	0xbc115c8d	-0.0088721635
232	0xbdc872ca	-0.09787519
233	0x3c50d89e	0.012746958
234	0xbd0cd5a4	-0.03438343
235	0x3e46255b	0.19350187
236	0xbe9d7885	-0.30756012
237	0xbe304667	-0.17214356
238	0x3cc2f092	0.023796353
239	0x3ccf6de2	0.02532095
240	0xbe2cc63c	-0.16872495
241	0xbdc7736c	-0.09738812
242	0x3e9e8bfb	0.30966172
243	0xbe317356	-0.17329153
244	0xbdd7667f	-0.105175965
245	0x3d1dcfa4	0.0385281
246	0x3d7c5d7e	0.0616126
247	0x3dccadb5	0.099940695
248	0xbe94fe98	-0.2910049
249	0x3e24eab2	0.16105154
250	0x3e121557	0.14265953
251	0xbd01d184	-0.03169395
252	0xbd0a13be	-0.033710234
253	0x3e5b63c4	0.21424776
254	0xbbf97f75	-0.007614071
255	0x3e822841	0.25421336

transformer_encoder.layers.0.self_attn.out_proj.bias f4 [20]
0	0xbcc6cacd	-0.024266625
1	0x3d521a19	0.05129442
2	0x3d15428e	0.036440425
3	0x3d1b8d85	0.03797676
4	0x3cb89749	0.022533076
5	0x3cc9ec51	0.024648817
6	0xbcaa915f	-0.020821271
7	0x3cef013b	0.029175391
8	0xbc5af50e	-0.01336409
9	0xbcada9f2	-0.0211992
10	0x3becc5b2	0.0072257156
11	0xbd2b1da2	-0.041776307
12	0x3d149ac3	0.036280405
13	0xbdb20e0c	-0.086940855
14	0x3d0a761e	0.03380405
15	0xbcb1163b	-0.021617046
16	0xbb9710ca	-0.0046101557
17	0xbd1c90b8	-0.038223952
18	0x3c64c701	0.013963462
19	0xbca81f9b	-0.020522883

transformer_encoder.layers.0.linear1.weight f4 [20, 20]
0	0xbdb44c0f	-0.088035695
1	0x3e146937	0.14493261
2	0x3d817cc0	0.06322622
3	0x3e47b4fd	0.19502635
4	0xbdbfb65b	-0.093609534
5	0xbcb16e2b	-0.021658977
6	0xbe20b9ee	-0.15695927
7	0x3e3977ee	0.18112156
8	0xbd01c507	-0.03168204
9	0xbbb7ace0	-0.005605325
10	0xbdf336c3	-0.11875679
11	0x3d139eae	0.03604
12	0x3d8a2a86	0.06746392
13	0x3d33130c	0.043719336
14	0x3cfd4227	0.030915333
15	0x3db43b0a	0.08800323
16	0x3e47bb9d	0.19505163
17	0xbe13d3cd	-0.14436264
18	0xbd71eddf	-0.059064742
19	0xbde1cb29	-0.11025078
20	0xbe7b6fb4	-0.2455433
21	0x3e38d01a	0.18048134
22	0xbe652f54	-0.22381335
23	0x3d17b1ee	0.03703492
24	0x3d8313d0	0.06400263
25	0xbc91b831	-0.017788025
26	0x3cddd869	0.027080731
27	0xbe362f8a	-0.17791572
28	0x3e2b7853	0.16745119
29	0xbd1dd957	-0.03853735
30	0xbd0ca856	-0.034340225
31	0x3db6492d	0.08900676
32	0xbd6c1b6e	-0.057643346
33	0xbe10bc44	-0.14134318
34	0x3e20c458	0.15699899
35	0x3e492365	0.19642408
36	0x3e0d7b33	0.13816528
37	0xbd6585d9	-0.05603585
38	0xbdef5ced	-0.11687646
39	0x3d9e781e	0.07737754
40	0x3e2eb5d4	0.1706155
41	0x3e57a7e6	0.21060142
42	0x3e674365	0.22584303
43	0x3e45bea0	0.19310999
44	0x3c1e711a	0.00967052
45	0x3e32dc26	0.17466792
46	0x3e5cd399	0.21565093
47	0xbd445d13	-0.047940325
48	0xbdb67e02	-0.08910753
49	0x3d355344	0.04426886
50	0xbe9c4d92	-0.3052793
51	0x3be95da4	0.0071217585
52	0x3c13c784	0.009019736
53	0x3dde2b91	0.108481534
54	0xbe380181	-0.17969324
55	0xbd479595	-0.048726637
56	0xbdb5674b	-0.08857592
57	0x3e4bc463	0.19899134
58	0x3d38fabe	0.045161
59	0xbcbab316	-0.022790473
60	0xbd8d643b	-0.06903883
61	0xbe19d856	-0.15023932
62	0x3d5c008c	0.05371146
63	0x3e81997f	0.2531242
64	0xbd1809de	-0.037118785
65	0xbc3be1f4	-0.011467446
66	0xbd96290f	-0.0733205
67	0x3e11e3aa	0.14247003
68	0xbe22fbb4	-0.1591633
69	0xbd90d288	-0.07071406
70	0x3e0a8473	0.13527088
71	0xbe2cf56f	-0.168905
72	0x3e1c76c3	0.15279679
73	0x3d36abdf	0.044597503
74	0xbd7b704a	-0.061386384
75	0x3dd94cf4	0.10610381
76	0xbdd23c89	-0.102654524
77	0xbe480a33	-0.1953514
78	0x3d00915e	0.031388633
79	0x3e356c98	0.17717206
80	0x3d4091e4	0.047014132
81	0xbe4a6ce2	-0.19768098
82	0xbdc8ad18	-0.0979864
83	0xbea0f999	-0.31440428
84	0x3e137436	0.143998
85	0x3eb969af	0.36213443
86	0x3c14d6cb	0.009084414
87	0xbe475c6e	-0.19468853
88	0xbbaae680	-0.005215466
89	0xbe04a025	-0.12951715
90	0x3d17dc72	0.037075467
91	0xbdb7f4f7	-0.0898227
92	0xbdf9d3ce	-0.12198602
93	0x3e1c9a01	0.15293123
94	0x3d8d57b6	0.06901495
95	0xbe734869	-0.23758091
96	0xbe3af97d	-0.18259235
97	0x3cde830d	0.0271621
98	0x3db6d1e9	0.08926756
99	0xbd92556e	-0.07145201
100	0xbcee7106	-0.029106628
101	0xbee8aeec	-0.45445955
102	0x3b982660	0.0046432465
103	0xbd8b1263	-0.06790616
104	0x3dca4fcc	0.09878501
105	0xbea132b7	-0.31484005
106	0x3cccd875	0.025005559
107	0xbda24e5c	-0.07925102
108	0xbddf170a	-0.10893066
109	0xbd4348ff	-0.047677036
110	0xbd0a0d02	-0.03370381
111	0xbd1eaba6	-0.038737915
112	0xbbc641e7	-0.0060503366
113	0x3be76cfb	0.007062552
114	0x3e3c972f	0.18417047
115	0x3ea45987	0.32099554
116	0xbd7f4ee8	-0.06233111
117	0x3da06690	0.07832062
118	0x3e672a81	0.22574808
119	0x3df6fdb9	0.120601125
120	0xbcab73df	-0.020929275
121	0x3df00331	0.11719359
122	0xbddb0e37	-0.10696071
123	0xbe483221	-0.19550373
124	0x3e19d156	0.15021262
125	0x3eb445f2	0.35209614
126	0xbdc7b785	-0.097518004
127	0xbe678c3e	-0.22612092
128	0xbd876688	-0.06611353
129	0x3e148dca	0.14507213
130	0xbe133f48	-0.14379609
131	0xbe741fe4	-0.2384029
132	0xbe588fbc	-0.2114858
133	0xbe052bff	-0.13005064
134	0x3d6d23d8	0.05789551
135	0xbd6f6805	-0.05844881
136	0xbd0ad820	-0.03389752
137	0x3d7e68f9	0.06211183
138	0x3cc715fb	0.024302473
139	0xbe74e24e	-0.23914453
140	0x3e564297	0.2092384
141	0x3e292ac5	0.16520222
142	0xbd994c90	-0.07485306
143	0xbcc06f18	-0.023490474
144	0xbdbedc87	-0.09319406
145	0x3e64d920	0.22348452
146	0xbe686b14	-0.22697097
147	0x3da97894	0.082749516
148	0xbd7d91fa	-0.061906792
149	0xbe610e6e	-0.2197816
150	0xbe36e4e4	-0.17860752
151	0xbe3c2f3c	-0.18377393
152	0x3ded0317	0.11572855
153	0xbe69aa99	-0.22818984
154	0x3e056095	0.13025124
155	0xbe3907dd	-0.18069406
156	0x3cfe68bc	0.0310558
157	0xbe74bf68	-0.2390114
158	0xbe2dd7a0	-0.16976786
159	0xbdc10fbd	-0.0942683
160	0xbe0bd96d	-0.1365716
161	0x3e53d3f8	0.20686328
162	0x3e42e115	0.19031174
163	0xbdf48c59	-0.11940832
164	0x3d9b3221	0.07577921
165	0xbbe03c38	-0.006843116
166	0x3d8da5ff	0.06916427
167	0x3e8a2905	0.2698442
168	0xbe07c4aa	-0.13258615
169	0xbe07ceda	-0.13262501
170	0x3e129a7e	0.14316747
171	0x3e7c22b9	0.2462262
172	0xbd9beecb	-0.076139055
173	0x3ddb8f03	0.10720637
174	0xbd714637	-0.058904853
175	0xbe68b5e7	-0.2272564
176	0x3e0926dc	0.1339373
177	0xbd9a5736	-0.075361654
178	0x3dcb5ce1	0.099298246
179	0x3e00eb19	0.12589683
180	0x3c59e78a	0.013299832
181	0xbe893487	-0.26797888
182	0xbc345df0	-0.011008725
183	0x3e799fd7	0.2437738
184	0x3e75bf52	0.23998764
185	0x3d91bafe	0.07115744
186	0xbdb04e7f	-0.08608722
187	0x3df4c5ab	0.11951765
188	0x3d3bf275	0.045885522
189	0xbd90f4ea	-0.07077964
190	0x3dff5879	0.12468047
191	0x3e1ccf7e	0.15313527
192	0x3e0e4077	0.13891779
193	0xbe25ae47	-0.16179763
194	0xbdcbf81f	-0.09959435
195	0xbc0e5851	-0.008688048
196	0xbe177bd4	-0.1479333
197	0x3e2ffbe2	0.1718593
198	0xbda8d330	-0.08243406
199	0xbcd59378	-0.026071295
200	0xbbf07688	-0.007338349
201	0x3e362098	0.17785871
202	0xbd839edf	-0.06426787
203	0x3e46d5c2	0.1941748
204	0x3e493f18	0.19652975
205	0xbd2bcef6	-0.04194542
206	0xbc25acc5	-0.010111992
207	0xbca43620	-0.02004534
208	0x3e6a3395	0.2287124
209	0xbe348f45	-0.17632778
210	0xbe373016	-0.17889437
211	0xbe380115	-0.17969163
212	0x3dc19b67	0.09453469
213	0x3dce261e	0.10065864
214	0xbcce7e83	-0.02520681
215	0x3e03a48f	0.12855743
216	0xbe075b85	-0.13218506
217	0xbe4742a6	-0.19459018
218	0x3d9ac54c	0.07557163
219	0xbe2cc5dd	-0.16872354
220	0x3d8c0851	0.06837524
221	0xbe76a247	-0.24085341
222	0x3d598d96	0.053113542
223	0xbe2fffac	-0.17187375
224	0xbc2c7598	-0.010526083
225	0xbe78ec3c	-0.24308866
226	0x3dff9f8d	0.12481604
227	0xbe0dda07	-0.13852702
228	0xbde15457	-0.11002415
229	0x3df25c57	0.11834019
230	0xbcd3d873	-0.025860047
231	0xbd0f9f9a	-0.035064317
232	0xbe3eeba0	-0.18644571
233	0x3b4eb744	0.003154234
234	0x3e2658ae	0.16244766
235	0x3e203852	0.15646484
236	0xbe355499	-0.17708053
237	0xbe3577be	-0.1772146
238	0x3e080a5f	0.13285206
239	0x3dc0abdb	0.09407779
240	0x3d5552f5	0.052081067
241	0x3e4633c0	0.19355679
242	0xbcc1e1c8	-0.023667231
243	0x3e2fefa6	0.17181262
244	0x3d760f05	0.060072917
245	0xbce229b3	-0.027607774
246	0x3e2fad78	0.17156017
247	0x3e4674b4	0.19380456
248	0x3e1e97f0	0.15487647
249	0x3dd40815	0.10353104
250	0x3c872773	0.016498303
251	0xbe300f2b	-0.17193286
252	0xbe289b12	-0.16465405
253	0x3dc6bc13	0.09703841
254	0xbdd18911	-0.102312215
255	0xbdece991	-0.11567987

transformer_encoder.layers.0.linear1.bias f4 [20]
0	0xbdaaa963	-0.08333089
1	0x3dcfeaed	0.101522304
2	0xbe3d2e75	-0.18474753
3	0xbd77a2a1	-0.06045783
4	0x3e2b4ec5	0.16729267
5	0x3b06623c	0.002050533
6	0xbe67a486	-0.22621354
7	0xbe6c1119	-0.23053397
8	0x3d001b4f	0.031276044
9	0x3da7ce37	0.08193629
10	0x3de5590a	0.111986235
11	0xbca13073	-0.019676423
12	0x3d556462	0.052097686
13	0xbd40ce65	-0.047071833
14	0xbdf0be75	-0.11755077
15	0xbdb91a03	-0.090381645
16	0xbe4590b1	-0.19293477
17	0xbe2017f3	-0.15634136
18	0xbe1150c4	-0.14190966
19	0xbe5a7fad	-0.21337767

transformer_encoder.layers.0.linear2.weight f4 [20, 20]
0	0x3d40265a	0.046911575
1	0xbe4f7bc5	-0.20262058
2	0xbdb71f51	-0.0894152
3	0x3e5ba013	0.21447782
4	0xbe5782c7	-0.21045981
5	0x3ed2299e	0.41047376
6	0x3d889a5c	0.06670067
7	0x3e2c757b	0.1684169
8	0xbe130506	-0.14357385
9	0x3e81483c	0.25250423
10	0x3dbd98db	0.092576705
11	0x3e9bc17e	0.3042106
12	0xbdfa61bc	-0.122256726
13	0x3c8b8c3a	0.017034639
14	0x3e45d239	0.19318475
15	0x3e3690c7	0.17828666
16	0x3e894491	0.26810125
17	0xbdba1ad2	-0.09087147
18	0xbd51d0f5	-0.051224668
19	0x3dc42288	0.09576899
20	0x3e0a22b3	0.13489799
21	0x3d625b8c	0.055263087
22	0xbd392538	-0.04520151
23	0x3d481003	0.048843395
24	0xbd073167	-0.033006098
25	0x3e8579fa	0.26069623
26	0x3df4fb0d	0.11961947
27	0xbe21cb77	-0.15800272
28	0x3e011258	0.12604654
29	0x3c037f01	0.008025886
30	0xbdd4bc77	-0.10387509
31	0xbcb1be6f	-0.021697251
32	0x3e0d062f	0.1377189
33	0xbd4da874	-0.050209478
34	0x3de7e6f1	0.113233455
35	0xbdc90ef1	-0.09817303
36	0x3c011eb6	0.007880857
37	0xbb36e40d	-0.0027906925
38	0x3bd0f33e	0.006376653
39	0xbc183d0c	-0.009291898
40	0x3d46506e	0.048416547
41	0xbd54768e	-0.051870875
42	0x3e4067ad	0.18789549
43	0xbde5f7ce	-0.112289056
44	0xbe041055	-0.12896855
45	0x3e85587b	0.26044068
46	0xbe052c6e	-0.1300523
47	0x3e850efc	0.25987995
48	0x3e31102d	0.17291327
49	0x3e20ed92	0.15715626
50	0x3c0ce5d8	0.008599721
51	0xbc9ed01b	-0.019386342
52	0x3b03ce30	0.002011191
53	0xbd58a4c7	-0.05289152
54	0x3db9452c	0.090463966
55	0xbe1d239d	-0.15345617
56	0xbd928c46	-0.07155661
57	0x3d03eb01	0.03220654
58	0x3d2eca71	0.042673532
59	0x3d67e852	0.056618042
60	0x3e1ba3d3	0.15199213
61	0xbc1ebbd6	-0.009688338
62	0xbb64bdb6	-0.0034903116
63	0xbdb682ce	-0.08911668
64	0x3ce45cac	0.02787622
65	0x3d29bf89	0.041442428
66	0x3df4ddc0	0.11956358
67	0x3e145149	0.14484133
68	0x3a7a844c	0.0009556457
69	0xbe170235	-0.14746936
70	0x3d22fe8c	0.039793536
71	0xbc7c6743	-0.015405479
72	0x3d3d1dce	0.046171002
73	0xbadfbf11	-0.0017070492
74	0x3e15f929	0.14645828
75	0x3e20417e	0.15649983
76	0xbdcf00b4	-0.10107556
77	0x3c411ace	0.011786176
78	0x3d4d0562	0.05005396
79	0xbdd2725b	-0.10275718
80	0xbd393f34	-0.04522629
81	0x3b8b4559	0.0042502102
82	0xbe2d2fec	-0.16912812
83	0x3d6defee	0.058090143
84	0x3da83133	0.08212509
85	0x3e357309	0.17719664
86	0x3dae70d9	0.08517618
87	0x3dce6fa4	0.100798875
88	0x3e32006c	0.17382973
89	0x3df17834	0.11790505
90	0xbdfba5b4	-0.12287465
91	0xbdd3636c	-0.103216976
92	0x3de262cc	0.11054
93	0x3e50e4b3	0.20399742
94	0xbdc14c9d	-0.09438441
95	0x3e835caa	0.25656635
96	0x3de7a4a2	0.11310698
97	0xbe4bd539	-0.19905557
98	0x3d60eb57	0.054911938
99	0x3d57adc0	0.052655935
100	0x3e46068a	0.19338432
101	0x3d93ac22	0.07210566
102	0xbe0a5a00	-0.13510895
103	0xbd205a1c	-0.039148435
104	0x3d2067ce	0.039161496
105	0x3e3d3730	0.18478084
106	0xbe43c9d8	-0.19119966
107	0xbdece510	-0.11567128
108	0xbd9af10f	-0.075655095
109	0xbc8b2e95	-0.016989985
110	0x3c09e1f0	0.008415684
111	0x3ca2c917	0.019871278
112	0x3dc746b7	0.09730285
113	0xbdb946f0	-0.090467334
114	0xbe300150	-0.17188
115	0xbe418b6f	-0.18900846
116	0x3d63a1bf	0.055574175
117	0x3d484b49	0.048899923
118	0xbd362714	-0.04447086
119	0x3e18fe4e	0.1494076
120	0xbe07a96c	-0.13248223
121	0x3db30b05	0.08742336
122	0xbde443a6	-0.111457154
123	0x3e311403	0.1729279
124	0xbc678203	-0.014130118
125	0x3dd2f760	0.10301089
126	0xbd83fd78	-0.0644483
127	0x3ae0bc30	0.0017145928
128	0xbea7b4b4	-0.32755053
129	0x3e10ef99	0.14153899
130	0x3cf10bda	0.029424597
131	0xbdf4e7f8	-0.11958307
132	0x3dbac410	0.09119427
133	0xbe5494b5	-0.20759852
134	0x3d18be4a	0.03729085
135	0x3e8276d0	0.25481272
136	0x3dd896d1	0.10575641
137	0x3ce774b0	0.028253883
138	0x3c502af5	0.012705554
139	0x3c72bda8	0.014815725
140	0x3e216cfb	0.15764229
141	0x3e2e9aca	0.17051235
142	0x3de51176	0.11184971
143	0xbe209a99	-0.15683974
144	0x3e4f6891	0.20254733
145	0xbe36deea	-0.17858472
146	0x3e598cd0	0.21245122
147	0x3bed9bf3	0.0072512566
148	0x3e51ab83	0.20475583
149	0x3cb719fa	0.022351254
150	0x3e23212b	0.15930621
151	0x3cf005cd	0.029299641
152	0x3d5cb1ad	0.053880382
153	0x3dd801f6	0.10547249
154	0x3e16215f	0.14661168
155	0xbe31ecbe	-0.17375466
156	0xbdb5f65b	-0.08884879
157	0x3da27f6b	0.07934459
158	0x3dbdf253	0.09274735
159	0x3dd3a5b1	0.103343375
160	0x3d6bd6a7	0.057577755
161	0x3de3c074	0.11120692
162	0xbe29f69c	-0.1659798
163	0x3e4fc616	0.20290408
164	0xbd9c9162	-0.07644917
165	0x3dd92dd1	0.10604442
166	0xbe928bb8	-0.28622222
167	0x3d87ae09	0.066249914
168	0xbc99de11	-0.018782647
169	0x3e3751d2	0.17902306
170	0xbe10ba68	-0.14133608
171	0xbe2b1f51	-0.16711165
172	0x3ddf12c8	0.10892254
173	0xbdc570f6	-0.09640686
174	0x3cefb71a	0.029262114
175	0xbe04b9f9	-0.12961568
176	0x3e7bce3e	0.24590394
177	0x3e33fb43	0.17576317
178	0x3dea0de8	0.11428434
179	0x3d1a2924	0.03763689
180	0x3defd1b8	0.117099226
181	0x3e2f2397	0.1710342
182	0x3e02d719	0.12777366
183	0x3bcccc0b	0.0062499098
184	0xbe395683	-0.18099408
185	0xbe8aa549	-0.27079228
186	0xbd77b3b4	-0.060474113
187	0xbdbaeb5e	-0.09126924
188	0xbd895929	-0.06706459
189	0xbd8ab383	-0.067725204
190	0xbd705f1a	-0.058684446
191	0xbcd8a870	-0.026447505
192	0x3e230ea6	0.15923557
193	0xbd7a45a7	-0.061101582
194	0xbd962e7e	-0.073330864
195	0xbd61ff84	-0.05517532
196	0x3d6b6ec7	0.057478692
197	0xbdc1cf6b	-0.0946339
198	0x3e0148e3	0.1262546
199	0xbe74c5b5	-0.23903544
200	0xbe05c1f2	-0.13062266
201	0xbe78bc65	-0.24290617
202	0x3dc44ba2	0.09584738
203	0x3e247baa	0.16062799
204	0x3e828bac	0.25497186
205	0xbe146f37	-0.1449555
206	0x3e59eb90	0.21281266
207	0x3e61404f	0.21997188
208	0xbdc01062	-0.09378125
209	0x3da0ba95	0.07848088
210	0x3e50c41f	0.20387314
211	0xbda356aa	-0.07975514
212	0x3b43f310	0.0029899515
213	0xbd3ec14b	-0.046571057
214	0xbe1db7d7	-0.1540216
215	0xbc02f425	-0.007992779
216	0xbe8be40b	-0.2732242
217	0x3e001516	0.12508044
218	0xbd85e266	-0.06537323
219	0xbe8ab86e	-0.27093834
220	0x3e46f1f0	0.1942823
221	0x3e1a4ba6	0.1506792
222	0xbba157e9	-0.00492381
223	0xbe50bcbe	-0.203845
224	0x3e1e8883	0.15481763
225	0x39de34a6	0.00042382366
226	0x3e77299d	0.24136968
227	0xbdd212ff	-0.102575295
228	0x3e1b1e86	0.15148363
229	0x3dbacb71	0.091208346
230	0x3da36e61	0.079800375
231	0xbeb08540	-0.34476662
232	0xbe92292b	-0.28547034
233	0x3d532824	0.051551953
234	0x3c261253	0.010136205
235	0x3e0271d5	0.12738736
236	0x3dab70f3	0.08371153
237	0xbe0b7488	-0.13618672
238	0x3d0c4c34	0.03425236
239	0xbe0a3ce4	-0.1349979
240	0xbd2f22d2	-0.042757817
241	0xbe36e603	-0.1786118
242	0x3df36f74	0.11886492
243	0xbe2487a8	-0.16067374
244	0x3cf3b4d9	0.02974932
245	0xbe286e4a	-0.16448322
246	0xbdd19a53	-0.10234513
247	0xbd75d623	-0.06001867
248	0xbe150d1b	-0.1455578
249	0xbe71a5cf	-0.23598407
250	0xbe22fdbd	-0.15917106
251	0xbe5dad1e	-0.2164807
252	0x3e3aefe2	0.1825557
253	0x3e0cab8b	0.13737313
254	0x3ce78e5b	0.028266123
255	0x3e2aa547	0.16664611

transformer_encoder.layers.0.linear2.bias f4 [20]
0	0x3ddc7bd2	0.10765804
1	0x3c72c73e	0.014818011
2	0x3e5af20e	0.21381399
3	0x3b85be0e	0.004081494
4	0x3e118653	0.14211397
5	0x3cec0a9d	0.028813655
6	0xbcd6a1fb	-0.026200285
7	0xbe0598ac	-0.13046521
8	0x3ac9aa17	0.0015385774
9	0xbd43307e	-0.047653668
10	0x3e535f2c	0.20641774
11	0xbd080c62	-0.033214934
12	0x3d321356	0.04347547
13	0x3d8ad13e	0.06778191
14	0xbc488728	-0.012239255
15	0xbd5ba7c5	-0.053626794
16	0x3e18333a	0.14863291
17	0xbd5d5112	-0.054032393
18	0x3e4207fd	0.1894836
19	0xbde0c513	-0.10975089

transformer_encoder.layers.0.norm1.weight f4 [20]
0	0x3fa90759	1.3205367
1	0x3f9a332d	1.2046868
2	0x3f8cbc47	1.0994958
3	0x3f95c641	1.1701127
4	0x3f81cb74	1.0140214
5	0x3f9b3cff	1.212799
6	0x3f895f0b	1.073213
7	0x3f6c6daa	0.92354834
8	0x3f85b428	1.0445604
9	0x3f7c998e	0.98671806
10	0x3f7eb802	0.99499524
11	0x3f86cc58	1.0531111
12	0x3f679acc	0.90470576
13	0x3f703f86	0.9384693
14	0x3f7ad55f	0.9798183
15	0x3f47b913	0.78016776
16	0x3f717607	0.9432072
17	0x3f8925a9	1.0714618
18	0x3f7aa702	0.97911084
19	0x3f7b8758	0.98253393

transformer_encoder.layers.0.norm1.bias f4 [20]
0	0xbd037fec	-0.032104418
1	0x3d724034	0.05914326
2	0x3d4b0efa	0.04957483
3	0x3c802d38	0.015646562
4	0x3cf15909	0.0294614
5	0x3d2aedb1	0.041730586
6	0xbd896fa7	-0.06710749
7	0x3d689a34	0.056787685
8	0x3c19223c	0.009346541
9	0xbd794de9	-0.060865317
10	0x3d3e3579	0.046437714
11	0xbceea1be	-0.029129859
12	0x3d73e9c8	0.059549123
13	0xbd3c3e9d	-0.04595815
14	0x3d3b2974	0.04569383
15	0xbd34aef8	-0.044112176
16	0x3c47d7be	0.012197433
17	0xbd7533fc	-0.05986403
18	0x3d47aea8	0.04875055
19	0xbd4e6fe6	-0.050399683

transformer_encoder.layers.0.norm2.weight f4 [20]
0	0x3faf8c99	1.3714782
1	0x3f689b94	0.90862393
2	0x3f9197e9	1.1374484
3	0x3f81e5bb	1.0148233
4	0x3f89794f	1.0740145
5	0x3f810b90	1.0081654
6	0x3f90d9d0	1.1316471
7	0x3f6fccc3	0.93671817
8	0x3f8bc66e	1.0919931
9	0x3f87278e	1.0558946
10	0x3f76fe39	0.96481663
11	0x3f8bae21	1.0912515
12	0x3f66aaba	0.9010426
13	0x3f78d472	0.97199166
14	0x3f7b1971	0.98085696
15	0x3f50db87	0.8158497
16	0x3f7439cc	0.9540069
17	0x3f8f0530	1.1173458
18	0x3f80b708	1.0055857
19	0x3f88e240	1.0694046

transformer_encoder.layers.0.norm2.bias f4 [20]
0	0x3c14cdff	0.009082316
1	0x3d946402	0.072456375
2	0x3da118a2	0.078660265
3	0x3d9ea764	0.07746771
4	0x3c036484	0.00801957
5	0xbbc522b6	-0.0060161008
6	0xbd62b049	-0.0553439
7	0x3db70e0f	0.08938228
8	0x3c1b50c6	0.009479707
9	0xbd78ef87	-0.060775306
10	0x3d1ba832	0.0380022
11	0xbcc5f04d	-0.024162436
12	0x3cc8e183	0.024521595
13	0xbb0ecf6c	-0.0021791114
14	0x3da19a60	0.07890773
15	0x3ce2502a	0.027626116
16	0xbccc5f5e	-0.024947818
17	0xbd728a35	-0.059213836
18	0x3d4fec2a	0.050762333
19	0xbd24189b	-0.040062528

transformer_encoder.layers.1.self_attn.in_proj_weight f4 [60, 20]
0	0xbe13bdba	-0.14427844
1	0xbe88b3f6	-0.266998
2	0x3e5cb427	0.21553098
3	0x3d583386	0.05278351
4	0x3e3207cb	0.17385785
5	0x3d781f38	0.060576648
6	0xbe237fb0	-0.15966678
7	0x3df0e398	0.1176216
8	0x3d11e778	0.035621136
9	0x3d537035	0.05162068
10	0xbe4c2097	-0.19934307
11	0x3e761353	0.24030809
12	0xbe8e9b5c	-0.27852905
13	0x3e37e2ae	0.17957565
14	0x3e82b8cc	0.25531614
15	0x3e8a4f9a	0.27013856
16	0x3da93c14	0.08263412
17	0xbdcd68a0	-0.10029721
18	0xbc0ed51b	-0.0087178005
19	0x3c6b5be1	0.014365167
20	0x3e697ca9	0.2280146
21	0xbc952225	-0.018204758
22	0xbe80506a	-0.2506135
23	0x3dc8ee5a	0.09811087
24	0x3d9793d3	0.07401242
25	0x3de402d5	0.11133353
26	0x3e2af6d5	0.16695721
27	0xbd90f43f	-0.07077836
28	0x3e57ea6c	0.21085519
29	0xbd0d256c	-0.034459516
30	0xbb9caafe	-0.004781126
31	0xbd986865	-0.07441787
32	0x3dce9c77	0.10088437
33	0xbd9b41bf	-0.075808994
34	0x3e634ded	0.22197695
35	0x3e1f6f15	0.15569718
36	0x3e85f815	0.26165834
37	0x3cbd4891	0.023105891
38	0x3d28eff5	0.041244466
39	0xbe132b2c	-0.14371938
40	0x3e482449	0.19545092
41	0xbe75dcbf	-0.24009989
42	0x3cdee7b1	0.027210088
43	0xbd88cfa0	-0.06680226
44	0x3e6e7382	0.2328625
45	0xbe6b48e6	-0.22977027
46	0x3e2c965d	0.16854234
47	0xbe81d4ad	-0.2535757
48	0x3cca6a26	0.024708819
49	0xbdcecd0f	-0.100977056
50	0xbd523265	-0.05131759
51	0xbd4f9525	-0.050679345
52	0x3d127930	0.035760105
53	0xbe4652a1	-0.19367458
54	0x3dccfde1	0.10009361
55	0xbe2a715e	-0.16644809
56	0xbd6c602d	-0.057708908
57	0xbe9a1613	-0.30094966
58	0xbdb36024	-0.08758572
59	0x3c894263	0.016755288
60	0x3d57ff0c	0.052733466
61	0x3d57907a	0.052628018
62	0xbe2c256c	-0.1681115
63	0x3d8de1a4	0.06927803
64	0x3e7fc3fe	0.24977109
65	0x3e308518	0.17238271
66	0xbdbbde73	-0.09173288
67	0x3e108ea2	0.1411691
68	0x3c67b3a5	0.014141952
69	0x3c2304e7	0.009949899
70	0x3d666524	0.0562488
71	0x3dfdab1f	0.123861544
72	0xbe6c1c29	-0.23057617
73	0xbdaf505d	-0.0856025
74	0x3c83bfbc	0.016082637
75	0x3e2e1184	0.16998869
76	0xbe4cc543	-0.19997124
77	0xbde85f95	-0.11346356
78	0xbc3cf064	-0.011531923
79	0x3db2a890	0.08723557
80	0xbe80b015	-0.2513434
81	0x3e14ca3e	0.14530274
82	0xbe381f41	-0.17980672
83	0x3e6cff4e	0.23144266
84	0xbd63a666	-0.05557861
85	0xbd49b525	-0.04924502
86	0x3bc4e381	0.006008566
87	0xbb86b54d	-0.004110968
88	0x3e64cd15	0.22343858
89	0x3e1db232	0.15400007
90	0xbe6973ce	-0.22798082
91	0x3e1e9b6e	0.15488979
92	0x3e351f50	0.17687726
93	0xbd9b3f45	-0.07580427
94	0xbe4c8db1	-0.19975926
95	0xbdaf82a5	-0.0856984
96	0xbd6a648d	-0.0572248
97	0x3d4722c3	0.048617136
98	0x3cded0a0	0.02719909
99	0x3e69793f	0.22800158
100	0xbd80a861	-0.06282116
101	0xbd44f917	-0.048089113
102	0x3e4d1879	0.20028867
103	0xbe7b6a85	-0.24552353
104	0x3dbf672c	0.0934585
105	0x3d248905	0.040169735
106	0x3ce8a5de	0.028399404
107	0x3e4886d8	0.19582689
108	0xbe3a809b	-0.18213122
109	0xbe1c3ae8	-0.15256846
110	0x3dc75347	0.09732681
111	0x3e4d3800	0.20040894
112	0xbd2741ff	-0.040834423
113	0xbd535494	-0.05159433
114	0xbe77f623	-0.24214987
115	0x3e1363dc	0.14393562
116	0xbe149746	-0.14510831
117	0xbe55dc1c	-0.20884746
118	0xbd91c606	-0.07117848
119	0xbd3c54ee	-0.045979433
120	0xbdab170e	-0.08354007
121	0x3dddb15a	0.10824843
122	0x3df1dd3e	0.11809777
123	0x3d382188	0.044953853
124	0xbe32c752	-0.17458847
125	0xbdf56988	-0.11983019
126	0xbd2d2644	-0.04227282
127	0xbe044d44	-0.129201
128	0xbe328a34	-0.17435533
129	0x3e112fd7	0.14178406
130	0xbdf9c507	-0.12195783
131	0x3dad0aa2	0.08449294
132	0xbd7bd198	-0.06147918
133	0x3e0284dd	0.12745996
134	0xbe2d5091	-0.16925265
135	0x3e453cc2	0.19261459
136	0x3e30fbe2	0.17283586
137	0xbe0039d6	-0.12522063
138	0xbb5e4cdf	-0.003392033
139	0xbe08964f	-0.13338588
140	0x3d75fc55	0.060055096
141	0xbe4c8d6e	-0.19975826
142	0x3d1e69be	0.038675062
143	0x3db73283	0.08945181
144	0x3e9dbbf5	0.30807462
145	0xbd007e96	-0.03137072
146	0xbe79eb04	-0.24406058
147	0xbd0ad7ee	-0.033897333
148	0xbe201d9c	-0.15636295
149	0xbdfea415	-0.1243364
150	0x3d61df7f	0.055144783
151	0xbe620c7f	-0.2207508
152	0x3e2618d5	0.1622041
153	0x3cc5b3fb	0.024133673
154	0xbe36fbd4	-0.17869502
155	0xbe2dedbe	-0.16985223
156	0x3dc544b0	0.09632242
157	0xbc9606ce	-0.018313792
158	0xbd959262	-0.07303311
159	0xbdf9a89d	-0.121903636
160	0x3e1ea0b9	0.15490998
161	0xbd7450ff	-0.059647556
162	0xbd661d9c	-0.05618058
163	0x3e2e5241	0.17023565
164	0x3dfa99c2	0.12236358
165	0xbdb5dfe0	-0.088805914
166	0xbe7a52f9	-0.24445714
167	0x3e41a65f	0.18911122
168	0xbbc93a73	-0.006141001
169	0x3e262f00	0.16228867
170	0xbd36b40b	-0.044605296
171	0x3d398615	0.045293886
172	0x3e6337e6	0.22189292
173	0xbe09cb66	-0.13456497
174	0x3de20ca5	0.11037568
175	0x3e234ff7	0.15948473
176	0x3e11064c	0.14162558
177	0xbe5ce8df	-0.21573208
178	0x3e837870	0.25677824
179	0x3e0e0742	0.13869956
180	0xbe170777	-0.14748941
181	0xbd85959f	-0.065226786
182	0x3dff3b5e	0.12462495
183	0x3e005d25	0.12535532
184	0x3e456c46	0.19279584
185	0xbe5132b2	-0.20429495
186	0xbdc90169	-0.09814722
187	0x3e1e1832	0.15438917
188	0xbdc82ca9	-0.09774143
189	0xbe0bbaed	-0.13645525
190	0xbe1b10e7	-0.15143166
191	0xbddf1ab1	-0.10893763
192	0x3e39466c	0.1809327
193	0xbd03d8ea	-0.032189287
194	0x3cc4067f	0.023928879
195	0x3b8d19a0	0.0043060333
196	0xbe36eeea	-0.17864576
197	0xbd84f064	-0.064911634
198	0xbd9f32c7	-0.07773357
199	0x3cd28ad7	0.02570097
200	0xbe07ef63	-0.13274913
201	0xbe6c03f1	-0.23048379
202	0xbb2fc8e7	-0.0026822628
203	0xbe14507a	-0.14483824
204	0x3c9f742c	0.019464575
205	0x3db872b8	0.09006256
206	0x3d84259e	0.064524874
207	0xbe2cd350	-0.16877484
208	0x3e3e5597	0.18587337
209	0x3e2d6445	0.16932781
210	0x3dcfe5f6	0.101512834
211	0xbc38c2c3	-0.011276904
212	0xbc56a2be	-0.013100324
213	0x3c908cf7	0.017645342
214	0xbd917d40	-0.07103968
215	0xbb4a5c54	-0.0030877786
216	0x3cdaaa82	0.026692633
217	0x3e80e352	0.25173432
218	0x3de3f3b2	0.111304656
219	0x3de962f2	0.113958254
220	0xbce2a8f5	-0.027668456
221	0xbe74ab73	-0.23893528
222	0xbe89ab80	-0.26888657
223	0xbe5c363e	-0.21505067
224	0x3e3ff181	0.1874447
225	0xbdb92d1a	-0.090418056
226	0xbda5cdd6	-0.08095901
227	0x3d28e32b	0.04123227
228	0x3c321056	0.010868153
229	0x3e5017e7	0.20321618
230	0xbe0370e4	-0.12836033
231	0x3cb5aaa8	0.022176102
232	0xbe1fffab	-0.15624873
233	0xbd7af5ba	-0.0612695
234	0xbe34d4a1	-0.17659236
235	0x3e0e0dfe	0.13872525
236	0x3da097d7	0.07841461
237	0x3d07ea67	0.033182528
238	0x3b85cc2d	0.0040831775
239	0xbe8c279c	-0.2737397
240	0x3e97b4b6	0.2963006
241	0x3df2e411	0.118599065
242	0x3e6eab42	0.23307517
243	0xbe85f1c1	-0.26161006
244	0xbe3a30dd	-0.18182702
245	0xbdeb1048	-0.11477715
246	0xbe817a46	-0.252886
247	0x3daaea96	0.08345525
248	0xbd95f53f	-0.073221676
249	0xbe32090a	-0.1738626
250	0x3e0d2bc9	0.13786234
251	0x3c581a6c	0.013189893
252	0x3e8b7515	0.27237764
253	0x3e605468	0.21907198
254	0x3e8a46b7	0.27007076
255	0xbd03e6a0	-0.032202363

transformer_encoder.layers.1.self_attn.in_proj_bias f4 [60]
0	0x3c2be514	0.010491628
1	0x3bcbf325	0.0062240534
2	0x3ce2c4d3	0.027681744
3	0xbc90c3ed	-0.01767155
4	0xbc9ba04a	-0.01899733
5	0x3d5a098d	0.053231765
6	0xbb279f49	-0.002557712
7	0x3c84eb5d	0.016225511
8	0x3d0f373a	0.034964778
9	0xbb0ffdd3	-0.002197136
10	0xbc34e751	-0.011041478
11	0xbd1771f1	-0.036973897
12	0x3b9ffc51	0.0048823734
13	0xbb0554bf	-0.0020344702
14	0x3aa483bd	0.0012551468
15	0xbb0ba7fc	-0.0021309843
16	0xbc1979e0	-0.009367436
17	0xbd8f1f8f	-0.06988441
18	0xbb778965	-0.0037771103
19	0x3d4b9800	0.049705505
20	0xafd11e97	-3.8038614e-10
21	0xb0ece5eb	-1.7236607e-09
22	0x30923483	1.0637823e-09
23	0xb09f5e51	-1.1595579e-09
24	0xb0e6e8d0	-1.6800872e-09
25	0x31762de1	3.582379e-09
26	0x308df2bc	1.032809e-09
27	0x31f77333	7.2017428e-09
28	0xad452de2	-1.12083415e-11
29	0x2fbd71c9	3.445975e-10
30	0xb1010fde	-1.878099e-09
31	0xb161cb54	-3.2857388e-09
32	0x304bc962	7.413715e-10
33	0xafdb40ca	-3.9881903e-10
34	0xb188e763	-3.9844266e-09
35	0xb129be45	-2.4700892e-09
36	0x311c4be6	2.274413e-09
37	0xb168d86f	-3.3883472e-09
38	0xb05930da	-7.901356e-10
39	0xb0e81f05	-1.6889038e-09
40	0x3a9d650d	0.0012008265
41	0xbd582e29	-0.052778397
42	0x3cb261d5	0.021775166
43	0xbc0f1033	-0.00873189
44	0x3d8ed494	0.0697414
45	0xbc67588a	-0.01412023
46	0x3bc434d8	0.005987745
47	0x3cc302da	0.02380507
48	0x3d50e62f	0.05100077
49	0xbc3feea7	-0.011714614
50	0x3c3698c7	0.011144823
51	0x3c1f565d	0.00972518
52	0xbc959c46	-0.018262994
53	0xbccbe7f3	-0.024890875
54	0xbd6f2b33	-0.058390807
55	0xbcbd25af	-0.023089258
56	0x3d2dbebb	0.042418223
57	0x3bfe0ea1	0.0077532087
58	0xbcf1591f	-0.029461442
59	0x3c75abfb	0.014994617
