model_epoch_116.pt (torch, 432002 bytes, 28 tensors)

pos_encoder.pe f4 [5000, 1, 20]
000000 00 00 00 00 00 00 80 3f 00 00 00 00 00 00 80 3f
       0.0 1.0 0.0 1.0
000010 00 00 00 00 00 00 80 3f 00 00 00 00 00 00 80 3f
       0.0 1.0 0.0 1.0
000020 00 00 00 00 00 00 80 3f 00 00 00 00 00 00 80 3f
       0.0 1.0 0.0 1.0
000030 00 00 00 00 00 00 80 3f 00 00 00 00 00 00 80 3f
       0.0 1.0 0.0 1.0
000040 00 00 00 00 00 00 80 3f 00 00 00 00 00 00 80 3f
       0.0 1.0 0.0 1.0
000050 a5 6a 57 3f 41 51 0a 3f 3d 7d c6 3e da fa 6b 3f
       0.841471 0.54030234 0.38767424 0.92179644
000060 4e 9d 21 3e a0 ca 7c 3f 65 22 81 3d 97 7d 7f 3f
       0.15782663 0.9874668 0.06305388 0.9980101
000070 8a c0 cd 3c 53 eb 7f 3f 57 d6 23 3c b9 fc 7f 3f
       0.025116224 0.9996845 0.009999833 0.99995
000080 90 73 82 3b 7b ff 7f 3f 28 bc cf 3a eb ff 7f 3f
       0.0039810613 0.9999921 0.0015848922 0.99999875
000090 d4 66 25 3a fd ff 7f 3f f5 b1 83 39 ff ff 7f 3f
       0.0006309573 0.9999998 0.00025118855 0.99999994
0000a0 b7 c7 68 3f 33 11 d5 be 76 f7 36 3f 04 0d 33 3f
       0.9092974 -0.41614684 0.71471345 0.69941735
0000b0 c5 96 9f 3e 18 3f 73 3f 9d e0 00 3e e3 f6 7d 3f
       0.31169716 0.9501815 0.12585683 0.99204844
0000c0 ec af 4d 3d 51 ad 7f 3f 3e d4 a3 3c e5 f2 7f 3f
       0.0502166 0.99873835 0.019998666 0.9998
0000d0 4d 73 02 3c ec fd 7f 3f 17 bc 4f 3b ac ff 7f 3f
       0.00796206 0.9999683 0.0031697804 0.999995
0000e0 d2 66 a5 3a f3 ff 7f 3f f5 b1 03 3a fe ff 7f 3f
       0.0012619144 0.9999992 0.0005023771 0.9999999
0000f0 c3 81 10 3e 26 70 7d bf 48 12 6e 3f e5 3b bc 3e
       0.14112 -0.9899925 0.92996645 0.36764446
000100 ce 5e ea 3e a8 9a 63 3f b9 ac 40 3e 6f 6d 7b 3f
       0.45775455 0.8890786 0.18815888 0.9821386
000110 2d 2f 9a 3d 03 46 7f 3f 1f b9 f5 3c 83 e2 7f 3f
       0.07528529 0.99716204 0.0299955 0.99955004
000120 49 ac 43 3c 53 fb 7f 3f fc cc 9b 3b 42 ff 7f 3f
       0.011942931 0.99992865 0.0047546607 0.9999887
000130 36 1a f8 3a e2 ff 7f 3f ef 8a 45 3a fb ff 7f 3f
       0.001892871 0.9999982 0.00075356563 0.9999997
000140 cf bd 41 bf 30 55 27 bf ab f0 7f 3f ce 32 b1 bc
       -0.7568025 -0.6536436 0.99976605 -0.02163067
000150 72 a3 17 3f b0 41 4e 3f 8a b4 7f 3e d4 e3 77 3f
       0.5923377 0.8056898 0.24971214 0.96832013
000160 7d 6d cd 3d 7a b5 7e 3f db cb 23 3d 94 cb 7f 3f
       0.10030649 0.9949566 0.039989334 0.9992001
000170 3e 72 82 3c b1 f7 7f 3f d3 bb cf 3b af fe 7f 3f
       0.015923616 0.9998732 0.006339529 0.9999799
000180 c9 66 25 3b cb ff 7f 3f f4 b1 83 3a f8 ff 7f 3f
       0.0025238267 0.99999684 0.0010047541 0.9999995
000190 10 7c 75 bf 2c 3c 91 3e 28 c7 69 3f ce a6 d0 be
       -0.9589243 0.2836622 0.91319513 -0.40752262
0001a0 6e 4a 36 3f 2c bd 33 3f eb db 9e 3e aa 5d 73 3f
       0.7120732 0.7021053 0.3102716 0.95064795
0001b0 4f 45 00 3e cd fb 7d 3f f4 b6 4c 3d 19 ae 7f 3f
       0.12526439 0.9921234 0.049979165 0.99875027
0001c0 cf 0d a3 3c 04 f3 7f 3f 44 d5 01 3c f1 fd 7f 3f
       0.019904045 0.9998019 0.007924382 0.9999686
0001d0 74 c0 4e 3b ad ff 7f 3f 6f 9e a4 3a f3 ff 7f 3f
       0.0031547816 0.99999505 0.0012559424 0.9999992
0001e0 8c 0f 8f be b8 cd 75 3f 20 0d 2f 3f fd cb 3a bf
       -0.2794155 0.96017027 0.683794 -0.7296751
0001f0 a7 5f 50 3f 47 b7 14 3f b7 3b bd 3e 8f df 6d 3f
       0.81395954 0.5809216 0.3695962 0.9291925
000200 29 bf 19 3e 1a 19 7d 3f d1 9c 75 3d 12 8a 7f 3f
       0.15014328 0.98866427 0.059964005 0.99820054
000210 b7 a8 c3 3c 4e ed 7f 3f 88 cc 1b 3c 09 fd 7f 3f
       0.02388416 0.99971473 0.009509213 0.99995476
000220 19 1a 78 3b 88 ff 7f 3f eb 8a c5 3a ed ff 7f 3f
       0.0037857352 0.99999285 0.0015071308 0.99999887
000230 46 30 28 3f bd ff 40 3f fd e3 b1 3e 31 0d 70 bf
       0.6569866 0.75390226 0.34744254 -0.9377013
000240 c0 3b 65 3f 26 ee e3 3e b9 da da 3e 1a 6f 67 3f
       0.89544296 0.4451763 0.42744997 0.904039
000250 2d 20 33 3e 86 0d 7c 3f 32 3e 8f 3d 81 5f 7f 3f
       0.17492743 0.98458135 0.06994285 0.997551
000260 d4 42 e4 3c 8e e6 7f 3f b4 c3 35 3c f8 fb 7f 3f
       0.027863897 0.99961174 0.011094023 0.9999385
000270 db b9 90 3b 5c ff 7f 3f 65 77 e6 3a e6 ff 7f 3f
       0.004416687 0.9999902 0.001758319 0.99999845
000280 95 46 7d 3f f6 fd 14 be 31 28 31 bd ac c2 7f bf
       0.98935825 -0.14550003 -0.04325122 -0.9990642
000290 dc 58 74 3f 1d b7 98 3e c2 9a f7 3e db 12 60 3f
       0.9544809 0.29827204 0.48360258 0.8752877
0002a0 42 64 4c 3e 3c d9 7a 3f 50 aa a3 3d 66 2e 7f 3f
       0.1996012 0.97987723 0.07991469 0.99680173
0002b0 02 6e 02 3d c4 de 7f 3f c1 ba 4f 3c bb fa 7f 3f
       0.031843193 0.9994929 0.012678803 0.9999196
0002c0 a7 66 a5 3b 2a ff 7f 3f ef b1 03 3b de ff 7f 3f
       0.0050476375 0.99998724 0.002009507 0.999998
0002d0 32 01 d3 3e d5 3f 69 bf 5c b7 da be 75 77 67 bf
       0.4121185 -0.91113025 -0.42718017 -0.9041665
0002e0 00 56 7d 3f 39 58 13 3e 43 af 09 3f 52 d2 57 3f
       0.9895935 0.14389123 0.53783053 0.843053
0002f0 54 87 65 3e 6e 7c 79 3f 3e 12 b8 3d c2 f6 7e 3f
       0.22414905 0.9745549 0.089878544 0.9959527
000300 12 ba 12 3d f0 d5 7f 3f ad b1 69 3c 55 f9 7f 3f
       0.03582198 0.9993582 0.014263553 0.99989825
000310 6e 13 ba 3b f1 fe 7f 3f 2c 28 14 3b d5 ff 7f 3f
       0.0056785857 0.99998385 0.0022606952 0.99999744
000320 f8 44 0b bf 64 cd 56 bf 23 8a 3e bf 43 f8 2a bf
       -0.5440211 -0.8390715 -0.7442953 -0.6678507
000330 7d f9 7f 3f ba f4 66 bc e0 04 17 3f e6 b5 4e 3f
       0.99990064 -0.014096433 0.58991814 0.80746305
000340 53 85 7e 3e 54 f7 77 3f 76 75 cc 3d 98 b8 7e 3f
       0.24855547 0.9686177 0.099833414 0.9950042
000350 8a 05 23 3d 13 cc 7f 3f 39 d4 81 3c c5 f7 7f 3f
       0.039800204 0.9992077 0.015848266 0.9998744
000360 30 c0 ce 3b b2 fe 7f 3f 67 9e 24 3b cb ff 7f 3f
       0.0063095316 0.9999801 0.002511883 0.99999684
000370 5c ff 7f bf 72 05 91 3b 58 eb 71 bf c9 76 a7 be
       -0.9999902 0.004425698 -0.9449973 -0.32707813
000380 65 32 7c 3f 27 da 2f be 9f c0 23 3f e2 c6 44 3f
       0.98514396 -0.17173062 0.6396579 0.7686597
000390 1c ad 8b 3e 2d 4a 76 3f 72 d3 e0 3d e8 73 7e 3f
       0.2728051 0.96206933 0.1097783 0.9939561
0003a0 59 50 33 3d 2c c1 7f 3f 86 cf 8e 3c 0a f6 7f 3f
       0.043777797 0.9990413 0.01743294 0.999848
0003b0 ed 6c e3 3b 6c fe 7f 3f a2 14 35 3b c0 ff 7f 3f
       0.006940475 0.9999759 0.0027630706 0.9999962
0003c0 d8 5c 09 bf d0 06 58 3f 0b 76 7f bf e1 d0 84 3d
       -0.53657293 0.84385395 -0.99789494 0.06485153
0003d0 f5 18 72 3f 4d 6e a6 be 89 d5 2f 3f 63 0f 3a 3f
       0.9456933 -0.32506028 0.68685204 0.7267973
0003e0 fe 00 98 3e 3e 75 74 3f ac 2b f5 3d b5 28 7e 3f
       0.29688257 0.954914 0.119712204 0.99280864
0003f0 6d 9a 43 3d 3b b5 7f 3f ba ca 9b 3c 26 f4 7f 3f
       0.047754694 0.9988591 0.019017566 0.99981916

transformer_encoder.layers.0.self_attn.in_proj_weight f4 [60, 20]
000000 60 ee 18 be 30 47 73 be 28 b4 5c 3e e0 bd 75 3d
       -0.14934683 -0.23757625 0.21553099 0.059995532
000010 cc 6b 3f 3e 74 0b a8 3d 4f 7f 3b be dd 53 fd 3d
       0.18693465 0.082053095 -0.18310283 0.12369511
000020 07 46 2a 3c a5 66 35 3d 53 88 4e be 77 de 74 3e
       0.010392672 0.044287343 -0.20169191 0.23912989
000030 fb 9e 8a be 23 38 3c 3e 2e 67 86 3e 56 43 86 3e
       -0.27074417 0.1838079 0.26250595 0.26223248
000040 70 fb 9a 3d ed 23 e2 bd 54 80 2d bc bb 4a 52 bc
       0.07567489 -0.110420085 -0.010589678 -0.0128352
000050 ad 98 79 3e 62 ce 83 bd 98 f6 85 be 6c da cf 3d
       0.24374647 -0.06435849 -0.261647 0.101490825
000060 0a 28 6e 3d 11 37 d9 3d ad 50 27 3e 6d ab af bd
       0.058143653 0.10606206 0.16339369 -0.08577619
000070 e0 58 6e 3e c6 c1 2e bd 08 cd b8 39 59 cd c1 bd
       0.2327609 -0.042665266 0.00035247975 -0.09462995
000080 8e 83 ce 3d 7c ad d5 bd bb ad 6a 3e bc ae 23 3e
       0.10083686 -0.1043348 0.22917835 0.15984625
000090 f1 f7 86 3e 71 7b af 3c 04 9f 15 3d 92 67 f9 bd
       0.2636104 0.021421166 0.036528602 -0.121779576
0000a0 ab eb 15 3e 8a cd 11 be 8b 0b 7c 3c 03 9e 8e bd
       0.14640681 -0.14238563 0.015383611 -0.06963732
0000b0 cb 7f 79 3e a0 f4 4d be 8a c5 30 3e 47 68 6b be
       0.24365155 -0.20112848 0.17262855 -0.22988997
0000c0 08 d0 b4 bb d9 3c ac bd 49 10 6e bd c9 4d 35 bd
       -0.0055179633 -0.08410043 -0.058121 -0.044263635
0000d0 e8 98 44 3d d4 0b 1b be aa 95 d9 3d 21 8a 36 be
       0.047997385 -0.15141231 0.10624249 -0.1782613
0000e0 46 b0 82 bd a1 ac 91 be fb 76 b3 bd 5e 0c f3 bc
       -0.06381278 -0.28452018 -0.08762928 -0.029668983
0000f0 9b 25 d6 3d a6 88 85 bc 08 be 10 be 0a 3b b2 3d
       0.104563914 -0.01630051 -0.14134991 0.08702667
000100 7f c5 5a 3e d0 70 1e 3e 13 93 e1 bd b1 0c d7 3d
       0.21364401 0.15472722 -0.1101438 0.105004676
000110 ac d3 f9 3c 89 30 32 bc 05 99 7a 3d 0e a6 fe 3d
       0.03049644 -0.0108758295 0.061181087 0.12434016
000120 6b f1 76 be 20 b7 06 be f8 89 f0 3c 14 df 42 3e
       -0.24115531 -0.13155794 0.029362664 0.1903041
000130 53 46 3b be 3a e4 fd bd 93 53 85 bc 4d b4 04 3e
       -0.18288545 -0.123970464 -0.016275203 0.12959404
000140 1c 31 74 be 33 ba de 3d 5a a2 36 be 9e 0e 82 3e
       -0.23846859 0.108753584 -0.1783537 0.25401777
000150 ce 3c 96 bd 0f 9d 9b bd 89 bb 32 bc 27 5e a3 bc
       -0.07335816 -0.07598316 -0.01090897 -0.019942356
000160 23 db 6f 3e 9a 32 07 3e a7 13 6a be 45 cf 0a 3e
       0.23423438 0.13202897 -0.2285906 0.1355563
000170 3e a7 27 3e b8 03 e2 bd 53 6f 4c be bd 89 b5 bd
       0.16372392 -0.110358655 -0.19964342 -0.08864162
000180 37 75 61 bd ef 5d 22 3d c0 32 a4 3c f6 e7 81 3e
       -0.055043425 0.039640363 0.02004373 0.25372285
000190 51 18 8c bd 31 cb 53 bd dd f2 57 3e 4a 27 65 be
       -0.068405755 -0.05170745 0.21088739 -0.22378269
0001a0 50 2a 10 3d 15 48 13 3d 98 84 77 3d f6 d1 38 3e
       0.035196602 0.035957415 0.060429186 0.18048844
0001b0 b2 a9 44 be 2c 21 f9 bd 9e 0f 84 3d 5a 13 59 3e
       -0.19205359 -0.1216453 0.06448291 0.21198788
0001c0 82 fc 32 bd 73 0c a6 bd b9 5e 6e be ea 5e 32 3e
       -0.04369784 -0.08107843 -0.23278321 0.1741902
0001d0 6d 1f 18 be d1 6c 27 be 51 f9 e9 bd 7e f6 83 bc
       -0.14855738 -0.16350104 -0.114245065 -0.016108748
0001e0 d4 64 da bd cb 12 c7 3d 44 7d 7b 3e 48 f4 91 3c
       -0.10663763 0.09720381 0.24559504 0.017816678
0001f0 fc 40 3e be 20 31 0d be 54 e4 19 bd 36 95 0d be
       -0.18579477 -0.13788271 -0.037571266 -0.1382645
000200 f2 f9 61 bd fd d0 06 3e 91 e5 a7 bd 11 d0 f7 3d
       -0.055170007 0.1316566 -0.08198083 0.121002324
000210 20 18 0c bd 9b 52 1b 3e b9 e3 fd bd 56 38 77 3e
       -0.034202695 0.1516823 -0.1239695 0.24142584
000220 bc 02 62 3e f4 2e 0b be 7f 22 2a 3b 29 6e e3 bd
       0.22071356 -0.1359213 0.0025960503 -0.11104996
000230 06 bd 6c 3e a7 2b 15 bf be e1 5f 3d 26 3c 55 3c
       0.23118982 -0.58269733 0.054658644 0.013014829
000240 f2 99 95 3e cf 8c d0 bc c9 07 49 be 4c 89 64 bd
       0.29219013 -0.025457768 -0.19631876 -0.055795
000250 e4 df dc bd 15 ad 88 bd 68 1c 6e 3d 8b 55 35 be
       -0.10784891 -0.06673638 0.05813256 -0.17708413
000260 39 f8 25 3e e6 12 ef bc 86 02 5a be 06 89 0e be
       0.1620797 -0.029183816 -0.21290025 -0.13919458
000270 25 1b e0 3d 22 02 5f 3b b9 87 04 bd 40 02 d6 bd
       0.109426774 0.003402837 -0.032355998 -0.10449648
000280 82 64 f1 3d a5 81 eb 3d b7 f5 f5 ba 18 df 4c 3e
       0.117867485 0.11499337 -0.0018765245 0.20006979
000290 a2 e4 eb 3d 0e c7 a9 bd 49 79 8f be f9 88 44 3e
       0.115182176 -0.0828992 -0.2802222 0.19192876
0002a0 7b f6 c1 3a 53 20 00 3e 23 f6 ee bc ae d5 88 3d
       0.0014798188 0.1251233 -0.029170102 0.06681381
0002b0 40 59 64 3e 84 55 91 bd 35 c6 16 3e b9 d2 43 3e
       0.22299671 -0.07096389 0.14724047 0.19123353
0002c0 04 7f 1d 3e 2d 47 6e be 3a f5 80 3e d6 30 1c 3e
       0.15380484 -0.23269339 0.25187093 0.15253004
0002d0 16 1b 92 bd d3 b3 4b be 5e b4 7c 3d 22 84 d2 3d
       -0.071340725 -0.19892816 0.06169545 0.102791086
0002e0 98 c1 3b 3e f4 3b 26 be 09 72 a9 bd d4 f7 0b 3e
       0.18335569 -0.16233808 -0.082737036 0.13668758
0002f0 c7 fe 29 be 44 d2 d6 bd fe f2 53 be fc 5d 00 be
       -0.16601096 -0.10489324 -0.20698163 -0.12535852
000300 e0 76 26 3e c8 0f 97 bd b9 37 b6 bc 31 86 4a bc
       0.16256285 -0.07376057 -0.022243368 -0.012361095
000310 16 3a 56 be c9 5d 2f bd 10 e2 85 bd ad f4 4e 3c
       -0.20920596 -0.04281405 -0.065372586 0.012631577
000320 fe bb 2d be 22 6f 86 be 23 98 3b 3d 0d b6 4a be
       -0.16966245 -0.26256663 0.045799386 -0.1979601
000330 26 8d 08 bc 45 04 12 3e ee 0c af 3c 23 b4 4a be
       -0.008334434 0.14259441 0.02136847 -0.19795279
000340 a5 e4 5c 3e 8e bd 14 3e fc 9d fb 3d ed 89 0e 3d
       0.21571596 0.14525434 0.122859925 0.034799505
000350 64 d4 08 bd 71 71 6f 3c 64 5b 46 bd e9 d6 bd 3c
       -0.033405676 0.014614449 -0.048427 0.023173766
000360 d5 c1 6a 3d 9a ce 6d 3e 1f 82 f1 3d 32 a0 07 3e
       0.05731376 0.23223343 0.11792397 0.13244703
000370 16 3c b1 3c 09 3d 98 be ca b0 49 be b5 c5 6c be
       0.021635097 -0.29734066 -0.19696346 -0.23122294
000380 e7 06 41 3e fd 1f cb bd 41 22 1c be 0d 0a 48 3d
       0.1885029 -0.09918211 -0.15247442 0.04883771
000390 8f 77 e2 3c 47 25 1b 3e 1d 54 ce bd 3d 96 47 3d
       0.0276449 0.15150939 -0.10074637 0.048727263
0003a0 9c 8b 4d be f6 45 94 bd ae 5b 34 be de 2a ff 3d
       -0.20072788 -0.072399065 -0.17613098 0.12459348
0003b0 1d f5 d3 3d 09 27 b9 bc 31 bc 8f 3c 30 1c 8b be
       0.10349486 -0.022601621 0.017545791 -0.27169943
0003c0 0b c8 9a 3e b9 f0 05 3e a1 78 62 3e 43 05 6c be
       0.30230746 0.1308011 0.22116329 -0.23048882
0003d0 a8 53 42 be c4 ca 14 be 3a 0d 70 be 10 2b bb 3d
       -0.18977225 -0.14530474 -0.23442546 0.09139073
0003e0 f2 cf a7 bd 34 c2 29 be dc 56 f6 3d 48 12 44 bc
       -0.08193959 -0.16577989 0.12028286 -0.011967249
0003f0 02 0a 8c 3e c3 11 51 3e 4f b5 86 3e 68 98 50 bd
       0.27351385 0.20416932 0.26310202 -0.050926596

transformer_encoder.layers.0.self_attn.in_proj_bias f4 [60]
000000 0e 98 8f bc d9 66 5e 3b c8 20 9c bb 43 43 a7 3a
       -0.01752856 0.0033935814 -0.00476465 0.0012761134
000010 5b 0c 1a bc 2b 20 8f 3c 87 7f 22 3d 79 a9 2d 3d
       -0.00940236 0.017471394 0.0396724 0.04239795
000020 13 18 0b 3d 7c 5e 16 bc 2b 60 b5 3c d7 79 60 bc
       0.033958506 -0.0091778 0.022140583 -0.013700924
000030 58 53 9f bc 8b 68 c9 bc 19 e6 9a 3c 46 fb 24 3c
       -0.019448921 -0.024585983 0.018908547 0.010069674
000040 cb 83 26 bc ea 14 2b bd 88 66 c7 3b 88 d2 50 3d
       -0.010163258 -0.041767992 0.0060852207 0.05098203
000050 17 fa 39 b1 93 92 74 30 5e 58 f6 2c 9b 7a 1d b1
       -2.7063203e-09 8.897498e-10 7.0015512e-12 -2.29162e-09
000060 49 ec 01 31 5c f4 8f 32 53 04 c7 31 69 f0 84 31
       1.8906283e-09 1.6758513e-08 5.792154e-09 3.869037e-09
000070 47 17 0e 32 22 20 9d 31 f5 69 14 2f d4 f2 d5 2f
       8.2707805e-09 4.5729545e-09 1.3498165e-10 3.8917014e-10
000080 9e a6 93 2f 6d a8 66 b0 75 a4 83 b1 11 85 71 31
       2.6857533e-10 -8.391286e-10 -3.8312984e-09 3.5145755e-09
000090 dd 12 c6 b1 7e 5f 7b 31 cf 90 47 31 bd 33 32 31
       -5.764703e-09 3.6579588e-09 2.9040625e-09 2.593182e-09
0000a0 9d 72 44 bd 8c 8b 52 3d 64 6a cb bc 27 3b 84 bc
       -0.047960866 0.051402614 -0.024831004 -0.016141487
0000b0 58 61 6d 3d bc fe af 3d ea bc f9 3b 6c 07 84 3d
       0.057954162 0.085935086 0.0076213973 0.06446728
0000c0 14 f1 62 3d bd 34 11 3c fd 7d 8f bc e9 cd 60 3c
       0.05540569 0.008862671 -0.01751613 0.013720968
0000d0 a4 84 89 bd b3 08 93 3d 4c c1 91 3c 28 2a 90 3d
       -0.06714752 0.071793936 0.017792366 0.07039291
0000e0 ee 31 2e 3d 33 34 2d 3d d5 9e 38 3c 00 36 73 bc
       0.042528085 0.04228611 0.011268337 -0.014844418

transformer_encoder.layers.0.self_attn.out_proj.weight f4 [20, 20]
000000 3a ec 05 3e 39 19 ed bd 6b 3b bc bd a9 75 22 3e
       0.13078395 -0.115770765 -0.091910206 0.15865196
000010 96 7e 8a 3e 1a aa 87 3d a8 77 e4 3e d7 64 ff 3d
       0.27049702 0.06624241 0.4462254 0.124704055
000020 e7 64 7b bd 31 3e 9d 3d 45 2d 3f be e0 ee 53 3d
       -0.061375525 0.07677878 -0.18669613 0.05174148
000030 2b 26 24 bc 4c 53 b3 bc e2 fc a5 3d 3d 0e bf be
       -0.010018866 -0.021890305 0.08104874 -0.3731555
000040 58 e6 0a 3e 15 4e c0 3d f6 d2 bf 3e 9c aa ce 3d
       0.13564432 0.09389893 0.37465638 0.10091135
000050 56 09 18 3e ff 1c a9 bd a4 79 93 3d e3 f5 6d bd
       0.14847311 -0.08257484 0.072009355 -0.058095824
000060 e1 ea bc 3d fd 1a 7a bd b1 86 8f be 0d 54 32 be
       0.09224487 -0.061060894 -0.2803245 -0.17414875
000070 60 fc 1a be a1 f3 98 bd 03 a9 29 bd 77 58 8b 3d
       -0.15135336 -0.074683435 -0.041420948 0.06803983
000080 bb 95 02 3e 94 cb 4d be a3 3c cc bd 4e cd 92 3d
       0.1275243 -0.2009719 -0.09972503 0.07168065
000090 cf 66 a1 bd 96 de 5c 3d 8e 7e 24 3d a1 e0 c3 bd
       -0.07880937 0.053923212 0.040159754 -0.09564329
0000a0 28 72 1f be 88 c2 0e bd 85 29 bd bd 5d 03 18 be
       -0.15570891 -0.03485349 -0.09236435 -0.14845033
0000b0 ef a8 2f 3e 3f 47 21 be b9 0c 46 be 9e 5f 94 3c
       0.17154287 -0.15749834 -0.19340791 0.018112
0000c0 1e 68 5f be ff 6f 20 bd 7e 39 0a be dd a4 1b be
       -0.21817061 -0.039169308 -0.13498494 -0.15199609
0000d0 92 57 81 3c e4 02 a3 3d 89 c6 fa 3c 90 00 3a be
       0.015788827 0.07959536 0.030612247 -0.18164277
0000e0 2a 06 16 3e 40 89 e2 bd e5 f3 cd 3d 33 bd 68 be
       0.14650789 -0.110613346 0.10056285 -0.22728424
0000f0 66 54 5d 3d 18 9e 33 bd ea 16 83 3c 04 35 10 3c
       0.054035567 -0.04385194 0.016002137 0.008801702
000100 51 8e 4d 3e 49 fe 86 be 67 8e eb 3d ee 93 9d bc
       0.2007382 -0.2636588 0.115017705 -0.019235577
000110 16 04 05 3e 06 ac 97 3d 79 28 4b 3b 67 9b ea bd
       0.1298984 0.07405858 0.0030999465 -0.11455422
000120 0d ef fb 3d 68 da 79 3d b3 ef a3 3e 8f e3 18 be
       0.12301455 0.060999304 0.32018813 -0.14930557
000130 cf 59 c9 bd 88 f5 b1 3d 6b 1f 48 b7 04 39 8d 3e
       -0.09831583 0.086894095 -1.1928244e-05 0.27582562
000140 86 ea 38 bd 6f 8d d7 3d c1 bb 60 be 36 1c 45 be
       -0.045145534 0.10525023 -0.21946622 -0.19249043
000150 9c d6 00 bd fa 9b e1 3a eb 79 49 3e a5 b3 20 bd
       -0.031454667 0.0017212622 0.19675414 -0.039233822
000160 6c 2c 33 3e 33 c2 4a 3d 6a 71 8f bc 52 29 56 3d
       0.17497414 0.04950161 -0.017510135 0.0522855
000170 a3 0f 56 be a3 7c 5e 3e 03 5c bd bd 67 bb 1f be
       -0.20904402 0.21727233 -0.092460655 -0.15598832
000180 10 ed 77 3d 48 ec 4a 3d 70 14 d7 3d 84 97 04 be
       0.060528815 0.04954174 0.10501945 -0.12948424
000190 ed 00 86 3e 1d 1a a7 3d 08 cf 52 be e3 5f 8a bc
       0.2617258 0.081592776 -0.20586789 -0.016891425
0001a0 90 81 a7 bd ae ff ad bd e9 b1 ba be 5c c5 30 be
       -0.08179009 -0.08496033 -0.3646386 -0.17262787
0001b0 7e e2 e8 bc e5 0f 67 3e ff 6f 60 be 6b d5 26 bc
       -0.028428312 0.22564657 -0.21917723 -0.010182719
0001c0 fb c0 c5 3b 2e 6f 84 3c 5e c6 4f 3d 56 4d 2f 3e
       0.006034968 0.016166296 0.050726287 0.17119345
0001d0 7e 21 34 bd 2f 6c 39 bd 73 fc 2d 3e 9c d0 24 be
       -0.043977253 -0.045269188 0.16990833 -0.16095203
0001e0 af 9d 7d 3d 03 e0 d2 bd 1a 7d fb bd cd bc ba 3d
       0.061917957 -0.10296633 -0.122797206 0.09118042
0001f0 b8 53 57 3e 40 3a 58 be 04 e2 36 3e 5d c1 5f 3d
       0.2102803 -0.2111597 0.17859656 0.054627765
000200 21 25 66 3e 0c 07 19 3e 4d 38 9f 3d 0d c3 23 3d
       0.22475101 0.14944094 0.077744104 0.039980937
000210 f8 b4 4f 3e 15 92 09 be 99 d8 28 be 3a e0 3f 3e
       0.20283878 -0.13434632 -0.16488875 0.1873788
000220 f0 fb af 3c c8 c8 8b 3d f1 99 19 be 08 4f cb bd
       0.021482438 0.06825405 -0.1500013 -0.099271834
000230 db 5a a8 3d 0f 8a 06 be 7e 55 13 3e 65 36 96 bd
       0.08220454 -0.13138603 0.14388081 -0.07334594
000240 b5 04 e9 3d a5 80 7b bd 18 59 b1 bd fc 63 e3 3d
       0.11377851 -0.06140198 -0.086595714 0.11103055
000250 f9 11 fc 3d d5 4c df bd d8 04 2d be 1b 63 3b be
       0.123081155 -0.109033264 -0.16896379 -0.18299524
000260 09 df 06 3e bf 62 69 bd 3e f4 9b bd f3 b5 8f bd
       0.13171019 -0.056978937 -0.07614945 -0.07017126
000270 bc 89 a7 3d 61 c0 16 3e 55 12 2c bd 18 74 9d bd
       0.081805676 0.14721824 -0.04200967 -0.07688159
000280 e5 1f c7 3c f4 e1 48 3e 93 d3 45 3e 15 50 67 3c
       0.0243072 0.19617444 0.1931899 0.014118214
000290 ae a4 bf bd f2 58 62 3d 45 a2 5d bd 7b a4 62 3e
       -0.09357582 0.055260606 -0.05410983 0.22133057
0002a0 b2 01 18 3b f1 ba 0c bd 33 e1 34 be f6 36 dc bd
       0.002319437 -0.03435797 -0.17664032 -0.107526705
0002b0 7c 4e 93 bd 22 ce 16 3e 61 13 15 3d d1 f3 47 3e
       -0.07192704 0.14727071 0.036395434 0.19526602
0002c0 dc 60 aa bc e9 cd 94 3d 2e 66 df 3d e3 21 8c be
       -0.02079814 0.07265837 0.10908161 -0.27369604
0002d0 0e 0a 21 3e 56 db 27 be 15 5d 64 3e af 39 ff bd
       0.15726492 -0.16392264 0.22301133 -0.12462174
0002e0 fa ed 71 3e 79 2b e3 bd 53 e8 75 3d af ab 68 3d
       0.23625937 -0.11092276 0.060036015 0.056804355
0002f0 0b 9b 70 3e 73 91 16 be 14 0a f6 39 b3 e7 8b 3d
       0.23496644 -0.14703922 0.00046928285 0.068313025
000300 b4 1a 33 be b1 56 d5 bd 6f 45 d0 bc a1 71 3a 3e
       -0.17490655 -0.10416926 -0.025423734 0.18207408
000310 91 a3 1a be 15 4e 06 3e 43 93 4f be b4 34 1f be
       -0.15101458 0.13115723 -0.2027102 -0.15547448
000320 2f 16 73 3e a1 22 36 be aa c0 e2 3d 29 a5 4f bd
       0.23738931 -0.17786647 0.11071904 -0.05069462
000330 fb 4e d9 3d 17 fc 53 bb 6a 7e 32 3e 08 5a 0b 3d
       0.106107675 -0.0032346302 0.17431036 0.034021407
000340 5c 33 2b be 4e 15 bc bc db 00 ab 3a d8 a2 b9 bd
       -0.16718811 -0.022959378 0.001304652 -0.09064263
000350 9b d6 33 3c 2d b7 32 3d 1e 63 d0 bb 39 fc 4d 3e
       0.010976459 0.04363172 -0.006359472 0.20115747
000360 c3 85 01 3c df c9 42 3e 80 ba a8 bc ab 35 b3 3d
       0.007905426 0.1902232 -0.020596743 0.08750471
000370 1a d8 1c 3e 9c 81 b4 3d 2d 03 d6 bb 76 6c 43 be
       0.15316811 0.088137835 -0.0065311403 -0.19084343
000380 02 cf 82 3d 0a 45 79 be a2 65 8b be 14 6b 5f 3d
       0.0638714 -0.24342743 -0.27225977 0.054545477
000390 b0 36 6a 3e 3a 3c c4 bc 0e 54 14 bd 35 24 70 bb
       0.22872424 -0.0239545 -0.036212973 -0.0036642675
0003a0 82 80 d5 bd 80 b8 b7 3c 3b 71 1b bd 19 72 51 3e
       -0.104249015 0.022426844 -0.037949782 0.20453681
0003b0 15 a4 a5 be 57 28 30 be 3a b6 19 3c d4 7d be 3c
       -0.32351747 -0.17202888 0.009381825 0.023253359
0003c0 13 99 2b be 87 b3 cb bd c5 2e 9e 3e d3 9e 2f be
       -0.16757612 -0.099463515 0.30895057 -0.1715043
0003d0 7a f1 d1 bd fc 6b 17 3d fa f4 84 3d bd 1b d1 3d
       -0.10251136 0.036968216 0.06492038 0.10210369
0003e0 78 c0 91 be 7c b8 26 3e dd 24 11 3e c2 ed 08 bd
       -0.28467155 0.16281313 0.14174218 -0.03342987
0003f0 a4 18 07 bd 37 0f 59 3e 25 8a ec bb 9e 44 81 3e
       -0.032982484 0.2119721 -0.0072186165 0.25247663

transformer_encoder.layers.0.self_attn.out_proj.bias f4 [20]
000000 45 af a1 bc da d9 44 3d b7 c9 0a 3d 2a 9d 19 3d
       -0.019736895 0.048059322 0.033883777 0.0375034
000010 38 e8 aa 3c 7c 84 c8 3c 2e 96 a2 bc 07 aa e4 3c
       0.020862684 0.024477236 -0.019847002 0.027913107
000020 0e 74 72 bc 1b 29 8e bc 34 72 79 3b 9f 5c 33 bd
       -0.014798177 -0.017353585 0.0038062455 -0.043789502
000030 ff e2 18 3d d6 83 af bd d9 37 16 3d 52 60 b3 bc
       0.037325855 -0.085700676 0.036674354 -0.021896515
000040 8c c9 d6 ba b2 bf 1b bd 72 0f 67 3c f3 c5 b2 bc
       -0.001638697 -0.03802461 0.014102804 -0.021822905

transformer_encoder.layers.0.linear1.weight f4 [20, 20]
000000 38 00 c2 bd 2a bb 12 3e ed e5 70 3d eb f3 46 3e
       -0.09472698 0.1432921 0.058813024 0.19428985
000010 c8 cb b5 bd 34 4e b8 bc 3c 70 22 be 35 53 3d 3e
       -0.08876759 -0.022498228 -0.15863127 0.18488772
000020 4e 06 0f bd c5 7b 08 bb 58 08 f1 bd 35 df 2d 3d
       -0.034918122 -0.0020825726 -0.117691696 0.042449195
000030 ad 1c 8d 3d 80 85 3e 3d aa a1 ef 3c 75 ed b2 3d
       0.06890235 0.046514034 0.029251892 0.087366976
000040 47 57 48 3e 26 65 18 be 39 28 68 bd ba f4 e9 bd
       0.19564544 -0.14882335 -0.056678984 -0.11423631
000050 6f 2f 83 be 0f 49 42 3e 34 38 63 be 0b 60 3d 3d
       -0.25622126 0.18973182 -0.22189409 0.04623417
000060 37 69 72 3d 7d a3 ca bc 4f f2 05 3d af cc 34 be
       0.059182372 -0.02473616 0.032701787 -0.17656206
000070 bb 18 2b 3e 2c 59 06 bd f6 32 15 bd c9 d3 c3 3d
       0.16708653 -0.032799885 -0.036425553 0.09561879
000080 73 82 6d bd 95 e5 13 be 2d 95 1c 3e df c0 47 3e
       -0.057985734 -0.14443047 0.15291281 0.19507168
000090 6f 20 0d 3e 11 77 5c bd 09 67 f6 bd 26 4c 97 3d
       0.13781904 -0.053824488 -0.12031371 0.07387571
0000a0 38 33 2f 3e c3 9c 58 3e d7 82 72 3e f6 e6 46 3e
       0.17109382 0.2115355 0.23682724 0.19424042
0000b0 c5 fa 87 ba 42 3a 3d 3e 8c 4d 61 3e 33 43 6f bd
       -0.0010374418 0.18479255 0.22002238 -0.058413696
0000c0 cb 50 a3 bd ca d8 37 3d d0 18 9d be 92 14 27 3c
       -0.079743944 0.04488448 -0.30682993 0.010197775
0000d0 ef 53 d8 3b 5f e7 cc 3d e3 7d 3a be 82 dd 4a bd
       0.0066018025 0.10005068 -0.18212084 -0.049527653
0000e0 a3 61 b4 bd ed d9 4f 3e 2d a0 2f 3d 66 51 bc bc
       -0.08807685 0.20297976 0.042877365 -0.022988033
0000f0 ba cf 84 bd 56 3a 1d be 6c 10 61 3d c3 4e 80 3e
       -0.06484933 -0.15354285 0.0549473 0.2506009
000100 99 c2 1d bd 06 4b 96 bc f3 bf 90 bd 2b 6c 11 3e
       -0.03851566 -0.01834632 -0.070678614 0.14201419
000110 9b f9 22 be cd ed 95 bd 7b c5 0a 3e 01 8e 30 be
       -0.1591553 -0.073207475 0.13551895 -0.1724167
000120 42 11 1a 3e 57 1e 31 3d d6 9e 71 bd 46 f1 e1 3d
       0.15045646 0.043241825 -0.05898937 0.110323474
000130 f1 91 d3 bd 26 72 46 be a4 ca 00 3d 35 11 3c 3e
       -0.103305705 -0.19379482 0.031443253 0.18365939
000140 c1 4e 9f 3d e0 eb 55 be 63 35 b7 bd 7a 87 a5 be
       0.07778693 -0.2089076 -0.089457296 -0.32329923
000150 4b 9e 04 3e 15 d9 b7 3e 10 59 53 3c 1a f7 4a be
       0.12951009 0.35907808 0.012899652 -0.19820824
000160 33 98 15 3c f4 68 07 be f4 d5 fd 3c fd eb cf bd
       0.009130525 -0.1322363 0.03098581 -0.10152433
000170 84 79 fa bd 6c 75 11 3e eb 6b 96 3d 34 cb 74 be
       -0.122302085 0.14204949 0.073448025 -0.23905641
000180 6c c0 34 be 4b 18 0f 3d 3f 1e b6 3d a6 c3 87 bd
       -0.17651528 0.034935277 0.08892488 -0.06629114
000190 73 1c d1 bc 16 5d f0 be 86 3f 94 bb 60 f4 9f bd
       -0.025526261 -0.4694602 -0.004524174 -0.07810283
0001a0 60 26 d6 3d 87 ba 9e be 09 30 d3 3c bc 08 a9 bd
       0.10456538 -0.31001684 0.02577974 -0.08253619
0001b0 39 9d e3 bd 62 14 48 bd b1 5c 02 bd 88 42 32 bd
       -0.11113972 -0.048847564 -0.03182668 -0.04352048
0001c0 60 ab d5 ba 28 d3 27 3c 76 8e 3e 3e 6a 2b a6 3e
       -0.0016301684 0.010243215 0.18609032 0.32454997
0001d0 86 37 7b bd c2 f5 9d 3d 5b d4 6d 3e 45 ed ff 3d
       -0.06133225 0.0771289 0.23225538 0.124964274
0001e0 02 78 a1 bc b7 c7 f7 3d bc 90 d6 bd 91 94 51 be
       -0.019710544 0.120986395 -0.10476825 -0.2046683
0001f0 dc 6c 17 3e b0 37 b7 3e 05 cd c3 bd 8b 59 6a be
       0.1478762 0.35784674 -0.09560589 -0.2288572
000200 f3 a8 84 bd 89 56 15 3e e4 d2 14 be c7 ed 72 be
       -0.06477537 0.14583792 -0.14533573 -0.23723517
000210 23 7f 58 be f1 a4 04 be 3a 5f 68 3d 95 fc 6f bd
       -0.21142249 -0.12953545 0.05673144 -0.05859049
000220 8d 72 0c bd d1 9d 80 3d 7b 6c c5 3c c1 42 75 be
       -0.03428893 0.06280101 0.02409958 -0.23951246
000230 b8 da 5a 3e 91 97 2a 3e 14 3d 85 bd dc a9 d0 bc
       0.21372497 0.1665938 -0.0650579 -0.02547162
000240 75 ad ba bd 8e db 62 3e 53 71 6d be 3a e7 ab 3d
       -0.091151156 0.22154066 -0.23187761 0.08393712
000250 72 a3 8a bd cf 8b 63 be 3e 0f 36 be 4e a3 37 be
       -0.06769456 -0.22221301 -0.17779252 -0.1793339
000260 fd 51 e3 3d 75 d8 6c be 75 24 06 3e fe ce 35 be
       0.110996224 -0.23129447 0.13099845 -0.17754743
000270 40 d7 03 3d 67 1f 79 be 05 ad 2d be 1a 3d c0 bd
       0.0321877 -0.24328385 -0.16960533 -0.09386654
000280 1f 6d 1d be 77 c6 42 3e b1 1f 3e 3e 05 ae 02 be
       -0.15373658 0.19021021 0.18566777 -0.12761696
000290 cc 31 95 3d c4 cd 35 3a 23 92 93 3d 6e 0b 8b 3e
       0.072848886 0.00069352635 0.07205608 0.27157158
0002a0 7f f3 04 be 97 61 ff bd bb d4 10 3e d3 a6 7e 3e
       -0.12983511 -0.12469786 0.1414365 0.24868326
0002b0 0b 80 87 bd b4 ca dd 3d 3f 10 62 bd 13 f6 6c be
       -0.06616219 0.10829678 -0.055191275 -0.23140745
0002c0 3d 3e 11 3e b5 af 92 bd db 6f d1 3d da cf f2 3d
       0.14183898 -0.0716242 0.10226413 0.11856051
0002d0 3f 3f 60 3c fc 93 8c be 1f 4f 85 bc 89 81 77 3e
       0.013686954 -0.27456653 -0.01627308 0.24170507
0002e0 84 4c 77 3e 5b 7d 9a 3d 93 e0 ae bd 8e 7e f8 3d
       0.24150282 0.07543441 -0.08538928 0.121335134
0002f0 05 11 2d 3d 99 90 8e bd 04 b8 ff 3d 8e 9e 15 3e
       0.04225256 -0.069611736 0.1248627 0.14611265
000300 84 e7 13 3e 7b 47 21 be 49 f1 c6 bd d1 15 30 bc
       0.14443785 -0.15749924 -0.0971399 -0.010747389
000310 f8 95 17 be a1 cc 33 3e 7f 76 aa bd c0 27 db bc
       -0.14803302 0.17558528 -0.083233826 -0.026752353
000320 57 98 45 bb ea db 35 3e 81 10 81 bd f0 a8 47 3e
       -0.0030150616 0.17759672 -0.06301976 0.19498038
000330 9d ad 46 3e 62 e9 21 bd 28 13 04 bc ae f3 b4 bc
       0.19402166 -0.03952921 -0.008061208 -0.022088852
000340 dd 39 6d 3e 64 e6 35 be 1b 50 39 be 42 10 3f be
       0.23166604 -0.17763668 -0.18096964 -0.18658546
000350 d6 d4 c2 3d 03 ee c8 3d 27 19 c1 bc 20 8b 02 3e
       0.095132515 0.09811022 -0.023571564 0.12748384
000360 ac 8e 07 be c4 67 42 be 35 66 97 3d a4 9e 2a be
       -0.13238019 -0.18984896 0.07392541 -0.16662079
000370 2b 96 a4 3d 11 dc 84 be f3 67 70 3d a4 29 3e be
       0.08036455 -0.25949147 0.058692884 -0.18570572
000380 b5 27 7f bc 6a e9 72 be b8 22 ff 3d 12 68 18 be
       -0.015573432 -0.23721853 0.12457794 -0.1488345
000390 4c 4d d4 bd 93 0a e4 3d 66 68 be bc 92 d8 38 bd
       -0.10366306 0.11134829 -0.02324314 -0.045128413
0003a0 6d fe 3a be 89 32 e6 3b e1 ac 2d 3e 2a 97 23 3e
       -0.18261118 0.007025067 0.1696048 0.15975633
0003b0 bb 4c 33 be 05 45 2f be da 88 06 3e d7 a3 cd 3d
       -0.17509739 -0.17116173 0.13138142 0.100410156
0003c0 f5 d8 5b 3d 34 5d 4c 3e a6 bc bb bc e6 fc 34 3e
       0.053673703 0.19957429 -0.022917103 0.17674598
0003d0 f6 12 7c 3d d4 6e 08 bd 98 0b 31 3e ac e3 45 3e
       0.06154152 -0.03330882 0.17289579 0.19325131
0003e0 15 ab 1b 3e b5 50 d2 3d 50 0a 6f 3c bf 83 2f be
       0.15201981 0.102693 0.014589861 -0.17140101
0003f0 c8 40 2b be a6 3d bf 3d bf c6 d2 bd a4 dd e7 bd
       -0.16723931 0.093379304 -0.10291814 -0.113215715

transformer_encoder.layers.0.linear1.bias f4 [20]
000000 50 16 a7 bd 79 85 d3 3d ea 0a 3a be 04 06 7e bd
       -0.08158553 0.10328192 -0.18168226 -0.062017456
000010 f9 89 2a 3e eb 4a e2 3a 54 4a 67 be a6 08 6e be
       0.16654195 0.0017264759 -0.22586948 -0.23245487
000020 53 9f ce 3c 97 43 9c 3d b4 a9 e1 3d aa 5e 94 bc
       0.025222456 0.07630079 0.110186964 -0.018111546
000030 ff 44 60 3d 1f 92 47 bd 5c 64 f2 bd 1f 27 be bd
       0.0547533 -0.048723336 -0.11835548 -0.092848055
000040 58 04 42 be 91 9a 1f be 6d f9 12 be cc 62 57 be
       -0.1894697 -0.15586306 -0.14352961 -0.21033782

transformer_encoder.layers.0.linear2.weight f4 [20, 20]
000000 d3 e0 06 3d 5e b4 5c be a5 62 cc bd a6 83 5e 3e
       0.032929253 -0.2155318 -0.099797525 0.21729907
000010 ad 23 4d be c8 c8 dc 3e f1 df 92 3d cc 92 2f 3e
       -0.2003314 0.43121934 0.0717162 0.17145842
000020 eb 8a 1d be 3e 38 82 3e 08 7b cb 3d bc 34 a4 3e
       -0.15385024 0.25433534 0.09935576 0.32071483
000030 5d d1 ed bd e5 85 5f 3c 12 bf 47 3e 00 47 4b 3e
       -0.116121985 0.013642763 0.19506481 0.19851303
000040 6d 01 8e 3e 35 05 c0 bd cd ad 47 bd 50 cf d6 3d
       0.27735463 -0.09375993 -0.048749734 0.104887605
000050 04 7c 0c 3e 58 d5 68 3d 7c f2 2d bd bf d0 42 3d
       0.13719183 0.056844085 -0.04246758 0.047562357
000060 47 45 14 bd 1f f1 84 3e 9a c8 f4 3d bc c1 21 be
       -0.03619888 0.2596521 0.11952324 -0.1579656
000070 7f 2c ff 3d fc 57 08 3c 29 2b db bd 67 63 ca bc
       0.12459659 0.008321758 -0.107015915 -0.024705602
000080 94 d3 08 3e 1a fb 50 bd 1a 46 e4 3d 5e 20 d1 bd
       0.1336196 -0.05102072 0.11146183 -0.10211252
000090 b6 b0 ec 3b eb 48 27 bb 5b 2c d6 3b ba d3 10 bc
       0.007223214 -0.002552564 0.0065360493 -0.008839542
0000a0 b4 8c 45 3d 71 a4 50 bd 5d 30 4e 3e 66 bb f1 bd
       0.048229888 -0.050938074 0.20135637 -0.118033215
0000b0 cb 4f 04 be d8 ac 82 3e 8e 0e fd bd c7 78 88 3e
       -0.12921064 0.25522494 -0.12356292 0.26654646
0000c0 df b1 34 3e f0 1e 24 3e bc 2a 41 3c 8e 53 f0 bc
       0.17645977 0.16027427 0.011789974 -0.029336717
0000d0 35 e4 7e 3a b0 bd 49 bd 4c 60 b7 3d b9 c9 28 be
       0.00097233366 -0.049253166 0.08953914 -0.16483201
0000e0 d8 6e 9f bd 9d 22 17 3d e5 bd 29 3d 77 b2 53 3d
       -0.07784814 0.036898244 0.041440863 0.05168387
0000f0 bf bc 1c 3e c0 8f 01 bc 86 99 5e bb 6e 12 ba bd
       0.15306376 -0.007907808 -0.0033966019 -0.090855464
000100 a9 3d ea 3c bd 0d 18 3d 34 b1 f5 3d ca c8 15 3e
       0.028593855 0.037122477 0.119966894 0.14627376
000110 22 3e 91 3b 99 be 17 be d6 1d 27 3d c1 cb 86 bc
       0.0044324556 -0.14818801 0.04079994 -0.01645458
000120 42 b6 44 3d 18 35 8b b9 4c 68 16 3e ca 3e 20 3e
       0.048025377 -0.00026551704 0.14688224 0.15648952
000130 12 7b cb bd 59 67 4e 3c bd 46 4f 3d a4 8f d6 bd
       -0.09935583 0.012597882 0.05060457 -0.10476616
000140 4e 50 4c bd 82 15 41 3a 8f 4c 2c be 32 7e 6b 3d
       -0.049881272 0.00073655706 -0.1682608 0.057493396
000150 2b b3 af 3d dc 03 3a 3e ea f4 b1 3d 50 fb c9 3d
       0.085790955 0.18165535 0.08689292 0.09862387
000160 3a fe 2a 3e 49 d0 f1 3d 6f 0e 03 be c0 9c d1 bd
       0.16698542 0.11807305 -0.12798475 -0.10234976
000170 00 c4 d8 3d 39 74 4f 3e 97 7e c6 bd c1 9a 86 3e
       0.10584259 0.20259179 -0.09692114 0.26289943
000180 dc c5 e0 3d c6 34 4d be 30 9b 5f 3d 96 1a 63 3d
       0.10975239 -0.20039663 0.054591358 0.055445276
000190 a5 5f 48 3e 92 40 8e 3d 7b 6c 0a be a5 93 14 bd
       0.19567735 0.069459096 -0.13517945 -0.036273617
0001a0 a5 92 26 3d 16 b4 3d 3e 93 a4 44 be 75 6a f1 bd
       0.040667195 0.18525729 -0.19203405 -0.11787883
0001b0 0e d5 96 bd 3d 59 8b bc 49 49 25 3c 64 e2 a9 3c
       -0.07364856 -0.017010326 0.010088273 0.020737834
0001c0 73 85 c6 3d 26 b6 b9 bd 19 44 2f be 5a 50 47 be
       0.09693422 -0.09067945 -0.17115821 -0.19464245
0001d0 c0 33 5e 3d fe 88 48 3d 7a 78 3a bd f3 fd 17 3e
       0.05424857 0.04895877 -0.04552505 0.14842968
0001e0 cb 4f 09 be 51 53 b6 3d ee d0 ee bd bf 15 33 3e
       -0.13409345 0.0890261 -0.11660944 0.17488764
0001f0 02 91 b4 bc ce 1f d6 3d c5 7d 8a bd fd 9b 27 3b
       -0.022041801 0.10455285 -0.0676227 0.0025575154
000200 5a 76 a8 be f8 48 0f 3e 37 60 ff 3c 51 44 ec bd
       -0.32902795 0.13992679 0.031173809 -0.11536468
000210 5e 84 c1 3d 7a d3 55 be 28 27 26 3d 3d af 88 3e
       0.09449075 -0.20881453 0.040564686 0.26696196
000220 44 54 e5 3d 65 ca dc 3c 0a ea 6e 3c 0c 81 7b 3c
       0.11197713 0.026951978 0.014582166 0.015350591
000230 e4 c2 25 3e 91 0d 33 3e f2 f6 ea 3d 78 f4 21 be
       0.16187626 0.17485644 0.11472882 -0.15815914
000240 48 1d 4e 3e 2c 56 3a be e9 59 59 3e 0b 3c e7 3b
       0.20128357 -0.18196934 0.21225704 0.007056718
000250 b4 6b 53 3e b0 ca b6 3c 3e db 20 3e ce 6d d0 3c
       0.20646554 0.022313446 0.15708634 0.025442984
000260 40 67 55 3d 3e 82 d9 3d 93 71 15 3e 0b 3d 36 be
       0.05210042 0.10620545 0.14594106 -0.17796724
000270 c4 ec b9 bd ee 1f a3 3d 38 ca bd 3d 7a 52 d4 3d
       -0.090783626 0.079650745 0.09267086 0.10367294
000280 bb fe 72 3d 4a 51 e5 3d a9 0d 31 be 01 7a 4e 3e
       0.05932496 0.11197145 -0.17290367 0.20163728
000290 b3 40 a0 bd a0 b3 d8 3d cd e6 94 be 70 e8 83 3d
       -0.078248404 0.10581136 -0.29082337 0.06440818
0002a0 be de 32 bc 15 2c 3a 3e 9b ed 0f be 5e 8d 29 be
       -0.010917364 0.18180878 -0.14055483 -0.16557834
0002b0 1d ab e0 3d 7c dc be bd 2a b8 d9 3c 66 e5 10 be
       0.10970137 -0.09319398 0.026577074 -0.14150009
0002c0 63 6e 7c 3e bf d0 32 3e aa 86 e8 3d 53 60 1c 3d
       0.24651484 0.17462443 0.1135381 0.0381778
0002d0 0f 8d f6 3d a9 fb 35 3e 4f 24 03 3e c6 fc e1 3b
       0.120386235 0.17771782 0.1280682 0.006896588
0002e0 39 1f 3e be 86 df 8e be 6a 31 7c bd 8b 34 bc bd
       -0.18566598 -0.2790491 -0.061570562 -0.09189709
0002f0 e4 31 84 bd 69 3b 8f bd ca bc 6c bd da 72 f5 bc
       -0.064548284 -0.069937535 -0.05779723 -0.029961992
000300 28 4e 26 3e 9b 92 7b bd 52 16 8f bd c7 13 48 bd
       0.16240752 -0.06141911 -0.06986679 -0.048846986
000310 c3 30 77 3d 02 a7 bf bd 74 69 02 3e 24 47 7a be
       0.060349237 -0.09358026 0.1273554 -0.244412
000320 02 e2 03 be bf b1 78 be bc d4 c2 3d 62 19 24 3e
       -0.12879184 -0.24286555 0.09513232 0.16025308
000330 a3 d6 82 3e cc 40 16 be 69 d2 59 3e 82 68 60 3e
       0.2555438 -0.14673156 0.21271671 0.21914867
000340 c8 74 c3 bd d8 91 9d 3d 8b 23 4f 3e 02 23 a8 bd
       -0.09543759 0.07693833 0.20228402 -0.08209802
000350 d0 73 8a 3a bd ac 42 bd 44 25 1f be 76 60 4f bc
       0.0010563079 -0.047528017 -0.1554156 -0.012657275
000360 be 67 8c be 7d 56 fe 3d e5 0a 86 bd 9e 23 8b be
       -0.274229 0.1241884 -0.06545047 -0.2717561
000370 f4 10 47 3e 8d be 1d 3e ab 84 5e 3b cb 43 52 be
       0.19440061 0.1540472 0.0033953588 -0.20533673
000380 1d 18 26 3e 5d f1 12 bb 17 1e 7f 3e ae 74 d3 bd
       0.16220136 -0.0022421696 0.24913822 -0.10324989
000390 bd 05 13 3e c8 8e b7 3d 23 7f 9d 3d da e5 b4 be
       0.14357658 0.0896278 0.07690265 -0.35331613
0003a0 e4 ae 94 be 58 b5 45 3d b0 cb 17 3c 5e 22 fe 3d
       -0.2903968 0.048268646 0.0092648715 0.12408899
0003b0 86 86 a2 3d c0 8f 09 be ee d3 08 3d f8 ce 0f be
       0.079358146 -0.13433743 0.033405237 -0.14043796
0003c0 cb eb 27 bd ba 56 35 be 9a 0c f0 3d 0d 25 23 be
       -0.040996354 -0.17708865 0.117211536 -0.15932103
0003d0 a4 c2 f9 3c f6 4c 28 be 8b 96 d5 bd 9c 3a 76 bd
       0.03048832 -0.16435608 -0.104291044 -0.060114488
0003e0 1d d1 0f be 00 03 72 be 26 7a 21 be fa 60 5b be
       -0.14044614 -0.23633957 -0.15769252 -0.21423712
0003f0 2a a3 3c 3e b1 00 0e 3e 5a a2 f3 3c 77 f7 2c 3e
       0.18421617 0.13867451 0.029740501 0.16891275

transformer_encoder.layers.0.linear2.bias f4 [20]
000000 f1 e1 e4 3d 5c 1f 3f 3c c2 e4 55 3e db 04 93 3b
       0.111759074 0.0116651915 0.20888045 0.004486663
000010 96 de 0c 3e 5c 46 fa 3c 20 4e da bc da 31 05 be
       0.13756785 0.030551128 -0.026648581 -0.13007298
000020 eb e3 ec 3a 3b 53 3b bd 52 75 51 3e 41 3d 14 bd
       0.0018073296 -0.04573367 0.2045491 -0.03619123
000030 28 ab 48 3d 1e ce 8b 3d 06 56 05 bc 42 11 64 bd
       0.048991352 0.06826423 -0.008138185 -0.05568052
000040 3b df 1c 3e df bc 5c bd 79 d2 40 3e c4 d2 e5 bd
       0.1531953 -0.05389106 0.18830289 -0.11221841

transformer_encoder.layers.0.norm1.weight f4 [20]
000000 7c 2a ad 3f ef 4d 9c 3f f2 b1 8b 3f d5 53 96 3f
       1.352859 1.2211283 1.091368 1.1744334
000010 ec 84 80 3f a2 4d 9a 3f 60 22 89 3f 51 9b 6d 3f
       1.0040565 1.2054942 1.0713615 0.9281512
000020 79 c9 82 3f 97 39 7d 3f 48 b4 7e 3f 84 e8 85 3f
       1.0217735 0.98916 0.9949384 1.0461583
000030 aa 4e 65 3f 84 f2 6d 3f 1c e7 7a 3f 4b 62 48 3f
       0.89573157 0.92948174 0.98008895 0.78274983
000040 d0 c3 71 3f 61 9f 88 3f e4 0d 7b 3f 11 c9 7c 3f
       0.9443941 1.0673639 0.9806807 0.98744303

transformer_encoder.layers.0.norm1.bias f4 [20]
000000 4c 23 e5 bc 96 ea 65 3d 00 f1 34 3d 93 b3 83 3c
       -0.027970932 0.05613192 0.044175148 0.016076839
000010 69 bf c6 3c 78 32 2b 3d ae cf 83 bd 7a 79 62 3d
       0.024261193 0.041796178 -0.06436096 0.05529163
000020 a8 7c 21 3c c9 5d 66 bd b6 90 29 3d 8e e9 0e bd
       0.0098563805 -0.056241784 0.041397773 -0.034890704
000030 e9 cd 80 3d 15 80 3a bd 05 ea 4f 3d 01 1d 32 bd
       0.06289274 -0.045532305 0.050760288 -0.04348469
000040 cf 68 94 3c 4e af 6f bd 46 2a 44 3d ec f4 52 bd
       0.018116383 -0.058516793 0.047891878 -0.051503107

transformer_encoder.layers.0.norm2.weight f4 [20]
000000 bd e0 b4 3f 9e 9e 69 3f 0e a6 91 3f 8b 8a 81 3f
       1.4131085 0.91257656 1.1378801 1.0120405
000010 4c 6f 89 3f c6 e6 7f 3f 5b 64 91 3f c1 d2 70 3f
       1.073709 0.9996151 1.1358751 0.94071585
000020 ff 0d 8a 3f f2 32 88 3f 67 b6 76 3f 0a 0e 8c 3f
       1.0785521 1.0640547 0.96372074 1.0941784
000030 d1 be 64 3f 68 95 78 3f b3 c3 7b 3f 67 aa 50 3f
       0.8935366 0.97102976 0.9834549 0.81510013
000040 da 10 75 3f ef 7e 8f 3f 1d 90 80 3f 94 00 8a 3f
       0.9572884 1.1210612 1.004398 1.0781426

transformer_encoder.layers.0.norm2.bias f4 [20]
000000 66 cd 3d 3c c9 4e 8c 3d 19 7c 99 3d 9b 5d a2 3d
       0.011584615 0.068509646 0.07494373 0.0792801
000010 67 3c 21 3b 01 ed 85 bb f2 ca 66 bd a7 c4 b5 3d
       0.0024602653 -0.004087091 -0.056345887 0.08875399
000020 19 09 26 3c 32 33 73 bd 6c 24 11 3d ee 36 e4 bc
       0.010134005 -0.059374996 0.035435125 -0.027858224
000030 14 40 01 3d d4 11 65 bb ec a8 a6 3d 7d 1f c4 3c
       0.03155525 -0.0034953253 0.08137688 0.023940796
000040 f5 ef ab bc 65 3a 74 bd 77 cd 46 3d 46 ad 2b bd
       -0.020988444 -0.059626002 0.04853579 -0.041913293

transformer_encoder.layers.1.self_attn.in_proj_weight f4 [60, 20]
000000 bd 4a 0d be cd 81 8a be e5 cf 5a 3e 9a 2f 56 3d
       -0.13798042 -0.27052155 0.21368368 0.05229149
000010 04 8e 34 3e f9 94 78 3d 9d 94 23 be 65 4d ea 3d
       0.176323 0.060688946 -0.1597466 0.11440543
000020 2d 90 0e 3d f6 65 4e 3d 5c 94 49 be 62 71 7c 3e
       0.034805465 0.050390206 -0.19685501 0.24652627
000030 a4 99 8f be f4 a9 37 3e 29 9f 81 3e dd 17 8b 3e
       -0.28046906 0.17935926 0.25316742 0.27166644
000040 93 bb a8 3d e9 c7 d4 bd e3 f9 da bb 2a 65 7f 3c
       0.08238902 -0.10389692 -0.006682621 0.015588084
000050 ac 8d 67 3e 06 48 8d bc 01 95 7e be 29 8c c7 3d
       0.22612637 -0.017246258 -0.24861528 0.0974353
000060 61 c4 9d 3d fa b4 de 3d 58 c3 27 3e 0e 45 8c bd
       0.07703472 0.10874362 0.16383111 -0.06849109
000070 c0 b6 56 3e 4e 94 10 bd e2 39 6e bb e5 e0 91 bd
       0.20968151 -0.035297684 -0.0036350419 -0.07122973
000080 69 92 cb 3d cb 05 97 bd c9 97 62 3e e4 76 20 3e
       0.09940035 -0.07374152 0.22128214 0.15670353
000090 ec 12 86 3e 5c 00 9c 3c 3b 20 2d 3d 79 ee 13 be
       0.2618631 0.01904314 0.042267065 -0.14446439
0000a0 db cd 5d 3e ec 25 7e be 59 81 c0 3c f4 9b 8c bd
       0.21660559 -0.24819154 0.023499178 -0.06865683
0000b0 dc 8b 76 3e 72 02 6b be a3 04 2b 3e 24 ea 84 be
       0.2407679 -0.22950152 0.16700988 -0.25959885
0000c0 0f 70 b7 3c db c0 dd bd 57 ce 3b bd 68 28 43 bd
       0.0223923 -0.108278 -0.045851078 -0.047645956
0000d0 4e c2 03 3d 4f 64 46 be 6b 27 c9 3d 58 6f 28 be
       0.032167725 -0.19374202 0.098219715 -0.16448724
0000e0 af d3 73 bd 8c 96 9c be 5a 6f ad bd 95 8e c8 3c
       -0.05952805 -0.30583608 -0.08468504 0.02448205
0000f0 50 30 54 3d 1d b1 57 3d 5a 07 2b be b7 98 8c 3d
       0.051803887 0.052659143 -0.16702023 0.068650655
000100 e6 25 7e 3e 3c 84 30 3e c5 a1 ba bd 73 06 11 3e
       0.24819145 0.17237943 -0.09112886 0.14162616
000110 d3 06 7b 3c 4d a5 25 3c 15 03 64 3d cb c4 f9 3d
       0.015321451 0.010110212 0.055667 0.121957384
000120 ab 15 6b be 71 4b af bd c1 6e 89 3c 20 51 2d 3e
       -0.22957484 -0.08559311 0.016776444 0.16925478
000130 09 10 4c be 42 f1 e5 bd f7 df 3b bc 03 bf b0 3d
       -0.19927992 -0.11227657 -0.011466972 0.086301826
000140 c1 a6 89 be fe 25 19 3e 1c a7 35 be 03 bb 6c 3e
       -0.26885036 0.14955899 -0.17739528 0.23118214
000150 6b 5b 75 bd 02 f9 47 bd a2 31 c3 3b aa 6b 52 ba
       -0.059901636 -0.048821457 0.0059568444 -0.00080269075
000160 fc 4e 66 3e 14 f9 22 3e 3e 6c 6b be 8d d1 22 3e
       0.22491068 0.15915328 -0.2299051 0.1590025
000170 a9 db 36 3e b4 f9 97 bd 39 77 4c be 5e 17 b0 bd
       0.17857231 -0.07420674 -0.19967355 -0.08598207
000180 62 c1 62 bd 5b a9 46 3d b5 da de 3c 27 00 62 3e
       -0.055360205 0.048501354 0.027203897 0.2207037
000190 52 15 82 bd 1d 99 4a bd 59 be 50 3e d7 bb 7d be
       -0.06351723 -0.049462426 0.20385112 -0.24778686
0001a0 a6 d4 c6 3d e4 a3 24 3d a4 ea ac 3c 39 7b 4a 3e
       0.09708528 0.04019536 0.02110798 0.19773568
0001b0 1d af 39 be 3c 31 20 be be 67 cd 3d f9 18 51 3e
       -0.18133207 -0.15643781 0.10029553 0.20419683
0001c0 6c e3 2f bd 7a 24 49 bd 43 e5 76 be cd 7b 14 3e
       -0.042941496 -0.049107052 -0.24110894 0.14500351
0001d0 3d 67 13 be 8c 7c 5c be 31 5d 8c bd e0 bd 44 bd
       -0.14394851 -0.21531886 -0.06853712 -0.04803264
0001e0 9a 3e 94 bd e0 a5 dd 3d 4f 9f ec 3d 8a 83 3c 3d
       -0.07238503 0.10822654 0.11553823 0.046023883
0001f0 d0 c1 2c be aa ca ff bd 41 da 3b bd 05 de 04 be
       -0.16870809 -0.12489827 -0.04586244 -0.12975319
000200 c6 93 34 be 8a a6 0c 3e 9c 47 ef bd 3f 42 ad 3d
       -0.17634496 0.13735405 -0.1168358 0.08459901
000210 f8 95 84 bd 21 5f 04 3e ec 62 2f be 6e 82 47 3e
       -0.06473917 0.12926914 -0.1712758 0.19483349
000220 27 cb 2e 3e c2 44 03 be 7f b4 92 bb f9 c3 03 be
       0.17069684 -0.12819198 -0.004477083 -0.12867726
000230 73 2d 86 3d f3 64 4e be 10 b7 18 3d d6 1c ac 3d
       0.065516375 -0.20155697 0.037283957 0.084039375
000240 d4 67 a4 3e 30 c7 e8 bc a5 02 81 be 45 7d 0a bd
       0.32110465 -0.028415293 -0.2519733 -0.033810873
000250 1e 4c 27 be fa 37 05 be ad 2d 7c 3d 45 50 5c be
       -0.1633763 -0.13009635 0.061566997 -0.21514995
000260 d7 99 24 3e 32 0b ff 3c 35 57 39 be dc 4d 2c be
       0.1607431 0.031133268 -0.18099673 -0.16826576
000270 7b c2 c4 3d a0 62 f7 bc 7c ca 89 bd 5d 33 ff bd
       0.09607407 -0.030198395 -0.06728074 -0.12460969
000280 8b 51 2f 3e c8 51 81 bd d4 e5 5b bd d8 ed 31 3e
       0.1712095 -0.06314427 -0.053685978 0.17375886
000290 fa dd fd 3d 40 4e c2 bd cb 8d 7b be db 79 3f 3e
       0.12395854 -0.09487581 -0.24565808 0.18698828
0002a0 b4 5f 69 bb 01 4a 20 3e a1 ea 2e bd d9 81 24 3d
       -0.0035610022 0.1565323 -0.04270423 0.040162895
0002b0 e2 72 5f 3e de 4b 0d be 1f a4 e3 3d c8 3d 24 3e
       0.21821168 -0.13798472 0.11115288 0.16039193
0002c0 ab db 0f 3e f7 7a 5a be 2f 19 82 3e 85 84 16 3e
       0.1404864 -0.2133597 0.2540984 0.1469899
0002d0 0c 88 1a be 64 61 85 bd 4b e2 fb 3d b9 ef fb 3d
       -0.1509096 -0.065127164 0.12299021 0.12301583
0002e0 88 08 49 3e 9e 2e 4e be 18 07 cc bd 96 a2 1d 3e
       0.1963216 -0.2013497 -0.099622905 0.15394053
0002f0 f7 2a d0 bd 66 ef 0b be 56 ed 18 be 29 4e d8 bd
       -0.10164445 -0.13665542 -0.14934286 -0.10561783
000300 b4 52 3a 3e 38 7c ed bc 36 e0 b8 3c 37 17 a0 3b
       0.18195611 -0.028989896 0.02256785 0.00488558
000310 9b ef 36 be 12 41 8b bd 80 00 9c bd 21 fc c0 3c
       -0.1786484 -0.067995206 -0.07617283 0.023557724
000320 d6 df 0f be b3 56 69 be 5b f6 af bb 5a fb 14 be
       -0.1405023 -0.2278698 -0.005369944 -0.14549008
000330 38 51 b5 3c ef 95 bb 3d 63 b4 82 3d 4e 46 2b be
       0.022133455 0.09159457 0.06382062 -0.16726038
000340 8b fa 3a 3e f9 de 2e 3e 63 65 d1 3d 9b 19 26 bc
       0.18259637 0.17077245 0.10224416 -0.010137941
000350 79 27 44 bc 25 79 a9 3c f7 0f 93 bd 70 8a 41 bb
       -0.011972302 0.020687649 -0.071807794 -0.0029531978
000360 29 22 d4 3c 8e 36 80 3e 6f 13 e5 3d 8a 87 e5 3d
       0.025895195 0.25041622 0.11185347 0.11207493
000370 f2 5e f1 bc 2e e8 74 be f2 ff 88 be 88 a5 5c be
       -0.029464219 -0.23916695 -0.2675777 -0.2154752
000380 c6 f1 3d 3e 04 01 ba bd c3 42 a4 bd 38 ba 26 3d
       0.1854926 -0.09082225 -0.08020546 0.040704936
000390 32 7e 36 3c f3 4c 51 3e 14 5f 04 be f4 f0 c7 3c
       0.011138486 0.2043951 -0.12926894 0.024406888
0003a0 43 05 20 be 65 25 7f bd 91 73 34 be 4b 75 0e 3e
       -0.15627007 -0.06229152 -0.1762221 0.13911931
0003b0 67 a9 a2 3d 5a 34 0c 3d 0b a3 67 3b a5 68 8c be
       0.07942467 0.034229614 0.0035344984 -0.27423587
0003c0 b6 35 9b 3e d2 4d f0 3d 84 27 70 3e df 7c 85 be
       0.30314416 0.11733593 0.23452574 -0.26071832
0003d0 8f 47 3b be 05 43 ee bd 3d 6f 81 be 2f fd a8 3d
       -0.18289016 -0.11633877 -0.2528018 0.08251416
0003e0 8b a8 90 bd 97 e2 33 be 14 e9 0c 3e 24 ef 3f 3c
       -0.07063397 -0.17566906 0.13760787 0.01171473
0003f0 0d da 8a 3e 6b 24 5e 3e 8b 6d 8a 3e 5d 1c 04 bd
       0.27119485 0.2169358 0.270367 -0.03225361

transformer_encoder.layers.1.self_attn.in_proj_bias f4 [60]
000000 5e f3 54 3c b1 71 11 3c bc 02 f5 3c 48 3f 8f bc
       0.012997476 0.008877204 0.02990853 -0.01748623
000010 e9 2f 97 bc 4f 5a 5d 3d ae 16 07 bb 34 a8 9d 3c
       -0.018455463 0.054041203 -0.0020612883 0.019245245
000020 e3 d1 10 3d e5 ed 99 ba 9a f4 34 bc 5e 95 13 bd
       0.035356414 -0.0011743872 -0.011044646 -0.03603112
000030 4e 4a b5 3b 57 a3 1b bb 44 43 fb 3a af 54 0c bb
       0.0055325394 -0.0023748481 0.0019169827 -0.002141278
000040 27 8b 1f bc 26 f5 8d bd b1 dc 81 bb 24 4a 46 3d
       -0.009737766 -0.06931524 -0.003963076 0.04841055
000050 50 b3 7f b0 c8 8b d1 b0 83 e1 96 30 a8 76 b8 b0
       -9.302328e-10 -1.524648e-09 1.0978031e-09 -1.3421486e-09
000060 ed ee d2 b0 17 6c 66 31 7c 0d 48 30 93 63 f0 31
       -1.5347418e-09 3.3530847e-09 7.277874e-10 6.9962396e-09
000070 f1 36 38 ae 45 29 86 2f d9 f9 f1 b0 08 06 68 b1
       -4.1885554e-11 2.4403782e-10 -1.7606069e-09 -3.3763872e-09
000080 60 c6 2e 30 ee df 0d b0 ea 65 85 b1 14 b2 2d b1
       6.358274e-10 -5.1613724e-10 -3.8823957e-09 -2.527604e-09
000090 ce 5b 19 31 1c 30 61 b1 95 4f 4b b0 73 50 ee b0
       2.2316615e-09 -3.2769156e-09 -7.396406e-10 -1.7339644e-09
0000a0 4b 7a 2c 37 66 4f 53 bd 9f 57 c6 3c f5 b2 36 bc
       1.0280472e-05 -0.051589392 0.024211703 -0.011151065
0000b0 ff 72 8b 3d 26 73 32 bc b7 0b 0a 3c cf 88 de 3c
       0.06809043 -0.010891711 0.008425645 0.027164845
0000c0 a1 bb 5c 3d 29 08 31 bc b4 2f 77 3c 7e 35 0e 3c
       0.053889874 -0.010805168 0.015087057 0.008679746
0000d0 7f 13 9f bc 39 2f b5 bc 3f b7 6f bd 8c 5c a0 bc
       -0.019418476 -0.022117244 -0.058524366 -0.01957538
0000e0 3c ba 24 3d b5 c8 0e 3c db 43 05 bd 71 1f 51 3c
       0.04021667 0.0087148445 -0.032535415 0.012763844
