model_epoch_91.pt (torch, 431970 bytes, 28 tensors)

pos_encoder.pe f4 [5000, 1, 20]
000000 00 00 00 00 00 00 80 3f 00 00 00 00 00 00 80 3f
       0.0 1.0 0.0 1.0
000010 00 00 00 00 00 00 80 3f 00 00 00 00 00 00 80 3f
       0.0 1.0 0.0 1.0
000020 00 00 00 00 00 00 80 3f 00 00 00 00 00 00 80 3f
       0.0 1.0 0.0 1.0
000030 00 00 00 00 00 00 80 3f 00 00 00 00 00 00 80 3f
       0.0 1.0 0.0 1.0
000040 00 00 00 00 00 00 80 3f 00 00 00 00 00 00 80 3f
       0.0 1.0 0.0 1.0
000050 a5 6a 57 3f 41 51 0a 3f 3d 7d c6 3e da fa 6b 3f
       0.841471 0.54030234 0.38767424 0.92179644
000060 4e 9d 21 3e a0 ca 7c 3f 65 22 81 3d 97 7d 7f 3f
       0.15782663 0.9874668 0.06305388 0.9980101
000070 8a c0 cd 3c 53 eb 7f 3f 57 d6 23 3c b9 fc 7f 3f
       0.025116224 0.9996845 0.009999833 0.99995
000080 90 73 82 3b 7b ff 7f 3f 28 bc cf 3a eb ff 7f 3f
       0.0039810613 0.9999921 0.0015848922 0.99999875
000090 d4 66 25 3a fd ff 7f 3f f5 b1 83 39 ff ff 7f 3f
       0.0006309573 0.9999998 0.00025118855 0.99999994
0000a0 b7 c7 68 3f 33 11 d5 be 76 f7 36 3f 04 0d 33 3f
       0.9092974 -0.41614684 0.71471345 0.69941735
0000b0 c5 96 9f 3e 18 3f 73 3f 9d e0 00 3e e3 f6 7d 3f
       0.31169716 0.9501815 0.12585683 0.99204844
0000c0 ec af 4d 3d 51 ad 7f 3f 3e d4 a3 3c e5 f2 7f 3f
       0.0502166 0.99873835 0.019998666 0.9998
0000d0 4d 73 02 3c ec fd 7f 3f 17 bc 4f 3b ac ff 7f 3f
       0.00796206 0.9999683 0.0031697804 0.999995
0000e0 d2 66 a5 3a f3 ff 7f 3f f5 b1 03 3a fe ff 7f 3f
       0.0012619144 0.9999992 0.0005023771 0.9999999
0000f0 c3 81 10 3e 26 70 7d bf 48 12 6e 3f e5 3b bc 3e
       0.14112 -0.9899925 0.92996645 0.36764446
000100 ce 5e ea 3e a8 9a 63 3f b9 ac 40 3e 6f 6d 7b 3f
       0.45775455 0.8890786 0.18815888 0.9821386
000110 2d 2f 9a 3d 03 46 7f 3f 1f b9 f5 3c 83 e2 7f 3f
       0.07528529 0.99716204 0.0299955 0.99955004
000120 49 ac 43 3c 53 fb 7f 3f fc cc 9b 3b 42 ff 7f 3f
       0.011942931 0.99992865 0.0047546607 0.9999887
000130 36 1a f8 3a e2 ff 7f 3f ef 8a 45 3a fb ff 7f 3f
       0.001892871 0.9999982 0.00075356563 0.9999997
000140 cf bd 41 bf 30 55 27 bf ab f0 7f 3f ce 32 b1 bc
       -0.7568025 -0.6536436 0.99976605 -0.02163067
000150 72 a3 17 3f b0 41 4e 3f 8a b4 7f 3e d4 e3 77 3f
       0.5923377 0.8056898 0.24971214 0.96832013
000160 7d 6d cd 3d 7a b5 7e 3f db cb 23 3d 94 cb 7f 3f
       0.10030649 0.9949566 0.039989334 0.9992001
000170 3e 72 82 3c b1 f7 7f 3f d3 bb cf 3b af fe 7f 3f
       0.015923616 0.9998732 0.006339529 0.9999799
000180 c9 66 25 3b cb ff 7f 3f f4 b1 83 3a f8 ff 7f 3f
       0.0025238267 0.99999684 0.0010047541 0.9999995
000190 10 7c 75 bf 2c 3c 91 3e 28 c7 69 3f ce a6 d0 be
       -0.9589243 0.2836622 0.91319513 -0.40752262
0001a0 6e 4a 36 3f 2c bd 33 3f eb db 9e 3e aa 5d 73 3f
       0.7120732 0.7021053 0.3102716 0.95064795
0001b0 4f 45 00 3e cd fb 7d 3f f4 b6 4c 3d 19 ae 7f 3f
       0.12526439 0.9921234 0.049979165 0.99875027
0001c0 cf 0d a3 3c 04 f3 7f 3f 44 d5 01 3c f1 fd 7f 3f
       0.019904045 0.9998019 0.007924382 0.9999686
0001d0 74 c0 4e 3b ad ff 7f 3f 6f 9e a4 3a f3 ff 7f 3f
       0.0031547816 0.99999505 0.0012559424 0.9999992
0001e0 8c 0f 8f be b8 cd 75 3f 20 0d 2f 3f fd cb 3a bf
       -0.2794155 0.96017027 0.683794 -0.7296751
0001f0 a7 5f 50 3f 47 b7 14 3f b7 3b bd 3e 8f df 6d 3f
       0.81395954 0.5809216 0.3695962 0.9291925
000200 29 bf 19 3e 1a 19 7d 3f d1 9c 75 3d 12 8a 7f 3f
       0.15014328 0.98866427 0.059964005 0.99820054
000210 b7 a8 c3 3c 4e ed 7f 3f 88 cc 1b 3c 09 fd 7f 3f
       0.02388416 0.99971473 0.009509213 0.99995476
000220 19 1a 78 3b 88 ff 7f 3f eb 8a c5 3a ed ff 7f 3f
       0.0037857352 0.99999285 0.0015071308 0.99999887
000230 46 30 28 3f bd ff 40 3f fd e3 b1 3e 31 0d 70 bf
       0.6569866 0.75390226 0.34744254 -0.9377013
000240 c0 3b 65 3f 26 ee e3 3e b9 da da 3e 1a 6f 67 3f
       0.89544296 0.4451763 0.42744997 0.904039
000250 2d 20 33 3e 86 0d 7c 3f 32 3e 8f 3d 81 5f 7f 3f
       0.17492743 0.98458135 0.06994285 0.997551
000260 d4 42 e4 3c 8e e6 7f 3f b4 c3 35 3c f8 fb 7f 3f
       0.027863897 0.99961174 0.011094023 0.9999385
000270 db b9 90 3b 5c ff 7f 3f 65 77 e6 3a e6 ff 7f 3f
       0.004416687 0.9999902 0.001758319 0.99999845
000280 95 46 7d 3f f6 fd 14 be 31 28 31 bd ac c2 7f bf
       0.98935825 -0.14550003 -0.04325122 -0.9990642
000290 dc 58 74 3f 1d b7 98 3e c2 9a f7 3e db 12 60 3f
       0.9544809 0.29827204 0.48360258 0.8752877
0002a0 42 64 4c 3e 3c d9 7a 3f 50 aa a3 3d 66 2e 7f 3f
       0.1996012 0.97987723 0.07991469 0.99680173
0002b0 02 6e 02 3d c4 de 7f 3f c1 ba 4f 3c bb fa 7f 3f
       0.031843193 0.9994929 0.012678803 0.9999196
0002c0 a7 66 a5 3b 2a ff 7f 3f ef b1 03 3b de ff 7f 3f
       0.0050476375 0.99998724 0.002009507 0.999998
0002d0 32 01 d3 3e d5 3f 69 bf 5c b7 da be 75 77 67 bf
       0.4121185 -0.91113025 -0.42718017 -0.9041665
0002e0 00 56 7d 3f 39 58 13 3e 43 af 09 3f 52 d2 57 3f
       0.9895935 0.14389123 0.53783053 0.843053
0002f0 54 87 65 3e 6e 7c 79 3f 3e 12 b8 3d c2 f6 7e 3f
       0.22414905 0.9745549 0.089878544 0.9959527
000300 12 ba 12 3d f0 d5 7f 3f ad b1 69 3c 55 f9 7f 3f
       0.03582198 0.9993582 0.014263553 0.99989825
000310 6e 13 ba 3b f1 fe 7f 3f 2c 28 14 3b d5 ff 7f 3f
       0.0056785857 0.99998385 0.0022606952 0.99999744
000320 f8 44 0b bf 64 cd 56 bf 23 8a 3e bf 43 f8 2a bf
       -0.5440211 -0.8390715 -0.7442953 -0.6678507
000330 7d f9 7f 3f ba f4 66 bc e0 04 17 3f e6 b5 4e 3f
       0.99990064 -0.014096433 0.58991814 0.80746305
000340 53 85 7e 3e 54 f7 77 3f 76 75 cc 3d 98 b8 7e 3f
       0.24855547 0.9686177 0.099833414 0.9950042
000350 8a 05 23 3d 13 cc 7f 3f 39 d4 81 3c c5 f7 7f 3f
       0.039800204 0.9992077 0.015848266 0.9998744
000360 30 c0 ce 3b b2 fe 7f 3f 67 9e 24 3b cb ff 7f 3f
       0.0063095316 0.9999801 0.002511883 0.99999684
000370 5c ff 7f bf 72 05 91 3b 58 eb 71 bf c9 76 a7 be
       -0.9999902 0.004425698 -0.9449973 -0.32707813
000380 65 32 7c 3f 27 da 2f be 9f c0 23 3f e2 c6 44 3f
       0.98514396 -0.17173062 0.6396579 0.7686597
000390 1c ad 8b 3e 2d 4a 76 3f 72 d3 e0 3d e8 73 7e 3f
       0.2728051 0.96206933 0.1097783 0.9939561
0003a0 59 50 33 3d 2c c1 7f 3f 86 cf 8e 3c 0a f6 7f 3f
       0.043777797 0.9990413 0.01743294 0.999848
0003b0 ed 6c e3 3b 6c fe 7f 3f a2 14 35 3b c0 ff 7f 3f
       0.006940475 0.9999759 0.0027630706 0.9999962
0003c0 d8 5c 09 bf d0 06 58 3f 0b 76 7f bf e1 d0 84 3d
       -0.53657293 0.84385395 -0.99789494 0.06485153
0003d0 f5 18 72 3f 4d 6e a6 be 89 d5 2f 3f 63 0f 3a 3f
       0.9456933 -0.32506028 0.68685204 0.7267973
0003e0 fe 00 98 3e 3e 75 74 3f ac 2b f5 3d b5 28 7e 3f
       0.29688257 0.954914 0.119712204 0.99280864
0003f0 6d 9a 43 3d 3b b5 7f 3f ba ca 9b 3c 26 f4 7f 3f
       0.047754694 0.9988591 0.019017566 0.99981916

transformer_encoder.layers.0.self_attn.in_proj_weight f4 [60, 20]
000000 f7 b1 19 be b3 bf 73 be 80 56 5c 3e 52 39 7b 3d
       -0.15009294 -0.23803596 0.21517372 0.06133396
000010 6b d8 3d 3e 89 a7 a2 3d 41 7f 39 be 79 66 fe 3d
       0.18539588 0.07942111 -0.1811495 0.12421889
000020 79 de 34 3c 37 e0 37 3d cb b6 4f be ca 2e 73 3e
       0.01103937 0.044891562 -0.20284574 0.23748317
000030 73 b1 8a be 0b 99 3a 3e d5 82 86 3e e8 68 86 3e
       -0.27088508 0.18222444 0.26271692 0.26251912
000040 75 f6 9a 3d 80 fa de bd 5e 16 32 bc df d3 40 bc
       0.07566539 -0.10887623 -0.010869591 -0.011769264
000050 aa b5 78 3e b0 e7 80 bd 17 f1 85 be ac e0 ce 3d
       0.2428805 -0.06294191 -0.261605 0.101014465
000060 88 1a 72 3d e3 55 dc 3d 0d 51 26 3e 06 89 af bd
       0.059107333 0.10758569 0.16241856 -0.08571057
000070 da df 6d 3e 48 d0 2f bd 08 be 63 3a 41 c9 c0 bd
       0.23229924 -0.04292324 0.00086876797 -0.09413386
000080 f3 23 cf 3d 41 e6 d2 bd eb 89 6a 3e b2 33 23 3e
       0.10114279 -0.10297824 0.22904174 0.15937689
000090 a7 d4 86 3e 7d 61 a9 3c 28 e5 15 3d 08 d8 fa bd
       0.26334116 0.020676369 0.036595494 -0.12248236
0000a0 4c 60 15 3e ba 04 13 be 47 7b 74 3c 10 7c 8a bd
       0.14587516 -0.14357272 0.01492197 -0.06761944
0000b0 45 c1 77 3e 48 55 51 be 0b 42 33 3e 48 92 6a be
       0.2419482 -0.20442688 0.17505662 -0.22907364
0000c0 a0 57 9e bb 97 7b aa bd e5 6d 74 bd 94 69 3d bd
       -0.004832223 -0.08324354 -0.059675116 -0.046243265
0000d0 38 a9 43 3d d9 58 1d be 01 54 da 3d 6f 06 36 be
       0.0477688 -0.15365924 0.10660554 -0.17775892
0000e0 43 6c 82 bd b6 9b 90 be 76 5c b4 bd f9 a4 e7 bc
       -0.063683055 -0.28243798 -0.08806698 -0.028276907
0000f0 6c 3d d3 3d 72 ff 6c bc 96 fb 10 be cc 3b b2 3d
       0.1031445 -0.0144652 -0.14158472 0.087028116
000100 e5 7d 5b 3e 1f 77 1f 3e 75 99 e3 bd 2d 9b d7 3d
       0.21434744 0.15572785 -0.11113254 0.10527644
000110 37 3d f9 3c f0 3f 38 bc 63 65 7c 3d 84 e6 fe 3d
       0.030424697 -0.011245713 0.061620127 0.12446311
000120 06 e7 76 be c0 81 05 be 75 23 ef 3c 87 11 42 3e
       -0.24111566 -0.13037777 0.029191712 0.18951999
000130 60 ae 3b be 37 45 ff bd b8 b2 86 bc e1 0f 04 3e
       -0.18328238 -0.124643736 -0.016442642 0.12896682
000140 7e 50 74 be 52 88 e1 3d e7 6f 36 be f0 67 81 3e
       -0.2385883 0.11012329 -0.17816125 0.2527461
000150 1b e7 92 bd af 94 96 bd 34 39 54 bc 05 62 a3 bc
       -0.07172986 -0.07352578 -0.012953091 -0.0199442
000160 4f 4b 6f 3e 92 aa 06 3e 6e ed 68 be e5 54 0c 3e
       0.23368572 0.13151005 -0.22746822 0.1370426
000170 cf b8 27 3e 9e 38 de bd b0 c5 4c be e9 bc b6 bd
       0.16379093 -0.108506426 -0.19997287 -0.089227505
000180 0a 43 62 bd 08 fb 1b 3d 97 77 a5 3c 6a 5d 81 3e
       -0.055239715 0.0380812 0.020198626 0.25266582
000190 23 6c 8f bd be 6a 4f bd d5 85 52 3e 19 1e 64 be
       -0.07003047 -0.050638907 0.20558865 -0.22277106
0001a0 f7 e5 13 3d ad 26 0f 3d b9 3e 84 3d 56 86 39 3e
       0.036107983 0.034948993 0.06457276 0.18117651
0001b0 85 0b 49 be a0 ab f1 bd ec 3d 81 3d bf 85 59 3e
       -0.196333 -0.11800313 0.06310639 0.21242426
0001c0 89 2a 28 bd e4 91 a4 bd d9 29 70 be 99 56 32 3e
       -0.04105619 -0.08035639 -0.23453464 0.17415847
0001d0 82 18 1a be 37 4e 26 be bd 97 e7 bd ab f9 8d bc
       -0.15048411 -0.16240774 -0.11308239 -0.017330965
0001e0 0b 96 d5 bd 5d 20 c7 3d 6c c5 78 3e ea ab a4 3c
       -0.10429009 0.0972297 0.2429406 0.020101506
0001f0 7f 3e 3e be a3 c5 10 be 76 85 07 bd 7e 38 0b be
       -0.18578528 -0.14137892 -0.033086263 -0.13595769
000200 18 26 6c bd 91 9c 0a 3e b1 4e ad bd 38 af f6 3d
       -0.057653517 0.13536288 -0.08462275 0.12045139
000210 d4 fb 0a bd e7 54 17 3e 24 4a 00 be ff 63 78 3e
       -0.03393157 0.14778481 -0.12528282 0.24256895
000220 bb 4b 61 3e 01 b7 08 be dd 5f 57 3b 73 55 e1 bd
       0.22001545 -0.1335106 0.0032863535 -0.11002626
000230 19 05 67 3e a1 c6 13 bf 59 ca 59 3d 8d a7 90 3c
       0.22560538 -0.5772496 0.05317149 0.01765802
000240 f7 46 94 3e 0d c1 f1 bc 5c 68 43 be 23 1c 63 bd
       0.28960392 -0.029511 -0.19082779 -0.055446755
000250 e0 2c e4 bd b8 dd 81 bd 1d 30 67 3d 05 fa 36 be
       -0.11141372 -0.063411176 0.05644237 -0.17868812
000260 e5 65 2a 3e 1e 62 d3 bc b9 32 5a be 1d 12 0f be
       0.16640432 -0.025803622 -0.21308412 -0.13971753
000270 5d 26 dc 3d ed 3a c9 3b 91 db 04 bd 3b 5f d8 bd
       0.10749505 0.0061410577 -0.032435957 -0.10565039
000280 76 f1 f2 3d 79 68 eb 3d 40 02 e6 bb ea 60 4e 3e
       0.11862461 0.11494536 -0.007019311 0.20154157
000290 1a 57 e9 3d 07 5a ae bd b9 60 8d be d6 6c 46 3e
       0.113935664 -0.08513265 -0.27612856 0.19377455
0002a0 30 be 97 ba a9 44 03 3e 38 89 02 bd 3f a7 85 3d
       -0.0011577066 0.1281916 -0.031869143 0.0652604
0002b0 cc bf 64 3e b0 4e 98 bd b9 c1 15 3e ad 3d 43 3e
       0.2233879 -0.074368834 0.1462468 0.19066496
0002c0 47 21 1c 3e 1a b3 6b be 96 9c 80 3e 90 c9 1b 3e
       0.1524707 -0.2301754 0.25119466 0.15213609
0002d0 d9 2a 9b bd 59 15 48 be 12 b5 7d 3d cf a5 d3 3d
       -0.07576532 -0.19539393 0.06194026 0.1033436
0002e0 cb dd 3b 3e 95 b5 24 be 77 e4 ae bd ff 58 0b 3e
       0.18346326 -0.16084893 -0.0853967 0.13608168
0002f0 35 f7 29 be bf c2 d9 bd 1e fb 51 be bb 65 fd bd
       -0.16598208 -0.10632848 -0.2050595 -0.12372919
000300 27 0b 27 3e 1b 03 8f bd 3e 39 b2 bc 2c 46 5a bc
       0.16312848 -0.06983014 -0.02175581 -0.013322394
000310 0b 22 56 be 4f 2e 37 bd af bd 86 bd ca f7 35 3c
       -0.20911424 -0.044721898 -0.06579148 0.011106441
000320 42 9d 2d be 32 47 85 be 27 83 3e 3d 17 cd 49 be
       -0.1695452 -0.2603088 0.046511795 -0.19707142
000330 41 9a 01 bc 92 b1 12 3e ab 62 ab 3c 8b ea 4a be
       -0.007910312 0.1432555 0.020921072 -0.19816034
000340 76 8c 5c 3e ed c4 14 3e 2f 20 fc 3d e8 38 11 3d
       0.21537957 0.14528246 0.12310826 0.03545466
000350 a7 11 09 bd b3 9a 70 3c 43 ee 46 bd 37 8f bc 3c
       -0.0334641 0.014685321 -0.048567068 0.023017509
000360 bf a9 6a 3d 7c 7b 6d 3e 5c 44 f1 3d 51 32 07 3e
       0.05729079 0.23191637 0.11780617 0.13202788
000370 27 b4 ac 3c 98 8f 97 be 24 9c 49 be 11 4c 6c be
       0.021081997 -0.2960174 -0.19688469 -0.23075892
000380 fd 5d 41 3e 03 3e ca bd 78 6b 1b be 7d b7 46 3d
       0.1888351 -0.09875109 -0.15177715 0.04851483
000390 4d 9e dc 3c fd da 1b 3e 5e aa ce bd 9d b0 49 3d
       0.026930952 0.15220256 -0.10091089 0.049240697
0003a0 3a fd 4c be 42 5d 94 bd 12 65 34 be 8e 0c 00 3e
       -0.20018473 -0.0724435 -0.1761668 0.12504789
0003b0 b8 17 d4 3d 42 b4 b5 bc b9 ab 90 3c 5c 20 8b be
       0.103560865 -0.02218068 0.017660009 -0.27173126
0003c0 79 d5 9a 3e cd 14 05 3e 65 45 62 3e f8 7c 6c be
       0.30240992 0.12996216 0.22096784 -0.23094547
0003d0 7b 73 42 be 3f dd 14 be 8c d9 6f be 0d 1d bb 3d
       -0.18989365 -0.14537524 -0.23422831 0.091364
0003e0 16 c4 a7 bd 81 c0 29 be 45 25 f6 3d ff 75 47 bc
       -0.08191697 -0.1657734 0.12018827 -0.012174129
0003f0 97 17 8c 3e 51 10 51 3e fa be 86 3e cb 2e 50 bd
       0.27361748 0.2041638 0.2631758 -0.050825875

transformer_encoder.layers.0.self_attn.in_proj_bias f4 [60]
000000 e9 6b 8d bc cd 04 56 3b af 5b 94 bb 66 c4 88 3a
       -0.01726337 0.003265667 -0.004527531 0.0010434508
000010 b5 92 1c bc 31 6f 90 3c f6 9d 23 3d b1 45 2f 3d
       -0.009556462 0.017631145 0.039945565 0.042791072
000020 6f 8f 03 3d 00 35 1a bc f2 51 b2 3c ae 4b 5e bc
       0.03211921 -0.00941205 0.02176759 -0.013567848
000030 84 86 9e bc 15 f9 ca bc bc 88 95 3c 19 d1 26 3c
       -0.019351251 -0.024776975 0.018253677 0.010181689
000040 34 f1 2f bc b7 7e 2f bd 2b a5 b7 3b 3e d8 4e 3d
       -0.01073866 -0.042845454 0.0056044064 0.050499193
000050 b9 6d 3e b1 7f 4f 72 30 44 23 42 ad 6f 0e 1f b1
       -2.771101e-09 8.815206e-10 -1.1035454e-11 -2.314575e-09
000060 bb e4 06 31 7d 24 8c 32 82 7b c5 31 73 ea 7f 31
       1.9629585e-09 1.6314738e-08 5.747496e-09 3.7240653e-09
000070 67 fe 07 32 a8 08 9d 31 1f 7c 19 2f 4b 70 cf 2f
       7.915879e-09 4.5702855e-09 1.3959366e-10 3.773287e-10
000080 cf 38 7c 2f 24 c1 6c b0 66 1c 83 b1 4e 46 67 31
       2.2939449e-10 -8.613077e-10 -3.8158303e-09 3.3654888e-09
000090 61 e5 c2 b1 c8 64 7e 31 5d 76 4f 31 fd 67 24 31
       -5.6722205e-09 3.7019152e-09 3.0189746e-09 2.3924251e-09
0000a0 68 9d 43 bd 01 6c 51 3d 24 77 cc bc e1 50 83 bc
       -0.047757536 0.05112839 -0.024959154 -0.016029777
0000b0 1a e5 6b 3d 64 61 af 3d ae 58 ea 3b 87 94 83 3d
       0.057591535 0.08563498 0.0071516847 0.06424814
0000c0 ea 7b 63 3d d4 3e 13 3c 88 23 93 bc 04 ee 59 3c
       0.055538096 0.008987147 -0.017961279 0.013301376
0000d0 d3 bb 88 bd f8 4a 93 3d 69 d2 91 3c ea 08 91 3d
       -0.066764496 0.071920335 0.017800527 0.07081778
0000e0 e9 19 30 3d 6b f3 2d 3d 56 47 34 3c 23 2e 74 bc
       0.04299346 0.04246847 0.011003336 -0.014903578

transformer_encoder.layers.0.self_attn.out_proj.weight f4 [20, 20]
000000 a2 95 07 3e b6 f1 e7 bd 72 ac b5 bd 75 5b 1c 3e
       0.13240674 -0.113253996 -0.08870782 0.15269263
000010 3b 89 88 3e c7 ad 71 3d 5b 5b db 3e a7 2c f6 3d
       0.266672 0.059003618 0.42843136 0.120202355
000020 35 38 83 bd 24 6f 94 3d ad 4d 3f be 3f 3e 5a 3d
       -0.06407205 0.07247761 -0.18681975 0.05328202
000030 f3 a0 42 bc 3d 1f 9d bc 1d 8f a7 3d 7a 7e bd be
       -0.011879194 -0.019179935 0.081815936 -0.37010556
000040 31 d1 01 3e 98 0f b7 3d 92 0e bc 3e 2c de c1 3d
       0.12677456 0.08938521 0.36729866 0.09466204
000050 65 b5 17 3e 56 1e ab bd d0 aa 90 3d cd 84 65 bd
       0.1481529 -0.083553955 0.0706383 -0.05603485
000060 8e 45 c0 3d 69 34 6b bd 24 42 8c be b1 71 30 be
       0.093882665 -0.05742303 -0.2739421 -0.1723087
000070 55 3a 1c be 2c d9 95 bd fa fe 28 bd f3 96 8b 3d
       -0.15256627 -0.07316813 -0.04125879 0.06815901
000080 d8 35 02 3e 6f 1f 4c be c3 9c cf bd d9 80 8d 3d
       0.12715852 -0.19933866 -0.10137322 0.06909341
000090 b3 d8 9b bd 6b 58 5d 3d 4d bc 30 3d 9c 0e c2 bd
       -0.076096915 0.0540394 0.043148328 -0.09475443
0000a0 6f 7d 1f be 79 a6 11 bd 14 c3 c0 bd d6 58 16 be
       -0.15575193 -0.03555915 -0.09412208 -0.14682326
0000b0 3d 12 31 3e cd 51 1f be ef 20 41 be 49 92 a0 3c
       0.17292114 -0.15558548 -0.1886022 0.019601004
0000c0 25 f6 5d be 3b 65 18 bd ed 11 0a be b3 9c 1c be
       -0.21675928 -0.037205916 -0.134834 -0.15294151
0000d0 76 b8 87 3c 5e 07 a3 3d d5 94 f1 3c c0 a9 3a be
       0.01656745 0.079603896 0.029489914 -0.18228817
0000e0 e0 37 17 3e 6e bd dd bd aa 1f ce 3d 99 56 65 be
       0.14767408 -0.108271465 0.10064633 -0.22396316
0000f0 b3 be 5f 3d 1d 7d 31 bd c1 84 84 3c ac 26 fe 3b
       0.054625224 -0.043332208 0.016176583 0.007756075
000100 f6 e7 4c 3e ae d9 86 be 08 1b e8 3d b2 b1 a4 bc
       0.20010361 -0.2633795 0.11333281 -0.020104263
000110 25 2f 02 3e d5 db 96 3d bf a8 86 3b cf 9f e8 bd
       0.12713297 0.073661484 0.0041094716 -0.11358606
000120 be dc f9 3d 58 19 82 3d 85 58 a3 3e 44 51 18 be
       0.12200306 0.0635249 0.31903473 -0.1487475
000130 e3 ad cc bd a3 a2 b3 3d f9 bd 07 ba 5b 80 8d 3e
       -0.09994104 0.08771255 -0.00051781494 0.2763699
000140 7f f4 37 bd 20 b2 d5 3d 1a 84 60 be 4b b7 44 be
       -0.044910904 0.10434365 -0.21925393 -0.19210546
000150 29 44 f9 bc dc 68 9b 3a fa 7e 49 3e 88 02 20 bd
       -0.03042801 0.0011856812 0.19677344 -0.039064914
000160 52 96 34 3e cc 9e 4b 3d c6 cf 93 bc c2 43 55 3d
       0.17635468 0.049711987 -0.01804341 0.052066572
000170 db 56 54 be 8a ad 5c 3e 4a 34 ba bd ba d3 1f be
       -0.20736258 0.21550575 -0.090920046 -0.15608111
000180 04 bb 7c 3d a7 b5 4b 3d 3e 49 d8 3d 1e bf 04 be
       0.06170179 0.049733784 0.10560845 -0.1296353
000190 c8 c7 85 3e b4 86 a7 3d 8f e2 52 be 63 27 87 bc
       0.26128983 0.081799895 -0.20594238 -0.016498273
0001a0 2f fe a7 bd a8 cc ab bd 86 5f b9 be 35 14 30 be
       -0.082027785 -0.083886445 -0.3620569 -0.17195208
0001b0 f6 6c e5 bc e8 41 67 3e 49 27 60 be b8 d0 31 bc
       -0.028006058 0.22583735 -0.21889986 -0.010852985
0001c0 af e3 af 3b 9e 4f 82 3c 6d 5c 4c 3d 39 e2 2f 3e
       0.005367718 0.015907105 0.04989283 0.17176141
0001d0 e9 56 31 bd 3d c5 37 bd 83 d9 2d 3e ca c0 23 be
       -0.043295775 -0.044865835 0.16977505 -0.15991512
0001e0 2a 58 7e 3d 96 90 d0 bd e9 80 fa bd 0c 76 b8 3d
       0.0620958 -0.101838276 -0.12231619 0.09006891
0001f0 b4 24 56 3e 9e 01 58 be 81 d4 32 3e f4 96 5a 3d
       0.20912439 -0.21094367 0.17463876 0.053366616
000200 3b 5f 62 3e f4 04 18 3e ac 69 9f 3d 4e c3 2a 3d
       0.2210664 0.1484564 0.07783827 0.041690163
000210 fb 3b 4f 3e 11 88 07 be be f8 28 be ed 8a 40 3e
       0.20237724 -0.13235499 -0.16501138 0.18802996
000220 98 23 a1 3c b5 95 8a 3d 4e fb 19 be 5b 55 ce bd
       0.019670293 0.067668356 -0.15037271 -0.10074874
000230 34 c2 a7 3d dc ff 06 be 03 5e 12 3e 94 ea 93 bd
       0.08191338 -0.1318354 0.14293675 -0.072224766
000240 a9 eb ea 3d 97 e2 77 bd 20 70 aa bd ad 8b e5 3d
       0.1147073 -0.060518827 -0.083221674 0.11208282
000250 b0 b6 fe 3d 5b 07 dd bd dd 05 2d be 36 42 3b be
       0.124371886 -0.107924186 -0.16896768 -0.18286976
000260 ab a3 07 3e 4c a3 6a bd 49 cd 9b bd 26 41 8e bd
       0.13246028 -0.05728464 -0.076075144 -0.0694602
000270 4b 9d a9 3d fe b2 17 3e 0b 5b 27 bd 6c e1 9b bd
       0.082819544 0.14814374 -0.04085831 -0.07611355
000280 1e 25 c8 3c 8c 2a 49 3e 56 c0 45 3e 6f ce 5e 3c
       0.024431761 0.19645137 0.19311652 0.013599022
000290 45 34 c0 bd c0 96 5e 3d f4 55 5e bd 9c 98 62 3e
       -0.093849696 0.054342985 -0.05428119 0.22128528
0002a0 bf 26 54 3b 0f fb 0c bd 1e 2e 34 be 04 78 dd bd
       0.0032371727 -0.034419116 -0.17595717 -0.10813907
0002b0 b5 06 95 bd fb 9a 16 3e 13 12 11 3d 4e 23 4a 3e
       -0.0727667 0.14707558 0.035417628 0.1974003
0002c0 ed 47 b7 bc 32 e0 96 3d dd c4 d9 3d 73 46 8b be
       -0.022373164 0.073669806 0.10633252 -0.27202186
0002d0 d9 d9 20 3e 46 2c 27 be ca 4d 64 3e 8c ed fe bd
       0.15708102 -0.16325483 0.22295299 -0.12447652
0002e0 fe 48 71 3e 96 95 df bd fb 9d 75 3d e6 e9 66 3d
       0.23563 -0.10917203 0.059965115 0.056375407
0002f0 32 54 6d 3e 79 c3 16 be 91 be d6 39 0d 20 8d 3d
       0.23176649 -0.14723004 0.00040959244 0.06890879
000300 0a dd 33 be 24 08 d2 bd 9c 5d d4 bc 52 02 37 3e
       -0.17564788 -0.10255459 -0.025923543 0.17871979
000310 53 91 19 be 5c 33 05 3e d9 dc 4c be 3b 6a 20 be
       -0.14996843 0.13007873 -0.20006122 -0.15665524
000320 38 d2 72 3e 54 48 36 be 1d 48 e2 3d 41 7e 4d bd
       0.23713005 -0.17801028 0.11048911 -0.050169233
000330 d6 e3 d9 3d 31 22 92 bb 42 76 34 3e 83 0c 0f 3d
       0.106391594 -0.0044596423 0.17623237 0.03492404
000340 d1 5c 27 be 2b fa b7 bc 2f 09 82 3a 13 a2 bb bd
       -0.16344 -0.022458157 0.000992095 -0.091617726
000350 4f d9 30 3c a1 e0 2e 3d 33 1c c8 bb 2f 1a 4e 3e
       0.010793998 0.04269469 -0.0061068772 0.20127176
000360 78 16 10 3c be bf 41 3e 7a 41 a6 bc 25 51 b1 3d
       0.0087944195 0.189208 -0.020294894 0.08658055
000370 2d ca 1c 3e 10 c9 b2 3d 6c 7f f7 bb e9 90 41 be
       0.15311499 0.08729756 -0.0075530317 -0.18902935
000380 b5 2b 85 3d 02 3f 79 be d9 5e 88 be 5c 34 68 3d
       0.06502477 -0.24340442 -0.26634863 0.05669056
000390 e3 4b 6e 3e 06 1d b7 bc f3 80 1a bd c3 c5 ad bb
       0.23271136 -0.022352707 -0.03772063 -0.005303116
0003a0 04 4c d1 bd 43 96 9d 3c da 79 16 bd 1c 7c 4e 3e
       -0.10219577 0.01923669 -0.0367373 0.20164531
0003b0 20 2c a3 be be 03 30 be 1b 53 63 3c b3 6b c3 3c
       -0.31869602 -0.17188928 0.013874794 0.023855066
0003c0 cf f0 2b be a5 46 ca bd c2 4a 9e 3e 15 3f 30 be
       -0.1679108 -0.098767556 0.3091641 -0.17211564
0003d0 3e ae d3 bd 88 60 18 3d 90 70 82 3d bb d3 cf 3d
       -0.103359684 0.037201434 0.06369126 0.10147806
0003e0 63 9c 92 be fd 28 26 3e 9e 55 11 3e f1 1a 07 bd
       -0.2863494 0.16226573 0.14192817 -0.032984678
0003f0 14 4d 08 bd 60 c0 59 3e 94 54 f2 bb 93 9c 81 3e
       -0.033276632 0.21264791 -0.0073953364 0.2531477

transformer_encoder.layers.0.self_attn.out_proj.bias f4 [20]
000000 ab ea a8 bc 10 ca 48 3d 62 90 0b 3d cd 8f 1a 3d
       -0.02061971 0.049020827 0.03407324 0.037734795
000010 97 19 b0 3c 1e 70 ca 3c a6 f3 a2 bc b6 da e8 3c
       0.021496577 0.024711665 -0.019891571 0.028424602
000020 17 2b 6f bc b4 40 97 bc 83 04 a1 3b 86 06 32 bd
       -0.014597676 -0.01846347 0.004913868 -0.043463252
000030 f0 cb 17 3d 63 96 b0 bd 0c ed 11 3d 0d e1 b1 bc
       0.037059724 -0.08622434 0.035626456 -0.021713758
000040 26 34 2d bb 36 07 1d bd b1 c0 67 3c d8 1a ae bc
       -0.0026428788 -0.038336955 0.014145062 -0.021253034

transformer_encoder.layers.0.linear1.weight f4 [20, 20]
000000 69 a0 bd bd 96 80 13 3e 89 3a 78 3d 8d b4 47 3e
       -0.092591114 0.1440452 0.0606027 0.19502468
000010 1c 41 ba bd a9 13 b7 bc 8c aa 21 be c0 fc 3b 3e
       -0.0909445 -0.022348242 -0.15787715 0.18358135
000020 78 c8 08 bd ae 9b 5f bb cb 45 f2 bd 27 8f 22 3d
       -0.033394307 -0.0034119892 -0.11829718 0.039687302
000030 ea 2a 8c 3d 3c 44 39 3d 70 68 f6 3c 66 10 b3 3d
       0.06844123 0.04523109 0.030079097 0.08743362
000040 2c 4e 48 3e a3 46 16 be 55 96 6c bd bf f6 e6 bd
       0.1956107 -0.14675383 -0.057760555 -0.11277532
000050 6a c1 81 be a4 9f 3f 3e e1 ec 63 be 46 eb 33 3d
       -0.25342876 0.18713242 -0.22258331 0.043925546
000060 f9 08 7a 3d ee a1 b7 bc 35 80 fb 3c d1 24 35 be
       0.061043713 -0.022416081 0.030700782 -0.17689826
000070 c6 dd 2a 3e a1 77 0c bd 15 7d 11 bd fa a6 c1 3d
       0.16686162 -0.034293775 -0.03551968 0.094556764
000080 09 b6 6d bd 35 c2 12 be 34 5b 1d 3e 0c 2b 48 3e
       -0.05803493 -0.14331897 0.15366822 0.19547671
000090 51 ff 0c 3e 01 b4 61 bd 09 43 f4 bd 96 dd 98 3d
       0.1376927 -0.055103306 -0.119268484 0.07464139
0000a0 9a 6e 2f 3e 58 b6 58 3e 35 f4 6e 3e bf 96 46 3e
       0.17132035 0.21163309 0.23335345 0.19393443
0000b0 2f e1 1b 3b f0 e9 39 3e 8c 0a 60 3e 98 19 62 bd
       0.0023785343 0.18155646 0.21879023 -0.05520019
0000c0 01 5a a9 bd d0 e5 36 3d d0 f6 9c be 71 8c 13 3c
       -0.0826912 0.04465276 -0.30657053 0.009005652
0000d0 b7 f3 f0 3b 36 f7 d1 3d 34 c3 39 be 1d c6 49 bd
       0.007353272 0.1025223 -0.1814087 -0.0492612
0000e0 87 dd b4 bd 65 a3 4e 3e 8c 86 32 3d 4b f3 ba bc
       -0.088313155 0.20179518 0.043585345 -0.02282109
0000f0 b8 02 88 bd f0 a1 1b be c5 1a 60 3d 85 7a 80 3e
       -0.066411436 -0.15198493 0.05471303 0.25093475
000100 96 a3 1a bd 33 0b 84 bc 3d 1c 93 bd 1e b5 11 3e
       -0.037753664 -0.016118621 -0.071831204 0.14229247
000110 97 5e 23 be 39 3e 94 bd 44 0d 0b 3e ea b8 2e be
       -0.15954052 -0.072384305 0.13579279 -0.17062727
000120 90 aa 1a 3e 97 42 35 3d 80 50 76 bd f6 43 df 3d
       0.15104127 0.04425296 -0.060135365 0.109016344
000130 f0 da d3 bd c9 9b 47 be e9 72 01 3d 56 ce 39 3e
       -0.103444934 -0.19493021 0.031603727 0.18145117
000140 fb f9 88 3d 2e f5 51 be da 8a be bd 24 d8 a3 be
       0.06688305 -0.20503685 -0.093038276 -0.3200084
000150 72 71 09 3e 48 e5 b8 3e 14 e6 3c 3c 5f 8f 49 be
       0.13422182 0.36112428 0.011529464 -0.19683598
000160 33 ae 8b 3b e0 04 06 be 39 0e 08 3d d8 9f c7 bd
       0.0042627095 -0.13087797 0.03321669 -0.09747285
000170 03 56 f9 bd 97 cf 15 3e 6f 87 92 3d 80 b7 74 be
       -0.121746086 0.1462997 0.07154738 -0.23898125
000180 33 11 37 be 1c d8 04 3d 84 6b b5 3d 84 20 8c bd
       -0.17877655 0.03243266 0.088583976 -0.06842139
000190 9d 0f d4 bc 11 66 ee be 5a 87 ce ba 26 b8 9c bd
       -0.025886351 -0.46562245 -0.0015756891 -0.07652311
0001a0 53 f1 d3 3d 5f 9e 9f be e4 37 c9 3c 9d be a4 bd
       0.10348763 -0.31175515 0.024562784 -0.08044169
0001b0 c7 8a e3 bd 13 99 48 bd 0d 8e 02 bd 09 41 30 bd
       -0.11110454 -0.048974108 -0.03187375 -0.043030772
0001c0 ad ef 35 bb 01 77 2a 3c f4 82 3e 3e 39 93 a5 3e
       -0.0027761266 0.010404349 0.18604642 0.32338884
0001d0 ad a4 7c bd 70 de 9d 3d c4 1d 6c 3e 18 96 fd 3d
       -0.061680485 0.07708442 0.2305823 0.12382144
0001e0 aa 17 a4 bc ce d7 f5 3d 31 19 d7 bd 73 7c 4e be
       -0.020030815 0.12004052 -0.10502852 -0.20164661
0001f0 b9 90 17 3e 39 5f b6 3e 30 7d c4 bd 5f d3 69 be
       0.14801301 0.35619524 -0.0959419 -0.22834538
000200 2e ee 84 bd 61 e8 14 3e 25 7a 14 be 03 9a 73 be
       -0.06490742 0.1454177 -0.1449972 -0.2378922
000210 69 97 58 be 2a 0f 05 be 95 5e 6a 3d a3 d9 6f bd
       -0.21151508 -0.12994066 0.057219107 -0.058557164
000220 25 d0 0b bd 43 17 81 3d 57 47 c4 3c 94 03 75 be
       -0.03413405 0.06303265 0.023959799 -0.23927146
000230 ac 4f 59 3e 9a 94 2a 3e 04 b5 8b bd 7c cf ca bc
       0.21221799 0.1665825 -0.06821635 -0.02475714
000240 4c e6 bb bd b7 6f 63 3e ac e3 6b be 0a 58 ab 3d
       -0.09174785 0.22210585 -0.23036069 0.083664015
000250 da a7 86 bd f8 c9 62 be a3 6a 36 be 4d 50 39 be
       -0.06574984 -0.22147357 -0.17814116 -0.18097039
000260 bf 65 e6 3d 89 d4 6b be cf e1 05 3e 36 f8 36 be
       0.11249875 -0.23030294 0.1307442 -0.17868122
000270 20 36 02 3d 37 a7 77 be 0d cd 2d be bb 68 c0 bd
       0.0317899 -0.24184881 -0.16972752 -0.09394976
000280 0d 8d 17 be 1d 03 48 3e e7 2d 3f 3e a8 7a ff bd
       -0.147999 0.19532438 0.18669854 -0.12474567
000290 28 1d 97 3d 99 71 99 ba 58 16 92 3d 2b b5 8a 3e
       0.07378608 -0.0011706828 0.07133168 0.27091345
0002a0 a7 e3 05 be 34 20 02 be bb 30 11 3e 65 7d 7d 3e
       -0.13075124 -0.12707597 0.14178745 0.24754865
0002b0 dc a4 8d bd fc 9d dc 3d da cb 66 bd bc ab 6b be
       -0.0691621 0.10772321 -0.05634675 -0.2301473
0002c0 67 bc 0e 3e 11 c5 94 bd ac 6b cf 3d 71 a1 f7 3d
       0.13939057 -0.0726415 0.10127959 0.120913394
0002d0 19 62 62 3c e0 a0 8b be 4b 32 76 bc 6a c9 77 3e
       0.013817334 -0.27271175 -0.015026639 0.24197927
0002e0 22 e6 76 3e 08 7e 98 3d 37 15 af bd c9 3a f7 3d
       0.24111226 0.074459136 -0.08548968 0.12071759
0002f0 91 31 30 3d 6b 0d 8f bd 6b 90 ff 3d db a1 17 3e
       0.04301602 -0.06984981 0.124787174 0.14807837
000300 4a 71 12 3e da 66 22 be 40 5c c8 bd dc d7 25 bc
       0.14301029 -0.15859547 -0.0978322 -0.010122266
000310 52 98 17 be b3 bd 32 3e 30 fe a9 bd a3 93 d9 bc
       -0.148042 0.17455177 -0.083004355 -0.026559656
000320 7e 5f 88 bb 2f 1b 36 3e 34 b2 81 bd bd 5a 47 3e
       -0.004161774 0.17783807 -0.06332818 0.19468208
000330 fa 61 47 3e dd 74 25 bd 80 f4 0d bc c3 6b af bc
       0.19470969 -0.040394653 -0.00866425 -0.02141369
000340 84 33 6c 3e 48 6c 35 be bb a6 38 be 56 d9 3c be
       0.23066527 -0.17717087 -0.18032353 -0.18442282
000350 39 60 c2 3d 89 79 ca 3d 72 a7 c5 bc bd e2 02 3e
       0.09491009 0.09886462 -0.024127696 0.12781806
000360 fc 83 07 be 30 e3 43 be e8 54 98 3d f5 4f 2b be
       -0.13233942 -0.19129634 0.074380696 -0.1672972
000370 59 a0 9c 3d 6a 54 82 be fe 8d 6b 3d 5a 1a 3a be
       0.076477714 -0.25455028 0.05750846 -0.18174115
000380 14 2c 64 bc 19 41 75 be 69 44 ff 3d ac 2e 15 be
       -0.013926525 -0.23950614 0.1246422 -0.14568585
000390 00 a5 d7 bd d6 9c e7 3d 85 b9 c7 bc 7f 9a 2e bd
       -0.10529518 0.11309211 -0.024380455 -0.042627808
0003a0 30 63 3c be 2d 80 b2 3b 2d e0 2b 3e f4 04 23 3e
       -0.18397212 0.0054474087 0.16784735 0.15919858
0003b0 78 a6 33 be 1c 02 31 be 21 54 07 3e 4f 3d cb 3d
       -0.17543972 -0.17285961 0.13215686 0.09923803
0003c0 76 ac 59 3d bf 6f 4a 3e d5 72 be bc 28 6c 33 3e
       0.053142987 0.1976919 -0.023248116 0.17521727
0003d0 0b 39 7a 3d 9f eb 01 bd 35 b4 30 3e 00 16 46 3e
       0.061089557 -0.031718846 0.17256244 0.1934433
0003e0 7d 96 1c 3e b7 f1 d2 3d f4 7e 79 3c c4 ac 2f be
       0.15291782 0.1030001 0.015228022 -0.17155749
0003f0 a9 5f 2a be 31 b8 c1 3d 0e 72 d2 bd f7 79 e9 bd
       -0.16638054 0.0945896 -0.102756605 -0.11400216

transformer_encoder.layers.0.linear1.bias f4 [20]
000000 2e da a8 bd 6e 2e d3 3d 9b cf 3a be 2d 46 7a bd
       -0.082447395 0.1031159 -0.18243258 -0.06110208
000010 31 d3 2a 3e 00 cb 97 3a 80 aa 67 be 2a 37 6d be
       0.16682126 0.0011580884 -0.22623634 -0.23165575
000020 5d 87 db 3c d0 64 9f 3d b6 c1 e2 3d da 5b 93 bc
       0.026797945 0.077829 0.11072104 -0.017988134
000030 b8 e4 5c 3d 22 28 45 bd 3e 2b f2 bd b7 32 bc bd
       0.05392906 -0.048133977 -0.11824654 -0.091893606
000040 fd 6c 42 be f5 85 1f be 93 93 12 be 85 ba 57 be
       -0.18986888 -0.15578444 -0.14314108 -0.21067245

transformer_encoder.layers.0.linear2.weight f4 [20, 20]
000000 11 a2 19 3d db ff 58 be e0 b5 c6 bd 1f 80 5d 3e
       0.037508074 -0.21191351 -0.09702659 0.21630906
000010 78 92 50 be 92 36 da 3e 97 19 90 3d c6 8c 2e 3e
       -0.20368373 0.4261976 0.07036131 0.17045888
000020 d4 93 19 be a5 cb 81 3e 26 4e c6 3d 62 fb a1 3e
       -0.14997798 0.2535068 0.096828744 0.31637102
000030 65 c5 f2 bd 10 48 74 3c b3 99 46 3e 75 ea 44 3e
       -0.11854056 0.014909759 0.19394569 0.19230063
000040 dc 87 8c 3e 4e f3 be bd 29 1e 49 bd 68 6f d2 3d
       0.27447402 -0.093237504 -0.04910103 0.10275155
000050 1e aa 0b 3e 77 d5 66 3d c3 fe 30 bd 8e 4f 44 3d
       0.13639113 0.05635592 -0.04321171 0.04792743
000060 1e 68 0f bd 55 f7 84 3e 4c e0 f4 3d 1d c5 21 be
       -0.035011403 0.2596995 0.11956844 -0.15797849
000070 37 cd ff 3d e4 3e 07 3c fe e8 d8 bd 67 13 c4 bc
       0.124903135 0.00825474 -0.10591315 -0.023935033
000080 bf 47 0a 3e 7f f6 4f bd 32 9b e5 3d 64 9a ce bd
       0.13503931 -0.050772186 0.11211242 -0.100880414
000090 f1 3c f5 3b d2 b1 26 bb 78 76 d2 3b 86 a1 16 bc
       0.0074840714 -0.002543558 0.006422814 -0.009193784
0000a0 5e b0 43 3d 6e 7c 53 bd 95 2f 4a 3e 4e b6 ee bd
       0.04777562 -0.051632337 0.19744714 -0.116558656
0000b0 b4 76 04 be d6 49 83 3e 47 8c 00 be ec 81 87 3e
       -0.12935907 0.2564227 -0.12553512 0.2646631
0000c0 08 ac 32 3e b8 c9 22 3e c6 08 2f 3c 94 64 d6 bc
       0.17448437 0.15897262 0.010683244 -0.026171006
0000d0 0c a4 c4 3a 02 cc 4e bd f7 8a b7 3d fd 93 25 be
       0.0015002503 -0.050487526 0.08962052 -0.16169734
0000e0 22 8d 9b bd 3d b5 11 3d 72 e1 2a 3d ea 2a 59 3d
       -0.07595278 0.035573233 0.041718908 0.05301944
0000f0 8f 6f 1c 3e 89 8c 08 bc bd 96 5d bb 75 f9 b8 bd
       0.15276931 -0.008334287 -0.003381177 -0.09031955
000100 d1 a2 e7 3c f3 9c 1c 3d 67 27 f5 3d af 40 15 3e
       0.02827588 0.038235616 0.11970406 0.14575456
000110 e0 ea 5d 3b 0d 87 17 be 07 22 26 3d 70 9c 85 bc
       0.003386192 -0.14797612 0.040559795 -0.016309947
000120 f4 f9 42 3d b2 46 34 ba 47 57 16 3e 31 3e 20 3e
       0.047601655 -0.00068769895 0.14681731 0.15648724
000130 cd c8 cc bd ab e8 4a 3c 83 89 4e 3d 07 59 d5 bd
       -0.09999237 0.012384574 0.05042411 -0.10417371
000140 bf 34 46 bd 15 78 f4 3a cd b4 2c be 57 58 6c 3d
       -0.048390146 0.001865151 -0.16865845 0.057701435
000150 86 db ad 3d 90 e4 38 3e 34 57 b1 3d aa a9 cb 3d
       0.084891364 0.1805594 0.08659211 0.0994447
000160 38 2a 2d 3e 5b 08 f2 3d 56 57 01 be 8f e1 d1 bd
       0.16910636 0.11818 -0.12630972 -0.102481
000170 23 8b db 3d f5 e5 4f 3e ad f4 c4 bd 51 ab 85 3e
       0.107198976 0.20302565 -0.09616981 0.26107267
000180 a2 61 e3 3d 42 ef 4c be af f5 5f 3d 24 85 60 3d
       0.11102606 -0.20013145 0.05467766 0.054814473
000190 2a ce 47 3e c7 3f 90 3d 2c 28 0a be d5 85 17 bd
       0.19512239 0.070434146 -0.13491887 -0.036992867
0001a0 bf 09 25 3d 56 54 3d 3e 2f 60 44 be 91 03 f0 bd
       0.040292498 0.18489203 -0.19177316 -0.1171943
0001b0 31 a0 97 bd 28 55 8a bc dd ba 1d 3c 8f 05 a7 3c
       -0.07403601 -0.016886309 0.009627071 0.020388393
0001c0 c2 ac c6 3d 10 9b b9 bd a5 52 2f be 65 7a 45 be
       0.0970092 -0.09062779 -0.1712137 -0.19284971
0001d0 bf 26 5f 3d 2b 36 49 3d 21 60 39 bd d9 fe 17 3e
       0.05448031 0.049123924 -0.04525769 0.1484331
0001e0 8b d3 08 be 25 d9 b4 3d bd 37 ec bd a4 6f 32 3e
       -0.13361947 0.088304795 -0.11534069 0.174254
0001f0 e7 83 9e bc ea 12 d6 3d b0 4f 88 bd d2 99 0a 3b
       -0.019350005 0.10452826 -0.06655824 0.0021148813
000200 66 3a a8 be 42 a2 0f 3e a5 a0 fa 3c 88 5c ee bd
       -0.32857054 0.1402674 0.03059418 -0.11638743
000210 98 72 bf 3d 31 78 55 be e2 9f 21 3d 30 d2 86 3e
       0.09348029 -0.2084663 0.039459117 0.26332235
000220 79 70 e1 3d ea 8f de 3c 54 56 67 3c a7 43 7d 3c
       0.110077806 0.027168233 0.014119703 0.015458024
000230 d9 51 24 3e 88 b9 31 3e 87 4f e9 3d d4 76 21 be
       0.16046847 0.17355931 0.11392122 -0.15767986
000240 55 95 4e 3e 36 36 39 be fd 55 59 3e c3 83 ec 3b
       0.20174153 -0.18087086 0.21224208 0.0072178557
000250 91 99 52 3e fa c4 b8 3c 72 b1 21 3e 37 e8 d9 3c
       0.20566393 0.022554863 0.15790346 0.026599986
000260 1e 5e 58 3d 7d e4 d8 3d 46 e1 15 3e ca d9 34 be
       0.052824132 0.10590456 0.14636716 -0.17661205
000270 ab 7f b8 bd f7 01 a3 3d 6b b3 bd 3d 05 2e d4 3d
       -0.09008726 0.07959359 0.09262737 0.1036034
000280 4c ea 6f 3d a3 43 e5 3d 18 e3 2e be 71 ce 4e 3e
       0.058573052 0.11194541 -0.17078817 0.20195939
000290 b1 7d 9f bd f2 33 d9 3d 4f 4b 94 be 0b f2 84 3d
       -0.077876456 0.10605611 -0.28963706 0.064914785
0002a0 ea 5e 5f bc f2 4f 39 3e 86 53 10 be 69 1a 2a be
       -0.013633469 0.18096903 -0.14094362 -0.16611637
0002b0 f5 2a e0 3d df 01 c1 bd 32 bb df 3c f4 65 0d be
       0.109456934 -0.09424185 0.027310941 -0.13808423
0002c0 b4 3b 7c 3e 19 28 33 3e 33 29 e9 3d 5e 01 1c 3d
       0.2463215 0.17495765 0.11384811 0.03808724
0002d0 c9 03 f5 3d 52 df 33 3e b9 0d 03 3e a1 18 e1 3b
       0.119636126 0.17565659 0.12798204 0.006869391
0002e0 ba 7f 3c be 64 c1 8d be 08 f8 7a bd c3 f0 bb bd
       -0.18408099 -0.27686608 -0.061271697 -0.09176781
0002f0 de c4 84 bd 04 15 8e bd 67 b2 6c bd cc 30 ee bc
       -0.06482862 -0.06937602 -0.057787325 -0.029076003
000300 55 7a 25 3e d0 d6 7a bd 55 bc 90 bd 02 40 50 bd
       0.16159947 -0.061240017 -0.070671715 -0.050842293
000310 34 0b 73 3d 8f 31 c0 bd c1 03 02 3e e1 d5 78 be
       0.059336856 -0.093844526 0.12696745 -0.24300338
000320 36 56 04 be 88 77 78 be 27 5e c3 3d dc 44 24 3e
       -0.12923512 -0.24264348 0.095394425 0.16041893
000330 58 bb 82 3e d5 e2 15 be 26 dc 59 3e ab b4 60 3e
       0.25533557 -0.14637311 0.21275386 0.2194392
000340 23 24 c2 bd 81 bd 9e 3d 73 ab 4f 3e b5 fc a6 bd
       -0.09479549 0.07750989 0.20280246 -0.08153669
000350 e0 4c d2 3a 70 5c 41 bd 2f 9c 1e be 56 a5 37 bc
       0.0016044639 -0.047207296 -0.15489267 -0.011208853
000360 0f 42 8c be 58 f1 fe 3d 15 12 86 bd 5c 09 8b be
       -0.2739415 0.124483764 -0.065464176 -0.27155578
000370 b3 36 47 3e 5c ea 1c 3e 8e cd 96 3a 87 b4 51 be
       0.1945446 0.15323776 0.0011505352 -0.20479022
000380 ec b6 23 3e 84 8b 10 bb 06 9c 7c 3e d7 b6 d2 bd
       0.15987748 -0.0022055814 0.24668893 -0.1028878
000390 37 39 15 3e 79 bf b8 3d 89 9e 9f 3d ee c9 b3 be
       0.14572607 0.090208955 0.0779391 -0.35114998
0003a0 15 c7 93 be 84 56 49 3d 99 b3 20 3c a6 20 00 3e
       -0.28862825 0.049154773 0.009808444 0.12512454
0003b0 f3 35 a5 3d 51 ed 09 be dc e0 08 3d 7d 89 0e be
       0.080669306 -0.13469435 0.033417568 -0.13919635
0003c0 b6 9f 29 bd b0 b3 35 be 64 3f f1 3d 62 85 23 be
       -0.041412078 -0.17744327 0.11779669 -0.1596885
0003d0 a0 f4 f7 3c b2 83 28 be 70 61 d4 bd e7 65 76 bd
       0.030268013 -0.16456488 -0.10370147 -0.060155775
0003e0 98 24 11 be 63 e3 71 be bd e1 21 be f8 27 5c be
       -0.14174116 -0.23621897 -0.15808769 -0.21499622
0003f0 dd 17 3c 3e 90 a7 0d 3e 00 60 f0 3c 40 52 2c 3e
       0.18368478 0.13833451 0.029342651 0.16828251

transformer_encoder.layers.0.linear2.bias f4 [20]
000000 1c 37 e2 3d 06 56 4f 3c 75 ca 56 3e 53 c1 8f 3b
       0.110456675 0.012654787 0.20975669 0.0043870597
000010 14 87 0e 3e 00 c9 f8 3c 55 22 db bc 14 14 05 be
       0.13918716 0.030369282 -0.02674977 -0.1299594
000020 db 5b dc 3a 3c d0 3d bd ee 38 52 3e b1 42 10 bd
       0.0016812043 -0.046341166 0.2052953 -0.035219852
000030 e9 68 42 3d d8 61 8b 3d 5a 9c 1c bc 64 be 61 bd
       0.04746333 0.068057716 -0.0095587615 -0.05511321
000040 f6 8e 1b 3e e1 f2 5d bd 94 69 41 3e d9 67 e4 bd
       0.15191254 -0.054186705 0.18887931 -0.1115262

transformer_encoder.layers.0.norm1.weight f4 [20]
000000 e8 d3 ab 3f b8 c7 9b 3f cf de 8b 3f 4b 2f 96 3f
       1.3424044 1.2170324 1.0927371 1.1733183
000010 9c fa 80 3f 29 b4 9a 3f 9a 20 89 3f 7e 1d 6d 3f
       1.007648 1.208623 1.0713074 0.92623127
000020 0e b4 83 3f 2e dd 7c 3f ef c2 7e 3f 4a 35 86 3f
       1.0289323 0.98774993 0.99516195 1.0485013
000030 66 f0 65 3f a3 ad 6e 3f 8d f2 7a 3f f8 3f 48 3f
       0.89819944 0.932337 0.98026353 0.7822261
000040 6d ba 71 3f b3 c9 88 3f 59 ec 7a 3f 32 77 7c 3f
       0.9442509 1.0686554 0.9801689 0.9861938

transformer_encoder.layers.0.norm1.bias f4 [20]
000000 c2 1a ed bc 4a b2 69 3d f0 44 39 3d 05 1f 83 3c
       -0.028943423 0.057054795 0.04523176 0.016006002
000010 1e 5b d4 3c aa 03 2c 3d b8 59 85 bd f0 44 65 3d
       0.025922354 0.04199568 -0.06511253 0.055973947
000020 b9 22 1b 3c 2a ff 6b bd 46 8b 30 3d b3 3e 08 bd
       0.009468728 -0.05761639 0.04310157 -0.03326292
000030 cc 82 7d 3d 49 f4 3b bd fd b0 48 3d 1c 84 32 bd
       0.061892316 -0.045887265 0.048996914 -0.04358302
000040 22 b2 85 3c dd e7 72 bd bd 7f 45 3d f4 dc 50 bd
       0.016320292 -0.059303153 0.048217524 -0.050991967

transformer_encoder.layers.0.norm2.weight f4 [20]
000000 e4 4a b3 3f 7c 46 69 3f 02 67 91 3f dd b2 81 3f
       1.400723 0.91123176 1.135956 1.013271
000010 4c 7f 89 3f 8f 42 80 3f 8a 2d 91 3f b8 51 70 3f
       1.0741973 1.0020312 1.1342022 0.9387469
000020 9f a4 8a 3f a6 d1 87 3f d8 c8 76 3f 8c f9 8b 3f
       1.0831488 1.0610855 0.96400213 1.0935531
000030 82 36 65 3f 7d a2 78 3f b8 96 7b 3f a6 b3 50 3f
       0.895363 0.9712294 0.98276854 0.8152412
000040 06 d7 74 3f 69 67 8f 3f 1c 9b 80 3f f9 b8 89 3f
       0.956406 1.1203433 1.0047336 1.0759574

transformer_encoder.layers.0.norm2.bias f4 [20]
000000 9d 0f 31 3c fc 05 8f 3d bb 5e 9a 3d ba 36 a1 3d
       0.010806945 0.06983563 0.075376 0.078717664
000010 13 c3 94 3b 21 c8 8d bb fa b0 66 bd e6 da b6 3d
       0.004539856 -0.0043268357 -0.05632112 0.0892847
000020 78 bb 1f 3c 6c b7 74 bd 34 77 15 3d ad 89 d9 bc
       0.009749286 -0.059745237 0.036490634 -0.026554907
000030 be 7e f2 3c 1a d8 44 bb 0d b1 a4 3d ea 16 cd 3c
       0.029601451 -0.0030036033 0.08041582 0.02503534
000040 f9 20 b5 bc 39 82 75 bd c9 ad 4a 3d da f6 29 bd
       -0.02211045 -0.059938643 0.04948214 -0.04149518

transformer_encoder.layers.1.self_attn.in_proj_weight f4 [60, 20]
000000 7d 63 0f be fa e9 89 be af bc 5b 3e f1 38 57 3d
       -0.14002796 -0.26936322 0.21458696 0.052544538
000010 1c 9a 33 3e 4a c5 77 3d cc 98 23 be 2b a7 ec 3d
       0.17539257 0.060490884 -0.15976256 0.11555322
000020 23 49 10 3d ba 57 4f 3d 39 87 4a be d4 2b 7a 3e
       0.035226 0.050620772 -0.19778146 0.24430782
000030 fa 51 8f be 2b a5 37 3e 3a 10 82 3e 8f d3 8a 3e
       -0.2799223 0.179341 0.25403005 0.2711453
000040 b2 ec a8 3d fd 1d d2 bd fb 00 f3 bb 99 71 7b 3c
       0.08248271 -0.10259626 -0.0074158884 0.015346908
000050 6f 07 68 3e 1d 2a 90 bc de f6 7e be 60 27 c8 3d
       0.22659086 -0.017598206 -0.2489886 0.09773135
000060 66 36 9b 3d 76 3d e0 3d 26 da 28 3e 2f d9 8d bd
       0.07578735 0.10949223 0.16489467 -0.0692619
000070 95 55 57 3e 35 85 0f bd ee ca 85 bb 5a 17 94 bd
       0.2102874 -0.035039145 -0.004083029 -0.072310165
000080 d4 79 cc 3d 76 98 98 bd e8 e9 62 3e 2f 1d 20 3e
       0.09984174 -0.074509546 0.2215954 0.15636133
000090 da 14 86 3e b6 3b a8 3c 93 77 2b 3d 73 aa 13 be
       0.26187783 0.020536285 0.04186208 -0.1442049
0000a0 1e 80 56 3e 74 5d 7b be f1 36 ce 3c 36 13 8c bd
       0.2094731 -0.24547368 0.025172682 -0.06839602
0000b0 81 5c 74 3e e5 66 6b be 31 02 2b 3e 45 aa 83 be
       0.23863412 -0.2298847 0.16700055 -0.25715843
0000c0 da 32 bc 3c 01 8d d9 bd b1 43 43 bd 46 c9 46 bd
       0.022973467 -0.106225975 -0.047671977 -0.048531793
0000d0 db bf 07 3d 60 29 46 be 2f d9 ca 3d fb 11 29 be
       0.033141952 -0.19351721 0.09904706 -0.16510765
0000e0 24 63 71 bd 77 f6 9b be a1 f5 ae bd 05 0c b5 3c
       -0.05893244 -0.30461475 -0.08542944 0.022100458
0000f0 0e c1 55 3d 33 40 57 3d 70 50 2b be d3 41 8d 3d
       0.052186064 0.05255146 -0.16729903 0.068973206
000100 6e 63 7e 3e 10 85 30 3e 38 bb ba bd a9 c0 10 3e
       0.24842617 0.1723826 -0.091177404 0.14135994
000110 bc 89 78 3c 8c c0 25 3c b0 ab 64 3d 99 e6 fa 3d
       0.015169557 0.0101167075 0.055827796 0.12251014
000120 2c 6a 6b be 07 91 af bd 0c 8f 87 3c 8b 89 2d 3e
       -0.2298972 -0.08572584 0.016547702 0.16947
000130 9b 3f 4c be c2 6b e6 bd c0 29 3d bc a9 54 b1 3d
       -0.19946139 -0.11251022 -0.0115455985 0.08658726
000140 32 96 86 be a9 9b 17 3e d3 78 36 be 4f 30 6d 3e
       -0.26286465 0.14805473 -0.17819528 0.2316296
000150 0b 04 72 bd 61 0a 48 bd 59 81 ce 3b 54 11 11 bb
       -0.059085887 -0.048838023 0.0063020405 -0.0022135573
000160 35 2f 66 3e 42 62 21 3e 8f ca 6a be 92 41 21 3e
       0.22478946 0.15760139 -0.22928832 0.1574767
000170 1a 58 36 3e e9 82 99 bd f8 8e 4c be ce f5 af bd
       0.17807046 -0.07495672 -0.19976413 -0.085918054
000180 43 0c 65 bd ce 67 48 3d d5 c0 dc 3c 22 69 64 3e
       -0.055919897 0.04892712 0.026947418 0.2230573
000190 c5 e5 80 bd bf 8a 49 bd b0 34 50 3e cb d5 7c be
       -0.06293825 -0.049204584 0.20332599 -0.2469093
0001a0 f8 94 c4 3d c6 9f 23 3d 9b 05 bd 3c b2 eb 49 3e
       0.09598726 0.039947294 0.023073962 0.19718817
0001b0 f2 b0 39 be 18 59 1f be b0 c7 cb 3d 1f d1 4f 3e
       -0.18133906 -0.1556133 0.09950197 0.20294617
0001c0 7c ad 2e bd 85 eb 4c bd b5 2a 77 be 13 33 14 3e
       -0.042645916 -0.050029296 -0.24137385 0.14472608
0001d0 09 bc 13 be a0 81 5a be d1 19 8e bd 55 e7 40 bd
       -0.14427198 -0.2133851 -0.06938518 -0.047095615
0001e0 8b 89 9b bd 46 f9 dd 3d 27 b4 ef 3d b7 62 3b 3d
       -0.075945936 0.10838561 0.11704283 0.04574844
0001f0 d6 66 2e be 6e 56 fd bd 78 43 39 bd fe 77 04 be
       -0.17031416 -0.12370001 -0.04523036 -0.12936398
000200 33 e3 33 be bc a6 0d 3e 9f 99 f2 bd 2e 8d ad 3d
       -0.17567138 0.13833135 -0.11845707 0.084741935
000210 66 36 83 bd 38 b8 03 3e 03 9e 2e be f1 e2 46 3e
       -0.0640686 0.12863243 -0.17052464 0.19422509
000220 54 83 2f 3e 65 a7 02 be 17 59 83 bb 4c 17 05 be
       0.17139941 -0.12759168 -0.004008423 -0.12997168
000230 ce be 81 3d ba a9 4d be 5c 39 1c 3d e8 a9 af 3d
       0.06335221 -0.20084277 0.03814064 0.08577329
000240 62 2c a2 3e 33 3b f0 bc ad a1 7f be 17 18 0a bd
       0.31674486 -0.029325103 -0.24964018 -0.03371438
000250 2e 04 25 be 98 4f 03 be 2b b4 73 3d 3c 03 5e be
       -0.16114876 -0.12823331 0.059497993 -0.21680921
000260 11 0c 25 3e 4f 03 ed 3c 19 93 38 be 7f d0 2c be
       0.16117884 0.028932242 -0.18024863 -0.1687641
000270 05 1e c5 3d 16 33 d8 bc 5b a9 8d bd dd d7 fd bd
       0.096248664 -0.026391547 -0.069170676 -0.12394688
000280 e7 c8 29 3e 82 8d 7d bd ef 9b 5b bd 52 eb 30 3e
       0.16580544 -0.06190253 -0.053615507 0.17277268
000290 e0 5a fd 3d e4 1e bf bd bc b5 7b be a1 6a 40 3e
       0.12370849 -0.09332064 -0.24581045 0.18790676
0002a0 dc 25 8b bb 5e b7 21 3e 2f 65 31 bd 8a 1c 2c 3d
       -0.0042464565 0.15792605 -0.043309387 0.042019404
0002b0 48 39 60 3e 71 47 0c be 28 51 e3 3d a7 05 24 3e
       0.21896851 -0.13699128 0.11099464 0.16017781
0002c0 bf 43 10 3e 3f ae 5b be 42 9e 82 3e 8a fc 13 3e
       0.14088343 -0.21453188 0.25511366 0.14451805
0002d0 f8 60 19 be e7 51 85 bd 49 d7 fc 3d ba 9d fd 3d
       -0.14978397 -0.06509762 0.1234575 0.123835996
0002e0 1b 9e 47 3e 92 19 4f be ca b7 ca bd e2 b6 1d 3e
       0.19493906 -0.20224598 -0.09898336 0.15401796
0002f0 ee 8e cd bd d6 bb 0b be c2 b4 19 be 08 b1 da bd
       -0.10037027 -0.13645872 -0.1501036 -0.10678297
000300 41 15 3a 3e 61 65 f6 bc a7 63 bc 3c 75 a1 98 3b
       0.1817217 -0.030077638 0.022996737 0.004657919
000310 a1 ed 36 be 69 be 88 bd 71 4e 9d bd 4f 5d c6 3c
       -0.17864086 -0.06676943 -0.07680977 0.024214415
000320 c9 3a 0d be e0 34 6a be 01 f8 96 bb ae c9 14 be
       -0.13791956 -0.22871733 -0.004607201 -0.1453006
000330 9d 01 ae 3c 09 9a ba 3d 3b 56 83 3d be ce 2b be
       0.021241004 0.09111411 0.064129315 -0.16778085
000340 74 15 3c 3e a1 6e 2e 3e 17 e1 d0 3d 66 31 2d bc
       0.18367559 0.17034389 0.101991825 -0.01057086
000350 7f 9b 49 bc 48 34 a1 3c 91 90 92 bd 38 ae 45 bb
       -0.01230514 0.01967825 -0.0715648 -0.0030163657
000360 eb 1b d6 3c 21 77 80 3e 23 bd e4 3d 7d d6 e6 3d
       0.02613636 0.25090888 0.111688875 0.11271379
000370 06 b3 ed bc 81 cb 74 be 80 2c 89 be ca 60 5c be
       -0.02901603 -0.23905756 -0.26791763 -0.21521297
000380 91 6d 3e 3e 61 e5 b9 bd 4b a1 a4 bd fa 68 27 3d
       0.18596484 -0.09076954 -0.08038577 0.040871598
000390 47 f8 36 3c 29 f7 50 3e 08 20 04 be dd 16 c2 3c
       0.011167592 0.20406784 -0.12902844 0.023692543
0003a0 59 08 20 be 1d 03 7e bd f8 91 34 be 54 55 0e 3e
       -0.15628184 -0.062014688 -0.17633808 0.13899738
0003b0 46 09 a2 3d 08 2e 0b 3d 65 f0 6d 3b 5b 56 8c be
       0.07911925 0.033979446 0.0036306616 -0.27409634
0003c0 35 02 9a 3e 24 36 f1 3d 4f a6 6f 3e 1b a3 85 be
       0.3007981 0.11777905 0.23403285 -0.26101002
0003d0 6c db 3a be 66 17 ed bd 58 76 81 be 18 a3 a9 3d
       -0.18247765 -0.115767285 -0.25285602 0.08283061
0003e0 c7 78 92 bd 1b 4c 33 be 0a 07 0d 3e f7 81 48 3c
       -0.07151943 -0.175095 0.13772216 0.012238017
0003f0 6a 0e 8b 3e 1e e9 5e 3e 35 5c 8a 3e 77 0e 04 bd
       0.27159435 0.21768615 0.27023473 -0.032240357

transformer_encoder.layers.1.self_attn.in_proj_bias f4 [60]
000000 b0 2e 48 3c f9 70 04 3c f4 8e ef 3c de af 8f bc
       0.012218162 0.008083575 0.02924297 -0.017539915
000010 97 c1 98 bc 4f e6 5c 3d bf f3 05 bb 87 c4 96 3c
       -0.018646998 0.053930577 -0.0020439473 0.018404258
000020 16 77 11 3d 07 9f cc ba 08 91 35 bc f4 b9 14 bd
       0.03551396 -0.0015611359 -0.011081941 -0.03631015
000030 8d 16 af 3b 0c 6d 13 bb 58 52 e2 3a 9c b7 09 bb
       0.0053432644 -0.0022495417 0.0017266972 -0.002101398
000040 45 3c 1d bc 67 44 8e bd 93 74 80 bb 6f ef 47 3d
       -0.009596889 -0.069466405 -0.0039201467 0.048812326
000050 d2 5b 3f b0 07 ca d9 b0 15 09 9f 30 02 19 a6 b0
       -6.961588e-10 -1.5846248e-09 1.1571354e-09 -1.2085197e-09
000060 4e 8c e4 b0 f5 1d 86 31 59 38 8a 30 70 94 f7 31
       -1.662906e-09 3.903319e-09 1.0056836e-09 7.2055215e-09
000070 f9 c1 9d 2e 06 08 bc 2f d9 36 f4 b0 c9 88 66 b1
       7.17399e-11 3.4202702e-10 -1.7768925e-09 -3.3547158e-09
000080 f5 59 2b 30 76 8b 0d b0 1c 6a 87 b1 c5 82 30 b1
       6.2337274e-10 -5.1493687e-10 -3.9410804e-09 -2.5685705e-09
000090 53 4a 18 31 83 f0 62 b1 dd 5a 4d b0 1c 3e f5 b0
       2.216116e-09 -3.3024043e-09 -7.470769e-10 -1.7843749e-09
0000a0 3f dc 02 3a 17 37 55 bd 17 16 c0 3c 1a 39 29 bc
       0.00049919257 -0.05205449 0.023448033 -0.0103285555
0000b0 56 30 8c 3d 1a 19 44 bc 05 08 fc 3b 2d b7 d4 3c
       0.06845157 -0.011968875 0.0076913857 0.025966251
0000c0 7b 63 59 3d 66 69 32 bc 32 05 66 3c 21 db 18 3c
       0.053073388 -0.010889387 0.014039325 0.009329588
0000d0 15 0d 9d bc 76 28 bc bc ca 0a 70 bd ff 2b a8 bc
       -0.019171277 -0.022968512 -0.05860404 -0.020528791
0000e0 2d 29 27 3d b3 bd 08 3c 3b 41 01 bd e7 9d 5b 3c
       0.040810753 0.008346009 -0.03155635 0.013404346
