model_epoch_81.pt (torch, 431970 bytes, 28 tensors)

pos_encoder.pe f4 [5000, 1, 20]
0.0 1.0 0.0 1.0 0.0 1.0 0.0 1.0
0.0 1.0 0.0 1.0 0.0 1.0 0.0 1.0
0.0 1.0 0.0 1.0 0.841471 0.54030234 0.38767424 0.92179644
0.15782663 0.9874668 0.06305388 0.9980101 0.025116224 0.9996845 0.009999833 0.99995
0.0039810613 0.9999921 0.0015848922 0.99999875 0.0006309573 0.9999998 0.00025118855 0.99999994
0.9092974 -0.41614684 0.71471345 0.69941735 0.31169716 0.9501815 0.12585683 0.99204844
0.0502166 0.99873835 0.019998666 0.9998 0.00796206 0.9999683 0.0031697804 0.999995
0.0012619144 0.9999992 0.0005023771 0.9999999 0.14112 -0.9899925 0.92996645 0.36764446
0.45775455 0.8890786 0.18815888 0.9821386 0.07528529 0.99716204 0.0299955 0.99955004
0.011942931 0.99992865 0.0047546607 0.9999887 0.001892871 0.9999982 0.00075356563 0.9999997
-0.7568025 -0.6536436 0.99976605 -0.02163067 0.5923377 0.8056898 0.24971214 0.96832013
0.10030649 0.9949566 0.039989334 0.9992001 0.015923616 0.9998732 0.006339529 0.9999799
0.0025238267 0.99999684 0.0010047541 0.9999995 -0.9589243 0.2836622 0.91319513 -0.40752262
0.7120732 0.7021053 0.3102716 0.95064795 0.12526439 0.9921234 0.049979165 0.99875027
0.019904045 0.9998019 0.007924382 0.9999686 0.0031547816 0.99999505 0.0012559424 0.9999992
-0.2794155 0.96017027 0.683794 -0.7296751 0.81395954 0.5809216 0.3695962 0.9291925
0.15014328 0.98866427 0.059964005 0.99820054 0.02388416 0.99971473 0.009509213 0.99995476
0.0037857352 0.99999285 0.0015071308 0.99999887 0.6569866 0.75390226 0.34744254 -0.9377013
0.89544296 0.4451763 0.42744997 0.904039 0.17492743 0.98458135 0.06994285 0.997551
0.027863897 0.99961174 0.011094023 0.9999385 0.004416687 0.9999902 0.001758319 0.99999845
0.98935825 -0.14550003 -0.04325122 -0.9990642 0.9544809 0.29827204 0.48360258 0.8752877
0.1996012 0.97987723 0.07991469 0.99680173 0.031843193 0.9994929 0.012678803 0.9999196
0.0050476375 0.99998724 0.002009507 0.999998 0.4121185 -0.91113025 -0.42718017 -0.9041665
0.9895935 0.14389123 0.53783053 0.843053 0.22414905 0.9745549 0.089878544 0.9959527
0.03582198 0.9993582 0.014263553 0.99989825 0.0056785857 0.99998385 0.0022606952 0.99999744
-0.5440211 -0.8390715 -0.7442953 -0.6678507 0.99990064 -0.014096433 0.58991814 0.80746305
0.24855547 0.9686177 0.099833414 0.9950042 0.039800204 0.9992077 0.015848266 0.9998744
0.0063095316 0.9999801 0.002511883 0.99999684 -0.9999902 0.004425698 -0.9449973 -0.32707813
0.98514396 -0.17173062 0.6396579 0.7686597 0.2728051 0.96206933 0.1097783 0.9939561
0.043777797 0.9990413 0.01743294 0.999848 0.006940475 0.9999759 0.0027630706 0.9999962
-0.53657293 0.84385395 -0.99789494 0.06485153 0.9456933 -0.32506028 0.68685204 0.7267973
0.29688257 0.954914 0.119712204 0.99280864 0.047754694 0.9988591 0.019017566 0.99981916
00000000: 0000 0000 0000 803f 0000 0000 0000 803f
00000010: 0000 0000 0000 803f 0000 0000 0000 803f
00000020: 0000 0000 0000 803f 0000 0000 0000 803f
00000030: 0000 0000 0000 803f 0000 0000 0000 803f
00000040: 0000 0000 0000 803f 0000 0000 0000 803f
00000050: a56a 573f 4151 0a3f 3d7d c63e dafa 6b3f
00000060: 4e9d 213e a0ca 7c3f 6522 813d 977d 7f3f
00000070: 8ac0 cd3c 53eb 7f3f 57d6 233c b9fc 7f3f
00000080: 9073 823b 7bff 7f3f 28bc cf3a ebff 7f3f
00000090: d466 253a fdff 7f3f f5b1 8339 ffff 7f3f
000000a0: b7c7 683f 3311 d5be 76f7 363f 040d 333f
000000b0: c596 9f3e 183f 733f 9de0 003e e3f6 7d3f
000000c0: ecaf 4d3d 51ad 7f3f 3ed4 a33c e5f2 7f3f
000000d0: 4d73 023c ecfd 7f3f 17bc 4f3b acff 7f3f
000000e0: d266 a53a f3ff 7f3f f5b1 033a feff 7f3f
000000f0: c381 103e 2670 7dbf 4812 6e3f e53b bc3e
00000100: ce5e ea3e a89a 633f b9ac 403e 6f6d 7b3f
00000110: 2d2f 9a3d 0346 7f3f 1fb9 f53c 83e2 7f3f
00000120: 49ac 433c 53fb 7f3f fccc 9b3b 42ff 7f3f
00000130: 361a f83a e2ff 7f3f ef8a 453a fbff 7f3f
00000140: cfbd 41bf 3055 27bf abf0 7f3f ce32 b1bc
00000150: 72a3 173f b041 4e3f 8ab4 7f3e d4e3 773f
00000160: 7d6d cd3d 7ab5 7e3f dbcb 233d 94cb 7f3f
00000170: 3e72 823c b1f7 7f3f d3bb cf3b affe 7f3f
00000180: c966 253b cbff 7f3f f4b1 833a f8ff 7f3f
00000190: 107c 75bf 2c3c 913e 28c7 693f cea6 d0be
000001a0: 6e4a 363f 2cbd 333f ebdb 9e3e aa5d 733f
000001b0: 4f45 003e cdfb 7d3f f4b6 4c3d 19ae 7f3f
000001c0: cf0d a33c 04f3 7f3f 44d5 013c f1fd 7f3f
000001d0: 74c0 4e3b adff 7f3f 6f9e a43a f3ff 7f3f
000001e0: 8c0f 8fbe b8cd 753f 200d 2f3f fdcb 3abf
000001f0: a75f 503f 47b7 143f b73b bd3e 8fdf 6d3f
00000200: 29bf 193e 1a19 7d3f d19c 753d 128a 7f3f
00000210: b7a8 c33c 4eed 7f3f 88cc 1b3c 09fd 7f3f
00000220: 191a 783b 88ff 7f3f eb8a c53a edff 7f3f
00000230: 4630 283f bdff 403f fde3 b13e 310d 70bf
00000240: c03b 653f 26ee e33e b9da da3e 1a6f 673f
00000250: 2d20 333e 860d 7c3f 323e 8f3d 815f 7f3f
00000260: d442 e43c 8ee6 7f3f b4c3 353c f8fb 7f3f
00000270: dbb9 903b 5cff 7f3f 6577 e63a e6ff 7f3f
00000280: 9546 7d3f f6fd 14be 3128 31bd acc2 7fbf
00000290: dc58 743f 1db7 983e c29a f73e db12 603f
000002a0: 4264 4c3e 3cd9 7a3f 50aa a33d 662e 7f3f
000002b0: 026e 023d c4de 7f3f c1ba 4f3c bbfa 7f3f
000002c0: a766 a53b 2aff 7f3f efb1 033b deff 7f3f
000002d0: 3201 d33e d53f 69bf 5cb7 dabe 7577 67bf
000002e0: 0056 7d3f 3958 133e 43af 093f 52d2 573f
000002f0: 5487 653e 6e7c 793f 3e12 b83d c2f6 7e3f
00000300: 12ba 123d f0d5 7f3f adb1 693c 55f9 7f3f
00000310: 6e13 ba3b f1fe 7f3f 2c28 143b d5ff 7f3f
00000320: f844 0bbf 64cd 56bf 238a 3ebf 43f8 2abf
00000330: 7df9 7f3f baf4 66bc e004 173f e6b5 4e3f
00000340: 5385 7e3e 54f7 773f 7675 cc3d 98b8 7e3f
00000350: 8a05 233d 13cc 7f3f 39d4 813c c5f7 7f3f
00000360: 30c0 ce3b b2fe 7f3f 679e 243b cbff 7f3f
00000370: 5cff 7fbf 7205 913b 58eb 71bf c976 a7be
00000380: 6532 7c3f 27da 2fbe 9fc0 233f e2c6 443f
00000390: 1cad 8b3e 2d4a 763f 72d3 e03d e873 7e3f
000003a0: 5950 333d 2cc1 7f3f 86cf 8e3c 0af6 7f3f
000003b0: ed6c e33b 6cfe 7f3f a214 353b c0ff 7f3f
000003c0: d85c 09bf d006 583f 0b76 7fbf e1d0 843d
000003d0: f518 723f 4d6e a6be 89d5 2f3f 630f 3a3f
000003e0: fe00 983e 3e75 743f ac2b f53d b528 7e3f
000003f0: 6d9a 433d 3bb5 7f3f baca 9b3c 26f4 7f3f

transformer_encoder.layers.0.self_attn.in_proj_weight f4 [60, 20]
-0.15073669 -0.23843107 0.21429561 0.062755495 0.18395685 0.07742844 -0.1789619 0.12442718
0.011473377 0.04574453 -0.20409101 0.23587276 -0.27084062 0.18053506 0.2627709 0.26273274
0.07550432 -0.107180655 -0.011192505 -0.0108351605 0.24206918 -0.061668523 -0.26152727 0.100513056
0.060090225 0.10895281 0.16147809 -0.08560506 0.23179935 -0.04317078 0.0013581694 -0.093640916
0.101409316 -0.10173027 0.22889303 0.15895553 0.2630815 0.019927511 0.03671127 -0.123165205
0.1453842 -0.14472917 0.013890196 -0.065437526 0.24022463 -0.20711239 0.17779332 -0.22861665
-0.0042653745 -0.082167 -0.061399937 -0.048363198 0.047712006 -0.1561337 0.1068652 -0.17736179
-0.06369624 -0.28008914 -0.08862717 -0.026976522 0.1018085 -0.012629608 -0.14199834 0.08672388
0.21542865 0.1568532 -0.11206198 0.10563421 0.030021816 -0.011464324 0.06206692 0.12472253
-0.24090265 -0.12899801 0.028912142 0.18877342 -0.18377994 -0.1253978 -0.016440028 0.12821971
-0.23875345 0.11149391 -0.17775697 0.25124773 -0.06995466 -0.07152449 -0.015021735 -0.019664321
0.23309626 0.13094078 -0.22632657 0.13850468 0.16387895 -0.10646061 -0.2002238 -0.08971438
-0.055388555 0.036458455 0.020472554 0.2516727 -0.07108805 -0.04951622 0.19939503 -0.22139856
0.036722235 0.035127886 0.06916993 0.18103619 -0.20081359 -0.114098415 0.061428808 0.21252684
-0.038357124 -0.08044242 -0.23650993 0.17385675 -0.15268677 -0.16090366 -0.11220674 -0.018793635
-0.10230673 0.09746469 0.23862584 0.022098666 -0.18576886 -0.14299487 -0.028118096 -0.13460402
-0.060998823 0.13935313 -0.08752072 0.11934493 -0.032977425 0.14406095 -0.1270223 0.24286415
0.21849765 -0.13095 0.0037850647 -0.10997832 0.22167526 -0.57188267 0.049872424 0.02440944
0.28579143 -0.032592382 -0.1835167 -0.056973096 -0.11428761 -0.059256952 0.05378799 -0.18097223
0.17033747 -0.025570937 -0.21343628 -0.13984105 0.10568037 0.010624954 -0.033186633 -0.105994895
0.11925611 0.114625864 -0.0136225 0.2020573 0.11330289 -0.08559314 -0.27155405 0.19507444
-0.0049308343 0.13180996 -0.03480779 0.063503705 0.22457998 -0.07740526 0.14472423 0.18957886
0.15039279 -0.22761992 0.25068775 0.15093446 -0.07942408 -0.19229114 0.06251463 0.104182914
0.18352978 -0.16048503 -0.08749551 0.13578501 -0.16555814 -0.107509315 -0.20342264 -0.122200795
0.16347125 -0.066622935 -0.021079231 -0.013634569 -0.20865206 -0.04610292 -0.066111445 0.010378527
-0.16932972 -0.2581731 0.04717551 -0.19618964 -0.007600859 0.14363366 0.020595282 -0.19836536
0.21519603 0.14528643 0.12330875 0.035943348 -0.03353706 0.014717725 -0.04867413 0.022879997
0.057270654 0.23168257 0.1176983 0.13173303 0.020565115 -0.29477188 -0.19702995 -0.2302487
0.18912674 -0.09841671 -0.15099274 0.048254006 0.026250299 0.15289724 -0.10116572 0.049505334
-0.19962525 -0.07249591 -0.176212 0.12536402 0.10352865 -0.021674544 0.017702198 -0.27177882
0.3024631 0.12916972 0.22077861 -0.23138352 -0.18997316 -0.14536001 -0.23407438 0.091348186
-0.08194821 -0.16575976 0.120106906 -0.012334903 0.2737252 0.20417498 0.2632372 -0.05074179
00000000: b85a 1abe 4627 74be 4f70 5b3e f485 803d
00000010: 2f5f 3c3e cd92 9e3d ca41 37be add3 fe3d
00000020: d5fa 3b3c 9e5e 3b3d 3cfd 50be a188 713e
00000030: 9fab 8abe 2fde 383e e889 863e e884 863e
00000040: 02a2 9a3d 8881 dbbd c560 37bc f585 31bc
00000050: fce0 773e 2298 7cbd e7e6 85be cad9 cd3d
00000060: 2b21 763d a722 df3d 835a 253e b551 afbd
00000070: cf5c 6d3e d8d3 30bd 9a04 b23a cfc6 bfbd
00000080: b0af cf3d f657 d0bd ef62 6a3e 3dc5 223e
00000090: 9eb2 863e 053f a33c 8f5e 163d 0a3e fcbd
000000a0: 99df 143e e233 14be b493 633c 1c04 86bd
000000b0: 72fd 753e 4515 54be 740f 363e 7c1a 6abe
000000c0: 8ec4 8bbb 2c47 a8bd 807e 7bbd 7d18 46bd
000000d0: aa6d 433d 83e1 1fbe 24dc da3d 549e 35be
000000e0: 2d73 82bd d867 8fbe 2982 b5bd defd dcbc
000000f0: fa80 d03d 6aec 4ebc 0368 11be 4a9c b13d
00000100: 5499 5c3e 209e 203e c080 e5bd c056 d83d
00000110: 50f0 f53c dcd4 3bbc e239 7e3d 876e ff3d
00000120: 2faf 76be 0e18 04be 28d9 ec3c d24d 413e
00000130: cf30 3cbe 4868 00be 3dad 86bc 074c 033e
00000140: c97b 74be eb56 e43d ec05 36be 8ba3 803e
00000150: 6444 8fbd 6f7b 92bd b91d 76bc 1217 a1bc
00000160: c9b0 6e3e 5715 063e 27c2 67be 2cd4 0d3e
00000170: e2cf 273e 0508 dabd 7807 4dbe 2cbc b7bd
00000180: 1cdf 62bd 7655 153d 0fb6 a73c 3edb 803e
00000190: 9d96 91bd 85d1 4abd 362e 4c3e 4eb6 62be
000001a0: 0e6a 163d 42e2 0f3d f7a8 8d3d 8d61 393e
000001b0: 14a2 4dbe 6eac e9bd c69c 7b3d a3a0 593e
000001c0: 5c1c 1dbd ffbe a4bd a92f 72be 8107 323e
000001d0: ec59 1cbe eec3 24be a6cc e5bd 1cf5 99bc
000001e0: 3186 d1bd 919b c73d 555a 743e 4308 b53c
000001f0: 313a 3ebe 3f6d 12be ec57 e6bc a3d5 09be
00000200: e7d9 79bd 96b2 0e3e 103e b3bd 1d6b f43d
00000210: 5613 07bd b784 133e 2212 02be 61b1 783e
00000220: d9bd 5f3e c217 06be d90e 783b 503c e1bd
00000230: d7fe 623e e766 12bf 0747 4c3d 4ef6 c73c
00000240: 4153 923e 977f 05bd cdeb 3bbe 9f5c 69bd
00000250: 9f0f eabd 6bb7 72bd cc50 5c3d c950 39be
00000260: f26c 2e3e 247a d1bc 0a8f 5abe 7e32 0fbe
00000270: f36e d83d 4914 2e3c b5ee 07bd da13 d9bd
00000280: 8c3c f43d f7c0 ea3d e830 5fbc 1ce8 4e3e
00000290: 580b e83d 754b afbd 2209 8bbe 98c1 473e
000002a0: d692 a1bb 31f9 063e 9d92 0ebd 3b0e 823d
000002b0: 4bf8 653e a686 9ebd 9732 143e f620 423e
000002c0: 9100 1a3e 3215 69be 255a 803e 908e 1a3e
000002d0: 18a9 a2bd f8e7 44be ac07 803d da5d d53d
000002e0: 3bef 3b3e 3056 24be d930 b3bd 3a0b 0b3e
000002f0: 1388 29be d82d dcbd 064e 50be 6944 fabd
00000300: 0265 273e 9b71 88bd 5aae acbc 8763 5fbc
00000310: e3a8 55be 6ad6 3cbd 7065 87bd b30a 2a3c
00000320: c564 2dbe 442f 84be 1c3b 413d f0e5 48be
00000330: a010 f9bb b414 133e 70b7 a83c 4a20 4bbe
00000340: 595c 5c3e f7c5 143e 4c89 fc3d 5539 133d
00000350: 285e 09bd 9d22 713c 865e 47bd d56e bb3c
00000360: a294 6a3d 323e 6d3e ce0b f13d 06e5 063e
00000370: 2c78 a83c 57ec 96be 38c2 49be 51c6 6bbe
00000380: 71aa 413e b38e c9bd d79d 1abe fea5 453d
00000390: de0a d73c 1891 1c3e f92f cfbd 1bc6 4a3d
000003a0: 906a 4cbe bc78 94bd eb70 34be 6d5f 003e
000003b0: d406 d43d d08e b1bc 3304 913c 9826 8bbe
000003c0: 72dc 9a3e 1145 043e ca13 623e cdef 6cbe
000003d0: 5388 42be 41d9 14be 32b1 6fbe c214 bb3d
000003e0: 77d4 a7bd edbc 29be 9cfa f53d 5518 4abc
000003f0: b625 8c3e 3f13 513e 07c7 863e a0d6 4fbd

transformer_encoder.layers.0.self_attn.in_proj_bias f4 [60]
-0.017113155 0.0031239954 -0.0044705053 0.0008660717 -0.009564897 0.017149245 0.03923708 0.042664967
0.02977062 -0.009068084 0.021496613 -0.013503744 -0.019294744 -0.024942346 0.017653644 0.01046817
-0.011134222 -0.043325156 0.0053243884 0.049727328 -2.9534686e-09 8.728795e-10 4.7637526e-11 -2.35433e-09
2.0109057e-09 1.6634953e-08 5.899024e-09 3.972499e-09 8.106465e-09 4.578984e-09 1.5466106e-10 3.4644282e-10
1.4218332e-10 -8.6272484e-10 -3.6904109e-09 3.4342373e-09 -5.7733187e-09 3.6842736e-09 2.9143439e-09 2.5717366e-09
-0.04771652 0.05100464 -0.025072685 -0.01611996 0.05722581 0.08537297 0.006438694 0.064076625
0.055539604 0.008948478 -0.018372973 0.012746432 -0.06649527 0.07205025 0.017744934 0.07129374
0.04336279 0.042512875 0.010689333 -0.01507238
00000000: e330 8cbc f2bb 4c3b 517d 92bb 1709 633a
00000010: 16b6 1cbc 937c 8c3c 0fb7 203d 76c1 2e3d
00000020: 84e1 f33c 4d92 14bc aa19 b03c cf3e 5dbc
00000030: 0310 9ebc e453 ccbc 609e 903c b082 2b3c
00000040: 506c 36bc b875 31bd 3578 ae3b e2ae 4b3d
00000050: f8f5 4ab1 6fef 6f30 1683 512e d0c9 21b1
00000060: 3a30 0a31 a6e4 8e32 5db0 ca31 797e 8831
00000070: 9c44 0b32 2b55 9d31 380d 2a2f 7e75 be2f
00000080: 0c55 1c2f dd24 6db0 659a 7db1 beff 6b31
00000090: a65e c6b1 6d2e 7d31 ae45 4831 78ba 3031
000000a0: 6672 43bd 3eea 503d 3b65 cdbc 020e 84bc
000000b0: 9c65 6a3d 06d8 ae3d aefb d23b 9b3a 833d
000000c0: 7f7d 633d a39c 123c eb82 96bc 69d6 503c
000000d0: ac2e 88bd 158f 933d d35d 913c 7402 923d
000000e0: 2e9d 313d fb21 2e3d 5022 2f3c 25f2 76bc

transformer_encoder.layers.0.self_attn.out_proj.weight f4 [20, 20]
0.13370182 -0.109711915 -0.08567936 0.1469731 0.26224813 0.05215239 0.4105618 0.115764305
-0.06735116 0.06823877 -0.18679261 0.054845244 -0.0140249645 -0.016092498 0.08210139 -0.36609417
0.118337356 0.08563948 0.36060536 0.08886936 0.14815304 -0.08536209 0.0694375 -0.053913645
0.096070886 -0.053675983 -0.26718277 -0.17044888 -0.15373032 -0.07166696 -0.041105 0.068370454
0.12706318 -0.19814308 -0.102619566 0.06612416 -0.073286496 0.05432212 0.04620033 -0.09360712
-0.15550344 -0.03672555 -0.09571112 -0.145138 0.1745629 -0.15389183 -0.1842196 0.021112116
-0.21504737 -0.035339884 -0.1345379 -0.15376449 0.017153736 0.07973242 0.028477643 -0.18290523
0.14867334 -0.1060604 0.100736566 -0.22096378 0.055100407 -0.042941693 0.01626974 0.006935387
0.19957304 -0.2628521 0.111979894 -0.02091461 0.124465965 0.073313676 0.0050953757 -0.1126307
0.12111079 0.06582629 0.3179925 -0.14837632 -0.10127337 0.08863774 -0.0007355881 0.2770256
-0.044727385 0.103743434 -0.21909936 -0.1918344 -0.029609928 0.00026900938 0.19650462 -0.03887765
0.17802985 0.049904592 -0.018598197 0.05161652 -0.20593429 0.21391442 -0.089577794 -0.15598059
0.062646545 0.04969706 0.105819315 -0.12995185 0.26100448 0.081341825 -0.20592935 -0.01586337
-0.081780255 -0.08218404 -0.35885978 -0.17130128 -0.028279629 0.22606961 -0.2185774 -0.011336281
0.0048178593 0.015676454 0.049287997 0.17139335 -0.042234823 -0.04459557 0.17027165 -0.15893959
0.062256914 -0.100326285 -0.121781945 0.088680975 0.20760468 -0.21103565 0.17059724 0.052084446
0.21772242 0.14743613 0.07784545 0.043309484 0.20206349 -0.13070221 -0.16506383 0.18905191
0.01784371 0.06722018 -0.15076475 -0.102118194 0.08166208 -0.13251476 0.14200029 -0.071066245
0.11579438 -0.059798434 -0.07984966 0.113212615 0.12605886 -0.10679626 -0.16903944 -0.18277116
0.13316125 -0.05764074 -0.07599836 -0.068698116 0.08366403 0.14878951 -0.039842352 -0.0756185
0.024588093 0.19640633 0.19292025 0.013235817 -0.09380842 0.053195555 -0.054288864 0.22138987
0.004760917 -0.034351528 -0.17539515 -0.10889638 -0.07368555 0.14690697 0.034378164 0.1989162
-0.023655716 0.07436122 0.10373833 -0.27051947 0.15696006 -0.16241162 0.22307469 -0.124569945
0.23477843 -0.10714563 0.059809916 0.05578378 0.2279719 -0.1475504 0.00043753558 0.069741435
-0.17612764 -0.101186626 -0.026247447 0.17582458 -0.14910422 0.12954707 -0.1975233 -0.1573743
0.2366986 -0.17797667 0.11020788 -0.049644727 0.10658087 -0.005559629 0.17784879 0.03570484
-0.16010973 -0.02202296 0.00070125895 -0.09263592 0.010543079 0.041925475 -0.005980319 0.20125134
0.009692838 0.18822537 -0.020115985 0.08578835 0.15312676 0.08608059 -0.008525003 -0.1871586
0.066464484 -0.24307078 -0.26014712 0.058843356 0.2363847 -0.020747742 -0.039146148 -0.00675718
-0.10029404 0.016333397 -0.03559122 0.19883487 -0.31423387 -0.1717948 0.018022137 0.024470469
-0.1682939 -0.09816324 0.30934384 -0.17259814 -0.10414091 0.037711356 0.062795565 0.10085757
-0.28823715 0.16175872 0.14218517 -0.032484215 -0.03346723 0.21328183 -0.007484478 0.25375348
00000000: 21e9 083e a4b0 e0bd a978 afbd 1e80 163e
00000010: 6345 863e bf9d 553d 2835 d23e d615 ed3d
00000020: 68ef 89bd c5c0 8b3d 9046 3fbe 68a5 603d
00000030: f7c8 65bc 6ad4 83bc c624 a83d b270 bbbe
00000040: db5a f23d c063 af3d 44a1 b83e 2401 b63d
00000050: 6eb5 173e 52d2 aebd 3f35 8e3d 8ed4 5cbd
00000060: d0c0 c43d 59db 5bbd 2ecc 88be 278a 2ebe
00000070: 7b6b 1dbe 21c6 92bd b75d 28bd cf05 8c3d
00000080: da1c 023e 05e6 4abe 352a d2bd 1b6c 873d
00000090: 3b17 96bd df80 5e3d 8f3c 3d3d 17b5 bfbd
000000a0: 4b3c 1fbe 886d 16bd 3104 c4bd 0e9f 14be
000000b0: 9ec0 323e d295 1dbe 10a4 3cbe 51f3 ac3c
000000c0: 6135 5cbe 8ec0 10bd 4ec4 09be 7074 1dbe
000000d0: fe85 8c3c c04a a33d f249 e93c 824b 3bbe
000000e0: d33d 183e 3236 d9bd f94e ce3d 5444 62be
000000f0: f7b0 613d a1e3 2fbd 1e48 853c 3e42 e33b
00000100: e05c 4c3e 8d94 86be b755 e53d 1e55 abbc
00000110: 03e8 fe3d 7b25 963d 1cf7 a63b edaa e6bd
00000120: ef08 f83d efcf 863d eacf a23e f6ef 17be
00000130: 6a68 cfbd b487 b53d 7bd4 40ba 4dd6 8d3e
00000140: 1034 37bd 7077 d43d 955b 60be 3d70 44be
00000150: 8590 f2bc d409 8d39 8238 493e 2c3e 1fbd
00000160: 754d 363e c268 4c3d 3f5b 98bc d86b 533d
00000170: 70e0 52be 620c 5b3e 9074 b7bd 60b9 1fbe
00000180: d54c 803d 258f 4b3d ccb7 d83d 1912 05be
00000190: 61a2 853e 8b96 a63d 25df 52be e6f3 81bc
000001a0: 687c a7bd 1b50 a8bd 78bc b7be 9a69 2fbe
000001b0: aeaa e7bc cb7e 673e c1d2 5fbe cfbb 39bc
000001c0: 22df 9d3b e86b 803c 36e2 493d bd81 2f3e
000001d0: 6cfe 2cbd d8a9 36bd b15b 2e3e 0fc1 22be
000001e0: 1b01 7f3d de77 cdbd d068 f9bd 5f9e b53d
000001f0: 5296 543e bb19 58be 0bb1 2e3e 8056 553d
00000200: a0f2 5e3e 7ff9 163e 6f6d 9f3d 4965 313d
00000210: bbe9 4e3e cdd6 05be 7e06 29be d396 413e
00000220: f92c 923c bcaa 893d 1362 1abe 5823 d1bd
00000230: 733e a73d f3b1 07be 8668 113e 2e8b 91bd
00000240: 9b25 ed3d 34ef 74bd 3888 a3bd 04dc e73d
00000250: 9315 013e ffb7 dabd ad18 2dbe 5d28 3bbe
00000260: 6c5b 083e b218 6cbd 07a5 9bbd 99b1 8cbd
00000270: 0c58 ab3d 475c 183e bc31 23bd dfdd 9abd
00000280: f86c c93c be1e 493e e38c 453e 0adb 583c
00000290: a11e c0bd 95e3 593d 005e 5ebd 07b4 623e
000002a0: 7701 9c3b 30b4 0cbd c99a 33be 1105 dfbd
000002b0: 73e8 96bd c86e 163e 1ed0 0c3d b0b0 4b3e
000002c0: a2c9 c1bc b24a 983d c374 d43d 8781 8abe
000002d0: 23ba 203e 3b4f 26be b16d 643e 871e ffbd
000002e0: c269 703e 2b6f dbbd 3efb 743d 887d 643d
000002f0: 7771 693e 7417 17be 0865 e539 99d4 8e3d
00000300: ce5a 34be ef3a cfbd e304 d7bc 5c0b 343e
00000310: c7ae 18be fda7 043e 8c43 4abe ba26 21be
00000320: 1e61 723e 843f 36be abb4 e13d 4558 4bbd
00000330: 1247 da3d 8c2d b6bb fe1d 363e 3d3f 123d
00000340: cef3 23be 7f69 b4bc b1d4 373a e7b7 bdbd
00000350: e1bc 2c3c 0cba 2b3d 8df6 c3bb d514 4e3e
00000360: b6ce 1e3c 27be 403e 47ca a4bc cdb1 af3d
00000370: 43cd 1c3e 054b b03d 74ac 0bbc 81a6 3fbe
00000380: 881e 883d 8ce7 78be 0132 85be bb05 713d
00000390: d50e 723e 2bf7 a9bc b657 20bd 566b ddbb
000003a0: f666 cdbd 9ecd 853c 19c8 11bd 5e9b 4b3e
000003b0: 43e3 a0be faea 2fbe 29a3 933c 4b76 c83c
000003c0: 3c55 2cbe cf09 c9bd 5162 9e3e 91bd 30be
000003d0: d447 d5bd 3977 1a3d f69a 803d 6a8e ce3d
000003e0: d293 93be 14a4 253e fd98 113e 2b0e 05bd
000003f0: ef14 09bd 8d66 5a3e 5a40 f5bb faeb 813e

transformer_encoder.layers.0.self_attn.out_proj.bias f4 [20]
-0.021870572 0.050025444 0.03469819 0.037752345 0.022172859 0.024703689 -0.020157307 0.028878525
-0.014143855 -0.019560484 0.0060569616 -0.04310069 0.036639404 -0.08663443 0.034828927 -0.0216775
-0.0035843125 -0.03835531 0.014116249 -0.020787977
00000000: ea29 b3bc 7be7 4c3d b01f 0e3d 34a2 1a3d
00000010: dba3 b53c 645f ca3c f020 a5bc a892 ec3c
00000020: a1bb 67bc 4f3d a0bc 7a79 c63b 598a 30bd
00000030: 3313 163d 646d b1bd c7a8 0e3d 0395 b1bc
00000040: c9e6 6abb 751a 1dbd d747 673c 8c4b aabc

transformer_encoder.layers.0.linear1.weight f4 [20, 20]
-0.09063177 0.1445181 0.061954398 0.19533688 -0.09239008 -0.022178216 -0.15739901 0.18251103
-0.03239068 -0.00447401 -0.118630596 0.037719477 0.06800357 0.044370808 0.030607263 0.087608
0.19545798 -0.14539514 -0.058499865 -0.11158099 -0.25024036 0.18471491 -0.22293793 0.04124932
0.06256664 -0.020287981 0.028829616 -0.17727986 0.1670016 -0.036121823 -0.034829535 0.09262127
-0.058034506 -0.14233893 0.15482122 0.19581778 0.13772546 -0.055928383 -0.11825717 0.07560095
0.17132919 0.21168177 0.23017499 0.19350606 0.0058562136 0.1785092 0.21719725 -0.051732436
-0.085789725 0.04444998 -0.30597103 0.0079879705 0.008107491 0.10538199 -0.1807477 -0.049201984
-0.0886242 0.20041893 0.044211585 -0.02296902 -0.067530334 -0.15079431 0.05416118 0.25170258
-0.03750207 -0.014057577 -0.07241324 0.14248793 -0.1594152 -0.07163576 0.13557748 -0.17005204
0.15187423 0.044664953 -0.060763955 0.10760041 -0.103312336 -0.19505076 0.03147438 0.17956452
0.058363926 -0.20209323 -0.095355324 -0.31748256 0.13837427 0.3618211 0.010524618 -0.19601296
0.00033580002 -0.1301256 0.034991834 -0.09407954 -0.12177476 0.14916852 0.07020533 -0.23843253
-0.18051614 0.030105513 0.08888179 -0.06972897 -0.02716619 -0.46158463 0.00076347677 -0.07386751
0.10203133 -0.31299698 0.024270594 -0.0793614 -0.11064498 -0.04854375 -0.03231245 -0.041511104
-0.0039159027 0.009727928 0.18548381 0.32237148 -0.06195539 0.07728344 0.22887234 0.122477986
-0.020415187 0.11886438 -0.10579038 -0.19918649 0.14905684 0.3545968 -0.09674046 -0.22739962
-0.06553602 0.14526248 -0.14442134 -0.23786059 -0.21155909 -0.1298973 0.057428252 -0.058480807
-0.0340605 0.062433254 0.024180008 -0.23929456 0.21090604 0.16620399 -0.071142845 -0.024163233
-0.09234059 0.22269905 -0.22887863 0.0832933 -0.06408486 -0.22072752 -0.17838185 -0.18228355
0.1139176 -0.22938886 0.13049869 -0.17961282 0.03143354 -0.24057055 -0.1697831 -0.09407985
-0.14309323 0.20021941 0.18797222 -0.12238232 0.074917786 -0.0033587315 0.0703771 0.27046958
-0.13170953 -0.12934905 0.14236376 0.24701233 -0.07211515 0.10751188 -0.057528194 -0.2288834
0.13702734 -0.07395237 0.10046995 0.12302052 0.013590945 -0.27103403 -0.013554401 0.24258335
0.24044535 0.07342891 -0.08556907 0.12000674 0.044219207 -0.07011312 0.12469702 0.15022807
0.14143784 -0.16003495 -0.09853895 -0.009473367 -0.14789493 0.17358343 -0.0827568 -0.026332527
-0.00538738 0.17790082 -0.06376595 0.19439936 0.19545013 -0.041065324 -0.009224475 -0.020832445
0.22974944 -0.17674048 -0.17971826 -0.18237764 0.094770096 0.09961911 -0.024631307 0.12813297
-0.13229032 -0.19268632 0.07487885 -0.16793588 0.072727606 -0.24928953 0.05590076 -0.1779834
-0.012365823 -0.24113125 0.12451361 -0.14259084 -0.107111305 0.11509026 -0.024977012 -0.039460085
-0.1851515 0.0044309953 0.1657376 0.1582996 -0.17598444 -0.17488655 0.13277882 0.09740147
0.052442975 0.196033 -0.023589194 0.17361423 0.060932163 -0.030211816 0.17218933 0.19365078
0.1536486 0.10319831 0.015702737 -0.17184001 -0.1655573 0.09575906 -0.10253212 -0.114624836
00000000: 269d b9bd 8efc 133e e5c3 7d3d 6406 483e
00000010: 0337 bdbd 17af b5bc 352d 21be 2ce4 3a3e
00000020: 17ac 04bd b79a 92bb 99f4 f2bd bd7f 1a3d
00000030: 7545 8b3d 2abe 353d 15bc fa3c d36b b33d
00000040: 2326 483e 77e2 14be 8e9d 6fbd 9384 e4bd
00000050: 811f 80be e825 3d3e d749 64be 0cf5 283d
00000060: f022 803d fb32 a6bc 162c ec3c da88 35be
00000070: 7802 2b3e 7af4 13bd 6aa9 0ebd 38b0 bd3d
00000080: 97b5 6dbd 4cc1 11be 7489 1e3e 7584 483e
00000090: e707 0d3e 2915 65bd d130 f2bd acd4 9a3d
000000a0: eb70 2f3e 1bc3 583e feb2 6b3e 7426 463e
000000b0: 7be5 bf3b 1ecb 363e f568 5e3e 64e5 53bd
000000c0: 86b2 afbd 2f11 363d 3ca8 9cbe fadf 023c
000000d0: 48d5 043c 83d2 d73d ed15 39be 0588 49bd
000000e0: 9b80 b5bd 9f3a 4d3e 3517 353d 8729 bcbc
000000f0: 584d 8abd d369 1abe 1dd8 5d3d 29df 803e
00000100: c59b 19bd c051 66bc 654d 94bd 5be8 113e
00000110: bd3d 23be c5b5 92bd d3d4 0a3e 1f22 2ebe
00000120: eb84 1b3e 99f2 363d a0e3 78bd 9b5d dc3d
00000130: 6b95 d3bd 63bb 47be 48eb 003d c3df 373e
00000140: 030f 6f3d 87f1 4ebe a749 c3bd 138d a2be
00000150: fcb1 0d3e 9d40 b93e 736f 2c3c 9fb7 48be
00000160: 510e b039 a53f 05be 9953 0f3d c6ac c0bd
00000170: 0c65 f9bd a2bf 183e d0c7 8f3d a827 74be
00000180: 39d9 38be d69f f63c a807 b63d 10ce 8ebd
00000190: a18b debc d254 ecbe 0f24 483a d947 97bd
000001a0: cdf5 d03d 2441 a0be 20d3 c63c 3b88 a2bd
000001b0: d699 e2bd d0d5 46bd 0f5a 04bd 8c07 2abd
000001c0: f950 80bb e361 1f3c 78ef 3d3e e00d a53e
000001d0: efc4 7dbd c846 9e3d 835d 6a3e bdd5 fa3d
000001e0: c03d a7bc 2b6f f33d a0a8 d8bd 8bf7 4bbe
000001f0: 5ba2 183e b68d b53e dd1f c6bd 72db 68be
00000200: c037 86bd b0bf 143e 30e3 13be ba91 73be
00000210: f2a2 58be cc03 05be e339 6b3d 9289 6fbd
00000220: 0683 0bbd 03ba 7f3d 2715 c63c a209 75be
00000230: c1f7 573e 6131 2a3e 57b3 91bd f9f1 c5bc
00000240: 101d bdbd 380b 643e 295f 6abe ad95 aa3d
00000250: ec3e 83bd 6506 62be bba9 36be 8aa8 3abe
00000260: a14d e93d eae4 6abe 73a1 053e 6cec 37be
00000270: 75c0 003d 2058 76be 9fdb 2dbe f0ac c0bd
00000280: 0887 12be 5106 4d3e ca7b 403e 95a3 fabd
00000290: 7f6e 993d 2a1e 5cbb de21 903d fd7a 8a3e
000002a0: ddde 06be 1474 04be cec7 113e cdf0 7c3e
000002b0: 1cb1 93bd 302f dc3d afa2 6bbd 6960 6abe
000002c0: e550 0c3e 5774 97bd 30c3 cd3d 2ff2 fb3d
000002d0: 8eac 5e3c f9c4 8abe 4713 5ebc c567 783e
000002e0: 4e37 763e e561 963d d63e afbd 18c6 f53d
000002f0: 331f 353d 7897 8fbd 2761 ff3d 63d5 193e
00000300: 15d5 103e 34e0 23be cace c9bd 2e36 1bbc
00000310: c571 17be dbbf 313e 667c a9bd 50b7 d7bc
00000320: 9e88 b0bb a22b 363e b997 82bd a010 473e
00000330: 1424 483e 1d34 28bd 4122 17bc cea8 aabc
00000340: 7043 6b3e 75fb 34be 1008 38be 34c1 3abe
00000350: d316 c23d 1b05 cc3d 98c7 c9bc 4a35 033e
00000360: 1d77 07be 904f 45be 155a 993d 62f7 2bbe
00000370: 36f2 943d c145 7fbe 32f8 643d 4841 36be
00000380: 059a 4abc 1ceb 76be fe00 ff3d 5503 12be
00000390: 2c5d dbbd 71b4 eb3d 979c ccbc e6a0 21bd
000003a0: 5b98 3dbe e231 913b 1eb7 293e 4a19 223e
000003b0: 4435 34be 7615 33be 2cf7 073e 6c7a c73d
000003c0: 72ce 563d e0bc 483e 203e c1bc eec7 313e
000003d0: 0194 793d c57e f7bc 6652 303e 644c 463e
000003e0: 0f56 1d3e a359 d33d 07a3 803c d4f6 2fbe
000003f0: da87 29be 531d c43d 5cfc d1bd 6dc0 eabd

transformer_encoder.layers.0.linear1.bias f4 [20]
-0.082972884 0.1026046 -0.18357624 -0.06081395 0.16730931 0.0012076424 -0.22616133 -0.23109673
0.028703481 0.07951812 0.11122466 -0.018380743 0.053385008 -0.047627144 -0.1180357 -0.091028206
-0.19021823 -0.15584096 -0.14264856 -0.21144809
00000000: b0ed a9bd 5c22 d23d 69fb 3bbe 0c18 79bd
00000010: 2253 2b3e c149 9e3a d696 67be 9fa4 6cbe
00000020: 9023 eb3c 65da a23d c1c9 e33d 3693 96bc
00000030: 3daa 5a3d ae14 43bd b3bc f1bd ff6c babd
00000040: 91c8 42be c694 1fbe 7712 12be d985 58be

transformer_encoder.layers.0.linear2.weight f4 [20, 20]
0.04141885 -0.20791769 -0.09415081 0.21538122 -0.2067683 0.42042267 0.06888147 0.16951816
-0.14733656 0.25300506 0.094606906 0.31159964 -0.12047624 0.015790261 0.19318907 0.18630192
0.2717228 -0.09251051 -0.04975707 0.1001808 0.13575159 0.055880047 -0.04395766 0.04834529
-0.034043483 0.2599626 0.11958045 -0.15798715 0.12540944 0.008178822 -0.104954205 -0.023037244
0.13624611 -0.05051064 0.11267652 -0.09972164 0.007685351 -0.002570525 0.006360726 -0.009337664
0.047670566 -0.052030995 0.19358024 -0.114946775 -0.1291956 0.25784704 -0.1274452 0.26270193
0.17333873 0.15806356 0.0096738 -0.02326338 0.0018055104 -0.051547803 0.08980229 -0.15842406
-0.07423609 0.03424267 0.04203812 0.05441239 0.15252073 -0.008803838 -0.0033916465 -0.08976702
0.028013563 0.03953663 0.11957245 0.14533572 0.0024062244 -0.14776276 0.040297896 -0.016013725
0.04709857 -0.0011196544 0.14676738 0.15647982 -0.10048958 0.012164757 0.050282225 -0.10357213
-0.04702893 0.0030331358 -0.1689496 0.05786733 0.08377069 0.1793418 0.086076654 0.1000922
0.17107658 0.118174486 -0.12479712 -0.10270025 0.10859434 0.20343702 -0.0954258 0.25924465
0.11205917 -0.19977704 0.054768965 0.05411049 0.19447227 0.07110688 -0.13483314 -0.037768625
0.03989395 0.1846862 -0.19157204 -0.11658032 -0.07458162 -0.016833983 0.009124268 0.020131791
0.09708167 -0.0905716 -0.17139404 -0.19125617 0.05480591 0.049160875 -0.044971127 0.1486083
-0.13319607 0.08794902 -0.113940775 0.17360264 -0.017157577 0.10409379 -0.06563407 0.0018633592
-0.32824278 0.14064331 0.029992217 -0.117635444 0.09245649 -0.20813818 0.038406976 0.25979704
0.10828045 0.027504088 0.013600004 0.015359634 0.15930744 0.17227267 0.11308236 -0.15719454
0.20220023 -0.17981692 0.21227379 0.0072872685 0.20539765 0.022642814 0.15864852 0.027779914
0.053400785 0.105755225 0.14667077 -0.17538477 -0.0895063 0.079508595 0.09263993 0.103498474
0.058097284 0.111863084 -0.16877382 0.20235622 -0.07722264 0.10620448 -0.28827274 0.065454565
-0.01587548 0.18019755 -0.14118575 -0.16657124 0.10919073 -0.09517377 0.028123861 -0.13465151
0.24610478 0.17528643 0.11406896 0.037977315 0.11868568 0.17363161 0.12792665 0.0066471696
-0.18279935 -0.274572 -0.060944006 -0.091585875 -0.065593764 -0.06879965 -0.058061324 -0.0280784
0.16067158 -0.061159164 -0.07169922 -0.05259685 0.058528997 -0.094120026 0.12663946 -0.24141827
-0.12973298 -0.24262197 0.09560152 0.16054739 0.25520954 -0.14585255 0.21279505 0.21966891
-0.094226345 0.078002185 0.20329335 -0.08086645 0.002147957 -0.04689904 -0.15446723 -0.009809201
-0.27361938 0.12473638 -0.065439396 -0.27131712 0.19458096 0.15210997 -0.0012003443 -0.20432436
0.15762089 -0.0016440992 0.24437678 -0.10267672 0.14804824 0.09066452 0.07882869 -0.34873122
-0.28714827 0.050114177 0.010133654 0.12612884 0.081913434 -0.13518174 0.033595443 -0.13768137
-0.04188992 -0.1779421 0.11830927 -0.16004357 0.030053131 -0.16459543 -0.10312533 -0.060141034
-0.14317536 -0.236109 -0.15847304 -0.21563381 0.18321058 0.13795851 0.028951032 0.16760226
00000000: d0a6 293d 60e8 54be 24d2 c0bd e58c 5c3e
00000010: 12bb 53be a441 d73e ba11 8d3d 2b96 2d3e
00000020: 65df 16be e189 813e 44c1 c13d fd89 9f3e
00000030: 3fbc f6bd 945a 813c 5bd3 453e eec5 3e3e
00000040: 401f 8b3e 2676 bdbd 12ce 4bbd 972b cd3d
00000050: 7702 0b3e 7ae2 643d f30c 34bd b605 463d
00000060: 2e71 0bbd d119 853e 98e6 f43d 62c7 21be
00000070: 556b 003e 7700 063c 3bf2 d6bd 9ab8 bcbc
00000080: 1a84 0b3e 3fe4 4ebd f3c2 e63d dc3a ccbd
00000090: 66d5 fb3b 4176 28bb a36d d03b 00fd 18bc
000000a0: 3642 433d 741e 55bd e639 463e 3769 ebbd
000000b0: da4b 04be 8704 843e ff80 02be de80 863e
000000c0: b57f 313e 6adb 213e dc7e 1e3c d892 bebc
000000d0: e0a6 ec3a ca23 53bd 43ea b73d eb39 22be
000000e0: 1709 98bd 0b42 0c3d 2a30 2c3d 87df 5e3d
000000f0: 652e 1c3e f93d 10bc 6346 5ebb c5d7 b7bd
00000100: b37c e53c 29f1 213d 67e2 f43d e3d2 143e
00000110: bfb1 1d3b 1f4f 17be 680f 253d 372f 83bc
00000120: 6eea 403d 5ec1 92ba 304a 163e 3f3c 203e
00000130: 7bcd cdbd b04e 473c bcf4 4d3d a01d d4bd
00000140: 68a1 40bd 93c7 463b 2001 2dbe 4b06 6d3d
00000150: f88f ab3d 60a5 373e f548 b03d 24fd cc3d
00000160: b32e 2f3e 7705 f23d a295 ffbd 8254 d2bd
00000170: b666 de3d cb51 503e 9a6e c3bd b7bb 843e
00000180: 477f e53d 5a92 4cbe 6c55 603d f6a2 5d3d
00000190: bd23 473e 7ca0 913d b311 0abe 46b3 1abd
000001a0: d767 233d 611e 3d3e 762b 44be aac1 eebd
000001b0: 40be 98bd 6ce7 89bc f47d 153c 6deb a43c
000001c0: c1d2 c63d 9a7d b9bd eb81 2fbe a8d8 43be
000001d0: 297c 603d ea5c 493d a533 38bd c62c 183e
000001e0: 8d64 08be 9e1e b43d c859 e9bd e4c4 313e
000001f0: 0c8e 8cbc 202f d53d 286b 86bd f63b f43a
00000200: 700f a8be cd04 103e 3db2 f53c daea f0bd
00000210: d459 bd3d 2d22 55be a250 1d3d 1e04 853e
00000220: 24c2 dd3d 4150 e13c 8dd2 5e3c f9a6 7b3c
00000230: 7d21 233e 3f68 303e b997 e73d 9bf7 20be
00000240: 940d 4f3e ed21 38be 4d5e 593e 0aca ee3b
00000250: c353 523e 6c7d b93c c274 223e b492 e33c
00000260: c8ba 5a3d 3296 d83d dd30 163e 1198 33be
00000270: 144f b7bd 67d5 a23d 01ba bd3d 02f7 d33d
00000280: 6bf7 6d3d 7918 e53d 0bd3 2cbe 7836 4f3e
00000290: e726 9ebd bc81 d93d 7c98 93be 0b0d 863d
000002a0: 4b0d 82bc b585 383e ff92 10be a791 2abe
000002b0: 649f df3d 77ea c2bd 0364 e63c 16e2 09be
000002c0: e402 7c3e 497e 333e fd9c e93d 1a8e 1b3d
000002d0: 7a11 f33d 7ccc 313e 34ff 023e 80d0 d93b
000002e0: c12f 3bbe b494 8cbe 6ca0 79bd 6091 bbbd
000002f0: 0656 86bd d5e6 8cbd b6d1 6dbd ac04 e6bc
00000300: 1787 243e 0882 7abd 0ad7 92bd cb6f 57bd
00000310: 1abc 6f3d 00c2 c0bd c6ad 013e 5a36 77be
00000320: b9d8 04be e571 78be bbca c33d 8966 243e
00000330: d3aa 823e 5f5a 15be f2e6 593e e3f0 603e
00000340: bef9 c0bd 9cbf 9f3d 222c 503e 4f9d a5bd
00000350: bdc4 0c3b 3519 40bd a82c 1ebe c5b6 20bc
00000360: d717 8cbe ca75 ff3d 1705 86bd 14ea 8abe
00000370: 3b40 473e b7c2 1b3e df54 9dba 683a 51be
00000380: 5f67 213e d17e d7ba e83d 7a3e 2c48 d2bd
00000390: f599 173e 52ae b93d f070 a13d e68c b2be
000003a0: 1905 93be 8644 4d3d a007 263c eb27 013e
000003b0: 3bc2 a73d 156d 0abe 609b 093d 58fc 0cbe
000003c0: c494 2bbd 7436 36be 214c f23d 76e2 23be
000003d0: fc31 f63c b48b 28be 5f33 d3bd 7256 76bd
000003e0: 909c 12be 8fc6 71be c246 22be 1ccf 5cbe
000003f0: 8e9b 3b3e ff44 0d3e b72a ed3c ed9f 2b3e

transformer_encoder.layers.0.linear2.bias f4 [20]
0.10917594 0.013633798 0.21103656 0.004333001 0.14060053 0.029843323 -0.02673334 -0.12992881
0.0017896511 -0.04698712 0.20595138 -0.034470327 0.04587042 0.06786569 -0.010722565 -0.05455377
0.15049806 -0.054292757 0.18925235 -0.11071607
00000000: a397 df3d 4b60 5f3c f819 583e d9fb 8d3b
00000010: 96f9 0f3e fc79 f43c e1ff dabc 0f0c 05be
00000020: ba92 ea3a 9175 40bd ebe4 523e c230 0dbd
00000030: 9fe2 3b3d 2bfd 8a3d b3ad 2fbc c673 5fbd
00000040: 2a1c 1a3e 1562 5ebd 5ecb 413e 1bbf e2bd

transformer_encoder.layers.0.norm1.weight f4 [20]
1.3328078 1.2128227 1.0949881 1.1723119 1.0104824 1.2106462 1.071741 0.9251148
1.035679 0.986751 0.9950472 1.0505272 0.90095633 0.93510723 0.98014444 0.78136593
0.94371206 1.0697529 0.9796558 0.9848968
00000000: 7299 aa3f c63d 9b3f 9228 8c3f 510e 963f
00000010: 7d57 813f 74f6 9a3f cf2e 893f 53d4 6c3f
00000020: 2191 843f b79b 7c3f 6abb 7e3f ad77 863f
00000030: 13a5 663f 3063 6f3f bfea 7a3f 9907 483f
00000040: 1d97 713f aaed 883f b9ca 7a3f 3222 7c3f

transformer_encoder.layers.0.norm1.bias f4 [20]
-0.030122947 0.05801776 0.046695035 0.015717363 0.027652321 0.04194101 -0.06591546 0.05656868
0.0093194125 -0.058956333 0.04470421 -0.031841833 0.060723655 -0.04611822 0.047588114 -0.043836415
0.014520197 -0.059675302 0.04844778 -0.050595045
00000000: 66c4 f6bc 08a4 6d3d 4b43 3f3d b3c1 803c
00000010: 1f87 e23c 56ca 2b3d affe 86bd 8fb4 673d
00000020: 73b0 183c 327c 71bd c31b 373d 956c 02bd
00000030: 5eb9 783d 75e6 3cbd c1eb 423d d08d 33bd
00000040: 1fe6 6d3c 176e 74bd 2e71 463d c03c 4fbd

transformer_encoder.layers.0.norm2.weight f4 [20]
1.388332 0.91023993 1.1353414 1.0142429 1.0741203 1.0043914 1.1331012 0.937943
1.0872052 1.0586232 0.96431524 1.0925446 0.8975466 0.97164035 0.98199135 0.81542796
0.9553683 1.1191145 1.004937 1.0734848
00000000: ddb4 b13f 7c05 693f de52 913f b6d2 813f
00000010: c67c 893f e68f 803f 7609 913f 081d 703f
00000020: 8a29 8b3f f780 873f 5ddd 763f 80d8 8b3f
00000030: 9dc5 653f 6cbd 783f c963 7b3f e3bf 503f
00000040: 0493 743f 253f 8f3f c7a1 803f f367 893f

transformer_encoder.layers.0.norm2.bias f4 [20]
0.009926296 0.071069285 0.07626585 0.078306615 0.0061297785 -0.004918041 -0.05608833 0.08962285
0.00977601 -0.060194977 0.03734628 -0.02563532 0.027610801 -0.0027190766 0.07973308 0.026042085
-0.023340644 -0.05978927 0.050122518 -0.040871754
00000000: e7a1 223c c68c 913d 4531 9c3d 385f a03d
00000010: 4fdc c83b 8527 a1bb e0bc 65bd 2f8c b73d
00000020: 8f2b 203c 028f 76bd 6af8 183d 2a01 d2bc
00000030: 0c30 e23c 8932 32bb 194b a33d 3656 d53c
00000040: e134 bfbc 98e5 74bd 454d 4d3d 2469 27bd

transformer_encoder.layers.1.self_attn.in_proj_weight f4 [60, 20]
-0.14189585 -0.26838785 0.21511243 0.052702896 0.17453259 0.060480338 -0.15960509 0.116435446
0.035557132 0.051003538 -0.19857652 0.24240099 -0.27931345 0.17933954 0.25471684 0.27066758
0.08256418 -0.10137303 -0.00805024 0.0150237195 0.22718525 -0.017880699 -0.24953972 0.09794359
0.0748653 0.11024656 0.16580799 -0.06994471 0.21063669 -0.034798 -0.004420773 -0.073256396
0.10027832 -0.07512319 0.22180131 0.1560662 0.2618294 0.02174716 0.041537423 -0.14398949
0.20307694 -0.24328569 0.026181167 -0.06783535 0.23591276 -0.22984487 0.16784538 -0.25558153
0.023980144 -0.10398449 -0.04947127 -0.04955998 0.034278426 -0.19373694 0.099745974 -0.16575147
-0.05834902 -0.3027495 -0.08630193 0.019913843 0.052488998 0.05256529 -0.1675871 0.069173574
0.24893095 0.17236316 -0.09142119 0.1412468 0.0148021085 0.010056365 0.05603317 0.12312265
-0.23022056 -0.08570624 0.016311826 0.1697008 -0.19966328 -0.112942554 -0.0115530435 0.0868319
-0.25755614 0.14693198 -0.17884193 0.23168562 -0.057549536 -0.049048517 0.006036412 -0.0030478653
0.22411183 0.15601546 -0.22857912 0.15634057 0.17753422 -0.07523097 -0.19988766 -0.08579417
-0.056501314 0.04867748 0.026936674 0.22513002 -0.0627167 -0.04883141 0.20234533 -0.24627317
0.09501772 0.03992745 0.025128566 0.1966528 -0.181543 -0.15453972 0.09866169 0.20191874
-0.042096876 -0.05076752 -0.2416887 0.14443038 -0.14460221 -0.21160421 -0.0700772 -0.046492834
-0.0791908 0.10840676 0.11789304 0.04547389 -0.17228411 -0.122245155 -0.04405012 -0.12927447
-0.17491832 0.1396102 -0.1200706 0.08454573 -0.063095175 0.1279687 -0.16984567 0.19354232
0.17203318 -0.12649833 -0.0037466944 -0.13126066 0.061807007 -0.20030196 0.038572498 0.08739757
0.31278327 -0.030192565 -0.2472823 -0.033760253 -0.15904741 -0.12653682 0.057603974 -0.21856436
0.16164528 0.026863119 -0.179556 -0.16924937 0.09633553 -0.022804042 -0.070914656 -0.12317234
0.16099744 -0.060886092 -0.054208286 0.17179321 0.123032875 -0.091569126 -0.24535526 0.18846339
-0.004805223 0.1595958 -0.043965463 0.043437224 0.22002812 -0.1361347 0.110831134 0.15988615
0.14122982 -0.21507052 0.25588033 0.14216055 -0.14878608 -0.06511695 0.123926595 0.12453823
0.19383419 -0.20310274 -0.098510556 0.15413965 -0.099231355 -0.13637413 -0.15073548 -0.10781572
0.18146054 -0.03101305 0.023410281 0.004475467 -0.17863297 -0.065794006 -0.07731427 0.02483145
-0.13566962 -0.22950266 -0.0038062017 -0.14509144 0.020421218 0.090669155 0.06436275 -0.16824661
0.18467097 0.16991849 0.10176182 -0.010895495 -0.012648719 0.018753035 -0.071327366 -0.0030515376
0.026380936 0.25132316 0.111528575 0.11328155 -0.028472407 -0.23896047 -0.26825458 -0.21508233
0.18657188 -0.090699874 -0.08066362 0.041069016 0.011052355 0.20370916 -0.12874886 0.023029443
-0.15628481 -0.061682746 -0.17644894 0.13888897 0.078824416 0.03364512 0.0037609413 -0.27395302
0.29880935 0.11816411 0.23358662 -0.261285 -0.18215692 -0.11530418 -0.252884 0.08311583
-0.0722937 -0.17456083 0.1378044 0.012642155 0.27196103 0.21833386 0.2701427 -0.032235026
00000000: 254d 11be 226a 89be 6f46 5c3e fede 573d
00000010: acb8 323e 3bba 773d 846f 23be b575 ee3d
00000020: 5ba4 113d 16e9 503d a557 4bbe f737 783e
00000030: 2c02 8fbe c9a4 373e 3f6a 823e f194 8a3e
00000040: 6917 a93d aa9c cfbd 27e5 03bc 0c26 763c
00000050: 40a3 683e 8b7a 92bc 5787 7fbe a696 c83d
00000060: fa52 993d f3c8 e13d 92c9 293e 2c3f 8fbd
00000070: 25b1 573e 5988 0ebd 22dc 90bb 7307 96bd
00000080: b85e cd3d 30da 99bd e21f 633e d1cf 1f3e
00000090: 810e 863e 1a27 b23c 2523 2a3d fb71 13be
000000a0: 67f3 4f3e e21f 79be e379 d63c 43ed 8abd
000000b0: 1d93 713e 745c 6bbe a9df 2b3e 95db 82be
000000c0: 0272 c43c d2f5 d4bd 63a2 4abd 68ff 4abd
000000d0: 8967 0c3d fa62 46be 9e47 cc3d c1ba 29be
000000e0: 62ff 6ebd fc01 9bbe 11bf b0bd 5b22 a33c
000000f0: b4fe 563d b44e 573d f49b 2bbe e0aa 8d3d
00000100: c1e7 7e3e f87f 303e 083b bbbd 00a3 103e
00000110: 8b84 723c 74c3 243c 0a83 653d ba27 fc3d
00000120: f0be 6bbe c186 afbd 61a0 853c 0cc6 2d3e
00000130: 8874 4cbe 6d4e e7bd fa48 3dbc ecd4 b13d
00000140: 66de 83be 5675 163e 5722 37be ff3e 6d3e
00000150: 10b9 6bbd 19e7 48bd 18cd c53b b2be 47bb
00000160: 927d 653e 84c2 1f3e a510 6abe be17 203e
00000170: 88cb 353e b212 9abd 5aaf 4cbe dbb4 afbd
00000180: ec6d 67bd 0a62 473d 4daa dc3c 7c88 663e
00000190: 9d71 80bd 7203 48bd 9d33 4f3e 092f 7cbe
000001a0: a698 c23d f78a 233d 6cda cd3c 5a5f 493e
000001b0: 68e6 39be a93f 1ebe 240f ca3d c9c3 4e3e
000001c0: c66d 2cbd 9af1 4fbd 3e7d 77be 8fe5 133e
000001d0: 9a12 14be c6ae 58be a384 8fbd 456f 3ebd
000001e0: c92e a2bd 5d04 de3d e871 f13d d442 3a3d
000001f0: 3f6b 30be ab5b fabd e66d 34bd 8760 04be
00000200: ca1d 33be faf5 0e3e 93e7 f5bd 5026 ad3d
00000210: 0b38 81bd 3a0a 033e 06ec 2dbe f52f 463e
00000220: 7729 303e c788 01be 1a8b 75bb 3269 06be
00000230: 5829 7d3d f51b 4dbe 32fe 1d3d 7ffd b23d
00000240: 2125 a03e 6656 f7bc 9237 7dbe 3148 0abd
00000250: 53dd 22be de92 01be 25f2 6b3d 56cf 5fbe
00000260: 5786 253e 0b10 dc3c 87dd 37be b54f 2dbe
00000270: 904b c53d 8bcf babc b43b 91bd c841 fcbd
00000280: 83dc 243e b263 79bd 8209 5ebd 8fea 2f3e
00000290: a9f8 fb3d 9888 bbbd 693e 7bbe 8cfc 403e
000002a0: 2275 9dbb 156d 233e 2115 34bd 3beb 313d
000002b0: 0d4f 613e e566 0bbe 6ffb e23d 32b9 233e
000002c0: 8d9e 103e 723b 5cbe bf02 833e 8992 113e
000002d0: 615b 18be 095c 85bd 3acd fd3d e60d ff3d
000002e0: 787c 463e 2afa 4fbe e7bf c9bd c9d6 1d3e
000002f0: cf39 cbbd a9a5 0bbe 675a 1abe 7dce dcbd
00000300: cbd0 393e 140f febc ebc6 bf3c f0a6 923b
00000310: 90eb 36be 02bf 86bd f256 9ebd 536b cb3c
00000320: faec 0abe bf02 6bbe 7871 79bb da92 14be
00000330: 664a a73c c0b0 b93d 9ed0 833d d748 2cbe
00000340: 631a 3d3e 1dff 2d3e 8068 d03d 0583 32bc
00000350: 933c 4fbc f79f 993c 1514 92bd 4efc 47bb
00000360: d51c d83c 6ead 803e 1869 e43d 2800 e83d
00000370: f73e e9bc 0eb2 74be aa58 89be 8b3e 5cbe
00000380: b30c 3f3e dbc0 b9bd f832 a5bd fc37 283d
00000390: f014 353c 2299 503e bed6 03be 3ea8 bc3c
000003a0: 2009 20be 0ca7 7cbd 08af 34be e938 0e3e
000003b0: b26e a13d 77cf 093d 207a 763b 9243 8cbe
000003c0: 8afd 983e 0600 f23d 5531 6f3e 26c7 85be
000003d0: 5887 3abe 9924 ecbd 037a 81be a238 aa3d
000003e0: b80e 94bd 13c0 32be 991c 0d3e 0b21 4f3c
000003f0: 7a3e 8b3e e992 5f3e 2550 8a3e e008 04bd

transformer_encoder.layers.1.self_attn.in_proj_bias f4 [60]
0.01144023 0.0073157973 0.028494583 -0.017557632 -0.018758442 0.053782064 -0.0022605378 0.01744162
0.035385914 -0.0019131717 -0.011070935 -0.036574855 0.005130962 -0.002156363 0.0015239733 -0.0020705163
-0.009478868 -0.069585964 -0.0038471988 0.04915237 -6.5222716e-10 -1.6103886e-09 1.0687684e-09 -1.2288309e-09
-1.5834167e-09 3.7630734e-09 1.0033694e-09 7.3752884e-09 1.8507187e-10 3.0354486e-10 -1.8366961e-09 -3.349513e-09
6.361401e-10 -5.047873e-10 -3.9400634e-09 -2.5672884e-09 2.2420048e-09 -3.3380347e-09 -7.61796e-10 -1.7935909e-09
0.00085712975 -0.052380323 0.022863828 -0.009594032 0.068761565 -0.012811973 0.00695846 0.024993598
0.052269507 -0.011244969 0.01290898 0.009542854 -0.018812869 -0.023752332 -0.058475524 -0.021465292
0.041478593 0.008151518 -0.03068303 0.014014655
00000000: cd6f 3b3c 5bb9 ef3b 796d e93c 06d5 8fbc
00000010: 4eab 99bc 954a 5c3d 8825 14bb bae1 8e3c
00000020: d2f0 103d 64c3 faba de62 35bc 84cf 15bd
00000030: a121 a83b c551 0dbb 0fc0 c73a 80b1 07bb
00000040: 414d 1bbc 1683 8ebd 4921 7cbb ff53 493d
00000050: 6848 33b0 8354 ddb0 f2e3 9230 a5e3 a8b0
00000060: 869f d9b0 584c 8131 ece6 8930 b969 fd31
00000070: 1a7d 4b2f 24e0 a62f 006f fcb0 412d 66b1
00000080: 61dc 2e30 40c1 0ab0 2a61 87b1 376c 30b1
00000090: c411 1a31 5463 65b1 a166 51b0 5f82 f6b0
000000a0: 01b1 603a c08c 56bd ec4c bb3c 4930 1dbc
000000b0: ddd2 8c3d 4fe9 51bc cb03 e43b 60bf cc3c
000000c0: 8d18 563d d23c 38bc 3080 533c a159 1c3c
000000d0: 721d 9abc 4094 c2bc 0884 6fbd fbd7 afbc
000000e0: 75e5 293d f28d 053c fa5a fbbc b99d 653c

transformer_encoder.layers.1.self_attn.out_proj.weight f4 [20, 20]
0.10725897 -0.013024693 -0.04604452 0.1206953 0.39204684 -0.13463736 0.1800487 0.053344563
-0.17418809 0.12735637 -0.21634743 0.012599193 -0.09493064 0.0050727716 0.051132284 -0.27797523
0.020910935 0.052690525 0.2748504 0.04961209 0.09842507 -0.14058326 0.07376202 0.08285594
0.121103816 -0.047866147 -0.3002381 -0.2223086 -0.28687283 -0.054289035 -0.044943433 0.10381313
0.122646816 -0.31668502 -0.10232656 -0.02736994 -0.052837938 0.015266309 0.06781493 -0.08369131
-0.13136195 0.033497944 -0.091022894 -0.21422312 0.15814681 -0.084352635 -0.16112055 0.029249843
-0.27215886 -0.12473415 -0.20060417 -0.18192966 0.087723374 -0.032977693 0.036730953 -0.06885314
0.15122797 0.009361245 0.055613007 -0.09568455 0.030574754 0.006515795 0.022461299 0.027613245
0.1696568 -0.21829666 0.10821846 0.04033276 0.113283776 0.070489064 0.037656445 -0.13124803
0.07415535 0.13129665 0.36828458 -0.14783566 -0.10044194 0.048648097 -0.027980587 0.19196874
-0.0059882817 0.019813577 -0.21544206 -0.15911388 0.016630676 -0.1130439 0.13510412 -0.13020253
0.15026185 0.053818107 -0.06412487 0.10147687 -0.16703652 0.17927292 -0.115847945 -0.14848146
0.069295175 0.12040782 0.14338216 -0.04217663 0.19961345 0.029985836 -0.18784048 0.04250404
0.080218434 -0.12865373 -0.3021289 -0.17118244 -0.06955696 0.29443374 -0.28108388 0.050310038
-0.13034077 -0.0054006306 0.17818087 0.13738328 -0.022551382 -0.12380872 0.119218566 -0.14109196
0.0968018 -0.089683786 -0.1589199 0.034512404 0.16979855 -0.18688098 0.18519679 0.09652185
0.39539546 0.21126227 0.0943994 0.054172162 0.1401004 0.12076866 -0.32770288 0.123828106
0.020459907 0.004078743 -0.13495953 -0.1877642 0.068503186 -0.14178897 0.15651055 -0.018992923
0.11211252 -0.07737329 -0.08520067 0.12402091 0.08085473 -0.13746221 -0.17732137 -0.16227776
0.1773455 -0.14822114 -0.024476899 -0.028021513 0.070810065 0.161686 -0.018655818 -0.090735205
0.08829191 0.122346506 0.25918543 -0.019313168 -0.07360029 0.11950057 -0.028319413 0.20139268
0.039424215 -0.13406219 -0.19548775 -0.13497072 -0.068393104 0.1470529 -0.004724657 0.14909905
-0.004801515 0.16055684 0.10606937 -0.15925603 0.1497879 -0.1544289 0.25117442 -0.20332775
0.10660644 0.05548401 0.14099465 0.09701522 0.21792705 -0.16252515 0.1188824 0.031065315
-0.15330124 0.018918462 -0.05870998 0.07011185 -0.12418274 0.09056013 -0.16191825 -0.21732378
0.21846123 -0.14401081 0.024869366 0.039341193 0.07607144 -0.037533868 0.19234516 0.07714757
-0.07404282 0.0027913281 0.010219611 -0.17721191 0.041183803 -0.016073506 0.060054958 0.22501168
0.026632437 0.16865583 0.01424051 0.012902288 0.16915578 0.08886327 -0.013728648 -0.261204
-0.04312901 -0.09525148 -0.11719771 0.081322536 0.27991647 -0.07740405 -0.013559572 0.0029177477
-0.022814415 0.029709902 -0.0025776927 0.1264773 -0.23314963 -0.19443251 0.08236782 0.030597022
-0.1578336 -0.07490839 0.23006299 -0.15607806 -0.2258283 0.10180265 0.13134934 0.17412308
-0.14039741 0.19994242 0.22474705 -0.036158253 0.03848633 0.25979266 -0.01185213 0.27143753
00000000: 97aa db3d 8665 55bc 2e99 3cbd 192f f73d
00000010: 5dba c83e 60de 09be b05e 383e d47f 5a3d
00000020: 5d5e 32be b569 023e 2e8a 5dbe d86c 4e3c
00000030: ff6a c2bd 7e39 a63b 1670 513d c552 8ebe
00000040: 694d ab3c 05d2 573d 31b9 8c3e 0c36 4b3d
00000050: 1593 c93d 0ff5 0fbe 8b10 973d 60b0 a93d
00000060: 4705 f83d 4b0f 44bd cfb8 99be dea4 63be
00000070: ffe0 92be 2e5e 5ebd 9b16 38bd fa9b d43d
00000080: 412e fb3d 8a24 a2be 9690 d1bd ed36 e0bc
00000090: 986c 58bd 8a1f 7a3c 8ee2 8a3d 5966 abbd
000000a0: bf83 06be 2435 093d 366a babd 4e5d 5bbe
000000b0: 3df1 213e 13c1 acbd c9fc 24be 5e9d ef3c
000000c0: 6858 8bbe 9e74 ffbd 2e6b 4dbe c54b 3abe
000000d0: 50a8 b33d 9e13 07bd 3273 163d e002 8dbd
000000e0: 81db 1a3e e85f 193c 77ca 633d 43f6 c3bd
000000f0: e877 fa3c 7382 d53b c200 b83c 2c35 e23c
00000100: 83ba 2d3e 2989 5fbe a4a1 dd3d f733 253d
00000110: 5301 e83d 925c 903d a53d 1a3d e265 06be
00000120: c3de 973d a172 063e cc8f bc3e 3b62 17be
00000130: 81b4 cdbd 3a43 473d 8b37 e5bc 7493 443e
00000140: 5939 c4bb 1550 a23c d89c 5cbe c0ee 22be
00000150: 0e3d 883c 8f83 e7bd bc58 0a3e d053 05be
00000160: 3ede 193e 6070 5c3d e653 83bd 1bd3 cf3d
00000170: 9f0b 2bbe 5293 373e b041 edbd 860b 18be
00000180: a1ea 8d3d 6098 f63d c6d2 123e 67c1 2cbd
00000190: 7867 4c3e dba4 f53c 4159 40be b718 2e3d
000001a0: 9049 a43d cebd 03be a4b0 9abe 734a 2fbe
000001b0: e173 8ebd 05c0 963e 3aea 8fbe e611 4e3d
000001c0: 0d78 05be c6f7 b0bb 0c75 363e 34ae 0c3e
000001d0: adbd b8bc 6d8f fdbd dd28 f43d 697a 10be
000001e0: 0640 c63d 22ac b7bd e6bb 22be e15c 0d3d
000001f0: acdf 2d3e ba5d 3fbe 3aa4 3d3e 3fad c53d
00000200: 4671 ca3e 2355 583e 7954 c13d a1e3 5d3d
00000210: 7b76 0f3e 8f55 f73d acc8 a7be 9799 fd3d
00000220: 899b a73c faa6 853b d532 0abe 4245 40be
00000230: 664b 8c3d 2131 11be 4d44 203e 0c97 9bbc
00000240: 409b e53d e375 9ebd b07d aebd adfe fd3d
00000250: 2a97 a53d e5c2 0cbe bc93 35be 242c 26be
00000260: 0f9a 353e 48c7 17be c783 c8bc 5f8d e5bc
00000270: de04 913d 0491 253e 16d4 98bc 61d3 b9bd
00000280: 64d2 b43d ce90 fa3d f4b3 843e a636 9ebc
00000290: c0bb 96bd b7bc f43d 1dfe e7bc e239 4e3e
000002a0: 497b 213d 9947 09be f12d 48be c435 0abe
000002b0: af11 8cbd 0995 163e 4cd1 9abb 6cad 183e
000002c0: 0756 9dbb 0369 243e e63a d93d 0314 23be
000002d0: 0062 193e 9c22 1ebe ef99 803e 2635 50be
000002e0: 7a54 da3d 3443 633d e760 103e eaaf c63d
000002f0: 4528 5f3e fe6c 26be 9e78 f33d b07c fe3c
00000300: 00fb 1cbe e4fa 9a3c e079 70bd cd96 8f3d
00000310: 8553 febd 9777 b93d e6cd 25be 208a 5ebe
00000320: 4db4 5f3e 9277 13be d7ba cb3c 3b24 213d
00000330: 58cb 9b3d 1dbd 19bd 21f6 443e 8cff 9d3d
00000340: c3a3 97bd b7ee 363b 2870 273c 0a77 35be
00000350: 59b0 283d 96ac 83bc 30fc 753d 7669 663e
00000360: 452c da3c 1db4 2c3e 0751 693c 1e64 533c
00000370: 2c37 2d3e f2fd b53d 20ee 60bc 88bc 85be
00000380: 0ba8 30bd 3513 c3bd 5a05 f0bd 6e8c a63d
00000390: 3651 8f3e 0486 9ebd f828 5ebc af37 3f3b
000003a0: 4ce5 babc 2e62 f33c 82ee 28bb 4483 013e
000003b0: c7be 6ebe 5119 47be 76b0 a83d 9ba6 fa3c
000003c0: 229f 21be 9269 99bd a295 6b3e edd2 1fbe
000003d0: 893f 67be e87d d03d 7180 063e 524d 323e
000003e0: 57c4 0fbe b5bd 4c3e 1724 663e ad1a 14bd
000003f0: d8a3 1d3d 8b03 853e 702f 42bc dcf9 8a3e

transformer_encoder.layers.1.self_attn.out_proj.bias f4 [20]
0.060255457 0.040722344 -0.029758384 0.04799556 -0.049633656 -0.049693096 -0.023424784 0.0478583
0.013332764 0.053226203 0.007046242 -0.037643295 -0.03919294 -0.04998715 0.045798335 -0.013601023
-0.04488994 0.00638652 -0.0109913265 0.026193907
00000000: 6dce 763d 79cc 263d dbc7 f3bc fe96 443d
00000010: a94c 4bbd fd8a 4bbd 55e5 bfbc 1107 443d
00000020: aa71 5a3c b803 5a3d 29e4 e63b db2f 1abd
00000030: c788 20bd 53bf 4cbd 0997 3b3d d3d6 5ebc
00000040: 84de 37bd 0346 d13b f714 34bc 9b94 d63c
