model_epoch_34.pt (torch, 431970 bytes, 28 tensors)

pos_encoder.pe f4 [5000, 1, 20]
0.0 1.0 0.0 1.0 0.0 1.0 0.0 1.0
0.0 1.0 0.0 1.0 0.0 1.0 0.0 1.0
0.0 1.0 0.0 1.0 0.841471 0.54030234 0.38767424 0.92179644
0.15782663 0.9874668 0.06305388 0.9980101 0.025116224 0.9996845 0.009999833 0.99995
0.0039810613 0.9999921 0.0015848922 0.99999875 0.0006309573 0.9999998 0.00025118855 0.99999994
0.9092974 -0.41614684 0.71471345 0.69941735 0.31169716 0.9501815 0.12585683 0.99204844
0.0502166 0.99873835 0.019998666 0.9998 0.00796206 0.9999683 0.0031697804 0.999995
0.0012619144 0.9999992 0.0005023771 0.9999999 0.14112 -0.9899925 0.92996645 0.36764446
0.45775455 0.8890786 0.18815888 0.9821386 0.07528529 0.99716204 0.0299955 0.99955004
0.011942931 0.99992865 0.0047546607 0.9999887 0.001892871 0.9999982 0.00075356563 0.9999997
-0.7568025 -0.6536436 0.99976605 -0.02163067 0.5923377 0.8056898 0.24971214 0.96832013
0.10030649 0.9949566 0.039989334 0.9992001 0.015923616 0.9998732 0.006339529 0.9999799
0.0025238267 0.99999684 0.0010047541 0.9999995 -0.9589243 0.2836622 0.91319513 -0.40752262
0.7120732 0.7021053 0.3102716 0.95064795 0.12526439 0.9921234 0.049979165 0.99875027
0.019904045 0.9998019 0.007924382 0.9999686 0.0031547816 0.99999505 0.0012559424 0.9999992
-0.2794155 0.96017027 0.683794 -0.7296751 0.81395954 0.5809216 0.3695962 0.9291925
0.15014328 0.98866427 0.059964005 0.99820054 0.02388416 0.99971473 0.009509213 0.99995476
0.0037857352 0.99999285 0.0015071308 0.99999887 0.6569866 0.75390226 0.34744254 -0.9377013
0.89544296 0.4451763 0.42744997 0.904039 0.17492743 0.98458135 0.06994285 0.997551
0.027863897 0.99961174 0.011094023 0.9999385 0.004416687 0.9999902 0.001758319 0.99999845
0.98935825 -0.14550003 -0.04325122 -0.9990642 0.9544809 0.29827204 0.48360258 0.8752877
0.1996012 0.97987723 0.07991469 0.99680173 0.031843193 0.9994929 0.012678803 0.9999196
0.0050476375 0.99998724 0.002009507 0.999998 0.4121185 -0.91113025 -0.42718017 -0.9041665
0.9895935 0.14389123 0.53783053 0.843053 0.22414905 0.9745549 0.089878544 0.9959527
0.03582198 0.9993582 0.014263553 0.99989825 0.0056785857 0.99998385 0.0022606952 0.99999744
-0.5440211 -0.8390715 -0.7442953 -0.6678507 0.99990064 -0.014096433 0.58991814 0.80746305
0.24855547 0.9686177 0.099833414 0.9950042 0.039800204 0.9992077 0.015848266 0.9998744
0.0063095316 0.9999801 0.002511883 0.99999684 -0.9999902 0.004425698 -0.9449973 -0.32707813
0.98514396 -0.17173062 0.6396579 0.7686597 0.2728051 0.96206933 0.1097783 0.9939561
0.043777797 0.9990413 0.01743294 0.999848 0.006940475 0.9999759 0.0027630706 0.9999962
-0.53657293 0.84385395 -0.99789494 0.06485153 0.9456933 -0.32506028 0.68685204 0.7267973
0.29688257 0.954914 0.119712204 0.99280864 0.047754694 0.9988591 0.019017566 0.99981916
00000000: 0000 0000 0000 803f 0000 0000 0000 803f
00000010: 0000 0000 0000 803f 0000 0000 0000 803f
00000020: 0000 0000 0000 803f 0000 0000 0000 803f
00000030: 0000 0000 0000 803f 0000 0000 0000 803f
00000040: 0000 0000 0000 803f 0000 0000 0000 803f
00000050: a56a 573f 4151 0a3f 3d7d c63e dafa 6b3f
00000060: 4e9d 213e a0ca 7c3f 6522 813d 977d 7f3f
00000070: 8ac0 cd3c 53eb 7f3f 57d6 233c b9fc 7f3f
00000080: 9073 823b 7bff 7f3f 28bc cf3a ebff 7f3f
00000090: d466 253a fdff 7f3f f5b1 8339 ffff 7f3f
000000a0: b7c7 683f 3311 d5be 76f7 363f 040d 333f
000000b0: c596 9f3e 183f 733f 9de0 003e e3f6 7d3f
000000c0: ecaf 4d3d 51ad 7f3f 3ed4 a33c e5f2 7f3f
000000d0: 4d73 023c ecfd 7f3f 17bc 4f3b acff 7f3f
000000e0: d266 a53a f3ff 7f3f f5b1 033a feff 7f3f
000000f0: c381 103e 2670 7dbf 4812 6e3f e53b bc3e
00000100: ce5e ea3e a89a 633f b9ac 403e 6f6d 7b3f
00000110: 2d2f 9a3d 0346 7f3f 1fb9 f53c 83e2 7f3f
00000120: 49ac 433c 53fb 7f3f fccc 9b3b 42ff 7f3f
00000130: 361a f83a e2ff 7f3f ef8a 453a fbff 7f3f
00000140: cfbd 41bf 3055 27bf abf0 7f3f ce32 b1bc
00000150: 72a3 173f b041 4e3f 8ab4 7f3e d4e3 773f
00000160: 7d6d cd3d 7ab5 7e3f dbcb 233d 94cb 7f3f
00000170: 3e72 823c b1f7 7f3f d3bb cf3b affe 7f3f
00000180: c966 253b cbff 7f3f f4b1 833a f8ff 7f3f
00000190: 107c 75bf 2c3c 913e 28c7 693f cea6 d0be
000001a0: 6e4a 363f 2cbd 333f ebdb 9e3e aa5d 733f
000001b0: 4f45 003e cdfb 7d3f f4b6 4c3d 19ae 7f3f
000001c0: cf0d a33c 04f3 7f3f 44d5 013c f1fd 7f3f
000001d0: 74c0 4e3b adff 7f3f 6f9e a43a f3ff 7f3f
000001e0: 8c0f 8fbe b8cd 753f 200d 2f3f fdcb 3abf
000001f0: a75f 503f 47b7 143f b73b bd3e 8fdf 6d3f
00000200: 29bf 193e 1a19 7d3f d19c 753d 128a 7f3f
00000210: b7a8 c33c 4eed 7f3f 88cc 1b3c 09fd 7f3f
00000220: 191a 783b 88ff 7f3f eb8a c53a edff 7f3f
00000230: 4630 283f bdff 403f fde3 b13e 310d 70bf
00000240: c03b 653f 26ee e33e b9da da3e 1a6f 673f
00000250: 2d20 333e 860d 7c3f 323e 8f3d 815f 7f3f
00000260: d442 e43c 8ee6 7f3f b4c3 353c f8fb 7f3f
00000270: dbb9 903b 5cff 7f3f 6577 e63a e6ff 7f3f
00000280: 9546 7d3f f6fd 14be 3128 31bd acc2 7fbf
00000290: dc58 743f 1db7 983e c29a f73e db12 603f
000002a0: 4264 4c3e 3cd9 7a3f 50aa a33d 662e 7f3f
000002b0: 026e 023d c4de 7f3f c1ba 4f3c bbfa 7f3f
000002c0: a766 a53b 2aff 7f3f efb1 033b deff 7f3f
000002d0: 3201 d33e d53f 69bf 5cb7 dabe 7577 67bf
000002e0: 0056 7d3f 3958 133e 43af 093f 52d2 573f
000002f0: 5487 653e 6e7c 793f 3e12 b83d c2f6 7e3f
00000300: 12ba 123d f0d5 7f3f adb1 693c 55f9 7f3f
00000310: 6e13 ba3b f1fe 7f3f 2c28 143b d5ff 7f3f
00000320: f844 0bbf 64cd 56bf 238a 3ebf 43f8 2abf
00000330: 7df9 7f3f baf4 66bc e004 173f e6b5 4e3f
00000340: 5385 7e3e 54f7 773f 7675 cc3d 98b8 7e3f
00000350: 8a05 233d 13cc 7f3f 39d4 813c c5f7 7f3f
00000360: 30c0 ce3b b2fe 7f3f 679e 243b cbff 7f3f
00000370: 5cff 7fbf 7205 913b 58eb 71bf c976 a7be
00000380: 6532 7c3f 27da 2fbe 9fc0 233f e2c6 443f
00000390: 1cad 8b3e 2d4a 763f 72d3 e03d e873 7e3f
000003a0: 5950 333d 2cc1 7f3f 86cf 8e3c 0af6 7f3f
000003b0: ed6c e33b 6cfe 7f3f a214 353b c0ff 7f3f
000003c0: d85c 09bf d006 583f 0b76 7fbf e1d0 843d
000003d0: f518 723f 4d6e a6be 89d5 2f3f 630f 3a3f
000003e0: fe00 983e 3e75 743f ac2b f53d b528 7e3f
000003f0: 6d9a 433d 3bb5 7f3f baca 9b3c 26f4 7f3f

transformer_encoder.layers.0.self_attn.in_proj_weight f4 [60, 20]
-0.18919887 -0.20943886 0.21272707 0.07491908 0.19373336 0.06145833 -0.1851699 0.1421456
0.018583238 0.041390136 -0.20569563 0.2244421 -0.27830237 0.18033494 0.26117575 0.25906545
0.07127678 -0.11034407 -0.012688663 -0.0069795055 0.2387885 -0.05834453 -0.26415554 0.09295808
0.06451567 0.121909276 0.16399446 -0.09112884 0.22372274 -0.03941996 0.0027968583 -0.08839215
0.10875137 -0.0937295 0.22750391 0.15825087 0.26109335 0.01972637 0.038404886 -0.12887417
0.116228595 -0.12877792 0.00047319173 -0.04205042 0.23521945 -0.22089855 0.19297595 -0.22098657
0.0008896977 -0.07332669 -0.07416835 -0.06629042 0.0454178 -0.17264527 0.107045434 -0.17702945
-0.06648796 -0.26356876 -0.09684272 -0.016403584 0.078905255 0.0058128834 -0.14561298 0.075533785
0.23613957 0.162132 -0.1234801 0.11701808 0.024926798 -0.015741821 0.067018084 0.1235044
-0.2384546 -0.11105294 0.02441295 0.1785395 -0.19188286 -0.13671395 -0.01335034 0.11692922
-0.23422314 0.11071523 -0.17584096 0.23504762 -0.05911643 -0.059757072 -0.018139616 -0.017846467
0.22635418 0.13475975 -0.22296171 0.14762218 0.17002046 -0.09424426 -0.20125136 -0.091229886
-0.05631329 0.034363177 0.021347573 0.24608889 -0.10564745 0.0018538631 0.18925484 -0.21940312
0.082605 0.022786932 0.028830834 0.22092395 -0.21964179 -0.13418597 0.07341354 0.21598782
-0.04862601 -0.05508796 -0.24758027 0.16090237 -0.16588236 -0.20258677 -0.09787657 -0.03973825
-0.103521 0.093409106 0.17442633 0.03296197 -0.17271516 -0.12983999 0.0046346704 -0.13029514
-0.10589938 0.17454539 -0.10363794 0.11996418 -0.017634371 0.13325565 -0.15041466 0.23751342
0.19679315 -0.124146864 0.011770847 -0.12553366 0.16977204 -0.39023322 0.075509414 0.09061026
0.26789677 -0.067383364 -0.16564593 -0.047308102 -0.10772161 -0.055649005 0.041754782 -0.20828848
0.18273102 -0.011182778 -0.19407697 -0.14240095 0.104937695 0.04184001 -0.065575026 -0.09474365
0.086235955 0.08044289 -0.061188214 0.18125528 0.14591119 -0.0808383 -0.2757672 0.2249634
-0.04258445 0.14459115 -0.04216713 0.06554706 0.22060965 -0.0856166 0.12148544 0.17608055
0.13008882 -0.24693812 0.26461834 0.12818207 -0.12073819 -0.11829595 0.1163963 0.11364098
0.19491355 -0.19398932 -0.1352893 0.16339307 -0.13700038 -0.1442359 -0.18428707 -0.11819825
0.14383182 -0.04145806 -0.0037002305 -0.015872179 -0.19577481 -0.06998284 -0.07369771 0.015229646
-0.15628427 -0.2430559 0.044514928 -0.18631326 -0.008080086 0.14091597 0.025101844 -0.19940846
0.21314815 0.14760135 0.12059715 0.031826198 -0.031649992 0.013892683 -0.049090877 0.018213341
0.054584216 0.2355152 0.11470222 0.12906283 0.0124502415 -0.27652657 -0.2086096 -0.22315319
0.19461015 -0.09591335 -0.13710466 0.047383446 0.016664349 0.16441469 -0.10760652 0.04529374
-0.19032273 -0.07110221 -0.17732811 0.12602082 0.09975165 -0.01097967 0.016277323 -0.27233905
0.29821298 0.124056265 0.22430672 -0.23673357 -0.18873298 -0.14315526 -0.23706366 0.091318905
-0.08195755 -0.16775939 0.121660076 -0.010311225 0.2733628 0.20547369 0.2642595 -0.04838101
00000000: 59bd 41be 2477 56be 20d5 593e 2d6f 993d
00000010: 0a62 463e bbbb 7b3d 2e9d 3dbe 9e8e 113e
00000020: e03b 983c b488 293d e0a1 52be 26d4 653e
00000030: a67d 8ebe b9a9 383e d4b8 853e 3aa4 843e
00000040: 8ff9 913d 12fc e1bd 1ce4 4fbc 56b4 e4bb
00000050: f984 743e adfa 6ebd 653f 87be ce60 be3d
00000060: cb20 843d 92ab f93d 2aee 273e c2a1 babd
00000070: 9317 653e d376 21bd 7f4b 373b f206 b5bd
00000080: 0ab9 de3d 41f5 bfbd c9f6 683e 840c 223e
00000090: 07ae 853e 3299 a13c 714e 1d3d 97f7 03be
000000a0: 4209 ee3d 5cde 03be b816 f839 103d 2cbd
000000b0: 5edd 703e 3b33 62be 7d9b 453e 4e4a 62be
000000c0: 9a3a 693a 4e2c 96bd 93e5 97bd 46c3 87bd
000000d0: 0408 3a3d ecc9 30be a33a db3d 3547 35be
000000e0: d72a 88bd 7cf2 86be 7a55 c6bd cf60 86bc
000000f0: 1499 a13d 007a be3b 921b 15be 75b1 9a3d
00000100: 92ce 713e ee05 263e 22e3 fcbd 2da7 ef3d
00000110: 4933 cc3c fef4 80bc c740 893d e0ef fc3d
00000120: 712d 74be b96f e3bd abfd c73c 0fd3 363e
00000130: f17c 44be befe 0bbe 62bb 5abc 9678 ef3d
00000140: 31d8 6fbe abbe e23d a70f 34be 53b0 703e
00000150: 1224 72bd d5c3 74bd 8899 94bc c132 92bc
00000160: 64c9 673e 76fe 093e 1350 64be 452a 173e
00000170: d819 2e3e 2203 c1bd d614 4ebe bcd6 babd
00000180: c4a8 66bd 67c0 0c3d 1be1 ae3c bafe 7b3e
00000190: b15d d8bd 53fd f23a 05cc 413e 36ab 60be
000001a0: cf2c a93d a9ab ba3c a42e ec3c e339 623e
000001b0: c7e9 60be 0c68 09be d759 963d e92b 5d3e
000001c0: 112c 47bd eaa3 61bd af85 7dbe 97c3 243e
000001d0: 11dd 29be e872 4fbe 8373 c8bd 93c4 22bd
000001e0: d102 d4bd 464d bf3d d19c 323e 2103 073d
000001f0: 3edc 30be c6f4 04be 6fde 973b 176c 05be
00000200: c6e1 d8bd 07bc 323e 2140 d4bd c8af f53d
00000210: f575 90bc 2b74 083e 4d06 1abe b836 733e
00000220: 2584 493e b640 febd 83da 403c e58b 00be
00000230: b9d8 2d3e a6cc c7be aea4 9a3d df91 b93d
00000240: c429 893e 4a00 8abd 169f 29be 24c6 41bd
00000250: 269d dcbd 36f0 63bd 1007 2b3d 9349 55be
00000260: d71d 3b3e f837 37bc 1dbc 46be 8ed1 11be
00000270: 93e9 d63d 6e60 2b3d 334c 86bd f508 c2bd
00000280: 7a9c b03d 3ebf a43d 7ea0 7abd fc9a 393e
00000290: be69 153e 8d8e a5bd 5c31 8dbe ce5c 663e
000002a0: 086d 2ebd b40f 143e 71b7 2cbd 893d 863d
000002b0: 7fe7 613e c257 afbd 5ccd f83d 764e 343e
000002c0: 0136 053e 59dd 7cbe 0e7c 873e 2942 033e
000002d0: 9645 f7bd 2645 f2bd 2f61 ee3d 9abc e83d
000002e0: 6b97 473e 23a5 46be 4789 0abe 8350 273e
000002f0: d449 0cbe 93b2 13be c0b5 3cbe ed11 f2bd
00000300: a648 133e edcf 29bd 917f 72bb 5f06 82bc
00000310: 3179 48be 2a53 8fbd d3ee 96bd c485 793c
00000320: fc08 20be a5e3 78be 4955 363d e7c8 3ebe
00000330: 5662 04bc 474c 103e 62a2 cd3c bb31 4cbe
00000340: 8243 5a3e cf24 173e a3fb f63d 305c 023d
00000350: 6ca3 01bd 239e 633c 8413 49bd 2534 953c
00000360: b393 5f3d e62a 713e ffe8 ea3d 0c29 043e
00000370: 19fc 4b3c e494 8dbe c19d 55be 4582 64be
00000380: e247 473e 386e c4bd 2a65 0cbe 2515 423d
00000390: ac83 883c 535c 283e cf60 dcbd ee85 393d
000003a0: f6e3 42be 099e 91bd 8095 35be 9a0b 013e
000003b0: 984a cc3d 13e4 33bc 0558 853c 0670 8bbe
000003c0: 5faf 983e 3611 fe3d a9b0 653e 496a 72be
000003d0: 3843 41be 4b97 12be d1c0 72be 6805 bb3d
000003e0: 5cd9 a7bd 1ec9 2bbe eb28 f93d 6af0 28bc
000003f0: 35f6 8b3e b267 523e 054d 873e 2a2b 46bd

transformer_encoder.layers.0.self_attn.in_proj_bias f4 [60]
-0.0156207355 0.0026027574 -0.0045531373 -0.0019499798 -0.0075764647 0.0067681354 0.02721169 0.039257772
0.010297183 -0.004196801 0.01707671 -0.013206011 -0.018169446 -0.024378562 0.011627323 0.020872131
-0.009563252 -0.03759071 0.0043298155 0.046551827 -3.234643e-10 8.096986e-11 6.7656997e-10 -1.949475e-09
7.7794604e-10 1.4628919e-08 3.902088e-09 4.931497e-09 8.255957e-09 6.547583e-09 3.5759652e-11 5.999084e-10
-7.8166096e-10 -8.815832e-10 -2.8510698e-09 1.9067299e-09 -4.173008e-09 2.4810893e-09 2.4004483e-09 4.220425e-10
-0.052865777 0.05700403 -0.035036005 -0.021881519 0.0548629 0.07883781 -0.008786539 0.05869403
0.051465314 0.0064652404 -0.02498712 0.0077636377 -0.06672497 0.07091752 0.013845215 0.06939753
0.045869384 0.03526826 0.01276523 -0.02247589
00000000: 1dee 7fbc 0693 2a3b 7c32 95bb 7796 ffba
00000010: fe43 f8bb 3cc7 dd3b 0deb de3c c2cc 203d
00000020: 84b5 283c 5285 89bb 75e4 8b3c 065e 58bc
00000030: 17d8 94bc 8db5 c7bc 8780 3e3c 08fc aa3c
00000040: 30af 1cbc b7f8 19bd 20e1 8d3b 21ad 3e3d
00000050: 8ed3 b1af fb0d b22e 61f9 3930 87f7 05b1
00000060: 16d7 5530 ab52 7b32 2113 8631 e871 a931
00000070: 15d6 0d32 26f9 e031 ca45 1d2e cde6 2430
00000080: 80dc 56b0 e753 72b0 8dec 43b1 8c07 0331
00000090: 2b62 8fb1 c97f 2a31 22f5 2431 3405 e82f
000000a0: c989 58bd 0f7d 693d ea81 0fbd df40 b3bc
000000b0: ecb7 603d b875 a13d 6af5 0fbc 2769 703d
000000c0: 4bcd 523d 5eda d33b cab1 ccbc 1d66 fe3b
000000d0: 1aa7 88bd 343d 913d 0ad7 623c 4b20 8e3d
000000e0: 89e1 3b3d 7375 103d 4125 513c 5c1f b8bc

transformer_encoder.layers.0.self_attn.out_proj.weight f4 [20, 20]
0.16271332 -0.080199495 -0.046454374 0.09638835 0.2380902 -0.028414352 0.23513782 0.08402395
-0.07545142 0.039583594 -0.19713832 0.06813513 -0.033182096 -0.0085926065 0.08381647 -0.29991576
0.026276436 0.062143836 0.28548825 0.032980133 0.1387244 -0.08986878 0.050523367 -0.035838854
0.104224786 -0.025462842 -0.21171297 -0.15488434 -0.16237734 -0.061929025 -0.036498394 0.065385155
0.11229301 -0.16764742 -0.12621695 0.04301046 -0.047772564 0.0551496 0.0633062 -0.08049215
-0.14747792 -0.041780755 -0.11708858 -0.14083573 0.18777815 -0.15813783 -0.15700266 0.031482898
-0.1876684 -0.018265903 -0.12569886 -0.16729923 0.019308206 0.089202985 0.0008673865 -0.16218042
0.1608444 -0.06705743 0.092613064 -0.17399676 0.066222176 -0.05325208 0.015263853 0.0076503907
0.20390087 -0.24097945 0.1294914 -0.019983683 0.1012741 0.07713316 0.014162007 -0.09352644
0.11804716 0.0862192 0.30927944 -0.14689556 -0.118497714 0.09636309 0.007797329 0.27823418
-0.048477985 0.10445076 -0.21850954 -0.18907622 -0.021812182 -0.010872147 0.17882909 -0.037253544
0.18921587 0.048911653 -0.025986299 0.050548594 -0.18580873 0.19909644 -0.07151742 -0.13998477
0.07396962 0.04987546 0.105204776 -0.1332802 0.2510235 0.07097759 -0.20730919 -0.006503595
-0.07797977 -0.06799667 -0.33299518 -0.1717729 -0.022149762 0.22622259 -0.22028315 -0.030327804
-0.0039449558 0.0058334116 0.049031813 0.12462543 -0.006973003 -0.057739753 0.18649524 -0.15180944
0.07000993 -0.0876475 -0.113582775 0.0741898 0.19387235 -0.20164137 0.14867973 0.04216863
0.1776531 0.13958512 0.08148824 0.06685152 0.19749011 -0.104914896 -0.16769421 0.19710582
-0.007241032 0.062463954 -0.15633446 -0.11817292 0.07335879 -0.13663857 0.1296806 -0.05878254
0.12386852 -0.05719509 -0.06474924 0.12376571 0.14101335 -0.09977857 -0.16990057 -0.18120298
0.1381527 -0.059323426 -0.07660727 -0.051288363 0.08697306 0.15207842 -0.031903047 -0.074485645
0.037893787 0.17655762 0.19755563 0.005952447 -0.083183944 0.03831684 -0.0473755 0.22102949
0.018767208 -0.032731794 -0.16952646 -0.10810461 -0.06803214 0.12603208 0.041207094 0.21473378
-0.04533905 0.0869411 0.087675035 -0.25893307 0.15365049 -0.15169239 0.2211809 -0.12111234
0.22214428 -0.06490559 0.08515876 0.052943606 0.18072632 -0.14808041 0.0041529206 0.08021352
-0.18512163 -0.076022826 -0.035989612 0.13872352 -0.14133984 0.12240335 -0.17294115 -0.16285864
0.22097391 -0.17399673 0.10380477 -0.03911237 0.10542372 -0.015347264 0.18352881 0.043297246
-0.13011646 -0.020063208 -0.008198395 -0.11548908 0.00075533 0.030355768 -0.008871988 0.187776
0.02471365 0.16739888 -0.019859027 0.07435621 0.13864827 0.084921084 -0.02930959 -0.16649067
0.072291575 -0.22090277 -0.18458483 0.07750558 0.2602466 -0.006007988 -0.052565075 -0.021738783
-0.09047638 0.008357476 -0.038471457 0.15348552 -0.25479722 -0.17617957 0.060095362 0.038631048
-0.1670873 -0.09712888 0.31423286 -0.17603953 -0.11044568 0.048943974 0.062019426 0.094770044
-0.3108922 0.15713707 0.14867155 -0.024518948 -0.03369374 0.21744992 -0.0033333818 0.25329918
00000000: 529e 263e a23f a4bd f146 3ebd 4167 c53d
00000010: ebcd 733e 37c5 e8bc f8c7 703e c014 ac3d
00000020: 4686 9abd 6822 223d a1de 49be 6e8a 8b3d
00000030: f3e9 07bd 01c8 0cbc f8a7 ab3d 8f8e 99be
00000040: ae41 d73c 898a 7e3d 842b 923e 2d16 073d
00000050: c50d 0e3e 1f0d b8bd 97f1 4e3d c3cb 12bd
00000060: ce73 d53d 7397 d0bc 49cb 58be 009a 1ebe
00000070: 3f46 26be 4aa9 7dbd 577f 15bd a7e8 853d
00000080: e1f9 e53d c4ab 2bbe 043f 01be bc2b 303d
00000090: 2aad 43bd 8ce4 613d aea6 813d 11d9 a4bd
000000a0: 7404 17be 4c22 2bbd 23cc efbd 3e37 10be
000000b0: ea48 403e e2ee 21be 4ec5 20be 36f4 003d
000000c0: 252c 40be 60a2 95bc 34b7 00be 7d50 2bbe
000000d0: 3e2c 9e3c 0eb0 b63d 5361 633a a012 26be
000000e0: 65b4 243e 6855 89bd ebab bd3d 352c 32be
000000f0: 7e9f 873d da1e 5abd 3d15 7a3c 21b0 fa3b
00000100: 64cb 503e 51c3 76be 6599 043e d2b4 a3bc
00000110: cc68 cf3d fdf7 9d3d c307 683c ca8a bfbd
00000120: b6c2 f13d b193 b03d e059 9e3e ca6b 16be
00000130: eeae f2bd 035a c53d bd80 ff3b b674 8e3e
00000140: da90 46bd 48ea d53d f7c0 5fbe 329d 41be
00000150: 76af b2bc 1721 32bc f91e 373e 2c97 18bd
00000160: cec1 413e 9657 483d 38e1 d4bc 0b0c 4f3d
00000170: a544 3ebe f0df 4b3e ba77 92bd 2b58 0fbe
00000180: 627d 973d 364a 4c3d 9a75 d73d 9b7a 08be
00000190: 2786 803e b35c 913d dc48 54be 1c1c d5bb
000001a0: dcb3 9fbd d741 8bbd 587e aabe 3ce5 2fbe
000001b0: 6b73 b5bc e5a6 673e e891 61be 0472 f8bc
000001c0: b044 81bb 3426 bf3b 95d5 483d 9e3b ff3d
000001d0: ca7d e4bb 8580 6cbd 9cf8 3e3e ef73 1bbe
000001e0: 5e61 8f3d 8880 b3bd 169e e8bd d2f0 973d
000001f0: 7986 463e 137b 4ebe 803f 183e 03b9 2c3d
00000200: b2ea 353e 67ef 0e3e 4ee3 a63d 73e9 883d
00000210: d93a 4a3e 9fdd d6bd 08b8 2bbe 1cd6 493e
00000220: 2e46 edbb 34da 7f3d 2416 20be a504 f2bd
00000230: 223d 963d fbea 0bbe feca 043e f6c5 70bd
00000240: c7ae fd3d 6645 6abd 409b 84bd e078 fd3d
00000250: ce65 103e b558 ccbd 6afa 2dbe 468d 39be
00000260: e777 0d3e 1ffd 72bd 46e4 9cbd bf13 52bd
00000270: ef1e b23d 72ba 1b3e c5ac 02bd ee8b 98bd
00000280: 8436 1b3d 85cb 343e 064c 4a3e bf0c c33b
00000290: 585c aabd 1ef2 1c3d d00c 42bd 8e55 623e
000002a0: b0bd 993c c611 06bd 5898 2dbe f365 ddbd
000002b0: 6f54 8bbd 8e0e 013e c5c8 283d 2ce3 5b3e
000002c0: 71b5 39bd 2d0e b23d f88e b33d e092 84be
000002d0: 8e56 1d3e 4055 1bbe 3f7d 623e bf09 f8bd
000002e0: ca79 633e 39ed 84bd b767 ae3d 65db 583d
000002f0: 5210 393e 64a2 17be 3915 883b fc46 a43d
00000300: 8690 3dbe dbb1 9bbd d869 13bd 8a0d 0e3e
00000310: 64bb 10be 9cae fa3d 7c17 31be 6ac4 26be
00000320: fc46 623e 332c 32be 9897 d43d 4b34 20bd
00000330: 64e8 d73d 1773 7bbc faee 3b3e 7458 313d
00000340: 403d 05be 995b a4bc 9052 06bc 8a85 ecbd
00000350: 5701 463a a9ac f83c d15b 11bc 5a48 403e
00000360: 4874 ca3c 9d6a 2b3e 66af a2bc 1248 983d
00000370: d0f9 0d3e 1beb ad3d aa1a f0bc 887c 2abe
00000380: 9b0d 943d 5634 62be ce03 3dbe 3fbb 9e3d
00000390: 0b3f 853e a8de c4bb 7a4e 57bd 8815 b2bc
000003a0: ae4b b9bd cced 083c 3f94 1dbd 4f2b 1d3e
000003b0: c874 82be 6b68 34be 8e26 763d 973b 1e3d
000003c0: ef18 2bbe 82eb c6bd 21e3 a03e b543 34be
000003d0: 5831 e2bd 7a79 483d 1508 7e3d cc16 c23d
000003e0: 432d 9fbe 8ae8 203e 5b3d 183e f6db c8bc
000003f0: 7202 0abd 31ab 5e3e de74 5abb 6eb0 813e

transformer_encoder.layers.0.self_attn.out_proj.bias f4 [20]
-0.020960758 0.068382725 0.06401412 0.023679132 0.021740831 0.028840952 -0.017327953 0.01943872
-0.012646103 -0.031279877 0.00063369406 -0.03408358 0.030701272 -0.097326525 0.029018417 -0.02198838
-0.0033408462 -0.034395117 0.0020859602 -0.0151865585
00000000: e5b5 abbc 3e0c 8c3d d619 833d bdfa c13c
00000010: d419 b23c dc43 ec3c 5af3 8dbc f33d 9f3c
00000020: 9a31 4fbc 541f 00bd 7d1e 263a 399b 0bbd
00000030: 3c81 fb3c 2153 c7bd 08b8 ed3c fa20 b4bc
00000040: 19f2 5abb e5e1 0cbd 9bb4 083b 0bd1 78bc

transformer_encoder.layers.0.linear1.weight f4 [20, 20]
-0.07740812 0.1522433 0.07499104 0.19873509 -0.09946843 -0.02301318 -0.1578243 0.17384148
-0.026313031 -0.014345307 -0.11611091 0.03574285 0.06009137 0.042262536 0.029370336 0.08988961
0.19091855 -0.14503789 -0.062049467 -0.10533053 -0.210724 0.14033516 -0.25060973 0.010266723
0.095068276 -0.011156428 0.024345664 -0.17512019 0.14430024 -0.039554425 -0.03430821 0.07039749
-0.04400727 -0.12468257 0.16208951 0.19910564 0.13836642 -0.05820125 -0.10341036 0.080715455
0.16620097 0.19172674 0.19647104 0.1821373 0.044975486 0.15542918 0.18602124 -0.0073743374
-0.12593617 0.04337618 -0.287012 0.0011340487 0.020320361 0.1479447 -0.17248143 -0.050109494
-0.08838575 0.18105482 0.050420225 -0.028995572 -0.062697046 -0.1568675 0.055893514 0.24886976
-0.037599005 0.0037987998 -0.076547675 0.14013688 -0.15519206 -0.06734268 0.12496783 -0.17945904
0.15987071 0.03638676 -0.053864963 0.101724826 -0.09391129 -0.1857743 0.026125662 0.17376798
-0.021174498 -0.17698313 -0.072595626 -0.2949151 0.15455014 0.36213756 -0.00094690936 -0.20538525
-0.05024385 -0.13402894 0.043526955 -0.041298073 -0.13549024 0.15562642 0.07308537 -0.21942516
-0.1812295 0.008845149 0.09330448 -0.07539352 -0.008818124 -0.3664662 0.008903074 -0.042793274
0.09539839 -0.32168397 0.017463135 -0.062659524 -0.12727407 -0.04318423 -0.03970541 -0.04825892
-0.008834171 0.0053843 0.17372686 0.30634344 -0.07576858 0.08294637 0.19926696 0.10329267
-0.015773823 0.10617712 -0.11635195 -0.16027273 0.15249066 0.3286568 -0.09747227 -0.2230787
-0.06843444 0.14227547 -0.14231642 -0.24458888 -0.21140495 -0.13401622 0.061321784 -0.058092088
-0.03418771 0.06371968 0.025132373 -0.2353193 0.192367 0.14805734 -0.08251698 -0.025836548
-0.09523026 0.22486667 -0.22710212 0.08386466 -0.056785602 -0.21913227 -0.17339636 -0.17641874
0.1184801 -0.21679682 0.13419811 -0.18065034 0.033199333 -0.24097629 -0.1662815 -0.09842658
-0.111394465 0.21935514 0.20202142 -0.105611764 0.07881063 -0.021407364 0.07013223 0.25769135
-0.13409567 -0.15059265 0.14733604 0.23937075 -0.08662183 0.10951715 -0.06345851 -0.22064154
0.12184282 -0.07625728 0.09459682 0.13835007 0.026566574 -0.23205216 0.0072734775 0.2444573
0.2252181 0.058511227 -0.08319179 0.11014594 0.055296842 -0.075340495 0.121625856 0.17018613
0.11879107 -0.18782431 -0.105079286 -0.001845073 -0.14576288 0.16576064 -0.07873934 -0.023238713
-0.014846895 0.1759282 -0.062485978 0.19257234 0.19784461 -0.046212383 -0.016896665 -0.018456496
0.22692898 -0.17874776 -0.17344654 -0.16626206 0.09154774 0.105628654 -0.025761232 0.13220981
-0.13038829 -0.20470555 0.07908424 -0.17054527 0.0863449 -0.17299245 0.033679046 -0.12394207
-0.022629116 -0.24453382 0.13098527 -0.13267188 -0.104046136 0.12642248 -0.033385742 -0.034510337
-0.19743334 -0.019580895 0.14871539 0.14219593 -0.18325952 -0.17755467 0.12202621 0.07886375
0.037371755 0.16685283 -0.01585328 0.16429581 0.059065003 -0.012808674 0.16696776 0.19711992
0.17229722 0.10290269 0.022820588 -0.17621034 -0.16228004 0.10925528 -0.098673515 -0.12260027
00000000: 2688 9ebd abe5 1b3e e794 993d 3681 4b3e
00000010: 1bb6 cbbd 2386 bcbc b19c 21be 8003 323e
00000020: 6d8e d7bc 9408 6bbc 8fcb edbd 1867 123d
00000030: 5e22 763d 7b1b 2d3d 0f9a f03c 0b18 b83d
00000040: 2780 433e d084 14be 9527 7ebd 88b7 d7bd
00000050: 08c8 57be 05b4 0f3e eb4f 80be c235 283c
00000060: 28b3 c23d 73c9 36bc 8f70 c73c b552 33be
00000070: 71c3 133e d203 22bd c486 0cbd 8f2c 903d
00000080: f840 34bd 9359 ffbd cbfa 253e 59e2 4b3e
00000090: edaf 0d3e 6f64 6ebd d0c8 d3bd 254e a53d
000000a0: 9630 2a3e 0454 443e b42f 493e 3382 3a3e
000000b0: 3738 383d d428 1f3e 5a7c 3e3e 6da4 f1bb
000000c0: 69f5 00be 39ab 313d 3df3 92be 5ca4 943a
000000d0: e376 a63c d17e 173e f99e 30be 9d3f 4dbd
000000e0: 9703 b5bd 6f66 393e 7085 4e3d 1f88 edbc
000000f0: 4f67 80bd e0a1 20be 99f0 643d b7d7 7e3e
00000100: 6a01 1abd 49f5 783b 07c5 9cbd 0b80 0f3e
00000110: abea 1ebe f6ea 89bd 22ef ff3d 1cc4 37be
00000120: 26b5 233e 490a 153d 82a1 5cbd 1b55 d03d
00000130: 9054 c0bd 9e3b 3ebe 7c05 d63c 3cf0 313e
00000140: 2476 adbc 113b 35be 04ad 94bd 1dff 96be
00000150: 6442 1e3e 186a b93e 033a 78ba 8350 52be
00000160: 7fcc 4dbd e23e 09be 5249 323d 2b28 29bd
00000170: f4bd 0abe 885c 1f3e c8ad 953d fdb0 60be
00000180: 3a94 39be 3eeb 103c 6b16 bf3d eb67 9abd
00000190: e579 10bc 75a1 bbbe 33de 113c 0048 2fbd
000001a0: 3b60 c33d c3b3 a4be d90e 8f3c a353 80bd
000001b0: 2254 02be f2e1 30bd 24a2 22bd 25ab 45bd
000001c0: 33bd 10bc c86e b03b 74e5 313e 0cd9 9c3e
000001d0: 8f2c 9bbd c9df a93d a30c 4c3e 1b8b d33d
000001e0: 1b38 81bc 6473 d93d ee49 eebd 891e 24be
000001f0: 8326 1c3e b445 a83e 8b9f c7bd be6e 64be
00000200: 5b27 8cbd a9b0 113e 65bb 11be 8275 7abe
00000210: 8a7a 58be 8c3b 09be 8d2c 7b3d f8f1 6dbd
00000220: 6a08 0cbd 777f 823d 68e2 cd3c 8bf7 70be
00000230: dbfb 443e 589c 173e aafe a8bd 2ba7 d3bc
00000240: 1508 c3bd 7343 663e 758d 68be 3cc1 ab3d
00000250: 0598 68bd 3664 60be d18e 31be 1da7 34be
00000260: b2a5 f23d fcff 5dbe 3b6b 093e 67fc 38be
00000270: 06fc 073d 7dc2 76be b345 2abe e093 c9bd
00000280: c822 e4bd a29e 603e b4de 4e3e fb4a d8bd
00000290: 7867 a13d 7f5e afbc 7da1 8f3d 1ff0 833e
000002a0: 6050 09be f634 1abe 42df 163e 9b1d 753e
000002b0: c966 b1bd 874a e03d 89f6 81bd dbef 61be
000002c0: ba88 f93d c72c 9cbd fabb c13d a4ab 0d3e
000002d0: 25a2 d93c 159f 6dbe 5a56 ee3b 0453 7a3e
000002e0: 939f 663e 78a9 6f3d 7560 aabd 3294 e13d
000002f0: f17e 623d 1e4c 9abd fa16 f93d 4645 2e3e
00000300: bc48 f33d 0455 40be cf33 d7bd 60d6 f1ba
00000310: dd42 15be 28bd 293e 1742 a1bd 1d5f bebc
00000320: 6440 73bc 8626 343e 4cf1 7fbd af31 453e
00000330: c797 4a3e 3249 3dbd e06a 8abc 1432 97bc
00000340: 1260 683e a709 37be f89b 31be 9a40 2abe
00000350: 627d bb3d d653 d83d 3809 d3bc 0262 073e
00000360: 8284 05be 559e 51be ebf6 a13d 6ba3 2ebe
00000370: 98d5 b03d ef24 31be 0af3 093d 57d5 fdbd
00000380: b260 b9bc 1367 7abe 0121 063e 23db 07be
00000390: 2416 d5bd e574 013e 7dbf 08bd b65a 0dbd
000003a0: f72b 4abe 1d68 a0bc d948 183e cf9b 113e
000003b0: 62a8 3bbe e4d0 35be e1e8 f93d 5183 a13d
000003c0: 2013 193d 78db 2a3e bdde 81bc 293d 283e
000003d0: 25ee 713d 79db 51bc 99f9 2a3e ced9 493e
000003e0: af6e 303e a5be d23d 3ef2 ba3c 7c70 34be
000003f0: bd2c 26be 3bc1 df3d 5715 cabd da15 fbbd

transformer_encoder.layers.0.linear1.bias f4 [20]
-0.08142613 0.09342543 -0.205793 -0.06003964 0.16694431 -0.0034765594 -0.2261423 -0.2358269
0.04327512 0.082773015 0.11601616 -0.0336568 0.04161029 -0.042075377 -0.108331926 -0.08754057
-0.17737944 -0.15112014 -0.13908212 -0.2384356
00000000: bec2 a6bd d555 bf3d 66bb 52be 20ec 75bd
00000010: 73f3 2a3e fdd6 63bb d991 67be 9b7c 71be
00000020: 4141 313d e684 a93d e199 ed3d b6db 09bd
00000030: 8d6f 2a3d 3b57 2cbd 21dd ddbd 7848 b3bd
00000040: f5a2 35be 3dbf 1abe 8b6b 0ebe 7628 74be

transformer_encoder.layers.0.linear2.weight f4 [20, 20]
0.06967995 -0.16662024 -0.061500106 0.20894781 -0.2305886 0.35301825 0.04464916 0.16697262
-0.124101244 0.24535027 0.08820204 0.27404147 -0.12373776 0.027325744 0.19385618 0.12638956
0.24671514 -0.07564067 -0.05955425 0.077470936 0.13113123 0.053025577 -0.051250678 0.05078919
-0.02655186 0.25912032 0.12316919 -0.15881874 0.1265304 0.010113237 -0.097112805 -0.019373747
0.1488986 -0.04986509 0.11538735 -0.08918472 0.005735769 -0.0040119006 0.004858854 -0.011450685
0.055687785 -0.035482958 0.1324461 -0.09754125 -0.12568896 0.24384181 -0.13857885 0.23147261
0.16628273 0.13565339 -0.0067413524 -0.0088108545 -0.01254337 -0.060957454 0.08391358 -0.09408788
-0.041859183 0.016105313 0.05180168 0.06285241 0.14992988 -0.024481917 -0.0078525385 -0.0851186
0.024776839 0.05425514 0.12195756 0.14354827 -0.0034038674 -0.14431061 0.03505833 -0.008987122
0.037549928 -0.0024991946 0.14169763 0.15938705 -0.108800925 0.0057423417 0.04394794 -0.09190725
-0.03952093 0.010607707 -0.16640729 0.059159692 0.0832546 0.15794289 0.07904823 0.099024236
0.18337081 0.117101096 -0.11190084 -0.11178333 0.13024098 0.20367628 -0.08740048 0.22424476
0.1182637 -0.1903074 0.061657544 0.031775843 0.19198605 0.08150747 -0.13177224 -0.046994537
0.029644374 0.19192015 -0.19033808 -0.104595825 -0.07146512 -0.020626463 0.013935737 0.021339329
0.10493215 -0.08652443 -0.16530041 -0.1659853 0.06736129 0.048293594 -0.040509503 0.15625809
-0.12587553 0.076848894 -0.09037304 0.17417164 0.012938081 0.11843262 -0.058334414 0.004568827
-0.31499735 0.15761352 0.030266225 -0.123261996 0.08549005 -0.20318204 0.032684393 0.204507
0.084599525 0.033855453 0.005511049 0.020120988 0.14967 0.1654071 0.10185756 -0.15933141
0.19886208 -0.1846317 0.2146286 0.0022807668 0.19652389 0.016781285 0.15880874 0.027421944
0.054555286 0.10193141 0.14300285 -0.1703506 -0.08760791 0.07733841 0.09239865 0.09595876
0.05818479 0.088999584 -0.14727779 0.20339519 -0.082096554 0.1050948 -0.2689082 0.077393435
-0.02410061 0.16898982 -0.1334239 -0.1637952 0.10692222 -0.09675909 0.035304952 -0.082101
0.246095 0.1817762 0.10972281 0.03880413 0.11028451 0.15559484 0.12630482 0.0086311875
-0.16418616 -0.23307404 -0.053878445 -0.08716005 -0.07384547 -0.05131202 -0.06458094 -0.016939763
0.14679247 -0.061868906 -0.083368525 -0.07978196 0.043937076 -0.10400275 0.121795356 -0.21893227
-0.1395814 -0.24285932 0.099666275 0.15787415 0.24569371 -0.14195685 0.21455069 0.22151013
-0.103945024 0.07588527 0.20464726 -0.07533423 0.009709625 -0.049585264 -0.1524885 0.0033942363
-0.27020037 0.1284417 -0.064375594 -0.27260187 0.18852274 0.15317987 -0.034529507 -0.20199919
0.14407508 0.014591294 0.22339678 -0.10901604 0.1617269 0.092437245 0.07509111 -0.32158402
-0.28078732 0.054685075 0.005677954 0.14229639 0.10193644 -0.14612366 0.045423478 -0.11712353
-0.044860654 -0.18535213 0.123222746 -0.16106755 0.0212611 -0.15450963 -0.10080474 -0.055179868
-0.15462542 -0.22948562 -0.16128984 -0.21989246 0.17910159 0.13427924 0.02851753 0.16083635
00000000: 5db4 8e3d 7f9e 2abe 89e7 7bbd 6af6 553e
00000010: 6b1f 6cbe cfbe b43e 0ae2 363d dffa 2a3e
00000020: cb28 febd 1a3d 7b3e 45a3 b43d 2a4f 8c3e
00000030: 396a fdbd 3dda df3c 3c82 463e 446c 013e
00000040: e5a2 7c3e 7fe9 9abd 28ef 73bd 15a9 9e3d
00000050: 4447 063e 5931 593d 3bec 51bd 5308 503d
00000060: 4983 d9bc 6bab 843e 2140 fc3d 61a1 22be
00000070: 2f91 013e feb1 253c 14e3 c6bd b1b5 9ebc
00000080: e078 183e 563f 4cbd 3450 ec3d 7aa6 b6bd
00000090: 1ef3 bb3b 4376 83bb 0637 9f3b a79b 3bbc
000000a0: e018 643d 9456 11bd f39f 073e b5c3 c7bd
000000b0: 9bb4 00be abb1 793e 9de7 0dbe 2807 6d3e
000000c0: 0546 2a3e b9e8 0a3e 90e6 dcbb 675b 10bc
000000d0: b582 4dbc 86ae 79bd e2da ab3d 25b1 c0bd
000000e0: 8974 2bbd 4aef 833c 002e 543d c4b8 803d
000000f0: 3887 193e 4d8e c8bc efa7 00bc a952 aebd
00000100: ccf8 ca3c a33a 5e3d e3c4 f93d 51fe 123e
00000110: 6b13 5fbb 29c6 13be 5399 0f3d b93e 13bc
00000120: f4cd 193d 87c9 23bb 2f19 113e 5c36 233e
00000130: 05d3 debd 412a bc3b c102 343d de39 bcbd
00000140: b3e0 21bd f3cb 2d3c ac66 2abe 6f51 723d
00000150: 6381 aa3d c8bb 213e 0ae4 a13d 38cd ca3d
00000160: 8fc5 3b3e b3d2 ef3d 452c e5bd a9ee e4bd
00000170: e45d 053e 8490 503e 06ff b2bd 6ba0 653e
00000180: 3d34 f23d f1df 42be 9f8c 7c3d 6327 023d
00000190: fe97 443e 63ed a63d 4def 06be 587d 40bd
000001a0: c2d8 f23c b786 443e fce7 42be 5636 d6bd
000001b0: 4e5c 92bd d4f8 a8bc b852 643c d1cf ae3c
000001c0: abe6 d63d b833 b1bd 8344 29be 0df8 29be
000001d0: b7f4 893d 81cf 453d 4bed 25bd 1f02 203e
000001e0: 84e5 00be f462 9d3d 8015 b9bd 0d5a 323e
000001f0: 3ffa 533c cd8c f23d 11f0 6ebd 19b6 953b
00000200: 5547 a1be 7065 213e e0f0 f73c c970 fcbd
00000210: 6815 af3d f40e 50be 12e0 053d 486a 513e
00000220: 8442 ad3d 04ac 0a3d 0896 b43b c5d4 a43c
00000230: 1843 193e 7b60 293e b29a d03d c627 23be
00000240: 80a2 4b3e 1810 3dbe 9ac7 5b3e eb78 153b
00000250: 8f3d 493e e878 893c c29e 223e fca3 e03c
00000260: 5d75 5f3d 6ac1 d03d 576f 123e 6370 2ebe
00000270: c76b b3bd 9a63 9e3d 813b bd3d 0786 c43d
00000280: 2d53 6e3d 6a45 b63d fdcf 16be d446 503e
00000290: 3d22 a8bd f13b d73d 56ae 89be 7380 9e3d
000002a0: a46e c5bc ab0b 2d3e 46a0 08be eeb9 27be
000002b0: 09fa da3d a129 c6bd ed9b 103d 9224 a8bd
000002c0: 5400 7c3e 8a23 3a3e 5ab6 e03d 14f1 1e3d
000002d0: d8dc e13d 4154 1f3e 0d56 013e d369 0d3c
000002e0: 6b20 28be f6aa 6ebe a5af 5cbd f880 b2bd
000002f0: 4b3c 97bd 8d2c 52bd 0343 84bd 42c5 8abc
00000300: c450 163e 406a 7dbd 1ebd aabd b964 a3bd
00000310: 5df7 333d 65ff d4bd d86f f93d c82f 60be
00000320: 6dee 0ebe 1db0 78be d51d cc3d c3a9 213e
00000330: 2297 7b3e 235d 11be 2db3 5b3e 8dd3 623e
00000340: 21e1 d4bd bd69 9b3d 0d8f 513e d548 9abd
00000350: 1e15 1f3c eb19 4bbd f225 1cbe d671 5e3b
00000360: b457 8abe 3986 033e 5ad7 83bd 7992 8bbe
00000370: 1b0c 413e 2fdb 1c3e d06e 0dbd e0d8 4ebe
00000380: 6b88 133e 5310 6f3c 20c2 643e cd43 dfbd
00000390: bd9b 253e bd4f bd3d 5ec9 993d a9a6 a4be
000003a0: 5bc3 8fbe 75fd 5f3d 210e ba3b 25b6 113e
000003b0: 0dc4 d03d 71a1 15be f80d 3a3d 76de efbd
000003c0: cebf 37bd f3cc 3dbe 355c fc3d e4ee 24be
000003d0: c22b ae3c c637 1ebe b772 cebd 4904 62bd
000003e0: 2056 1ebe 47fe 6abe 2a29 25be 7d2b 61be
000003f0: 6866 373e 7f80 093e 989d e93c 49b2 243e

transformer_encoder.layers.0.linear2.bias f4 [20]
0.122541256 0.020510906 0.23133428 -0.004320798 0.14723766 0.02787284 -0.009099637 -0.14906152
-0.0018015106 -0.048039615 0.19486299 -0.030770654 0.031993292 0.060553685 -0.020909589 -0.04952226
0.13776554 -0.04330202 0.17909306 -0.09549195
00000000: e9f6 fa3d 7d06 a83c e5e2 6c3e 7b95 8dbb
00000010: 78c5 163e 9555 e43c a516 15bc 95a3 18be
00000020: aa20 ecba 30c5 44bd 2a8a 473e bd12 fcbc
00000030: 660b 033d 2407 783d 964a abbc dad7 4abd
00000040: 6912 0d3e 755d 31bd 2c64 373e 4991 c3bd

transformer_encoder.layers.0.norm1.weight f4 [20]
1.2413338 1.1092029 1.148879 1.1484464 1.0436099 1.2133065 1.0782458 0.92377305
1.0932387 0.99972326 0.9820222 1.0686128 0.92579645 0.96197814 0.9708742 0.76965904
0.9491698 1.0945872 0.98695004 0.96419173
00000000: 07e4 9e3f 5cfa 8d3f 780e 933f 4b00 933f
00000010: 0295 853f a14d 9b3f f503 8a3f 647c 6c3f
00000020: 3fef 8b3f dded 7f3f cf65 7b3f 4ec8 883f
00000030: ff00 6d3f 3344 763f 368b 783f 6008 453f
00000040: cbfc 723f 6f1b 8c3f c2a8 7c3f 45d5 763f

transformer_encoder.layers.0.norm1.bias f4 [20]
-0.026397852 0.07608521 0.07577764 0.004489099 0.035264507 0.04126407 -0.059780642 0.042082533
0.0020402393 -0.063665465 0.036958087 -0.02411708 0.052376144 -0.053450473 0.035849303 -0.044320732
0.0039155115 -0.05652992 0.033600885 -0.04178944
00000000: 4f40 d8bc 90d2 9b3d 4f31 9b3d 4b19 933b
00000010: 8471 103d 8304 293d 8cdc 74bd bc5e 2c3d
00000020: 89b5 053b 0a63 82bd 5d61 173d 2f91 c5bc
00000030: 5e88 563d e2ee 5abd b8d6 123d a889 35bd
00000040: b14d 803b eb8b 67bd 15a1 093d 672b 2bbd

transformer_encoder.layers.0.norm2.weight f4 [20]
1.2835907 0.8970537 1.1598175 1.0190741 1.0894371 1.0140024 1.1169388 0.93778354
1.1206656 1.0422807 0.9580475 1.0950799 0.9126767 0.9818647 0.96820205 0.82836753
0.9582246 1.1166759 1.0164198 1.0380313
00000000: b34c a43f 50a5 653f e674 943f 0571 823f
00000010: ad72 8b3f d5ca 813f daf7 8e3f 9512 703f
00000020: f871 8f3f 7469 853f 9a42 753f 942b 8c3f
00000030: 2ea5 693f 7c5b 7b3f 17dc 773f e50f 543f
00000040: 354e 753f 3cef 8e3f 0b1a 823f 36de 843f

transformer_encoder.layers.0.norm2.bias f4 [20]
0.02298279 0.07339639 0.09315733 0.062408406 0.016122328 -0.0009647266 -0.040762268 0.06720892
0.0073234756 -0.0637686 0.024463514 -0.016816746 0.007775865 -0.00701739 0.07351426 0.034931052
-0.032466415 -0.0515649 0.04561422 -0.028749555
00000000: 6746 bc3c d950 963d 45c9 be3d f59f 7f3d
00000010: f912 843c b5e5 7cba 56f6 26bd d5a4 893d
00000020: c4f9 ef3b 1d99 82bd b567 c83c 46c3 89bc
00000030: afcc fe3b 22f2 e5bb a58e 963d dd13 0f3d
00000040: 81fb 04bd b735 53bd fad5 3a3d 3084 ebbc

transformer_encoder.layers.1.self_attn.in_proj_weight f4 [60, 20]
-0.166212 -0.2467058 0.22037569 0.053758394 0.18019037 0.056671705 -0.16865456 0.1289343
0.032760892 0.05194639 -0.20109823 0.23068133 -0.2797945 0.18373892 0.2570048 0.26970807
0.08047428 -0.1029797 -0.011443581 0.013429795 0.22369052 -0.014900211 -0.24871577 0.095732585
0.08260208 0.113396175 0.15571813 -0.064489506 0.20946525 -0.03969605 -0.0015430258 -0.07524763
0.09824796 -0.072906025 0.2220451 0.15649252 0.2603589 0.014662263 0.045000404 -0.14370702
0.16641349 -0.21259923 0.020227587 -0.05934021 0.21489744 -0.22847843 0.19277465 -0.25747988
0.021454176 -0.079790145 -0.06680382 -0.06528386 0.045761593 -0.1991814 0.10051466 -0.17112252
-0.05975602 -0.27589315 -0.10258632 0.012573626 0.043234598 0.0555649 -0.16511835 0.0652012
0.2663966 0.17018174 -0.10831001 0.15168974 0.006638543 0.0035509092 0.059293903 0.12848319
-0.23512897 -0.07888684 0.017161984 0.17317587 -0.20128882 -0.12582149 -0.008191812 0.08990402
-0.23747166 0.13696621 -0.17459343 0.22922187 -0.040488258 -0.05285772 -0.009512148 0.0018282678
0.2233104 0.14077707 -0.22296515 0.1543665 0.17017025 -0.07602644 -0.19833155 -0.083597645
-0.05787665 0.037618823 0.032996118 0.23778516 -0.065975346 -0.033206757 0.18451719 -0.23680556
0.084378615 0.033441965 0.044708904 0.19452643 -0.18414867 -0.14321466 0.088794544 0.18587153
-0.03506744 -0.05442841 -0.24271855 0.14139253 -0.150549 -0.19169973 -0.08086348 -0.039572943
-0.113779515 0.10055925 0.11982048 0.04120955 -0.17500976 -0.10689613 -0.03668835 -0.1249109
-0.17639472 0.1542561 -0.12667811 0.079199895 -0.053641528 0.13302137 -0.16497084 0.18779598
0.17627196 -0.12162078 -0.0025108422 -0.14207464 0.060231905 -0.18554735 0.03724852 0.10655825
0.28534392 -0.046020113 -0.23619942 -0.030020347 -0.13585424 -0.11834875 0.04612349 -0.23809148
0.1600535 0.0073040286 -0.17711842 -0.17239372 0.09340421 -0.0017454155 -0.08356345 -0.111415505
0.12571515 -0.057866648 -0.07350204 0.16005808 0.12190397 -0.07549407 -0.23618361 0.19099553
-0.016804619 0.17668805 -0.04710717 0.04618695 0.2334015 -0.123050414 0.11207901 0.15775074
0.14339992 -0.21234511 0.25872236 0.12673134 -0.14419565 -0.059537 0.12895 0.1293437
0.20073941 -0.21277593 -0.11327225 0.16569549 -0.09416274 -0.14180593 -0.14748564 -0.10549632
0.17259441 -0.03148637 0.02182871 0.0063951095 -0.18108857 -0.07928512 -0.07434017 0.025129782
-0.114603624 -0.23625706 0.0062615215 -0.14684312 0.013548677 0.08970066 0.0644255 -0.17367998
0.19483237 0.1645157 0.100377694 -0.012275622 -0.01595123 0.010477005 -0.06957681 -0.0031249975
0.029537853 0.2516038 0.11196212 0.11709134 -0.033302803 -0.24196957 -0.28227156 -0.21460606
0.20048557 -0.08144189 -0.085799135 0.045605294 0.003858421 0.20338291 -0.12149943 0.025525678
-0.15434071 -0.051929962 -0.18165328 0.13762696 0.07483072 0.022052618 0.010943299 -0.27957875
0.28419885 0.12090557 0.23489678 -0.26190206 -0.1810543 -0.117128566 -0.25358582 0.08603337
-0.07932275 -0.17035823 0.13674746 0.016944004 0.27285472 0.22159325 0.2712692 -0.03081342
00000000: 7b33 2abe 72a0 7cbe 2aaa 613e c331 5c3d
00000010: d383 383e 9720 683d c8b3 2cbe 5a07 043e
00000020: 4930 063d bdc5 543d b2ec 4dbe ba37 6c3e
00000030: 3a41 8fbe 0e26 3c3e 2296 833e 2d17 8a3e
00000040: b3cf a43d 05e7 d2bd dc7d 3bbc a508 5c3c
00000050: 210f 653e 0420 74bc 59af 7ebe 720f c43d
00000060: 482b a93d 413c e83d 9374 1f3e 1313 84bd
00000070: 0f7e 563e 5398 22bd 5b3f caba 6e1b 9abd
00000080: 3a36 c93d c14f 95bd ca5f 633e 933f 203e
00000090: c34d 853e fd39 703c 5852 383d ef27 13be
000000a0: 4c68 2a3e 9db3 59be 53b4 a53c b80e 73bd
000000b0: 130e 5c3e 40f6 69be b866 453e 67d4 83be
000000c0: abc0 af3c 0469 a3bd 71d0 88bd 8bb3 85bd
000000d0: 8270 3b3d 35f6 4bbe a1da cd3d be3a 2fbe
000000e0: bac2 74bd de41 8dbe c718 d2bd 9c01 4e3c
000000f0: c316 313d 0598 633d c914 29be 3588 853d
00000100: 2365 883e 1f44 2e3e a3d1 ddbd 8e54 1b3e
00000110: 2388 d93b 5fb6 683b 2ade 723d 1991 033e
00000120: a6c5 70be 6c8f a1bd 4a97 8c3c 0455 313e
00000130: a81e 4ebe 59d7 00be f336 06bc 991f b83d
00000140: c52b 73be df40 0c3e 9fc8 32be 23b9 6a3e
00000150: 04d7 25bd 5681 58bd d7d8 1bbc 7da2 ef3a
00000160: 7bab 643e dd27 103e fa50 64be 4012 1e3e
00000170: 1c41 2e3e c0b3 9bbd 6d17 4bbe 3e35 abbd
00000180: 1110 6dbd 3216 1a3d f026 073d f47d 733e
00000190: 151e 87bd cf03 08bd 13f2 3c3e 287d 72be
000001a0: b2ce ac3d 71fa 083d af20 373d f031 473e
000001b0: 7891 3cbe dda6 12be ead9 b53d 1b55 3e3e
000001c0: e0a2 0fbd 53f0 5ebd 368b 78be 34c9 103e
000001d0: 8429 1abe ef4c 44be c19b a5bd 3d17 22bd
000001e0: 3c05 e9bd 02f2 cd3d 7164 f53d 58cb 283d
000001f0: c235 33be 5cec dabd 8646 16bd 49d1 ffbd
00000200: d1a0 34be 50f5 1d3e e8b7 01be 8e33 a23d
00000210: 38b7 5bbd c136 083e 1eee 28be 974d 403e
00000220: a380 343e 5114 f9bd f18c 24bb 047c 11be
00000230: bbb5 763d 2000 3ebe e791 183d 363b da3d
00000240: 9918 923e 967f 3cbd 43de 71be 3bed f5bc
00000250: 601d 0bbe d460 f2bd fceb 3c3d 41ce 73be
00000260: 11e5 233e a256 ef3b 885e 35be fb87 30be
00000270: b54a bf3d 6dc6 e4ba 5023 abbd d02d e4bd
00000280: 79bb 003e 9405 6dbd 3d88 96bd 44e6 233e
00000290: caa8 f93d a39c 9abd 1eda 71be 5594 433e
000002a0: d7a9 89bc b6ed 343e 73f3 40bd 872e 3d3d
000002b0: ce00 6f3e db01 fcbd ae89 e53d 6989 213e
000002c0: 6ed7 123e ff70 59be 4277 843e dcc5 013e
000002d0: 06a8 13be 12dd 73bd 780b 043e ad72 043e
000002e0: a28e 4d3e efe1 59be 48fb e7bd 14ac 293e
000002f0: 65d8 c0bd 9335 11be 7a06 17be 740e d8bd
00000300: 97bc 303e daf7 00bd 1fd2 b23c 118e d13b
00000310: 486f 39be 3d60 a2bd a93f 98bd f9dc cd3c
00000320: 4eb5 eabd 5fed 71be 732d cd3b 0b5e 16be
00000330: 45fb 5d3c fbb4 b73d 84f1 833d 2ad9 31be
00000340: 2382 473e ce76 283e d292 cd3d b11f 49bc
00000350: 27ac 82bc bea7 2b3c 497e 8ebd c2cc 4cbb
00000360: 5ef9 f13c 37d2 803e 654c e53d 96cd ef3d
00000370: 8568 08bd dfc6 77be e685 90be b1c1 5bbe
00000380: 174c 4d3e 01cb a6bd 75b7 afbd 9ecc 3a3d
00000390: 90dd 7c3b 9c43 503e b1d4 f8bd 3a1b d13c
000003a0: 7e0b 1ebe 83b4 54bd 5103 3abe 15ee 0c3e
000003b0: d940 993d b1a7 b43c 864b 333c f224 8fbe
000003c0: 8382 913e 579d f73d c888 703e 0718 86be
000003d0: 4c66 39be 1ae1 efbd 00d6 81be 4332 b03d
000003e0: f773 a2bd 6372 2ebe 8707 0c3e 27ce 8a3c
000003f0: 9db3 8b3e 57e9 623e cce3 8a3e 6d6c fcbc

transformer_encoder.layers.1.self_attn.in_proj_bias f4 [60]
0.009480654 0.0023190514 0.02787687 -0.019315442 -0.018924044 0.046185758 -0.001628598 0.0044211526
0.030566642 -0.006275648 -0.009042008 -0.039399922 0.0033043385 0.0008370854 -0.0015487798 -0.0023541967
-0.007361917 -0.066885434 -0.005096147 0.050327726 -9.05665e-10 -1.4219744e-09 1.2881022e-09 2.7086241e-11
-1.7227927e-09 3.347431e-09 2.4007034e-09 5.893146e-09 -3.73529e-10 8.460857e-10 -3.2175616e-09 -3.1017304e-09
9.474447e-10 7.086642e-11 -4.54681e-09 -1.8779636e-09 2.009456e-09 -3.2787695e-09 -1.0683933e-09 -1.5274109e-09
0.00016690424 -0.05460384 0.009816488 0.0006077206 0.08484982 -0.02620234 0.0033632596 0.01445312
0.035664473 0.00024283405 -0.004072524 0.009660759 -0.020013573 -0.02997325 -0.057098564 -0.035551295
0.051406067 0.003042655 -0.020163242 0.021767639
00000000: bf54 1b3c 3afb 173b 095e e43c 6b3b 9ebc
00000010: 9906 9bbc 472d 3d3d ae76 d5ba 51df 903b
00000020: e566 fa3c f3a3 cdbb ee24 14bc d061 21bd
00000030: 9a8d 583b da6f 5b3a 6d00 cbba de48 1abb
00000040: 3c3c f1bb 3bfb 88bd 94fd a6bb 7224 4e3d
00000050: 82f2 78b0 476f c3b0 1109 b130 cb40 ee2d
00000060: 61c7 ecb0 a108 6631 9ff9 2431 a97c ca31
00000070: 8959 cdaf fd91 6830 f11b 5db1 3826 55b1
00000080: 3f37 8230 3fd6 9b2e 2a3a 9cb1 7c0d 01b1
00000090: b916 0a31 b950 61b1 bfd6 92b0 feec d1b0
000000a0: 0403 2f39 47a8 5fbd 56d5 203c 704f 1f3a
000000b0: bec5 ad3d 4aa6 d6bc 226a 5c3b c7cc 6c3c
000000c0: e914 123d 45a1 7e39 cf72 85bb 2948 1e3c
000000d0: 81f3 a3bc 768a f5bc 2fe0 69bd 3c9e 11bd
000000e0: 2b8f 523d 4867 473b 622d a5bc 0c52 b23c

transformer_encoder.layers.1.self_attn.out_proj.weight f4 [20, 20]
0.1284925 -0.013475483 0.014473996 0.060393848 0.34281513 -0.14366162 0.13880414 0.058618054
-0.16488376 0.09838056 -0.22889444 0.03481749 -0.102744125 0.0011209964 0.041994564 -0.26172462
-0.0048234523 0.045477033 0.24345098 0.025595214 0.09558795 -0.14024386 0.06487341 0.09099716
0.13161226 -0.0561106 -0.2843751 -0.21969144 -0.28017357 -0.03636726 -0.04607901 0.10118981
0.116969675 -0.30747873 -0.104691096 -0.017576484 -0.050297055 0.019168172 0.061146386 -0.08082206
-0.12934488 0.0052706986 -0.13508843 -0.17231971 0.20571075 -0.10202254 -0.091604434 0.040877093
-0.2193332 -0.059287444 -0.19147171 -0.20259283 0.09343434 -0.020271799 0.012484934 -0.066067405
0.17418125 0.02239166 0.068211034 -0.071249165 0.033431143 -0.010040706 0.0022020058 0.04747493
0.1926445 -0.22655027 0.12540813 0.044571154 0.120856635 0.08748575 0.043939468 -0.12866184
0.07646834 0.13669641 0.35353923 -0.14295517 -0.10603887 0.052682668 -0.023105176 0.19431032
-0.01364932 0.036236145 -0.2057213 -0.17243387 0.007082406 -0.10775524 0.1289665 -0.1338704
0.14363204 0.049073394 -0.0641281 0.11128196 -0.16639471 0.17945988 -0.103427134 -0.14362648
0.06776019 0.11474335 0.1351469 -0.044371277 0.20043434 0.040048756 -0.17149834 0.0271818
0.05987884 -0.12376515 -0.3138036 -0.17632551 -0.07175477 0.28613606 -0.2846998 0.04199828
-0.13099748 -0.01144562 0.19234757 0.130643 -0.016205816 -0.12536684 0.12070839 -0.14257525
0.10847177 -0.08646543 -0.14345759 0.018053327 0.14811751 -0.17297274 0.14720975 0.093286626
0.36073285 0.15762848 0.0969901 0.079223104 0.14959559 0.119554386 -0.32275108 0.122112386
0.0048596635 0.0028245728 -0.13463394 -0.1937575 0.05738835 -0.14435984 0.14023669 -0.003053514
0.13582999 -0.084266566 -0.063830204 0.1251989 0.08939369 -0.11098099 -0.17593019 -0.16890709
0.17216414 -0.14243628 -0.029607099 -0.026472777 0.076978125 0.16141827 -0.019102404 -0.08574117
0.094734065 0.11365874 0.2525142 -0.018347515 -0.074718736 0.11352955 -0.014762407 0.20847012
0.05651281 -0.119851 -0.18495724 -0.14142767 -0.06934388 0.14726374 -0.02533629 0.15874612
-0.016805662 0.16325176 0.105737135 -0.16708796 0.15412875 -0.15945165 0.23570348 -0.18925709
0.11494629 0.062269192 0.13242806 0.09657166 0.19653602 -0.18141945 0.123745665 0.045875315
-0.14412397 0.018405804 -0.05856267 0.068729386 -0.13339059 0.09293884 -0.150858 -0.21511702
0.2121707 -0.13837773 0.021297477 0.044222716 0.081122786 -0.039307088 0.19698517 0.07622361
-0.07566351 0.009702705 0.0068940516 -0.18586795 0.03527003 -0.01907497 0.06563381 0.22703677
0.028820537 0.16815472 0.011261168 0.0116044 0.16160332 0.08471013 -0.037770644 -0.22928648
-0.015357314 -0.099940315 -0.09573259 0.07837168 0.28025237 -0.05601515 -0.02155256 0.0009801182
-0.022196332 0.025675183 0.010439213 0.12797041 -0.21815431 -0.18930677 0.09242298 0.044180043
-0.16010344 -0.07265487 0.22570084 -0.15403938 -0.22735232 0.10776849 0.122778654 0.17157722
-0.15504897 0.1851988 0.22808427 -0.036842268 0.041616686 0.26085135 -0.01003322 0.26442918
00000000: 8a93 033e 46c8 5cbc 5724 6d3c 8a5f 773d
00000010: 7785 af3e 081c 13be ac22 0e3e 7c19 703d
00000020: 4ad7 28be bf7b c93d 4e63 6abe c99c 0e3d
00000030: 836b d2bd 66ee 923a 7e02 2c3d c500 86be
00000040: 0d0e 9ebb 2046 3a3d 374b 793e 0ead d13c
00000050: 9dc3 c33d 169c 0fbe 5adc 843d b85c ba3d
00000060: 5dc5 063e 3ad4 65bd 9d99 91be cbf6 60be
00000070: e972 8fbe d6f5 14bd 58bd 3cbd 9a3c cf3d
00000080: cc8d ef3d da6d 9dbe 4968 d6bd 8ffc 8fbc
00000090: 4904 4ebd 9206 9d3c a274 7a3d 0986 a5bd
000000a0: fc72 04be d3b5 ac3b 9f54 0abe 9474 30be
000000b0: d7a5 523e 32f1 d0bd 1b9b bbbd bd6e 273d
000000c0: e298 60be 64d7 72bd 2911 44be 7f74 4fbe
000000d0: 815a bf3d 0b11 a6bc 9c8d 4c3c 594e 87bd
000000e0: 925c 323e b76e b73c 3ab2 8b3d 15eb 91bd
000000f0: 18ef 083d c681 24bc 874f 103b 1275 423d
00000100: 9a44 453e cbfc 67be fd6a 003e 3e90 363d
00000110: af83 f73d bb2b b33d dff9 333d eebf 03be
00000120: 6f9b 9c3d 25fa 0b3e 1803 b53e d762 12be
00000130: e82a d9bd c8c9 573d 1147 bdbc 49f9 463e
00000140: 66a1 5fbc 5a6c 143d 9ba8 52be 8192 30be
00000150: 8713 e83b c7ae dcbd cb0f 043e 5215 09be
00000160: 4714 133e 2f01 493d 9855 83bd cce7 e33d
00000170: 6063 2abe 55c4 373e 9bd1 d3bd d212 13be
00000180: dbc5 8a3d 90fe ea3d f363 0a3e a8be 35bd
00000190: a93e 4d3e 2a0a 243d 439d 2fbe 5eac de3c
000001a0: 8443 753d 9578 fdbd deaa a0be ad8e 34be
000001b0: 2af4 92bd 6d80 923e 2cc4 91be 6306 2c3d
000001c0: 3424 06be 6986 3bbc c3f6 443e 47c7 053e
000001d0: 0fc2 84bc 2a60 00be f635 f73d 3fff 11be
000001e0: 7326 de3d ca14 b1bd 8ce6 12be 92e4 933c
000001f0: 1eac 173e c41f 31be 27be 163e 0f0d bf3d
00000200: fab1 b83e 5c69 213e bfa2 c63d b93f a23d
00000210: 962f 193e eed8 f43d a13f a5be 0f16 fa3d
00000220: d03d 9f3b 781c 393b 7bdd 09be 5e68 46be
00000230: 0c10 6b3d 11d3 13be 359a 0f3e 771d 48bb
00000240: 0417 0b3e f393 acbd 69b9 82bd 2434 003e
00000250: 0a14 b73d 004a e3bd 0b27 34be fbf5 2cbe
00000260: cc4b 303e d1da 11be 968a f2bc 70dd d8bc
00000270: b5a6 9d3d d54a 253e a57c 9cbc 1199 afbd
00000280: ef03 c23d eac5 e83d 8b49 813e 874d 96bc
00000290: 2306 99bd 2e82 e83d 06de 71bc 3179 553e
000002a0: fa79 673d 7174 f5bd 6e65 3dbe 6ad2 10be
000002b0: 2a04 8ebd 4ecc 163e 0d8e cfbc 588e 223e
000002c0: 07ac 89bc 782b 273e b68c d83d 1b19 2bbe
000002d0: edd3 1d3e 4b47 23be 415c 713e 9ccc 41be
000002e0: f668 eb3d fb0d 7f3d 399b 073e 5dc7 c53d
000002f0: bd40 493e 05c6 39be 5e6e fd3d c1e7 3b3d
00000300: 3c95 13be c5c7 963c 69df 6fbd fec1 8c3d
00000310: 8b97 08be b856 be3d 857a 1abe a347 5cbe
00000320: 4743 593e e4b2 0dbe 0c78 ae3c e122 353d
00000330: b423 a63d 7800 21bd 7bb6 493e 201b 9c3d
00000340: 78f5 9abd 18f8 1e3c 7fe7 e13b 2b54 3ebe
00000350: 4f77 103d 1d43 9cbc 056b 863d 547c 683e
00000360: 0c19 ec3c c030 2c3e c380 383c 6220 3e3c
00000370: 577b 253e 817c ad3d 64b5 1abd 13ca 6abe
00000380: 3e9d 7bbc 82ad ccbd 730f c4bd 5581 a03d
00000390: 3d7d 8f3e 2470 65bd ff8e b0bc 4f77 803a
000003a0: 15d5 b5bc c354 d23c 3c09 2b3c ad0a 033e
000003b0: d863 5fbe a2d9 41be 4248 bd3d 22f6 343d
000003c0: 28f2 23be 14cc 94bd 1f1e 673e 80bc 1dbe
000003d0: 0ccf 68be bab5 dc3d 6073 fb3d f0b1 2f3e
000003e0: 28c5 1ebe c1a4 3d3e ec8e 693e ebe7 16bd
000003f0: 4276 2a3d 4f8e 853e 6062 24bc 4363 873e

transformer_encoder.layers.1.self_attn.out_proj.bias f4 [20]
0.09426887 0.046489943 -0.014628683 0.041770473 -0.04354406 -0.040602688 -0.020111073 0.040733878
0.008830965 0.0342332 0.0068903477 -0.048562005 -0.053848937 -0.0486871 0.038019188 -0.026990704
-0.052257195 0.009760972 -0.0060788314 0.034313496
00000000: 0a10 c13d 3d6c 3e3d 25ad 6fbc 8417 2b3d
00000010: 425b 32bd 014f 26bd fabf a4bc 91d8 263d
00000020: c0af 103c 1d38 0c3d 6dc8 e13b f4e8 46bd
00000030: b490 5cbd 206c 47bd 02ba 1b3d 9c1b ddbc
00000040: a40b 56bd 7cec 1f3c ef30 c7bb 4f8c 0c3d
