model_epoch_80.pt (torch, 431970 bytes, 28 tensors)

pos_encoder.pe f4 [5000, 1, 20]
0	0x00000000	0.0
1	0x3f800000	1.0
2	0x00000000	0.0
3	0x3f800000	1.0
4	0x00000000	0.0
5	0x3f800000	1.0
6	0x00000000	0.0
7	0x3f800000	1.0
8	0x00000000	0.0
9	0x3f800000	1.0
10	0x00000000	0.0
11	0x3f800000	1.0
12	0x00000000	0.0
13	0x3f800000	1.0
14	0x00000000	0.0
15	0x3f800000	1.0
16	0x00000000	0.0
17	0x3f800000	1.0
18	0x00000000	0.0
19	0x3f800000	1.0
20	0x3f576aa5	0.841471
21	0x3f0a5141	0.54030234
22	0x3ec67d3d	0.38767424
23	0x3f6bfada	0.92179644
24	0x3e219d4e	0.15782663
25	0x3f7ccaa0	0.9874668
26	0x3d812265	0.06305388
27	0x3f7f7d97	0.9980101
28	0x3ccdc08a	0.025116224
29	0x3f7feb53	0.9996845
30	0x3c23d657	0.009999833
31	0x3f7ffcb9	0.99995
32	0x3b827390	0.0039810613
33	0x3f7fff7b	0.9999921
34	0x3acfbc28	0.0015848922
35	0x3f7fffeb	0.99999875
36	0x3a2566d4	0.0006309573
37	0x3f7ffffd	0.9999998
38	0x3983b1f5	0.00025118855
39	0x3f7fffff	0.99999994
40	0x3f68c7b7	0.9092974
41	0xbed51133	-0.41614684
42	0x3f36f776	0.71471345
43	0x3f330d04	0.69941735
44	0x3e9f96c5	0.31169716
45	0x3f733f18	0.9501815
46	0x3e00e09d	0.12585683
47	0x3f7df6e3	0.99204844
48	0x3d4dafec	0.0502166
49	0x3f7fad51	0.99873835
50	0x3ca3d43e	0.019998666
51	0x3f7ff2e5	0.9998
52	0x3c02734d	0.00796206
53	0x3f7ffdec	0.9999683
54	0x3b4fbc17	0.0031697804
55	0x3f7fffac	0.999995
56	0x3aa566d2	0.0012619144
57	0x3f7ffff3	0.9999992
58	0x3a03b1f5	0.0005023771
59	0x3f7ffffe	0.9999999
60	0x3e1081c3	0.14112
61	0xbf7d7026	-0.9899925
62	0x3f6e1248	0.92996645
63	0x3ebc3be5	0.36764446
64	0x3eea5ece	0.45775455
65	0x3f639aa8	0.8890786
66	0x3e40acb9	0.18815888
67	0x3f7b6d6f	0.9821386
68	0x3d9a2f2d	0.07528529
69	0x3f7f4603	0.99716204
70	0x3cf5b91f	0.0299955
71	0x3f7fe283	0.99955004
72	0x3c43ac49	0.011942931
73	0x3f7ffb53	0.99992865
74	0x3b9bccfc	0.0047546607
75	0x3f7fff42	0.9999887
76	0x3af81a36	0.001892871
77	0x3f7fffe2	0.9999982
78	0x3a458aef	0.00075356563
79	0x3f7ffffb	0.9999997
80	0xbf41bdcf	-0.7568025
81	0xbf275530	-0.6536436
82	0x3f7ff0ab	0.99976605
83	0xbcb132ce	-0.02163067
84	0x3f17a372	0.5923377
85	0x3f4e41b0	0.8056898
86	0x3e7fb48a	0.24971214
87	0x3f77e3d4	0.96832013
88	0x3dcd6d7d	0.10030649
89	0x3f7eb57a	0.9949566
90	0x3d23cbdb	0.039989334
91	0x3f7fcb94	0.9992001
92	0x3c82723e	0.015923616
93	0x3f7ff7b1	0.9998732
94	0x3bcfbbd3	0.006339529
95	0x3f7ffeaf	0.9999799
96	0x3b2566c9	0.0025238267
97	0x3f7fffcb	0.99999684
98	0x3a83b1f4	0.0010047541
99	0x3f7ffff8	0.9999995
100	0xbf757c10	-0.9589243
101	0x3e913c2c	0.2836622
102	0x3f69c728	0.91319513
103	0xbed0a6ce	-0.40752262
104	0x3f364a6e	0.7120732
105	0x3f33bd2c	0.7021053
106	0x3e9edbeb	0.3102716
107	0x3f735daa	0.95064795
108	0x3e00454f	0.12526439
109	0x3f7dfbcd	0.9921234
110	0x3d4cb6f4	0.049979165
111	0x3f7fae19	0.99875027
112	0x3ca30dcf	0.019904045
113	0x3f7ff304	0.9998019
114	0x3c01d544	0.007924382
115	0x3f7ffdf1	0.9999686
116	0x3b4ec074	0.0031547816
117	0x3f7fffad	0.99999505
118	0x3aa49e6f	0.0012559424
119	0x3f7ffff3	0.9999992
120	0xbe8f0f8c	-0.2794155
121	0x3f75cdb8	0.96017027
122	0x3f2f0d20	0.683794
123	0xbf3acbfd	-0.7296751
124	0x3f505fa7	0.81395954
125	0x3f14b747	0.5809216
126	0x3ebd3bb7	0.3695962
127	0x3f6ddf8f	0.9291925
128	0x3e19bf29	0.15014328
129	0x3f7d191a	0.98866427
130	0x3d759cd1	0.059964005
131	0x3f7f8a12	0.99820054
132	0x3cc3a8b7	0.02388416
133	0x3f7fed4e	0.99971473
134	0x3c1bcc88	0.009509213
135	0x3f7ffd09	0.99995476
136	0x3b781a19	0.0037857352
137	0x3f7fff88	0.99999285
138	0x3ac58aeb	0.0015071308
139	0x3f7fffed	0.99999887
140	0x3f283046	0.6569866
141	0x3f40ffbd	0.75390226
142	0x3eb1e3fd	0.34744254
143	0xbf700d31	-0.9377013
144	0x3f653bc0	0.89544296
145	0x3ee3ee26	0.4451763
146	0x3edadab9	0.42744997
147	0x3f676f1a	0.904039
148	0x3e33202d	0.17492743
149	0x3f7c0d86	0.98458135
150	0x3d8f3e32	0.06994285
151	0x3f7f5f81	0.997551
152	0x3ce442d4	0.027863897
153	0x3f7fe68e	0.99961174
154	0x3c35c3b4	0.011094023
155	0x3f7ffbf8	0.9999385
156	0x3b90b9db	0.004416687
157	0x3f7fff5c	0.9999902
158	0x3ae67765	0.001758319
159	0x3f7fffe6	0.99999845
160	0x3f7d4695	0.98935825
161	0xbe14fdf6	-0.14550003
162	0xbd312831	-0.04325122
163	0xbf7fc2ac	-0.9990642
164	0x3f7458dc	0.9544809
165	0x3e98b71d	0.29827204
166	0x3ef79ac2	0.48360258
167	0x3f6012db	0.8752877
168	0x3e4c6442	0.1996012
169	0x3f7ad93c	0.97987723
170	0x3da3aa50	0.07991469
171	0x3f7f2e66	0.99680173
172	0x3d026e02	0.031843193
173	0x3f7fdec4	0.9994929
174	0x3c4fbac1	0.012678803
175	0x3f7ffabb	0.9999196
176	0x3ba566a7	0.0050476375
177	0x3f7fff2a	0.99998724
178	0x3b03b1ef	0.002009507
179	0x3f7fffde	0.999998
180	0x3ed30132	0.4121185
181	0xbf693fd5	-0.91113025
182	0xbedab75c	-0.42718017
183	0xbf677775	-0.9041665
184	0x3f7d5600	0.9895935
185	0x3e135839	0.14389123
186	0x3f09af43	0.53783053
187	0x3f57d252	0.843053
188	0x3e658754	0.22414905
189	0x3f797c6e	0.9745549
190	0x3db8123e	0.089878544
191	0x3f7ef6c2	0.9959527
192	0x3d12ba12	0.03582198
193	0x3f7fd5f0	0.9993582
194	0x3c69b1ad	0.014263553
195	0x3f7ff955	0.99989825
196	0x3bba136e	0.0056785857
197	0x3f7ffef1	0.99998385
198	0x3b14282c	0.0022606952
199	0x3f7fffd5	0.99999744
200	0xbf0b44f8	-0.5440211
201	0xbf56cd64	-0.8390715
202	0xbf3e8a23	-0.7442953
203	0xbf2af843	-0.6678507
204	0x3f7ff97d	0.99990064
205	0xbc66f4ba	-0.014096433
206	0x3f1704e0	0.58991814
207	0x3f4eb5e6	0.80746305
208	0x3e7e8553	0.24855547
209	0x3f77f754	0.9686177
210	0x3dcc7576	0.099833414
211	0x3f7eb898	0.9950042
212	0x3d23058a	0.039800204
213	0x3f7fcc13	0.9992077
214	0x3c81d439	0.015848266
215	0x3f7ff7c5	0.9998744
216	0x3bcec030	0.0063095316
217	0x3f7ffeb2	0.9999801
218	0x3b249e67	0.002511883
219	0x3f7fffcb	0.99999684
220	0xbf7fff5c	-0.9999902
221	0x3b910572	0.004425698
222	0xbf71eb58	-0.9449973
223	0xbea776c9	-0.32707813
224	0x3f7c3265	0.98514396
225	0xbe2fda27	-0.17173062
226	0x3f23c09f	0.6396579
227	0x3f44c6e2	0.7686597
228	0x3e8bad1c	0.2728051
229	0x3f764a2d	0.96206933
230	0x3de0d372	0.1097783
231	0x3f7e73e8	0.9939561
232	0x3d335059	0.043777797
233	0x3f7fc12c	0.9990413
234	0x3c8ecf86	0.01743294
235	0x3f7ff60a	0.999848
236	0x3be36ced	0.006940475
237	0x3f7ffe6c	0.9999759
238	0x3b3514a2	0.0027630706
239	0x3f7fffc0	0.9999962
240	0xbf095cd8	-0.53657293
241	0x3f5806d0	0.84385395
242	0xbf7f760b	-0.99789494
243	0x3d84d0e1	0.06485153
244	0x3f7218f5	0.9456933
245	0xbea66e4d	-0.32506028
246	0x3f2fd589	0.68685204
247	0x3f3a0f63	0.7267973
248	0x3e9800fe	0.29688257
249	0x3f74753e	0.954914
250	0x3df52bac	0.119712204
251	0x3f7e28b5	0.99280864
252	0x3d439a6d	0.047754694
253	0x3f7fb53b	0.9988591
254	0x3c9bcaba	0.019017566
255	0x3f7ff426	0.99981916

transformer_encoder.layers.0.self_attn.in_proj_weight f4 [60, 20]
0	0xbe1ae03c	-0.15124601
1	0xbe73c034	-0.23803788
2	0x3e5bea45	0.21476085
3	0x3d80b73f	0.062849514
4	0x3e3ce223	0.1844564
5	0x3d9d7414	0.07688156
6	0xbe37d7e4	-0.1795345
7	0x3e000860	0.12503195
8	0x3c3b9f75	0.011451592
9	0x3d3a6f5e	0.045516364
10	0xbe50b14e	-0.20380136
11	0x3e71e0ba	0.23620883
12	0xbe8ac123	-0.27100477
13	0x3e396571	0.18105103
14	0x3e868bad	0.2627844
15	0x3e86829c	0.26271522
16	0x3d9ad0af	0.075593345
17	0xbddc8fa4	-0.10769585
18	0xbc351924	-0.011053357
19	0xbc32c7f4	-0.01091193
20	0x3e77ea94	0.24210578
21	0xbd7ca84c	-0.061683938
22	0xbe85f7d6	-0.26165646
23	0x3dcddd4c	0.10051975
24	0x3d751eb1	0.059843723
25	0x3ddf8bf3	0.10915365
26	0x3e258e8d	0.1616766
27	0xbdafe4d1	-0.08588565
28	0x3e6d7871	0.23190476
29	0xbd30a4b7	-0.043125834
30	0x3aa808ca	0.0012820002
31	0xbdc006d1	-0.093763
32	0x3dcfc69c	0.101453036
33	0xbdd0b4e6	-0.10190754
34	0x3e6a6643	0.22890572
35	0x3e22cedf	0.15899228
36	0x3e86b229	0.263078
37	0x3ca4c89f	0.020115195
38	0x3d1631f2	0.036668725
39	0xbdfc128f	-0.12308227
40	0x3e1441ef	0.14478277
41	0xbe13d49e	-0.14436576
42	0x3c6dca63	0.014513585
43	0xbd85969d	-0.06522868
44	0x3e769ad5	0.24082501
45	0xbe54d2a5	-0.2078348
46	0x3e355db8	0.17711532
47	0xbe6957cc	-0.22787398
48	0xbb8b225e	-0.0042460402
49	0xbda8d216	-0.08243196
50	0xbd7a1dd3	-0.0610636
51	0xbd4458de	-0.047936313
52	0x3d4282b1	0.04748792
53	0xbe1f5000	-0.15557861
54	0x3ddaf7ff	0.10691833
55	0xbe359149	-0.17731203
56	0xbd821a50	-0.06352675
57	0xbe8fb34c	-0.2806648
58	0xbdb52ef4	-0.08846846
59	0xbcdd2809	-0.02699663
60	0x3dd09493	0.10184588
61	0xbc4de0ab	-0.012565772
62	0xbe11c5ad	-0.14235564
63	0x3db1a34d	0.08673725
64	0x3e5c3fd0	0.21508718
65	0x3e20de44	0.15709788
66	0xbde4c3db	-0.11170169
67	0x3dd7906d	0.10525594
68	0x3cf6eab3	0.03014121
69	0xbc3a1fcc	-0.01136012
70	0x3d7d9e92	0.061918803
71	0x3dfeeceb	0.12447532
72	0xbe7696bf	-0.24080943
73	0xbe045929	-0.12924637
74	0x3cecb71c	0.028895907
75	0x3e414ed8	0.18877733
76	0xbe3c4261	-0.18384697
77	0xbe001a22	-0.12509969
78	0xbc872ecb	-0.016501805
79	0x3e036590	0.12831712
80	0xbe740fd5	-0.23834164
81	0x3de3e187	0.11127
82	0xbe369fb2	-0.17834356
83	0x3e8093ff	0.25112912
84	0xbd904aa3	-0.07045486
85	0xbd91547f	-0.070961945
86	0xbc6be371	-0.014397488
87	0xbca61ac5	-0.020276437
88	0x3e6eb8ab	0.23312633
89	0x3e065a34	0.13120347
90	0xbe680fef	-0.22662328
91	0x3e0d768f	0.13814758
92	0x3e280195	0.16406853
93	0xbddb0739	-0.10694737
94	0xbe4d13fb	-0.20027153
95	0xbdb7b7ac	-0.089705795
96	0xbd636330	-0.055514514
97	0x3d178141	0.0369885
98	0x3ca6bdd3	0.020354187
99	0x3e80e76f	0.2517657
100	0xbd93ca3e	-0.07216309
101	0xbd4653a3	-0.048419606
102	0x3e4ca72f	0.1998565
103	0xbe62cafc	-0.22147745
104	0x3d1cfc54	0.038326576
105	0x3d0d3d0a	0.03448204
106	0x3d8b3567	0.06797295
107	0x3e3aa7dc	0.18228096
108	0xbe4e7d06	-0.2016488
109	0xbde9f8b1	-0.11424387
110	0x3d7ebc84	0.0621915
111	0x3e5aef16	0.21380267
112	0xbd1cf972	-0.038323827
113	0xbda169ec	-0.07881531
114	0xbe727437	-0.23677145
115	0x3e31ece6	0.17375526
116	0xbe1c67a2	-0.15273908
117	0xbe262ef0	-0.16228843
118	0xbde4b926	-0.11168127
119	0xbc9f1a54	-0.019421734
120	0xbdd2745b	-0.10276099
121	0x3dc8a767	0.097975545
122	0x3e74a23f	0.23890017
123	0x3cb7345d	0.022363836
124	0xbe3d8f78	-0.1851176
125	0xbe13298b	-0.14371316
126	0xbce953ac	-0.02848228
127	0xbe09405d	-0.13403459
128	0xbd7b1166	-0.06129589
129	0x3e0edaa3	0.13950591
130	0xbdb26d66	-0.08712272
131	0x3df69098	0.12039298
132	0xbd07c7ef	-0.033149656
133	0x3e13decd	0.1444046
134	0xbe02560e	-0.1272814
135	0x3e791164	0.2432304
136	0x3e5feae8	0.21866953
137	0xbe06c8bb	-0.1316251
138	0x3b8bdb96	0.00426812
139	0xbde127c7	-0.10993915
140	0x3e5f936e	0.21833584
141	0xbf1175fa	-0.5682064
142	0x3d5a66a4	0.053320542
143	0x3cc70d87	0.024298443
144	0x3e94e9ee	0.29084724
145	0xbd0f5410	-0.034992278
146	0xbe410471	-0.1884935
147	0xbd55edf4	-0.052228883
148	0xbded4d18	-0.1158697
149	0xbd79c2a2	-0.060976632
150	0x3d65d3b5	0.056110103
151	0xbe36a816	-0.17837557
152	0x3e2e14d0	0.17000127
153	0xbca426f2	-0.020038102
154	0xbe5a5fa4	-0.21325547
155	0xbe102d92	-0.14079884
156	0x3dd8b7f0	0.10581958
157	0x3bd29a8f	0.006427116
158	0xbd04e54d	-0.03244524
159	0xbddd0639	-0.107922025
160	0x3df46ade	0.11934446
161	0x3dea9b14	0.1145536
162	0xbc6de3c5	-0.0145196365
163	0x3e4f13a4	0.20222336
164	0x3de6e6dd	0.112745024
165	0xbdaf42f8	-0.08557695
166	0xbe8a930a	-0.27065307
167	0x3e472369	0.19447102
168	0xbba74bc2	-0.0051054666
169	0x3e07aa81	0.13248636
170	0xbd0f131e	-0.03493034
171	0x3d831628	0.0640071
172	0x3e66186b	0.22470252
173	0xbd9fde00	-0.07806015
174	0x3e13d1bc	0.14435476
175	0x3e429edd	0.19005914
176	0x3e19ffe5	0.15039022
177	0xbe68c8d2	-0.22732857
178	0x3e8082fd	0.25099936
179	0x3e1adbe4	0.15122944
180	0xbda3dfbe	-0.0800166
181	0xbe4415ba	-0.19148913
182	0x3d805d99	0.06267852
183	0x3dd50f8d	0.10403357
184	0x3e3ca126	0.18420848
185	0xbe245548	-0.16048157
186	0xbdb47f50	-0.088133454
187	0x3e0b96de	0.1363177
188	0xbe29d96a	-0.16586843
189	0xbddcb9f9	-0.10777659
190	0xbe500752	-0.20315292
191	0xbdfa07ce	-0.1220852
192	0x3e2792d4	0.16364604
193	0xbd86555e	-0.06559251
194	0xbcabc508	-0.020967975
195	0xbc648595	-0.013947864
196	0xbe55c216	-0.20874819
197	0xbd3eb107	-0.046555545
198	0xbd877821	-0.0661471
199	0x3c22ef37	0.009944729
200	0xbe2d5acb	-0.16929166
201	0xbe841171	-0.25794557
202	0x3d413d9b	0.047177892
203	0xbe48c6d3	-0.19607095
204	0xbbf82dc5	-0.0075738155
205	0x3e13202c	0.14367741
206	0x3ca92b35	0.020650486
207	0xbe4b26cd	-0.1983902
208	0x3e5c5b38	0.21519172
209	0x3e14ca2f	0.14530252
210	0x3dfc68ef	0.12324702
211	0x3d12d524	0.035847798
212	0xbd094456	-0.033512436
213	0x3c7022cf	0.0146567365
214	0xbd473bcd	-0.048641015
215	0x3cbb3f85	0.022857437
216	0x3d6a8bda	0.05726228
217	0x3e6d5757	0.23177849
218	0x3df0ec44	0.11763814
219	0x3e06e45c	0.1317305
220	0x3ca73fec	0.020416223
221	0xbe96c9f7	-0.29450962
222	0xbe49bf48	-0.19701874
223	0xbe6bbc53	-0.23021059
224	0x3e41dfc6	0.18933019
225	0xbdc98642	-0.09840061
226	0xbe1aa374	-0.15101415
227	0x3d45e250	0.04831153
228	0x3cd5f1b8	0.026116237
229	0x3e1ca1a6	0.15296039
230	0xbdcf15e3	-0.101115964
231	0x3d4b6e6a	0.049665846
232	0xbe4c58b0	-0.19955707
233	0xbd942f0a	-0.072355345
234	0xbe34784a	-0.17624012
235	0x3e006d8c	0.12541789
236	0x3dd4098c	0.103533834
237	0xbcb21f12	-0.021743331
238	0x3c9197f0	0.017772645
239	0xbe8b2bb6	-0.27181786
240	0x3e9adbfd	0.30245963
241	0x3e042e19	0.1290821
242	0x3e6216ef	0.22079061
243	0xbe6cfddc	-0.23143715
244	0xbe428964	-0.18997723
245	0xbe14d972	-0.14536074
246	0xbe6fb715	-0.23409684
247	0x3dbb1541	0.09134913
248	0xbda7d89e	-0.08195613
249	0xbe29bec0	-0.16576672
250	0x3df607ae	0.120131835
251	0xbc4967cf	-0.012292816
252	0x3e8c253a	0.27372152
253	0x3e5119d9	0.20420016
254	0x3e86c5bb	0.2632273
255	0xbd4fc908	-0.050728828

transformer_encoder.layers.0.self_attn.in_proj_bias f4 [60]
0	0xbc8ae1c6	-0.01695336
1	0x3b4d4a17	0.0031324679
2	0xbb8aaff1	-0.0042323996
3	0x3a61e188	0.00086166756
4	0xbc1e78f1	-0.009672389
5	0x3c8ec22b	0.01742657
6	0x3d22d936	0.03975793
7	0x3d2fab8c	0.04288821
8	0x3cf74714	0.03018526
9	0xbc16d0fb	-0.009205098
10	0x3caf9195	0.021431724
11	0xbc5c2375	-0.013436188
12	0xbc9de680	-0.01927495
13	0xbccc229f	-0.024918852
14	0x3c8feada	0.01756804
15	0x3c32b799	0.010908031
16	0xbc3a43e6	-0.011368727
17	0xbd335d48	-0.04379013
18	0x3b9ec5f4	0.004845375
19	0x3d4ccf7d	0.050002564
20	0xb1478b7b	-2.9037597e-09
21	0x3071f42d	8.8022284e-10
22	0x2e881ef1	6.19006e-11
23	0xb123574f	-2.376925e-09
24	0x3105b96e	1.9459452e-09
25	0x328e45a7	1.656265e-08
26	0x31ccdcdb	5.9622898e-09
27	0x31855494	3.880425e-09
28	0x32053661	7.753983e-09
29	0x319d5f1b	4.5801136e-09
30	0x2f25153c	1.5014207e-10
31	0x2fcc4732	3.715797e-10
32	0x2eff8647	1.161991e-10
33	0xb061a767	-8.2092416e-10
34	0xb17c8426	-3.6745944e-09
35	0x3170768a	3.4991978e-09
36	0xb1c6d5e6	-5.786876e-09
37	0x3182a0b3	3.8017673e-09
38	0x3148952e	2.918863e-09
39	0x3133fd35	2.619186e-09
40	0xbd43238c	-0.047641322
41	0x3d516f61	0.05113161
42	0xbccdc1a5	-0.025116751
43	0xbc84c311	-0.016206296
44	0x3d69b3ae	0.05705612
45	0x3dae851e	0.08521484
46	0x3bc8305b	0.00610928
47	0x3d82e1ce	0.06390725
48	0x3d63367b	0.05547188
49	0x3c147779	0.009061688
50	0xbc969f1a	-0.018386412
51	0x3c513cf8	0.012770884
52	0xbd88077d	-0.06642053
53	0x3d937cd9	0.07201547
54	0x3c91e749	0.01781048
55	0x3d9273ea	0.07151015
56	0x3d30e01a	0.04318247
57	0x3d2e0a3f	0.04249024
58	0x3c2eb11a	0.0106623415
59	0xbc773cf2	-0.015090214

transformer_encoder.layers.0.self_attn.out_proj.weight f4 [20, 20]
0	0x3e09d35d	0.13459535
1	0xbde3bd19	-0.11120052
2	0xbdaecf8e	-0.08535682
3	0x3e1652aa	0.14679971
4	0x3e86ca6d	0.26326314
5	0x3d51a7df	0.051185485
6	0x3ed1d60a	0.4098361
7	0x3ded463a	0.1158566
8	0xbd87be59	-0.06628103
9	0x3d8bbedd	0.06823514
10	0xbe3f839a	-0.18702546
11	0x3d632e00	0.05546379
12	0xbc5a54ba	-0.013325864
13	0xbc874cda	-0.016516138
14	0x3daa7864	0.08323744
15	0xbebace4b	-0.36485514
16	0x3defe63b	0.11713835
17	0x3dae2594	0.08503261
18	0x3eb86bda	0.36019784
19	0x3db35197	0.087557964
20	0x3e1733ea	0.14765897
21	0xbdacaaf6	-0.08431046
22	0x3d8dd072	0.069245234
23	0xbd5d41af	-0.05401772
24	0x3dc348c9	0.09535367
25	0xbd5a8943	-0.05335356
26	0xbe88ca0f	-0.26716658
27	0xbe2e9566	-0.17049178
28	0xbe1df51c	-0.15425533
29	0xbd92e1a8	-0.07171947
30	0xbd2809b0	-0.041024864
31	0x3d8b8f23	0.068144105
32	0x3e01717e	0.1264095
33	0xbe4a2df8	-0.19744098
34	0xbdd40ff4	-0.10354605
35	0x3d861354	0.06546655
36	0xbd951e65	-0.07281188
37	0x3d5e6a80	0.054300785
38	0x3d3de898	0.046364397
39	0xbdbf0935	-0.09327928
40	0xbe1f62df	-0.1556506
41	0xbd16bef7	-0.036803212
42	0xbdc4a4bf	-0.09601735
43	0xbe14599f	-0.14487313
44	0x3e32e7b1	0.17471196
45	0xbe1d65e9	-0.15370907
46	0xbe3c6a41	-0.18399908
47	0x3cadc439	0.02121173
48	0xbe5c259d	-0.21498723
49	0xbd102f71	-0.035201494
50	0xbe09c66a	-0.13454595
51	0xbe1df285	-0.15424545
52	0x3c8b9432	0.017038438
53	0x3da378c2	0.07982017
54	0x3ce65645	0.028117308
55	0xbe3bf4d3	-0.18355112
56	0x3e189e95	0.14904244
57	0xbdd9189d	-0.10600398
58	0x3dcdd212	0.10049833
59	0xbe61c108	-0.22046292
60	0x3d61f206	0.055162452
61	0xbd2f9136	-0.042863093
62	0x3c8529d7	0.016255302
63	0x3bdfef42	0.0068339417
64	0x3e4c4a9a	0.19950333
65	0xbe86985d	-0.2628812
66	0x3de4ec67	0.11177903
67	0xbcabaa0c	-0.020955108
68	0x3dfebfc4	0.1243892
69	0x3d961ea0	0.0733006
70	0x3baa3254	0.005193988
71	0xbde6768d	-0.112530805
72	0x3df792f2	0.120885745
73	0x3d8792b4	0.06619778
74	0x3ea2afb4	0.31774676
75	0xbe17e21b	-0.14832346
76	0xbdcfc539	-0.10145039
77	0x3db5786c	0.08860859
78	0xba43a0b9	-0.0007462609
79	0x3e8dcdfd	0.2769622
80	0xbd36743c	-0.044544443
81	0x3dd377a8	0.10325557
82	0xbe604ada	-0.21903554
83	0xbe444bd2	-0.19169548
84	0xbcef4143	-0.029205924
85	0x39c9cfe3	0.00038492595
86	0x3e4982e8	0.19678843
87	0xbd1ee9e1	-0.038797263
88	0x3e3661c4	0.17810732
89	0x3d4cc877	0.049995866
90	0xbc98f454	-0.018671192
91	0x3d542617	0.051794138
92	0xbe5263c0	-0.20545864
93	0x3e5aa7c2	0.21353057
94	0xbdb67feb	-0.08911117
95	0xbe1f8311	-0.15577342
96	0x3d8061f1	0.06268681
97	0x3d4bfde6	0.049802683
98	0x3dd9091a	0.10597439
99	0xbe05211d	-0.13000913
100	0x3e857172	0.26063114
101	0x3da82d28	0.08211738
102	0xbe52f004	-0.20599371
103	0xbc834062	-0.016021911
104	0xbda895f7	-0.082317285
105	0xbda8c03b	-0.0823979
106	0xbeb7d19a	-0.359021
107	0xbe2f72ec	-0.17133683
108	0xbce58d3f	-0.028021453
109	0x3e676d50	0.22600293
110	0xbe5fcac5	-0.21854694
111	0xbc3ff8e8	-0.011717059
112	0x3b8bdbf1	0.0042681624
113	0x3c835fcf	0.016036896
114	0x3d4741ac	0.048646614
115	0x3e2f03bf	0.17091273
116	0xbd2b783f	-0.041862722
117	0xbd3767a5	-0.044776578
118	0x3e2e3820	0.17013597
119	0xbe22a03a	-0.15881434
120	0x3d800ff9	0.062530465
121	0xbdcdd5b8	-0.10050529
122	0xbdf9196d	-0.12163053
123	0x3db55730	0.0885452
124	0x3e54aa3b	0.20768063
125	0xbe580043	-0.2109385
126	0x3e2e7b54	0.17039233
127	0x3d54e61b	0.05197726
128	0x3e5e7765	0.21725233
129	0x3e16e937	0.14737402
130	0x3d9f86aa	0.07789357
131	0x3d332b13	0.04374225
132	0x3e4f2c3b	0.20231716
133	0xbe05d717	-0.13070332
134	0xbe28ab41	-0.16471578
135	0x3e420d4c	0.18950385
136	0x3c8ee70e	0.01744416
137	0x3d8a0c49	0.067406245
138	0xbe1a6008	-0.15075696
139	0xbdd15e9a	-0.10223122
140	0x3da70325	0.08154897
141	0xbe076e2e	-0.13225624
142	0x3e1160c5	0.14197071
143	0xbd9192c2	-0.0710807
144	0x3decbbf9	0.115592904
145	0xbd73db20	-0.059535146
146	0xbda3783a	-0.07981916
147	0x3de7a3df	0.11310553
148	0x3e0075b9	0.12544908
149	0xbddad2de	-0.10684751
150	0xbe2cf99b	-0.16892092
151	0xbe3b0c91	-0.18266512
152	0x3e087bec	0.13328522
153	0xbd6c6916	-0.057717405
154	0xbd9b840d	-0.07593546
155	0xbd8be40d	-0.068306066
156	0x3dab3de5	0.08361415
157	0x3e18f123	0.14935736
158	0xbd235a13	-0.039880823
159	0xbd99cf10	-0.07510197
160	0x3cc8f313	0.02452997
161	0x3e496c39	0.1967019
162	0x3e45948c	0.19294947
163	0x3c566203	0.013084891
164	0xbdc0abc5	-0.094077624
165	0x3d597371	0.05308861
166	0xbd5fd1ca	-0.05464343
167	0x3e62872a	0.22121873
168	0x3b909f4e	0.004413522
169	0xbd0d4dd0	-0.034498036
170	0xbe3371fc	-0.1752395
171	0xbddf539e	-0.109046206
172	0xbd975724	-0.07389668
173	0x3e1677cd	0.14694138
174	0x3d0bf6c3	0.034170877
175	0x3e4be076	0.19909844
176	0xbcc3802b	-0.023864826
177	0x3d98eb7c	0.0746679
178	0x3dd38c04	0.1032944
179	0xbe8a46c1	-0.27007106
180	0x3e20aca6	0.1569086
181	0xbe264319	-0.16236533
182	0x3e645771	0.22298981
183	0xbdfef92c	-0.124498695
184	0x3e7062d7	0.23475204
185	0xbddb285a	-0.10701056
186	0x3d75cd5c	0.0600103
187	0x3d64f6f3	0.05589957
188	0x3e69977c	0.22811693
189	0xbe17015c	-0.14746612
190	0x399496ee	0.0002834121
191	0x3d8eabbd	0.0696635
192	0xbe349864	-0.17636257
193	0xbdceb271	-0.10092629
194	0xbcd923e9	-0.026506381
195	0x3e33407d	0.17505069
196	0xbe1864d6	-0.14882216
197	0x3e0408e0	0.1289401
198	0xbe49c99b	-0.19705813
199	0xbe21a966	-0.15787277
200	0x3e725023	0.23663382
201	0xbe3647fa	-0.17800894
202	0x3de1a1ea	0.11017211
203	0xbd4afa3c	-0.04955505
204	0x3dda5564	0.10660818
205	0xbbb7b83a	-0.0056066783
206	0x3e366a85	0.17814071
207	0x3d12a687	0.035803344
208	0xbe23a9af	-0.15982698
209	0xbcb3fdef	-0.02197167
210	0x3a230b66	0.0006219655
211	0xbdbdf605	-0.0927544
212	0x3c2d4a71	0.01057683
213	0x3d2b00a7	0.04174867
214	0xbbc19d1a	-0.0059086205
215	0x3e4e0e33	0.20122604
216	0x3c20f45f	0.009823888
217	0x3e409d7f	0.1881008
218	0xbca3f0f9	-0.020012366
219	0x3daf80df	0.08569502
220	0x3e1c76b7	0.15279661
221	0x3db12322	0.08649279
222	0xbc0eedbe	-0.008723674
223	0xbe3f8169	-0.1870171
224	0x3d87ab67	0.06624489
225	0xbe78ea91	-0.2430823
226	0xbe84eb9b	-0.25961003
227	0x3d71e504	0.059056297
228	0x3e72873e	0.23684403
229	0xbca8c8b2	-0.020603511
230	0xbd215cd2	-0.03939516
231	0xbbe7f23e	-0.007078438
232	0xbdcd9e49	-0.10039956
233	0x3c859b32	0.016309354
234	0xbd1320fe	-0.035920136
235	0x3e4ae99f	0.19815682
236	0xbea08251	-0.31349424
237	0xbe303478	-0.17207515
238	0x3c97cb3e	0.01852953
239	0x3cc80437	0.024416072
240	0xbe2c61dc	-0.16834205
241	0xbdc8b927	-0.0980094
242	0x3e9e63b8	0.30935454
243	0xbe30d60b	-0.17269151
244	0xbdd58a5f	-0.10426783
245	0x3d1a0601	0.037603382
246	0x3d80650e	0.06269275
247	0x3dce7a37	0.100819044
248	0xbe938a39	-0.28816393
249	0x3e259cd8	0.16173112
250	0x3e119e36	0.14220509
251	0xbd051054	-0.032486275
252	0xbd09853d	-0.03357433
253	0x3e5a89b2	0.21341589
254	0xbbf7fd1f	-0.007568016
255	0x3e81ea9a	0.253743

transformer_encoder.layers.0.self_attn.out_proj.bias f4 [20]
0	0xbcb402cd	-0.021973992
1	0x3d4e60e9	0.05038539
2	0x3d0d69a3	0.03452457
3	0x3d1b3f3a	0.037902094
4	0x3cb4b8d4	0.02206079
5	0x3ccf4c43	0.02530492
6	0xbca4abe0	-0.020101488
7	0x3ceb1227	0.02869518
8	0xbc68bc36	-0.014205029
9	0xbca19851	-0.01972595
10	0x3bc09024	0.005876558
11	0xbd303e54	-0.04302819
12	0x3d16ecb3	0.036846828
13	0xbdb1cefb	-0.086820565
14	0x3d0df73d	0.034659613
15	0xbcb19158	-0.02167575
16	0xbb632ccd	-0.0034664155
17	0xbd1cc17c	-0.03827046
18	0x3c647535	0.01394396
19	0xbcab7962	-0.020931903

transformer_encoder.layers.0.linear1.weight f4 [20, 20]
0	0xbdb8acc6	-0.09017329
1	0x3e13fe7a	0.14452544
2	0x3d7df158	0.06199774
3	0x3e48116d	0.19537897
4	0xbdbe24fd	-0.09284399
5	0xbcb3de35	-0.021956543
6	0xbe20dd11	-0.1570933
7	0x3e3a9ac8	0.18223107
8	0xbd03b6ce	-0.032156758
9	0xbb951e83	-0.0045507564
10	0xbdf356c5	-0.11881784
11	0x3d1837ba	0.03716252
12	0x3d8b7d3b	0.06810995
13	0x3d34aa8a	0.04410795
14	0x3cfbf623	0.030757016
15	0x3db3491a	0.087541774
16	0x3e482f74	0.19549352
17	0xbe145aba	-0.14487734
18	0xbd7054e0	-0.058674693
19	0xbde4339f	-0.111426584
20	0xbe7f7ee8	-0.24950755
21	0x3e3c5fff	0.18395995
22	0xbe6502cd	-0.2236435
23	0x3d27c531	0.04095954
24	0x3d7e915c	0.062150344
25	0xbc9f78e0	-0.019466817
26	0x3cf21b98	0.029554173
27	0xbe366e1b	-0.1781544
28	0x3e2b4fc6	0.1672965
29	0xbd138657	-0.03601679
30	0xbd1042c1	-0.03521991
31	0x3dbccb51	0.09218467
32	0xbd6c5635	-0.0576994
33	0xbe1259b2	-0.14292029
34	0x3e1eb3b4	0.15498239
35	0x3e48b018	0.19598424
36	0x3e0d3cfb	0.13792793
37	0xbd626c6f	-0.05527919
38	0xbdf1eec4	-0.11813119
39	0x3d9b70ff	0.07589912
40	0x3e2f7816	0.17135653
41	0x3e58d9bf	0.21176814
42	0x3e6b2c6e	0.22966167
43	0x3e45ccf9	0.19316472
44	0x3bd4b1a3	0.0064909025
45	0x3e36920e	0.17829153
46	0x3e5e44e4	0.21705967
47	0xbd52dc89	-0.05147985
48	0xbdb0a43c	-0.08625075
49	0x3d35abfa	0.044353463
50	0xbe9ca6ce	-0.30596012
51	0x3bff98bd	0.0078001902
52	0x3c07fb70	0.008299693
53	0x3dd8e3a7	0.10590296
54	0xbe38f64a	-0.18062702
55	0xbd495150	-0.04914981
56	0xbdb5aeb8	-0.088712156
57	0x3e4d0542	0.20021537
58	0x3d35ab38	0.04435274
59	0xbcbc7eda	-0.023009706
60	0xbd8b8bba	-0.0681376
61	0xbe1a441e	-0.15065047
62	0x3d5fd7d9	0.054649208
63	0x3e80f374	0.2518574
64	0xbd18569d	-0.037191976
65	0xbc696fa4	-0.014247809
66	0xbd956681	-0.07294942
67	0x3e122f0b	0.14275758
68	0xbe233e79	-0.159418
69	0xbd92f02d	-0.07174716
70	0x3e0b0c1a	0.13578835
71	0xbe2d97c3	-0.16952424
72	0x3e1b42c7	0.15162192
73	0x3d37d5ac	0.044881508
74	0xbd7942e9	-0.060854826
75	0x3ddc5818	0.1075899
76	0xbdd38ecc	-0.10329971
77	0xbe4841e8	-0.19556391
78	0x3d01260e	0.031530432
79	0x3e37af5c	0.17937988
80	0x3d6a972a	0.057273068
81	0xbe4eb432	-0.20185927
82	0xbdc3d831	-0.095627196
83	0xbea2692b	-0.31720862
84	0x3e0e0668	0.13869631
85	0x3eb94fff	0.36193845
86	0x3c2e0fe9	0.01062391
87	0xbe48c456	-0.19606146
88	0xb907483f	-0.00012901517
89	0xbe051f04	-0.13000113
90	0x3d0f8257	0.03503641
91	0xbdc074c7	-0.093972735
92	0xbdf90b16	-0.121603176
93	0x3e18f939	0.14938821
94	0x3d8fbb21	0.07018114
95	0xbe740f2a	-0.2383391
96	0xbe38fa17	-0.18064152
97	0x3cf77d5a	0.03021114
98	0x3db5de4e	0.08880292
99	0xbd8ee242	-0.06976749
100	0xbce3d0c7	-0.027809514
101	0xbeebd220	-0.4605875
102	0x3b0d6126	0.0021572798
103	0xbd96a275	-0.07355205
104	0x3dd241b2	0.10266437
105	0xbea0dae5	-0.31417003
106	0x3cbc130c	0.022958301
107	0xbd9fcb82	-0.07802488
108	0xbde30f61	-0.11086918
109	0xbd490dac	-0.049085304
110	0xbd027bd9	-0.03185639
111	0xbd2a0ada	-0.041514255
112	0xbb91c40b	-0.004448419
113	0x3c2dc452	0.010605888
114	0x3e3e1bc6	0.18565282
115	0x3ea4e456	0.32205456
116	0xbd7eb245	-0.06218173
117	0x3d9cd037	0.07656901
118	0x3e6a049f	0.22853325
119	0x3dfa32ef	0.12216746
120	0xbca89563	-0.020579046
121	0x3df3509a	0.11880608
122	0xbdd93475	-0.106057085
123	0xbe4be6b5	-0.19912226
124	0x3e190f14	0.14947158
125	0x3eb588c0	0.35455894
126	0xbdc66f62	-0.09689213
127	0xbe68c737	-0.22732244
128	0xbd86e007	-0.065856986
129	0x3e14c6e1	0.14528991
130	0xbe13c45d	-0.14430375
131	0xbe735a1b	-0.23764841
132	0xbe589099	-0.2114891
133	0xbe04ce03	-0.12969212
134	0x3d6ae92b	0.057351273
135	0xbd6f44e9	-0.058415327
136	0xbd0bc267	-0.034120943
137	0x3d7e9763	0.062156092
138	0x3cc73d3b	0.02432119
139	0xbe752655	-0.23940404
140	0x3e57d141	0.21075918
141	0x3e2a21f6	0.16614518
142	0xbd92a4d6	-0.07160346
143	0xbcc52657	-0.024066133
144	0xbdbd525f	-0.09244227
145	0x3e642424	0.22279412
146	0xbe6a1a02	-0.22861484
147	0x3daa7236	0.08322565
148	0xbd82a38b	-0.063788496
149	0xbe61e991	-0.22061755
150	0xbe36bc01	-0.17845155
151	0xbe3aec01	-0.18254091
152	0x3de9c571	0.11414612
153	0xbe6ac3f8	-0.22926319
154	0x3e05964b	0.13045613
155	0xbe3814d2	-0.17976692
156	0x3d0074af	0.03136128
157	0xbe761fcc	-0.24035567
158	0xbe2ddcf0	-0.16978812
159	0xbdc0aad3	-0.09407582
160	0xbe118090	-0.14209199
161	0x3e4d881c	0.20071453
162	0x3e4039f6	0.1877211
163	0xbdfa20a8	-0.1221326
164	0x3d98c2dc	0.074590415
165	0xbb52861e	-0.0032123397
166	0x3d9108b6	0.070817396
167	0x3e8a4d51	0.27012113
168	0xbe06c3c8	-0.13160622
169	0xbe04a9fb	-0.12955467
170	0x3e1170a7	0.1420313
171	0x3e7bef83	0.24603085
172	0xbd938ba6	-0.0720437
173	0x3ddb7971	0.107165225
174	0xbd6b1cb4	-0.05740042
175	0xbe6a655a	-0.22890225
176	0x3e0c2a75	0.13688071
177	0xbd9602f2	-0.073247805
178	0x3dcd3685	0.100201644
179	0x3dfca121	0.123354204
180	0x3c5e2724	0.013559137
181	0xbe8a6c29	-0.27035645
182	0xbc57cbab	-0.013171117
183	0x3e786b97	0.24259792
184	0x3e76b973	0.24094181
185	0x3d955c4b	0.07292994
186	0xbdb0532c	-0.08609614
187	0x3df6d91f	0.12053131
188	0x3d34ad24	0.044110432
189	0xbd903672	-0.070416346
190	0x3dffbd27	0.1248725
191	0x3e19d1e2	0.1502147
192	0x3e108a2a	0.14115205
193	0xbe237091	-0.1596091
194	0xbdc9d209	-0.09854514
195	0xbc1d1be2	-0.009589167
196	0xbe17a689	-0.14809622
197	0x3e314104	0.17309958
198	0xbda971d9	-0.08273668
199	0xbcd8e997	-0.026478572
200	0xbbb8090c	-0.005616313
201	0x3e362eb0	0.17791247
202	0xbd8263bf	-0.06366681
203	0x3e4714dd	0.19441552
204	0x3e4837f5	0.19552596
205	0xbd290ec7	-0.04127386
206	0xbc194aee	-0.009356244
207	0xbca9d495	-0.02073125
208	0x3e6b33de	0.22969005
209	0xbe34fbeb	-0.17674224
210	0xbe37e957	-0.17960106
211	0xbe3a6e91	-0.1820624
212	0x3dc1de82	0.09466268
213	0x3dcc3867	0.099716954
214	0xbcca34fa	-0.024683464
215	0x3e0346c8	0.1281997
216	0xbe07760e	-0.13228628
217	0xbe458b73	-0.19291477
218	0x3d9975a5	0.07493142
219	0xbe2c02bc	-0.16797918
220	0x3d93d27e	0.072178826
221	0xbe7e1080	-0.24810982
222	0x3d67494e	0.056466393
223	0xbe35d73e	-0.1775789
224	0xbc3a0abf	-0.011355101
225	0xbe780cad	-0.24223585
226	0x3dfc8658	0.123303115
227	0xbe107150	-0.14105725
228	0xbddcfae4	-0.10790041
229	0x3deb7cd9	0.11498422
230	0xbcc7ca5c	-0.024388485
231	0xbd1ee70f	-0.038794573
232	0xbe3e244c	-0.18568534
233	0x3bae8dba	0.0053269537
234	0x3e296503	0.16542439
235	0x3e21c821	0.15799
236	0xbe349909	-0.17636503
237	0xbe345990	-0.1761229
238	0x3e0800e5	0.13281591
239	0x3dc6627c	0.09686753
240	0x3d57d272	0.05269093
241	0x3e48595f	0.19565342
242	0xbcbe4047	-0.02322401
243	0x3e31d75d	0.17367311
244	0x3d77cabb	0.060496073
245	0xbcf635a4	-0.030054875
246	0x3e302665	0.17202146
247	0x3e464a25	0.19364221
248	0x3e1db885	0.1540242
249	0x3dd34721	0.10316301
250	0x3c8211d2	0.015877638
251	0xbe2fd1a8	-0.17169821
252	0xbe29acfc	-0.16569895
253	0x3dc3e9f8	0.095661104
254	0xbdd1ea4e	-0.10249768
255	0xbdeb0344	-0.11475232

transformer_encoder.layers.0.linear1.bias f4 [20]
0	0xbdaa8e63	-0.08327939
1	0x3dd208a0	0.10255551
2	0xbe3c0fce	-0.18365404
3	0xbd778d4d	-0.06043749
4	0x3e2b6690	0.16738343
5	0x3a94c26a	0.0011349444
6	0xbe676e65	-0.22600706
7	0xbe6c8a41	-0.23099615
8	0x3ce93140	0.028465867
9	0x3da2adf4	0.07943335
10	0x3de40261	0.11133266
11	0xbc98882d	-0.018619621
12	0x3d59bbd4	0.053157642
13	0xbd429e94	-0.047514513
14	0xbdf18b9e	-0.11794208
15	0xbdba3bf5	-0.09093467
16	0xbe429ed7	-0.19005905
17	0xbe1f7185	-0.15570648
18	0xbe11f7b4	-0.14254647
19	0xbe589bb6	-0.21153149

transformer_encoder.layers.0.linear2.weight f4 [20, 20]
0	0x3d2e30b4	0.042526916
1	0xbe5519e4	-0.20810658
2	0xbdc05327	-0.0939086
3	0x3e5cf41c	0.21577495
4	0xbe541b5b	-0.2071356
5	0x3ed6da9c	0.4196366
6	0x3d8c743f	0.0685811
7	0x3e2d71d4	0.16937953
8	0xbe14f30a	-0.14545837
9	0x3e81851a	0.2529686
10	0x3dc21687	0.09476953
11	0x3e9f4b8f	0.31112334
12	0xbdf6ff9b	-0.120604716
13	0x3c853f08	0.016265407
14	0x3e464e61	0.19365837
15	0x3e3e2983	0.18570523
16	0x3e8af3a9	0.27139023
17	0xbdbd550d	-0.09244738
18	0xbd4c19fd	-0.04982947
19	0x3dcb9142	0.09939815
20	0x3e0ac3d4	0.13551265
21	0x3d6562e4	0.056002513
22	0xbd344924	-0.044015065
23	0x3d45ba0b	0.048273128
24	0xbd0abb48	-0.03387001
25	0x3e851e77	0.25999805
26	0x3df505b7	0.11963981
27	0xbe21c907	-0.15799342
28	0x3e001b30	0.12510371
29	0x3c061180	0.008182883
30	0xbdd6e9d4	-0.10493818
31	0xbcbc3592	-0.022974763
32	0x3e0ba583	0.13637356
33	0xbd4f1bcc	-0.05056362
34	0x3de69bee	0.1126021
35	0xbdcbf649	-0.099590845
36	0x3bfc3fcf	0.0076980363
37	0xbb286242	-0.0025693332
38	0x3bd06b5b	0.006360454
39	0xbc17fa12	-0.00927593
40	0x3d43a633	0.04776592
41	0xbd55016a	-0.0520033
42	0x3e45c17b	0.19312088
43	0xbdeaec43	-0.114708446
44	0xbe045443	-0.12922768
45	0x3e8425ea	0.25810176
46	0xbe029efa	-0.12755957
47	0x3e8666d1	0.26250318
48	0x3e30e610	0.17275262
49	0x3e21969d	0.1578011
50	0x3c1c743f	0.0095492
51	0xbcbc67e7	-0.022998763
52	0x3af5e1bf	0.0018759294
53	0xbd54b577	-0.05193087
54	0x3db838eb	0.08995231
55	0xbe21f51f	-0.15816163
56	0xbd9780c0	-0.07397604
57	0x3d0b934f	0.03407603
58	0x3d2c74c6	0.04210355
59	0x3d5f8bd6	0.054576717
60	0x3e1c188b	0.15243737
61	0xbc103244	-0.008801047
62	0xbb5ec5a7	-0.0033992322
63	0xbdb7bf74	-0.08972064
64	0x3ce5e07e	0.028061148
65	0x3d22b180	0.03972006
66	0x3df4d36a	0.119543865
67	0x3e14c02b	0.14526431
68	0x3b1956e7	0.0023397745
69	0xbe1738a7	-0.14767705
70	0x3d24c8e6	0.040230654
71	0xbc8292fa	-0.015939225
72	0x3d406ebc	0.046980605
73	0xba93f363	-0.0011287745
74	0x3e163586	0.14668855
75	0x3e203ef2	0.15649012
76	0xbdcde9dc	-0.10054371
77	0x3c46cc2d	0.01213364
78	0x3d4de48d	0.05026679
79	0xbdd3f1a4	-0.10348824
80	0xbd3fc42b	-0.04681794
81	0x3b3c416a	0.0028725513
82	0xbe2d14c9	-0.1690246
83	0x3d6d34e2	0.05791176
84	0x3dab8a81	0.08376027
85	0x3e3755f3	0.17903881
86	0x3db05374	0.086096674
87	0x3dcd2e2e	0.10018574
88	0x3e2fa81b	0.17153971
89	0x3df1ed9d	0.11812899
90	0xbdff1adb	-0.12456294
91	0xbdd28a64	-0.10280302
92	0x3ddea8ea	0.108720616
93	0x3e5074b1	0.20357014
94	0xbdc33ec0	-0.09533453
95	0x3e84a18e	0.25904506
96	0x3de5bbc1	0.11217452
97	0xbe4c8bdc	-0.19975227
98	0x3d6062b2	0.054781623
99	0x3d5c7cf9	0.05383012
100	0x3e470f50	0.19439435
101	0x3d92982b	0.0715793
102	0xbe0a0014	-0.13476592
103	0xbd1b3705	-0.037894268
104	0x3d2318cd	0.039818574
105	0x3e3d21de	0.1846995
106	0xbe441da7	-0.19151936
107	0xbdee8a53	-0.11647477
108	0xbd98e2ba	-0.0746512
109	0xbc89988e	-0.016796377
110	0x3c157470	0.009121999
111	0x3ca4de44	0.020125516
112	0x3dc6f219	0.09714145
113	0xbdb97247	-0.09055
114	0xbe2f8af3	-0.17142849
115	0xbe43a0b3	-0.1910427
116	0x3d60ad50	0.054852784
117	0x3d4973af	0.04918259
118	0xbd3813b6	-0.044940673
119	0x3e185da1	0.14879467
120	0xbe083b23	-0.13303809
121	0x3db38d0a	0.087671354
122	0xbde901dc	-0.11377308
123	0x3e31cd9e	0.17363593
124	0xbc8a3e16	-0.016875308
125	0x3dd53c4f	0.104118936
126	0xbd864c7d	-0.06557558
127	0x3af159c4	0.0018413593
128	0xbea7ded5	-0.32787195
129	0x3e102f7d	0.14080615
130	0x3cf59b41	0.029981257
131	0xbdf10510	-0.11768544
132	0x3dbd23e2	0.0923536
133	0xbe550076	-0.20800957
134	0x3d1d49d2	0.03840048
135	0x3e84da08	0.25947595
136	0x3ddd53a2	0.10806967
137	0x3ce19f94	0.027541913
138	0x3c5db5a9	0.013532081
139	0x3c7be8a1	0.015375287
140	0x3e22bc86	0.15892228
141	0x3e303db8	0.17211044
142	0x3de7726f	0.11301123
143	0xbe21246c	-0.1573655
144	0x3e4efaf9	0.20212926
145	0xbe380dab	-0.17973964
146	0x3e596bbd	0.21232505
147	0x3bee5a0b	0.0072739176
148	0x3e518831	0.20462109
149	0x3cb91cc7	0.02259673
150	0x3e2251dd	0.15851541
151	0x3ce3f70d	0.027827764
152	0x3d5abb9c	0.053401574
153	0x3dd82705	0.105543174
154	0x3e15fbe1	0.14646865
155	0xbe335e4f	-0.17516445
156	0xbdb7137b	-0.089392625
157	0x3da2cff7	0.079498224
158	0x3dbdc126	0.09265356
159	0x3dd43526	0.103617
160	0x3d6dab0b	0.058024447
161	0x3de50306	0.11182217
162	0xbe2c878d	-0.16848584
163	0x3e4f38b2	0.20236471
164	0xbd9e6f54	-0.07736078
165	0x3dd9aa07	0.10628133
166	0xbe938d7b	-0.2881888
167	0x3d86386b	0.065537296
168	0xbc87688c	-0.016529344
169	0x3e3863a3	0.18006758
170	0xbe10a3a5	-0.14124925
171	0xbe2aa231	-0.16663434
172	0x3ddfbd00	0.10924721
173	0xbdc3766e	-0.09544073
174	0x3ce779bc	0.02825629
175	0xbe09703f	-0.13421725
176	0x3e7c093a	0.24612895
177	0x3e338cc0	0.1753416
178	0x3de9af4c	0.11410388
179	0x3d1bc8d1	0.03803331
180	0x3df2ca70	0.11855018
181	0x3e31b6eb	0.17354934
182	0x3e02f6ca	0.12789455
183	0x3bd93d45	0.0066296184
184	0xbe3af33a	-0.18256846
185	0xbe8c6f06	-0.27428454
186	0xbd799226	-0.060930394
187	0xbdbb79c9	-0.09154088
188	0xbd862e44	-0.06551793
189	0xbd8cc7f9	-0.06874079
190	0xbd6dda3d	-0.058069456
191	0xbce4aed0	-0.027915388
192	0x3e2465ba	0.1605443
193	0xbd7a2325	-0.061068673
194	0xbd9323fe	-0.07184599
195	0xbd58fe5f	-0.052976962
196	0x3d6f099f	0.058358785
197	0xbdc0d1ea	-0.09415038
198	0x3e019ca3	0.12657408
199	0xbe7705d7	-0.24123321
200	0xbe04f74e	-0.12984964
201	0xbe788021	-0.24267627
202	0x3dc3db85	0.095633544
203	0x3e245be4	0.16050678
204	0x3e82a29e	0.25514692
205	0xbe15624d	-0.1458828
206	0x3e59e6d8	0.21279466
207	0x3e60fd67	0.21971665
208	0xbdc123d0	-0.09430659
209	0x3d9fa6be	0.077954754
210	0x3e50388a	0.20334068
211	0xbda588ac	-0.08082709
212	0x3b1402fb	0.0022584784
213	0xbd400f7d	-0.04688977
214	0xbe1e2782	-0.15444759
215	0xbc1efaea	-0.009703377
216	0xbe8c1527	-0.27359888
217	0x3dff8aea	0.12477668
218	0xbd860a86	-0.06544976
219	0xbe8aeb96	-0.27132863
220	0x3e470838	0.19436729
221	0x3e1c09c3	0.15238099
222	0xbabca576	-0.0014392573
223	0xbe5156c1	-0.2044325
224	0x3e216d47	0.15764342
225	0xbad860f7	-0.001650839
226	0x3e7a24ac	0.24428052
227	0xbdd239a4	-0.102649
228	0x3e17b5c2	0.14815429
229	0x3db9b2e6	0.09067325
230	0x3da1ac0e	0.07894145
231	0xbeb26d41	-0.3484898
232	0xbe92f05e	-0.2869901
233	0x3d4de2ad	0.050265003
234	0x3c234e7e	0.009967444
235	0x3e012c70	0.12614608
236	0x3da7ffeb	0.08203109
237	0xbe0a7a1c	-0.13523144
238	0x3d09b099	0.033615682
239	0xbe0cc261	-0.13746025
240	0xbd2ba9fb	-0.041910153
241	0xbe362262	-0.17786554
242	0x3df272b9	0.11838288
243	0xbe23e526	-0.16005382
244	0x3cf5d6bc	0.03000962
245	0xbe287d1e	-0.16453978
246	0xbdd3254c	-0.10309848
247	0xbd763dd3	-0.060117554
248	0xbe12928b	-0.14313714
249	0xbe71ab3e	-0.2360048
250	0xbe224c63	-0.15849452
251	0xbe5ccebd	-0.2156324
252	0x3e3b8d40	0.18315601
253	0x3e0d4f24	0.13799721
254	0x3cecd6a7	0.028910948
255	0x3e2b9535	0.16756137

transformer_encoder.layers.0.linear2.bias f4 [20]
0	0x3ddfb529	0.109232254
1	0x3c614fe1	0.013751955
2	0x3e57ffca	0.2109367
3	0x3b91d800	0.004450798
4	0x3e0fffe7	0.14062463
5	0x3cf6ce99	0.03012781
6	0xbcd9c8fd	-0.026585096
7	0xbe055b8e	-0.13023207
8	0x3ad723fb	0.0016413921
9	0xbd40a4cb	-0.04703216
10	0x3e52b931	0.20578457
11	0xbd0c2b54	-0.03422101
12	0x3d3c3fc9	0.045959268
13	0x3d8acb32	0.06777038
14	0xbc346d64	-0.011012409
15	0xbd5f5bcd	-0.054530907
16	0x3e1a2d35	0.15056308
17	0xbd5de820	-0.05417645
18	0x3e41b731	0.18917538
19	0xbde2e1c2	-0.11078216

transformer_encoder.layers.0.norm1.weight f4 [20]
0	0x3faa5620	1.3307533
1	0x3f9b124b	1.2114958
2	0x3f8c4c94	1.096087
3	0x3f9607f9	1.1721183
4	0x3f8182ec	1.0118079
5	0x3f9b19de	1.2117269
6	0x3f891904	1.0710759
7	0x3f6c99b0	0.9242201
8	0x3f84c5a5	1.0372816
9	0x3f7c918e	0.986596
10	0x3f7eba54	0.99503064
11	0x3f867a51	1.0506078
12	0x3f66b1ca	0.90115035
13	0x3f6f713e	0.9353217
14	0x3f7af639	0.98031956
15	0x3f47fc65	0.781195
16	0x3f71b74f	0.9442033
17	0x3f88f323	1.06992
18	0x3f7ad441	0.97980124
19	0x3f7c08c4	0.98450875

transformer_encoder.layers.0.norm1.bias f4 [20]
0	0xbcf59827	-0.029979778
1	0x3d6e3c75	0.058163125
2	0x3d3eb774	0.046561673
3	0x3c81b62f	0.015833942
4	0x3ce284bf	0.027651189
5	0x3d2d8521	0.04236329
6	0xbd86ec90	-0.065880895
7	0x3d661265	0.056169886
8	0x3c14d68f	0.009084358
9	0xbd71d95f	-0.05904519
10	0x3d3660ef	0.044526037
11	0xbd0238b1	-0.031792346
12	0x3d797ccd	0.060910035
13	0xbd3d9033	-0.046280097
14	0x3d4197ba	0.04726384
15	0xbd336805	-0.043800373
16	0x3c6cbbf2	0.0144491065
17	0xbd743adb	-0.05962644
18	0x3d45d992	0.048303194
19	0xbd4fd26e	-0.05073779

transformer_encoder.layers.0.norm2.weight f4 [20]
0	0x3fb175cc	1.3864074
1	0x3f68d24c	0.9094589
2	0x3f916779	1.1359702
3	0x3f81d374	1.0142655
4	0x3f899c75	1.0750872
5	0x3f809f77	1.0048665
6	0x3f90f6c2	1.1325305
7	0x3f6fc818	0.93664694
8	0x3f8b58ce	1.0886476
9	0x3f8775df	1.0582846
10	0x3f76df1d	0.96434194
11	0x3f8bea95	1.0930964
12	0x3f65c984	0.89760613
13	0x3f78baae	0.9715985
14	0x3f7b6e09	0.98214775
15	0x3f50c2f8	0.815475
16	0x3f749844	0.9554484
17	0x3f8f4f2d	1.1196038
18	0x3f80ac01	1.0052491
19	0x3f895e34	1.0731874

transformer_encoder.layers.0.norm2.bias f4 [20]
0	0x3c2657f0	0.010152802
1	0x3d91ea2f	0.07124745
2	0x3d9bd102	0.076082245
3	0x3da04316	0.078252956
4	0x3bd7f700	0.006590724
5	0xbb9b806f	-0.004745535
6	0xbd658da8	-0.056043297
7	0x3db70a8a	0.08937557
8	0x3c19cf2a	0.009387771
9	0xbd76d50e	-0.06026178
10	0x3d189e36	0.037260257
11	0xbcce9c74	-0.025221087
12	0x3ce201ef	0.027588813
13	0xbb262e5e	-0.0025357227
14	0x3da28641	0.07935763
15	0x3cd6a67e	0.026202437
16	0xbcbf422f	-0.023346988
17	0xbd75b89a	-0.059990503
18	0x3d4d7ae9	0.050166044
19	0xbd27e484	-0.040989414

transformer_encoder.layers.1.self_attn.in_proj_weight f4 [60, 20]
0	0xbe11a4c1	-0.14223005
1	0xbe8947a5	-0.26812473
2	0x3e5c609e	0.21521232
3	0x3d57a0d2	0.052643605
4	0x3e330033	0.17480545
5	0x3d7741dd	0.060365546
6	0xbe23c8e0	-0.15994596
7	0x3def2ad9	0.116780944
8	0x3d10aac6	0.035319112
9	0x3d50f7d5	0.0510176
10	0xbe4b41f6	-0.19849381
11	0x3e7837f4	0.24240094
12	0xbe8f0062	-0.2792998
13	0x3e37ef30	0.17962337
14	0x3e826566	0.25467986
15	0x3e8a953f	0.2706699
16	0x3da905b1	0.08253039
17	0xbdd0231f	-0.10162949
18	0xbc045d03	-0.008078816
19	0x3c736327	0.014855183
20	0x3e68b462	0.2272506
21	0xbc931eff	-0.017959116
22	0xbe7f8c14	-0.2495578
23	0x3dc8bd78	0.09801763
24	0x3d98dcbc	0.07463977
25	0x3de1fd40	0.11034632
26	0x3e29fe16	0.16600832
27	0xbd8f8be5	-0.07009105
28	0x3e57df78	0.2108134
29	0xbd0e7689	-0.034781013
30	0xbb942637	-0.004521157
31	0xbd965bb0	-0.07341707
32	0x3dcd6eb7	0.10030883
33	0xbd9a3b65	-0.0753086
34	0x3e63318d	0.22186871
35	0x3e1fc385	0.15601929
36	0x3e861080	0.26184464
37	0x3cb42a5c	0.021992855
38	0x3d29f9f2	0.041498132
39	0xbe135d3d	-0.14391036
40	0x3e4ed5c3	0.20198731
41	0xbe78555d	-0.24251314
42	0x3cd9f774	0.026607253
43	0xbd8b3b57	-0.067984276
44	0x3e728739	0.23684396
45	0xbe6be3fb	-0.23036186
46	0x3e2aa448	0.16664231
47	0xbe825084	-0.25452054
48	0x3cbe0103	0.023193842
49	0xbdd4d9d2	-0.103931084
50	0xbd490b4e	-0.049083047
51	0xbd48d3f2	-0.04903025
52	0x3d0bf352	0.034167595
53	0xbe456c18	-0.19279516
54	0x3dcbc776	0.099501535
55	0xbe299851	-0.1656201
56	0xbd6f44c7	-0.0584152
57	0xbe9b92ae	-0.30385345
58	0xbdb0c6b8	-0.086316526
59	0x3c9def4d	0.019279147
60	0x3d574605	0.05255701
61	0x3d5700af	0.052490886
62	0xbe2baa05	-0.16764076
63	0x3d8dd248	0.069248736
64	0x3e7ebcae	0.24876663
65	0x3e3090da	0.17242756
66	0xbdbad529	-0.09122688
67	0x3e107825	0.14108332
68	0x3c74d2a3	0.014942798
69	0x3c24e49a	0.0100642685
70	0x3d6527ba	0.05594609
71	0x3dfc0db3	0.123073004
72	0xbe6bc28d	-0.23023434
73	0xbdafe2e6	-0.08588199
74	0x3c85f588	0.01635243
75	0x3e2dc4ac	0.16969556
76	0xbe4c745e	-0.19966266
77	0xbde6eddd	-0.112758376
78	0xbc3d8b2c	-0.011568826
79	0x3db2105e	0.08694528
80	0xbe837258	-0.25673175
81	0x3e15f4f3	0.14644222
82	0xbe376bb7	-0.17912184
83	0x3e6d6e33	0.23186569
84	0xbd6e9d2c	-0.05825536
85	0xbd4786c7	-0.048712518
86	0x3be31c2e	0.0069308495
87	0xbb76933e	-0.0037624384
88	0x3e6619ec	0.22470826
89	0x3e1fb6da	0.15597096
90	0xbe6a6d66	-0.22893295
91	0x3e1f7b71	0.15574433
92	0x3e35e3cc	0.17762679
93	0xbd9b9586	-0.07596879
94	0xbe4c7544	-0.19966608
95	0xbdaffaa4	-0.08592728
96	0xbd675025	-0.056472916
97	0x3d4b1a89	0.049585853
98	0x3cdc38c1	0.026882531
99	0x3e671189	0.22565283
100	0xbd8094ed	-0.06278405
101	0xbd47619e	-0.04867708
102	0x3e4f18af	0.2022426
103	0xbe7c1be5	-0.24620016
104	0x3dc26fd2	0.09493984
105	0x3d235237	0.039873328
106	0x3ccf2cbe	0.02528989
107	0x3e49629c	0.19666523
108	0xbe3a02a0	-0.18165064
109	0xbe1e1b2f	-0.15440057
110	0x3dc9e6f1	0.09858502
111	0x3e4ea9d3	0.2018197
112	0xbd2c1fa0	-0.042022347
113	0xbd4febb7	-0.050761905
114	0xbe778c69	-0.24174656
115	0x3e13de9f	0.14440392
116	0xbe14245d	-0.14466996
117	0xbe5885ce	-0.21144792
118	0xbd8fc336	-0.070196554
119	0xbd3e489d	-0.04645597
120	0xbda3a0dd	-0.079896666
121	0x3dde8476	0.10865109
122	0x3df1d10f	0.11807453
123	0x3d39b299	0.04533634
124	0xbe2fd594	-0.17171317
125	0xbdfa6119	-0.12225551
126	0xbd368c3d	-0.044567335
127	0xbe03f80b	-0.1288759
128	0xbe339529	-0.17537369
129	0x3e0f1515	0.13972886
130	0xbdf59c7e	-0.11992739
131	0x3daeb3f7	0.08530419
132	0xbd816cb7	-0.06319564
133	0x3e03734a	0.12836948
134	0xbe2e29b2	-0.17008093
135	0x3e4647f5	0.19363387
136	0x3e30260c	0.17202014
137	0xbe025cf5	-0.12730773
138	0xbb65749f	-0.0035012139
139	0xbe06d911	-0.13168742
140	0x3d7ba63f	0.06143784
141	0xbe4cf6c6	-0.20016012
142	0x3d1e8429	0.038700256
143	0x3db371a8	0.087619126
144	0x3ea000f3	0.31250724
145	0xbcf88a16	-0.030339282
146	0xbe7d0f51	-0.24712874
147	0xbd0a2872	-0.033729978
148	0xbe22ab57	-0.15885673
149	0xbe0160a7	-0.12634526
150	0x3d6b39a7	0.05742803
151	0xbe5f9ccc	-0.21837157
152	0x3e256dad	0.16155119
153	0x3cda4e4e	0.026648667
154	0xbe37e7cc	-0.17959517
155	0xbe2d4ab8	-0.16923034
156	0x3dc542ee	0.096319064
157	0xbcb9e21d	-0.022690827
158	0xbd9165b6	-0.07099478
159	0xbdfc2a94	-0.12312809
160	0x3e2402f7	0.16016756
161	0xbd77d51a	-0.060505964
162	0xbd5e5a8d	-0.054285575
163	0x3e2fa8b1	0.17154194
164	0x3dfd5b70	0.12370956
165	0xbdbb67f4	-0.09150687
166	0xbe7bcaf2	-0.24589136
167	0x3e4167f5	0.18887313
168	0xbbb23cdc	-0.005439384
169	0x3e239c06	0.15977487
170	0xbd3315e4	-0.04372205
171	0x3d358482	0.044315822
172	0x3e61463c	0.21999449
173	0xbe0acd35	-0.13554843
174	0x3de24fe5	0.11050395
175	0x3e23d9af	0.16001008
176	0x3e108ec3	0.1411696
177	0xbe5d2d7f	-0.21599387
178	0x3e83280a	0.25616485
179	0x3e1104c1	0.1416197
180	0xbe1847cc	-0.14871138
181	0xbd856620	-0.065136194
182	0x3dfded37	0.12398761
183	0x3dff3edc	0.12463161
184	0x3e46596a	0.19370046
185	0xbe500afa	-0.20316687
186	0xbdc990ca	-0.098420694
187	0x3e1dcfcc	0.154113
188	0xbdcaddf2	-0.09905614
189	0xbe0ba1e3	-0.13635974
190	0xbe1a736d	-0.15083094
191	0xbddce00c	-0.10784921
192	0x3e39c05e	0.18139789
193	0xbcff627a	-0.031174887
194	0x3cc00dab	0.023444017
195	0x3b9239c7	0.004462454
196	0xbe36e9b3	-0.17862587
197	0xbd86907c	-0.06570527
198	0xbd9e5c8c	-0.07732496
199	0x3ccc04b6	0.02490459
200	0xbe0aa310	-0.13538766
201	0xbe6b1ef6	-0.2296103
202	0xbb6f4c1a	-0.0036513866
203	0xbe148a0c	-0.14505786
204	0x3ca6411b	0.020294717
205	0x3db98514	0.09058586
206	0x3d83d20d	0.064365484
207	0xbe2c50d3	-0.16827707
208	0x3e3d4309	0.18482603
209	0x3e2debfe	0.16984555
210	0x3dd05775	0.10172931
211	0xbc344c3e	-0.011004506
212	0xbc4ffa1a	-0.012693906
213	0x3c98a8ac	0.018635117
214	0xbd91f1fd	-0.07126234
215	0xbb48d9c5	-0.003064738
216	0x3cd8793f	0.026425002
217	0x3e80b896	0.25140828
218	0x3de44e25	0.111477174
219	0x3de82bd2	0.11336483
220	0xbce86f22	-0.028373305
221	0xbe74be38	-0.23900688
222	0xbe896658	-0.26835895
223	0xbe5c338c	-0.21504039
224	0x3e3efcc0	0.18651104
225	0xbdb9947c	-0.09061524
226	0xbda4eff5	-0.08053581
227	0x3d27df11	0.040984217
228	0x3c365e24	0.011130843
229	0x3e50980e	0.20370504
230	0xbe03debf	-0.1287794
231	0x3cbb8934	0.022892572
232	0xbe200072	-0.1562517
233	0xbd7cede6	-0.061750315
234	0xbe34ad4a	-0.1764423
235	0x3e0e2f10	0.1388514
236	0x3da15fcb	0.07879599
237	0x3d0a38a4	0.033745423
238	0x3b7798ea	0.0037780353
239	0xbe8c3ccc	-0.27390134
240	0x3e98dafb	0.2985457
241	0x3df224a7	0.11823397
242	0x3e6f1bc4	0.23350435
243	0xbe85cd2d	-0.261331
244	0xbe3a6a73	-0.1820467
245	0xbdec0430	-0.11524236
246	0xbe817df7	-0.25291416
247	0x3daa4e36	0.08315699
248	0xbd945e93	-0.07244601
249	0xbe32ac61	-0.1744857
250	0x3e0d24ee	0.13783619
251	0x3c51a53f	0.012795745
252	0x3e8b422f	0.27198932
253	0x3e5faf5b	0.21844237
254	0x3e8a48f1	0.27008775
255	0xbd03f404	-0.032215133

transformer_encoder.layers.1.self_attn.in_proj_bias f4 [60]
0	0x3c3ad467	0.01140318
1	0x3beda4cb	0.007252311
2	0x3cea194a	0.028576512
3	0xbc8fe7a7	-0.017566515
4	0xbc9a8b93	-0.018865382
5	0x3d5bfcc0	0.053707838
6	0xbb011a42	-0.0019699489
7	0x3c8fe305	0.017564306
8	0x3d11f14b	0.035630506
9	0xbaf5b30e	-0.0018745379
10	0xbc35dc77	-0.011099926
11	0xbd160348	-0.036624223
12	0x3ba8dc4f	0.005153216
13	0xbb0ff2f0	-0.002196487
14	0x3acd69b0	0.0015671756
15	0xbb08b321	-0.0020858722
16	0xbc1b567d	-0.00948107
17	0xbd8eab23	-0.069662355
18	0xbb804441	-0.0039143865
19	0x3d49a992	0.04923398
20	0xb020f5f7	-5.85572e-10
21	0xb0d9d626	-1.5849693e-09
22	0x30947171	1.0800659e-09
23	0xb0ae7aa0	-1.2695018e-09
24	0xb0dbdfe4	-1.5997981e-09
25	0x318b1490	4.04777e-09
26	0x30955a72	1.0866883e-09
27	0x31fbf01a	7.332358e-09
28	0x2f860a72	2.438188e-10
29	0x2fbd3c11	3.442158e-10
30	0xb0fafa59	-1.8261047e-09
31	0xb165f1a1	-3.3461236e-09
32	0x302cff63	6.293616e-10
33	0xb0098341	-5.002683e-10
34	0xb187d86a	-3.9536205e-09
35	0xb12fcd38	-2.5582505e-09
36	0x311a6144	2.2465239e-09
37	0xb16460f5	-3.323348e-09
38	0xb055209e	-7.75353e-10
39	0xb0f823be	-1.8054533e-09
40	0x3a6fc211	0.00091460446
41	0xbd56ec15	-0.05247124
42	0x3cb8862b	0.022524914
43	0xbc1ac7fb	-0.009447093
44	0x3d8d69cd	0.069049455
45	0xbc5727e2	-0.013132067
46	0x3be708fc	0.0070506316
47	0x3ccba738	0.02486001
48	0x3d564e32	0.052320667
49	0xbc315d4b	-0.010825465
50	0x3c52c7e6	0.012865042
51	0x3c212c0d	0.009837163
52	0xbc9ab45f	-0.018884836
53	0xbcc27dcb	-0.023741623
54	0xbd7047a1	-0.05866206
55	0xbcb12092	-0.021621976
56	0x3d29c231	0.04144496
57	0x3c02d10b	0.00798441
58	0xbcfa8ea3	-0.030585593
59	0x3c67ce34	0.014148284
