model_epoch_115.pt (torch, 432002 bytes, 28 tensors)

pos_encoder.pe f4 [5000, 1, 20]
0	0x00000000	0.0
1	0x3f800000	1.0
2	0x00000000	0.0
3	0x3f800000	1.0
4	0x00000000	0.0
5	0x3f800000	1.0
6	0x00000000	0.0
7	0x3f800000	1.0
8	0x00000000	0.0
9	0x3f800000	1.0
10	0x00000000	0.0
11	0x3f800000	1.0
12	0x00000000	0.0
13	0x3f800000	1.0
14	0x00000000	0.0
15	0x3f800000	1.0
16	0x00000000	0.0
17	0x3f800000	1.0
18	0x00000000	0.0
19	0x3f800000	1.0
20	0x3f576aa5	0.841471
21	0x3f0a5141	0.54030234
22	0x3ec67d3d	0.38767424
23	0x3f6bfada	0.92179644
24	0x3e219d4e	0.15782663
25	0x3f7ccaa0	0.9874668
26	0x3d812265	0.06305388
27	0x3f7f7d97	0.9980101
28	0x3ccdc08a	0.025116224
29	0x3f7feb53	0.9996845
30	0x3c23d657	0.009999833
31	0x3f7ffcb9	0.99995
32	0x3b827390	0.0039810613
33	0x3f7fff7b	0.9999921
34	0x3acfbc28	0.0015848922
35	0x3f7fffeb	0.99999875
36	0x3a2566d4	0.0006309573
37	0x3f7ffffd	0.9999998
38	0x3983b1f5	0.00025118855
39	0x3f7fffff	0.99999994
40	0x3f68c7b7	0.9092974
41	0xbed51133	-0.41614684
42	0x3f36f776	0.71471345
43	0x3f330d04	0.69941735
44	0x3e9f96c5	0.31169716
45	0x3f733f18	0.9501815
46	0x3e00e09d	0.12585683
47	0x3f7df6e3	0.99204844
48	0x3d4dafec	0.0502166
49	0x3f7fad51	0.99873835
50	0x3ca3d43e	0.019998666
51	0x3f7ff2e5	0.9998
52	0x3c02734d	0.00796206
53	0x3f7ffdec	0.9999683
54	0x3b4fbc17	0.0031697804
55	0x3f7fffac	0.999995
56	0x3aa566d2	0.0012619144
57	0x3f7ffff3	0.9999992
58	0x3a03b1f5	0.0005023771
59	0x3f7ffffe	0.9999999
60	0x3e1081c3	0.14112
61	0xbf7d7026	-0.9899925
62	0x3f6e1248	0.92996645
63	0x3ebc3be5	0.36764446
64	0x3eea5ece	0.45775455
65	0x3f639aa8	0.8890786
66	0x3e40acb9	0.18815888
67	0x3f7b6d6f	0.9821386
68	0x3d9a2f2d	0.07528529
69	0x3f7f4603	0.99716204
70	0x3cf5b91f	0.0299955
71	0x3f7fe283	0.99955004
72	0x3c43ac49	0.011942931
73	0x3f7ffb53	0.99992865
74	0x3b9bccfc	0.0047546607
75	0x3f7fff42	0.9999887
76	0x3af81a36	0.001892871
77	0x3f7fffe2	0.9999982
78	0x3a458aef	0.00075356563
79	0x3f7ffffb	0.9999997
80	0xbf41bdcf	-0.7568025
81	0xbf275530	-0.6536436
82	0x3f7ff0ab	0.99976605
83	0xbcb132ce	-0.02163067
84	0x3f17a372	0.5923377
85	0x3f4e41b0	0.8056898
86	0x3e7fb48a	0.24971214
87	0x3f77e3d4	0.96832013
88	0x3dcd6d7d	0.10030649
89	0x3f7eb57a	0.9949566
90	0x3d23cbdb	0.039989334
91	0x3f7fcb94	0.9992001
92	0x3c82723e	0.015923616
93	0x3f7ff7b1	0.9998732
94	0x3bcfbbd3	0.006339529
95	0x3f7ffeaf	0.9999799
96	0x3b2566c9	0.0025238267
97	0x3f7fffcb	0.99999684
98	0x3a83b1f4	0.0010047541
99	0x3f7ffff8	0.9999995
100	0xbf757c10	-0.9589243
101	0x3e913c2c	0.2836622
102	0x3f69c728	0.91319513
103	0xbed0a6ce	-0.40752262
104	0x3f364a6e	0.7120732
105	0x3f33bd2c	0.7021053
106	0x3e9edbeb	0.3102716
107	0x3f735daa	0.95064795
108	0x3e00454f	0.12526439
109	0x3f7dfbcd	0.9921234
110	0x3d4cb6f4	0.049979165
111	0x3f7fae19	0.99875027
112	0x3ca30dcf	0.019904045
113	0x3f7ff304	0.9998019
114	0x3c01d544	0.007924382
115	0x3f7ffdf1	0.9999686
116	0x3b4ec074	0.0031547816
117	0x3f7fffad	0.99999505
118	0x3aa49e6f	0.0012559424
119	0x3f7ffff3	0.9999992
120	0xbe8f0f8c	-0.2794155
121	0x3f75cdb8	0.96017027
122	0x3f2f0d20	0.683794
123	0xbf3acbfd	-0.7296751
124	0x3f505fa7	0.81395954
125	0x3f14b747	0.5809216
126	0x3ebd3bb7	0.3695962
127	0x3f6ddf8f	0.9291925
128	0x3e19bf29	0.15014328
129	0x3f7d191a	0.98866427
130	0x3d759cd1	0.059964005
131	0x3f7f8a12	0.99820054
132	0x3cc3a8b7	0.02388416
133	0x3f7fed4e	0.99971473
134	0x3c1bcc88	0.009509213
135	0x3f7ffd09	0.99995476
136	0x3b781a19	0.0037857352
137	0x3f7fff88	0.99999285
138	0x3ac58aeb	0.0015071308
139	0x3f7fffed	0.99999887
140	0x3f283046	0.6569866
141	0x3f40ffbd	0.75390226
142	0x3eb1e3fd	0.34744254
143	0xbf700d31	-0.9377013
144	0x3f653bc0	0.89544296
145	0x3ee3ee26	0.4451763
146	0x3edadab9	0.42744997
147	0x3f676f1a	0.904039
148	0x3e33202d	0.17492743
149	0x3f7c0d86	0.98458135
150	0x3d8f3e32	0.06994285
151	0x3f7f5f81	0.997551
152	0x3ce442d4	0.027863897
153	0x3f7fe68e	0.99961174
154	0x3c35c3b4	0.011094023
155	0x3f7ffbf8	0.9999385
156	0x3b90b9db	0.004416687
157	0x3f7fff5c	0.9999902
158	0x3ae67765	0.001758319
159	0x3f7fffe6	0.99999845
160	0x3f7d4695	0.98935825
161	0xbe14fdf6	-0.14550003
162	0xbd312831	-0.04325122
163	0xbf7fc2ac	-0.9990642
164	0x3f7458dc	0.9544809
165	0x3e98b71d	0.29827204
166	0x3ef79ac2	0.48360258
167	0x3f6012db	0.8752877
168	0x3e4c6442	0.1996012
169	0x3f7ad93c	0.97987723
170	0x3da3aa50	0.07991469
171	0x3f7f2e66	0.99680173
172	0x3d026e02	0.031843193
173	0x3f7fdec4	0.9994929
174	0x3c4fbac1	0.012678803
175	0x3f7ffabb	0.9999196
176	0x3ba566a7	0.0050476375
177	0x3f7fff2a	0.99998724
178	0x3b03b1ef	0.002009507
179	0x3f7fffde	0.999998
180	0x3ed30132	0.4121185
181	0xbf693fd5	-0.91113025
182	0xbedab75c	-0.42718017
183	0xbf677775	-0.9041665
184	0x3f7d5600	0.9895935
185	0x3e135839	0.14389123
186	0x3f09af43	0.53783053
187	0x3f57d252	0.843053
188	0x3e658754	0.22414905
189	0x3f797c6e	0.9745549
190	0x3db8123e	0.089878544
191	0x3f7ef6c2	0.9959527
192	0x3d12ba12	0.03582198
193	0x3f7fd5f0	0.9993582
194	0x3c69b1ad	0.014263553
195	0x3f7ff955	0.99989825
196	0x3bba136e	0.0056785857
197	0x3f7ffef1	0.99998385
198	0x3b14282c	0.0022606952
199	0x3f7fffd5	0.99999744
200	0xbf0b44f8	-0.5440211
201	0xbf56cd64	-0.8390715
202	0xbf3e8a23	-0.7442953
203	0xbf2af843	-0.6678507
204	0x3f7ff97d	0.99990064
205	0xbc66f4ba	-0.014096433
206	0x3f1704e0	0.58991814
207	0x3f4eb5e6	0.80746305
208	0x3e7e8553	0.24855547
209	0x3f77f754	0.9686177
210	0x3dcc7576	0.099833414
211	0x3f7eb898	0.9950042
212	0x3d23058a	0.039800204
213	0x3f7fcc13	0.9992077
214	0x3c81d439	0.015848266
215	0x3f7ff7c5	0.9998744
216	0x3bcec030	0.0063095316
217	0x3f7ffeb2	0.9999801
218	0x3b249e67	0.002511883
219	0x3f7fffcb	0.99999684
220	0xbf7fff5c	-0.9999902
221	0x3b910572	0.004425698
222	0xbf71eb58	-0.9449973
223	0xbea776c9	-0.32707813
224	0x3f7c3265	0.98514396
225	0xbe2fda27	-0.17173062
226	0x3f23c09f	0.6396579
227	0x3f44c6e2	0.7686597
228	0x3e8bad1c	0.2728051
229	0x3f764a2d	0.96206933
230	0x3de0d372	0.1097783
231	0x3f7e73e8	0.9939561
232	0x3d335059	0.043777797
233	0x3f7fc12c	0.9990413
234	0x3c8ecf86	0.01743294
235	0x3f7ff60a	0.999848
236	0x3be36ced	0.006940475
237	0x3f7ffe6c	0.9999759
238	0x3b3514a2	0.0027630706
239	0x3f7fffc0	0.9999962
240	0xbf095cd8	-0.53657293
241	0x3f5806d0	0.84385395
242	0xbf7f760b	-0.99789494
243	0x3d84d0e1	0.06485153
244	0x3f7218f5	0.9456933
245	0xbea66e4d	-0.32506028
246	0x3f2fd589	0.68685204
247	0x3f3a0f63	0.7267973
248	0x3e9800fe	0.29688257
249	0x3f74753e	0.954914
250	0x3df52bac	0.119712204
251	0x3f7e28b5	0.99280864
252	0x3d439a6d	0.047754694
253	0x3f7fb53b	0.9988591
254	0x3c9bcaba	0.019017566
255	0x3f7ff426	0.99981916

transformer_encoder.layers.0.self_attn.in_proj_weight f4 [60, 20]
0	0xbe18f238	-0.14936149
1	0xbe734b79	-0.2375926
2	0x3e5cb56e	0.21553585
3	0x3d75dd26	0.060025357
4	0x3e3f64dd	0.1869082
5	0x3da7eca6	0.08199434
6	0xbe3b791a	-0.18307915
7	0x3dfd5e39	0.12371487
8	0x3c2a708b	0.010402809
9	0x3d357044	0.044296518
10	0xbe4e8c4d	-0.20170708
11	0x3e74da2e	0.23911354
12	0xbe8aa0a6	-0.2707569
13	0x3e3c2fe0	0.18377638
14	0x3e86670d	0.26250497
15	0x3e8643e4	0.2622367
16	0x3d9afc24	0.07567623
17	0xbde21bf7	-0.1104049
18	0xbc2d8b61	-0.010592313
19	0xbc5204d6	-0.012818536
20	0x3e7994d9	0.24373187
21	0xbd83be66	-0.064328
22	0xbe85f688	-0.2616465
23	0x3dcfd3e1	0.101478346
24	0x3d6e3a54	0.058161095
25	0x3dd94742	0.106092945
26	0x3e274c7c	0.1633777
27	0xbdafabd2	-0.08577694
28	0x3e6e57bc	0.23275656
29	0xbd2ec898	-0.04267177
30	0x39bce27e	0.00036026904
31	0xbdc1cc37	-0.09462779
32	0x3dce880b	0.10084542
33	0xbdd59ee9	-0.104307
34	0x3e6aae23	0.2291799
35	0x3e23acab	0.15983836
36	0x3e86f76e	0.2636065
37	0x3caf6946	0.021412503
38	0x3d159e6e	0.036528043
39	0xbdf96cc1	-0.12178946
40	0x3e15e843	0.14639382
41	0xbe11d51d	-0.14241453
42	0x3c7c046c	0.015381914
43	0xbd8e87b7	-0.06959479
44	0x3e7979ca	0.24362865
45	0xbe4e0685	-0.20119675
46	0x3e30cdd1	0.17266013
47	0xbe6b613b	-0.22986309
48	0xbbb4b1f9	-0.00551438
49	0xbdac33b4	-0.08408299
50	0xbd6e259d	-0.05814134
51	0xbd355d4a	-0.04427842
52	0x3d448c0f	0.047985133
53	0xbe1b1618	-0.15145147
54	0x3dd99476	0.1062402
55	0xbe36880e	-0.17825338
56	0xbd82af67	-0.063811116
57	0xbe91a9f4	-0.28449976
58	0xbdb37827	-0.087631516
59	0xbcf2e53f	-0.029650329
60	0x3dd617bc	0.10453746
61	0xbc85349c	-0.016260438
62	0xbe10be59	-0.14135112
63	0x3db23a40	0.087025166
64	0x3e5ac7f1	0.21365334
65	0x3e1e74ee	0.15474293
66	0xbde19b37	-0.11015933
67	0x3dd70edc	0.10500881
68	0x3cf9e7a4	0.030505963
69	0xbc32622a	-0.010887662
70	0x3d7a9d60	0.06118524
71	0x3dfe9faa	0.12432797
72	0xbe76f0de	-0.24115321
73	0xbe06b16a	-0.13153616
74	0x3cf09600	0.0293684
75	0x3e42dbdd	0.19029184
76	0xbe3b4734	-0.1828888
77	0xbdfde59e	-0.12397312
78	0xbc856369	-0.016282754
79	0x3e04b358	0.12959039
80	0xbe7431f9	-0.23847188
81	0x3ddecc96	0.108788654
82	0xbe36a3cf	-0.17835926
83	0x3e820acc	0.25398862
84	0xbd962cd5	-0.0733277
85	0xbd9b8128	-0.07592994
86	0xbc3331a6	-0.01093713
87	0xbca36ce6	-0.019949388
88	0x3e6fd991	0.23422839
89	0x3e07301f	0.1320195
90	0xbe6a0f9c	-0.22857517
91	0x3e0ad2b7	0.13556944
92	0x3e27a9fc	0.16373438
93	0xbde1ef77	-0.110320024
94	0xbe4c6f2c	-0.19964284
95	0xbdb58e47	-0.08865028
96	0xbd6178ad	-0.055046726
97	0x3d224ced	0.039624143
98	0x3ca4339c	0.02004414
99	0x3e81e60c	0.25370824
100	0xbd8c2773	-0.06843462
101	0xbd53bf2f	-0.051696
102	0x3e57db80	0.21079826
103	0xbe652162	-0.22376016
104	0x3d1036f3	0.035208654
105	0x3d132b6a	0.035930075
106	0x3d77d2c5	0.06050374
107	0x3e38d6b8	0.18050659
108	0xbe44be85	-0.19213302
109	0xbdf8fe2e	-0.12157856
110	0x3d84023e	0.0644574
111	0x3e5915b9	0.21199693
112	0xbd32cd00	-0.043652534
113	0xbda60667	-0.0810669
114	0xbe6e6788	-0.23281682
115	0x3e325e21	0.1741872
116	0xbe1828fc	-0.14859384
117	0xbe276837	-0.16348349
118	0xbde9ee47	-0.11422401
119	0xbc8428a9	-0.01613267
120	0xbdda4b03	-0.106588386
121	0x3dc70fb6	0.097197935
122	0x3e7b74ac	0.24556226
123	0x3c926408	0.017869964
124	0xbe3e3fe8	-0.18579066
125	0xbe0d47c8	-0.13796914
126	0xbd1998ab	-0.03749911
127	0xbe0d8574	-0.1382044
128	0xbd622808	-0.055213958
129	0x3e06e2c2	0.13172439
130	0xbda7fd37	-0.08202594
131	0x3df7d259	0.121006675
132	0xbd0c2088	-0.03421071
133	0x3e1b3d8e	0.151602
134	0xbdfdf0b3	-0.12399425
135	0x3e773fba	0.24145404
136	0x3e62016e	0.22070858
137	0xbe0b258a	-0.13588539
138	0x3b2b281c	0.0026116436
139	0xbde36169	-0.11102564
140	0x3e6ca488	0.23109639
141	0xbf1525c2	-0.5826074
142	0x3d5fe099	0.054657552
143	0x3c5687fe	0.0130939465
144	0x3e95919d	0.29212657
145	0xbcd12a3c	-0.025532834
146	0xbe48ee44	-0.19622141
147	0xbd6481e1	-0.055787925
148	0xbddd0021	-0.1079104
149	0xbd8890de	-0.06668256
150	0x3d6df9c0	0.05809951
151	0xbe35614e	-0.177129
152	0x3e260d1d	0.1621594
153	0xbcee83e1	-0.02911562
154	0xbe5a02f6	-0.21290192
155	0xbe0e8ea3	-0.13921599
156	0x3de00548	0.10938507
157	0x3b6252b3	0.0034534156
158	0xbd048e6d	-0.03236239
159	0xbdd60fca	-0.1045223
160	0x3df167d3	0.11787381
161	0x3deb84fd	0.11499975
162	0xbb010239	-0.0019685163
163	0x3e4ce910	0.20010781
164	0x3debdeaf	0.11517083
165	0xbda9e5ae	-0.08295761
166	0xbe8f70c2	-0.28015715
167	0x3e4496c8	0.19198143
168	0x3abb445f	0.0014287344
169	0x3e002f11	0.12517954
170	0xbcef5462	-0.029215042
171	0x3d88cddd	0.0667989
172	0x3e645970	0.22299743
173	0xbd917476	-0.07102291
174	0x3e16c195	0.14722283
175	0x3e43d14e	0.19122812
176	0x3e1d7a1a	0.1537861
177	0xbe6e3d59	-0.2326559
178	0x3e80f3f3	0.25186118
179	0x3e1c2f5f	0.15252446
180	0xbd924c32	-0.07143439
181	0xbe4b9e21	-0.1988454
182	0x3d7cad24	0.061688557
183	0x3dd28513	0.10279288
184	0x3e3bc3c6	0.183364
185	0xbe26300a	-0.16229263
186	0xbda98a5d	-0.08278344
187	0x3e0bf2cb	0.13666837
188	0xbe29ff00	-0.16601181
189	0xbdd6e0f3	-0.104921244
190	0xbe53e9c1	-0.20694639
191	0xbe00588a	-0.12533775
192	0x3e267cfb	0.16258614
193	0xbd96e09f	-0.07367062
194	0xbcb61d88	-0.022230878
195	0xbc4adda6	-0.012381947
196	0xbe563a9c	-0.20920795
197	0xbd2f7e1b	-0.042844873
198	0xbd85e669	-0.06538088
199	0x3c4e7244	0.012600485
200	0xbe2dba02	-0.16965488
201	0xbe866928	-0.26252103
202	0x3d3ba7bd	0.045814265
203	0xbe4ab241	-0.19794561
204	0xbc089ad1	-0.008337692
205	0x3e1208bc	0.14261144
206	0x3caf0fbd	0.02136981
207	0xbe4ab7a5	-0.19796617
208	0x3e5ce54d	0.21571846
209	0x3e14bcd4	0.14525157
210	0x3dfb9c3d	0.122856595
211	0x3d0e815d	0.03479134
212	0xbd08d194	-0.033402994
213	0x3c6f5a97	0.014609001
214	0xbd465518	-0.048420995
215	0x3cbdd14a	0.023171086
216	0x3d6ac2b8	0.057314605
217	0x3e6dd127	0.23224317
218	0x3df17d5f	0.11791491
219	0x3e079fa3	0.1324449
220	0x3cb128fb	0.021625986
221	0xbe983977	-0.29731342
222	0xbe49af5b	-0.19695799
223	0xbe6cc38a	-0.23121467
224	0x3e41076c	0.18850487
225	0xbdcb1b76	-0.09917347
226	0xbe1c1e81	-0.15246011
227	0x3d480044	0.04882838
228	0x3ce2666b	0.027636727
229	0x3e1b27f4	0.1515196
230	0xbdce56a6	-0.10075121
231	0x3d479a66	0.04873123
232	0xbe4d890d	-0.20071812
233	0xbd944834	-0.07240334
234	0xbe345aca	-0.17612758
235	0x3dff3073	0.12460413
236	0x3dd3f723	0.10349872
237	0xbcb90d2d	-0.02258929
238	0x3c8fbd0e	0.017546203
239	0xbe8b1bc7	-0.2716963
240	0x3e9ac81f	0.30230805
241	0x3e05ec27	0.13078366
242	0x3e627791	0.22115923
243	0xbe6c0741	-0.23049642
244	0xbe4253b7	-0.18977247
245	0xbe14cb7e	-0.14530751
246	0xbe700ce6	-0.2344242
247	0x3dbb2bf3	0.09139242
248	0xbda7d0db	-0.08194133
249	0xbe29c1ed	-0.16577883
250	0x3df65707	0.12028318
251	0xbc440add	-0.011965481
252	0x3e8c0a13	0.27351436
253	0x3e5111fb	0.20417015
254	0x3e86b52a	0.26310092
255	0xbd50967c	-0.050924763

transformer_encoder.layers.0.self_attn.in_proj_bias f4 [60]
0	0xbc8f916c	-0.017525397
1	0x3b5e67b0	0.0033936314
2	0xbb9c0520	-0.004761353
3	0x3aa7274f	0.0012752804
4	0xbc1a071e	-0.009401111
5	0x3c8f2139	0.017471896
6	0x3d228920	0.039681554
7	0x3d2da977	0.042397942
8	0x3d0af981	0.03392935
9	0xbc16655c	-0.009179439
10	0x3cb54b32	0.022130582
11	0xbc606e01	-0.013698102
12	0xbc9f4e55	-0.019446531
13	0xbcc96a46	-0.024586808
14	0x3c9ac578	0.018892989
15	0x3c24fca7	0.010070003
16	0xbc26abb0	-0.010172769
17	0xbd2b33c7	-0.041797426
18	0x3bc6ee69	0.006070901
19	0x3d50c2c2	0.050966986
20	0xb13a4835	-2.7107607e-09
21	0x3075502a	8.92444e-10
22	0x2cac9d81	4.9060205e-12
23	0xb11d168b	-2.285932e-09
24	0x3102e20d	1.9045985e-09
25	0x328fbfb2	1.6734564e-08
26	0x31c64dc1	5.771398e-09
27	0x31847e4e	3.856065e-09
28	0x320e335d	8.2771665e-09
29	0x319d8351	4.5842303e-09
30	0x2f1a026d	1.400708e-10
31	0x2fd79824	3.9216375e-10
32	0x2f91ad0a	2.6498298e-10
33	0xb064883b	-8.313951e-10
34	0xb183750f	-3.82591e-09
35	0x31721181	3.5225585e-09
36	0xb1c65915	-5.772686e-09
37	0x31792dbe	3.626027e-09
38	0x3146a210	2.8904914e-09
39	0x31333087	2.6075513e-09
40	0xbd445b18	-0.047938436
41	0x3d5292cb	0.051409524
42	0xbccb5cd1	-0.024824532
43	0xbc8442d9	-0.016145157
44	0x3d6d4e09	0.05793575
45	0x3daff263	0.085911535
46	0x3bf8b7c1	0.0075902645
47	0x3d840638	0.06446499
48	0x3d62e0da	0.055390216
49	0x3c114c60	0.008868307
50	0xbc8fb90a	-0.017544288
51	0x3c60924a	0.013706753
52	0xbd898275	-0.06714336
53	0x3d931082	0.07180883
54	0x3c91eab2	0.017812107
55	0x3d9034d1	0.07041324
56	0x3d2e2d47	0.04252365
57	0x3d2d3980	0.042291164
58	0x3c38a08c	0.011268746
59	0xbc731063	-0.01483545

transformer_encoder.layers.0.self_attn.out_proj.weight f4 [20, 20]
0	0x3e05fa6f	0.13083814
1	0xbded0da2	-0.11574866
2	0xbdbc16cf	-0.09184038
3	0x3e22572e	0.15853569
4	0x3e8a774d	0.27044144
5	0x3d876202	0.066104904
6	0x3ee44e80	0.4459114
7	0x3dff3e4f	0.12463056
8	0xbd7b7b56	-0.06139692
9	0x3d9d181b	0.076706134
10	0xbe3f2e27	-0.1866995
11	0x3d541e89	0.051786933
12	0xbc24b491	-0.010052816
13	0xbcb2e6c0	-0.021838546
14	0x3da608ed	0.08107171
15	0xbebf04c0	-0.3730831
16	0x3e0ab398	0.13545072
17	0x3dc01418	0.093788326
18	0x3ebfc21f	0.3745279
19	0x3dce5706	0.10075192
20	0x3e1806be	0.14846322
21	0xbda92511	-0.08259023
22	0x3d936a4f	0.07198011
23	0xbd6dc7e1	-0.058051948
24	0x3dbcfba4	0.09227684
25	0xbd79d4df	-0.060994025
26	0xbe8f7633	-0.28019866
27	0xbe324a34	-0.17411119
28	0xbe1b0070	-0.15136886
29	0xbd98e324	-0.07465199
30	0xbd29a5b0	-0.041417778
31	0x3d8b5ab2	0.06804408
32	0x3e0292e1	0.12751342
33	0xbe4dc151	-0.20093276
34	0xbdcc4ed7	-0.09975975
35	0x3d92b7b8	0.07163948
36	0xbda14bec	-0.07875809
37	0x3d5cdd24	0.053921834
38	0x3d24c18c	0.040223643
39	0xbdc3dd22	-0.09563662
40	0xbe1f7206	-0.1557084
41	0xbd0ed289	-0.03486875
42	0xbdbd3bea	-0.09239943
43	0xbe17fa3b	-0.14841549
44	0x3e2fb078	0.17157161
45	0xbe213c30	-0.15745616
46	0xbe45ef92	-0.1932967
47	0x3c94a73a	0.018146146
48	0xbe5f5f38	-0.21813667
49	0xbd2042d0	-0.039126217
50	0xbe0a390e	-0.13498327
51	0xbe1ba860	-0.15200949
52	0x3c81781f	0.015804349
53	0x3da302b2	0.079594985
54	0x3cfa99b9	0.030590879
55	0xbe39ff1e	-0.18163726
56	0x3e160a4a	0.14652362
57	0xbde27284	-0.11056998
58	0x3dcdf975	0.10057346
59	0xbe68aecf	-0.22722934
60	0x3d5d63c2	0.054050215
61	0xbd3397bc	-0.043845877
62	0x3c8327a3	0.016010111
63	0x3c0fe0f1	0.008781658
64	0x3e4d8c76	0.20073113
65	0xbe86fee7	-0.2636635
66	0x3deb7c91	0.114983685
67	0xbc9db7d0	-0.019252688
68	0x3e04f8e1	0.12985565
69	0x3d97a86c	0.07405171
70	0x3b4c689b	0.003119028
71	0xbdea8f15	-0.11453072
72	0x3dfbe7f7	0.12300103
73	0x3d7a0943	0.06104399
74	0x3ea3ede9	0.3201745
75	0xbe18dfe2	-0.14929155
76	0xbdc96bbb	-0.09835001
77	0x3db1fd92	0.08690943
78	0xb78a3113	-1.6473734e-05
79	0x3e8d3909	0.27582577
80	0xbd38ef8e	-0.045150332
81	0x3dd78961	0.1052425
82	0xbe60bbca	-0.21946636
83	0xbe451a26	-0.19248256
84	0xbd00ca74	-0.031443074
85	0x3ae0e403	0.0017157797
86	0x3e4978ad	0.1967494
87	0xbd20b41c	-0.039234266
88	0x3e332fa0	0.17498636
89	0x3d4ac323	0.049502503
90	0xbc8f8613	-0.017519986
91	0x3d561e6f	0.052275117
92	0xbe560838	-0.20901573
93	0x3e5e7447	0.21724044
94	0xbdbd4f71	-0.09243668
95	0xbe1fbd5d	-0.1559958
96	0x3d780af1	0.06055731
97	0x3d4af6bb	0.049551707
98	0x3dd716f3	0.10502424
99	0xbe049447	-0.12947188
100	0x3e85ffde	0.26171774
101	0x3da71cba	0.08159776
102	0xbe52ce72	-0.20586565
103	0xbc8a5738	-0.016887292
104	0xbda78101	-0.081789024
105	0xbdadfe96	-0.08495824
106	0xbebaac9c	-0.36459816
107	0xbe30c251	-0.17261626
108	0xbce8aa7b	-0.028401604
109	0x3e6710e0	0.22565031
110	0xbe606ed7	-0.21917282
111	0xbc272261	-0.010201068
112	0x3bc543af	0.0060200314
113	0x3c846f53	0.016166365
114	0x3d4fb15c	0.050706252
115	0x3e2f4712	0.17116955
116	0xbd33ff73	-0.043944787
117	0xbd396dcb	-0.045270722
118	0x3e2dfc14	0.16990691
119	0xbe24cc91	-0.16093661
120	0x3d7d9d1b	0.061917406
121	0xbdd2d261	-0.10294033
122	0xbdfb7a73	-0.12279215
123	0x3dbab3c8	0.09116322
124	0x3e574c41	0.21025182
125	0xbe583703	-0.21114735
126	0x3e36cee1	0.17852356
127	0x3d5fa873	0.054604005
128	0x3e660fb4	0.22466928
129	0x3e1901f1	0.14942147
130	0x3d9f3a3c	0.07774779
131	0x3d23dffa	0.040008523
132	0x3e4fb118	0.202824
133	0xbe09882c	-0.13430852
134	0xbe28d993	-0.16489248
135	0x3e3fe598	0.18739927
136	0x3cafa16f	0.021439282
137	0x3d8bc561	0.068247564
138	0xbe199d62	-0.15001443
139	0xbdcb597c	-0.09929177
140	0x3da85664	0.08219603
141	0xbe068bda	-0.13139287
142	0x3e1350a1	0.14386226
143	0xbd962a44	-0.0733228
144	0x3de90e1c	0.11379644
145	0xbd7b707c	-0.06138657
146	0xbdb13751	-0.08653129
147	0x3de36da4	0.11104897
148	0x3dfc1daa	0.123103455
149	0xbddf4209	-0.10901267
150	0xbe2d04c6	-0.16896352
151	0xbe3b623f	-0.18299197
152	0x3e06e3b3	0.13172798
153	0xbd6969ff	-0.05698585
154	0xbd9bf23f	-0.07614564
155	0xbd8fad01	-0.0701542
156	0x3da7958f	0.08182823
157	0x3e16c68c	0.14724177
158	0xbd2bf973	-0.04198594
159	0xbd9d6ad8	-0.076863945
160	0x3cc72e72	0.024314139
161	0x3e48e34f	0.19617961
162	0x3e45d4da	0.19319478
163	0x3c67041c	0.014100101
164	0xbdbfa7b7	-0.09358161
165	0x3d623f20	0.055235982
166	0xbd5db5a1	-0.054128293
167	0x3e62a2a7	0.2213236
168	0x3b18b8a8	0.0023303423
169	0xbd0cc0e3	-0.03436364
170	0xbe34de10	-0.17662835
171	0xbddc3d8c	-0.10753927
172	0xbd935146	-0.07193236
173	0x3e16ca96	0.14725718
174	0x3d1507ac	0.03638427
175	0x3e47fa89	0.19529165
176	0xbcaa92c7	-0.020821942
177	0x3d94da3d	0.07268188
178	0x3ddf48be	0.10902546
179	0xbe8c1ccb	-0.27365717
180	0x3e210946	0.15726194
181	0xbe27d8d3	-0.16391306
182	0x3e645bb1	0.22300602
183	0xbdff35bd	-0.12461422
184	0x3e71eafa	0.23624793
185	0xbde316d8	-0.110883415
186	0x3d75ef01	0.060042385
187	0x3d68a849	0.056801114
188	0x3e708bdd	0.23490854
189	0xbe1691a4	-0.14703995
190	0x39f519fd	0.00046749404
191	0x3d8bee37	0.06832545
192	0xbe331f50	-0.17492414
193	0xbdd545dc	-0.10413715
194	0xbcd05bd9	-0.025434421
195	0x3e3a64aa	0.18202463
196	0xbe1aa0ba	-0.15100375
197	0x3e0647bb	0.131133
198	0xbe4f85b8	-0.20265853
199	0xbe1f3c1d	-0.15550275
200	0x3e731760	0.23739386
201	0xbe3626a4	-0.17788178
202	0x3de2bfb7	0.11071723
203	0xbd4f9c65	-0.05068626
204	0x3dd9568f	0.10612213
205	0xbb555648	-0.0032552648
206	0x3e328961	0.17435218
207	0x3d0b6f8d	0.03404193
208	0xbe2b1ee5	-0.16711004
209	0xbcbbfc35	-0.02294741
210	0x3aaa2278	0.0012980243
211	0xbdb9a8cd	-0.09065399
212	0x3c33ddee	0.010978205
213	0x3d32a3d0	0.043613255
214	0xbbd025be	-0.0063521555
215	0x3e4dfccd	0.20115967
216	0x3c01cb95	0.007922073
217	0x3e42c371	0.19019867
218	0xbca8a686	-0.020587217
219	0x3db3287f	0.087479584
220	0x3e1cd981	0.15317346
221	0x3db474d3	0.08811345
222	0xbbd68659	-0.006546777
223	0xbe43634c	-0.19080848
224	0x3d82df87	0.06390291
225	0xbe79475e	-0.2434363
226	0xbe8b5754	-0.27215064
227	0x3d5f970f	0.05458742
228	0x3e6a4e22	0.22881368
229	0xbcc3f8b4	-0.023922302
230	0xbd1474d8	-0.036244243
231	0xbb72206c	-0.0036945594
232	0xbdd56848	-0.10420281
233	0x3cb72d98	0.022360608
234	0xbd1b53a7	-0.037921574
235	0x3e515e89	0.20446219
236	0xbea59666	-0.32341307
237	0xbe302901	-0.17203142
238	0x3c1b4964	0.009477947
239	0x3cbe8654	0.023257412
240	0xbe2b9a9b	-0.16758196
241	0xbdcbad42	-0.09945156
242	0x3e9e2fa5	0.30895725
243	0xbe2fa20a	-0.17151657
244	0xbdd1f84d	-0.10252438
245	0x3d176b75	0.036967713
246	0x3d84e6eb	0.064893566
247	0x3dd114bc	0.10209033
248	0xbe91c441	-0.28470042
249	0x3e26b5a3	0.16280226
250	0x3e1125ed	0.14174624
251	0xbd08e201	-0.03341866
252	0xbd071e49	-0.032987867
253	0x3e591374	0.21198827
254	0xbbeca2e2	-0.0072215656
255	0x3e8145b3	0.2524849

transformer_encoder.layers.0.self_attn.out_proj.bias f4 [20]
0	0xbca19f16	-0.019729178
1	0x3d44f39f	0.048083898
2	0x3d0ac720	0.033881307
3	0x3d19b0a6	0.03752198
4	0x3caae2a7	0.02086003
5	0x3cc8ec83	0.02452684
6	0xbca2d3ee	-0.019876447
7	0x3ce4c231	0.027924629
8	0xbc7239ca	-0.014784286
9	0xbc8e7b77	-0.017392857
10	0x3b7bb276	0.0038405932
11	0xbd333def	-0.043760236
12	0x3d18eca6	0.03733506
13	0xbdaf87d9	-0.08570833
14	0x3d160875	0.03662916
15	0xbcb373ff	-0.021905897
16	0xbad9f48d	-0.0016628668
17	0xbd1bc4e9	-0.038029585
18	0x3c66cd85	0.014087086
19	0xbcb2eb3c	-0.021840684

transformer_encoder.layers.0.linear1.weight f4 [20, 20]
0	0xbdc1e929	-0.094683
1	0x3e12c037	0.14331137
2	0x3d711401	0.058856968
3	0x3e46f993	0.19431143
4	0xbdb5e92a	-0.08882363
5	0xbcb84b61	-0.022496881
6	0xbe226b28	-0.1586119
7	0x3e3d4bb0	0.18485904
8	0xbd0eddc1	-0.03487945
9	0xbb0a7458	-0.0021126475
10	0xbdf110e7	-0.11770802
11	0x3d2d9971	0.04238266
12	0x3d8d17c5	0.06889299
13	0x3d3e63b6	0.04648181
14	0x3cefce36	0.029273134
15	0x3db2ece0	0.087365866
16	0x3e4857bd	0.1956472
17	0xbe185756	-0.14877066
18	0xbd684494	-0.056706026
19	0xbde9e3d7	-0.1142041
20	0xbe832697	-0.2561538
21	0x3e423808	0.18966687
22	0xbe633d8b	-0.22191446
23	0x3d3d31df	0.04619014
24	0x3d7299d6	0.05922874
25	0xbcca5428	-0.024698332
26	0x3d05cf21	0.032668237
27	0xbe34d152	-0.17657974
28	0x3e2b17bd	0.16708274
29	0xbd067968	-0.032830626
30	0xbd152573	-0.036412667
31	0x3dc3c7bc	0.09559581
32	0xbd6d80d0	-0.057984173
33	0xbe13e14f	-0.14441417
34	0x3e1c9911	0.15292765
35	0x3e47c4b4	0.1950863
36	0x3e0d2052	0.1378186
37	0xbd5c9206	-0.053850196
38	0xbdf65901	-0.12028695
39	0x3d975716	0.07389657
40	0x3e2f3200	0.17108917
41	0x3e5898fd	0.2115211
42	0x3e72760d	0.23677845
43	0x3e46f478	0.19429195
44	0xba84b5bb	-0.0010124961
45	0x3e3d1f94	0.18469077
46	0x3e614ae4	0.22001225
47	0xbd6efec1	-0.05834842
48	0xbda35cf8	-0.07976717
49	0x3d37d853	0.044884037
50	0xbe9d1940	-0.30683327
51	0x3c26f8c8	0.01019115
52	0x3bd7bc92	0.0065837586
53	0x3dcce3a5	0.10004357
54	0xbe3a797b	-0.18210404
55	0xbd4acd65	-0.049512286
56	0xbdb45baa	-0.08806546
57	0x3e4fd733	0.20296936
58	0x3d2fa8c2	0.04288555
59	0xbcbc1967	-0.022961332
60	0xbd84de54	-0.06487718
61	0xbe1d3235	-0.15351184
62	0x3d610a5d	0.054941524
63	0x3e804f58	0.25060534
64	0xbd1db2dc	-0.03850065
65	0xbc95ef3a	-0.018302549
66	0xbd90cc0f	-0.07070171
67	0x3e116dac	0.14201993
68	0xbe22fbe3	-0.159164
69	0xbd95e4aa	-0.07319005
70	0x3e0ac734	0.13552552
71	0xbe30847a	-0.17238036
72	0x3e1a1471	0.1504686
73	0x3d3134c8	0.043263227
74	0xbd71b7ec	-0.059013292
75	0x3de1e384	0.11029723
76	0xbdd393b8	-0.103309095
77	0xbe46783b	-0.19381802
78	0x3d00ce1d	0.031446565
79	0x3e3c0598	0.18361509
80	0x3d9f03b3	0.077643774
81	0xbe55e0b1	-0.20886494
82	0xbdb74f3d	-0.089506604
83	0xbea5803f	-0.32324407
84	0x3e04b2d9	0.1295885
85	0x3eb7db2e	0.35909408
86	0x3c534184	0.012894038
87	0xbe4af821	-0.19821216
88	0x3c145606	0.009053713
89	0xbe0763ae	-0.13221619
90	0x3cfe1a81	0.031018497
91	0xbdcfcc42	-0.10146381
92	0xbdfa77bc	-0.12229869
93	0x3e118180	0.14209557
94	0x3d965990	0.073413014
95	0xbe74c683	-0.23903851
96	0xbe34cac3	-0.17655472
97	0x3d0ef035	0.034897048
98	0x3db620f9	0.08893008
99	0xbd87cb17	-0.06630533
100	0xbcd115a8	-0.025523022
101	0xbef05388	-0.4693873
102	0xbb9283aa	-0.004471262
103	0xbd9fe65c	-0.078076094
104	0x3dd619f6	0.104541704
105	0xbe9ebea2	-0.31004816
106	0x3cd306bd	0.025760049
107	0xbda8f498	-0.082497776
108	0xbde39d59	-0.11113996
109	0xbd481585	-0.048848648
110	0xbd025f07	-0.031828906
111	0xbd323bc4	-0.04351403
112	0xbad87011	-0.001651289
113	0x3c27d0b7	0.010242633
114	0x3e3e8e1b	0.18608896
115	0x3ea62894	0.32452834
116	0xbd7b3e66	-0.061338805
117	0x3d9df66c	0.07713017
118	0x3e6dcc4c	0.23222464
119	0x3dffe2dc	0.12494442
120	0xbca18460	-0.019716442
121	0x3df7bf7d	0.1209707
122	0xbdd69099	-0.104767986
123	0xbe518465	-0.20460661
124	0x3e176b81	0.14787103
125	0x3eb733a8	0.35781598
126	0xbdc3ce34	-0.095608145
127	0xbe6a586e	-0.22885296
128	0xbd84a861	-0.06477428
129	0x3e1553a5	0.14582689
130	0xbe14d1b0	-0.14533114
131	0xbe72f26e	-0.23725292
132	0xbe587fb5	-0.21142466
133	0xbe04a7e4	-0.1295467
134	0x3d686b91	0.05674321
135	0xbd6ffb9f	-0.058589574
136	0xbd0c6ed4	-0.03428538
137	0x3d80a3c8	0.06281239
138	0x3cc560d3	0.024094021
139	0xbe7540ff	-0.23950575
140	0x3e5ad2b1	0.21369435
141	0x3e2a99e6	0.1666027
142	0xbd8567db	-0.065139495
143	0xbcd07f47	-0.025451316
144	0xbdbab46c	-0.09116444
145	0x3e62df46	0.22155485
146	0xbe6d66f1	-0.231838
147	0x3dabe475	0.08393184
148	0xbd8a86a2	-0.067639604
149	0xbe638790	-0.22219682
150	0xbe3612f1	-0.17780663
151	0xbe37b190	-0.17938828
152	0x3de366fa	0.111036256
153	0xbe6cd1b4	-0.2312687
154	0x3e06228a	0.13099113
155	0xbe35d7b2	-0.17758062
156	0x3d03c907	0.032174136
157	0xbe791542	-0.24324515
158	0xbe2dae37	-0.16960989
159	0xbdc03c66	-0.0938652
160	0xbe1d4ed2	-0.15362099
161	0x3e42e265	0.19031675
162	0x3e3e237e	0.18568227
163	0xbe029e5a	-0.12755719
164	0x3d953ddd	0.0728719
165	0x3a2c1f53	0.0006565947
166	0x3d938c28	0.07204467
167	0x3e8b09ca	0.27155906
168	0xbe04f937	-0.12985693
169	0xbdff7abc	-0.124745816
170	0x3e10d550	0.14143872
171	0x3e7e9ed7	0.2486528
172	0xbd879e2a	-0.06621964
173	0x3dddc487	0.108285
174	0xbd62274b	-0.055213254
175	0xbe6cef54	-0.23138171
176	0x3e113129	0.1417891
177	0xbd92b936	-0.071642324
178	0x3dd165f5	0.10224525
179	0x3df2e981	0.118609436
180	0x3c605b20	0.013693601
181	0xbe8c8f1f	-0.27452943
182	0xbc8525e3	-0.016253417
183	0x3e7781f4	0.24170667
184	0x3e774b3f	0.24149798
185	0x3d9a750f	0.075418584
186	0xbdaee1a1	-0.08539129
187	0x3df8780a	0.12132271
188	0x3d2d1cba	0.042263724
189	0xbd8e925d	-0.0696151
190	0x3dffb79c	0.124861926
191	0x3e15a891	0.14615084
192	0x3e13e0b7	0.1444119
193	0xbe214c7c	-0.15751833
194	0xbdc6f905	-0.097154655
195	0xbc2fe2f6	-0.010735264
196	0xbe17965d	-0.14803453
197	0x3e33c6ed	0.17556353
198	0xbdaa7394	-0.08322826
199	0xbcdb21aa	-0.02674945
200	0xbb46e564	-0.003034913
201	0x3e35dce0	0.17760038
202	0xbd811226	-0.0630229
203	0x3e47a6ef	0.19497274
204	0x3e46b0d3	0.1940339
205	0xbd21fa6d	-0.039545465
206	0xbc044df8	-0.00807523
207	0xbcb4d782	-0.022075418
208	0x3e6d34e6	0.2316471
209	0xbe35e3f7	-0.17762743
210	0xbe394c4f	-0.18095516
211	0xbe3f0462	-0.18654016
212	0x3dc2d1cd	0.095126726
213	0x3dc8f5b9	0.09812493
214	0xbcc13146	-0.023583066
215	0x3e028ccb	0.12749021
216	0xbe078e56	-0.1323789
217	0xbe426fb0	-0.18987918
218	0x3d976ab2	0.073933974
219	0xbe2aa261	-0.16663505
220	0x3da494e7	0.08036213
221	0xbe84d66f	-0.2594485
222	0x3d70ab86	0.058757327
223	0xbe3e062f	-0.18557046
224	0xbc800ac4	-0.015630133
225	0xbe72f913	-0.23727827
226	0x3dff1a46	0.12456183
227	0xbe185825	-0.14877374
228	0xbdd43b5e	-0.10362886
229	0x3de411f7	0.11136239
230	0xbcbe7938	-0.023251161
231	0xbd38b8b8	-0.045098037
232	0xbe3b0edf	-0.18267392
233	0x3be36da3	0.00694056
234	0x3e2da98a	0.16959205
235	0x3e238ff0	0.15972877
236	0xbe3348cb	-0.17508237
237	0xbe2f4520	-0.17116213
238	0x3e0683b5	0.1313618
239	0x3dcd9e3f	0.10039949
240	0x3d5beefe	0.053694718
241	0x3e4c4f5d	0.1995215
242	0xbcbb6f1c	-0.02288013
243	0x3e34fc65	0.17674406
244	0x3d7bd6d1	0.06148416
245	0xbd08548a	-0.033283748
246	0x3e310678	0.17287624
247	0x3e45e49e	0.19325492
248	0x3e1bb80f	0.15206932
249	0x3dd25198	0.10269469
250	0x3c6f8b2c	0.0146205835
251	0xbe2f7eb8	-0.17138183
252	0xbe2b4308	-0.16724789
253	0x3dbf3f3d	0.093382336
254	0xbdd2c5d5	-0.1029164
255	0xbde7ea57	-0.11323994

transformer_encoder.layers.0.linear1.bias f4 [20]
0	0xbda7223c	-0.081608266
1	0x3dd38b4d	0.10329304
2	0xbe3a0e00	-0.18169403
3	0xbd7df228	-0.061998516
4	0x3e2a9271	0.16657425
5	0x3ae0858b	0.0017129643
6	0xbe674d37	-0.22588049
7	0xbe6e0191	-0.23242785
8	0x3ccee2c2	0.02525461
9	0x3d9c52f2	0.07633008
10	0x3de1af30	0.110197425
11	0xbc94c42b	-0.018159946
12	0x3d601ce9	0.05471507
13	0xbd478523	-0.048710953
14	0xbdf2632e	-0.11835323
15	0xbdbdea2e	-0.09273182
16	0xbe4213f4	-0.18952924
17	0xbe1f9850	-0.15585446
18	0xbe12faa1	-0.1435342
19	0xbe57627d	-0.21033664

transformer_encoder.layers.0.linear2.weight f4 [20, 20]
0	0x3d074110	0.033021033
1	0xbe5ca365	-0.21546705
2	0xbdcc47c9	-0.099746294
3	0x3e5e7df3	0.21727733
4	0xbe4d36da	-0.20040455
5	0x3edcbcd2	0.43112808
6	0x3d92cdd9	0.071681686
7	0x3e2f8d68	0.17143786
8	0xbe1d7492	-0.153765
9	0x3e8235fd	0.25431815
10	0x3dcb5c2b	0.09929689
11	0x3ea42a67	0.320636
12	0xbdeded58	-0.11617535
13	0x3c6000bd	0.013672051
14	0x3e47b7c5	0.19503696
15	0x3e4b2798	0.19839323
16	0x3e8df963	0.2772933
17	0xbdc0005d	-0.09375069
18	0xbd47b34e	-0.048754983
19	0x3dd6bd1d	0.10485289
20	0x3e0c77d3	0.13717584
21	0x3d68ca8c	0.05683379
22	0xbd2e0361	-0.04248369
23	0x3d42d841	0.047569517
24	0xbd142ebb	-0.03617738
25	0x3e84f100	0.25965118
26	0x3df4c833	0.119522475
27	0xbe21c1ef	-0.15796636
28	0x3dff2ef5	0.12460128
29	0x3c085239	0.008320385
30	0xbddb1f5f	-0.10699343
31	0xbcca4610	-0.024691612
32	0x3e08db16	0.13364825
33	0xbd50f68d	-0.05101638
34	0x3de44d35	0.111475386
35	0xbdd1139e	-0.1020882
36	0x3bece2a8	0.007229168
37	0xbb2747a2	-0.0025524874
38	0x3bd61351	0.0065330644
39	0xbc10f8c6	-0.008848375
40	0x3d4581fb	0.048219662
41	0xbd50b5db	-0.05095468
42	0x3e4e1c16	0.20127901
43	0xbdf1acaf	-0.11800515
44	0xbe0451aa	-0.12921777
45	0x3e82af66	0.25524443
46	0xbdfd2403	-0.12360384
47	0x3e887416	0.26651067
48	0x3e34a6f4	0.17641813
49	0x3e24178d	0.16024609
50	0x3c40d1e6	0.011768794
51	0xbcefd142	-0.029274587
52	0x3a810fa0	0.0009846576
53	0xbd49d6e8	-0.049277216
54	0x3db760cb	0.08954009
55	0xbe28ba57	-0.16477333
56	0xbd9f5a8e	-0.07780944
57	0x3d17078f	0.036872443
58	0x3d29c2b5	0.041445453
59	0x3d53cbda	0.05170808
60	0x3e1cbb2f	0.1530578
61	0xbc01a67c	-0.007913228
62	0xbb5e9ec4	-0.0033969143
63	0xbdba0d11	-0.090845235
64	0x3cea284e	0.028583672
65	0x3d1822a7	0.037142422
66	0x3df5adc3	0.11996033
67	0x3e15c5b1	0.14626195
68	0x3b9097a7	0.0044126096
69	0xbe17bd91	-0.14818408
70	0x3d271d3b	0.04079936
71	0xbc86ca0b	-0.016453763
72	0x3d44afce	0.048019223
73	0xb98f5e38	-0.00027345284
74	0x3e16681d	0.14688154
75	0x3e203e86	0.15648851
76	0xbdcb80b0	-0.099366546
77	0x3c4e54bd	0.012593445
78	0x3d4f42cc	0.05060081
79	0xbdd68a4a	-0.10475595
80	0xbd4c313f	-0.049851652
81	0x3a46bc5d	0.0007581169
82	0xbe2c4eb0	-0.16826892
83	0x3d6b823b	0.057497244
84	0x3dafab21	0.08577562
85	0x3e39fe28	0.18163359
86	0x3db1f2fc	0.08688924
87	0x3dca04a3	0.09864166
88	0x3e2b0901	0.16702653
89	0x3df1d13b	0.11807486
90	0xbe03059e	-0.12795112
91	0xbdd19e1a	-0.102352336
92	0x3dd8d1b5	0.105868734
93	0x3e4f766c	0.20260018
94	0xbdc676e8	-0.09690648
95	0x3e869629	0.26286438
96	0x3de0d3a1	0.10977865
97	0xbe4d3387	-0.20039187
98	0x3d5f9cc1	0.05459285
99	0x3d630dab	0.055432957
100	0x3e485cf5	0.1956671
101	0x3d8e4b7b	0.069479905
102	0xbe0a6add	-0.13517328
103	0xbd14a226	-0.03628745
104	0x3d268bee	0.04066079
105	0x3e3db199	0.1852478
106	0xbe44a2b0	-0.19202685
107	0xbdf1633d	-0.11786506
108	0xbd96d8a7	-0.07365542
109	0xbc8b5484	-0.017008074
110	0x3c252715	0.010080119
111	0x3ca9d07b	0.020729294
112	0x3dc68620	0.09693551
113	0xbdb9b5c0	-0.09067869
114	0xbe2f442e	-0.17115852
115	0xbe4746d1	-0.19460608
116	0x3d5e3813	0.054252695
117	0x3d488cf0	0.048962533
118	0xbd3a7317	-0.045519914
119	0x3e17fd46	0.1484271
120	0xbe094d50	-0.13408399
121	0x3db64a97	0.08900946
122	0xbdeec60d	-0.11658869
123	0x3e331299	0.17487563
124	0xbcb43155	-0.02199618
125	0x3dd62198	0.10455626
126	0xbd8a7759	-0.06761045
127	0x3b26d68b	0.0025457467
128	0xbea8752b	-0.32901892
129	0x3e0f4ab7	0.13993345
130	0x3cff44f2	0.031160805
131	0xbdec4da3	-0.115382455
132	0x3dc17a7c	0.0944719
133	0xbe55d1c4	-0.208808
134	0x3d261081	0.040543083
135	0x3e88a5c9	0.26688984
136	0x3de53ff7	0.11193841
137	0x3cdcd1ed	0.02695557
138	0x3c6ec2e8	0.014572836
139	0x3c7b93a0	0.015355021
140	0x3e25bb99	0.16184844
141	0x3e33077e	0.17483327
142	0x3deaeeca	0.11471327
143	0xbe21f1b5	-0.1581486
144	0x3e4e1fa7	0.20129262
145	0xbe3a506b	-0.1819474
146	0x3e595a19	0.21225776
147	0x3be75d21	0.0070606624
148	0x3e53674d	0.20644875
149	0x3cb6d80b	0.022319814
150	0x3e20e0db	0.15710776
151	0x3cd09be6	0.025464963
152	0x3d5578ee	0.05211728
153	0x3dd97ec0	0.10619879
154	0x3e157480	0.14595222
155	0xbe363626	-0.17794093
156	0xbdb9e3f9	-0.090766855
157	0x3da31f54	0.0796496
158	0x3dbdc98a	0.09266956
159	0x3dd4511f	0.10367035
160	0x3d72ed1e	0.059308164
161	0x3de55196	0.11197202
162	0xbe31028f	-0.17286132
163	0x3e4e7b68	0.20164263
164	0xbda03ee0	-0.078244925
165	0x3dd8b513	0.10581412
166	0xbe94e3e0	-0.29080105
167	0x3d83ed77	0.06441777
168	0xbc33c680	-0.010972619
169	0x3e3a277e	0.18179128
170	0xbe0fef47	-0.14056121
171	0xbe2990cb	-0.1655914
172	0x3de0a94e	0.10969792
173	0xbdbee745	-0.09321455
174	0x3cd9d3dc	0.02659028
175	0xbe10d44f	-0.1414349
176	0x3e7c6db1	0.24651219
177	0x3e32d26c	0.17463082
178	0x3de88a30	0.11354482
179	0x3d1c5cb3	0.038174342
180	0x3df68648	0.12037331
181	0x3e35f133	0.17767791
182	0x3e03238a	0.12806526
183	0x3be20a4d	0.0068982006
184	0xbe3e168b	-0.18563287
185	0xbe8ed9c9	-0.27900532
186	0xbd7c2d1e	-0.061566465
187	0xbdbc33ea	-0.09189589
188	0xbd84329b	-0.06454965
189	0xbd8f352c	-0.069925636
190	0xbd6cbbf2	-0.057796426
191	0xbcf54dd8	-0.029944345
192	0x3e2649ec	0.16239136
193	0xbd7b8e53	-0.061415028
194	0xbd8f1dac	-0.06988081
195	0xbd483e3c	-0.048887476
196	0x3d7719f3	0.06032748
197	0xbdbfa9c6	-0.093585536
198	0x3e02675c	0.12734741
199	0xbe7a3ff8	-0.24438465
200	0xbe03e428	-0.12880003
201	0xbe78b0b6	-0.2428616
202	0x3dc2d85a	0.09513922
203	0x3e241a56	0.16025671
204	0x3e82d706	0.25554675
205	0xbe163ea8	-0.14672339
206	0x3e59d39d	0.2127213
207	0x3e606a4f	0.21915554
208	0xbdc36d9c	-0.09542391
209	0x3d9d9859	0.07695074
210	0x3e4f2574	0.20229131
211	0xbda81cce	-0.08208619
212	0x3a8b938b	0.001064883
213	0xbd42a5c1	-0.047521356
214	0xbe1f22a4	-0.15540558
215	0xbc4ee459	-0.0126276845
216	0xbe8c6733	-0.27422485
217	0x3dfe59a2	0.1241944
218	0xbd860aa6	-0.06545
219	0xbe8b22fe	-0.27175134
220	0x3e4711e4	0.19440418
221	0x3e1dbae8	0.1540333
222	0x3b5bb4cb	0.003352451
223	0xbe5240ae	-0.20532486
224	0x3e260d36	0.16215977
225	0xbb132ca9	-0.002245704
226	0x3e7f122d	0.24909277
227	0xbdd37055	-0.1032416
228	0x3e130ff6	0.14361557
229	0x3db7950c	0.08963975
230	0x3d9d8a85	0.07692436
231	0xbeb4e09e	-0.3532762
232	0xbe94aa37	-0.29036114
233	0x3d45c59c	0.048284158
234	0x3c180082	0.009277465
235	0x3dfe2cb8	0.12410873
236	0x3da2946d	0.07938466
237	0xbe09916c	-0.1343438
238	0x3d08d2b2	0.03340406
239	0xbe0fc982	-0.14041713
240	0xbd27f43e	-0.041004412
241	0xbe35582d	-0.17709418
242	0x3df011ea	0.11722167
243	0xbe232702	-0.15932849
244	0x3cf9ac43	0.030477649
245	0xbe284e2b	-0.16436069
246	0xbdd592b7	-0.10428374
247	0xbd763d19	-0.06011686
248	0xbe0fd792	-0.14047077
249	0xbe720269	-0.23633732
250	0xbe217c56	-0.15770087
251	0xbe5b64f1	-0.21425225
252	0x3e3ca059	0.18420543
253	0x3e0dfefa	0.13866797
254	0x3cf391f2	0.029732678
255	0x3e2cf46c	0.16890115

transformer_encoder.layers.0.linear2.bias f4 [20]
0	0x3de4d238	0.111729085
1	0x3c3f6861	0.011682601
2	0x3e55e891	0.20889498
3	0x3b92f915	0.0044852593
4	0x3e0ce6ff	0.13759993
5	0x3cfa4126	0.030548643
6	0xbcda5db3	-0.026656007
7	0xbe05300b	-0.13006608
8	0x3aec3864	0.0018022177
9	0xbd3b5e6c	-0.045744345
10	0x3e517a08	0.20456707
11	0xbd1427fd	-0.03617095
12	0x3d4889c6	0.048959516
13	0x3d8bcc6a	0.06826098
14	0xbc05cc24	-0.008166347
15	0xbd640412	-0.055667944
16	0x3e1cd967	0.15317307
17	0xbd5cc3fc	-0.053897843
18	0x3e40d65d	0.18831773
19	0xbde5cc13	-0.11220565

transformer_encoder.layers.0.norm1.weight f4 [20]
0	0x3fad23aa	1.3526509
1	0x3f9c4b81	1.2210542
2	0x3f8bb1c3	1.0913624
3	0x3f965328	1.1744127
4	0x3f80861a	1.0040925
5	0x3f9a4f3b	1.2055429
6	0x3f8922b4	1.0713716
7	0x3f6d995e	0.92812145
8	0x3f82ce4e	1.0219209
9	0x3f7d3832	0.9891387
10	0x3f7eb5b4	0.99496007
11	0x3f85ead0	1.0462284
12	0x3f655202	0.8957826
13	0x3f6df58d	0.92952806
14	0x3f7ae902	0.9801179
15	0x3f486158	0.78273535
16	0x3f71c389	0.9443899
17	0x3f88a00c	1.0673842
18	0x3f7b0bfa	0.9806515
19	0x3f7cc833	0.9874298

transformer_encoder.layers.0.norm1.bias f4 [20]
0	0xbce501d9	-0.027954983
1	0x3d66020f	0.056154307
2	0x3d3504ec	0.044194147
3	0x3c83ceba	0.016089786
4	0x3cc6d4f4	0.024271466
5	0x3d2b62b4	0.041842178
6	0xbd83e5fe	-0.06440352
7	0x3d62861e	0.055303685
8	0x3c2191ae	0.009861393
9	0xbd668a25	-0.05628409
10	0x3d29c96c	0.041451856
11	0xbd0ea96a	-0.034829535
12	0x3d80cc70	0.06288993
13	0xbd3a7d74	-0.045529798
14	0x3d4fa355	0.050692875
15	0xbd3234d2	-0.043507405
16	0x3c940316	0.018067878
17	0xbd6fbdba	-0.058530547
18	0x3d441b32	0.047877498
19	0xbd53116c	-0.051530287

transformer_encoder.layers.0.norm2.weight f4 [20]
0	0x3fb4d909	1.4128734
1	0x3f699cca	0.91254866
2	0x3f91a466	1.1378295
3	0x3f818b73	1.0120682
4	0x3f896fa4	1.0737195
5	0x3f7fe9f2	0.9996635
6	0x3f916319	1.1358367
7	0x3f70d046	0.940678
8	0x3f8a10c8	1.0786371
9	0x3f8830e6	1.0639923
10	0x3f76b70c	0.9637306
11	0x3f8c0dae	1.0941675
12	0x3f64c0d1	0.89356714
13	0x3f78958a	0.9710318
14	0x3f7bc2cb	0.98344105
15	0x3f50aa92	0.8151027
16	0x3f750fa8	0.95727015
17	0x3f8f7e9a	1.1210511
18	0x3f80905c	1.0044055
19	0x3f89ff4e	1.0781038

transformer_encoder.layers.0.norm2.bias f4 [20]
0	0x3c3d84a5	0.011567269
1	0x3d8c5b20	0.06853318
2	0x3d997f39	0.07494969
3	0x3da257e1	0.07926918
4	0x3b23ea97	0.0025011653
5	0xbb860472	-0.0040898854
6	0xbd66d02b	-0.05635087
7	0x3db5cca9	0.088769265
8	0x3c25dcc1	0.010123433
9	0xbd73391e	-0.059380643
10	0x3d113eec	0.035460398
11	0xbce3fe58	-0.027831241
12	0x3d011606	0.031515144
13	0xbb645d80	-0.003484577
14	0x3da69ed8	0.08135766
15	0x3cc4501e	0.023963984
16	0xbcac16dd	-0.021006996
17	0xbd744282	-0.05963374
18	0x3d46e4a4	0.048557892
19	0xbd2ba5e2	-0.041906245

transformer_encoder.layers.1.self_attn.in_proj_weight f4 [60, 20]
0	0xbe0d5534	-0.13802034
1	0xbe8a7ebe	-0.27049822
2	0x3e5ad5bb	0.21370594
3	0x3d56367e	0.05229806
4	0x3e3488dc	0.17630333
5	0x3d788ee8	0.06068316
6	0xbe239543	-0.15974908
7	0x3dea5a3a	0.114429906
8	0x3d0e9a65	0.03481521
9	0x3d4e6928	0.050393254
10	0xbe49996d	-0.19687434
11	0x3e7c6594	0.24648124
12	0xbe8f986f	-0.28045985
13	0x3e37a984	0.17935759
14	0x3e81a190	0.25318575
15	0x3e8b1685	0.2716562
16	0x3da8bcbf	0.082391255
17	0xbdd4ba69	-0.103871174
18	0xbbdb7b4a	-0.006698047
19	0x3c7f56c8	0.015584655
20	0x3e678f79	0.22613324
21	0xbc8d56ff	-0.017253397
22	0xbe7e968f	-0.24862121
23	0x3dc78f6b	0.09744152
24	0x3d9db66f	0.07700812
25	0x3ddebc7a	0.10875793
26	0x3e27c90d	0.16385289
27	0xbd8c4d09	-0.06850631
28	0x3e56ba39	0.20969476
29	0xbd108e7c	-0.035292134
30	0xbb6ed909	-0.003644528
31	0xbd91ec56	-0.07125156
32	0x3dcb9712	0.09940924
33	0xbd970dfe	-0.07375716
34	0x3e629993	0.22128896
35	0x3e20750e	0.15669653
36	0x3e861302	0.26186377
37	0x3c9c41c8	0.019074336
38	0x3d2d172f	0.042258438
39	0xbe13ed28	-0.14445937
40	0x3e5da919	0.21646537
41	0xbe7e17a6	-0.24813709
42	0x3cc0d521	0.023539128
43	0xbd8c99bb	-0.06865259
44	0x3e768109	0.2407266
45	0xbe6b04dc	-0.22951072
46	0x3e2b02e4	0.16700321
47	0xbe84e34d	-0.25954667
48	0x3cb787db	0.022403648
49	0xbdddac7d	-0.10823915
50	0xbd3bf45c	-0.045887336
51	0xbd433803	-0.04766084
52	0x3d03d39e	0.032184236
53	0xbe466337	-0.19373785
54	0x3dc93051	0.09823669
55	0xbe287289	-0.16449942
56	0xbd73c679	-0.05951545
57	0xbe9c93f5	-0.30581632
58	0xbdad76c6	-0.0846992
59	0x3cc82c3a	0.024435151
60	0x3d5437df	0.051811095
61	0x3d57aea0	0.05265677
62	0xbe2b0906	-0.16702661
63	0x3d8c9c27	0.06865721
64	0x3e7e26c4	0.24819475
65	0x3e30844f	0.17237972
66	0xbdbaa13b	-0.091127835
67	0x3e1104d7	0.14162003
68	0x3c7afc9d	0.015319017
69	0x3c25a88b	0.010110985
70	0x3d6405f9	0.05566976
71	0x3df9c9f0	0.1219672
72	0xbe6b1723	-0.22958045
73	0xbdaf4cfd	-0.08559606
74	0x3c896596	0.016772073
75	0x3e2d5232	0.16925886
76	0xbe4c10fe	-0.19928357
77	0xbde5f2cb	-0.1122795
78	0xbc3be7c9	-0.011468836
79	0x3db0c1f3	0.08630743
80	0xbe899745	-0.26873222
81	0x3e191e57	0.1495298
82	0xbe35ac08	-0.17741406
83	0x3e6cbde1	0.23119308
84	0xbd754bf1	-0.059886876
85	0xbd47f9dc	-0.04882227
86	0x3bc38ea3	0.0059679314
87	0xba5a2f86	-0.00083231216
88	0x3e664e84	0.22490889
89	0x3e22f124	0.159123
90	0xbe6b6948	-0.2298938
91	0x3e22c8c5	0.158969
92	0x3e36d957	0.17856346
93	0xbd9801ba	-0.07422204
94	0xbe4c779d	-0.19967504
95	0xbdb016ac	-0.08598074
96	0xbd62cdc3	-0.05537201
97	0x3d46b62b	0.048513573
98	0x3cdecdba	0.027197707
99	0x3e620c9e	0.22075126
100	0xbd820d4d	-0.06350193
101	0xbd4a9466	-0.04945793
102	0x3e50bc44	0.20384318
103	0xbe7db6b5	-0.24776728
104	0x3dc6c9b5	0.09706441
105	0x3d249cfc	0.040188774
106	0x3cad3856	0.021145027
107	0x3e4a786e	0.19772503
108	0xbe39aeec	-0.18133134
109	0xbe202da7	-0.15642415
110	0x3dcd6034	0.10028115
111	0x3e511235	0.20417102
112	0xbd2fe003	-0.042938244
113	0xbd493886	-0.04912617
114	0xbe76e6b5	-0.24111445
115	0x3e147a83	0.1449986
116	0xbe136900	-0.14395523
117	0xbe5c72ac	-0.21528119
118	0xbd8c6649	-0.06855447
119	0xbd44a7b9	-0.048011515
120	0xbd9462d5	-0.07245413
121	0x3ddda691	0.10822786
122	0x3decb294	0.115574986
123	0x3d3c8158	0.04602179
124	0xbe2cca76	-0.16874108
125	0xbdffbfc7	-0.124877505
126	0xbd3bd0cf	-0.045853432
127	0xbe04dbd1	-0.12974478
128	0xbe348f51	-0.17632796
129	0x3e0caae9	0.13737072
130	0xbdef58a3	-0.11686828
131	0x3dad4450	0.08460295
132	0xbd8490fc	-0.06472966
133	0x3e045afe	0.12925336
134	0xbe2f5ebe	-0.17125985
135	0x3e477f5b	0.19482176
136	0x3e2ecf0d	0.17071171
137	0xbe0341df	-0.12818097
138	0xbb926964	-0.00446813
139	0xbe03ca08	-0.12870038
140	0x3d8614b3	0.06546917
141	0xbe4e60c8	-0.20154107
142	0x3d18cd07	0.037304904
143	0x3dac2f15	0.08407418
144	0x3ea45c57	0.321017
145	0xbce8edc0	-0.02843368
146	0xbe80fcfb	-0.2519301
147	0xbd0a7919	-0.033806894
148	0xbe27408e	-0.1633322
149	0xbe052e22	-0.1300588
150	0x3d7c02c4	0.061526075
151	0xbe5c5849	-0.21518053
152	0x3e249bd0	0.16075063
153	0x3cfeb04b	0.031089922
154	0xbe395365	-0.18098219
155	0xbe2c505b	-0.16827528
156	0x3dc4c47b	0.09607788
157	0xbcf6c672	-0.030123923
158	0xbd89de7e	-0.0673189
159	0xbdff2d4b	-0.12459811
160	0x3e2f3500	0.17110062
161	0xbd814579	-0.06312079
162	0xbd5bdd84	-0.05367805
163	0x3e31e9b6	0.1737431
164	0x3dfddb46	0.12395339
165	0xbdc23f92	-0.09484781
166	0xbe7b8f95	-0.24566491
167	0x3e3f7f18	0.18700826
168	0xbb6a0f9d	-0.0035714873
169	0x3e20509a	0.15655747
170	0xbd2ef7c4	-0.042716756
171	0x3d24a952	0.04020054
172	0x3e5f75db	0.21822302
173	0xbe0d4757	-0.13796745
174	0x3de3a30e	0.111150846
175	0x3e243cc0	0.160388
176	0x3e0fddf5	0.14049514
177	0xbe5a8167	-0.21338426
178	0x3e821bcd	0.25411835
179	0x3e16783e	0.14694306
180	0xbe1a81f9	-0.15088643
181	0xbd856077	-0.0651254
182	0x3dfbe6e7	0.122999005
183	0x3dfbf875	0.12303249
184	0x3e490134	0.19629365
185	0xbe4e336b	-0.20136802
186	0xbdcc0026	-0.09960966
187	0x3e1da2ff	0.1539421
188	0xbdd01e13	-0.10161986
189	0xbe0bee25	-0.13665064
190	0xbe18f16e	-0.14935848
191	0xbdd85a45	-0.105640925
192	0x3e3a5187	0.18195163
193	0xbceda9e3	-0.029011672
194	0x3cb8f108	0.02257587
195	0x3b9ff18b	0.004881089
196	0xbe36efae	-0.17864868
197	0xbd8b33e2	-0.06797005
198	0xbd9c0791	-0.07618631
199	0x3cc117cc	0.023570918
200	0xbe0fd21d	-0.14044996
201	0xbe695aff	-0.22788619
202	0xbbaf87bb	-0.0053567565
203	0xbe14fa91	-0.14548708
204	0x3cb52dee	0.022116628
205	0x3dbb90f2	0.091585055
206	0x3d82b7e8	0.063827336
207	0xbe2b48fa	-0.16727057
208	0x3e3affe3	0.18261676
209	0x3e2edcef	0.17076467
210	0x3dd162d2	0.102239266
211	0xbc263ea3	-0.01014677
212	0xbc443fef	-0.011978134
213	0x3ca95077	0.020668251
214	0xbd930dba	-0.071803525
215	0xbb41a2bc	-0.002954646
216	0x3cd42b29	0.025899487
217	0x3e8037d4	0.25042593
218	0x3de511d3	0.1118504
219	0x3de58e14	0.1120874
220	0xbcf15107	-0.029457582
221	0xbe74e76f	-0.2391641
222	0xbe8900ea	-0.2675851
223	0xbe5ca3f8	-0.21546924
224	0x3e3df43d	0.18550201
225	0xbdba00c3	-0.090821765
226	0xbda44410	-0.080207944
227	0x3d26bdf2	0.04070849
228	0x3c367fa4	0.01113883
229	0x3e514b6e	0.2043893
230	0xbe045e03	-0.12926488
231	0x3cc7d320	0.024392664
232	0xbe200543	-0.15627007
233	0xbd7f1f78	-0.06228587
234	0xbe347430	-0.17622447
235	0x3e0e74ae	0.13911697
236	0x3da2a617	0.079418354
237	0x3d0c2fdf	0.03422534
238	0x3b67be71	0.0035361315
239	0xbe8c684a	-0.27423316
240	0x3e9b2f57	0.30309555
241	0x3df0523a	0.117344335
242	0x3e702529	0.23451675
243	0xbe857d88	-0.26072335
244	0xbe3b458a	-0.18288246
245	0xbdee3cb8	-0.11632675
246	0xbe816f68	-0.2528031
247	0x3da90060	0.08252025
248	0xbd90b167	-0.07065087
249	0xbe33dfa3	-0.1756578
250	0x3e0ce9b7	0.1376103
251	0x3c401d3f	0.011725723
252	0x3e8adb0b	0.27120242
253	0x3e5e2845	0.21695049
254	0x3e8a6d32	0.27036434
255	0xbd041c0e	-0.032253318

transformer_encoder.layers.1.self_attn.in_proj_bias f4 [60]
0	0x3c54b2de	0.012982098
1	0x3c112ea1	0.008861215
2	0x3cf4e678	0.029895052
3	0xbc8f4206	-0.017487537
4	0xbc973636	-0.018458467
5	0x3d5d5914	0.05404003
6	0xbb071307	-0.0020610706
7	0x3c9d85e5	0.019228885
8	0x3d10d567	0.035359766
9	0xba9aec6b	-0.0011819726
10	0xbc34f8f0	-0.011045679
11	0xbd139aac	-0.03603618
12	0x3bb52967	0.005528617
13	0xbb1b73f1	-0.002372023
14	0x3afac0a2	0.0019130895
15	0xbb0c464c	-0.0021404205
16	0xbc1f7e4b	-0.0097347
17	0xbd8df6a3	-0.06931808
18	0xbb81d67f	-0.0039623375
19	0x3d4652be	0.048418753
20	0xb0806618	-9.342243e-10
21	0xb0d09d09	-1.5178624e-09
22	0x30991a49	1.1139686e-09
23	0xb0b8f50d	-1.345741e-09
24	0xb0d42061	-1.5434233e-09
25	0x3164e2dd	3.3307324e-09
26	0x30462fff	7.2100187e-10
27	0x31f02461	6.989055e-09
28	0xae528bf7	-4.7872786e-11
29	0x2f817181	2.3545613e-10
30	0xb0f2293f	-1.761954e-09
31	0xb168221e	-3.3779837e-09
32	0x3030176d	6.4061717e-10
33	0xb00cff3b	-5.129441e-10
34	0xb185696d	-3.882795e-09
35	0xb12de6be	-2.5305975e-09
36	0x3119826d	2.2338569e-09
37	0xb1611788	-3.2755185e-09
38	0xb04ba3d8	-7.4083806e-10
39	0xb0ef0382	-1.7390536e-09
40	0x37adbead	2.0711997e-05
41	0xbd535949	-0.05159882
42	0x3cc63a17	0.024197621
43	0xbc367618	-0.011136554
44	0x3d8b75b1	0.06809557
45	0xbc32c704	-0.010911707
46	0x3c09cbe5	0.008410429
47	0x3cde5540	0.02714026
48	0x3d5caa03	0.053873073
49	0xbc3119c3	-0.010809365
50	0x3c76e16b	0.015068392
51	0x3c0e7654	0.008695204
52	0xbc9f097a	-0.019413698
53	0xbcb55562	-0.02213544
54	0xbd6fb89e	-0.058525674
55	0xbca08498	-0.019594476
56	0x3d24c47f	0.040226456
57	0x3c0ea7cf	0.008707001
58	0xbd052e76	-0.03251501
59	0x3c515582	0.012776734
