dataCF/GRU_2000_44.model (torch, 13839 bytes, 8 tensors)

expand_layer.weight f4 [20, 8]
-0.041160982 -0.21352962 -0.4108744 0.29167038 -0.41089994 -0.3232263 0.76816607 0.11527626
0.75610346 0.18194687 -0.40738684 -0.06728172 -0.39203075 -0.40931603 0.82460564 -0.30057636
-0.61177444 0.084584236 -0.619872 -0.61984247 0.60190874 0.68708956 0.11701234 -0.23746444
-0.32928422 -0.4179912 1.0230446 -0.047178384 0.8748881 -0.3868649 0.46886578 -0.27121553
0.84799397 0.24224433 -0.45363787 0.8055475 0.28579196 -0.4747364 -0.33898655 0.24876823
0.5521048 0.77305996 -0.66049284 -0.66047454 0.843361 -0.46905002 -0.44230548 0.12657414
0.8378532 0.10436929 0.7828348 -0.42905483 0.3863056 -0.44383243 -0.38361123 -0.15925743
0.35687998 -0.5516884 0.11990598 -0.2897278 0.69822603 -0.5516765 0.40433797 -0.19935648
0.42647582 0.43075252 -0.6557513 -0.47969395 -0.6096296 0.9425519 -0.014920442 0.16031666
0.034163646 0.13994764 -0.30960897 0.24034211 -0.08356751 0.19021095 -0.12408837 -0.24384092
-0.42997974 -0.10661256 -0.4251006 -0.30276635 0.95420367 0.1677397 -0.012279434 0.2447594
-0.43097046 -0.5411623 -0.5412063 -0.04135752 0.95947737 -0.051113825 -0.47218275 0.106412865
-0.2904336 -0.4169398 -0.61310565 0.35521644 0.359175 0.9200928 -0.15262446 -0.0027379435
-0.08656461 -0.16414048 -0.04249106 -0.23117884 -0.15868339 0.03225827 -0.056657333 0.07478781
-0.63609225 0.6168183 -0.25363222 1.0144551 0.12929517 -0.6724255 -0.53889793 -0.26587078
-0.4793653 0.8514201 1.0371774 -0.5407966 -0.302959 -0.17953148 -0.48624718 0.1363075
0.97106266 0.21794431 0.03386233 -0.63962585 -0.5629413 -0.6378236 -0.3389864 -0.12796406
0.6415007 -0.269565 0.79462284 -0.32090294 -0.64342123 0.8205033 -0.29062447 0.3074751
-0.28851688 0.034552366 -0.25056705 0.08381482 -0.057346854 -0.13263507 0.027368646 0.18750808
-0.5377031 0.7985091 -0.58200204 0.31154016 -0.16484298 -0.60482407 0.6173278 0.33865425
00000000: 6b98 28bd 82a7 5abe 215e d2be d255 953e
00000010: 7a61 d2be eb7d a5be 88a6 443f f615 ec3d
00000020: ff8f 413f 4850 3a3e 0295 d0be 00cb 89bd
00000030: 41b8 c8be df91 d1be 5b19 533f 25e5 99be
00000040: 409d 1cbf 803a ad3d eeaf 1ebf ffad 1ebf
00000050: b116 1a3f 1ae5 2f3f 2aa4 ef3d e129 73be
00000060: f197 a8be f102 d6be 20f3 823f 1f3e 41bd
00000070: abf8 5f3f 2813 c6be 2d0f f03e c3dc 8abe
00000080: 2216 593f e60e 783e 3943 e8be 5c38 4e3f
00000090: 5353 923e a610 f3be a58f adbe 19bd 7e3e
000000a0: bd56 0d3f 42e7 453f 0f16 29bf dc14 29bf
000000b0: 82e6 573f 5327 f0be dd75 e2be a79c 013e
000000c0: 8c7d 563f 91bf d53d dd67 483f 13ad dbbe
000000d0: d9c9 c53e 013e e3be b168 c4be 6114 23be
000000e0: f9b8 b63e 733b 0dbf 4491 f53d 3457 94be
000000f0: f1be 323f ac3a 0dbf 6305 cf3e 1b24 4cbe
00000100: 0a5b da3e 988b dc3e 51df 27bf 729a f5be
00000110: af10 1cbf 154b 713f df74 74bc 0d2a 243e
00000120: 2eef 0b3d 6f4e 0f3e 1185 9ebe 3e1c 763e
00000130: 7125 abbd a9c6 423e 0b22 febd 6fb1 79be
00000140: 4e26 dcbe b057 dabd c9a6 d9be 3104 9bbe
00000150: b146 743f f5c3 2b3e ae2f 49bc 35a2 7a3e
00000160: 29a8 dcbe 9d89 0abf 7f8c 0abf 8166 29bd
00000170: 4fa0 753f bb5c 51bd f0c1 f1be fdee d93d
00000180: b6b3 94be 2279 d5be 7ef4 1cbf eede b53e
00000190: c9e5 b73e 348b 6b3f 9649 1cbe 126f 33bb
000001a0: c948 b1bd 7114 28be 1b0b 2ebd 25ba 6cbe
000001b0: e67d 22be 3f21 043d 8511 68bd 5a2a 993d
000001c0: f1d6 22bf cee7 1d3f 15dc 81be aad9 813f
000001d0: f465 043e 1424 2cbf 37f5 09bf 3720 88be
000001e0: 5e6f f5be abf6 593f 3bc2 843f a571 0abf
000001f0: 711d 9bbe 1ad7 37be 64f5 f8be 3194 0b3e
00000200: 9097 783f cb2c 5f3e 3ab3 0a3d 85be 23bf
00000210: ec1c 10bf 6848 23bf a08f adbe 0309 03be
00000220: 6439 243f 6c04 8abe 676c 4b3f 644d a4be
00000230: 41b7 24bf 810c 523f bbcc 94be 606d 9d3e
00000240: 7cb8 93be c886 0d3d 534a 80be 1ba7 ab3d
00000250: 89e4 6abd 7dd1 07be 3634 e03c 1e02 403e
00000260: e9a6 09bf 186b 4c3f 16fe 14bf 3182 9f3e
00000270: 99cc 28be c0d5 1abf 3209 1e3f 1764 ad3e

expand_layer.bias f4 [20]
0.4108564 0.407386 0.61983883 0.38680863 0.47122478 0.66046697 0.44381002 0.5516693
0.6557564 -0.25061658 0.42948577 0.5411773 0.7078527 -0.079070605 0.6723455 0.532368
0.6396137 0.6606519 -0.21646297 0.57328933
00000000: c55b d23e e694 d03e c2ad 1e3f c80b c63e
00000010: 6044 f13e 5d14 293f 113b e33e 333a 0d3f
00000020: a7df 273f d150 80be 8fe5 db3e 988a 0a3f
00000030: d635 353f c5ef a1bd d61e 2c3f 4549 083f
00000040: b9bd 233f 7c20 293f 78a8 5dbe 17c3 123f

GRULayer.weight_ih_l0 f4 [60, 20]
0.08646222 -0.20176758 -0.64169437 -0.61143905 0.55103904 0.34173706 0.38088763 -0.7384217
0.45263943 -0.03813736 -1.035493 -0.7077902 -0.49254903 0.086732864 0.92458165 0.72656393
1.020208 0.30366543 -0.14748865 0.19379517 -0.49236125 -0.1335811 1.0652201 -0.7015311
0.74065334 1.0427202 0.17547108 -0.2867353 0.84469175 0.17177525 0.9713238 0.9070643
0.78391707 0.04279971 0.2251762 0.18406631 0.38109294 0.50623035 -0.14544715 0.23443826
-0.5044722 -0.1320578 0.41598028 -0.34406024 0.72500557 1.002461 -0.061162315 -0.16988143
0.6275897 -0.09118911 0.54900795 0.2995579 0.62230694 -0.045558847 0.4249182 0.010073157
0.64904946 -0.25931546 -0.0913547 0.6855423 0.38928035 -0.39589688 0.54367626 0.4171847
0.27498904 -0.19488777 -0.3571844 0.17285174 -0.37037227 0.033032045 0.69448334 0.73071533
0.48148042 -0.013064056 0.5838771 0.22491492 -0.31216946 -0.17013365 0.07127872 0.15492792
-0.14455701 0.10238001 0.26628676 0.5979454 -0.465766 -0.2488778 0.44107926 0.8904424
-0.17663993 -0.16710152 0.65707815 0.6202185 0.5188303 -0.15861782 -0.7754198 -0.09006738
-0.019723881 0.29459634 -0.029646277 -0.91423184 -0.50409317 -0.48824278 0.36662954 -0.93546104
1.0072896 0.43058953 -0.70205486 -0.61688995 0.6616619 0.044303272 0.040899202 0.42425582
0.97202516 0.19516921 0.9176513 -0.323737 -0.3234975 0.015622023 -0.22206928 0.09462508
-0.31545314 0.5017283 0.0083280215 0.16094214 -0.4072524 1.638385 0.4414631 0.41142333
-0.1232257 -0.14275724 0.34117112 0.44348386 -0.3197095 0.03215029 -0.2946833 0.7044799
0.908605 0.15825747 0.10826777 -0.062299408 0.8260091 0.058844414 -0.17717746 -0.08829695
0.61057705 -0.7638066 -0.6718589 -0.43091607 -0.567984 0.22175708 -0.018694304 -0.26047882
0.40885815 -0.019708518 0.48874348 -0.77789897 -0.753036 -0.10262975 -0.0017002801 0.32377058
-0.4143689 -0.4301568 -0.2279131 0.2657719 0.45813334 -0.13222787 0.6515484 0.29752246
-0.21682356 -0.12870838 0.29815018 0.9547566 0.41747418 -0.02309631 0.07286494 -0.33607095
0.07730274 0.49893433 0.14855212 -1.0009195 0.34383672 0.573235 0.86595094 -0.38563752
0.3805861 0.515798 -0.001597638 0.14435212 0.4449952 -0.09847374 0.30970207 0.61424166
0.52721924 0.068872884 0.169778 -0.15342215 -0.032046244 0.25507987 0.03078569 0.36392698
-0.13279891 0.07928111 -0.58086354 0.3758488 -0.25697833 -0.9611132 -0.20042166 0.32490826
-0.25185072 0.09628707 -0.047856417 0.29636657 0.036629062 -0.020949597 -0.4237985 -0.41455007
-0.768792 0.49795085 0.05027483 -0.48068586 0.40259197 0.1727008 1.1124196 -0.056505676
0.46582022 0.40739325 0.122270435 0.231265 0.7667557 0.1977389 0.63813025 0.4309788
0.38876736 -0.029622635 0.64226764 0.1660603 0.08389434 0.4311344 -0.021687513 0.43521237
-1.0701412 0.05894769 0.6440953 0.19060491 0.06686062 0.9710581 0.07882274 0.5436824
0.19674899 0.094135955 0.8218074 0.46757907 0.037065845 -0.0875149 -0.26022404 -0.08049929
00000000: 1b13 b13d 299c 4ebe 1546 24bf 4587 1cbf
00000010: e510 0d3f 29f8 ae3e b403 c33e 3409 3dbf
00000020: 5bc0 e73e ec35 1cbd 098b 84bf bd31 35bf
00000030: 632f fcbe 00a1 b13d 62b1 6c3f 1800 3a3f
00000040: 2d96 823f 097a 9b3e 4407 17be 3e72 463e
00000050: c616 fcbe 7cc9 08be 2259 883f 8b97 33bf
00000060: 759b 3d3f db77 853f b1ae 333e f8ce 92be
00000070: b83d 583f dae5 2f3e ada8 783f 5e35 683f
00000080: caae 483f c04e 2f3d 9794 663e e17b 3c3e
00000090: 9d1e c33e 5098 013f 19f0 14be 9510 703e
000000a0: 1725 01bf 293a 07be 5efb d43e aa28 b0be
000000b0: f799 393f a450 803f 5685 7abd 66f5 2dbe
000000c0: b8a9 203f 5bc1 babd c98b 0c3f a75f 993e
000000d0: 824f 1f3f ea9b 3abd e18e d93e e209 253c
000000e0: 1b28 263f ffc4 84be 2c18 bbbd b37f 2f3f
000000f0: c14f c73e ffb2 cabe 5e2e 0b3f 3c99 d53e
00000100: 5dcb 8c3e a990 47be e0e0 b6be 0c00 313e
00000110: 6fa1 bdbe 9c4c 073d a9c9 313f 2910 3b3f
00000120: 9a84 f63e 9f0a 56bc f878 153f 1950 663e
00000130: add4 9fbe 8437 2ebe 94fa 913d 6da5 1e3e
00000140: c106 14be 9cac d13d bd56 883e f312 193f
00000150: e278 eebe d2d9 7ebe 24d5 e13e 08f4 633f
00000160: 19e1 34be a91c 2bbe 4636 283f a4c6 1e3f
00000170: 10d2 043f b66c 22be e981 46bf 3f75 b8bd
00000180: fa93 a1bc 55d5 963e c0dc f2bc 190b 6abf
00000190: 400c 01bf f5fa f9be deb6 bb3e 607a 6fbf
000001a0: deee 803f 3b76 dc3e deb9 33bf 80ec 1dbf
000001b0: ad62 293f 5977 353d ec85 273d 0f38 d93e
000001c0: a4d6 783f 70da 473e 32eb 6a3f dbc0 a5be
000001d0: 77a1 a5be 83f3 7f3c 2166 63be cbca c13d
000001e0: 1383 a1be 4471 003f 4172 083c 04ce 243e
000001f0: 6383 d0be 9ab6 d13f 7407 e23e 14a6 d23e
00000200: c15d fcbd f42e 12be fbad ae3e 5110 e33e
00000210: f7b0 a3be 06b0 033d bbe0 96be cb58 343f
00000220: 569a 683f 3f0e 223e 7ebb dd3d aa2d 7fbd
00000230: 5575 533f d706 713d 026e 35be 08d5 b4bd
00000240: c74e 1c3f d488 43bf f2fe 2bbf 08a1 dcbe
00000250: 6667 11bf 4a14 633e cc24 99bc 7b5d 85be
00000260: db55 d13e c273 a1bc 963c fa3e 6324 47bf
00000270: f8c6 40bf 8c2f d2bd efdb deba 42c5 a53e
00000280: 2928 d4be 833d dcbe 0d62 69be 4113 883e
00000290: 7490 ea3e be66 07be e0cb 263f dd54 983e
000002a0: ff06 5ebe 21cc 03be 24a7 983e ee6a 743f
000002b0: 2dbf d53e 7934 bdbc 373a 953d 7e11 acbe
000002c0: e650 9e3d 5274 ff3e 0c1e 183e 211e 80bf
000002d0: 5e0b b03e 87bf 123f f6ae 5d3f 4872 c5be
000002e0: 2edc c23e 560b 043f d667 d1ba 0bd1 133e
000002f0: 69d6 e33e 9aac c9bd 4591 9e3e f13e 1d3f
00000300: d7f7 063f 3a0d 8d3d 49da 2d3e b21a 1dbe
00000310: ec42 03bd d499 823e 4532 fc3c a354 ba3e
00000320: 70fc 07be 225e a23d 79b3 14bf 416f c03e
00000330: aa92 83be 840b 76bf 563b 4dbe 605a a63e
00000340: 94f2 80be 2832 c53d 1705 44bd 5cbd 973e
00000350: 5b08 163d 7d9e abbc 1efc d8be e83f d4be
00000360: 8dcf 44bf 6af3 fe3e fbec 4d3d 751c f6be
00000370: 8920 ce3e 7ad8 303e c463 8e3f 7f72 67bd
00000380: fd7f ee3e d995 d03e ec68 fa3d bbd0 6c3e
00000390: 1a4a 443f 117c 4a3e 815c 233f 41a9 dc3e
000003a0: 840c c73e 2bab f2bc a76b 243f b60b 2a3e
000003b0: ccd0 ab3d a6bd dc3e 03aa b1bc 28d4 de3e
000003c0: 63fa 88bf 2273 713d 6ee3 243f ef2d 433e
000003d0: 39ee 883d 4397 783f d16d a13d c52e 0b3f
000003e0: 9178 493e 5aca c03d f861 523f 8666 ef3e
000003f0: 5bd2 173d 033b b3bd 163c 85be d0dc a4bd

GRULayer.weight_hh_l0 f4 [60, 20]
0.16809374 -0.25619495 -0.09034463 0.32246527 0.88359314 0.427601 0.16721109 -0.4218408
1.1229354 0.59540033 0.16192454 -0.096322246 -0.4866847 0.6930781 -0.7564294 -0.023364622
0.15824828 0.26099095 0.18398702 0.60122186 0.66080993 0.06032441 0.0034144516 0.94804627
-0.717208 0.053836793 0.7253405 -0.17273046 -0.6212651 0.38869748 -0.08462089 -0.050142344
-0.27496174 -0.3491005 -0.040536568 -0.4640084 0.15562704 -1.4005942 0.8402898 0.24842481
-0.70218116 0.21957402 -1.3234233 -0.46634856 0.7067094 0.88998675 0.19700167 0.88795364
0.10889517 0.3639179 -0.80384153 0.7157055 -0.0794933 0.39879423 1.2559369 0.4639493
0.07809024 0.4156176 0.35844943 -0.4062421 0.22196488 0.46446612 -0.73525363 0.068001874
0.0017539287 -0.70776933 -0.684074 -0.6013366 0.6975159 0.039150555 -0.50977594 0.6844629
-0.7224098 -0.3699966 -0.93994725 -0.4159852 -0.8767869 0.89720917 -0.48779294 -0.19097717
-0.9589208 -1.0608044 0.19506966 0.29075545 -1.1896964 -0.4271175 -0.24196042 0.045553546
-0.515969 -0.21155837 -0.23964365 -0.30275244 0.010638121 -0.97133946 -1.2088848 -1.0098684
-0.44694793 0.8444906 -0.46131384 -0.66014063 0.8286677 0.19409487 -0.7841814 -0.19124079
0.10136394 -0.07070069 -1.0873789 0.3703308 0.77668256 0.61752456 0.7736192 -0.000904109
-0.11688053 -0.4101183 -0.4097434 -0.15392369 -0.33093598 -0.7216492 -0.7662337 0.38368827
0.51838934 -0.20211424 -0.3593402 0.36847603 -0.8199745 -0.5771844 -1.1348566 -0.111584306
-0.05682651 -0.7938862 0.6274318 -0.48034525 -0.8784047 0.108869515 0.07739556 -0.42419326
-0.21610068 -0.5298549 0.37429467 0.38327557 0.9817874 0.0050707823 1.0975691 0.37582934
-1.1661226 0.1831221 -1.347376 -0.95058995 -0.008728414 0.51940787 -0.2560716 -0.059648678
-0.8293008 -0.94941086 0.27814323 -0.21372673 0.04906107 -0.15429732 0.12674892 0.77301615
-0.36370346 -0.80264753 0.5241876 0.95457804 0.9765102 -0.27657622 0.3758088 0.22217411
0.629539 -0.6592484 -0.3076479 -0.21059527 -0.29881933 -1.3121027 -1.1382493 1.1590484
-1.2388024 0.051904608 -0.04911391 0.14109866 -0.38283414 -0.2628875 0.4485569 0.60294837
0.084137335 0.00048032287 -0.1266472 0.017963497 0.32973114 -0.47776854 0.12733737 0.22170863
0.013254264 -0.34782863 -0.53912634 -0.117039844 0.020532073 -0.41345847 0.33889994 -0.009367488
-0.28903398 -0.008649971 -0.66897833 0.7601621 0.31645113 -1.4023738 0.32356754 -0.4246871
-0.21746324 -0.56874925 1.1576694 0.49382818 -0.8044124 -0.4626465 -0.65740097 0.1679913
0.195955 -0.1251425 0.2607897 0.3927835 0.59161633 -0.5943775 0.38200936 1.0820924
-1.0207623 -0.53760666 -0.10143319 -0.4944068 0.8139692 0.11237278 -0.09868959 1.3835874
0.44750497 -0.46331638 0.3478176 0.3108606 -0.7152399 -0.6829826 0.32178357 1.3217703
-0.24477156 -0.06515019 0.2564866 0.608175 -0.4233035 0.24444117 -0.63942105 -0.17221113
0.4486647 -0.7341509 -0.009965093 0.17482683 -0.113259435 0.06392637 -1.3254423 -0.5392134
00000000: c420 2c3e fc2b 83be 9b06 b9bd 2b1a a53e
00000010: 2933 623f 85ee da3e 6239 2b3e 84fb d7be
00000020: 59bc 8f3f 286c 183f 8ccf 253e 9944 c5bd
00000030: bd2e f9be 916d 313f 5ba5 41bf 2a67 bfbc
00000040: d60b 223e 9ba0 853e 1867 3c3e ade9 193f
00000050: d72a 293f bb16 773d fec4 5f3b 29b3 723f
00000060: f29a 37bf f883 5c3d eaaf 393f 41e0 30be
00000070: 3b0b 1fbf 5b03 c73e b84d adbd 0f62 4dbd
00000080: c9c7 8cbe 4dbd b2be ac09 26bd 8292 edbe
00000090: b25c 1f3e ac46 b3bf 3b1d 573f 1363 7e3e
000000a0: 25c2 33bf 03d8 603e ef65 a9bf 3dc5 eebe
000000b0: e8ea 343f 2cd6 633f ceba 493e ee50 633f
000000c0: 6e04 df3d 7253 ba3e 8fc8 4dbf 7a38 373f
000000d0: 62cd a2bd c22e cc3e 8ac2 a03f c38a ed3e
000000e0: c7ed 9f3d d4cb d43e af86 b73e f7fe cfbe
000000f0: c34a 633e 81ce ed3e 9539 3cbf 9144 8b3d
00000100: 15e4 e53a 5f30 35bf 791f 2fbf 32f1 19bf
00000110: 6790 323f 555c 203d ad80 02bf f638 2f3f
00000120: d9ef 38bf 3270 bdbe 62a0 70bf 03fc d4be
00000130: 1b75 60bf 80af 653f ffbf f9be 858f 43be
00000140: d57b 75bf 70c8 87bf 57c0 473e e6dd 943e
00000150: f947 98bf 25af dabe 79c4 77be 5b96 3a3d
00000160: 8b16 04bf c2a2 58be 2565 75be 5e02 9bbe
00000170: 834b 2e3c b4a9 78bf bdbc 9abf 5e43 81bf
00000180: 5cd6 e4be 8930 583f 5431 ecbe fafe 28bf
00000190: 9123 543f cec0 463e 1dc0 48bf a0d4 43be
000001a0: e697 cf3d 86cb 90bd 3b2f 8bbf 009c bd3e
000001b0: abd4 463f 1716 1e3f e80b 463f ba01 6dba
000001c0: 0f5f efbd 07fb d1be e3c9 d1be 2c9e 1dbe
000001d0: 7170 a9be 01be 38bf e427 44bf ca72 c43e
000001e0: 2ab5 043f 09f7 4ebe 70fb b7be e4a8 bc3e
000001f0: d9e9 51bf 5bc2 13bf fb42 91bf 5086 e4bd
00000200: eac2 68bd 203c 4bbf 5f9f 203f d0ef f5be
00000210: 21df 60bf fbf6 de3d 9081 9e3d dc2f d9be
00000220: 7f49 5dbe 92a4 07bf 8da3 bf3e b23c c43e
00000230: 6b56 7b3f ce28 a63b 257d 8c3f b46c c03e
00000240: 8143 95bf 5c84 3b3e d176 acbf dd59 73bf
00000250: 9f01 0fbc eaf7 043f d11b 83be 2c52 74bd
00000260: 0f4d 54bf 970c 73bf ca68 8e3e 2edb 5abe
00000270: 43f4 483d 1e00 1ebe 78ca 013e 63e4 453f
00000280: 5737 babe 4f7a 4dbf 2931 063f 3a5f 743f
00000290: 93fc 793f 669b 8dbe 036a c03e 9c81 633e
000002a0: 7829 213f 81c4 28bf 0784 9dbe 49a6 57be
000002b0: d9fe 98be fbf2 a7bf 27b2 91bf b35b 943f
000002c0: 1491 9ebf ed99 543d ab2b 49bd 2b7c 103e
000002d0: d602 c4be 3199 86be 40a9 e53e d35a 1a3f
000002e0: 3250 ac3d d8d3 fb39 ceaf 01be 2f28 933c
000002f0: 85d2 a83e 149e f4be ba64 023e 9607 633e
00000300: 6a28 593c 9816 b2be 2f04 0abf 96b2 efbd
00000310: e132 a83c d4b0 d3be 4b84 ad3e 187a 19bc
00000320: 43fc 93be 9cb8 0dbc 2a42 2bbf fc99 423f
00000330: e205 a23e fc80 b3bf a5aa a53e 9670 d9be
00000340: afae 5ebe 8d99 11bf 832e 943f 0cd7 fc3e
00000350: f9ed 4dbf 01e0 ecbe 6e4b 28bf e905 2c3e
00000360: 6da8 483e 5b25 00be 3a86 853e eb1a c93e
00000370: 2b74 173f 2029 18bf bb96 c33e 0182 8a3f
00000380: 57a8 82bf 97a0 09bf 34bc cfbd e322 fdbe
00000390: 4960 503f b323 e63d c51d cabd 6419 b13f
000003a0: 5f1f e53e ce37 edbe 2615 b23e 1f29 9f3e
000003b0: f619 37bf f3d7 2ebf d1c0 a43e c52f a93f
000003c0: 65a5 7abe 766d 85bd 3652 833e 5bb1 1b3f
000003d0: 3dbb d8be c94e 7a3e 19b1 23bf 1d58 30be
000003e0: 61b7 e53e 50f1 3bbf a144 23bc ce05 333e
000003f0: 90f4 e7bd d4eb 823d 18a8 a9bf e409 0abf

GRULayer.bias_ih_l0 f4 [60]
0.3306351 0.083160356 0.34232196 0.27640685 -0.029784765 -0.012323681 0.08446105 0.1439733
-0.103170216 0.09880056 0.05760086 0.4762539 0.059456684 -0.13728559 0.6045416 0.3855126
0.0014520409 -0.11489864 0.40349877 0.11903419 -0.3819242 -0.5586942 -0.21790314 -0.15392384
-0.39700967 -0.5916697 -0.10714668 0.41643804 -0.34073588 0.33021852 0.13802409 -0.54186445
-0.41194338 -0.8708472 -0.66523916 -0.24704134 -0.24818853 0.21369432 -0.6278077 -0.24963707
-0.2201375 -0.015254545 -0.3585624 0.06761289 0.15335245 -0.093826935 -0.34128863 0.12973826
0.32574716 -0.1938226 -0.05033672 0.026890814 0.19415395 -0.031752948 -0.0110201575 -0.22312622
-0.17526206 0.14189444 0.23994796 0.023409253
00000000: 0149 a93e fa4f aa3d d344 af3e 3385 8d3e
00000010: 2eff f3bc 44e9 49bc eaf9 ac3d bd6d 133e
00000020: e84a d3bd f357 ca3d e1ee 6b3d 8dd7 f33e
00000030: da88 733d 9894 0cbe 3dc3 1a3f e861 c53e
00000040: 6852 be3a fa4f ebbd 6497 ce3e 33c8 f33d
00000050: 928b c3be 9506 0fbf 0022 5fbe 369e 1dbe
00000060: da44 cbbe aa77 17bf b86f dbbd 5e37 d53e
00000070: ef74 aebe 6712 a93e 3056 0d3e a1b7 0abf
00000080: 3eea d2be d8ef 5ebf 1d4d 2abf 68f8 7cbe
00000090: 2225 7ebe afd2 5a3e 01b8 20bf dca0 7fbe
000000a0: ba6b 61be 33ee 79bc 7e95 b7be a078 8a3d
000000b0: 6d08 1d3e 5628 c0bd 62bd aebe 1bda 043e
000000c0: 55c8 a63e 6f79 46be e02d 4ebd 204a dc3c
000000d0: 4bd0 463e 610f 02bd e48d 34bc 337b 64be
000000e0: e677 33be c74c 113e ebb4 753e c3c4 bf3c

GRULayer.bias_hh_l0 f4 [60]
0.2984627 -0.036990065 0.3360524 0.39171493 0.26278627 0.2613654 -0.047829326 0.014989241
0.23015772 0.1850144 -0.19141313 0.52982676 0.2267211 -0.06452435 0.52867115 0.17009999
0.20870538 0.037186824 0.50849855 0.19709338 -0.6548825 -0.5984204 -0.4106024 -0.050657153
-0.08075916 -0.42985356 -0.18980895 0.055161353 -0.3175646 0.084820166 0.11923485 -0.55808985
-0.2711404 -0.7495737 -0.36742547 -0.54468626 -0.28917354 -0.15453964 -0.68724805 -0.23094478
0.27677405 -0.14677879 1.0051843 0.9157343 -0.39006698 -0.2266983 -0.4181081 -0.46153453
0.1734925 -0.015566655 -0.21310762 -0.15198144 0.3143858 0.23058988 0.13792706 0.15302269
-0.16792735 0.9083125 0.33528835 0.31670186
00000000: 1ad0 983e e582 17bd 0f0f ac3e dc8e c83e
00000010: ec8b 863e b0d1 853e afe8 43bd 6f95 753c
00000020: 77ae 6b3e 6a74 3d3e ce01 44be baa2 073f
00000030: 9329 683e 5825 84bd fe56 073f b12e 2e3e
00000040: ddb6 553e 3651 183d f62c 023f d9d2 493e
00000050: 61a6 27bf 1432 19bf 7a3a d2be e07d 4fbd
00000060: 0f65 a5bd c415 dcbe 475d 42be dff0 613d
00000070: d497 a2be 32b6 ad3d 6731 f43d fade 0ebf
00000080: ead2 8abe 10e4 3fbf 311f bcbe 8f70 0bbf
00000090: 8e0e 94be a43f 1ebe 7def 2fbf ca7c 6cbe
000000a0: 54b5 8d3e 2e4d 16be e1a9 803f 906d 6a3f
000000b0: dcb6 c7be 9923 68be 4412 d6be 414e ecbe
000000c0: 05a8 313e 490b 7fbc e238 5abe 06a1 1bbe
000000d0: 2df7 a03e c11f 6c3e c03c 0d3e fbb1 1c3e
000000e0: 26f5 2bbe 2b87 683f eaaa ab3e bf26 a23e

outputLayer.weight f4 [8, 20]
-1.0897036 -0.62459505 -1.1673144 0.6954811 -1.3846189 -0.84472233 -0.8691369 -1.5421674
1.0615559 -0.56569976 1.0704528 -0.7528693 -0.010690733 -1.5605263 -0.55826503 1.396514
1.1128561 1.5481713 0.5151068 -0.49566337 0.3289193 -1.8383434 -0.6407227 -1.2930621
-1.1748248 0.92801076 -0.50424445 1.2207927 1.2649252 1.3196975 -1.0294675 -1.4426237
0.7593388 0.8074597 0.89651513 -1.2287072 0.8768764 -1.4790665 1.5550909 0.0972634
-0.45251596 -0.2761254 1.1099435 -1.2528497 1.0017868 -1.7013819 1.1847665 1.0895342
1.0850239 -1.1605041 0.22372368 -1.2776823 -1.0683624 0.1864604 0.74014705 -0.63256514
-0.46528858 -0.22978419 -0.31242463 0.8730354 1.4181658 0.3774424 -0.09146005 1.7580941
-0.29987484 -0.60943675 0.19464578 0.8604894 0.944001 -0.32546672 1.1548249 1.2241874
-0.3738543 -1.056076 0.78829014 -1.2528738 0.8154714 -0.3984244 -0.33291268 -1.5878844
1.2139081 0.5659915 0.90389854 0.21659121 1.3322561 0.060714573 0.10470935 -1.4797412
-1.3678774 1.0681986 -0.04024488 1.028541 0.8723649 -0.3865343 -1.2677361 -0.30628067
-1.2859609 0.6829257 0.82274264 1.0127273 -0.7887599 -0.13363877 -0.34141147 0.9521943
-0.5948565 0.57164633 -1.5025836 -0.0395947 -1.429183 -0.8541713 0.88498515 0.56038904
0.7454043 0.9143396 -0.58164275 0.8651579 -0.70549303 -0.58147013 -1.5158589 1.1058359
-0.22280714 0.93793523 -0.76160073 -0.13229798 -0.11236253 0.38639283 0.7448098 0.38906348
-0.66517645 0.034081936 -1.1796355 0.19477227 -1.0195624 -0.03214359 0.17253958 0.2863292
-0.23140015 -0.23008826 -0.7407904 -0.28755915 0.013534195 0.24812333 -0.5428076 -0.17859234
0.12893659 0.30019784 0.36083755 -0.4186167 -0.48908037 0.6490256 -1.0220294 0.33005023
-0.6610022 0.6364275 0.07571876 0.3264117 0.83408916 0.1329783 -0.39853737 -0.28607854
00000000: 687b 8bbf 76e5 1fbf 8f6a 95bf 0d0b 323f
00000010: 313b b1bf b93f 58bf c27f 5ebf be65 c5bf
00000020: 10e1 873f b3d1 10bf 9904 893f 0bbc 40bf
00000030: 2f28 2fbc 53bf c7bf 75ea 0ebf f9c0 b23f
00000040: 1272 8e3f 7a2a c63f 0ade 033f 97c7 fdbe
00000050: 1c68 a83e d64e ebbf 6706 24bf 0f83 a5bf
00000060: a960 96bf 1d92 6d3f 2a16 01bf ef42 9c3f
00000070: 12e9 a13f d9eb a83f 97c5 83bf e5a7 b8bf
00000080: 0764 423f aeb5 4e3f 0482 653f 4746 9dbf
00000090: f97a 603f 0d52 bdbf 380d c73f 0932 c73d
000000a0: 2cb0 e7be 4f60 8dbe a112 8e3f 615d a0bf
000000b0: 8d3a 803f e2c6 d9bf 6ea6 973f db75 8b3f
000000c0: 10e2 8a3f 668b 94bf d217 653e 188b a3bf
000000d0: 19c0 88bf 7aef 3e3e 477a 3d3f caef 21bf
000000e0: 4e3a eebe 8c4c 6bbe 1ff6 9fbe 3f7f 5f3f
000000f0: 7586 b53f 2140 c13e 684f bbbd 3a09 e13f
00000100: 3289 99be 0c04 1cbf 3951 473e 0949 5c3f
00000110: 0daa 713f 93a3 a6be 4dd1 933f 2cb2 9c3f
00000120: d569 bfbe 802d 87bf 62cd 493f 2b5e a0bf
00000130: bcc2 503f 48fe cbbe 8873 aabe cc3f cbbf
00000140: 5761 9b3f d2e4 103f e565 673f 16ca 5d3e
00000150: 5e87 aa3f d8af 783d db71 d63d 2968 bdbf
00000160: 9b16 afbf bbba 883f d1d7 24bd 3ba7 833f
00000170: 4e53 5f3f d3e7 c5be 2d45 a2bf d2d0 9cbe
00000180: 5e9a a4bf 38d4 2e3f 439f 523f 0ca1 813f
00000190: 2bec 49bf 9ad8 08be 7ccd aebe 01c3 733f
000001a0: 8448 18bf 6a57 123f a954 c0bf 0d2e 22bd
000001b0: 78ef b6bf f8aa 5abf 638e 623f a875 0f3f
000001c0: d1d2 3e3f 2912 6a3f 8ae6 14bf fd7a 5d3f
000001d0: 319b 34bf 3adb 14bf aa07 c2bf 088c 8d3f
000001e0: 8e27 64be 861c 703f 44f8 42bf 1f79 07be
000001f0: 531e e6bd 48d5 c53e dbab 3e3f 5433 c73e
00000200: 0149 2abf 8099 0b3d 4cfe 96bf 6272 473e
00000210: 0581 82bf ffa8 03bd 37ae 303e be99 923e
00000220: 29f4 6cbe 429c 6bbe 71a4 3dbf f43a 93be
00000230: 87be 5d3c 0b14 7e3e 70f5 0abf e9e0 36be
00000240: f407 043e 88b3 993e b3bf b83e ee54 d6be
00000250: be68 fabe 8b26 263f dcd1 82bf 58fc a83e
00000260: 7137 29bf eaec 223f 7012 9b3d 6f1f a73e
00000270: de86 553f 772b 083e 170d ccbe e378 92be

outputLayer.bias f4 [8]
-0.04446133 -0.021095647 -0.1575837 0.3446305 1.1195354 0.40195975 -0.74652 -0.512534
00000000: 151d 36bd c7d0 acbc 9f5d 21be 6973 b03e
00000010: f04c 8f3f abcd cd3e ef1b 3fbf 6e35 03bf
