dataCF/RNN_1000_42.model (torch, 7183 bytes, 8 tensors)

expand_layer.weight f4 [20, 8]
-0.35659 0.56793505 -0.32618126 0.7480069 -0.49750948 -0.4975892 -0.48837194 -0.116270594
-0.1296475 -0.18098286 -0.25738662 -0.09812144 -0.22157079 -0.068320505 0.0770905 -0.064013936
0.03663534 -0.3809409 0.6078516 -0.10280722 -0.18706092 0.7574261 -0.36987025 0.15013702
-0.22769123 0.054820865 -0.3368093 -0.029307688 0.6778939 0.40948004 0.75527954 0.20266211
0.43432936 -0.5581234 0.12866384 -0.05458435 -0.3897199 -0.55693 0.7871827 -0.18554375
0.25550878 0.21508822 -0.29960075 -0.117745735 -0.17129655 0.13712254 -0.11528621 0.070015356
-0.16937886 0.74682516 0.49372432 0.4691057 -0.3256229 -0.46474472 -0.45451948 0.10505081
-0.0967762 -0.16447449 0.02844613 -0.12741545 0.23636521 0.11948998 -0.23647434 0.00064050563
0.2854041 0.86561817 -0.4749249 0.23708993 -0.12691641 -0.47484535 -0.47504658 -0.27379316
-0.3157124 -0.2751612 0.5954833 -0.30663732 0.7660516 -0.30018237 0.8692254 -0.07577628
-0.42498958 0.47911146 -0.19922008 -0.24342354 -0.42482683 0.8556316 0.16065165 0.038654096
0.15924415 -0.0670915 -0.3356625 0.1593745 0.23104611 -0.21756423 -0.038098346 -0.21504371
0.036215816 0.6486219 -0.18618013 -0.58374816 -0.49123874 0.7756754 -0.582769 -0.10783258
-0.36981133 -0.36576754 -0.36638498 0.45238575 0.6484273 -0.3718259 0.98293734 -0.092158295
0.45861232 -0.58955836 -0.40077835 -0.20768774 -0.4608605 0.58738905 0.52527946 -0.21137954
0.22730635 0.8487422 -0.27509096 -0.28962526 0.29731023 -0.27413785 0.31375512 0.09650701
0.23639779 0.22455941 -0.2538887 -0.32083964 -0.03205807 -0.013265973 0.32907045 -0.053316396
-0.35447094 0.24787505 -0.40363675 -0.21596266 0.7467656 0.64539707 -0.07104561 0.29260242
-0.65125364 0.5140546 -0.16325657 0.34333554 -0.65231323 0.59699136 0.13518277 0.26523
0.75176466 0.10966431 -0.33824012 -0.2887086 -0.27150333 -0.30476812 0.90911406 0.35276437
00000000: f792 b6be 3164 113f 3b01 a7be 617d 3f3f
00000010: 90b9 febe 03c4 febe e30b fabe 471f eebd
00000020: 50c2 04be 9253 39be 2ec8 83be e5f3 c8bd
00000030: 74e3 62be 9feb 8bbd a0e1 9d3d bd19 83bd
00000040: f00e 163d b00a c3be 2a9c 1b3f 978c d2bd
00000050: e68c 3fbe ade6 413f a25f bdbe 85bd 193e
00000060: e427 69be d88b 603d 4572 acbe ad16 f0bc
00000070: 748a 2d3f 5ea7 d13e 005a 413f a886 4f3e
00000080: 6b60 de3e 2de1 0ebf 74c0 033e d793 5fbd
00000090: 5e89 c7be f792 0ebf ce84 493f 2eff 3dbe
000000a0: 0cd2 823e 1640 5c3e 4565 99be ad24 f1bd
000000b0: 5d68 2fbe da69 0c3e 2d1b ecbd 3664 8f3d
000000c0: a771 2dbe ef2f 3f3f 6fc9 fc3e 9f2e f03e
000000d0: 0bb8 a6be 05f3 edbe c7b6 e8be e124 d73d
000000e0: 9a32 c6bd 006c 28be dc07 e93c 3279 02be
000000f0: b909 723e 2ab7 f43d 5426 72be 9be7 273a
00000100: 7c20 923e 2799 5d3f 5b29 f3be b4c7 723e
00000110: 60f6 01be ee1e f3be 4e39 f3be 9e2e 8cbe
00000120: 0ea5 a1be eee1 8cbe 9871 183f 91ff 9cbe
00000130: f51b 443f 81b1 99be 8e85 5e3f 9830 9bbd
00000140: 3c98 d9be 194e f53e 5900 4cbe 0544 79be
00000150: e782 d9be ac0a 5b3f de81 243e c253 1e3d
00000160: e610 233e 4567 89bd f5db abbe 1233 233e
00000170: 5a97 6c3e 28c9 5ebe 030d 1cbd 6b34 5cbe
00000180: 0957 143d 160c 263f 01a6 3ebe 8570 15bf
00000190: a583 fbbe aa92 463f 5930 15bf 54d7 dcbd
000001a0: e957 bdbe e245 bbbe d096 bbbe 1b9f e73e
000001b0: 55ff 253f f75f bebe c8a1 7b3f 7dbd bcbd
000001c0: 3ccf ea3e 4ced 16bf d232 cdbe 18ac 54be
000001d0: e8f5 ebbe 215f 163f b778 063f e173 58be
000001e0: ffc2 683e 2b47 593f b9d8 8cbe c349 94be
000001f0: 0c39 983e cc5b 8cbe 83a4 a03e 78a5 c53d
00000200: 4312 723e e7f2 653e b3fd 81be 1845 a4be
00000210: 534f 03bd 8659 59bc ec7b a83e 4b62 5abd
00000220: 377d b5be f5d2 7d3e 7aa9 cebe 5125 5dbe
00000230: 082c 3f3f be38 253f 5c80 91bd fccf 953e
00000240: 8fb8 26bf 1599 033f bb2c 27be adc9 af3e
00000250: 00fe 26bf 6dd4 183f 5a6d 0a3e 3acc 873e
00000260: a673 403f af97 e03d cf2d adbe 9dd1 93be
00000270: 7c02 8bbe 910a 9cbe b3bb 683f 889d b43e

expand_layer.bias f4 [20]
0.4971651 -0.21849431 0.55103743 0.43580002 0.5580159 -0.27456206 0.4647518 -0.28039917
0.47487488 0.3066189 0.42491415 -0.31964758 0.58370787 0.36571947 0.5894567 0.2750884
-0.3294522 0.44600156 0.65219223 0.30474138
00000000: 6d8c fe3e f9bc 5fbe ca10 0d3f 2e21 df3e
00000010: 21da 0e3f 6693 8cbe f3f3 ed3e 7b90 8fbe
00000020: cd22 f33e 27fd 9c3e 598e d93e d9a8 a3be
00000030: e16d 153f 953f bb3e a2e6 163f 63d8 8c3e
00000040: f5ad a8be 515a e43e 12f6 263f 1007 9c3e

rnnLayer.weight_ih_l0 f4 [20, 20]
0.036576893 0.042963088 -0.11288471 -0.35930142 -0.649287 -0.1622804 0.45250225 -0.06598876
0.5362561 -0.61655766 -0.050143402 -0.030205974 0.88557196 -0.4420535 -0.36681136 0.39322367
-0.05997783 0.0800548 0.114764 -0.09160951 -0.38092953 0.072415225 0.27293944 -0.31866658
0.33796826 -0.019462245 -0.4611018 0.16705897 -0.02807889 0.1427938 0.07785978 0.14660764
0.14347495 -0.6040973 0.4493263 0.45585006 -0.041894473 -0.35193413 -0.52467185 0.74942863
0.63802135 -0.086735636 -0.11596061 0.14356883 -0.5056526 -0.16632372 0.29209027 0.0027887514
0.44710276 -0.2731817 0.25670627 0.018621966 0.12479302 -0.20811011 -0.29605073 0.39520508
0.07916293 0.3665926 0.5104216 -0.3933623 -0.19571993 -0.14571837 0.16461755 -0.19666046
0.22468676 0.05513568 -0.48445538 0.18156676 -0.54155594 0.5433286 -0.1930149 0.19712807
-0.29189846 0.06880119 -0.039729036 -0.43405068 0.018330803 -0.09208852 -0.091212384 -0.47167906
0.07070012 0.038945384 0.33109915 -0.23222852 -0.59471714 0.05083787 0.58845115 -0.06385601
-0.0502565 0.22170436 -0.19208717 0.08024706 0.25641173 -0.524871 -0.640498 0.13062687
0.16772944 0.16515204 -0.47261003 0.055781543 0.8861783 0.098917566 -0.027431665 -0.5721557
-0.2079972 -0.17785692 0.16491655 -0.20940685 0.31915334 -0.7994225 0.3373196 -0.17865404
0.37749457 -0.5189427 0.11821006 -0.16326441 -0.0033111025 -0.5084816 0.45163572 -0.18036732
0.08282198 -0.124865 0.13392788 -0.024969906 -0.19638753 0.2001902 0.173873 0.086844735
0.17490442 0.038123608 -0.40193403 -0.10387148 -0.29928792 0.042270083 0.017567515 0.052626714
-0.06733275 -0.12990138 -0.08228216 0.19534883 -0.03216556 0.011487353 0.3935063 -0.53790385
0.6074602 -0.21776584 -0.040988073 -0.13367806 -0.3805705 -0.20328464 -0.40070513 -0.19487253
-0.48138675 0.01209858 0.41255668 -0.46090853 -0.013933655 -0.48821947 -0.25989315 0.6683361
0.024533186 0.1549864 0.11276866 0.31015864 -0.21808118 -0.09863303 -0.24121399 -0.12630586
-0.15167113 -0.4587112 0.5493746 0.13937704 0.62648934 -0.29981875 0.03527543 0.34561026
0.1042429 0.5315688 0.30380535 0.038825013 -0.5323827 0.085779406 0.60640705 0.16597016
-0.41141063 0.16103123 -0.45816848 0.101160906 -0.24470681 -0.5302305 0.34098494 -0.024172787
0.60310274 -0.06479979 0.44826514 -0.6968578 -0.08763309 0.58936316 -0.0127448905 -0.6702331
-0.18698967 -0.014438973 0.27642664 0.15131548 -0.5491853 -0.06679272 -0.46568352 0.0641267
-0.43657297 -0.3301844 0.73118347 -0.0018412104 0.3739199 -0.0067885704 0.46351737 -0.35212353
-0.14180417 0.2718803 0.88731074 -0.6138847 -0.20766512 -0.19448271 0.25629595 0.32919306
0.2729276 0.03839999 -0.36097607 -0.008578436 -0.44226682 0.55703336 -0.073307544 0.075667396
-0.2911934 0.6507013 0.27415848 -0.24090649 -0.17431973 0.31101012 0.15224236 -0.19908673
-0.123417325 -0.17973885 -0.5620642 0.12615554 0.41321993 -0.09770081 -0.22451945 -0.20322554
0.13257962 0.3633823 0.20111786 0.016497616 0.030738398 0.110681646 -0.05059815 0.3738211
00000000: a7d1 153d 10fa 2f3d 1930 e7bd 5bf6 b7be
00000010: ac37 26bf d52c 26be 60ae e73e 1d25 87bd
00000020: 1448 093f b9d6 1dbf 2b63 4dbd 8572 f7bc
00000030: d8b4 623f d654 e2be b3ce bbbe 9d54 c93e
00000040: 50ab 75bd c5f3 a33d 6309 eb3d c49d bbbd
00000050: 3209 c3be 6f4e 943d b8be 8b3e 4428 a3be
00000060: 2d0a ad3e 496f 9fbc 8915 ecbe 8211 2b3e
00000070: b305 e6bc 8a38 123e f374 9f3d 5020 163e
00000080: 19eb 123e 1fa6 1abf 190e e63e 2e65 e93e
00000090: 8a99 2bbd b630 b4be e550 06bf 8eda 3f3f
000000a0: 5e55 233f 74a2 b1bd c27c edbd b503 133e
000000b0: 7372 01bf c450 2abe db8c 953e 7cc3 363b
000000c0: a7ea e43e 79de 8bbe 016f 833e 188d 983c
000000d0: 7c93 ff3d d11a 55be f693 97be 5258 ca3e
000000e0: 2d20 a23d 06b2 bb3e fdaa 023f c966 c9be
000000f0: ce6a 48be 3237 15be 8191 283e 5c61 49be
00000100: 4914 663e f3d5 613d 890a f8be a3ec 393e
00000110: 69a3 0abf 9517 0b3f b3a5 45be f1db 493e
00000120: b773 95be a3e7 8c3d eaba 22bd e43b debe
00000130: 7b2a 963c e898 bcbd 8fcd babd eb7f f1be
00000140: 39cb 903d 3285 1f3d d485 a93e 50cd 6dbe
00000150: 623f 18bf 5f3b 503d bca4 163f f1c6 82bd
00000160: c2d9 4dbd 7806 633e 80b2 44be 9258 a43d
00000170: 6648 833e f25d 06bf adf7 23bf 0dc3 053e
00000180: 44c1 2b3e 9e1d 293e f1f9 f1be 307b 643d
00000190: 95dc 623f 4b95 ca3d 5fb8 e0bc cc78 12bf
000001a0: 38fd 54be 2020 36be e2df 283e c06e 56be
000001b0: 1168 a33e f4a6 4cbf 28b5 ac3e 16f1 36be
000001c0: f846 c13e 6ed9 04bf 1e18 f23d c92e 27be
000001d0: 15ff 58bb da2b 02bf cc3c e73e 36b2 38be
000001e0: 929e a93d 39b9 ffbd 6424 093e b08d ccbc
000001f0: d019 49be a9fe 4c3e c40b 323e a7db b13d
00000200: 251a 333e 8027 1c3d 4cca cdbe 92ba d4bd
00000210: 443c 99be 6523 2d3d c0e9 8f3c 1c8f 573d
00000220: c1e5 89bd de04 05be 8d83 a8bd 8609 483e
00000230: 09c0 03bd 7335 3c3c a879 c93e 11b4 09bf
00000240: 8382 1b3f 02fe 5ebe 1ce3 27bd e7e2 08be
00000250: 23da c2be d929 50be 3929 cdbe aa8c 47be
00000260: 5378 f6be 1f39 463c a13a d33e 34fc ebbe
00000270: fc49 64bc e7f7 f9be b710 85be 1318 2b3f
00000280: d2f9 c83c c1b4 1e3e 41f3 e63d 1dcd 9e3e
00000290: ac50 5fbe 1d00 cabd cd00 77be 5356 01be
000002a0: ad4f 1bbe 32dc eabe d0a3 0c3f dbb8 0e3e
000002b0: 9b61 203f d881 99be f87c 103d d4f3 b03e
000002c0: 4d7d d53d e514 083f 608c 9b3e fa06 1f3d
000002d0: 3c4a 08bf 1dad af3d 7e3d 1b3f 15f4 293e
000002e0: 6aa4 d2be 5fe5 243e 0f95 eabe 732d cf3d
000002f0: 6c94 7abe 30bd 07bf 9495 ae3e 0206 c6bc
00000300: f164 1a3f c1b5 84bd 0283 e53e 4665 32bf
00000310: fa78 b3bd 81e0 163f f2cf 50bc 6594 2bbf
00000320: 387a 3fbe 7191 6cbc cb87 8d3e 72f2 1a3e
00000330: 6897 0cbf 9fca 88bd 126e eebe dc54 833d
00000340: 7e86 dfbe ee0d a9be d72e 3b3f c554 f1ba
00000350: 6e72 bf3e a872 debb 2652 ed3e 8949 b4be
00000360: 1d35 11be e533 8b3e cc26 633f 8c27 1dbf
00000370: 2aa6 54be 7a26 47be 3939 833e fe8b a83e
00000380: 2bbd 8b3e 4f49 1d3d dbd1 b8be 928c 0cbc
00000390: cc70 e2be bd99 0e3f 4422 96bd 82f7 9a3d
000003a0: 4d17 95be 5c94 263f 805e 8c3e 31b0 76be
000003b0: df80 32be b83c 9f3e 6ce5 1b3e 64dd 4bbe
000003c0: 39c2 fcbd 760d 38be 70e3 0fbf eb2e 013e
000003d0: 9091 d33e 5d17 c8bd 6de8 65be 5b1a 50be
000003e0: f4c2 073e 3f0d ba3e d7f1 4d3e 0226 873c
000003f0: 18cf fb3c 0fad e23d 0140 4fbd 7b65 bf3e

rnnLayer.weight_hh_l0 f4 [20, 20]
0.8409411 -0.46682414 -0.018452356 0.2878163 0.036160596 -0.6298118 0.4416331 -0.7344404
0.5292794 0.15437971 0.010972682 -0.5820048 0.09697592 -0.7581288 -0.49193478 -0.007932916
0.2039111 0.146082 0.5834177 0.50484204 -0.27282697 0.25830954 -0.25025505 0.12022906
-0.50048983 -0.033111755 0.16153795 -0.47029105 0.35534936 0.44052735 0.1538307 -0.9216864
0.8208269 -0.07369109 0.38498122 -0.12335386 -0.04650758 -0.07321752 -0.4270525 -0.18486081
-0.6100834 -0.7758493 0.58200294 -0.56918275 0.08454813 -0.01081755 -0.6240944 0.20489927
-0.60693663 -0.6714432 -0.17602207 0.057595808 -0.59329957 0.34126726 0.34628424 -0.25249842
0.057488497 0.91279024 -0.17942746 0.06848225 -0.57916605 0.17726195 -0.33863676 0.5266373
0.826994 0.3131133 -0.21258406 -0.5604996 -0.18262698 -0.20597981 0.40382734 0.19117166
-0.10269058 -0.5402445 -0.9272894 0.77665985 0.3905256 0.3711693 0.01991792 0.008154435
-0.28969833 -0.4582147 -0.4952661 -0.011782138 -0.1476828 -0.6309751 0.66402227 -0.7488824
-1.0258262 -0.5170692 0.45490742 -0.5108064 0.48226252 0.2723536 0.10230091 0.5770045
-0.123996645 0.49882135 -0.6332358 0.1295288 0.5086592 0.15630451 -0.5572065 0.3992695
-0.23723458 0.23331173 0.06369883 -0.92519593 0.9139372 0.08114205 0.73987365 0.80495185
-0.21308729 -0.4901199 -0.50843924 -0.6935517 -0.38928133 -0.39451855 0.63581055 -0.07854902
0.31664157 -0.14631109 -0.030433381 0.53015316 0.24164738 -0.5776644 0.11007106 0.52429175
0.5537312 0.3142336 -0.1471396 0.7843499 -0.91526747 -0.7596051 -0.8095913 -0.09963666
0.19948812 0.23726925 0.8060875 -0.4621132 0.09680041 -0.8303323 0.80383396 0.08764612
0.68252635 -0.974559 -0.15099676 -0.5193917 -0.13832994 0.6475552 -0.51205236 -0.27735808
-0.27770662 -0.6309269 -0.7030752 -0.40772602 0.2557636 0.36271676 -0.29904413 -0.2633001
-0.34581476 0.63588375 0.7822652 -0.22636805 -0.5850207 0.3213753 0.114318624 -0.13643424
-0.37207934 0.10304467 -0.46704355 -0.9060051 0.24128121 0.41994607 0.25578284 -0.69004476
-0.2766682 0.47623292 -0.24222323 -0.985243 -0.43552968 -0.3346556 -0.75876683 0.8490141
0.05476875 0.35827237 -0.29372913 -0.111843824 -0.06779375 -0.2929648 -0.14235148 0.5874771
-0.55239606 -0.24693072 -0.0152307525 -0.4623644 0.9983719 0.8134197 -0.38619187 -0.23090215
-0.293548 0.43035623 -0.1892109 0.5714156 -0.3482174 0.38978654 -0.22734727 0.57745916
-0.27527803 -0.7964183 -0.73200715 0.31237823 0.1481854 -0.7723591 0.20755151 -0.8871114
0.5908638 -0.046831492 0.81689906 -0.6970637 -0.2651036 0.6485901 -0.071179695 0.15044124
-0.29689705 0.8309543 -0.22286518 0.49173412 -0.9853521 -0.6137132 -0.3607443 -0.26686406
0.10016086 0.31555775 -0.33501315 -0.77696323 0.072015755 1.1150022 0.28533363 -0.77918386
-0.20617911 -0.17659219 0.15895775 -0.24551022 -0.2191213 -0.31033152 -0.45411897 0.5417147
-0.05666175 -0.7244168 -0.23486194 0.33429357 -0.14274505 0.29807875 0.7206834 -0.65127623
00000000: ea47 573f 9303 efbe 6529 97bc a85c 933e
00000010: 221d 143d 593b 21bf bc1d e23e 4904 3cbf
00000020: db7e 073f b715 1e3e c4c6 333c 44fe 14bf
00000030: 509b c63d bb14 42bf e0de fbbe 10f9 01bc
00000040: 12ce 503e 8596 153e dd5a 153f 543d 013f
00000050: faaf 8bbe 2641 843e 6e21 80be a73a f63d
00000060: 1a20 00bf 31a0 07bd 346a 253e fdc9 f0be
00000070: 5af0 b53e cd8c e13e cc85 1d3e a4f3 6bbf
00000080: b621 523f 5beb 96bd 421c c53e f3a0 fcbd
00000090: bb7e 3ebd 11f3 95bd a0a6 dabe 274c 3dbe
000000a0: 6d2e 1cbf 0f9e 46bf 25fe 143f f6b5 11bf
000000b0: 9227 ad3d 183c 31bc a7c4 1fbf 1dd1 513e
000000c0: 3360 1bbf b4e3 2bbf 213f 34be 95e9 6b3d
000000d0: 7be2 17bf 95ba ae3e 2b4c b13e 7947 81be
000000e0: 0f79 6b3d 9fac 693f d5bb 37be 6c40 8c3d
000000f0: 3a44 14bf 2884 353e cc61 adbe b4d1 063f
00000100: e1b5 533f 6350 a03e a3af 59be e77c 0fbf
00000110: 9102 3bbe 5fec 52be 75c2 ce3e 81c2 433e
00000120: 704f d2bd 774d 0abf d762 6dbf 2ed3 463f
00000130: f9f2 c73e e709 be3e e82a a33c 2e9a 053c
00000140: 5753 94be 1e9b eabe 8593 fdbe de09 41bc
00000150: 293a 17be 9687 21bf 5dfd 293f c2b6 3fbf
00000160: 464e 83bf a65e 04bf a0e9 e83e 35c4 02bf
00000170: 1deb f63e ee71 8b3e 2483 d13d 91b6 133f
00000180: f4f1 fdbd 8365 ff3e be1b 22bf 33a3 043e
00000190: 7d37 023f 4a0e 203e 16a5 0ebf 0d6d cc3e
000001a0: 9fed 72be 45e9 6e3e 8874 823d a4d9 6cbf
000001b0: caf7 693f ce2d a63d 5c68 3d3f 5311 4e3f
000001c0: 8e33 5abe fff0 fabe 1329 02bf 9b8c 31bf
000001d0: e24f c7be 56fe c9be 7bc4 223f 4fde a0bd
000001e0: d81e a23e 93d2 15be 6d4f f9bc 1eb8 073f
000001f0: 6972 773e d0e1 13bf f06c e13d fc37 063f
00000200: 54c1 0d3f 3ae3 a03e c3ab 16be 28cb 483f
00000210: f84e 6abf 7b75 42bf 6041 4fbf 4e0e ccbd
00000220: 9d46 4c3e b6f6 723e c05b 4e3f 1a9a ecbe
00000230: 4b3f c63d a890 54bf 10c8 4d3f cf7f b33d
00000240: 0cba 2e3f b37c 79bf e59e 1abe dbf6 04bf
00000250: 5da6 0dbe 2dc6 253f dd15 03bf e101 8ebe
00000260: 902f 8ebe 6d84 21bf bcfc 33bf 77c1 d0be
00000270: 72f3 823e 03b6 b93e 501c 99be 45cf 86be
00000280: a20e b1be 47c9 223f 8842 483f 07cd 67be
00000290: ebc3 15bf 4e8b a43e e21f ea3d 6bb5 0bbe
000002a0: 2f81 bebe 1509 d33d 5520 efbe f3ef 67bf
000002b0: 6c12 773e 2c03 d73e f8f5 823e c6a6 30bf
000002c0: 74a7 8dbe cdd4 f33e 5e09 78be e338 7cbf
000002d0: bffd debe fb57 abbe 8b3e 42bf fd58 593f
000002e0: 3255 603d 7a6f b73e aa63 96be 600e e5bd
000002f0: 73d7 8abd 7bff 95be 96c4 11be e664 163f
00000300: d469 0dbf 68db 7cbe 688a 79bc 07bb ecbe
00000310: 4d95 7f3f 463c 503f f1ba c5be 9d71 6cbe
00000320: ec4b 96be a757 dc3e 81c0 41be 4b48 123f
00000330: 8d49 b2be 1a92 c73e b9cd 68be 5dd4 133f
00000340: 3ef1 8cbe 12e2 4bbf d264 3bbf 0af0 9f3e
00000350: eabd 173e 53b9 45bf 6288 543e bc19 63bf
00000360: da42 173f 61d2 3fbd 4c20 513f c472 32bf
00000370: a9bb 87be 000a 263f a9c6 91bd 450d 1a3e
00000380: e402 98be 6cb9 543f c536 64be 93c4 fb3e
00000390: 0940 7cbf 4f1c 1dbf 7ab3 b8be 68a2 88be
000003a0: 2321 cd3d c990 a13e d886 abbe 10e7 46bf
000003b0: ff7c 933d 64b8 8e3f 4017 923e 9878 47bf
000003c0: 9e20 53be 95d4 34be d2c5 223e 0867 7bbe
000003d0: 5661 60be c6e3 9ebe 4882 e8be d1ad 0a3f
000003e0: 2716 68bd 6173 39bf a67f 70be 8728 ab3e
000003f0: c22b 12be c79d 983e b57e 383f 0aba 26bf

rnnLayer.bias_ih_l0 f4 [20]
0.12868923 0.053276364 -0.28778002 -0.14545494 0.032057673 -0.21014832 0.38248193 0.016116062
0.069517 -0.03712978 -0.20474687 0.17016803 -0.15034553 0.19713283 -0.31924495 0.280647
0.1442097 0.14700133 -0.20627782 -0.05771566
00000000: 1cc7 033e 5138 5a3d e757 93be 24f2 14be
00000010: e84e 033d 1f31 57be acd4 c33e d505 843c
00000020: ee5e 8e3d 6515 18bd 2aa9 51be 8740 2e3e
00000030: 2ef4 19be 30dd 493e 1374 a3be f7b0 8f3e
00000040: b5ab 133e 8487 163e 7e3a 53be 4267 6cbd

rnnLayer.bias_hh_l0 f4 [20]
-0.04775333 0.23372006 -0.17144987 -0.1056958 -0.02836113 -0.26665214 0.5419342 0.056697175
-0.03901527 0.29069752 0.03752841 0.33528367 -0.20967779 0.061260954 -0.06048502 -0.0021781165
0.08159692 -0.048055027 0.008979662 -0.3098327
00000000: ff98 43bd 5054 6f3e 8e90 2fbe 0a77 d8bd
00000010: 9a55 e8bc a186 88be 33bc 0a3f 4c3b 683d
00000020: 7ace 1fbd 4ed6 943e 64b7 193d 4daa ab3e
00000030: c6b5 56be c4ec 7a3d 24bf 77bd bbbe 0ebb
00000040: 491c a73d 59d5 44bd 6f1f 133c 64a2 9ebe

outputLayer.weight f4 [8, 20]
-0.011105218 0.30229905 -0.0877825 -0.4784857 0.5195857 -0.5368314 -0.8396977 -0.8679525
0.8154517 -0.72342944 -0.88769275 0.5031098 -0.6008543 -0.5525576 -0.7503353 0.17887601
-0.25315857 0.5444769 0.23757689 -0.90351504 -0.5533326 0.8952123 -0.85866797 -0.69510925
-0.34141758 -0.2434374 -0.16518468 0.027770806 0.4407317 -0.633576 -0.64014965 -0.9074992
-0.8168373 -0.6406772 -0.6179784 0.91013145 0.9292659 -0.61087894 0.4748985 1.0172833
0.7657448 -0.6819283 -0.3562958 -0.45804742 -0.23556405 0.02954947 0.8331925 -0.015309885
-0.83963865 -0.6140583 -0.42021412 -0.7285902 0.1856588 0.0017208677 0.2087251 0.84010017
0.63555664 -0.49700624 0.13476822 -1.0803027 0.7027774 0.78371835 -0.70360684 0.97092545
0.5355041 0.768931 0.73273975 0.36279228 -0.7262651 0.7848927 -0.008019437 -0.15059686
-0.87557685 0.9290434 -0.3778461 -0.7777749 0.6789401 0.6906032 -0.6330255 0.46565443
-0.9390288 -0.64373976 0.69862545 0.8695781 -0.76240706 0.75743043 0.8360975 -0.16012372
-0.01821793 0.78436446 0.8306654 0.6162638 0.015215174 -0.7367149 0.624183 -0.7259224
-0.033269715 0.9097143 -0.8689633 0.32022193 -0.7051494 0.26919803 0.34571928 -0.6903969
0.48364365 -0.5459426 -0.1481201 -0.21621566 0.6556403 0.9489567 1.0536178 0.8889175
0.9442355 0.9801644 0.32315364 0.20775948 -0.11675562 0.6561625 -0.37893638 0.18219244
-0.9534756 -0.69834363 0.6701041 0.5885332 0.429961 -0.5780842 0.52013415 0.8391384
-0.56093293 -0.65021735 -0.22522163 0.7512205 0.92989784 0.39173874 0.75586337 0.096893
-0.9289962 -0.7290715 0.5550804 -0.59637666 -0.19772036 0.052275103 0.24528687 0.39747438
0.15343465 0.3843994 -0.51307267 0.019850856 -0.19202113 -0.3826671 0.059214298 -0.33860084
-0.20585915 0.1832512 0.5041166 -0.5023492 -0.41767412 -0.21326248 0.001005206 0.31091052
00000000: a9f2 35bc f1c6 9a3e 50c7 b3bd 14fc f4be
00000010: 9203 053f c86d 09bf 6ef6 56bf 2332 5ebf
00000020: 71c1 503f ac32 39bf d53f 63bf cecb 003f
00000030: 96d1 19bf 6a74 0dbf f915 40bf 462b 373e
00000040: 009e 81be d762 0b3f 5b47 733e c34c 67bf
00000050: 35a7 0dbf a22c 653f aad1 5bbf aef2 31bf
00000060: 49ce aebe a747 79be 2c26 29be 9a7f e33c
00000070: 96a7 e13e 0932 22bf d9e0 23bf de51 68bf
00000080: 401c 51bf 6c03 24bf d533 1ebf 60fe 683f
00000090: 5fe4 6d3f 9062 1cbf e525 f33e 5736 823f
000000a0: da07 443f da92 2ebf 676c b6be 3185 eabe
000000b0: b437 71be bb11 f23c 1b4c 553f 50d6 7abc
000000c0: 8ff2 56bf ed32 1dbf 4e26 d7be e384 3abf
000000d0: 571d 3e3e bd8e e13a 08bc 553e ce10 573f
000000e0: d7b3 223f 9a77 febe ae00 0a3e 5c47 8abf
000000f0: 38e9 333f c4a1 483f 941f 34bf 928e 783f
00000100: cc16 093f a9d8 443f d594 3b3f e9bf b93e
00000110: 82ec 39bf baee 483f f563 03bc 1036 1abe
00000120: ce25 60bf cad5 6d3f 0b75 c1be 411c 47bf
00000130: 05cf 2d3f 5fcb 303f f60d 22bf 426a ee3e
00000140: 3164 70bf 21cc 24bf 1ed9 323f ac9c 5e3f
00000150: 1c2d 43bf f6e6 413f 7c0a 563f 79f7 23be
00000160: c53d 95bc 1ccc 483f 7da6 543f 77c3 1d3f
00000170: 1149 793c 5999 3cbf 75ca 1f3f 0dd6 39bf
00000180: d345 08bd 09e3 683f 6174 5ebf 21f4 a33e
00000190: ac84 34bf 53d4 893e 1e02 b13e dabd 30bf
000001a0: 24a0 f73e e5c2 0bbf ccac 17be a367 5dbe
000001b0: 0bd8 273f d4ee 723f f3dc 863f 1990 633f
000001c0: 6bb9 713f 0eec 7a3f 6574 a53e e7be 543e
000001d0: 921d efbd 44fa 273f f303 c2be a890 3a3e
000001e0: fa16 74bf a6c6 32bf f18b 2b3f 1daa 163f
000001f0: d923 dc3e 53fd 13bf 8327 053f c6d1 563f
00000200: 4d99 0fbf a574 26bf 80a0 66be fd4f 403f
00000210: c90d 6e3f fb91 c83e 4380 413f d66f c63d
00000220: b2d2 6dbf 6ea4 3abf c019 0e3f 24ac 18bf
00000230: 3577 4abe 6b1e 563d 7b2c 7b3e c381 cb3e
00000240: f91d 1d3e 00d0 c43e bb58 03bf 439e a23c
00000250: 30a1 44be f1ec c3be b18a 723d 175d adbe
00000260: becc 52be 34a6 3b3e c90d 013f f599 00bf
00000270: 62d9 d5be 7b61 5abe 1ec1 833a aa2f 9f3e

outputLayer.bias f4 [8]
0.338423 0.011812159 0.36041856 0.1748714 0.28100806 0.13787547 -0.2229221 -0.14814141
00000000: c845 ad3e c987 413c c888 b83e 7d11 333e
00000010: 4ae0 8f3e 3a2f 0d3e b145 64be 62b2 17be
