dataModel/model_GRUA_min_20_max_20_rep_23.model (torch, 641848 bytes, 15 tensors)

weight f4 [3, 3]
-0.75775933 -0.7852041 0.009686254 -1.3921789 0.3686492 -1.3547422 -0.395095 0.17043467
-0.7502141
00000000: 84fc 41bf 2303 49bf 18b3 1e3c eb32 b2bf
00000010: 97bf bc3e 3168 adbf e449 cabe 6d86 2e3e
00000020: 080e 40bf

bias f4 [3]
0.3663856 -0.16321413 0.3814489
00000000: e596 bb3e 9b21 27be 454d c33e

weight f4 [3, 3]
-0.10538794 -0.118780285 -0.32437995 -0.67716306 0.80693084 0.14674048 -0.23237358 -0.32188034
0.9406777
00000000: a2d5 d7bd 1443 f3bd 2115 a6be 8f5a 2dbf
00000010: 0593 4e3f 2343 163e 57f3 6dbe 80cd a4be
00000020: 41d0 703f

bias f4 [3]
-0.42700595 0.4489502 -0.2749651
00000000: 86a0 dabe cddc e53e 3ac8 8cbe

weight f4 [3, 3]
0.98315644 -0.17392021 0.6502374 -1.2454616 -1.7952852 -0.46248916 -1.7123255 0.0555604
0.32201543
00000000: 24b0 7b3f 2418 32be f575 263f 496b 9fbf
00000010: e8cb e5bf 61cb ecbe 7b2d dbbf 4d93 633d
00000020: 35df a43e

bias f4 [3]
-0.49909285 0.31494847 -0.19699702
00000000: 1989 ffbe ed40 a13e 96b9 49be

weight f4 [12, 3]
0.3196707 -0.6692646 -0.4619296 -0.3764443 0.93718374 0.4014369 -0.25730485 0.14612056
0.6042921 0.34848708 -0.49986446 0.07725262 -0.45513427 -0.010651378 0.77756464 0.45305926
0.7768769 0.17508294 -0.3491915 -1.0851475 0.0913394 0.19678839 0.03197543 -0.12726642
0.32888004 0.22082159 -0.58580756 0.38575175 -0.607819 -0.40404096 -0.15528344 0.19562969
0.6712181 -0.5846902 0.3077586 0.24606556
00000000: e1ab a33e ed54 2bbf 0982 ecbe 4fbd c0be
00000010: 46eb 6f3f 2389 cd3e 76bd 83be a1a0 153e
00000020: e3b2 1a3f e66c b23e 3cee ffbe 9f36 9e3d
00000030: 5c07 e9be 1e83 2ebc 7a0e 473f 62f7 e73e
00000040: 68e1 463f f148 333e 3ac9 b2be 1de6 8abf
00000050: 2710 bb3d e582 493e abf8 023d 2152 02be
00000060: f762 a83e 0e1f 623e 7cf7 15bf 4181 c53e
00000070: 079a 1bbf 75de cebe 9f02 1fbe 2653 483e
00000080: f3d4 2b3f 42ae 15bf 8992 9d3e 9cf8 7b3e

bias f4 [12]
0.040849715 -0.46503514 -0.4897046 -0.13543698 -0.20623507 -0.38394853 0.43263617 -0.542317
-0.24458416 -0.027536353 0.02794031 -0.48027605
00000000: 0852 273d 1619 eebe 90ba fabe feaf 0abe
00000010: 492f 53be e794 c4be 7d82 dd3e 49d5 0abf
00000020: 4574 7abe eb93 e1bc 14e3 e43c bee6 f5be

weight_ih_l0 f4 [36, 12]
-0.5776875 0.39231265 -0.3463724 -0.38210997 0.2318699 0.17489614 0.20026997 -0.031989872
-0.24059246 -0.2665361 0.45947745 -0.08456827 -0.38249534 -0.0056347265 -0.5752632 -0.4898974
-0.66508603 -0.10023311 -0.027300613 -0.17652681 -0.09997414 -0.17945641 0.18138005 -0.56954825
0.109142944 -0.22484404 -0.33009768 -0.029892389 -0.33252063 -0.23305713 0.4425235 -0.45928687
-0.42052326 -0.39664853 -0.3990512 -0.04390809 0.02415041 0.008595009 0.21851406 -0.18602161
-0.30249777 0.19322567 0.12112204 0.11749011 0.10376729 0.23694515 0.1957569 -0.17740685
-0.3838002 0.070617706 -0.46692413 -0.1002982 -0.1639769 0.02537258 0.12637576 0.024967693
0.057859775 -0.05810747 -0.49967676 -0.100131676 0.3075446 -0.20322578 0.11917228 -0.28428572
0.10162426 -0.15755212 0.28469798 -0.3579858 -0.26907292 0.22199678 -0.50140357 -0.35042852
-0.4329558 -0.42919645 -0.44977114 -0.090375945 -0.8734436 -0.18710127 0.6415925 -0.26698568
-0.49429357 -0.5151182 -0.3381946 -0.69261765 -0.30758917 0.20350838 0.18097326 -0.11424543
0.10489797 -0.13280286 -0.25253683 0.013854274 0.2556634 0.17819792 -0.055459924 0.10642227
-0.73609626 -0.12117449 -0.13839199 -0.535542 -0.09258395 -0.063741945 -0.22466616 -0.005019051
0.010922259 -0.5261127 0.10103412 -0.19975995 -0.044837512 -0.3386054 -0.2430961 -0.22337441
-0.003117188 -0.17345479 -0.01002409 -0.06247717 -0.02851348 -0.06815143 -0.057062253 -0.19095114
-0.25380284 -0.99556714 -0.22690557 0.04402427 0.044462427 -0.18288192 0.4123424 -0.0017828449
-0.17974502 -0.20987768 -0.59025896 -0.5579161 0.26706937 -0.2448305 0.13781738 0.055556487
-0.33504748 -0.3080269 -0.06599786 -0.3496103 -0.27751026 0.29030824 -0.534337 -0.063538074
0.10255678 0.2124793 0.24613184 0.27275237 0.15011567 -0.062032618 -0.022177916 0.22351424
-0.09393873 0.18667403 0.17526765 -0.17414834 -0.25286543 0.17957903 -0.26284602 0.04884174
-0.06216668 -0.09355036 0.02488181 0.19889636 0.14928482 -0.053796135 0.059665676 0.05480829
0.28529269 -0.29627183 -0.13597457 -0.09111661 -0.025703806 -0.016980818 -0.11349069 0.29859874
0.31364873 0.028148482 -0.18107095 0.22964224 0.16289228 0.20957747 0.05565612 0.297355
0.15949914 0.07221173 -0.116899684 0.24253084 -0.018440664 0.30779588 -0.00812196 -0.051587705
-0.16173 0.055251785 -0.43455848 -0.38087925 -0.13345185 0.1507472 0.28011143 -0.22219732
-0.26282027 -0.4392309 -0.03034293 -0.21131729 -0.10849859 0.37367186 0.490303 0.32430446
0.3199212 -0.058608424 -0.1836944 -0.08239513 0.46491438 -0.09394825 0.009603082 0.35270464
0.08798492 -0.12269447 -0.20936738 0.21839565 0.13951142 -0.112443574 0.124040514 -0.16337547
0.20661056 -0.14342688 -0.27150452 0.10405141 0.007895036 0.23572259 0.23132657 0.16234705
-0.1176764 0.24613969 0.14346588 0.18036167 0.15590273 -0.20603302 0.1781916 -0.017586287
0.13551834 -0.06059557 0.29939294 0.21438265 0.42753753 -0.05535199 0.025887152 0.17840649
0.029340949 -0.09477505 0.14963423 -0.08852909 -0.27979982 0.08657015 -0.20285231 -0.19825949
00000000: 54e3 13bf 34dd c83e b957 b1be eba3 c3be
00000010: 4e6f 6d3e f917 333e 9213 4d3e d007 03bd
00000020: df5d 76be 6b77 88be a140 eb3e 2132 adbd
00000030: 6ed6 c3be 83a3 b8bb 7344 13bf d5d3 fabe
00000040: 1443 2abf 0447 cdbd 89a5 dfbc 72c3 34be
00000050: 3ebf ccbd 6cc3 37be b1bb 393e eacd 11bf
00000060: 5686 df3d 843d 66be 9002 a9be e2e0 f4bc
00000070: 2540 aabe 87a6 6ebe 7192 e23e a627 ebbe
00000080: d34e d7be 8415 cbbe 7050 ccbe f8d8 33bd
00000090: 15d7 c53c 15d2 0c3c 26c2 5f3e 737c 3ebe
000000a0: fde0 9abe f3dc 453e d50e f83d a89e f03d
000000b0: f283 d43d c0a1 723e 7f74 483e 24aa 35be
000000c0: 7681 c4be 04a0 903d ae10 efbe 2569 cdbd
000000d0: 8fe9 27be 28da cf3c a668 013e 0c89 cc3c
000000e0: 5ffe 6c3d 1902 6ebd a2d5 ffbe d611 cdbd
000000f0: 7c76 9d3e 6b1a 50be 9910 f43d e68d 91be
00000100: 6120 d03d 5855 21be efc3 913e ea49 b7be
00000110: edc3 89be 2053 633e fc5b 00bf 5e6b b3be
00000120: 62ac ddbe a3bf dbbe 6748 e6be 0617 b9bd
00000130: 009a 5fbf 7a97 3fbe 683f 243f 59b2 88be
00000140: 0c14 fdbe c9de 03bf d827 adbe 644f 31bf
00000150: 547c 9dbe 8064 503e 0e51 393e 82f9 e9bd
00000160: bfd4 d63d 79fd 07be 824c 81be 09fd 623c
00000170: 50e6 823e 8479 363e f229 63bd ebf3 d93d
00000180: ce70 3cbf 552a f8bd a1b6 0dbe 4819 09bf
00000190: a79c bdbd 238b 82bd e30e 66be da76 a4bb
000001a0: 46f3 323c 52af 06bf faea ce3d df8d 4cbe
000001b0: 8aa7 37bd b05d adbe 2fee 78be 43bc 64be
000001c0: bd49 4cbb 229e 31be 153c 24bc 10e8 7fbd
000001d0: 1a95 e9bc fa92 8bbd 1cba 69bd b288 43be
000001e0: 72f2 81be 7ddd 7ebf ef59 68be cb52 343d
000001f0: 3c1e 363d 6645 3bbe 8b1e d33e 59ae e9ba
00000200: 140f 38be 2dea 56be 361b 17bf 97d3 0ebf
00000210: 51bd 883e d9b4 7abe 0020 0d3e 338f 633d
00000220: 588b abbe b4b5 9dbe e329 87bd 1f00 b3be
00000230: d315 8ebe 48a3 943e 4fca 08bf 4020 82bd
00000240: 4a09 d23d 2c94 593e fc09 7c3e 33a6 8b3e
00000250: ecb7 193e ea15 7ebd 76ae b5bc ebe0 643e
00000260: f362 c0bd 7a27 3f3e 5d79 333e f153 32be
00000270: 9477 81be 91e3 373e c193 86be 470e 483d
00000280: 7da2 7ebd 5597 bfbd f0d4 cb3c 7dab 4b3e
00000290: 1fde 183e 5659 5cbd ff63 743d a87e 603d
000002a0: e211 923e f1b0 97be eb3c 0bbe 589b babd
000002b0: ca90 d2bc 5b1b 8bbc cf6d e8bd efe1 983e
000002c0: 9196 a03e a597 e63c aa6a 39be 5627 6b3e
000002d0: 3ccd 263e 7a9b 563e acf7 633d ea3e 983e
000002e0: be53 233e bee3 933d 1a69 efbd 015a 783e
000002f0: e010 97bc 6c97 9d3e f811 05bc a14d 53bd
00000300: 8d9c 25be b24f 623d 737e debe 9b02 c3be
00000310: 9aa7 08be 795d 1a3e c46a 8f3e b287 63be
00000320: 6190 86be dfe2 e0be bd91 f8bc 8f63 58be
00000330: 8234 debd eb51 bf3e ff08 fb3e 3c0b a63e
00000340: b6cc a33e 630f 70bd 631a 3cbe c7be a8bd
00000350: 4209 ee3e f167 c0bd 3f56 1d3c b495 b43e
00000360: 7031 b43d 3d47 fbbd 6764 56be 1ca3 5f3e
00000370: 15dc 0e3e d148 e6bd f408 fe3d e64b 27be
00000380: b891 533e 7fde 12be a402 8bbe e818 d53d
00000390: 2e5a 013c 4361 713e dfe0 6c3e 4e3e 263e
000003a0: 5300 f1bd 0b0c 7c3e b8e8 123e bbb0 383e
000003b0: f7a4 1f3e 52fa 52be dc77 363e 1e11 90bc
000003c0: 52c5 0a3e 0f33 78bd 084a 993e 2087 5b3e
000003d0: 33e6 da3e c5b8 62bd 4b11 d43c 31b0 363e
000003e0: 6e5c f03c 6c19 c2bd b739 193e bd4e b5bd
000003f0: ec41 8fbe b14b b13d 84b8 4fbe 8904 4bbe

weight_hh_l0 f4 [36, 12]
0.1387942 0.47144568 -0.014616302 -0.36979496 0.12184542 -0.04224913 -0.26279005 -0.07209847
0.18275212 -0.15763552 0.26792037 0.49565086 0.37864435 0.4634863 -0.019096674 -0.09603136
0.20501 -0.15765941 -0.16919208 0.017759997 -0.084111415 0.006308332 -0.12003472 0.31438467
-0.0055758194 0.012891495 -0.3975709 -0.02647044 0.02880025 0.01455405 -0.16079369 -0.09379947
-0.29119498 -0.40402347 -0.07221826 -0.39135867 0.1393015 0.21001382 -0.01728485 -0.10905856
0.2047798 -0.030558277 0.16881263 -0.04537084 0.0080594355 -0.30157393 0.08001669 0.028333561
-0.45217407 0.25535092 -0.3731854 0.20702153 -0.24157935 -0.23436353 0.25324574 -0.47598928
0.19536005 -0.47566387 -0.18404536 -0.08871361 0.49326652 -0.27142036 -0.34415817 0.21630743
-0.36971357 0.13450094 -0.12799563 0.28507012 -0.5252117 -0.19381844 -0.25031468 -0.34035882
0.8440926 -0.5582553 -0.5253636 0.0008289469 -0.20640303 -0.0038018122 -0.21466951 0.35835916
-0.21120489 -0.5397999 -0.19466102 -0.09213695 0.1355421 -0.22508606 -0.044484485 0.1511034
0.030178068 0.35791922 0.18461668 0.0528405 -0.0041604047 -0.1508703 0.10490558 0.27678233
-0.13158761 0.033369757 0.26108393 0.05255446 0.107146494 -0.14174312 -0.15841219 -0.08528028
0.020749504 -0.06632545 0.051407088 0.21490203 0.27075103 -0.15305814 0.008100074 0.13275567
-0.16242506 0.1142226 0.12517127 0.30067617 -0.18471754 0.22845967 0.06463931 -0.14262694
0.7148083 -0.7742891 -0.4188885 0.20564094 -0.14199536 -0.24580336 0.15130019 0.2669806
-0.51330364 0.19607584 0.1604911 -0.5300559 -0.04406987 -0.39479116 -0.08771762 -0.014126671
-0.21214196 0.10865903 -0.268214 0.17833164 -0.07960443 0.14763795 -0.095226504 -0.33179018
0.31497046 0.026776694 0.2732686 0.2460306 0.3249792 -0.047554187 -0.06313893 0.001956762
0.04015619 0.40380132 0.39269194 0.36451498 0.061931666 -0.13383378 0.043235783 0.09595316
0.04562386 0.2254809 0.08818808 0.1579223 -0.2340256 -0.22326575 -0.0687065 0.24743378
0.21126166 -0.030391186 -0.09897549 -0.31818065 -0.012745818 -0.26174775 0.06909742 0.20334494
0.20436664 -0.15893015 0.08038528 -0.25715873 -0.24381578 -0.14328933 0.11003294 -0.017277127
-0.09291082 -0.1229835 0.2893475 0.028630318 0.030987406 0.29616508 -0.11839616 0.12577192
-0.07767808 0.096337706 -0.18878156 -0.25699872 -0.035368066 -0.17165911 0.101028964 0.24931388
-0.38575363 0.055412028 -0.18459626 -0.15478216 -0.0500352 0.7823163 0.26621643 -0.09428434
0.29927397 0.13395625 -0.077133454 -0.08903543 0.4700317 0.07509825 -0.087436855 0.35909322
-0.3194533 0.088729866 -0.12342115 -0.24087033 -0.34783968 -0.09088069 -0.76060504 0.3761938
0.49864414 -0.15194134 -0.28894123 -0.44322416 -0.030969277 0.2061964 -0.12423975 -0.012804894
-0.15278317 -0.3939819 -0.27148554 -0.0597355 0.2924909 0.059318133 -0.32384658 -0.22061823
-0.23800159 -0.19881764 0.14845692 0.043552592 0.01913833 0.10307423 -0.035452742 -0.4531746
0.17278044 0.4296495 0.19173366 0.45369157 0.35195854 -0.50752145 0.47649258 -0.23222874
00000000: 1120 0e3e 5461 f13e 3779 6fbc c455 bdbe
00000010: 178a f93d 6c0d 2dbd 6b8c 86be 5da8 93bd
00000020: 5f23 3b3e 356b 21be dc2c 893e f3c5 fd3e
00000030: acdd c13e 144e ed3e a170 9cbc 17ac c4bd
00000040: 24ee 513e 7871 21be b040 2dbe 6a7d 913c
00000050: 9b42 acbd 20b6 ce3b c3d4 f5bd 07f7 a03e
00000060: 5db5 b6bb d936 533c 6a8e cbbe 89d8 d8bc
00000070: 80ee eb3c 1c74 6e3c 1aa7 24be f019 c0bd
00000080: 8217 95be 2adc cebe 2be7 93bd 2a60 c8be
00000090: 0da5 0e3e dd0d 573e f598 8dbc 185a dfbd
000000a0: ccb1 513e 5a55 fabc 38dd 2c3e c6d6 39bd
000000b0: b90b 043c e667 9abe cadf a33d c91b e83c
000000c0: 5c83 e7be 5bbd 823e 2812 bfbe 74fd 533e
000000d0: 9460 77be fefc 6fbe 6da9 813e deb4 f3be
000000e0: 770c 483e 378a f3be 6376 3cbe 7baf b5bd
000000f0: 6e8d fc3e 9cf7 8abe 8035 b0be b27f 5d3e
00000100: 194b bdbe 9dba 093e 4911 03be b6f4 913e
00000110: 4674 06bf 5778 46be 3f29 80be 8343 aebe
00000120: 7416 583f d2e9 0ebf 3b7e 06bf af4d 593a
00000130: 515b 53be d327 79bb 53d2 5bbe da7a b73e
00000140: 1846 58be 5430 0abf 3855 47be 4cb2 bcbd
00000150: 8ccb 0a3e f67c 66be 5d35 36bd daba 1a3e
00000160: ff37 f73c 3041 b73e 280c 3d3e 486f 583d
00000170: 0154 88bb be7d 1abe bdd8 d63d 6ab6 8d3e
00000180: e7be 06be baae 083d cbac 853e 5843 573d
00000190: 9f6f db3d 1c25 11be ce36 22be 6da7 aebd
000001a0: ddfa a93c a3d5 87bd 3d90 523d 470f 5c3e
000001b0: e19f 8a3e 46bb 1cbe 2cb6 043c 1af1 073e
000001c0: c152 26be 8aed e93d e62c 003e 3af2 993e
000001d0: 9826 3dbe 55f1 693e 9d61 843d cc0c 12be
000001e0: adfd 363f cf37 46bf 8e78 d6be 8a93 523e
000001f0: 3b67 11be e0b3 7bbe 70ee 1a3e aeb1 883e
00000200: de67 03bf 1bc8 483e c757 243e beb1 07bf
00000210: 9c82 34bd 1122 cabe 4ca5 b3bd 8d73 67bc
00000220: be3b 59be a088 de3d 5853 89be 929c 363e
00000230: a607 a3bd 672e 173e 1d06 c3bd 67e0 a9be
00000240: cf43 a13e cc5a db3c dde9 8b3e 72ef 7b3e
00000250: ac63 a63e 2ec8 42bd fc4e 81bd 053d 003b
00000260: d17a 243d 0cbf ce3e eb0e c93e b5a1 ba3e
00000270: 0fac 7d3d b90b 09be 0118 313d 1783 c43d
00000280: 16e0 3a3d 77e4 663e f49b b43d 62b6 213e
00000290: 68a4 6fbe c79f 64be feb5 8cbd 485f 7d3e
000002a0: fa54 583e f0f6 f8bc a9b3 cabd 93e8 a2be
000002b0: d6d3 50bc cd03 86be f382 8d3d a839 503e
000002c0: 7d45 513e 96be 22be 0aa1 a43d 4faa 83be
000002d0: d8aa 79be 70ba 12be f358 e13d c388 8dbc
000002e0: 0748 bebd c6de fbbd 5b25 943e 218a ea3c
000002f0: 4dd9 fd3c f3a2 973e b079 f2bd 5bca 003e
00000300: af15 9fbd b44c c53d f44f 41be 5695 83be
00000310: 1bde 10bd 68c7 2fbe 46e8 ce3d 234c 7f3e
00000320: 8081 c5be b9f7 623d cd06 3dbe 377f 1ebe
00000330: b6f1 4cbd e245 483f 854d 883e 2618 c1bd
00000340: 703a 993e d42b 093e 25f8 9dbd 3558 b6bd
00000350: ffa7 f03e 1ccd 993d 1812 b3bd 11db b73e
00000360: 628f a3be 01b8 b53d 3ac4 fcbd b6a6 76be
00000370: 0b18 b2be a81f babd 03b7 42bf 799c c03e
00000380: 494e ff3e 8396 1bbe 1bf0 93be 47ee e2be
00000390: 48b3 fdbc 2625 533e 6971 febd 9ecb 51bc
000003a0: 3173 1cbe ffb7 c9be 2700 8bbe 36ad 74bd
000003b0: 5ec1 953e 92f7 723d 38cf a5be bfe9 61be
000003c0: b0b6 73be da96 4bbe 1705 183e 3464 323d
000003d0: fdc7 9c3c 9518 d33d e536 11bd 8006 e8be
000003e0: 5bed 303e 05fb db3e d455 443e 434a e83e
000003f0: e933 b43e edec 01bf d6f6 f33e 5fcd 6dbe

bias_ih_l0 f4 [36]
0.2672747 0.028650988 0.25175458 -0.28113428 0.23433688 0.05535051 0.58517265 0.027753437
0.38691795 0.28068933 0.1833872 -0.11559472 -0.007242529 -0.17277014 -0.2448312 -0.099137984
-0.049995463 -0.28416663 -0.1542903 0.0064859637 -0.31779733 -0.21661742 -0.42221797 0.09561479
-0.0396931 -0.15746059 0.11517599 0.0038656704 0.16341971 0.3309789 0.16815406 -0.001843051
-0.25247988 -0.0026466895 -0.21740684 0.15851778
00000000: 3bd8 883e 7ab5 ea3c fae5 803e d5f0 8fbe
00000010: 02f6 6f3e 37b7 623d e0cd 153f 2d5b e33c
00000020: 1c1a c63e 83b6 8f3e dbc9 3b3e edbc ecbd
00000030: bd52 edbb a8ea 30be 08b5 7abe db08 cbbd
00000040: 0bc8 4cbd 4a7e 91be 47fe 1dbe 3588 d43b
00000050: 55b6 a2be f5d0 5dbe f42c d8be b0d1 c33d
00000060: 3b95 22bd 593d 21be 64e1 eb3d 3057 7d3b
00000070: 7f57 273e 1176 a93e 9430 2c3e 8892 f1ba
00000080: 0b45 81be 1574 2dbb e69f 5ebe 7c52 223e

bias_hh_l0 f4 [36]
0.16992944 0.5044805 0.29313728 0.0030894172 0.053870615 0.06714647 0.20028381 0.049503975
0.17029846 0.4028926 0.08502192 0.11367639 0.0166969 -0.057596486 -0.13912031 -0.2243322
0.24831973 -0.114671275 0.0738847 -0.137344 -0.0814814 -0.28711265 -0.26965338 0.04305273
-0.1656658 0.2443527 -0.049040142 0.24488394 -0.0760667 -0.14207089 -0.018766185 0.0299207
0.084930606 -0.1931567 0.007565741 -0.3080662
00000000: fc01 2e3e a225 013f 1716 963e d277 4a3b
00000010: 6fa7 5c3d 1784 893d 3317 4d3e aec4 4a3d
00000020: b862 2e3e f047 ce3e f91f ae3d 2bcf e83d
00000030: f0c7 883c 4bea 6bbd 8e75 0ebe 57b7 65be
00000040: 8747 7e3e c6d8 eabd dd50 973d e8a3 0cbe
00000050: b8df a6bd 6e00 93be 0210 8abe 0f58 303d
00000060: 4ca4 29be 9837 7a3e 51de 48bd dbc2 7a3e
00000070: dcc8 9bbd 087b 11be 8bbb 99bc 411c f53c
00000080: 19f0 ad3d dfca 45be 09ea f73b daba 9dbe

weight f4 [3, 12]
-0.19831139 0.073497154 -0.9970544 0.619955 -0.7591386 -0.5500785 -0.30197096 0.046079572
0.19591177 -0.41677162 -0.49645242 -0.20985357 0.4355416 -0.91472274 0.05797842 -0.23570594
-0.14584641 -0.14235888 -0.2904021 0.16033587 -0.5327007 0.31636924 -0.008163101 -0.2959628
0.5116403 0.05311076 -0.25017196 0.30005443 -0.11386891 0.19005665 0.5256307 -0.21464168
-0.24493295 -0.2744715 0.14462933 0.056646347
00000000: 2412 4bbe ad85 963d f53e 7fbf 5fb5 1e3f
00000010: e856 42bf f2d1 0cbf f09b 9abe efbd 3c3d
00000020: 189d 483e 1763 d5be 032f febe dbe3 56be
00000030: 4fff de3e 452b 6abf c87a 6d3d e65c 71be
00000040: c358 15be 87c6 11be 96af 94be 162f 243e
00000050: 135f 08bf 26fb a13e 87be 05bc 7088 97be
00000060: dcfa 023f ab8a 593d 8a16 80be bca0 993e
00000070: 1a34 e9bd 369e 423e bc8f 063f 07cb 5bbe
00000080: b4cf 7abe 8787 8cbe b619 143e 0006 683d

bias f4 [3]
-0.15564866 -0.063098006 -0.16235813
00000000: 5d62 1fbe 8739 81bd 3641 26be

h0 f4 [1, 1, 12]
0.7363532 -0.78207046 -0.9638042 0.06245535 -0.8667176 -0.9658057 -0.98996794 0.30990312
-0.7193567 -0.26028475 -0.9907896 -0.89356107
00000000: a581 3c3f c535 48bf dfbb 76bf 2ed1 7f3d
00000010: 34e1 5dbf 0b3f 77bf 8a6e 7dbf 9fab 9e3e
00000020: c327 38bf 0b44 85be 63a4 7dbf 6bc0 64bf
