dataModel/model_GRU_min_30_max_35_rep_9.model (torch, 450827 bytes, 9 tensors)

weight f4 [12, 3]
00000000: ae88 523f 9a52 a33f 5f7a 23bf 2fce e5be
00000010: d916 a4bf 5021 063e 2afd 80bf 0ad9 20bf
00000020: def8 e1be a9ce a9bf 4d8a 643f 93c9 26bf
00000030: 728c 503f bf0e 973f 7f6b c6be 71c1 bebf
00000040: 321e 51be 8a83 9dbe 9706 acbf c411 143f
00000050: 7747 c6be 03f9 7b3f bfdc b0bf 28a8 2dbe
00000060: 2a4a 55bf b031 843f 30b2 503f 7246 b0be
00000070: 97ac 62bf a821 99bc 3279 ba3f c2ed 663f
00000080: c729 9d3e c190 553f 314a d6be b2cc 2abf
0.82239807 1.2759583 -0.638586 -0.44883868 -1.2819473 0.13098645 -1.007726 -0.62831175
-0.44135183 -1.3266193 0.8927353 -0.6515133 0.814643 1.1801375 -0.38753888 -1.4902784
-0.20421675 -0.3076442 -1.3439511 0.5783961 -0.38726398 0.98426837 -1.3817366 -0.16958678
-0.8331629 1.0327663 0.8152189 -0.34428746 -0.885446 -0.018692806 1.4568236 0.9020654
0.30695936 0.83424 -0.4185348 -0.6671859

bias f4 [12]
00000000: a55d 9e3d 688f 0dbf d51f 383d 76c1 b83e
00000010: a1dc 003f 68d5 d93e 789c f23e a41d 103e
00000020: 01e4 533e 27e9 f3be b9b9 9c3c 50c9 f4bd
0.07732705 -0.55296946 0.044952232 0.360851 0.50336653 0.4254563 0.47385 0.14073807
0.20692445 -0.4763882 0.019131528 -0.1195246

weight_ih_l0 f4 [36, 12]
00000000: e9cd 023e 5aeb e8be 02f2 163e e762 e03e
00000010: c947 d53e a792 3ebd 2b9d 133e 5e05 dfbd
00000020: e072 883e 1361 9ebe 9e53 4c3d 2eb2 4b3d
00000030: 4b06 0d3f dcc2 3bbf 036d d9be 73d5 cd3e
00000040: f130 003f e52b 8d3e 859f 043e 5b85 923e
00000050: 0626 fd3e 4715 27be ee8b 473f 7923 70be
00000060: 0865 143f 0c1f 4abe c5d4 833f 3948 0b3f
00000070: 7aff c73e eac1 c63e 0f0b d03d 2266 dcbd
00000080: e713 4bbf 357d 1abe 8401 44bf 3039 263f
00000090: 3eee 9b3e f287 9dbd 9c9e b33e d54f d0bc
000000a0: 136e 073e b207 6b3e 2682 ca3e 9cf6 4ebd
000000b0: 8dd1 86be dfc7 a9bd 3e0d d03d 7130 0c3e
000000c0: cae3 c03d 1917 0dbf 354f 06be 51ca bd3e
000000d0: 4705 073e 753c 403e bba2 4cbc eeca dcbc
000000e0: 2c33 e63e 4ee5 02bf 3aa9 183f 0c7f 06be
000000f0: 8362 8e3e 59ef f7be f945 c13b aa74 bb3e
00000100: 5fff 853d efd3 593e c3af 993e 51c3 6c3e
00000110: 4324 113e 30c6 23bd 2e7d 963e 7c55 02be
00000120: 8502 95bd ec18 b2be 0010 54be d617 763e
00000130: 30a1 7a3e 612e 17bc c173 fd3d 1e8b 2cbe
00000140: 3867 833e d907 c7be 8a72 f83e b354 23be
00000150: 40a5 f23e 1534 bdbe d7b1 e43e ab88 b63e
00000160: 9b0e c1bd 74e4 a63e 46c5 c83e 85b1 01be
00000170: 4f74 113e 672d 2bbd 1a96 70bd 64a6 893e
00000180: 2284 933d d6c6 edbe 4c0c b13d 4119 113e
00000190: 09ca e83d ad67 e33e 471a 993d d9eb 4b3d
000001a0: 8673 af3e 129f c0be 7528 25be f937 22be
000001b0: f593 febe 3774 f2bd 933e 803f 6a0e a73e
000001c0: 3789 9c3e ad8b 023f 180d 233f ac6f 90be
000001d0: 5ab4 333f 3700 ccbe 386c 50bf 5631 4dbf
000001e0: 8148 093e 7bf5 0dbf f2b2 a53d dbdd 053f
000001f0: 2665 873e 6aac 923e 4e12 e03e ebfe 82bd
00000200: c41f 043e 0c10 58be f18b 5d3e 8d02 1d3e
00000210: 3ba5 a6bd c610 5ebe c7c9 b4be caab 6a3e
00000220: 61a8 debd 03f8 59be 8bf0 30be f92e 8abd
00000230: 20d2 983e 89f5 db3d ece9 193e e242 6a3b
00000240: 5f05 453e e633 583e 9b17 1ebe fca3 44bd
00000250: 8c55 c03d e344 fcbc 35ac 643e 4c25 093d
00000260: 0459 3f3d 2eee f93d 9704 3d3e df6c 06be
00000270: ad4d ad3e 9d8f e83d 5ac8 06be dda9 c3bd
00000280: a96c edbd 3066 5dbe c2fa 87be 99e6 9dbd
00000290: ed0d 943d 4fc9 a13d 4b3b fe3e bb4d 03bd
000002a0: d9a9 aabd 9653 903e 6f50 683e 9448 b33d
000002b0: ad8b fb3c f7bd 17be d525 723e 827e 0a3e
000002c0: 6100 e3bd c184 a33e aab4 94be f2a3 bbbd
000002d0: 838e 8abe c0b6 733e 058a 013e d83b 92be
000002e0: 8579 c4be 7552 e43d 281f c1be cfdd e0bd
000002f0: 8753 cdbc f113 6a3e 4bca 4f3e 8ca4 5f3e
00000300: e970 e03e e4dc e1be af6d 45be 40e5 0e3f
00000310: c798 753e 766a 8dbe 9ded ad3e eb6d 0bbe
00000320: d635 51bd 4469 34bd 341c a63e 151d e83d
00000330: 0a00 1b3e ea78 b33e b445 803e 919e 98be
00000340: effa 793d 5344 41be ffbc e2bd 4250 c1be
00000350: c517 2fbe 7b6e d83e 46fa 47be ed98 123c
00000360: 353c 263f d16a 62bf f61d 21bf ab5f 183f
00000370: a675 543f 7a3a c13e 8759 9c3e b88a 0ebf
00000380: 3c47 2a3f 9610 18bf d89f 173f e070 51bf
00000390: d74f 8cbe e2a0 4b3e 72d7 51bd 6289 7dbd
000003a0: 9012 f3be 2cef 71be b501 24be b414 9cbd
000003b0: 47fe 84be aa79 df3a ccef 533d fdae 3c3c
000003c0: 2c5e 84be 1761 e23d 25d3 51bd 2f4b d0bc
000003d0: 321e a0bd e60a c7bd 5b79 03be d4e0 c9bc
000003e0: ff00 3e3e 13c4 213f e62f 07bd b846 0fbd
000003f0: 597d a8be 1c7d 20be e5ed 063f 944a 903f
0.12773861 -0.4549206 0.14740756 0.43825457 0.4165633 -0.046526577 0.14415424 -0.108896956
0.26650143 -0.30933437 0.04988443 0.049730472 0.5508773 -0.73344207 -0.42465982 0.4020191
0.5007468 0.2757255 0.12951477 0.28617367 0.49443072 -0.1631671 0.7794789 -0.23451032
0.5796666 -0.19738406 1.0299307 0.5440708 0.390621 0.3881982 0.10158359 -0.10761668
-0.79327244 -0.15086825 -0.7656481 0.6493101 0.30455202 -0.07691945 0.35081947 -0.025428692
0.13225584 0.22952154 0.3955242 -0.050528154 -0.2633175 -0.082900755 0.10158776 0.13690354
0.09418447 -0.5511337 -0.13116153 0.37068418 0.13185607 0.18773063 -0.01248997 -0.026952233
0.44960916 -0.5113114 0.5963322 -0.13134402 0.27809533 -0.48424795 0.005898234 0.36612445
0.06542849 0.21272253 0.30016908 0.23121382 0.14173989 -0.03998393 0.2939238 -0.12727922
-0.07275871 -0.3478464 -0.20709229 0.2403253 0.2447555 -0.009227366 0.12375594 -0.16849944
0.25664687 -0.38873175 0.48524886 -0.15950279 0.473917 -0.36953798 0.4466693 0.35651144
-0.09426614 0.3259617 0.39213008 -0.12665375 0.14204524 -0.041791346 -0.058736898 0.26884758
0.07202937 -0.46440762 0.086449236 0.1416979 0.1136666 0.44415036 0.07475715 0.04978547
0.34267825 -0.3762136 -0.16128714 -0.15841664 -0.49722257 -0.118385725 1.0019096 0.32628185
0.30573437 0.5099438 0.63691854 -0.282102 0.7019707 -0.39843914 -0.8141513 -0.80153406
0.13406564 -0.554527 0.08090772 0.5229165 0.26444358 0.28647166 0.43763965 -0.06396278
0.12902743 -0.21099871 0.21635415 0.15333004 -0.08136984 -0.21686086 -0.35310194 0.22917095
-0.108719595 -0.21286015 -0.1727926 -0.067472406 0.29847813 0.107401915 0.1503064 0.0035745432
0.1924033 0.21113548 -0.15438692 -0.04800795 0.09391317 -0.030794566 0.22331317 0.033482835
0.04671575 0.12203632 0.18458782 -0.13127469 0.33848324 0.11355517 -0.13162366 -0.09553883
-0.11592991 -0.21621013 -0.265585 -0.07709999 0.07229219 0.07899725 0.49654612 -0.03205655
-0.08333177 0.2818877 0.22686933 0.087540776 0.030706251 -0.1481856 0.23647244 0.13524821
-0.11084057 0.3193722 -0.29044086 -0.091621295 -0.27061853 0.23800182 0.12650307 -0.28561282
-0.38373962 0.1114854 -0.37719083 -0.10979807 -0.025064243 0.2285917 0.20292012 0.21840113
0.43836144 -0.4411384 -0.19280122 0.5581856 0.23984061 -0.27620286 0.33970347 -0.13616149
-0.051076733 -0.0440457 0.32443392 0.11333672 0.15136734 0.35053188 0.2505318 -0.29808477
0.061030325 -0.1887372 -0.110712044 -0.37756544 -0.17098911 0.4227179 -0.19529065 0.008947593
0.6493562 -0.8844424 -0.6293634 0.5952098 0.8299202 0.37739927 0.30537054 -0.5568042
0.66514945 -0.5940031 0.5922828 -0.8181286 -0.27404663 0.1988559 -0.051230855 -0.061898597
-0.474751 -0.23626393 -0.16016276 -0.07621136 -0.25975248 0.0017049809 0.05174236 0.01151633
-0.25853097 0.11053675 -0.051226754 -0.025426475 -0.07818259 -0.097188756 -0.12839262 -0.02464334
0.18555067 0.6318981 -0.033004664 -0.034979552 -0.32908133 -0.15672725 0.5270675 1.127276

weight_hh_l0 f4 [36, 12]
00000000: 11e2 a83e de13 8c3d e663 0b3e d566 9b3d
00000010: 580d d0bd b918 743e d15a 693e eee3 cebe
00000020: d8dd 79be e0fa ee3d ac98 9ebe 161a a73e
00000030: 078e e93e 9c19 8a3e 897b 76bd 513e 41be
00000040: 6fa2 93bd ebef d03d 291d 493e c7ef 2fbe
00000050: fb4d 47be b3df 9ebd c2c1 183e f7c8 823e
00000060: 6a1c 70be a5cc 90be 5fce 833e 31b0 343c
00000070: b5bc 243e 4f74 f23e e450 963e 4a6c 92be
00000080: fb70 6a3e 79de a3be 4ca6 883d 161b 963e
00000090: 148a fd3d 72bf b8bd 03b0 9ebe 02a4 943e
000000a0: 37f0 3c3e e899 6d3e 8400 15be 76e2 84be
000000b0: b323 ac3e c48d d63d da17 7f3e 2d90 c83e
000000c0: 9c72 af3e 8081 07be f2eb 79bd e85a c0be
000000d0: 74dd 993d d61b d4bd 0f22 713d 56a2 3ebe
000000e0: a249 2cba 22a8 0fbc ee3d 313e 8019 323e
000000f0: 35e7 993d c7bb 66be 0e0e 3abd 6555 d5be
00000100: b3f7 033e b044 6a3c 634c aabd b414 9bbe
00000110: ec87 4bbe 9bb9 4ebd 015b 043c 3722 033f
00000120: 8c2d 9c3d 1ad3 22bd d3b0 05be 12fb 353e
00000130: af8b 4d3e c6f7 5dbe 08d3 09be e7a8 103e
00000140: c1b4 533d 6a2f 933d 812e 9abd a5d2 05be
00000150: ee67 ad3e e20b ca3e 6799 98bd e4af 5b3e
00000160: fbd2 56be c0bc a4be 763a 27be c2e0 b7bd
00000170: 74c0 2dbf d3a6 133f 4b42 833e 0309 93bd
00000180: 8797 38be ef0f 6f3e 64d7 fcbe 8941 6abe
00000190: 1e8a 0b3d ac12 c23d 2eb5 94be 31bd 1cbf
000001a0: b9c2 89be 8fc5 353c 3050 983b 7229 023f
000001b0: a51b ddbc 183c 86bd 158b e4be 79b7 713e
000001c0: 518d 7dbd 3b79 d73d 845b 30be f1a2 ecbe
000001d0: 70cb 8f3d 58f4 5bbe 06a6 2d3e 01be 973e
000001e0: 5f4c 903e 54f0 5cbb 842d 12be 77d1 273e
000001f0: eee4 603e f771 d33e a4f1 ca3e 826e 933d
00000200: c294 973e 2dd0 58bf 686f 38be f20a 173f
00000210: e093 89be a5b9 b4be cefa cabe 3fc8 7dbe
00000220: 7f64 40be 8979 903c e3ac cc3d 8a79 7dbe
00000230: 8342 c43d f4f7 203e 2b53 793d a487 46be
00000240: 5e99 91be 3218 82bc c40d 42bd aa8a 1f3e
00000250: ad6b 4b3e 1504 ec3b da2a 573e 6a5c 003e
00000260: 3059 163f 56b6 d9be e692 8abd a186 3ebc
00000270: 7b0a 823c aafc d23e 07af 0c3e 90f5 7a3e
00000280: 6c77 59be 2ce1 69be 12c0 a2be a486 993e
00000290: 5e3a 0cbd f029 30bd bc57 d33e 67d6 89be
000002a0: c437 8bbe f9c5 e5bd 06ad 47be 84ec 8dbe
000002b0: c320 aa3d d26a 903e 7804 7b3e 76d2 a93d
000002c0: e6c1 fc3e 8b0a f1be d0a2 b4bb 740a a03e
000002d0: faff c33e e3bf c03c 90cd 853c a494 443e
000002e0: dffb 863e d5d4 eebb d611 07bf 481a b03e
000002f0: 3d4a 39bd 64e0 adbe a53b fe3e 4c47 ddbe
00000300: 28a8 4abd d36e 323c a24b 613e 2944 243e
00000310: e941 a8bd ef5a ebbc 389b 04bf 0368 c3bc
00000320: 52ac cd3d c29d b1be deed 41bc d94d acbe
00000330: 921b a33d e17b 4ebe 69f5 033f 9c53 4a3d
00000340: 53ec 5dbd d106 71be 4473 723e 97a6 0e3e
00000350: 715c 7cbe 1079 79be f7c5 443e 30c7 e5bd
00000360: 58c1 743e 6616 c23e c083 42be c05d a2be
00000370: c657 7bbd 8b77 fdbe 4769 42bf d64f 0cbf
00000380: ddf5 80be b220 69bf 5d35 2b3f 2519 18be
00000390: 16c4 22be 9423 86be 3f5a 343e 487d 563e
000003a0: 5688 84be 4ef2 af3d 0b5e 16be fd6e 08be
000003b0: bec0 dabe 48b1 b43e dfd7 8a3e 94d8 f3be
000003c0: 4156 59be 508f f03c a502 623f e1be 033e
000003d0: 0097 28bf 8144 e8be d9a8 863e d5d8 373f
000003e0: 1d2f debd be5b 9f3d de9f 5ebe 242e 4dbf
000003f0: d46c 79bc bb24 2bbe 8766 d5bc 1f34 ebbe
0.32984975 0.06839727 0.13612327 0.07587973 -0.10158795 0.23837556 0.2278855 -0.40408272
-0.24401033 0.11668944 -0.30975854 0.3263709 0.4561617 0.26972663 -0.060176406 -0.18871428
-0.07208716 0.10202011 0.1964003 -0.17181312 -0.19463341 -0.07757511 0.14917663 0.2554395
-0.23448339 -0.2828113 0.25743386 0.011028335 0.16087611 0.4735436 0.2935859 -0.28598243
0.22894661 -0.3200567 0.066723436 0.2931754 0.12379852 -0.0902089 -0.3099366 0.29031378
0.1845101 0.23203242 -0.14550978 -0.25954026 0.33620986 0.104762584 0.24911442 0.39172497
0.34267128 -0.13232994 -0.06101603 -0.37569356 0.07512942 -0.10356872 0.05887037 -0.18616614
-0.00065722514 -0.008768113 0.1730878 0.1739254 0.07514802 -0.22532569 -0.04542356 -0.41666713
0.12887459 0.014298603 -0.08315351 -0.30289233 -0.19876069 -0.050469976 0.008078338 0.5122408
0.07625875 -0.039752103 -0.13055734 0.17771557 0.20072816 -0.2167655 -0.13459408 0.14126931
0.051686052 0.07186778 -0.07528401 -0.13068636 0.33868355 0.3946219 -0.07451134 0.21453816
-0.2097892 -0.32175255 -0.16330895 -0.08978416 -0.67871785 0.5767643 0.25636515 -0.07179453
-0.18026553 0.23345922 -0.4938308 -0.22876562 0.034067266 0.09476218 -0.2904448 -0.61226183
-0.26906374 0.011094465 0.004648231 0.5084449 -0.026990721 -0.06554431 -0.4463736 0.23605146
-0.061902348 0.1052117 -0.1722241 -0.46218064 0.070212245 -0.21479928 0.16957864 0.2963715
0.28183267 -0.0033712583 -0.14275175 0.16388498 0.2196233 0.41297886 0.39637482 0.07198812
0.2960568 -0.8469265 -0.18011248 0.59001076 -0.26870632 -0.35297886 -0.39644474 -0.24783419
-0.18788336 0.017636077 0.09993913 -0.24753395 0.095829986 0.15719587 0.06087033 -0.1938768
-0.28437322 -0.015880678 -0.04737641 0.1558024 0.19865294 0.007202635 0.2101244 0.12535253
0.5872984 -0.42521924 -0.067663 -0.011628778 0.015874138 0.41208392 0.13738643 0.24507737
-0.21236962 -0.22839803 -0.31787163 0.29985535 -0.03423535 -0.043008745 0.41277874 -0.26921389
-0.27190983 -0.11219401 -0.19499597 -0.2771951 0.0830703 0.28206497 0.24513423 0.08292095
0.49366683 -0.47078356 -0.005512573 0.31257975 0.38281232 0.023528999 0.016333371 0.19197327
0.26364037 -0.007288555 -0.5276159 0.3439505 -0.045236815 -0.3396026 0.4965488 -0.43218458
-0.049476773 0.01089068 0.22001508 0.16041626 -0.08215696 -0.028729884 -0.51799345 -0.023853308
0.10042633 -0.34690672 -0.011836497 -0.33653143 0.07964243 -0.20164444 0.5154634 0.049396142
-0.054180454 -0.23537757 0.23676783 0.13930736 -0.24644639 -0.24362588 0.19216143 -0.112196326
0.2390188 0.37907714 -0.18995571 -0.3171215 -0.061363004 -0.49505267 -0.7594189 -0.5480932
-0.2518758 -0.91065514 0.668783 -0.14853342 -0.15895113 -0.2619902 0.17612551 0.20946229
-0.25885266 0.08591138 -0.14684312 -0.13323589 -0.42725176 0.35291505 0.27117822 -0.47626173
-0.2122431 0.029365212 0.88285285 0.12865783 -0.6585541 -0.45364764 0.26300696 0.71815234
-0.1084883 0.0778117 -0.21740672 -0.8014853 -0.015223701 -0.1671323 -0.026049865 -0.45938203

bias_ih_l0 f4 [36]
00000000: 14de be3e 2aed ea3e 1f4f 6abd c497 9c3e
00000010: 4901 1bbd d32c 353e 402d 6e3e c64c a93e
00000020: 9529 053f 0db3 333e f167 c73e bfca 55be
00000030: f7a7 c2bc f8cc 03bf ee36 073e 5d37 703d
00000040: d4f7 27bd 7f8d c83c 347a ed3e 53d8 c2be
00000050: c14b 08bf 2434 203f 18c3 11bf ef3b 8cbe
00000060: b53b 67bc ae4f 023e 4d79 81bd ec6f 5e3d
00000070: bda8 28bd 9589 21be a760 0f3b c37b 3bbc
00000080: 101d 8b3d 5324 77be c09b 943c cf2c d63d
0.37278807 0.45884067 -0.057204362 0.30584538 -0.037843022 0.1769288 0.23259449 0.33066386
0.52016574 0.17548771 0.38946488 -0.20878123 -0.023761733 -0.5148463 0.13204548 0.05864655
-0.04100783 0.024481533 0.46382296 -0.38055667 -0.5324059 0.6257956 -0.56938314 -0.27389476
-0.014113356 0.12725708 -0.063219644 0.054305956 -0.041176546 -0.1577514 0.0021877678 -0.011443081
0.067926526 -0.2413495 0.018140674 0.10457765

bias_hh_l0 f4 [36]
00000000: 873b a43e 28be 0c3f 79e1 593e b408 843e
00000010: 455c 0c3d 610e 6b3d af11 a93d 48cc 1abe
00000020: fdb9 e43e bd46 963e 720b b53e 6016 79bd
00000030: 1835 fabd 169f 463c f84b 043e 3960 41be
00000040: bc0d 173e 5f03 653d 6be1 de3e 63fb f4be
00000050: 7930 41bf a9b6 5f3e 7da6 7abe e21b 3ebe
00000060: 92c5 d03d 3acb 0d3e 0262 32be 9fdd 1c3d
00000070: 45e1 ad3d 803e 55be abdf 57be ffc9 b8bd
00000080: 3695 c8bd 9356 87be 6fe0 2bbe 59fa 373e
0.32076666 0.54977655 0.21277417 0.2578789 0.034267683 0.05738676 0.08255326 -0.1511699
0.44673148 0.29350844 0.35360295 -0.060812354 -0.12217158 0.01212289 0.12919605 -0.18884362
0.14751333 0.055911418 0.43531355 -0.47848043 -0.7546459 0.21847023 -0.24477573 -0.18565324
0.101939335 0.13847056 -0.174202 0.03829729 0.084902324 -0.20824623 -0.21081416 -0.09022903
-0.09794085 -0.26433238 -0.16784833 0.17966594

weight f4 [3, 12]
00000000: 5d63 06be 5bbd 8cbe a9ac 3b3e 4328 37be
00000010: e5d9 81be 3a1f 72be 0fd9 923e 3fce 88be
00000020: 62fb 85be 145c 883f 16e3 b23c bc66 dfbd
00000030: 2926 d3be 2105 cdbe feff 32be b4b7 4bbe
00000040: 57f0 993e 4bd5 333f 935f 733f 87c7 c03d
00000050: d2f3 133e 285e 3cbe 9b31 37bf e459 a93e
00000060: c80a 7dbe 8850 e83d 88e6 be3e a5c1 ae3e
00000070: 5c84 273d 8cd9 02be ae35 0b3e c8ca 2f3e
00000080: c028 6e3e 166a 123e cc88 943e 3a8f 423e
-0.13123842 -0.27488217 0.18327583 -0.17886452 -0.25361553 -0.23644724 0.28681228 -0.26719853
-0.26168352 1.06531 0.021836799 -0.10908267 -0.4124005 -0.40042976 -0.17480466 -0.19894296
0.30066177 0.70247334 0.9506771 0.09413057 0.14448479 -0.18395293 -0.71560067 0.33076394
-0.24711144 0.11343485 0.37285256 0.34132114 0.040897712 -0.127783 0.13594696 0.17167199
0.23257732 0.14298281 0.29010618 0.18999949

bias f4 [3]
00000000: 6523 fa3d a673 dabd 4218 063e
0.12213782 -0.106665894 0.13095191

h0 f4 [1, 1, 12]
00000000: 2262 7e3f b804 2d3f 7bf8 4f3f 239d 303f
00000010: 0da1 5abf 895c 3fbf 7416 36bf e941 7abf
00000020: 43f8 7dbf 3c31 693f 8e97 723f c19c 013f
0.9936849 0.67585325 0.81238526 0.6898977 -0.85401994 -0.7475057 -0.7112801 -0.9775682
-0.9920694 0.9109075 0.94762504 0.5062981
