dataModel/model_RNNA_min_50_max_50_rep_17.model (torch, 7739 bytes, 14 tensors)

weight f4 [3, 3]
000000 01 d4 db bd 5f 42 e8 be 0b 61 ca 3f 99 f1 c6 3e
       -0.10733796 -0.45363137 1.5810865 0.388562
000010 12 a7 a8 3e 10 68 af bf b6 41 d3 3d d9 c1 ce 3e
       0.32939965 -1.3703632 0.10315268 0.4038227
000020 cb 1b 91 3f
       1.1336607

bias f4 [3]
000000 54 eb c9 bf b1 32 2f 3f 00 37 1f bf
       -1.5774941 0.68436724 -0.621933

weight f4 [3, 3]
000000 3c b9 98 bf 04 bd bb bf 2f 8e 09 bf 37 f8 1b 3f
       -1.1931529 -1.4667058 -0.5373258 0.6092562
000010 2f 88 49 3f 9f aa 41 3f 55 8e 96 bf c0 9e af bf
       0.78723425 0.7565097 -1.1762186 -1.3720322
000020 12 58 6a 3e
       0.22885159

bias f4 [3]
000000 05 03 77 3d 95 57 0c 3f 92 49 71 bc
       0.060305614 0.5482114 -0.014727013

weight f4 [3, 3]
000000 bb 74 0a 40 f6 a0 ad bf 2e 7b f1 3e 83 ce be 3f
       2.1633747 -1.3564746 0.4716429 1.4906772
000010 50 14 cf 3f da 97 3b be 0a 3d b4 3f 92 23 aa 3f
       1.6178074 -0.18319646 1.4081128 1.3292105
000020 94 50 65 be
       -0.2239402

bias f4 [3]
000000 46 8e 8e be 17 f8 c1 be 27 bd 66 be
       -0.2784292 -0.3788459 -0.22533093

weight f4 [12, 3]
000000 e7 de dc be 34 f1 19 3f a3 dc 20 3f 46 f6 22 be
       -0.4313881 0.6013367 0.62836665 -0.15914258
000010 e4 bb 2c be d4 2a 05 bf 1d 74 4b be 5f 01 9a 3e
       -0.1686855 -0.52018476 -0.19868512 0.3007917
000020 b6 33 c8 3d 87 23 8d be 4b 6b 93 be 65 1f d7 be
       0.09775488 -0.27566168 -0.28792796 -0.4201614
000030 ba 32 1d bf fd 7c 48 be 0d 56 cb bd fb c6 48 bf
       -0.6140553 -0.19578929 -0.09928522 -0.7842862
000040 16 54 61 be 04 03 01 bf 62 f3 0e bf 21 a4 1b be
       -0.22004732 -0.50395226 -0.5584012 -0.15199329
000050 07 b6 2e bb 4c 46 44 bd 80 50 80 be 99 33 0a 3d
       -0.002665879 -0.047918603 -0.25061417 0.033740614
000060 7e 0d 0d 3f 35 ba 44 bf 0c 21 b7 be f5 2e 2c bf
       0.5509871 -0.7684663 -0.357674 -0.6725915
000070 6b 8c c7 bd 48 30 c8 3c 70 10 d3 be 51 af fb be
       -0.097435795 0.024437085 -0.41223478 -0.49157193
000080 0e ee 2c bf 33 77 79 bd 34 e9 1b bf 04 ee 25 be
       -0.6755074 -0.060904693 -0.60902715 -0.16204077

bias f4 [12]
000000 68 f4 16 3e 4a ba f4 3d 09 9e 54 bd f5 28 17 be
       0.14741671 0.11949594 -0.051908527 -0.14761718
000010 6c 9b b7 bd 4c 33 a4 be e2 4a 26 3d 3a e8 dd 3e
       -0.08965191 -0.32070386 0.040598758 0.43341237
000020 4b 92 a0 be 27 59 98 3e 50 fc 92 3e 2e f6 e9 3d
       -0.31361613 0.29755518 0.28708124 0.11423908

weight_ih_l0 f4 [12, 12]
000000 fa 89 be 3d 4c c5 07 be 51 8c 90 be ef b2 cb be
       0.09303661 -0.13258857 -0.28232053 -0.39784953
000010 e7 e2 b8 be 97 b9 95 be 7a c6 8f be 47 af e3 bd
       -0.36110613 -0.29243156 -0.28081113 -0.11117416
000020 ea 12 21 3c 30 b3 2c bd 75 34 3c be 8b 81 6b be
       0.00983117 -0.042163074 -0.18379386 -0.22998635
000030 b2 9f 82 be 6e 40 7c 3e d6 72 80 be 7c 15 2f bc
       -0.25512463 0.24633953 -0.25087613 -0.010686275
000040 d9 f6 ff bc 63 84 29 be 8b 14 99 be a4 2e 2a 3e
       -0.031245636 -0.16554408 -0.29898486 0.16619354
000050 5c 41 42 3e f3 4d 47 3e a9 bf 86 3e ea 71 8b 3e
       0.18970245 0.19463329 0.263181 0.27235347
000060 8d d3 55 3f 36 83 60 be c5 5d bd 3e 12 32 04 bd
       0.83525926 -0.21925053 0.36985603 -0.032274313
000070 39 a8 85 3e 7e 76 12 3e 06 c1 c2 3c ad 31 62 be
       0.26104906 0.14303014 0.023773681 -0.22089262
000080 85 91 41 be 70 db 84 bd 3c 91 2b 3e 75 cc 87 3d
       -0.18903168 -0.06487167 0.16754621 0.06630794
000090 61 d8 f7 3d dc 65 36 be 23 8f 90 3e 86 47 3f 3e
       0.12101818 -0.17812294 0.28234205 0.18679628
0000a0 4f 84 9f 3e 2a e2 0f 3f 17 0d 67 3e b1 c6 8c be
       0.3115563 0.56204474 0.22563587 -0.2749534
0000b0 98 18 be 3d 2d 1f 35 bc fa 4f b6 3c 98 28 07 3e
       0.09282035 -0.011054796 0.022254933 0.13199079
0000c0 d5 30 b1 bd 33 6f 04 3e 2f eb 1f be 0e 22 e8 3e
       -0.08651892 0.12933044 -0.15617059 0.45338482
0000d0 34 73 21 3e 49 bc 2b 3f 99 5f 0c 3e cc 92 55 bd
       0.15766603 0.67084175 0.13708343 -0.05214195
0000e0 2b ed 39 be 6d 1d 55 bd 39 80 94 bd 00 83 bb 3d
       -0.18156879 -0.052030016 -0.07251019 0.09155846
0000f0 1e 86 ae 3e 5a 0a 3a 3e 14 53 c7 3e 09 5d ff 3d
       0.34086698 0.18168011 0.3893057 0.12468917
000100 6e d1 78 bd 9a 98 4c 3e 0e e4 c4 bc f6 b0 06 be
       -0.060746603 0.19980088 -0.024034526 -0.13153443
000110 47 68 9b be f7 7d 5b 3d 57 39 8a 3e 27 fa 13 be
       -0.30352995 0.053586926 0.26996872 -0.14450894
000120 67 6e 50 3b 20 1e ed 3c 71 94 10 3e 91 76 8e be
       0.0031804086 0.028945029 0.14119126 -0.27824834
000130 2c 2e ea bd ea 44 31 be c7 68 95 be 23 1a 31 be
       -0.11434588 -0.17311445 -0.291815 -0.17295127
000140 b0 87 aa bc e6 a1 a7 be 1e 9a de 3d 05 86 db 3d
       -0.020816654 -0.32740706 0.10869239 0.107189216
000150 30 55 fb 3e 12 5c 13 3e 3a 01 da 3e 02 6d 98 bd
       0.4908843 0.14390591 0.4257906 -0.074426666
000160 38 e3 de 3d 66 b0 2c 3e 11 c0 27 3e f9 ba 3b bd
       0.10883182 0.16864166 0.16381861 -0.045832608
000170 5d d5 d7 be 4b a6 9f 3e a8 e2 d2 3c aa ea 6f be
       -0.4215497 0.3118156 0.025742844 -0.23429361
000180 14 14 d7 be d8 63 5f 3e c2 8a 32 be bf 76 13 3e
       -0.42007506 0.21815431 -0.17435744 0.14400767
000190 8d 3a 75 3d 4f e5 4f 3e 8f b7 30 3e 2a 78 96 3e
       0.05987029 0.20302318 0.17257522 0.29388553
0001a0 03 54 96 3e 59 9f d6 bd e7 3b 17 be da 47 61 bd
       0.2936097 -0.10479612 -0.14768945 -0.055000164
0001b0 a0 ef 07 3f 28 32 83 be c2 a0 af 3e 9e b2 5c be
       0.53100014 -0.25624204 0.34302336 -0.21552512
0001c0 7c 8b 94 be 92 61 5c be 9b 9f 12 3e 2d df 0a 3e
       -0.29012668 -0.21521595 0.14318697 0.13561697
0001d0 b4 c8 8d be 04 b5 30 3e 78 95 3b be ea a7 bf be
       -0.27692187 0.17256552 -0.18318737 -0.37432796
0001e0 3e 90 f5 3d 29 5a b9 3d 14 f3 2e be 1b 7c 0e bc
       0.11990403 0.090504 -0.17084914 -0.008696581
0001f0 dc 95 e4 3c c6 97 11 bf 48 cd a5 bc e9 b4 74 3e
       0.02790349 -0.5687221 -0.020239487 0.23897137
000200 b0 de ca 3b 56 a1 6b be c0 f5 56 be 8c 4b 2a be
       0.006191097 -0.23010764 -0.20992184 -0.16630381
000210 bf 47 e6 3e 60 56 8f be 5a 65 c4 3d 0e ac ed be
       0.44976613 -0.27995586 0.09589644 -0.4642033
000220 87 55 3b 3e 3d 9d 8d 3c 43 98 12 bd 3a 14 5d 3e
       0.18294345 0.017286891 -0.03578974 0.21589747
000230 b3 20 f4 be 2b 6f 42 be ab f0 69 be f6 c5 a6 bd
       -0.47681198 -0.1898772 -0.22845714 -0.08143227

weight_hh_l0 f4 [12, 12]
000000 c5 7e d4 3e eb 0d 0c bd 22 bd 45 be 2f 5a c7 be
       0.41502967 -0.03419296 -0.1931043 -0.38935992
000010 22 63 f0 be 1c 62 89 bd 90 92 cb 3c e9 32 8c be
       -0.46950632 -0.06708166 0.02485016 -0.2738259
000020 31 a7 16 be c6 66 f6 3b f3 ee 79 3e db 06 74 be
       -0.14712216 0.007519576 0.24407558 -0.2383074
000030 0b dc 0a bd d4 0c a3 bd d7 20 18 bf d1 e8 98 be
       -0.033901256 -0.07961431 -0.5942511 -0.29865125
000040 c5 00 d8 bc 1e c3 a9 ba d5 39 9b bd f4 d8 57 be
       -0.026367554 -0.0012951826 -0.0757939 -0.21078855
000050 f3 a8 ae 3e 29 63 47 3c f0 10 a0 3e 0b 3e 98 bd
       0.34113273 0.012169638 0.31262922 -0.07433709
000060 2c ab 80 be 81 c9 bf be 05 78 d2 3d 8c a3 b0 3e
       -0.25130594 -0.37458423 0.10276798 0.34499776
000070 5d e9 64 3e ea 22 b6 3d 65 00 21 be fb cc 8f 3e
       0.22354646 0.08893378 -0.15722807 0.28086075
000080 42 d4 08 bf e9 65 c3 3e 28 ea 34 3c ad db 35 3e
       -0.5344888 0.3816369 0.011042155 0.17759581
000090 1b 9c c8 be 25 4c f3 3d 18 7a a9 3e 43 bd 45 3e
       -0.391816 0.11879758 0.33100963 0.19310479
0000a0 a5 3e a4 3e da d2 95 bd 2d c7 f2 be e7 32 23 3e
       0.32079044 -0.07315607 -0.47417584 0.15937386
0000b0 49 3e 63 be f7 24 b1 3c dd 9c 00 3e 56 84 26 be
       -0.22191729 0.021624072 0.12559839 -0.1626142
0000c0 f8 d1 81 be c4 45 9c bd bb 38 0d bd 91 dc 88 3e
       -0.25355506 -0.07630494 -0.03447793 0.2673078
0000d0 b1 47 34 3d dc 66 4f 3e b3 86 8e 3c eb 96 fa 3d
       0.044013683 0.20254081 0.017398214 0.122358166
0000e0 99 c9 c3 3e 95 1e eb be 84 39 79 bd 9a 14 a9 bc
       0.38239744 -0.4592177 -0.060845867 -0.020639706
0000f0 26 17 84 be d1 4d 81 be d4 70 2d 3f 46 4d 6d bd
       -0.2579891 -0.25254682 0.6775029 -0.05793502
000100 54 ec 3c be fd 79 db 3d 9f a2 85 bd 8b 9b d7 3d
       -0.18449527 0.10716627 -0.06525158 0.10527714
000110 a9 e9 3c be 62 8b 05 3e 5e f8 e2 bd 7e 4a 53 3e
       -0.1844851 0.13041452 -0.110825285 0.20633885
000120 e5 14 94 3e 45 5b 60 be ee b4 a9 bd 3f 80 6c be
       0.2892219 -0.21909817 -0.08286463 -0.23095797
000130 0f 57 99 be 8a cc 80 3d 8f ab eb 3e 11 57 9b be
       -0.29949233 0.06289013 0.46029326 -0.30339864
000140 ba 00 97 3d c9 ec 87 3d 06 f2 17 be b4 6a d0 bd
       0.073731855 0.0663696 -0.14838418 -0.10176602
000150 58 97 87 be 5a 76 c1 bc fc 67 a8 bc ac 83 c0 3e
       -0.26482654 -0.023616005 -0.020557396 0.37600458
000160 72 2d aa bd d7 84 90 3d 09 cb 33 be d6 62 cc bd
       -0.08309449 0.07056587 -0.1755792 -0.09979789
000170 4f 25 a0 39 93 4d 58 be 6f 12 99 3d 50 b3 a1 bd
       0.00030545375 -0.21123342 0.07474219 -0.07895529
000180 c4 e4 4c bd 12 58 bf 3e d7 06 12 bf 72 76 42 3d
       -0.050022855 0.3737188 -0.57041687 0.04747624
000190 5a 01 ab bc 07 50 30 be 53 cb 1d be b8 da a8 bd
       -0.020874668 -0.17218028 -0.15409593 -0.08244842
0001a0 3e 33 a3 3e bd e4 0f bf db 79 0a 3e 68 b4 f2 bc
       0.31875032 -0.562084 0.13523047 -0.02962704
0001b0 ac 24 ce 3d a7 c0 20 bd 70 34 3d 3b 69 ff d2 bc
       0.10065588 -0.039246228 0.0028870367 -0.025756555
0001c0 f8 86 44 be 93 fe 3a 3e 5d 21 d6 3e d7 42 53 be
       -0.19192111 0.18261175 0.4182233 -0.20630966
0001d0 c3 be e4 be fa 5d f1 3e 7e 28 af bd cb c5 0f 3e
       -0.4467679 0.4714201 -0.08552645 0.14040296
0001e0 da 7d 2f 3e 9a 80 49 be d6 a7 f5 3d 79 f3 99 bd
       0.17137852 -0.19677964 0.11994903 -0.07517142
0001f0 98 20 a4 be 5a a1 94 bd 6f 04 cd 3d ca 9f 46 be
       -0.32056117 -0.07257338 0.10010611 -0.19396892
000200 3a c6 50 3e 8b 72 27 be 57 38 66 3e 12 c4 87 be
       0.20388117 -0.16352288 0.2248243 -0.26516777
000210 c3 b3 e2 3d 50 ce ae be 29 8e 56 3d 84 41 bd be
       0.11069443 -0.3414178 0.05238167 -0.36964047
000220 9d cb c9 be 6b d1 dd bc 9e 61 1c be 88 fd b2 3d
       -0.39413157 -0.027077397 -0.15271613 0.087397635
000230 b5 44 06 be 2a f8 e7 3e 34 37 90 3d a6 f0 e8 3e
       -0.13112147 0.45306522 0.07041779 0.454961

bias_ih_l0 f4 [12]
000000 18 a9 a0 3b c6 08 83 3d c8 8e 87 be 99 14 95 be
       0.00490297 0.06398158 -0.2647612 -0.29117277
000010 61 3a 03 3d 03 99 86 3d e6 35 f7 3d c3 89 6d 3d
       0.032038096 0.065721534 0.12070827 0.057992708
000020 9a dd 2b be 47 ab 36 3e 81 c7 8f 3d ef fd 28 3d
       -0.16783753 0.17838775 0.07020474 0.041257795

bias_hh_l0 f4 [12]
000000 79 3c 8b 3e 5f 77 68 be d6 4d 3c 3e 58 2b 73 3d
       0.27194574 -0.22701786 0.18389067 0.059367508
000010 0f 34 41 3d 6b b6 81 be e4 0a 9b 3d 6a 3b ac 3d
       0.047168788 -0.25334486 0.075704366 0.0840977
000020 79 cb b0 3d dd 37 49 be ed 90 8c 3e 87 3a 51 be
       0.08632559 -0.19650216 0.2745432 -0.20432483

weight f4 [3, 12]
000000 cb ba 13 3f 38 f0 4c be 87 f8 fd bd e4 e5 2b bf
       0.577069 -0.20013511 -0.124009185 -0.6714766
000010 5b 47 9c be 8f 8d fc bd 76 33 aa 3e 8b b7 9c be
       -0.3052319 -0.12331688 0.33242387 -0.30608782
000020 9b c7 ca bd 0a cf 11 bd fd ab 4c 3e 32 81 15 3e
       -0.09901353 -0.03559784 0.19987483 0.14600065
000030 4e f5 a0 bd c1 49 d2 be a9 c2 50 3f a6 35 92 3e
       -0.07859288 -0.41071895 0.8154703 0.28556556
000040 6e d5 7d be 41 49 51 3f 0a dc 21 3e ef 90 91 bd
       -0.24788448 0.817524 0.15806594 -0.07107722
000050 d2 61 fe be 7a 1d 87 3e c8 68 97 bd 45 11 8b 3e
       -0.49684006 0.26389676 -0.07393032 0.27161613
000060 26 21 5b bd a5 a2 a0 3e b4 2c 1e be d6 1a b5 3e
       -0.05349841 0.31374088 -0.1544674 0.35372037
000070 be 31 e0 bd 4c fa c0 bd 05 72 61 bc e0 ef 54 be
       -0.109469876 -0.0942274 -0.0137600945 -0.2079463
000080 12 b5 36 bd 0e 61 95 3e dd 42 90 be f4 37 c9 3e
       -0.044606276 0.2917561 -0.28176013 0.393005

bias f4 [3]
000000 7f d1 5c 3e dc 69 20 3e 36 13 cf 3d
       0.21564291 0.15665382 0.10111086
