Old Stuff/dataModel/model_GRU_min_40_max_40_rep_17.model (torch, 618315 bytes, 9 tensors)

weight f4 [12, 3]
000000 37 a8 d6 bd 5b 8f 51 3f ef f2 3c 3e 90 4e d1 3e
       -0.10481303 0.8185937 0.18452047 0.4088025
000010 80 fa ac bf 29 2e b0 3e 46 b3 5f 3d 7e c6 85 bf
       -1.3513947 0.34410217 0.054614328 -1.04512
000020 b2 a8 1c 3f e7 15 3c bf bd cd 6b 3f 34 11 be 3e
       0.6119491 -0.7347092 0.92110807 0.371225
000030 98 0b 94 3e d0 7b ab bf fe 36 96 be 87 09 21 bf
       0.28915095 -1.339716 -0.2933883 -0.6290516
000040 b2 85 a0 3f 85 e6 f6 3e c8 9b d5 be 7c 49 9d 3f
       1.25408 0.48222747 -0.41720414 1.2288051
000050 c3 fe d6 3d 75 31 9e bf ae 95 e6 be 02 c5 50 3c
       0.10497811 -1.2358843 -0.45036072 0.012742283
000060 eb 41 57 bf cf 39 e1 3a 95 ef 50 bf 9b 47 92 bf
       -0.8408496 0.0017183366 -0.81615573 -1.1428102
000070 82 fa 71 3f 5b 2c a1 3e 32 0e ac bf fb 2c c3 3c
       0.9452287 0.31479153 -1.3441832 0.02382516
000080 1a 74 b1 bd 18 25 32 3f 12 fe 75 bf fe 05 12 bf
       -0.08664723 0.6958785 -0.96090806 -0.57040393

bias f4 [12]
000000 90 94 23 3f 24 56 0c be 2f 9a 7c be f9 fc 08 3f
       0.63898563 -0.13704735 -0.24668191 0.53511006
000010 31 12 a2 be 22 a0 b2 3d f6 7a a8 bb 41 c7 2f 3e
       -0.31654504 0.08721949 -0.005141611 0.17165853
000020 bc 8d d2 3c a0 44 1c 3f d2 c3 76 3e 86 da 10 bc
       0.02570235 0.61042213 0.24098137 -0.008841163

weight_ih_l0 f4 [36, 12]
000000 52 c1 c9 3e 66 c2 01 3e b3 2f b2 bd c3 bb 90 3e
       0.39405304 0.12671813 -0.08700504 0.2826825
000010 3e 42 30 be b8 de fb 3d f5 b0 34 3e dd 33 90 3e
       -0.1721277 0.122983396 0.17645629 0.2816457
000020 16 46 ee be 8d b9 9c 3c c7 12 12 3f f0 a7 f2 be
       -0.46537846 0.019131446 0.570599 -0.4739375
000030 e5 6c a1 3e 16 20 aa be 0b a8 db be 84 c4 87 3c
       0.31528392 -0.33227605 -0.42901644 0.016573198
000040 b6 57 9f 3c af 9c 28 3e 5c c5 3b 3e 6e ad 9f 3d
       0.019451004 0.1646602 0.18337005 0.07796751
000050 6f 21 a5 bc 8c 20 a6 3e 28 9a ee 3e 68 d9 e2 be
       -0.020157544 0.32446706 0.46601987 -0.44306493
000060 29 38 83 3d a6 57 ff 3d 4e 72 d2 3d e4 4f 8f 3d
       0.06407196 0.124678895 0.10275708 0.0699766
000070 b4 46 2e 3e 74 14 33 3d 74 6f 73 3d 62 42 e4 3d
       0.17019159 0.043720677 0.05943246 0.11145474
000080 94 0b 43 3e 9e 3a 94 3d 9c 28 8b 3c b7 d4 ae be
       0.19047385 0.07237743 0.016987137 -0.34146664
000090 7d c7 8e 3e c3 d2 02 be b5 11 aa be 3b e8 80 ba
       0.27886572 -0.12775712 -0.33216634 -0.0009834835
0000a0 e7 cf 76 be 46 e5 52 3c d8 02 58 3e 0f 21 c4 bd
       -0.24102746 0.012872046 0.21094835 -0.09576618
0000b0 97 0a 8f 3e e6 aa af 3e db 64 e7 3d ab 3f 5b 3e
       0.27937767 0.34310073 0.112985335 0.21411006
0000c0 8f 1a df 3e 22 46 1d 3e 8f 3b 0a 3c 71 1c 03 3f
       0.4357495 0.15358785 0.008437051 0.51215273
0000d0 a5 de f7 be 0a c9 a1 3e e8 bc 51 3e c0 2f 44 3d
       -0.48412052 0.31598693 0.20482218 0.0478971
0000e0 08 00 b5 bd 58 3b 2c 3e c9 30 ab 3e 3b 18 0b be
       -0.088378966 0.16819513 0.33435658 -0.13583462
0000f0 8d a6 aa bd 0e 93 cb bd 0c 9a d8 be 2a 32 d5 3e
       -0.08332548 -0.09940158 -0.42305028 0.41639835
000100 eb eb df be aa 4b 82 3e 88 93 3f 3e 35 26 04 3e
       -0.4373468 0.25448352 0.18708622 0.129052
000110 04 21 8b 3e 13 50 b4 bd 56 c8 b2 3e b3 2e 0a be
       0.27173626 -0.088043354 0.3491847 -0.13494377
000120 29 4c c9 3e 28 b7 a5 be 98 e4 ae be f4 29 08 3f
       0.39315918 -0.323663 -0.34158778 0.53189015
000130 40 ab d0 be 27 0f 57 3e 79 35 ec 3e a9 5b 9a bd
       -0.40755653 0.21001874 0.46134546 -0.07537014
000140 e9 ad fa bd de 5a c1 3e da 1e 9d 3e 48 4a 39 bf
       -0.12240202 0.3776464 0.306876 -0.7237897
000150 e8 3c b8 3e 84 72 4e bd 1e 76 19 3e 6f 8a d0 3e
       0.35983968 -0.05040218 0.14986464 0.40730616
000160 1e 1c a1 be 28 17 bc 3e 5d 0e d0 3e 3f 7d e4 bc
       -0.31466764 0.36736417 0.40635958 -0.027891753
000170 a2 c8 1f be 20 34 5e 3e b0 90 52 3e d0 a0 5e 3d
       -0.15603879 0.21699572 0.20563006 0.05435258
000180 46 00 f5 3e be 00 bc be 51 85 39 bf f8 cc 7e bc
       0.4785177 -0.36719316 -0.7246905 -0.015551798
000190 2b a6 1d 3d b2 21 e7 be 50 6d 12 bf 29 a3 89 3e
       0.03848855 -0.45142895 -0.5719805 0.26882294
0001a0 18 b5 02 3e dd f5 94 3e 56 d7 cd 3d 7a 86 a8 3e
       0.12764394 0.2909383 0.10050838 0.32915097
0001b0 2f 80 eb 3d f6 d2 8b 3d ff e0 1b be 6c 99 82 bb
       0.114990585 0.06827347 -0.15222548 -0.0039855745
0001c0 d2 61 50 bb 0d eb 00 3e 12 c4 d2 3c 6b df 87 3d
       -0.0031796587 0.12589665 0.02572826 0.066344105
0001d0 3a 94 46 3e fb 54 89 bd 63 81 15 3e a9 06 80 3e
       0.19392481 -0.06705662 0.14600138 0.2500508
0001e0 aa 9b a8 3e f0 27 4e be 68 8b 9c be 3f a8 81 3e
       0.32931262 -0.20132422 -0.3057511 0.25323674
0001f0 20 56 8a be 4b 27 d1 3e 83 f2 d0 bd 73 c0 28 3f
       -0.27018833 0.4085029 -0.102025054 0.65918654
000200 52 fe 52 be 33 af f7 3d f9 10 b0 3e 40 76 97 be
       -0.20604828 0.120939635 0.3438795 -0.29582405
000210 c6 ca e4 3d 89 6d 9f be 5d b2 88 3d 9c 29 2d be
       0.111714885 -0.31138256 0.06674645 -0.16910404
000220 32 57 08 3e 11 17 02 be 03 96 6d be 44 a4 2f 3f
       0.13314512 -0.12704112 -0.23201756 0.68610024
000230 28 80 ab 3e 2d c7 da 3e 66 8e 7d 3f 0f 87 bb 3c
       0.33496213 0.42730084 0.9904541 0.02289155
000240 7e a1 ad bd 9d 7d 8c be ff 7a a2 bc d9 1a 4d 3e
       -0.08478068 -0.27439585 -0.01983404 0.20029773
000250 65 3b 6b be a3 b7 b6 3e af 41 09 be f0 9c c0 be
       -0.22971876 0.3568698 -0.13403963 -0.37619734
000260 8d 2e 59 3e 8f 21 bd bc 6f 52 b7 bb 77 50 52 3d
       0.21209164 -0.023087291 -0.0055945436 0.05134627
000270 8c 32 8d 3e cb 38 43 be 41 cc 97 be 39 42 66 3e
       0.27577627 -0.19064634 -0.2964802 0.224862
000280 f7 73 28 bf 43 c5 75 3e c7 84 8f 3e 43 00 7b 3e
       -0.6580195 0.2400103 0.2803099 0.24511819
000290 98 00 10 3e 67 c7 98 3e 42 d4 34 3e d4 e1 0c 3e
       0.14062726 0.29839632 0.17659095 0.13758022
0002a0 55 d2 bf 3e f1 11 f1 be d0 d3 ae be 69 b8 01 3f
       0.37465158 -0.47084 -0.34145975 0.5067201
0002b0 2d 92 2d bf f4 e2 ee 3e 52 6b 00 3f 08 76 91 3e
       -0.6780117 0.46657526 0.5016376 0.28410363
0002c0 d7 f4 53 3d 01 ef 1e 3e 0c fa fa 3e 2d 9e ad bd
       0.05174717 0.1552086 0.49018896 -0.08477435
0002d0 a6 ac a5 bd 28 46 b8 be 23 02 7a 3e b3 e5 87 be
       -0.08089571 -0.35991025 0.24414878 -0.26542434
0002e0 c5 a9 69 3d 0a b9 90 3d 3d e8 7f 3e 9d 48 d9 be
       0.05704667 0.070665434 0.24990936 -0.42438212
0002f0 8c 6b 2c 3e 37 cf 41 be 42 d5 b5 be 0f 05 70 3d
       0.16837901 -0.18926702 -0.35514265 0.058598574
000300 45 37 84 be da 6d 13 3e 89 e0 77 3d cd 7b 18 be
       -0.25823417 0.14397374 0.060516868 -0.14890976
000310 65 c1 57 3e 56 2e c7 3e df 44 1a bd 72 92 1a be
       0.21069868 0.3890254 -0.037663337 -0.15094927
000320 5d aa 67 3e a7 95 fe 3d 7b 95 4d 3d 93 54 d2 3b
       0.22623582 0.12430888 0.050191384 0.0064187734
000330 07 60 94 3e 21 b9 24 be 5b 2d 24 bf 29 8d ff 3e
       0.28979513 -0.16086246 -0.64131707 0.49912384
000340 ab ce 9b be bb f1 44 be 45 bd a2 3e 56 82 ad 3d
       -0.30431113 -0.19232838 0.31785026 0.08472125
000350 a9 eb be bc 4f be db 3e e4 7e dc bc 0a 75 81 be
       -0.02330573 0.4291863 -0.026915975 -0.25284606
000360 c8 b0 81 bd 93 dc d7 bd a5 50 61 3e a8 e6 31 be
       -0.063325465 -0.10540118 0.2200342 -0.17373145
000370 9a d9 cf bd 65 3c fd 3d 64 2f dc 3d e9 c9 d0 be
       -0.10148926 0.12365035 0.107512265 -0.40779045
000380 16 d8 70 3d dc b3 d1 bd e4 8e ad be 61 ee f8 bd
       0.058799826 -0.102393836 -0.3389808 -0.12154842
000390 7e 34 be bd 1c e2 43 3d ee f5 54 bd 1b a4 5a be
       -0.09287356 0.047823057 -0.05199235 -0.21351664
0003a0 9c 23 4d 3e 2e 43 06 3e 33 13 46 3e b0 7e f7 be
       0.20033115 0.13111565 0.19343261 -0.48338842
0003b0 31 d7 d8 bd 06 f9 dc be 54 34 14 bf 28 61 92 3e
       -0.105879195 -0.4315874 -0.57892346 0.2858975
0003c0 de d2 dd be 03 88 99 3e 86 9e 9c 3e 6a 10 3d be
       -0.4332494 0.2998658 0.30589694 -0.18463293
0003d0 f1 a5 62 3e 0a 17 fa bd 5b 3c 0f be 82 92 f2 be
       0.22133614 -0.122114256 -0.13987868 -0.47377402
0003e0 ed 23 0a 3a 01 46 82 bd b8 30 03 bf 46 54 ac bd
       0.00052696356 -0.063610084 -0.51246214 -0.084145114
0003f0 2e d0 0a 3f 08 1d f6 be 78 3e 1d bf 63 c7 a4 3e
       0.54223907 -0.48069024 -0.61423445 0.3218337

weight_hh_l0 f4 [36, 12]
000000 f9 05 a7 bd 78 74 89 3b 4c 79 82 be af e2 bd 3d
       -0.08155436 0.0041947924 -0.25483167 0.09271752
000010 af 50 b4 3d 73 65 f4 3d 75 d0 ab be c3 8e a1 3d
       0.08804452 0.119334124 -0.33557478 0.07888558
000020 c1 21 56 bb 00 13 b7 3e 06 71 21 be ea 91 0c bd
       -0.0032673927 0.35756683 -0.15765771 -0.034318842
000030 48 84 71 3d 56 42 34 bd 10 2a 14 3e 54 1d 40 3e
       0.058964044 -0.044008575 0.1446917 0.18761188
000040 16 b0 76 bd 07 cf 1d be 82 1a 9f 3c e0 a0 9d 3d
       -0.060226522 -0.15411006 0.01942182 0.076967
000050 e8 e3 2e be 51 d5 53 be 9b 56 56 bd 69 9f 03 3e
       -0.17079127 -0.20686843 -0.052328687 0.12853779
000060 ab c9 83 3e dd d4 18 bf cc 4c 97 3d 3b 21 e9 3e
       0.25739798 -0.59699804 0.07387695 0.45533165
000070 41 60 1a be a2 ff 7e 3d 40 7f 1d 3f 99 1f cd 3d
       -0.1507578 0.06225551 0.61522293 0.100157924
000080 46 38 d6 bd 11 a0 fc 3e 09 3a 1d 3d c5 12 85 be
       -0.10459952 0.4934087 0.038385425 -0.25990883
000090 11 98 8b 3e 38 df e3 be fe 7e d6 bd 40 56 59 3e
       0.27264455 -0.4450624 -0.104734406 0.21224308
0000a0 dc 6b 58 bd 47 e7 bc 3d b8 34 b0 3e 10 5d fc bd
       -0.052837238 0.092238 0.3441522 -0.12322438
0000b0 45 92 66 3c 7a 21 1a 3e 6c 41 29 bc 95 a1 c6 3d
       0.014072959 0.15051833 -0.010330539 0.09698788
0000c0 dc b4 7a be 34 97 06 3e d4 0b a6 be e7 c6 b1 3e
       -0.24483055 0.13143617 -0.324309 0.34722063
0000d0 db 6f a6 be 77 0f 9f 3d c4 38 9e bc 0a e4 e1 bd
       -0.32507214 0.077666216 -0.019314177 -0.11029823
0000e0 91 1d c2 be 34 de fa 3e 41 12 ee 3e 46 1f 35 bc
       -0.37913182 0.48997653 0.46498302 -0.011054819
0000f0 15 73 83 be 64 4d 4e 3d 49 58 8b be 6e c9 b2 be
       -0.25673738 0.050366774 -0.27215794 -0.34919304
000100 bf aa 00 be 32 57 31 3e ed 05 9f 3d fd 1d 78 be
       -0.12565134 0.17318419 0.07764802 -0.2423019
000110 dd 70 c0 3d 14 79 15 be 7a 1d 73 3e e6 38 16 3e
       0.09396527 -0.14596969 0.23741713 0.14670143
000120 e9 3f c4 bd 49 d4 80 3e 83 70 6c bd de 6a 96 bd
       -0.095825024 0.2516196 -0.057724487 -0.07344602
000130 be 56 a1 be 91 fb e1 bd f0 e5 ee bd 5f 62 65 bc
       -0.31511492 -0.110343106 -0.11664951 -0.014000504
000140 6e c5 10 3e 0c fb 0e be 34 23 5d bd 0f 90 ea 3e
       0.14137813 -0.13962954 -0.05398865 0.45813033
000150 69 e4 5d bd 09 8a 1c be 10 9a 8d 3e bb 8d f2 3d
       -0.054172907 -0.15287031 0.27656603 0.11843439
000160 35 29 09 be 9f 36 05 3e 4c e6 21 3e f8 67 eb 3d
       -0.13394625 0.13009118 0.15810508 0.1149444
000170 1e c8 98 be 73 c1 8b be 1e c4 04 3f 3b 5d be 3e
       -0.29840177 -0.27296028 0.5186175 0.37180504
000180 d4 21 69 bd 4a 02 9c 3e e6 a3 a1 3d cf 1f 19 3e
       -0.056917027 0.30470496 0.07892589 0.1495354
000190 89 0c 18 be 53 96 a9 be d4 7c 3c be 0a 49 9b be
       -0.14848532 -0.331225 -0.18406993 -0.30329162
0001a0 54 15 09 3e f6 87 1d be d1 b1 7c bd f0 8c 02 3f
       0.13387042 -0.15383896 -0.061693016 0.50996304
0001b0 48 d9 ab 3d 77 89 19 bf d2 72 fd be 26 c4 ac bd
       0.083910525 -0.5997538 -0.49501663 -0.0843585
0001c0 d4 bd 5a be 8e ba ce bb 72 0b b9 3e a2 37 ec bd
       -0.21361476 -0.00630886 0.36141545 -0.115340486
0001d0 df 36 87 3e e7 7a cd 3c fe 41 51 3d e9 f8 2e be
       0.2640905 0.025083018 0.051088326 -0.17087139
0001e0 a1 5f fb bd 81 01 50 3e c0 77 d2 be 8a 70 18 3e
       -0.12274099 0.20313074 -0.41106987 0.1488668
0001f0 7a 48 84 be 47 4d 22 bd 6d 21 19 3d b0 8b f2 be
       -0.25836545 -0.03962448 0.037385393 -0.47372198
000200 f3 62 28 3e 83 eb bf 3e e0 71 93 3e 7c d2 a0 be
       0.16443996 0.3748437 0.28797817 -0.31410587
000210 00 75 97 bd 1b 1d 93 3e ca 3e f5 bd 05 ed 7c be
       -0.07395363 0.28733143 -0.11974867 -0.24699791
000220 08 43 17 bc 99 90 02 be 3e 03 51 be f6 7b ba 3d
       -0.00923229 -0.12750472 -0.20411393 0.09105675
000230 83 48 9a 3c 6a 19 62 be b4 6c 07 be 10 6d 7d bd
       0.018833404 -0.22080007 -0.1322506 -0.06187159
000240 c9 c0 ba 3e 75 e3 93 be 12 62 8c bd 78 1a cc 3e
       0.36475208 -0.28884473 -0.06854643 0.39863944
000250 1d df 33 3f 79 2f 93 bd 50 b0 e9 3c 4c 2c e7 3e
       0.7026232 -0.07186789 0.028526455 0.45150983
000260 19 88 ea bd 36 cb cf 3e 83 29 e0 be e2 98 bc be
       -0.1145174 0.40584725 -0.4378167 -0.3683539
000270 18 13 fc 3e 08 58 c0 be 7b 99 cf be 5a 39 13 3f
       0.49233317 -0.37567163 -0.40546784 0.57509387
000280 17 90 71 bd b0 68 7d 3e 98 03 78 3e 68 9a 54 3d
       -0.058975305 0.24746966 0.24220121 0.051905066
000290 49 e5 c3 bd c7 21 f3 3e ca b8 d0 bc 94 d3 05 3e
       -0.09565217 0.47486708 -0.02547874 0.13068992
0002a0 92 f2 c4 3e f4 d5 0d bf 57 b0 1c bf 24 6a eb 3e
       0.38466316 -0.5540459 -0.61206573 0.45979416
0002b0 fe 8e c6 bd 9d c1 0c 3f d3 19 12 3f 48 a5 92 3d
       -0.09695242 0.5498293 0.57070655 0.07160431
0002c0 11 9b c4 be 16 aa 58 3f 26 09 5c 3e ce 06 fa bd
       -0.38399556 0.8463453 0.21487865 -0.12208329
0002d0 6f 01 16 be 7f 0a 66 bd b1 7b de 3e 2e 9e 16 3e
       -0.14648984 -0.056162354 0.43453744 0.14708778
0002e0 f0 d3 8b 3d 8c cf 6f bd 21 7c c7 be 8f d0 e0 bd
       0.06827533 -0.05854754 -0.3896189 -0.109772794
0002f0 70 64 92 3c 28 24 c8 bd 09 b9 85 3e 22 02 ef bc
       0.017870158 -0.09772521 0.26117733 -0.029175822
000300 d1 50 6c bd 50 8a b1 bd 19 da 97 3e 73 c2 8d 3e
       -0.05769426 -0.08668959 0.29658583 0.27687415
000310 1c ae 39 3e d4 43 56 3e 73 cb cd 3d aa b4 62 3e
       0.18132824 0.20924312 0.100485705 0.2213923
000320 15 20 5b be 44 72 93 be 9d e3 59 3d 53 68 b4 3e
       -0.21398957 -0.28798115 0.053195585 0.35235843
000330 ad 41 66 bc c7 a9 1b 3e e7 64 60 3e b2 5e 84 bd
       -0.014053744 0.15201484 0.21913491 -0.06463374
000340 36 dc bf be 4e 92 28 3f 4d 05 41 3d 65 64 57 bd
       -0.37472695 0.65848243 0.047124196 -0.052585978
000350 9c 67 03 bf 6d 8b 08 bd 4c e5 15 be c8 61 c0 3e
       -0.5132997 -0.03333609 -0.14638251 0.375746
000360 3b 9c 42 3e b2 db 6c 3d f6 75 a0 be 76 c3 45 3f
       0.1900491 0.057826705 -0.31339997 0.77251375
000370 ff 32 eb 3d 95 7a c4 3d 15 f1 42 3f 4b 5c a1 3e
       0.11484336 0.09593693 0.7614911 0.31515726
000380 80 29 17 bf 28 ca 5e 3e b8 21 41 bf b6 7f ce be
       -0.590477 0.21756804 -0.75442076 -0.4033181
000390 b4 17 ce bd a5 6d 7c be 22 01 71 3e b2 cb 0c 3e
       -0.10063115 -0.24651201 0.23535588 0.13749579
0003a0 1f 7b 87 3e 73 ef 30 be 54 f8 2a 3e 1f 71 35 bc
       0.2646112 -0.17278843 0.16696292 -0.011074333
0003b0 8c 31 6a 3e 26 97 a1 be 71 6a fa bd b2 81 84 be
       0.22870463 -0.3156063 -0.12227333 -0.258802
0003c0 e5 ef 28 3f a4 04 47 3c e0 8d ee bd e5 49 f0 3e
       0.6599105 0.0121471025 -0.11648154 0.46931377
0003d0 a4 7f 74 3e 7d 42 18 be 45 12 c3 3e 26 d8 87 bc
       0.23876816 -0.14869113 0.38099876 -0.01658256
0003e0 06 65 fb be 53 0f c9 3e 98 58 db be 0e 87 12 bf
       -0.49100512 0.39269504 -0.4284103 -0.5723733
0003f0 4d be d6 3e 55 b9 1f bf fd 14 89 bf e0 6f 3b 3e
       0.41942063 -0.6239217 -1.070953 0.18304396

bias_ih_l0 f4 [36]
000000 c1 26 80 3d fb 89 f1 3d 00 7f ed 3d 90 67 a3 3e
       0.06257392 0.11793896 0.11596489 0.3191495
000010 65 f8 b1 3e a7 8b 83 bd bd cf e9 3e bb 80 6b 3e
       0.34759822 -0.06423121 0.45666304 0.22998326
000020 63 c0 01 3f e8 54 ee bd ea 8f c0 3e e4 c2 d7 3e
       0.50684184 -0.11637288 0.37609798 0.42140877
000030 9a 6c 80 be 7f 30 bd bc 67 bd be 3e e8 42 9f bc
       -0.25082856 -0.023094414 0.37253878 -0.019441083
000040 ac b3 25 bd d6 28 83 bc 3f 2d 60 3b 19 35 d0 be
       -0.04045455 -0.016010683 0.0034206656 -0.4066551
000050 3b e1 04 bf d6 62 cf 3e 97 12 fa bd e2 5b b6 3e
       -0.51906174 0.40505093 -0.12210577 0.35616976
000060 f9 f1 cb bd ab 8a bb bd 8e 76 48 3e 1b 0e 7c be
       -0.09958262 -0.09157308 0.19576475 -0.24614756
000070 7e 20 0b be 04 b5 2d 3e 76 f2 36 3e f3 aa 81 be
       -0.13586614 0.16963583 0.17865929 -0.25325736
000080 03 20 39 be 50 ab 9a be 19 9d ad bd 92 36 4e be
       -0.18078618 -0.30208826 -0.084772296 -0.20138004

bias_hh_l0 f4 [36]
000000 cf 23 05 be 54 87 a8 3e 50 31 50 be 25 32 83 3e
       -0.13001941 0.32915747 -0.20331311 0.25624195
000010 c8 c1 96 3e 7b 2d c3 3e 9d cc 02 3e 2d a5 80 3e
       0.29444718 0.38120636 0.12773366 0.2512602
000020 7e 43 07 bd 81 e3 e4 3d 58 9b d3 3e 39 a1 fd bd
       -0.03302335 0.111762054 0.41329455 -0.123842664
000030 8f e0 21 be d5 23 b3 3e 58 8f d0 3e c6 8b b2 be
       -0.15808319 0.34988275 0.40734363 -0.34872264
000040 42 56 8c be 0e f6 22 3e 00 38 c1 be 5c c6 6e be
       -0.2740956 0.15914175 -0.37738037 -0.23317856
000050 1d a5 58 be 01 95 04 3f a8 97 cc bd 75 ea ec 3e
       -0.21156736 0.5178986 -0.09989864 0.46272627
000060 ab 00 c0 3d e5 44 89 3d 05 dd 8e be a3 1f 3f 3e
       0.093751274 0.06702594 -0.27903 0.18664412
000070 88 59 24 be 01 a3 21 3e fb ce 23 be b8 5a 68 3e
       -0.16049778 0.15784837 -0.15996926 0.22690856
000080 64 40 34 3e 2b 13 6e 3e e3 75 30 be fa eb 48 3e
       0.17602688 0.232495 -0.1723247 0.19621268

weight f4 [3, 12]
000000 ad 54 bf 3d b9 76 22 3d a3 3c 01 3e 0f 5f 66 3e
       0.093423225 0.039664004 0.12620787 0.224972
000010 92 4e a3 3e e0 f6 9c 3e 95 05 88 be 87 1f 5a be
       0.31895882 0.306571 -0.2656676 -0.21301089
000020 d7 3c 2c be 10 35 ed bd 6d b6 12 bf 1f c9 44 bf
       -0.16820084 -0.115823865 -0.5730961 -0.76869386
000030 ea 57 1c bf ad 04 5d 3f 0a 40 e1 3e da 3d 51 bf
       -0.61071646 0.8633526 0.4399417 -0.81735003
000040 a2 0c db 3d fd fa 12 bf 57 34 68 bf e5 b7 cc be
       0.10695769 -0.5741423 -0.90704864 -0.3998405
000050 c1 ec df 3e f5 82 71 be 65 ce 77 bc 3d 58 11 3e
       0.43735316 -0.23585112 -0.015124892 0.14193816
000060 b5 d5 0b 3e 49 c1 46 be 7e 4f 96 bc a9 1f 3e be
       0.13655742 -0.1940967 -0.018348452 -0.18566765
000070 28 c9 c3 3d 76 af 00 bd e4 7e 95 be 28 30 4b be
       0.09559852 -0.031417333 -0.29198372 -0.19842589
000080 ac ac d7 be 4a a4 ad bc 18 24 39 3e 3f 57 20 3e
       -0.42123926 -0.021196503 0.18080175 0.15658282

bias f4 [3]
000000 c2 e5 e7 3d 4d 12 20 bd a1 9e 7e bc
       0.1132312 -0.039079953 -0.01554075

h0 f4 [1, 1, 12]
000000 e2 c2 f0 3e 14 35 10 bf 06 08 4a bf 84 f1 57 3d
       0.47023684 -0.5633099 -0.7891849 0.05272056
000010 a6 fe 6f bf 5c 93 92 3e aa 88 02 3f ab 2f 7c 3f
       -0.9374794 0.2862805 0.5098978 0.98510236
000020 ae 6c 61 bf 7e 56 20 3f 9d 69 32 3f ec 0f 06 3f
       -0.8805646 0.62631977 0.69692403 0.52368045
