Models/model_NetRNNWithAttention_0.model.pth (torch, 7449 bytes, 11 tensors)

weight f4 [3, 3]
0.8927381 1.1099975 4.750156 1.0841911 1.6694875 2.1878068 -0.27838537 -0.28367716
4.505788
00000000: 7c8a 643f 6614 8e3f 4701 9840 c6c6 8a3f
00000010: c4b1 d53f 0705 0c40 8788 8ebe 223e 91be
00000020: 6a2f 9040

bias f4 [3]
1.6935486 2.3264263 -0.5147631
00000000: 33c6 d83f 2be4 1440 84c7 03bf

weight f4 [3, 3]
-2.0510595 -2.3814201 -0.45389032 -2.0985286 -0.6340024 -0.88557166 -0.38700977 -4.5414658
-0.6121054
00000000: 8f44 03c0 3069 18c0 5064 e8be 4b4e 06c0
00000010: fb4d 22bf d3b4 62bf 2526 c6be b053 91c0
00000020: f1b2 1cbf

bias f4 [3]
0.40094408 -0.14442036 -0.36642262
00000000: 8b48 cd3e eee2 13be bf9b bbbe

weight f4 [3, 3]
-1.4868643 0.10530812 0.18541841 -1.4956491 -0.3495779 0.96765125 0.90641963 0.7564407
0.1498362
00000000: 9251 bebf c9ab d73d 53de 3d3e 6e71 bfbf
00000010: e0fb b2be feb7 773f 1e0b 683f 19a6 413f
00000020: a96e 193e

bias f4 [3]
0.4252125 0.25249034 -0.21762615
00000000: 74b5 d93e 6a46 813e 64d9 5ebe

weight_ih_l0 f4 [12, 3]
-1.542658 -2.6551204 -0.03141363 1.8417227 3.1612368 -1.2666867 1.5276425 3.05272
-0.38292348 -0.36051652 -1.004079 0.5237334 1.1930438 2.545374 -0.13410418 0.32567728
0.49932042 -0.26600778 0.3801401 0.3366312 -0.42317465 -1.0957366 -2.0828679 0.34712544
-1.7695992 -2.6282527 0.9593504 0.046539962 0.058152452 -0.25786775 0.8365133 1.4052652
0.008423562 -0.8874434 -2.2557209 -0.0106432745
00000000: d175 c5bf 7eed 29c0 94ab 00bd 92bd eb3f
00000010: b451 4a40 ca22 a2bf ca89 c33f c45f 4340
00000020: 8c0e c4be 9f95 b8be a985 80bf 6413 063f
00000030: a9b5 983f 68e7 2240 9b52 09be 2cbf a63e
00000040: eda6 ff3e 2c32 88be b9a1 c23e ed5a ac3e
00000050: 59aa d8be 1941 8cbf b54d 05c0 6dba b13e
00000060: 3a82 e2bf 4b35 28c0 fd97 753f b0a0 3e3d
00000070: 4431 6e3d 3e07 84be bc25 563f bbdf b33f
00000080: fb02 0a3c 7e2f 63bf bb5d 10c0 2161 2ebc

weight_hh_l0 f4 [12, 12]
-0.60683453 0.5756753 -0.02636658 -0.03734017 -0.051105294 -0.19453068 0.13508233 0.06059996
-0.16653621 -0.056702137 -0.17027614 -0.012433696 0.46094525 -0.07024952 -0.47261533 0.14089726
-0.62185425 0.1308499 0.21955064 -0.12522763 -0.10230002 0.7965864 0.29740587 0.36740232
0.36509752 -0.49465832 -0.31700185 0.50323707 -0.27656585 -0.13480043 0.44258696 0.012177757
-0.03969548 0.41519016 0.15178393 0.1460282 0.2551401 -0.5064343 0.13136843 0.06625202
-0.17481746 0.019501327 0.31916237 0.026532566 -0.20908459 0.6726039 0.09691301 0.100274816
0.040286794 -0.49200243 -0.06364708 0.56741416 -0.15147172 0.06960752 0.21550201 -0.086775355
0.4220588 0.32874283 0.04213798 -0.30669275 0.34053665 -0.09265038 -0.32672954 -0.19244893
-0.80380434 0.34157503 0.3440828 0.1623203 -0.022256643 0.009802101 -0.13933904 0.30858216
0.23916818 -0.041326314 -0.39399073 0.28555086 -0.14386685 0.4677051 0.21536702 0.30439126
0.10251431 0.41256607 -0.07610204 0.3370094 -0.44037476 0.5485012 0.4116052 -0.05167708
-0.003705924 0.12454007 -0.32900396 0.02670121 0.092529126 -0.4446503 -0.39203045 -0.33905813
-0.7170722 0.21177201 -0.033683192 -0.36802268 0.006430736 0.028761797 -0.3877781 0.10319698
-0.51208913 -0.6403669 -0.0779588 -0.55935997 0.7157806 0.25671113 -0.32239816 0.0019073252
-0.54124343 0.3666013 -0.13864203 0.18825845 0.21244162 0.43679336 0.04843194 0.42383257
0.39308476 -0.51322633 -0.116417415 0.38786775 -0.37845367 -0.0066351853 0.20946787 0.015245435
0.12274915 0.22859372 0.3567856 0.019539367 -0.16102785 0.14333487 0.26363307 -0.24864559
-0.34379584 -0.011810067 0.15164341 0.056112982 0.07458275 -0.21460447 -0.36373162 -0.28342983
00000000: 8259 1bbf 755f 133f bafe d7bc 02f2 18bd
00000010: c953 51bd 0d33 47be 0653 0a3e aa37 783d
00000020: 7888 2abe 8040 68bd de5c 2ebe b3b6 4bbc
00000030: 0401 ec3e fbde 8fbd a3fa f1be 5f47 103e
00000040: d731 1fbf 84fd 053e e2d1 603e ac3b 00be
00000050: ac82 d1bd 16ed 4b3f 9545 983e 281c bc3e
00000060: 10ee ba3e db43 fdbe 114e a2be 25d4 003f
00000070: 0a9a 8dbe 2009 0abe c29a e23e 3785 473c
00000080: ba97 22bd ce93 d43e 3f6d 1b3e 6b88 153e
00000090: b9a1 823e aea5 01bf 7285 063e 24af 873d
000000a0: 5903 33be 3fc1 9f3c 4069 a33e d35a d93c
000000b0: 451a 56be c52f 2c3f 547a c63d e25c cd3d
000000c0: c403 253d bee7 fbbe 6659 82bd 0e42 113f
000000d0: 671b 1bbe 638e 8e3d 8fac 5c3e 47b7 b1bd
000000e0: 1718 d83e fb50 a83e e098 2c3d d506 9dbe
000000f0: d25a ae3e 7cbf bdbd 1849 a7be 5511 45be
00000100: 1fc6 4dbf ece2 ae3e 9f2b b03e 4b37 263e
00000110: 9053 b6bc fe98 203c e5ae 0ebe 7bfe 9d3e
00000120: 81e8 743e c845 29bd 27b9 c9be b933 923e
00000130: d551 13be 0b77 ef3e 2c89 5c3e 2cd9 9b3e
00000140: 06f3 d13d dc3b d33e 63db 9bbd 7f8c ac3e
00000150: cd78 e1be 936a 0c3f ebbd d23e 59ab 53bd
00000160: 16df 72bb dd0e ff3d 3573 a8be 7fbc da3c
00000170: e97f bd3d 34a9 e3be 37b8 c8be 0799 adbe
00000180: 0b92 37bf c3da 583e 63f7 09bd 786d bcbe
00000190: ecb8 d23b dc9d eb3c da8a c6be f058 d33d
000001a0: 4618 03bf 16ef 23bf dda8 9fbd 3732 0fbf
000001b0: 663d 373f a46f 833e 5f11 a5be 37ff f93a
000001c0: ee8e 0abf 2ab3 bb3e 2df8 0dbe d3c6 403e
000001d0: 4c8a 593e 61a3 df3e 9260 463d 9500 d93e
000001e0: 6842 c93e cd62 03bf 416c eebd 9a96 c63e
000001f0: aec4 c1be f86b d9bb bf7e 563e fdc7 793c
00000200: e863 fb3d 7914 6a3e 9aac b63e 0611 a03c
00000210: 7ce4 24be 60c6 123e eafa 863e f39c 7ebe
00000220: 0206 b0be 037f 41bc 6948 1b3e bad6 653d
00000230: d7be 983d 46c1 5bbe 083b babe b71d 91be

bias_ih_l0 f4 [12]
-0.04049794 0.23858744 -0.20970288 -0.13600253 0.010177027 0.35092497 0.18158716 -0.13733447
-0.23403364 0.0820074 0.15780859 0.055708352
00000000: 2be1 25bd 4450 743e 5abc 56be 3f44 0bbe
00000010: 8cbd 263c 70ac b33e fcf1 393e 68a1 0cbe
00000020: 84a6 6fbe 7ff3 a73d 9398 213e 712e 643d

bias_hh_l0 f4 [12]
0.0511789 0.3543239 0.22739847 0.07728589 0.11162012 -0.042554144 -0.14231266 0.08312417
-0.10977559 -0.008734876 -0.05984034 0.12979159
00000000: f7a0 513d f169 b53e 25db 683e 1148 9e3d
00000010: 1799 e43d 414d 2ebd 69ba 11be 013d aa3d
00000020: 06d2 e0bd ba1c 0fbc 251b 75bd 16e8 043e

weight f4 [1, 12]
0.9918506 -2.1952872 -1.9262046 0.18495162 -1.7293575 -0.73589987 -0.6291607 1.990271
2.6116319 -0.35055855 -0.95709646 0.8922665
00000000: ece9 7d3f 967f 0cc0 df8d f6bf f563 3d3e
00000010: 965b ddbf ef63 3cbf ad10 21bf 33c1 fe3f
00000020: fa24 2740 697c b3be 4604 75bf 946b 643f
